outfiles/cnn/ORL32_7Train_cnn.pth (torch, 334655 bytes, 10 tensors)

conv_layer1.weight f4 [8, 1, 5, 5]
0.3024456 0.04469572 -0.053268258 -0.1639337 -0.073015995 0.34474182 0.07510627 -0.28253508
-0.09803342 -0.06265443 0.2999068 -0.021211369 -0.3064097 -0.1301963 -0.018882819 0.27340436
0.054762512 -0.34869614 0.09634543 0.2274457 0.03431646 0.03428824 -0.2624562 0.03916218
0.27274796 -0.08733207 0.09926765 0.12294343 0.16919832 -0.030691547 0.15154475 0.16256408
0.06049103 -0.063309565 -0.012587945 0.0138049675 -0.03879263 -0.11594946 -0.1263809 -0.13670012
-0.17667715 -0.21305878 -0.17567858 -0.043630425 -0.006637469 -0.12657285 0.06281505 0.12731597
0.17879099 0.14720686 -0.16901721 -0.21373904 -0.24547973 -0.11575611 -0.2413441 -0.06769449
0.017635189 -0.16959308 -0.31170747 -0.30412045 0.07666413 0.12270216 0.032754827 -0.011348164
0.050816514 0.18577805 0.12783562 0.20035806 0.14642061 0.08671256 0.13698667 0.11604924
0.25682423 0.044148155 0.07535156 -0.002786085 -0.00404041 0.0008430266 0.009084967 0.0048757335
0.006472091 -0.0120032355 0.006171937 0.0015232125 -0.01094225 0.0027011633 0.0017338089 -0.0104108695
-0.006403887 0.0005099854 -0.010542487 0.0012122652 -0.00468665 0.00804603 0.005862018 -0.007334495
-0.0029404939 -0.01164088 0.006991467 -0.009977314 -0.03953567 0.010479117 0.04104474 -0.041953184
0.061861645 -0.022058183 0.03771724 -0.031646878 -0.039738663 -0.044194374 -0.0009171611 -0.018329274
0.025748657 -0.033791926 0.046223544 0.00027746722 0.017976759 -0.03891231 -0.044865686 0.05560308
0.035127353 -0.03250583 -0.019285658 -0.019344913 0.042258687 -0.015801977 -0.1245541 -0.03866312
0.13557446 0.052621845 -0.028909437 -0.11122436 0.025768239 0.10022668 -0.020263445 -0.038439278
-0.14407471 -0.009077412 0.04540594 -0.022671727 0.081866585 -0.09526231 0.060189724 0.05749369
-0.011113798 0.091462195 0.048313696 0.035427988 0.10544682 -0.043484595 -0.04823795 -0.156676
-0.22298677 -0.00877231 0.16213182 -0.008721185 -0.3251623 -0.23459403 0.1593244 0.17463441
-0.11205333 -0.22999422 -0.056324314 0.043407187 0.27015266 0.024227478 -0.07802159 -0.08651686
0.21658929 0.24316686 0.05434111 -0.0008739484 0.05728588 0.16436516 0.23112229 0.0038076565
0.018674297 0.01964966 0.00888644 -0.024777057 0.026005335 0.025227843 0.045215897 0.016362648
-0.011286252 0.028541146 -0.00038436422 0.024637533 -0.022101782 -0.0053562857 -0.04962725 -0.052176528
0.004276449 0.002777379 0.007473233 -0.033953506 -0.021774633 -0.01861028 -0.0008791068 -0.016070122
00000000: 26da 9a3e dc12 373d d12f 5abd 3cde 27be
00000010: 6989 95bd 0082 b03e 51d1 993d 70a8 90be
00000020: bfc5 c8bd f750 80bd 628d 993e 77c3 adbc
00000030: bbe1 9cbe 2e52 05be 24b0 9abc a8fb 8b3e
00000040: a84e 603d 4d88 b2be c150 c53d 87e7 683e
00000050: 6b8f 0c3d d371 0c3d a960 86be 8668 203d
00000060: 9fa5 8b3e 28db b2bd d64c cb3d c4c9 fb3d
00000070: 5342 2d3e d76c fbbc 8c2e 1b3e 3377 263e
00000080: 71c5 773d 72a8 81bd ab3d 4ebc 3b2e 623c
00000090: 05e5 1ebd e976 edbd ff69 01be 1efb 0bbe
000000a0: dbea 34be 152c 5abe 16e5 33be d1b5 32bd
000000b0: 207f d9bb 509c 01be 2da5 803d 1e5f 023e
000000c0: fc14 373e 65bd 163e d912 2dbe 68de 5abe
000000d0: 0a5f 7bbe 8a11 edbd e822 77be 69a3 8abd
000000e0: ac77 903c cfa9 2dbe 1f98 9fbe adb5 9bbe
000000f0: 1502 9d3d 454b fb3d ed29 063d a6ed 39bc
00000100: fa24 503d 9a3c 3e3e 57e7 023e aa2a 4d3e
00000110: 49ef 153e 5b96 b13d 3c46 0c3e 39ab ed3d
00000120: 777e 833e b2d4 343d eb51 9a3d c096 36bb
00000130: 6a65 84bb 8ffe 5c3a 1dd9 143c 9ec4 9f3b
00000140: d613 d43b 38a9 44bc f63d ca3b 88a6 c73a
00000150: 1f47 33bc 0006 313b f940 e33a 5a92 2abc
00000160: b3d7 d1bb 8ab0 053a 65ba 2cbc dfe4 9e3a
00000170: 7892 99bb 7fd3 033c 2c16 c03b 3456 f0bb
00000180: 4db5 40bb 64b9 3ebc ad18 e53b e377 23bc
00000190: 28f0 21bd 9ab0 2b3c 871e 283d 1ad7 2bbd
000001a0: a362 7d3d 5db3 b4bc 657d 1a3d 28a0 01bd
000001b0: 02c5 22bd 2905 35bd a46d 70ba 4627 96bc
000001c0: d9ee d23c 6769 0abd e654 3d3d 0579 9139
000001d0: ff43 933c 8462 1fbd 15c5 37bd 0ec0 633d
000001e0: b3e1 0f3d d524 05bd f5fc 9dbc 3979 9ebc
000001f0: 7217 2d3d 2673 81bc 3816 ffbd 385d 1ebd
00000200: 08d4 0a3e 018a 573d 7cd3 ecbc 99c9 e3bd
00000210: ea17 d33c a543 cd3d 86ff a5bc 8172 1dbd
00000220: 5288 13be 6db9 14bc 94fb 393d 0fba b9bc
00000230: aba9 a73d e318 c3bd 8089 763d 817e 6b3d
00000240: a616 36bc 8850 bb3d 95e4 453d f01c 113d
00000250: 81f4 d73d e71c 32bd 2895 45bd ac6f 20be
00000260: a556 64be bcb9 0fbc e205 263e 4de3 0ebc
00000270: ac7b a6be 6b39 70be ef25 233e 5dd3 323e
00000280: 377c e5bd 9b83 6bbe 53b4 66bd bccb 313d
00000290: 7351 8a3e b478 c63c c9c9 9fbd c02f b1bd
000002a0: 95c9 5d3e bc00 793e c994 5e3d af19 65ba
000002b0: 99a4 6a3d 574f 283e 52ab 6c3e e089 793b
000002c0: d7fa 983c 53f8 a03c 6e98 113c 41f9 cabc
000002d0: 2409 d53c 9faa ce3c 4e34 393d f60a 863c
000002e0: f9e9 38bc 1fcf e93c 7e84 c9b9 a7d4 c93c
000002f0: cc0e b5bc c883 afbb f145 4bbd 0eb7 55bd
00000300: 7421 8c3b b004 363b 06e2 f43b d512 0bbd
00000310: b760 b2bc 9674 98bc dc73 66ba 7da5 83bc

conv_layer1.bias f4 [8]
0.0042703324 -0.011912696 0.00097516086 -0.0032569165 -0.007211592 0.007402505 -0.0073045343 0.0047616577
00000000: 25ee 8b3b 782d 43bc f0a1 7f3a fe71 55bb
00000010: 384f ecbb b690 f23b e05a efbb ae07 9c3b

conv_layer2.weight f4 [16, 1, 5, 5]
0.039529853 0.089854755 0.07737492 0.0850128 0.17090076 -0.17064865 -0.0717856 -0.18951103
-0.08303795 0.20300584 -0.07694469 0.025012959 -0.285179 0.03683316 0.19882612 0.009815233
-0.04845392 -0.33448038 0.11052703 0.24149361 -0.025071422 0.05370905 -0.15935184 0.101606674
0.0029218434 0.05379734 0.01665596 0.07890085 -0.21934672 0.02543786 -0.114849456 0.13341609
0.103738815 -0.20666115 0.13137074 -0.16775951 0.14914012 -0.057072423 -0.21413249 0.13954687
-0.036832184 -0.09177566 -0.17100234 0.048610266 0.37517175 0.062096536 -0.12015713 -0.1455799
-0.030779842 0.3403153 0.0056767436 0.06742938 0.064358406 0.10559775 0.04081732 0.0651361
0.06880228 0.092285216 0.08608849 0.019581828 -0.028731916 -0.023259467 -0.04308716 -0.049050465
-0.062594384 0.026285311 -0.008677016 -0.012063979 -0.044538315 -0.050294295 -0.03540515 -0.032022115
-0.014663588 -0.046878695 -0.039750107 -0.070233226 -0.052344855 -0.031536456 -0.080999345 -0.06981354
-0.06727771 -0.044991344 0.042628035 0.13821827 0.18627132 -0.04599413 -0.027869252 0.04525559
0.25685486 0.29147652 -0.016674615 -0.053667042 0.10821241 0.160144 0.13642988 -0.05916486
-0.031203683 0.007402457 -0.029050978 -0.014546997 -0.2734594 -0.057616986 0.14455484 0.220161
0.21479917 -0.0759306 -0.06616201 -0.0044094194 0.1257895 0.1936242 -0.0021191994 -0.057933185
-0.030112421 -0.019394906 0.04468022 0.027099712 0.033487383 -0.037682585 -0.09979383 -0.1090401
-0.098259814 -0.05903049 -0.10420593 -0.06397984 -0.09914723 -0.029997502 -0.027967671 -0.08133171
-0.074939206 0.003553657 -0.0563597 0.03850576 -0.030364439 0.007870055 -0.019266294 0.043410942
0.3823257 0.38765755 0.13507429 -0.04075306 0.051287457 0.28335637 0.29724625 0.116338655
-0.023959354 -0.09782555 -0.101816095 -0.08947284 0.009881839 -0.043801878 -0.003811283 0.0019410828
-0.008914862 0.011757752 -0.0092658745 -0.0021118007 -0.010980812 -0.0068780193 0.0024244124 0.009485551
-0.00045426513 -0.0011700937 -0.012122656 -0.004448549 0.0041843154 -0.011652973 0.0005693779 0.0061042737
0.0072315005 -0.004309152 0.0006940584 0.0057258788 -0.011286283 -0.010595915 0.010915945 -0.008574523
0.0013774635 -0.000639059 -0.007467465 -0.012121054 0.0040425966 0.00081110577 -0.000421509 -0.00051549845
-0.007999847 -0.004300568 0.0054918313 -0.011962525 -0.002943524 -0.010136308 -0.010783617 0.011220101
-0.0054768235 0.00988168 -0.009806773 -0.00863871 -0.0034171385 -0.003087243 -0.0059401873 0.009991846
-0.015318325 -0.014646672 0.039022025 0.044413604 0.015301059 -0.0019027501 -0.008134698 -0.0037873657
-0.0042229216 -0.0036214818 0.0024323093 -0.009147148 -0.008412759 -0.011838998 -0.0111894 -0.011984815
0.007840857 -0.009564448 0.013668139 -0.008340712 0.009936377 -0.011076721 -0.001256336 0.013532369
0.0035211572 0.0121184625 -0.01752367 0.04185376 0.053218503 0.018043516 0.006230903 0.017563896
0.01845223 0.038313266 -0.0009343784 -0.022168113 -0.023328427 0.028814385 0.026455684 -0.01979285
-4.744043e-06 -0.031973224 -0.0037047374 0.0077860937 -0.019250965 0.009722387 -0.01709208 -0.023851149
-0.0061026607 -0.0068722167 -0.103884384 -0.13293388 0.07557853 0.06388867 -0.020540824 -0.07622111
00000000: 0eea 213d c505 b83d be76 9e3d 311b ae3d
00000010: 9c00 2f3e 85be 2ebe 5404 93bd 2e0f 42be
00000020: cd0f aabd c3e0 4f3e 2d95 9dbd fae7 cc3c
00000030: fb02 92be 5ede 163d 1399 4b3e 12d0 203c
00000040: 9e77 46bd 0341 abbe ff5b e23d 1a4a 773e
00000050: 9562 cdbc 05fe 5b3d 212d 23be 2917 d03d
00000060: 667c 3f3b 995a 5c3d 1472 883c c596 a13d
00000070: 6d9c 60be 0f63 d03c 3136 ebbd 3a9e 083e
00000080: 0475 d43d fb9e 53be 0d86 063e 26c9 2bbe
00000090: 30b8 183e c6c4 69bd 8c45 5bbe 60e5 0e3e
000000a0: 58dd 16bd e1f4 bbbd 3d1b 2fbe 8f1b 473d
000000b0: 8316 c03e f058 7e3d f114 f6bd e612 15be
000000c0: 0226 fcbc cf3d ae3e fa03 ba3b 6a18 8a3d
000000d0: 57ce 833d a243 d83d 1030 273d 1366 853d
000000e0: 36e8 8c3d 0800 bd3d 2a4f b03d 126a a03c
000000f0: 325f ebbc a38a bebc 297c 30bd 24e9 48bd
00000100: 7c31 80bd 4b54 d73c 0b2a 0ebc ffa7 45bc
00000110: cf6d 36bd 6401 4ebd fe04 11bd 9f29 03bd
00000120: 8c3f 70bc e003 40bd 02d1 22bd 70d6 8fbd
00000130: 8f67 56bd 5f2c 01bd fce2 a5bd 67fa 8ebd
00000140: e5c8 89bd d848 38bd bc9a 2e3d 1789 0d3e
00000150: e9bd 3e3e 5764 3cbd 0f4e e4bc ed5d 393d
00000160: 7b82 833e 693c 953e 3499 88bc f9d1 5bbd
00000170: 789e dd3d cafc 233e 46b4 0b3e da56 72bd
00000180: de9e ffbc 4f90 f23b 51fc edbc 8756 6ebc
00000190: df02 8cbe caff 6bbd 2f06 143e e371 613e
000001a0: 50f4 5b3e 8181 9bbd f37f 87bd e47c 90bb
000001b0: f6ce 003e 6c45 463e 44e2 0abb 594b 6dbd
000001c0: 53ae f6bc 11e2 9ebc 9b02 373d 3700 de3c
000001d0: 112a 093d 0e59 1abd b560 ccbd 6a50 dfbd
000001e0: 713c c9bd f5c9 71bd eb69 d5bd dd07 83bd
000001f0: b40d cbbd 52bd f5bc 751c e5bc 3d91 a6bd
00000200: ba79 99bd 79e4 683b 6ed9 66bd 37b8 1d3d
00000210: d8be f8bc 67f1 003c 59d4 9dbc accf 313d
00000220: 32c0 c33e 0d7b c63e ea50 0a3e aeec 26bd
00000230: cc12 523d 1614 913e a930 983e f642 ee3d
00000240: 6846 c4bc c358 c8bd f584 d0bd 893d b7bd
00000250: 70e7 213c 9969 33bd b8c6 79bb ee6b fe3a
00000260: a40f 12bc 96a3 403c e5cf 17bc 2366 0abb
00000270: dde8 33bc 0261 e1bb e4e2 1e3b 4969 1b3c
00000280: 6f2a eeb9 d45d 99ba 1b9e 46bc 22c5 91bb
00000290: 951c 893b 1cec 3ebc 4e42 153a 5c06 c83b
000002a0: 39f6 ec3b c933 8dbb 79f1 353a 27a0 bb3b
000002b0: 1aea 38bc 7d9a 2dbc cbd8 323c 287c 0cbc
000002c0: 018c b43a 8686 27ba a3b1 f4bb 6397 46bc
000002d0: c277 843b 63a0 543a fbfd dcb9 8422 07ba
000002e0: ca11 03bc c7eb 8cbb d2f4 b33b 77fe 43bc
000002f0: 23e8 40bb c212 26bc c5ad 30bc 84d4 373c
00000300: ed76 b3bb c5e6 213c 96ac 20bc 6089 0dbc
00000310: 12f2 5fbb 5853 4abb e7a5 c2bb d7b4 233c
00000320: b6f9 7abc 98f8 6fbc 8fd5 1f3d 0aeb 353d
00000330: 4bb1 7a3c b365 f9ba 6547 05bc 7435 78bb
00000340: 6f60 8abb 6256 6dbb 6167 1f3b ebdd 15bc
00000350: abd5 09bc 5bf8 41bc bf53 37bc f55b 44bc
00000360: f076 003c 34b4 1cbc 55f0 5f3c 7ba7 08bc
00000370: 30cc 223c 237b 35bc a4ab a4ba dfb6 5d3c
00000380: 37c3 663b 848c 463c cd8d 8fbc d96e 2b3d
00000390: a5fb 593d ffcf 933c 9a2c cc3b 29e2 8f3c
000003a0: 2229 973c 5fee 1c3d 13f1 74ba e799 b5bc
000003b0: 421b bfbc 250c ec3c 97b9 d83c 9d24 a2bc
000003c0: 052f 9fb6 5bf6 02bd 2ecb 72bb 7d22 ff3b
000003d0: 33b4 9dbc a64a 1f3c b104 8cbc 7c63 c3bc
000003e0: d4f8 c7bb 5530 e1bb 56c1 d4bd d21f 08be
000003f0: ebc8 9a3d 10d8 823d 3b45 a8bc d019 9cbd

conv_layer2.bias f4 [16]
-0.013913493 0.00025823712 -0.004527471 -0.0247578 -0.024417657 -0.026002156 0.00023210615 0.0052441433
-0.0028102132 0.0036291261 -0.015766265 -0.00019546374 -0.0003587615 -0.013323971 0.004108313 -0.005039901
00000000: 6bf5 63bc 0064 8739 2e5b 94bb dfd0 cabc
00000010: 8a07 c8bc 7902 d5bc 8561 7339 10d7 ab3b
00000020: 8e2b 38bb a2d6 6d3b 4128 81bc 66f5 4cb9
00000030: 2718 bcb9 c94c 5abc 079f 863b c125 a5bb

fc1.weight f4 [120, 576]
0.016445844 0.030400911 0.0090010725 -0.009981332 0.023268875 0.008501373 0.033430584 0.030378787
-0.00015696208 -0.0394596 -0.014149269 0.010169491 0.049663488 0.015415691 -0.007472083 0.035644546
-0.061222874 0.019204782 0.055685274 -0.028879575 0.015429063 0.053003445 -0.044381257 -0.002412605
0.03138601 -0.032612044 -0.02200312 -0.0056549767 0.007473307 0.004776865 0.012551668 -0.01038754
0.019576816 -0.0147554055 0.04192422 -0.022115659 -0.02861856 0.0410059 0.0018829681 -0.012883889
-0.019550782 0.011412568 -0.014052909 0.013829244 -0.050328683 -0.002684163 -0.041852638 0.03384115
-0.01170421 -0.022823561 0.009936784 0.028339956 -0.03737682 0.04095323 -0.0047781095 -0.020139504
0.010574233 0.008976322 0.048695356 0.0011445226 -0.042306226 0.0057121282 -0.020142615 -0.039219853
0.048994813 0.051098354 -0.023601158 0.010031641 0.0103819575 -0.0036540392 -0.0032035904 0.018350692
-0.00477241 -0.007924895 -0.0053534117 0.0002661095 0.0037766127 0.011873053 -0.0056011155 -0.0058148345
0.0024870988 0.014760596 0.013198292 -0.00363983 -0.007433035 0.0073240222 0.006249028 -0.010960987
-0.020997468 -0.0113399085 -0.009114463 -0.008669467 -0.011783274 -0.0051258714 0.004373944 0.012047636
-0.00044266187 0.0008402712 0.00355845 0.005749542 0.0077910386 0.004814451 -0.01735784 -0.012187878
-0.008981099 0.0040900637 -0.004631457 6.355045e-06 -0.017026002 -0.007221256 0.014011281 0.019964911
0.0110976705 0.0015672605 -0.0038845544 0.01406181 -0.0050785756 -0.005078398 -0.0342902 -0.022756243
-0.0037264542 0.0077560777 -0.018724015 0.012942896 0.02331419 6.537682e-05 0.016272731 0.0051989327
0.0062861787 0.018756341 0.024291668 0.0010333884 -0.009568506 -0.0012039426 0.016345762 0.01265816
0.012802127 0.010044213 -0.012299095 -0.009482586 0.0006453137 0.013972315 0.037527576 0.033066466
-0.02063668 -0.0077279615 -0.02275158 -0.01648472 0.029853152 0.012387956 -0.022655224 -0.02654494
-0.015499635 0.0049174023 0.053280197 0.069744684 0.019026726 -0.008737565 0.024423031 0.03635008
0.0029149046 0.0016839559 0.023933306 -0.029954456 -0.0017481437 0.020545503 -0.003966286 -0.010190076
0.0053267735 -0.0027242394 -0.03180959 0.0016173754 0.011039719 -0.006845599 0.0052479603 0.0038016064
-0.013920907 -0.024277668 -0.017486554 -0.0043973452 -0.0117647555 -0.031993598 -0.0247046 -0.038128022
-0.007244116 0.052567378 0.020608338 0.0063489014 -0.010650206 0.018869366 0.04936983 0.009550895
0.038969237 0.02445898 -0.014038605 -0.020323081 -0.012235004 -0.0053627207 -0.0042686723 0.0011745142
-0.0091097085 -0.010982664 -0.009314497 0.0046318644 0.03078113 0.01930057 0.013428963 -0.012022993
-0.019384142 -0.026630158 0.005451852 -0.013487768 -0.01374254 -0.024388222 -0.040131334 -0.009293987
-0.0009246422 0.0015648883 -0.0024793379 0.002000078 0.002043923 0.0011060487 -0.001977172 0.0013263194
0.0016485485 0.0018255821 -0.0003694992 -0.001828274 0.0019406726 0.0017017027 -0.00095975323 -0.0013388094
-0.0013451235 0.0008655753 -0.00163055 0.00020401865 0.0005325125 0.000497558 0.0009792104 -0.0013438117
-0.0014467273 0.0013905115 -0.0021622633 0.00012625131 0.0017338168 -0.00021420597 0.0017539584 0.0020599584
-0.0022620896 -0.0023250745 -0.00091105665 0.0017726605 0.0007203012 -0.0015698161 -0.0013872581 -0.00014433339
00000000: 6fb9 863c 550b f93c 3c79 133c be88 23bc
00000010: 5e9e be3c 5849 0b3c 82ee 083d efdc f83c
00000020: 3096 24b9 64a0 21bd 56d2 67bc f09d 263c
00000030: f16b 4b3d 1892 7c3c 60d8 f4bb 0400 123d
00000040: d6c4 7abd 5953 9d3c 3e16 643d dc94 ecbc
00000050: 2eca 7c3c 241a 593d 1fc9 35bd cc1c 1ebb
00000060: 9e8e 003d 3594 05bd e33f b4bc 624d b9bb
00000070: a5e2 f43b 3f87 9c3b 83a5 4d3c 8030 2abc
00000080: 8f5f a03c a8c0 71bc bbb8 2b3d e62b b5bc
00000090: 7871 eabc cdf5 273d edcd f63a f216 53bc
000000a0: f628 a0bc c8fb 3a3c 2c3e 66bc 0e94 623c
000000b0: 7325 4ebd c8e8 2fbb ac6d 2bbd 059d 0a3d
000000c0: 04c3 3fbc 7af8 babc e5cd 223c 3229 e83c
000000d0: 7018 19bd 93be 273d b091 9cbb 9afb a4bc
000000e0: 8c3f 2d3c 6c11 133c c874 473d ce03 963a
000000f0: 4b49 2dbd ce2c bb3b 2002 a5bc ffa4 20bd
00000100: c9ae 483d 824c 513d 3757 c1bc c15b 243c
00000110: 1619 2a3c 9b78 6fbb 54f3 51bb 3154 963c
00000120: e061 9cbb 6bd7 01bc ac6b afbb 9d84 8b39
00000130: 0c81 773b 3287 423c 9089 b7bb 5e8a bebb
00000140: 98fe 223b 6dd6 713c a63d 583c 378a 6ebb
00000150: d190 f3bb 5afe ef3b a5c4 cc3b b695 33bc
00000160: e202 acbc 06cb 39bc d454 15bc 610a 0ebc
00000170: a20e 41bc edf6 a7bb 4d53 8f3b 7363 453c
00000180: 1215 e8b9 a545 5c3a e234 693b a766 bc3b
00000190: f84b ff3b 8bc2 9d3b 0732 8ebc aaaf 47bc
000001a0: 7625 13bc f105 863b 7ac3 97bb 6c3d d536
000001b0: 1d7a 8bbc 49a0 ecbb 928f 653c 748d a33c
000001c0: 01d3 353c 896c cd3a 0294 7ebb 8263 663c
000001d0: 2e6a a6bb b168 a6bb e173 0cbd 4d6b babc
000001e0: 8737 74bb b226 fe3b 1b63 99bc 710e 543c
000001f0: 66fd be3c ea1a 8938 644e 853c cf5b aa3b
00000200: 4afc cd3b e6a6 993c 52ff c63c c372 873a
00000210: 39c5 1cbc 9ccd 9dba 8ce7 853c 2c64 4f3c
00000220: 03c0 513c 7c90 243c 2582 49bc d95c 1bbc
00000230: 452a 293a 23ec 643c 84b6 193d b470 073d
00000240: 410e a9bc d73a fdbb 8661 babc f70a 87bc
00000250: 998e f43c daf6 4a3c 7397 b9bc c674 d9bc
00000260: 2ef2 7dbc 2922 a13b 563c 5a3d 4dd6 8e3d
00000270: f0dd 9b3c 0128 0fbc cf12 c83c d2e3 143d
00000280: fc07 3f3b 2fb8 dc3a c80f c43c 0c63 f5bc
00000290: f821 e5ba 0b4f a83c 9ef7 81bb 47f4 26bc
000002a0: 378c ae3b 2789 32bb c64a 02bd 1dfe d33a
000002b0: f0df 343c 0c51 e0bb 15f7 ab3b 5f24 793b
000002c0: 8414 64bc f6e1 c6bc f63f 8fbc 9b17 90bb
000002d0: f6c0 40bc b80b 03bd 4d61 cabc 212c 1cbd
000002e0: 0d60 edbb e450 573d d1d2 a83c 720a d03b
000002f0: 347e 2ebc ee93 9a3c 0538 4a3d 5b7b 1c3c
00000300: 359e 1f3d 335e c83c 2d02 66bc 977c a6bc
00000310: 5475 48bc c3b9 afbb 38e0 8bbb 28f2 993a
00000320: e340 15bc a2f0 33bc d59b 18bc e5c6 973b
00000330: b528 fc3c 3b1c 9e3c 2705 5c3c 16fc 44bc
00000340: 7ecb 9ebc 7d27 dabc 73a5 b23b cdfb 5cbc
00000350: 6428 61bc cfc9 c7bc c160 24bd cf45 18bc
00000360: b063 72ba f01c cd3a 637c 22bb be13 033b
00000370: 56f3 053b d6f8 903a 7193 01bb e5d7 ad3a
00000380: 1c14 d83a 5f48 ef3a 58b9 c1b9 b2a2 efba
00000390: 2b5e fe3a ab0b df3a f397 7bba fd7a afba
000003a0: db4e b0ba c6e7 623a 2eb8 d5ba d7ed 5539
000003b0: 4f98 0b3a 8d6e 023a d958 803a d722 b0ba
000003c0: 1da0 bdba d341 b63a c2b4 0dbb 5462 0439
000003d0: 3d41 e33a 7a9c 60b9 14e5 e53a 5e00 073b
000003e0: 913f 14bb 4760 18bb fad3 6eba 9e58 e83a
000003f0: 98d2 3c3a 4ac2 cdba a8d4 b5ba 3358 17b9

fc1.bias f4 [120]
-0.00029879055 0.0005989739 -0.0050163995 -0.0012794875 -0.0039014092 -0.00238582 -0.0029917406 -0.0022343928
-0.002494656 0.0020951251 -0.00014262703 0.001105734 -0.00032121842 -0.0032287138 -0.002680138 -0.001117809
-0.0035144445 -0.0013954836 0.00028559766 -6.0054448e-05 -0.00040215216 0.0004629254 0.0021778157 -0.003003745
-0.0008130761 -0.0010983595 -0.00016053826 -9.3154886e-05 0.0019021777 -0.00019643694 -0.0024822627 -0.0023014052
-0.00019238073 -0.0012538808 -0.0011515003 -0.0009888574 -0.0051271026 0.0037134318 -0.0014954791 -0.0040465826
-0.00092898 -1.6806247e-05 0.0006376344 -0.002774651 -0.0019705365 -0.002585703 -6.0608934e-05 -0.0021194802
-0.0025158713 -0.001733987 -0.003440071 -0.00019368509 -0.0014849318 -0.0034811802 0.00066106964 -2.3844817e-05
-0.0008359297 -0.00054261764 -0.0024119895 -0.00229273 -0.0027773764 -0.001602421 -0.0013292506 -0.0011147148
-0.0026386217 0.0011909234 -0.0023589372 0.0015044718 -0.0035809656 0.00091496436 -0.0015846711 -0.0030554275
0.00044770062 -0.0033336354 -0.0005627838 -0.0014162097 0.00020849574 -0.0017684713 -0.00076751865 -0.0017512582
3.98367e-05 -0.0024270979 -0.0038514552 0.001254452 -0.00023611517 -0.002027962 0.0017759324 0.0010774836
-0.0050098673 -0.0030671565 -8.475797e-05 0.0008266959 0.00041579266 -0.0005832706 -0.005031541 -0.0050317785
0.001158979 -0.0030251236 -0.0021231016 0.00087196106 -0.0028732812 -0.0037021495 0.0014576791 -0.0017789471
0.00013228675 0.002244817 0.0023316818 -0.0012374574 -0.0028053434 -0.00011658429 0.001137935 -0.0012668594
-0.002736712 -0.0031917444 -0.0008518917 0.000999896 -0.0005476993 0.00012365128 -0.002246264 -0.0014689973
00000000: fda6 9cb9 7504 1d3a 9c60 a4bb 7ab4 a7ba
00000010: c9ae 7fbb 6b5b 1cbb 1411 44bb e46e 12bb
00000020: 627d 23bb 5e4e 093b 278e 15b9 47ee 903a
00000030: 3569 a8b9 d498 53bb 41a5 2fbb 7283 92ba
00000040: 9852 66bb a9e8 b6ba 45bc 9539 f9e2 7bb8
00000050: f3d7 d2b9 ccb4 f239 afb9 0e3b 7bda 44bb
00000060: 9d24 55ba d4f6 8fba 2956 28b9 265c c3b8
00000070: 7e52 f93a a4fa 4db9 75ad 22bb 2cd3 16bb
00000080: cfb9 49b9 4259 a4ba f0ed 96ba 8c9c 81ba
00000090: 4101 a8bb 0c5d 733b f403 c4ba 3299 84bb
000000a0: cb86 73ba 24fb 8cb7 ec26 273a ebd6 35bb
000000b0: 1e24 01bb e674 29bb 5936 7eb8 fae6 0abb
000000c0: 51e1 24bb f346 e3ba d072 61bb f217 4bb9
000000d0: 0ba2 c2ba 8324 64bb a24b 2d3a 5b06 c8b7
000000e0: 4b22 5bba 743e 0eba 7812 1ebb a041 16bb
000000f0: a504 36bb 5408 d2ba 403a aeba 9f1b 92ba
00000100: baec 2cbb c218 9c3a 6698 1abb b231 c53a
00000110: a2ae 6abb 38da 6f3a bdb4 cfba 913d 48bb
00000120: 5cb9 ea39 1f79 5abb c887 13ba 1da0 b9ba
00000130: a69f 5a39 0dcc e7ba 4e33 49ba 798a e5ba
00000140: 5516 2738 f20f 1fbb b268 7cbb 6d6c a43a
00000150: af95 77b9 8ee7 04bb 67c6 e83a 5a3a 8d3a
00000160: d029 a4bb 5902 49bb 17c0 b1b8 9fb6 583a
00000170: bffe d939 a1e6 18ba a0df a4bb 9ee1 a4bb
00000180: e2e8 973a 2741 46bb bc23 0bbb 5194 643a
00000190: a94d 3cbb c39f 72bb 980f bf3a 8f2b e9ba
000001a0: 74b6 0a39 c81d 133b 21cf 183b 2e32 a2ba
000001b0: dad9 37bb b77e f4b8 c326 953a bf0c a6ba
000001c0: 695a 33bb 962c 51bb 7c51 5fba f10e 833a
000001d0: 7a93 0fba 63a8 0139 0e36 13bb 5f8b c0ba

fc2.weight f4 [80, 120]
0.011061529 0.0018766127 0.016745443 -0.002878798 -0.03593383 -0.002141492 0.01705633 -0.04240987
0.010537461 0.045189165 -0.0037763065 0.04191675 -0.023425153 0.03529439 0.03265565 -0.010702182
0.004374144 -0.008662668 0.01787375 0.006556628 0.05504284 -0.0064735855 -0.0021681439 -0.011129595
0.011296672 -0.049211435 -0.016779454 0.004805819 0.020730255 -0.008070833 -0.011249721 0.015866552
0.035735175 0.029302992 0.057770625 -0.002219236 -0.016633885 0.027018014 -0.02488767 -0.008994794
-0.047842164 0.033326358 -0.004072362 -0.044473745 0.0026171333 -0.025074637 -0.010597243 0.0048961868
0.028704835 -0.041664496 -0.039637588 0.003115351 0.016568879 -0.011231326 -0.0005864327 -0.010007168
-0.00011538171 0.020377798 0.0032178045 -0.0037367418 -0.047556277 0.010904889 0.03531848 -0.017577356
0.061272778 0.018961482 -0.0102689285 -2.2493963e-05 -0.053905837 -0.026167316 0.05287545 -0.0077373493
0.033544987 0.04057213 0.0020729299 -0.045249194 -0.011995538 0.019527948 0.010171113 -0.008203403
0.059018146 -0.0032295934 -0.01396967 -0.001048811 0.005481195 -0.04591225 0.05995496 -0.01419147
0.019228892 0.0028230792 -0.02311166 0.03215173 0.042622853 0.003818219 -0.03793912 -0.003207415
-0.004290271 -0.011732338 -0.015193604 0.027519679 -0.0049251737 0.006235142 0.0043352456 0.017574416
-0.008969752 0.053904984 -0.018287184 -0.03019437 0.022206409 0.06292008 -0.016664227 0.013306076
0.023979327 0.016590567 -0.0016153597 0.0139166135 0.010829334 0.012344989 -0.014150151 0.029211089
-0.024081279 0.0020400211 -0.051742386 0.0041665128 -0.05867843 -0.0002782458 -0.02605549 0.027411034
0.0039202664 0.02089336 0.012519375 -0.02676588 -0.03412944 -0.008384726 -0.02842298 0.037353616
0.0065121427 0.046086714 0.018702842 -0.027440358 -0.017828584 0.024168694 -0.0151949 0.007483682
0.004187696 -0.017850878 -0.010726117 -0.013583964 -0.02691704 -0.0007282688 0.06529954 -0.009849332
0.0049334946 -0.038737778 -0.0041211494 -0.010158754 -0.008011558 -0.064582385 -0.016933009 0.008317964
0.04620952 -0.0014016976 0.0005130284 -0.019147525 0.007846531 -0.020929577 -0.0017683159 0.07713009
-0.0014104287 0.037116244 -0.03330995 -0.030099554 0.0054032714 0.03931167 -3.4504337e-05 0.037970137
-0.003929886 0.019127559 -0.0034762667 -0.03228917 -0.031937875 0.035994463 -0.004957748 0.047297545
0.020285966 -0.016468115 -0.0032499419 0.0023016832 -0.04309158 0.028826322 -0.0010834021 0.050185498
0.02393801 -0.022481881 0.003368055 0.034139004 0.020718358 0.04790207 0.05342629 9.9686134e-05
0.010952279 0.0043495423 0.0020195772 -0.0024946188 -0.0005377423 -0.02197726 0.028179865 0.00147639
0.022697583 0.017634183 0.027077477 -0.008320351 0.055476233 0.014335805 0.062290337 0.02931216
-0.004004442 -0.020473747 -0.0005251889 0.0340337 0.06166764 0.020463798 0.0046287007 -0.03318944
-0.054510586 0.033424586 -0.032086696 0.007433164 0.011734424 0.0027108327 -0.025738996 0.0064832605
0.018804127 -0.025963888 -0.0018579015 0.015228462 0.024330867 -0.0085294 0.0482855 -0.037087247
-0.0118982885 -0.00042573246 -0.012421192 0.00668358 0.010581138 -0.0047467253 -0.06452396 0.00782022
0.0012890241 0.08551514 -0.00464007 -0.029338693 0.014823809 -0.00039811627 -0.029075792 0.07142555
00000000: 6a3b 353c acf8 f53a bd2d 893c 37aa 3cbb
00000010: 5a2f 13bd 4658 0cbb b7b9 8b3c f9b5 2dbd
00000020: 51a5 2c3c 4618 393d e97b 77bb e6b0 2b3d
00000030: 1be6 bfbc da90 103d eec1 053d 3458 2fbc
00000040: fb54 8f3b dded 0dbc f86b 923c fbd8 d63b
00000050: 9a74 613d 5f20 d4bb 6b17 0ebb e858 36bc
00000060: ad15 393c ee91 49bd 1175 89bc 227a 9d3b
00000070: 7fd2 a93c 873b 04bc c050 38bc 92fa 813c
00000080: 0c5f 123d d40c f03c e4a0 6c3d 9a70 11bb
00000090: c943 88bc e254 dd3c 3ae1 cbbc e75e 13bc
000000a0: 25f6 43bd 3881 083d 7371 85bb 1a2a 36bd
000000b0: 3684 2b3b 5369 cdbc 0fa0 2dbc 3170 a03b
000000c0: 6726 eb3c 64a8 2abd 065b 22bd eb2a 4c3b
000000d0: 75bb 873c 9803 38bc d5ba 19ba 1bf5 23bc
000000e0: 15f9 f1b8 57ef a63c cde1 523b 20e4 74bb
000000f0: 5fca 42bd 6baa 323c 1caa 103d 63fe 8fbc
00000100: 2af9 7a3d 1c55 9b3c 023f 28bc 6bb1 bcb7
00000110: 5ecc 5cbd d75c d6bc ee93 583d 9789 fdbb
00000120: 7866 093d f62e 263d fed9 073b 3857 39bd
00000130: ef88 44bc 13f9 9f3c bda4 263c 9167 06bc
00000140: 03bd 713d 96a7 53bb 0be1 64bc 4278 89ba
00000150: 999b b33b 7c0e 3cbd 5593 753d 5783 68bc
00000160: e985 9d3c 6903 393b aa54 bdbc 88b1 033d
00000170: 4d95 2e3d 163b 7a3b 0d66 1bbd 7f33 52bb
00000180: 6795 8cbb fe38 40bc 98ee 78bc f370 e13c
00000190: 5a63 a1bb 2950 cc3b ad0e 8e3b 39f8 8f3c
000001a0: def5 12bc 79cb 5c3d 01cf 95bc 2f5a f7bc
000001b0: 37ea b53c 3edc 803d 6b83 88bc ba01 5a3c
000001c0: 4b70 c43c f1e8 873c 7aba d3ba 8202 643c
000001d0: 856d 313c a342 4a3c 09d6 67bc 184c ef3c
000001e0: 1a46 c5bc e0b1 053b d3ef 53bd 3e87 883b
000001f0: cb58 70bd 85e1 91b9 5372 d5bc 1b8d e03c
00000200: 9475 803b 8d28 ab3c 111e 4d3c 1e44 dbbc
00000210: 50cb 0bbd 1760 09bc 4fd7 e8bc 1b00 193d
00000220: d063 d53b 6cc5 3c3d b436 993c 9aca e0bc
00000230: 400d 92bc 6dfd c53c 08f4 78bc ad39 f53b
00000240: f138 893b 013c 92bc 98bc 2fbc 468f 5ebc
00000250: 2081 dcbc 4be9 3eba c4bb 853d 185f 21bc
00000260: 27a9 a13b 81ab 1ebd b50a 87bb e770 26bc
00000270: e942 03bc c543 84bd 18b7 8abc 1248 083c
00000280: 3246 3d3d 2bb9 b7ba c17c 063a 45db 9cbc
00000290: bd8e 003c 8174 abbc d6c6 e7ba 61f6 9d3d
000002a0: 22de b8ba 3407 183d 0470 08bd 5793 f6bc
000002b0: ed0d b13b 4605 213d c0b8 10b8 9386 1b3d
000002c0: 46c6 80bb 66b1 9c3c 14d2 63bb a641 04bd
000002d0: 4ad1 02bd ee6e 133d 9b74 a2bb 12bb 413d
000002e0: c12e a63c 24e8 86bc fafc 54bb d6d7 163b
000002f0: cc80 30bd 2e25 ec3c f100 8eba 4f8f 4d3d
00000300: a519 c43c ec2b b8bc 96ba 5c3b 57d5 0b3d
00000310: 8cb9 a93c f634 443d 87d5 5a3d 960e d138
00000320: 3071 333c 9b86 8e3b e25a 043b c27c 23bb
00000330: 46f7 0cba a809 b4bc 76d9 e63c 6e83 c13a
00000340: 48f0 b93c 9075 903c 96d1 dd3c 1552 08bc
00000350: 0c3b 633d b9e0 6a3c 2724 7f3d 0e20 f03c
00000360: b237 83bb 8fb8 a7bc d5ac 09ba ec66 0b3d
00000370: 3597 7c3d b2a3 a73c 5bac 973b a6f1 07bd
00000380: 7e46 5fbd 38e8 083d 576d 03bd e691 f33b
00000390: be41 403c 3aa8 313b 96da d2bc 8871 d43b
000003a0: 1d0b 9a3c 38b2 d4bc d484 f3ba cd80 793c
000003b0: 8751 c73c e6be 0bbc 04c7 453d cce8 17bd
000003c0: 0af1 42bc d834 dfb9 4182 4bbc ef01 db3b
000003d0: 825c 2d3c 6b8a 9bbb 2325 84bd 6120 003c
000003e0: 79f4 a83a 9022 af3d ba0b 98bb b357 f0bc
000003f0: 90df 723c 43ba d0b9 5b30 eebc 8f47 923d

fc2.bias f4 [80]
0.0009873882 -0.006001335 -0.0017976111 4.268885e-05 -0.002118077 -0.0017827296 -0.0030930126 -0.0011289653
-0.0061076498 -0.0060881847 0.0054037184 -0.0034211245 -0.001057654 -0.007314608 -0.0018094216 -0.007679681
-0.0024768102 0.0022500306 -0.0037762257 0.0006043646 -0.00160539 -0.004389573 0.0035331273 0.0039346563
-0.0033472916 -0.003817834 0.00010349178 0.0049537853 0.0012155647 -0.003712324 0.0055398485 0.00039135423
0.0011994558 3.6195495e-05 0.004494717 -0.0008196992 0.0018021436 -0.006985471 -0.0022703826 -0.00039908875
-0.0037753382 -0.0042785127 0.002853196 0.0007212045 -0.0043215477 -0.0026185059 0.0015298694 -0.008270964
0.0004995186 0.0012540113 0.0022715009 -0.0034117873 0.002897863 0.0029008898 -0.0042854203 0.008814358
-0.0029421446 0.0010180416 -0.0044197273 0.0035178203 -0.002900088 0.0022653358 -0.0017036555 -0.0032870597
-3.748311e-05 -0.0033977602 0.0029623762 -0.0032391055 0.003229484 -0.004583782 -0.0021710834 -0.008260367
0.00072008255 -0.0030907379 -0.0014080631 -0.004050582 0.0015585211 0.0033290342 0.0041693314 -0.0051586474
00000000: 406b 813a d9a6 c4bb d29d ebba ce0c 3338
00000010: 6fcf 0abb 7baa e9ba 24b4 4abb caf9 93ba
00000020: ae22 c8bb 657f c7bb ad11 b13b f234 60bb
00000030: fba0 8aba 61af efbb 1d2a edba d5a5 fbbb
00000040: fb51 22bb 4075 133b 8e7a 77bb 396e 1e3a
00000050: f36b d2ba 68d6 8fbb 0a8c 673b 4aee 803b
00000060: 3c5e 5bbb a034 7abb ba09 d938 5d53 a23b
00000070: 9553 9f3a 764a 73bb 9e87 b53b ad2e cd39
00000080: 0f37 9d3a 9ed0 1738 6b48 933b 15e1 56ba
00000090: e835 ec3a 61e6 e4bb b3ca 14bb c93c d1b9
000000a0: aa6b 77bb c432 8cbb b0fc 3a3b 370f 3d3a
000000b0: c59b 8dbb 3d9b 2bbb e685 c83a f082 07bc
000000c0: 20f2 023a a35d a43a 76dd 143b 4b98 5fbb
000000d0: 13ea 3d3b db1c 3e3b b66c 8cbb 196a 103c
000000e0: ffd0 40bb cf6f 853a 5cd3 90bb 3b8b 663b
000000f0: 670f 3ebb 0776 143b 314d dfba b66b 57bb
00000100: 2f37 1db8 f5ac 5ebb 6d24 423b 2c47 54bb
00000110: c0a5 533b 8d33 96bb bc48 0ebb 7e56 07bc
00000120: ecc3 3c3a fa8d 4abb c28e b8ba bfba 84bb
00000130: 4a47 cc3a ed2b 5a3b e39e 883b df09 a9bb

fc3.weight f4 [40, 80]
0.079600565 -0.041650727 -0.028744563 -0.04846404 0.0074795973 -0.052236028 0.09472019 0.10060387
0.043286916 -0.01857018 -0.05658402 -0.01195874 -0.019919125 -0.03112786 0.09386803 -0.004149318
0.008060818 0.076147966 -0.06296031 -0.034090735 0.09091748 0.089897655 0.029471518 -0.032989956
-0.013523557 -0.015621494 0.020775814 -0.018433943 -0.028999293 -0.02235053 -0.0024404847 0.063843966
-0.01967846 -0.028133828 0.08882225 -0.054629117 -0.016004555 0.08757713 0.094516456 -0.052325573
-0.004196964 0.03863965 0.03606453 -0.010667864 -0.027371991 0.075593606 -0.005187865 0.086040534
-0.021539232 0.076762035 -0.018438706 0.089338645 -0.050743576 0.061009567 0.0087854285 -0.038375992
-0.03242117 0.016747652 -0.0011171319 0.06613875 0.006632985 -0.01695384 -0.03167762 0.049547125
0.0038428092 0.08254091 -0.037388068 -0.019161254 -0.027679449 0.018515076 0.08184503 -0.005665986
-0.00995826 -0.03307325 0.06438919 -0.044046562 0.054117993 -0.010216185 -0.037089765 -0.026696103
0.014682269 -0.027724287 0.079938665 0.06640101 0.044067428 -0.040564552 0.08211264 0.03649614
0.058476023 -0.01629732 -0.002670936 0.07619936 -0.011727565 -0.025191557 0.0832092 -0.0029280616
-0.015179239 -0.04203233 -0.046186864 0.053371556 0.06522245 -0.013004868 -0.018778864 0.03261901
0.048807297 -0.017050907 0.08347686 0.061898462 -0.018314108 -0.047563598 -0.0058621317 -0.033084802
0.083753794 -0.03681139 -0.017436793 0.027221873 -0.01435949 0.030339643 0.082981095 -0.029793149
-0.001411664 0.02061369 -0.011725792 -0.007962677 0.006366804 0.059195183 0.035438467 -0.0048746755
-0.052429583 0.079632916 -0.011599688 -0.023647152 0.07825899 -0.02199754 -0.012394196 0.026865153
-0.04403863 -0.014004036 -0.04003594 0.026112463 0.0059301336 0.010478879 -0.007978654 0.0010318909
-0.014242452 0.04570509 -0.03189974 -0.035126377 -0.027604122 0.04583017 -0.0006112268 -0.0005103628
0.036981646 0.058102444 0.07342404 0.03841551 -0.039851625 -0.008776134 0.02132454 -0.0065619103
-0.019360734 0.10124565 -0.023784695 0.011845966 -0.004642151 0.0695448 0.05718237 0.047694467
-0.02328038 0.08212417 0.004966514 0.029241042 0.07532551 -0.0126452455 0.08176441 -0.006554028
-0.016270163 -0.026081739 0.0781568 -0.032522563 0.043988768 0.085643224 0.010068816 -0.013879137
0.08734363 -0.029844569 -0.017743476 0.08731182 -0.021078635 -0.018310094 -0.00028128907 0.023565462
0.035166748 0.009691313 0.055225242 0.06755496 0.034933258 -0.03136612 -0.03669001 -0.02369257
-0.029796844 -0.03213552 -0.019110214 -0.019238956 -0.02749733 -0.030051848 -0.055808637 0.073393606
0.093354434 -0.0073619587 -0.017293625 0.088041246 0.046933025 0.010736327 0.07636479 -0.017926976
0.06003004 -0.022378607 0.077308394 -0.042591006 -0.022725144 -0.046093483 0.09339206 -0.010269555
0.056522544 0.012032987 0.07542323 -0.0018955886 0.06761134 0.018333951 -0.028314993 0.02027619
-0.0107771875 0.07671656 -0.019548345 -0.038313292 -0.038837366 -0.02414306 0.059333526 -0.025272142
0.030579813 -0.018942133 -0.037433397 0.02709923 0.017242357 0.0053795115 0.07506849 -0.036052
-0.017899418 0.07343191 -0.05586659 0.0011132401 0.09195289 -0.023801913 0.07666291 -0.014108736
00000000: 9f05 a33d f499 2abd b879 ebbc 3b82 46bd
00000010: 6917 f53b 72f5 55bd a9fc c13d 6709 ce3d
00000020: 9f4d 313d 7d20 98bc a5c4 67bd 97ee 43bc
00000030: 6f2d a3bc dbff febc e23d c03d 01f7 87bb
00000040: 8511 043c 77f3 9b3d 56f1 80bd baa2 0bbd
00000050: f232 ba3d 431c b83d 416e f13c 7a20 07bd
00000060: e991 5dbc 4bf1 7fbc 0a32 aa3c c802 97bc
00000070: ed8f edbc 7518 b7bc 8af0 1fbb a0c0 823d
00000080: b934 a1bc ea78 e6bc 71e8 b53d c8c2 5fbd
00000090: fc1b 83bc a35b b33d d891 c13d 5753 56bd
000000a0: b086 89bb 9c44 1e3d 67b8 133d 44c8 2ebc
000000b0: 3a3b e0bc d2d0 9a3d f7fe a9bb 0536 b03d
000000c0: 0b73 b0bc 6a35 9d3d c50c 97bc 2ef7 b63d
000000d0: 7fd8 4fbd 2be5 793d c2f0 0f3c 2530 1dbd
000000e0: 10cc 04bd 5f32 893c ba6c 92ba c173 873d
000000f0: 8359 d93b c8e2 8abc 64c0 01bd edf1 4a3d
00000100: a4d7 7b3b 350b a93d 3b24 19bd 10f8 9cbc
00000110: 03c0 e2bc eeac 973c 5e9e a73d bca9 b9bb
00000120: f827 23bc d177 07bd 7bde 833d 2b6a 34bd
00000130: d4aa 5d3d c961 27bc 70eb 17bd c9b1 dabc
00000140: e68d 703c 0b1e e3bc e2b6 a33d 41fd 873d
00000150: 0c80 343d 0427 26bd ac2a a83d fa7c 153d
00000160: 8e84 6f3d f581 85bc df0a 2fbb 690e 9c3d
00000170: f924 40bc 865e cebc 9669 aa3d b9e4 3fbb
00000180: 58b2 78bc 182a 2cbd 702e 3dbd 229c 5a3d
00000190: 5993 853d 5f12 55bc 22d6 99bc 839b 053d
000001a0: 29ea 473d 58ae 8bbc eaf5 aa3d 3e89 7d3d
000001b0: 7807 96bc 0cd2 42bd 2017 c0bb ee83 07bd
000001c0: 1c87 ab3d 8ac7 16bd 9bd7 8ebc 6800 df3c
000001d0: 1144 6bbc d88a f83c fef1 a93d c310 f4bc
000001e0: 9507 b9ba 0bde a83c 891d 40bc e375 02bc
000001f0: 9fa0 d03b a676 723d ed27 113d bebb 9fbb
00000200: 67c0 56bd 9516 a33d 9e0c 3ebc acb7 c1bc
00000210: 4046 a03d 2f34 b4bc 0711 4bbc 4f14 dc3c
00000220: da61 34bd 2f71 65bc bafc 23bd cee9 d53c
00000230: 9151 c23b 9baf 2b3c e6b8 02bc 8340 873a
00000240: 2c59 69bc 4335 3b3d 4da9 02bd ade0 0fbd
00000250: 0a22 e2bc 6bb8 3b3d bc3a 20ba dec9 05ba
00000260: 117a 173d d4fc 6d3d 585f 963d 9559 1d3d
00000270: 753b 23bd c6c9 0fbc cdb0 ae3c 4b05 d7bb
00000280: 679a 9ebc e159 cf3d 1fd8 c2bc 9515 423c
00000290: 2f1d 98bb 816d 8e3d 1038 6a3d 465b 433d
000002a0: 7fb6 bebc b830 a83d 24be a23b e98a ef3c
000002b0: 4344 9a3d 012e 4fbc 1974 a73d 2cc3 d6bb
000002c0: 0149 85bc 5fa9 d5bc ac10 a03d 6136 05bd
000002d0: 912d 343d b765 af3d adf7 243c 5265 63bc
000002e0: 38e1 b23d 997c f4bc c45a 91bc 8ad0 b23d
000002f0: 1aad acbc 0dff 95bc fb79 93b9 5b0c c13c
00000300: 020b 103d 50c8 1e3c dd33 623d 415a 8a3d
00000310: 2d16 0f3d c379 00bd 4448 16bd ec16 c2bc
00000320: 8318 f4bc 89a0 03bd 068d 9cbc 049b 9dbc
00000330: 1542 e1bc 4b2f f6bc 9997 64bd 634f 963d
00000340: 9c30 bf3d 963c f1bb 5cab 8dbc f84e b43d
00000350: d83c 403d 6be7 2f3c 2565 9c3d 98db 92bc
00000360: 0fe2 753d 5753 b7bc dd53 9e3d e873 2ebd
00000370: 152a babc 85cc 3cbd 5644 bf3d a341 28bc
00000380: 2f84 673d 0126 453c 7f77 9a3d 6675 f8ba
00000390: d077 8a3d 1531 963c d8f4 e7bc 411a a63c
000003a0: cd92 30bc 921d 9d3d da23 a0bc 66ee 1cbd
000003b0: ee13 1fbd abc7 c5bc b607 733d 8607 cfbc
000003c0: 8482 fa3c 882c 9bbc c353 19bd 34ff dd3c
000003d0: d83f 8d3c 9d46 b03b 82bd 993d 43ab 13bd
000003e0: cda1 92bc 7863 963d 5ed4 64bd 24ea 913a
000003f0: cc51 bc3d 3bfc c2bc 7201 9d3d 5428 67bc

fc3.bias f4 [40]
0.008066734 0.012212853 0.0032037867 0.0048143263 0.0020280797 0.02105128 -0.0018879275 -0.0038196235
0.005701142 -0.0011474623 -0.00027201325 0.0025004477 -0.0022443535 0.0004884544 0.0017643585 0.0011806589
0.013837346 0.0074004093 -0.0026859152 0.00032199337 0.0057391697 0.004101677 0.016324729 0.011313621
0.006145057 0.016102005 0.015355524 -0.00030984503 0.014253885 0.01216537 0.007916922 0.0042362227
0.007926797 0.010478647 0.004029731 -0.0072424607 -0.0007021429 0.00061633263 0.018876288 0.0012732417
00000000: 562a 043c 6b18 483c 9ff6 513b 7fc1 9d3b
00000010: 88e9 043b bc73 ac3c 5674 f7ba a652 7abb
00000020: a5d0 ba3b 7266 96ba 009d 8eb9 8dde 233b
00000030: 0116 13bb 9f0b 003a 0c42 e73a 57c0 9a3a
00000040: 09b6 623c 227f f23b 2e06 30bb 38d1 a839
00000050: a50f bc3b 5c67 863b 70bb 853c c45c 393c
00000060: 795c c93b 5ae8 833c bc95 7b3c b272 a2b9
00000070: 2089 693c 4351 473c fab5 013c 03d0 8a3b
00000080: 65df 013c a2ae 2b3c d50b 843b 2a52 edbb
00000090: 0310 38ba 6291 213a 72a2 9a3c e7e2 a63a
