outfiles/cnn/ORL32_8Train_cnn.pth (torch, 334655 bytes, 10 tensors)

conv_layer1.weight f4 [8, 1, 5, 5]
000000 14 09 12 bd 29 0b 24 bb e7 11 96 b9 10 cf 0b bc
       -0.03565319 -0.0025031066 -0.00028623568 -0.008533254
000010 b8 65 bc 3b b1 98 03 bc 7c fc be 3c 22 4d f2 3c
       0.0057494305 -0.00803201 0.023313753 0.029577795
000020 41 fe 85 3c 35 5e 2b 3c cf a3 ad 3a e2 ad ba 3c
       0.01635659 0.010459472 0.0013247671 0.022787992
000030 b4 ac 28 3c ca ee 6b 3c 06 6e 51 bc 91 f9 46 bc
       0.010295082 0.0144001935 -0.012782579 -0.012144462
000040 c2 ce 7c bc 00 e8 5a 3c 36 eb 37 3c 40 94 ca bc
       -0.015430154 0.013360977 0.011225512 -0.024728894
000050 f4 85 d4 bc 36 f2 6b 3c 0e ea c2 ba a4 4f 2f 3c
       -0.02594278 0.014401009 -0.0014870779 0.01070014
000060 d9 f9 78 bc bd 54 26 3d b3 6a 2a bc 2c 1d 52 3c
       -0.015196287 0.040608156 -0.010401416 0.012824338
000070 01 57 98 be 9a 27 a8 be 04 f3 fc bd cf 94 85 bd
       -0.2975388 -0.32842714 -0.12351039 -0.065225236
000080 ee db ff bd 43 f5 70 be 28 ab 80 bd e9 e9 83 be
       -0.1249312 -0.2353106 -0.062826455 -0.25764397
000090 60 c2 4a be 31 c8 17 3d ae 14 1b 3e 64 ae 72 3e
       -0.1980071 0.03705615 0.15144607 0.23699337
0000a0 ef a9 40 bd 94 9c a0 3d 71 9d 46 3e 6c 4f 1a 3e
       -0.04703706 0.07842365 0.19395997 0.1506936
0000b0 f9 7a 90 3e 87 0f 12 bd 40 37 be 3d f2 e2 82 3e
       0.2821882 -0.03565934 0.09287882 0.2556377
0000c0 2e 58 7b 3e 68 91 6e 3e 66 f9 30 bc e6 a4 21 bd
       0.24545357 0.23297656 -0.010801649 -0.0394639
0000d0 3d da b6 bd 37 f9 47 3c a2 7d e3 3c 61 7e 9d bd
       -0.089283444 0.012205414 0.027769867 -0.076901205
0000e0 86 37 d6 bd 10 53 ac 3c 10 7d 50 bd 04 d9 0d 3e
       -0.10459809 0.021035701 -0.05090052 0.13852316
0000f0 31 23 47 3c d3 08 66 bd 15 8f 1f 3d 3f 06 74 3d
       0.012154386 -0.05616076 0.038954813 0.05957627
000100 be 9f fa 3d 55 30 1a bc ce 1b 9f bd e6 ca a0 bd
       0.122375 -0.009410937 -0.07768975 -0.078512
000110 97 30 bf 3c 84 49 72 3d f6 db 69 bd 23 5d 47 3c
       0.0233386 0.05915214 -0.057094537 0.012168202
000120 a8 27 f2 bc 57 51 9b bd ba ec bb 3d 7b 17 30 3b
       -0.029559925 -0.07583874 0.091760114 0.0026869464
000130 13 db d5 ba 82 2a 9f bb ca 2d 64 bc 22 97 9f 38
       -0.00163159 -0.0048573622 -0.013926933 7.6098615e-05
000140 5e 7d 32 b9 a4 af 25 bc ff 79 61 3c fe 57 9a 3a
       -0.00017022106 -0.010112677 0.013761996 0.0011775491
000150 50 46 c5 bb 7b bc 7b 3c 6c 58 7d 3c a0 50 a8 3b
       -0.006020345 0.015364761 0.015462976 0.0051365644
000160 21 3f 67 bc d3 f9 5a bc 04 cd 3e bc d1 0a 9e 3c
       -0.014114172 -0.013365227 -0.011645559 0.019292267
000170 d5 e1 80 bc 48 fa 7d bc 1c da 7f 3c 31 c4 34 3c
       -0.015732685 -0.015501566 0.015615966 0.011033104
000180 87 d9 45 bc a0 8d 85 3c 8d 07 30 bc b5 76 81 bc
       -0.012075788 0.016302884 -0.010743988 -0.015803674
000190 b1 6b b7 3c ce 7d b7 bc e6 53 bb 3d ea df 3a 3d
       0.022390218 -0.022398856 0.09146862 0.045623697
0001a0 b5 c0 91 bb bd 99 38 bd 05 62 3a 3d 83 38 c6 3d
       -0.0044480213 -0.04506849 0.045503635 0.096787475
0001b0 96 10 80 3d 4d f6 69 3d 86 42 d4 bc 7e 6e 82 3c
       0.062531635 0.057119656 -0.025910627 0.015921827
0001c0 f4 51 72 3d 91 cb 04 bd 06 db 1b bd 8b 1d 09 bd
       0.059160188 -0.0324207 -0.038050674 -0.03347544
0001d0 84 f7 3a bd fc 15 a3 bd b8 0d 4e 3c 37 ab dc bb
       -0.045646206 -0.079631776 0.012576513 -0.0067342776
0001e0 70 3e f9 bc 3b 8f b6 bd 5e b1 e2 bd 73 bc fd bc
       -0.03042528 -0.08914038 -0.11068986 -0.030973649
0001f0 32 8d ae bc e5 2b b0 3e ae 89 e2 3d f2 37 2f be
       -0.021307562 0.3440849 0.110614166 -0.17111185
000200 e7 7d 0e be 43 21 1c 3e 53 d1 96 3e 0b b2 02 3e
       -0.13915215 0.15247063 0.29456577 0.1276323
000210 02 ca 02 be af 97 cf bd b4 f7 9c 3d af ee 96 3e
       -0.12772372 -0.10136353 0.07664433 0.29478976
000220 39 f4 03 be 8b b4 7c be be f4 b1 bd 9e f5 e7 3d
       -0.12886132 -0.24678247 -0.08689259 0.11326145
000230 ea 3e b0 3d fc 67 0a bd 7f 97 81 be e3 f4 03 be
       0.0860575 -0.033790573 -0.25310895 -0.12886386
000240 e9 d0 42 3e 62 f6 c6 3d c8 87 15 be d7 c6 98 be
       0.19025005 0.097149625 -0.14602578 -0.29839203
000250 5b 0a a4 bd 5a 97 28 3e 82 f4 99 3c ea cf 92 3d
       -0.08009788 0.16463986 0.018793348 0.07168563
000260 9b c5 8e 3e c3 41 be 3e 4c 63 a3 3e be ff 18 be
       0.27885136 0.37159547 0.31911695 -0.14941308
000270 9c 34 ae bd db 8a 62 3e 3a 4b c7 3e ed bd 6d 3e
       -0.08506128 0.22123282 0.3892458 0.23216982
000280 25 9f 0d be 2c 04 2e be 7f 44 f8 3c da ed db 3d
       -0.1383024 -0.16993779 0.030306099 0.10738726
000290 e2 5b 32 3e e4 11 7d 3c 31 af 37 be 06 51 3e be
       0.17417863 0.01544616 -0.17937924 -0.18585595
0002a0 5e 6a 77 bd 6a 26 96 bd cc fd 9c bd e5 dd f7 bd
       -0.060404174 -0.07331546 -0.076655954 -0.1210287
0002b0 a4 54 b0 be a8 5a 86 be 23 ae 09 be 9c eb ac bb
       -0.34439576 -0.2624104 -0.13445334 -0.0052771103
0002c0 38 4b 3a 3c 1d e5 1e bc 56 10 d6 bb 5f 40 e1 bb
       0.011370473 -0.00969818 -0.006532709 -0.0068741287
0002d0 87 e2 96 3c 12 0d 88 3c f7 fe ea 3c ae 9d 7b bc
       0.018418564 0.016607795 0.02868603 -0.015357418
0002e0 fa a6 09 bd 06 68 0e 3c d5 de 0d 3d b8 4b 22 3c
       -0.033606507 0.008691793 0.034636337 0.009905748
0002f0 98 2b 36 bd 77 94 93 3b 3d bd f4 3b e8 31 fa 3c
       -0.044475168 0.0045037824 0.007468848 0.030541375
000300 4c 9f 76 bc b7 e0 19 bd 9e 57 02 3d 82 fc 8c 3b
       -0.015052628 -0.03756782 0.03182184 0.004302562
000310 2b 9f e2 3b 53 d6 d2 ba b3 dd 85 bd e3 0c 14 3d
       0.006915947 -0.0016085602 -0.065364264 0.036145102

conv_layer1.bias f4 [8]
000000 b9 e1 94 bc 91 a7 98 ba 18 b5 0c 3c 69 e0 5d 3c
       -0.01817404 -0.0011646618 0.008588098 0.013542273
000010 2d ab 13 bc 62 95 59 bc 3e 88 1c bb 41 b5 3b bc
       -0.009012979 -0.013280245 -0.0023884918 -0.0114567885

conv_layer2.weight f4 [16, 1, 5, 5]
000000 3c 55 dd bb 5b 80 74 3c de 31 8c bb c5 c8 08 bc
       -0.0067545455 0.01492318 -0.0042784056 -0.008348648
000010 be b4 1c bc 1c 3a 04 bb 64 02 4d 3b a2 64 73 bb
       -0.009564577 -0.0020176237 0.0031281943 -0.003713884
000020 78 98 05 3c 73 af 13 bb fb 26 09 bc d4 49 87 bc
       0.008154027 -0.0022534996 -0.00837111 -0.016514696
000030 07 d3 52 bc 60 4e 8d 3c f3 72 34 bc 73 9c 0c 3c
       -0.012867696 0.017249286 -0.011013734 0.008582222
000040 2b c7 1b 3b 70 dd 81 3b fa 7b ae 3b d7 77 7d bc
       0.0023769836 0.003963165 0.0053248378 -0.015470467
000050 22 6b 98 3b 64 5c 4b bc 1a bb a4 bb b9 4a 4e 3c
       0.004651443 -0.012412164 -0.005027187 0.012591057
000060 09 b5 91 3c 88 50 2c 3c be 56 db 3c 02 dc b8 bc
       0.01778652 0.010517247 0.02677476 -0.022565845
000070 17 9b 0e 3d 8d 82 11 3d 79 2c c4 3c 74 c3 8b bb
       0.034815874 0.035524894 0.023946987 -0.004265243
000080 66 bd bb bc c5 4f e9 bc 10 34 12 3d 2f 10 a7 bc
       -0.02291746 -0.02848042 0.035694182 -0.02039346
000090 38 f7 ef bc 5c 17 69 3c cf 08 f9 bc 99 f0 81 bc
       -0.029292688 0.014226761 -0.030399708 -0.015861796
0000a0 16 38 65 bc 4d 9e ef bb 28 d9 50 bc fb 8c e2 3c
       -0.013990423 -0.007312572 -0.012747087 0.027655115
0000b0 8f 4e 3b bc 54 9f 64 bb 90 7f 04 3d de 79 d3 ba
       -0.011432304 -0.0034885006 0.032348216 -0.0016134342
0000c0 1f 56 a4 3b de ea 03 bd 0f a6 70 bc 87 ed f1 bc
       0.0050151492 -0.03220641 -0.014688029 -0.029532207
0000d0 c0 b0 f7 bd c0 57 5b be bf e7 11 be 8d 79 84 3d
       -0.12094259 -0.21420193 -0.1424856 0.064684965
0000e0 f1 10 8c bd c9 e6 0a be 6b 16 cd bd a5 48 98 3d
       -0.06839169 -0.135646 -0.100140415 0.07435731
0000f0 a2 06 49 bd 1c 3e 4d 3d 61 6b 80 3e 90 4d a7 3e
       -0.04907859 0.05010806 0.25081924 0.32676363
000100 d2 0c d9 3d c9 93 1f be e1 71 e1 bc f0 73 a1 3e
       0.105981484 -0.1558372 -0.027520122 0.31533766
000110 3e 2f c1 3e dc 7b e6 3d 95 49 1d be 4a a2 e9 bd
       0.37731355 0.11254093 -0.153601 -0.11407907
000120 cd 0d 08 3d 6e 4a fc bd d6 6f f4 bd 31 70 df bd
       0.033216286 -0.12318884 -0.119353935 -0.10910071
000130 24 c1 04 bc 96 6a 07 3e 30 1d af bc a7 73 d4 3d
       -0.008102689 0.13224253 -0.021376222 0.103736214
000140 01 45 e8 bd bf 45 6b 3d 5a 38 b5 3d d1 4f 97 3d
       -0.113412865 0.057439562 0.08848639 0.07388271
000150 6c 6a ed bd 8f 6b 1a bd 49 c0 d0 bd 6b 8e 23 bd
       -0.11592564 -0.037700232 -0.101929255 -0.039930742
000160 79 a3 08 bd 59 65 eb bd 92 5a 95 bd 37 53 1e be
       -0.033359025 -0.1149394 -0.072926655 -0.15461431
000170 b6 83 d8 bd fd 6f ca 3d 92 e4 55 3e 1e 43 d0 bc
       -0.10571997 0.09884641 0.20887974 -0.025422629
000180 87 ef f5 bd f0 a0 c9 3d 46 34 53 3e e1 22 60 3e
       -0.12008577 0.098451495 0.2062541 0.21888305
000190 1b e7 61 bc 15 99 4d 3d e8 cb 38 3c 19 5b 5d bc
       -0.01378801 0.05019482 0.011279084 -0.013510489
0001a0 68 cd b0 3b 1e 9a 0c bb 54 70 43 3d f6 ae 3d 3d
       0.00539558 -0.0021454166 0.047714546 0.046309434
0001b0 d0 f9 13 3c ef 7b 92 3b 9a 81 2b bb d4 37 9f 3d
       0.009031728 0.0044703404 -0.0026169778 0.0777432
0001c0 aa 72 2f 3d dd 7b 5f 3b 31 5e f8 3c 38 9e f7 bc
       0.04283396 0.0034100928 0.030318351 -0.030226812
0001d0 e6 04 7f 3d 84 e2 86 3c 41 03 40 3c a0 1d 9f 3c
       0.06226053 0.016465433 0.011719526 0.019423306
0001e0 11 7a a3 bc 09 44 19 3d 87 8c 50 bb ea 82 9c bb
       -0.019955667 0.0374184 -0.0031822042 -0.0047763484
0001f0 37 72 3a 3c 8c e4 04 bd 63 29 1d bc 39 cc 2a 3d
       0.01137977 -0.03244452 -0.009592387 0.04169867
000200 fa 75 d0 3c ff 1c 21 bc e8 08 d5 bc b7 44 b4 3c
       0.02544688 -0.009833573 -0.026005223 0.022005422
000210 8a fa 36 3d 36 f0 90 3c 36 c9 2e bc 83 8d 9f bc
       0.044672526 0.017692667 -0.01066809 -0.019476658
000220 02 46 06 3d 6a 64 5b 3d 87 27 9b 3b 58 aa 92 3c
       0.03278161 0.05356256 0.0047349366 0.017903492
000230 a6 09 40 3c 59 e7 9e 3d 61 d3 48 3d 52 79 99 3c
       0.01172105 0.0775897 0.04902971 0.018734608
000240 ed 49 4e 3c 95 5f 93 3c 56 32 87 3d 31 fe ee 3c
       0.0125908675 0.017989913 0.06601398 0.029173942
000250 1c 3e 4f bb 3e 64 92 3c f7 43 13 bc 86 57 8d bc
       -0.0031622713 0.017870065 -0.008988372 -0.017253648
000260 b8 15 21 bc 73 62 28 3c bc bd 09 bb 86 11 74 ba
       -0.009831838 0.010277378 -0.0021017632 -0.00093104725
000270 cb b6 a6 bb ba 95 ef bb ce d1 33 bc 20 1a bd 3a
       -0.0050877086 -0.00731155 -0.010975314 0.0014427342
000280 aa ca 16 3a f6 3a 0b bb 9d c8 27 3c 05 9c 6d 3b
       0.0005752245 -0.002124486 0.010240701 0.0036256325
000290 8b c4 a2 3b 47 4c 90 ba 34 ee 9f 3b 0f 88 0e 3c
       0.0049672774 -0.001100906 0.004880691 0.008699431
0002a0 6d 76 64 bc dc 42 8e 3c b3 aa 7a bc 94 a3 0d bc
       -0.0139442505 0.017365865 -0.015299487 -0.008644957
0002b0 ae 82 48 3c 3d 03 f7 3b bd 66 42 3b 3c a9 47 3c
       0.012238188 0.007538228 0.0029663288 0.012186345
0002c0 23 27 7a bc 4b c4 13 bc 93 56 7b bc 55 5a 74 3c
       -0.01526812 -0.009018968 -0.015340465 0.014914115
0002d0 84 fe 8d bc de f0 49 bb 81 2a b4 bb 42 e1 3c 3c
       -0.017333277 -0.0030813734 -0.005498231 0.011528315
0002e0 6c b1 96 3c 87 9f 01 3b 07 8d 17 bc 2b d6 d9 bb
       0.018395148 0.0019778924 -0.009249932 -0.0066478453
0002f0 49 69 57 bc 1d ec 27 3c 2b 49 90 bc f5 71 06 3c
       -0.0131476605 0.010249165 -0.017613014 0.00820588
000300 3c 8f a7 3b ae ee 74 bc fb a0 6c bc 80 af d6 3a
       0.0051135104 -0.014949484 -0.014442678 0.0016379207
000310 3d fc 30 bc 3e 6a 08 bc 63 10 e7 3b b9 97 e1 3a
       -0.010802326 -0.008326111 0.007051514 0.0017211355
000320 d6 fd f7 bc 08 16 ca 3b dd 03 9f 3c ac 97 1e 3d
       -0.030272406 0.006167177 0.019411022 0.038718864
000330 7d 7d 13 3d 9d 78 10 bd 74 a4 9e bc 37 e2 61 bc
       0.036008347 -0.035271276 -0.019365527 -0.013786844
000340 28 75 9a 3c b7 c4 c8 3c 87 ba d2 bc d1 88 ac bc
       0.018854693 0.024507863 -0.025723709 -0.021061333
000350 38 2a 2f bc 4e 31 8a 3c 79 e8 95 bc 25 8b 59 3c
       -0.010691218 0.016869213 -0.018299328 0.013277804
000360 85 f7 e6 ba 5d b8 c9 3b c7 93 35 bc 54 c5 bc bb
       -0.0017621374 0.006156011 -0.011082596 -0.005760828
000370 83 66 ba 3d 9a e9 04 3d a5 66 4f 3c fc ee d1 3a
       0.09101584 0.032449342 0.01265875 0.0016016657
000380 e7 e2 36 3c 1a a4 9a bb 7a 01 0f ba 03 e7 71 bc
       0.011162496 -0.0047192695 -0.0005455237 -0.01476455
000390 55 7f 4e ba c1 ab be 3a 70 de 36 bc f6 89 08 bc
       -0.00078772503 0.0014547036 -0.011161432 -0.008333674
0003a0 57 62 91 bc c0 b2 8f bb 68 e2 41 bc 78 23 2d bc
       -0.017747087 -0.0043853223 -0.011833765 -0.010567538
0003b0 6d cb 05 bc e2 da b2 3b 03 cf c3 3c 04 2a 43 3c
       -0.008166176 0.005458222 0.023902422 0.011911873
0003c0 a6 2e 70 3c b6 e6 b0 3c c4 d0 3e bb fa c8 35 3d
       0.014659559 0.021594387 -0.0029116133 0.04438112
0003d0 23 fd d4 3b a6 fa 8f 3d f6 66 6c 3d 8b be 21 3d
       0.006499903 0.07030229 0.05771538 0.039488357
0003e0 cd fe a4 3d a1 75 8b 3d d9 06 2c be 77 a2 f6 bd
       0.08056412 0.06809545 -0.16799487 -0.120427065
0003f0 86 57 7c 3e 30 50 0d bd 45 62 01 be 97 88 6e be
       0.24642763 -0.0345003 -0.12635143 -0.23294292

conv_layer2.bias f4 [16]
000000 d8 56 25 3c 7c 31 39 3c c7 b8 e4 bc f6 3b 8b bc
       0.010091506 0.011303302 -0.02792014 -0.016996365
000010 88 34 a1 bb 87 1a 42 bb 14 9f a2 3b 9b a5 4b bc
       -0.0049195923 -0.0029617862 0.0049628112 -0.01242962
000020 60 d8 1b bc 05 1a bc bc 29 8e c4 bc 25 ba e8 bc
       -0.009512037 -0.022961626 -0.023993568 -0.028409073
000030 52 e2 1f 3b 8b 7f c0 bc f8 db 4f bc 89 19 c0 bb
       0.0024396372 -0.023498317 -0.012686722 -0.005862419

fc1.weight f4 [120, 576]
000000 73 ef 23 3b 0e f3 81 3b 49 c0 5f 3b 85 b0 34 3b
       0.002501455 0.003965742 0.003414171 0.0027571034
000010 cd 62 8e 3b 72 95 43 3b f4 a1 10 bb cb e5 18 bb
       0.004345274 0.0029843715 -0.0022069188 -0.0023330327
000020 21 cc 22 bb da 95 0e 3b 32 3d 51 b9 69 e5 27 bb
       -0.0024840909 0.00217568 -0.0001995459 -0.0025618917
000030 01 6b 4e 39 28 27 59 bb 40 6f 36 ba d2 df 73 3b
       0.00019685553 -0.0033134911 -0.00069593266 0.0037212265
000040 8d fa f7 b9 6c 45 18 bb df a1 2a bb 04 50 4f 39
       -0.00047298186 -0.0023234738 -0.0026036424 0.00019770866
000050 57 4a 64 3b 4c d9 91 ba 68 58 ca 3a 52 e9 06 3b
       0.003483435 -0.0011127382 0.0015437724 0.0020585847
000060 21 49 46 bb 3c a1 2a bb f2 35 13 3b 09 ae 22 bb
       -0.003025599 -0.0026036045 0.0022462574 -0.0024822971
000070 6f b0 88 ba 47 8c 1f bb a4 c1 d9 3a fa 0c 1f bb
       -0.0010428558 -0.0024345086 0.0016613496 -0.002426921
000080 36 f5 2e 3b e2 69 39 bb 8d 4f 61 3b 5f 0d 97 b9
       0.002669645 -0.002829187 0.0034379691 -0.00028810927
000090 30 8f 50 ba 66 a3 0d ba 00 6f 1f bb 8e 7f 2f 3a
       -0.0007955907 -0.00054030714 -0.0024327636 0.00066947273
0000a0 3a 40 83 ba f9 fc 9d bb dc ad 16 bc 0a 76 9e bb
       -0.0010013648 -0.0048214165 -0.009196725 -0.0048358487
0000b0 59 83 c3 b9 d9 ab 14 bb 4e e1 8a 3a 09 4c 1d bb
       -0.0003729116 -0.0022685437 0.001059571 -0.002400162
0000c0 47 e2 5d bb 45 55 bb bb 27 55 6f 3a b5 16 16 3a
       -0.0033856796 -0.005716952 0.0009129815 0.00057254295
0000d0 5e 09 bc bb 59 8f b7 ba 48 3e 05 39 89 8f cc ba
       -0.0057384213 -0.0014004513 0.0001270707 -0.0015606742
0000e0 74 6e 82 ba 80 76 f7 3a e3 2e 4c bb 9e b2 a9 ba
       -0.000995113 0.001887992 -0.0031155876 -0.0012946909
0000f0 71 6c 8d bb 04 f1 c8 b9 8a 25 a5 39 0e 89 ff 3a
       -0.0043159057 -0.00038326543 0.0003149922 0.0019495802
000100 c6 83 40 3b 5c 3c 54 bb 1a 21 4d 3b 99 1b 26 bb
       0.0029375418 -0.003238461 0.0031300248 -0.002534604
000110 ab 1b d1 b9 a9 93 67 39 ef f2 21 39 0d 90 fe 3a
       -0.000398842 0.00022084884 0.00015444656 0.0019421593
000120 6b eb 34 3c 09 72 c0 3a e7 6b 35 3c 69 f1 e5 bb
       0.011042456 0.0014682423 0.011073089 -0.0070173037
000130 f1 fe 89 3b 10 75 3a bc 6c ad 9a 3c 7f 43 2c 3b
       0.0042112996 -0.011380449 0.018881522 0.0026285348
000140 f8 a3 e9 bc a1 c4 7d bb 3b 71 a1 3b 1e a5 53 3c
       -0.02852057 -0.0038721936 0.004926828 0.012917785
000150 f8 54 15 bc 10 4c 94 bc 25 95 e3 3c 84 86 5e bb
       -0.009114496 -0.018102676 0.027781079 -0.003395469
000160 e6 96 98 3b c8 1c 24 3a 0d ef f5 bb 89 1b 95 3c
       0.0046566604 0.0006260392 -0.0075053037 0.018201606
000170 de df 7d 3c 52 72 c8 bb af a8 b9 bc 9c 8f 07 bd
       0.015495269 -0.0061171437 -0.022663442 -0.03309594
000180 7c 43 4f 3b 28 fc 97 3c c1 e0 11 3d ae ec 85 3c
       0.0031625917 0.018552855 0.035614733 0.01634821
000190 b9 d4 c5 bc cb 42 83 bc 30 02 9f bc 96 fb 94 bb
       -0.024149286 -0.01602306 -0.019410223 -0.004546593
0001a0 3d 57 4a bc 67 b6 5e bc 69 1b 04 bd 71 44 73 bc
       -0.012349901 -0.013593293 -0.032252703 -0.014847861
0001b0 72 36 38 3d ae 53 65 bc c6 d2 d8 bc d8 5d a5 bc
       0.044973798 -0.013997002 -0.026467692 -0.02018635
0001c0 e3 16 a1 3c fc dd e2 bb 59 92 8f 3c 60 76 56 bc
       0.019664234 -0.0069234353 0.017525839 -0.013089746
0001d0 79 2d 00 3c 75 36 bc bb 69 ff 83 3c 39 d1 01 bc
       0.0078233415 -0.0057437965 0.016113 -0.007923418
0001e0 6d 16 c4 ba b5 df 07 ba a5 7c b3 ba 07 01 0b bc
       -0.0014960297 -0.0005183176 -0.0013693763 -0.008484132
0001f0 22 11 e8 3b 55 9b fb bb 0f ba b5 3a cf de 3d 3a
       0.0070821205 -0.007678429 0.0013864654 0.0007242979
000200 5b ab b1 3c 2a 65 29 3c 0c 92 5f bc 38 97 0e bc
       0.021688154 0.010339061 -0.01364566 -0.008703046
000210 b8 5d 2c 3b a8 18 b1 bb 19 53 88 3b 0b 58 5b bc
       0.0026300978 -0.0054045506 0.0041602966 -0.01338769
000220 12 c9 9d bc f0 43 77 bc 56 f6 06 bc 0f f5 f6 bb
       -0.019260917 -0.015091881 -0.008237442 -0.0075365375
000230 c1 e6 5e 3c af bb fb 3b ff 37 54 ba 85 7f 1d bb
       0.013604821 0.0076822857 -0.0008095502 -0.0024032306
000240 07 db bc 3a 2a 3b 30 3b ea d3 82 ba cc 37 59 3b
       0.0014408537 0.0026890733 -0.0009981368 0.003314483
000250 32 b9 ae ba 35 07 f3 ba 09 34 49 3b c9 92 32 3b
       -0.0013330339 -0.0018541577 0.0030701181 0.0027248135
000260 0b 3b a5 39 9e 50 1b 3b b7 e1 d7 3a 68 f4 60 3a
       0.00031515243 0.0023699175 0.0016470467 0.0008581341
000270 cd c7 5c 3b 2d 9a ba 3a 9f 46 e0 3a a7 a1 b2 ba
       0.0033688426 0.0014236622 0.001711089 -0.0013628498
000280 6f d7 f8 3b 91 4c 5e 3b a7 be 09 3c 9b c9 6d ba
       0.007594041 0.003392015 0.0084072715 -0.0009070874
000290 c8 f8 84 bb 65 7c df 3a de aa e7 39 ba 48 c1 3b
       -0.0040579773 0.0017050622 0.0004418706 0.0058985623
0002a0 3d fe e1 3b 4c e3 96 bb 00 e3 3d bb c4 8e d6 b9
       0.0068967626 -0.0046047326 -0.0028974414 -0.0004092363
0002b0 15 6c 19 bb 9d 8a 2c bb d2 7e 95 3a ba 73 22 bc
       -0.002341037 -0.0026327737 0.0011405593 -0.009915287
0002c0 7c 9b 0c bb bd e3 18 bb 60 23 1c 3b 04 03 bf bb
       -0.002145498 -0.0023329102 0.0023824796 -0.005829217
0002d0 c0 00 89 bb 71 94 86 3a b6 11 e0 3a 68 ac 33 b9
       -0.0041809976 0.0010267628 0.0017095122 -0.00017134997
0002e0 66 03 fe b9 94 db 73 bb 00 f7 98 3b 90 f5 90 bb
       -0.00048449187 -0.0037209736 0.0046681166 -0.0044238046
0002f0 c4 df f5 ba 6d e9 4d 39 c4 81 fa 3a fb 1d 78 3b
       -0.0018758704 0.00019637281 0.001911216 0.0037859667
000300 1d 19 5a 3b b5 98 5c ba 01 a7 9d 3b 52 58 1e bb
       0.003327913 -0.0008415089 0.004811168 -0.002416153
000310 03 6e 79 3b 00 1e 41 3c 64 dd 48 3b 00 79 ee ba
       0.0038059957 0.011786938 0.0030649537 -0.001819402
000320 bb 86 27 3b 87 da 36 3a d2 cd 13 3c 63 f2 48 39
       0.0025562483 0.0006975312 0.009021239 0.00019163782
000330 e7 46 91 3b bf 1f df bb 73 a6 31 ba b8 ee a8 3a
       0.004433501 -0.0068092044 -0.0006776817 0.0012888527
000340 9d 25 91 3a 88 73 b3 3a eb 07 5e b9 84 b0 c1 bb
       0.0011073832 0.0013691047 -0.0002117452 -0.005910935
000350 86 bb 45 bb 59 76 1b 3a c3 5a 1d ba 41 83 d1 bb
       -0.0030171587 0.0005930416 -0.0006002599 -0.0063938205
000360 b3 0c 38 3a eb 85 c1 b9 97 b9 4d bb bf fb dd 3a
       0.00070209353 -0.00036911605 -0.0031391138 0.0016935988
000370 de eb 13 3b 47 16 2a bb 97 25 73 bb f9 ef 6c 3b
       0.0022571008 -0.002595322 -0.0037101263 0.0036153777
000380 f7 b5 3e 3b 3e 49 44 3a 65 eb 32 ba 97 b0 2c 3b
       0.0029100159 0.00074877206 -0.00068252377 0.0026350373
000390 a3 da b5 ba 7e 8c 1f bb 7c c1 71 3b f8 be 77 3b
       -0.0013874363 -0.0024345214 0.0036889007 0.0037803035
0003a0 4b de 00 ba b7 26 d5 3a 45 61 ae b9 37 7a 04 bb
       -0.0004915937 0.0016262148 -0.00033260338 -0.0020214447
0003b0 88 f1 21 bb 9d 8d 8b ba df 5d 6f bb 1e 4f 5e 3b
       -0.0024710614 -0.0010647062 -0.0036524457 0.003392167
0003c0 a7 1d 52 bb 74 df 45 3b c2 b6 48 3b 24 9b 1a ba
       -0.0032061131 0.0030193003 0.003062651 -0.00058977515
0003d0 ab 2c b1 ba 49 7a 71 3a 9b 91 c9 ba 2f a3 49 bb
       -0.001351734 0.00092116423 -0.0015378477 -0.003076743
0003e0 f1 df 30 3a 98 3d 3e 3b aa 96 a5 3a ef 0f b3 3a
       0.0006747237 0.0029028412 0.0012633402 0.0013661365
0003f0 7f 57 03 bb 2b f0 53 bb de 2d 29 3b e0 90 35 bb
       -0.0020041165 -0.0032339196 0.0025814692 -0.002770476

fc1.bias f4 [120]
000000 6a 9b fb 3a 31 39 6a 3a ac 86 27 3b 49 8b 8d b8
       0.0019196097 0.0008934914 0.0025562448 -6.749348e-05
000010 ce b8 a3 b9 07 67 04 3b 3e 50 03 bb 97 b9 bc ba
       -0.00031227473 0.002020301 -0.0020036842 -0.0014398572
000020 aa c5 16 bb 2e 17 e9 3a b6 ec 14 ba 5e 16 03 bb
       -0.0023006 0.0017783397 -0.00056810246 -0.0020002346
000030 49 54 27 bb 97 33 5e 3b 66 92 c9 38 68 3e 57 bb
       -0.0025532416 0.0033905262 9.611696e-05 -0.0032843594
000040 f3 a1 be ba 15 8d cc b9 4a 38 ab 3a 8e 67 10 3b
       -0.0014544114 -0.00039015026 0.001306304 0.002203438
000050 7f 4e 68 3a 2f 25 46 bb 05 a5 37 ba 30 f8 80 bb
       0.00088617945 -0.0030234565 -0.0007005486 -0.0039358363
000060 95 79 4f bb dd 39 bd ba ab c5 27 ba 23 45 36 bb
       -0.0031658162 -0.00144368 -0.0006399999 -0.0027812205
000070 68 1d 44 ba 1a f3 80 bb 39 89 cc 3a 01 22 79 bb
       -0.00074811885 -0.00393523 0.001560486 -0.0038014653
000080 80 d9 5f 3a 95 18 fb ba 6b 18 26 3b 0e 36 d8 ba
       0.0008539185 -0.0019157106 0.0025344144 -0.0016495602
000090 b1 20 89 38 c7 f8 d9 ba 01 42 11 3b f8 ad 4c 3b
       6.538758e-05 -0.0016629928 0.0022164586 0.0031231623
0000a0 f2 4f 80 bb 6d c0 44 bb 03 35 89 3a 72 dd 50 bb
       -0.00391578 -0.0030021921 0.0010468069 -0.0031870273
0000b0 7c c0 d9 3a 36 75 58 bb 1f 4b 27 bb 2b bb 7e ba
       0.0016613151 -0.0033028848 -0.0025526953 -0.0009717221
0000c0 bc 3a 14 ba 69 71 a2 ba 2a a8 e4 b9 6a 74 8b ba
       -0.0005654504 -0.0012393418 -0.0004361284 -0.0010639552
0000d0 70 b6 15 3b 08 06 31 39 30 94 05 ba 9c 9f 00 bb
       0.0022844337 0.00016882282 -0.0005095629 -0.0019626385
0000e0 cb eb 2b 3a d3 a9 6c bb 60 60 4e 3b de 2b a2 bb
       0.0006558268 -0.0036111965 0.003149055 -0.004949077
0000f0 3f a2 17 bb d6 7e b4 3a 46 f7 03 bb 14 ad e4 ba
       -0.0023137478 0.001377071 -0.00201364 -0.0017446601
000100 f1 5b 86 bb 07 f4 be ba 06 e5 a0 3a bf c9 bb ba
       -0.0041003157 -0.0014568575 0.0012275286 -0.0014327093
000110 b5 d0 7e 3a cf 95 4b bb 07 4e c3 b9 1f 65 46 3b
       0.0009720431 -0.0031064635 -0.00037251433 0.0030272675
000120 86 c1 80 bb 3d bf f6 3a 46 a8 76 bb f6 eb fc 3a
       -0.00392932 0.0018825304 -0.003763692 0.0019296396
000130 2c 90 a2 3a 06 86 09 3b e0 03 f5 ba 7c 67 b4 ba
       0.0012402586 0.0020984425 -0.0018693171 -0.0013763751
000140 14 d2 0e bb 5d b6 e3 3a 25 ad e0 ba cf 89 8d ba
       -0.0021792697 0.0017373074 -0.0017141445 -0.0010798516
000150 4c 69 a0 3a 5b df 90 bb be 65 e8 ba 3e ba 51 bb
       0.0012238412 -0.0044211573 -0.0017730517 -0.0032001878
000160 bf 53 36 bb 19 ed c5 3a 40 2c 32 bb ea c7 63 bb
       -0.0027820913 0.0015100568 -0.002718702 -0.003475661
000170 40 f6 50 3b dc ec 99 3a 9a bb 03 bb 46 9f b2 b9
       0.0031885058 0.0011743563 -0.0020100833 -0.00034069474
000180 24 37 e7 ba 25 a5 23 bb 23 f6 16 bb 50 45 c1 3a
       -0.0017640335 -0.002497026 -0.0023034893 0.0014745388
000190 58 6f e8 3a b3 9e f4 b8 8c bc 8a 3a d8 02 72 3a
       0.0017733378 -0.00011664387 0.0010584756 0.0009231991
0001a0 4b 80 8c 3a 77 26 c4 bb ba df 30 ba 77 ef 1e 3b
       0.0010719387 -0.0059860307 -0.0006747205 0.002425162
0001b0 b2 3c c3 34 6b 3d 68 3a 99 35 aa 3a eb 98 d6 39
       3.6365742e-07 0.00088592496 0.0012985944 0.00040931194
0001c0 52 6e c4 3a 53 a4 d3 ba 66 d4 1b 3b ad e0 00 bb
       0.0014986491 -0.0016146995 0.0023777722 -0.0019665167
0001d0 93 5a a9 ba 9d 57 15 bb 1a d5 1c bb ad 1f 1a 3b
       -0.001292067 -0.0022787817 -0.002393073 0.0023517415

fc2.weight f4 [80, 120]
000000 04 03 dc 3c fc d3 32 bb f7 60 7d 3d 32 7d 22 3b
       0.026856907 -0.0027286997 0.06186005 0.002479386
000010 eb 4c e6 bc f5 7e 04 bc dc ee 18 3d 9d d7 17 3c
       -0.02811285 -0.00808691 0.03733717 0.009267715
000020 a9 0f 07 3c f7 c9 07 bc 3f 2c a9 3b df 7f 48 3d
       0.00824348 -0.008287898 0.0051627452 0.048950072
000030 aa 38 30 bd db 60 09 bb c2 78 23 bb 91 f8 ca 3c
       -0.04302279 -0.0020962271 -0.0024943803 0.024776729
000040 34 da 62 bc f9 be c9 3c af ce 0e bd 51 d2 24 3c
       -0.013845969 0.024627196 -0.034865078 0.010059909
000050 55 10 86 bb 93 ad d3 ba e0 d3 8f bb 99 ee 87 bb
       -0.0040913024 -0.0016149752 -0.004389271 -0.004148316
000060 c9 e1 1c 3d e3 c5 fb 3c 40 9d 98 bc 41 16 bb 3c
       0.038301263 0.030734008 -0.01862967 0.02283776
000070 f8 bb 66 3c a6 cf 20 bd df db 89 3b 19 89 f8 bc
       0.014082901 -0.03926053 0.004207119 -0.03033881
000080 b5 23 c6 3b a1 f3 83 3d 8d 20 f8 3c 23 fd c7 3c
       0.006046737 0.06442953 0.030288959 0.024412697
000090 f7 3b 09 3d a9 75 41 3c 74 4d ad 3c 33 7d 0a bc
       0.033504453 0.0118078375 0.021155097 -0.008452701
0000a0 94 c1 33 bb f8 39 87 3d 58 e8 19 3c 51 3c dc bb
       -0.0027428614 0.066028535 0.009393774 -0.0067210575
0000b0 83 62 86 bc a0 60 06 bd fa 6e 0f 3c 49 71 a1 3c
       -0.016404396 -0.032806993 0.008754486 0.019707339
0000c0 36 fc 10 3a 13 55 66 bb 63 a7 4a 3d e3 de 00 bd
       0.00055307464 -0.0035145923 0.04947604 -0.03146256
0000d0 bd d6 cd bb 2a f1 2b 3b 9b 32 39 bb 91 cd d6 3c
       -0.0062817023 0.0026236274 -0.0028258923 0.026221069
0000e0 08 95 fc bc a1 91 d0 3c f6 9b 4e bc fb 6a f4 bc
       -0.030832782 0.025460066 -0.012610426 -0.029836169
0000f0 15 1f 6a 3c 6d 56 df 3b 04 50 1a 3d c7 98 13 bb
       0.014289637 0.0068157227 0.037673965 -0.0022521482
000100 ad 93 b4 bc cf 63 72 bb 4b 59 76 3d 30 4a 37 bd
       -0.022043074 -0.003698576 0.06014375 -0.044748485
000110 c9 d3 1f 3d 46 1c bf 3b c1 1a 55 3b 9d 11 51 bd
       0.039020333 0.005832228 0.0032517167 -0.051042188
000120 f4 0a bd 3c 2a 9d e6 bc bc 79 24 39 3e d7 ac 3d
       0.023076512 -0.028151114 0.00015685608 0.08439492
000130 59 fb 08 bd 24 ae b7 bc 38 cb 24 bd ef ee 95 3c
       -0.03344283 -0.022421904 -0.040232867 0.018302409
000140 0f fa 15 3c 03 ad 0e ba 8c c0 70 3d ba 01 2a 3d
       0.009153857 -0.0005442651 0.058777377 0.041505553
000150 59 48 1b bd 34 2c 3c 3d 8a ce e8 3c 8d 6d cd bc
       -0.037910793 0.045940593 0.028418798 -0.025076652
000160 3b 12 bb bc 32 42 cd bc 17 4d 9d 3c 53 4d 8c 3c
       -0.022835841 -0.025055978 0.019201798 0.017126715
000170 5d 11 9f 3c b0 d9 c0 3a 1a 45 fd bc b5 bb c0 bb
       0.01941746 0.0014713313 -0.03091674 -0.0058817514
000180 f8 b4 be 3c 98 c7 1b bd 79 60 98 3b 25 b9 40 3c
       0.023279652 -0.038032144 0.0046501723 0.011762892
000190 ca 8d 06 bd 33 11 9e bb ac 5d 7b 3a 32 86 55 39
       -0.032850064 -0.0048238277 0.00095888483 0.00020363255
0001a0 ad 69 80 bc 48 b5 5d bc 76 82 49 3c bd f3 07 3b
       -0.01567539 -0.01353199 0.012299171 0.0020744645
0001b0 64 1d 01 3d d3 31 dc ba 5a 44 ae 3b 18 55 85 3c
       0.03152217 -0.0016799517 0.0053182067 0.016275927
0001c0 5a d9 a1 bc 1f ca 4e bb e7 36 d4 3b 70 b0 6d bc
       -0.019756962 -0.003155358 0.0064762714 -0.014507398
0001d0 4b 89 56 3b 81 da a3 bc 3e ad a9 bb c3 d1 dc 3b
       0.0032735642 -0.020001652 -0.005178123 0.0067388727
0001e0 f1 f4 c6 3b da 53 50 bc f1 c3 73 bc ee 8e b1 bb
       0.0060716798 -0.012715304 -0.014878259 -0.00541865
0001f0 36 58 ee 3b 2d 01 10 bd e5 84 d1 3c a0 ae 38 3c
       0.007273699 -0.03515737 0.025576064 0.011272103
000200 2a 72 20 3d 00 ad a5 bc df 55 a7 3b 3f 79 5c bc
       0.039171375 -0.020224094 0.005106672 -0.013456642
000210 69 93 77 bd ad 0f c5 ba ba d0 05 3b 58 26 f7 3c
       -0.060443316 -0.0015034579 0.00204186 0.03016965
000220 5e 9b 85 bb 80 80 87 3b af 9e f4 bc f1 5c 16 bc
       -0.004077359 0.0041351914 -0.029860822 -0.009177432
000230 da 5f d0 bc f8 a3 b7 bc 3a 8d 64 3c 9d 0f a0 bc
       -0.02543633 -0.022417054 0.013949687 -0.019538695
000240 40 17 a4 3b fd 11 ac 3d f5 6b a6 b9 47 6e d0 bc
       0.0050076544 0.084018685 -0.00031742422 -0.02544321
000250 ef ee bd bc d0 29 0a 3d c4 c6 03 3c db dc f4 3c
       -0.023185221 0.03373128 0.008042995 0.029890468
000260 e3 6f b2 bc b9 30 d7 3c 8c 91 00 3d 70 98 94 bd
       -0.021781867 0.02626835 0.031388804 -0.07255638
000270 6a 7d b5 bc 78 d5 00 bd 09 57 1c 3c 8c 7f 2f 3b
       -0.022154529 -0.03145358 0.009542235 0.0026778905
000280 a4 ae 9e 3a f2 5d 52 3c 95 71 79 3c db 3f cd ba
       0.001210649 0.012839781 0.015224834 -0.0015659289
000290 0d 38 5a bc aa 7e 00 3d 11 a4 39 3b 4e 60 86 3c
       -0.013319028 0.031370796 0.002832655 0.016403344
0002a0 b2 89 52 3b 2e 77 23 3c 3a 9d b2 3c e2 36 4f 3c
       0.003212553 0.009977145 0.021803487 0.012647362
0002b0 8a e7 2c 3b d7 e7 d8 bc f0 09 52 bd 00 a4 3f 3c
       0.0026383125 -0.026477737 -0.05127901 0.0116968155
0002c0 29 b3 fa bb 62 a1 3b 3b 06 49 e4 3c 5c 69 6f 3a
       -0.007650752 0.0028630127 0.027866852 0.0009132826
0002d0 a8 1b 85 3d d4 11 d1 3b b5 31 14 bd 2f 63 e2 bc
       0.06499416 0.006380299 -0.036180217 -0.027635185
0002e0 95 8a 8e bd 43 f6 1c 3c b2 73 22 bb 43 d9 e5 3c
       -0.06960026 0.009580198 -0.0024788198 0.0280577
0002f0 05 ad e6 bb c6 b7 88 3d 3e 99 c4 bb 26 33 1f bb
       -0.0070396685 0.06675677 -0.005999713 -0.0024291961
000300 71 66 35 3d 5e dd ac bc 72 c0 c3 3c 21 bb fd 3c
       0.04428715 -0.02110165 0.023895476 0.03097302
000310 8f 82 4c 3d 16 bc ba bc f5 cc 17 3c 09 d5 95 3c
       0.049929198 -0.022794764 0.009265174 0.01829006
000320 a5 37 12 3d 41 84 db bc 5e 0d e5 3c c9 b6 06 bd
       0.035697598 -0.026796462 0.027960476 -0.03288916
000330 83 55 37 bd e5 85 77 3d 7c d4 f7 3b 95 7f 17 3b
       -0.044759285 0.060430426 0.007563172 0.0023116816
000340 ce 42 7c 3d 49 da 72 3d d4 39 c0 3c 3b 30 25 3b
       0.061587147 0.059290204 0.023465075 0.002520575
000350 83 38 59 3c 83 ac 14 3c 49 f9 fc 3c fc 2a d4 3b
       0.013258102 0.009074333 0.030880587 0.0064748507
000360 f7 50 c5 3c 5d e7 53 bc ba 6d 49 3c f7 82 24 bd
       0.024086459 -0.012933579 0.012294227 -0.04016396
000370 43 fe f8 3c 85 2f 6e 3d b7 44 00 3d 37 46 9d 3a
       0.030394679 0.058150787 0.03131553 0.0011999075
000380 48 4a 54 3d 39 c5 23 3d de 63 78 bd 2c c3 81 3d
       0.051828653 0.039983008 -0.060642116 0.06336054
000390 24 32 99 bc df e3 b9 bc 56 6c 4f 3d 60 09 3b 3d
       -0.018700667 -0.022691665 0.050640427 0.045663238
0003a0 a5 d7 f7 ba ab 65 e9 3c 22 9a ee 3a 7b b1 8c bc
       -0.0018908872 0.028490862 0.0018203894 -0.017174473
0003b0 4b c2 3e 3d d2 c3 11 3c ef 7d fc 3c 92 9c 93 3b
       0.04657201 0.008896785 0.030821769 0.0045047486
0003c0 72 5b 38 3c 13 8d 61 bc b1 83 14 3d 16 43 0a 3b
       0.011252271 -0.013766545 0.036258403 0.0021097115
0003d0 ef c1 0b 3d 9d 06 28 bd 6a 90 10 bd bd 3d c9 3c
       0.034120496 -0.041021932 -0.035293974 0.024565572
0003e0 d3 d6 08 3d ee 38 df bc 1d 57 db b9 28 9c f6 3c
       0.033407997 -0.027248826 -0.0004183584 0.030103758
0003f0 88 a8 5a 3d 87 ef 89 bb 70 10 a0 bc 2c 56 da 39
       0.05338338 -0.004209462 -0.019539088 0.00041644403

fc2.bias f4 [80]
000000 ce d5 4f bb ba e7 7c 3b 48 ca 94 3a 13 ff f6 3a
       -0.003171313 0.0038590268 0.0011351788 0.0018844329
000010 ba ad 67 3b bb 7e ff 3b ac 50 04 3c 2c 8c f1 3b
       0.0035351352 0.00779709 0.008075874 0.007371446
000020 c5 f4 1e 3c 3b 36 47 3b ad b6 95 3b 6b 3b 0a 3c
       0.009701912 0.0030397314 0.004568896 0.008437018
000030 a3 bd af bb 07 91 c2 3b b0 7a bc b8 66 54 c7 bb
       -0.0053631826 0.0059376988 -8.987391e-05 -0.006083059
000040 7d 6a 08 3b 2d f6 97 bb d0 0c 55 3b 20 ba be bb
       0.0020815425 -0.0046375007 0.0032508858 -0.0058205277
000050 fa 8a 14 3c 80 41 06 bc 81 80 b1 3a 10 da 26 3b
       0.009066338 -0.008194327 0.0013542325 0.0025459565
000060 a8 ff 01 3c 6b 2d 0b bc 90 65 b8 3b 16 f2 c3 b8
       0.007934488 -0.008494715 0.0056273416 -9.3434166e-05
000070 34 ae a5 ba ca 44 76 bb c4 99 c9 ba 43 df e8 bb
       -0.0012640418 -0.0037577623 -0.0015380909 -0.007106693
000080 6b 5c 1c bb 83 b9 5a 3b d1 92 bd 3b a8 5a 9d 3b
       -0.0023858796 0.0033374734 0.005785324 0.004802067
000090 3b a0 76 3b fd 1d e1 3a a2 e2 0d 3b 75 f9 7b ba
       0.0037632126 0.0017175075 0.0021649976 -0.0009612062
0000a0 1b 53 03 3c 61 fe f9 3b 9f e3 a7 3b 1a b0 90 3a
       0.008015419 0.0076292013 0.00512357 0.001103881
0000b0 e0 76 0a bb f8 58 8b bb c7 06 3b 3a d6 47 07 bc
       -0.0021127984 -0.0042525493 0.0007134494 -0.008256873
0000c0 cd 97 7e 3b 6f 90 b1 bb e1 08 c4 39 c0 4d f2 3b
       0.0038847805 -0.005418829 0.00037390649 0.0073945224
0000d0 5f c8 38 3b 7a ef d5 ba f6 4d 18 3c b2 37 9c bb
       0.0028195602 -0.001632198 0.009295931 -0.0047673816
0000e0 c0 44 b5 3b 07 11 9b bb 9a ce 69 3b 99 6d cd bb
       0.0055318773 -0.0047322544 0.0035676123 -0.0062691686
0000f0 bb 9e 38 3a 6f 93 ca 3b 28 55 51 3b b3 a6 a5 bb
       0.00070426957 0.0061821262 0.0031941626 -0.0050552725
000100 92 4c 8a bb fd a9 d8 bb 80 f4 e9 bb c6 b6 6c b9
       -0.0042205537 -0.006612061 -0.0071397424 -0.00022574802
000110 d4 7a 07 bc 99 95 c4 bb a7 56 11 bc 37 ab ee 3b
       -0.008269031 -0.0059992787 -0.008870757 0.007283594
000120 5d 61 75 ba ba d7 97 ba 51 f1 3c 3b 39 8e 10 3c
       -0.00093605166 -0.0011584677 0.002883036 0.008822971
000130 35 48 cd 3b b2 ed 38 3b 5f ce 32 3b 22 af 13 3b
       0.0062647113 0.002821785 0.0027283651 0.0022534807

fc3.weight f4 [40, 80]
000000 6b ff 92 3c b1 d9 89 bd ee c7 6c b9 29 52 56 3c
       0.017944058 -0.067309745 -0.00022581193 0.013081112
000010 62 57 48 bd 11 84 c6 3d 9e ab 10 bd e0 d8 c8 bc
       -0.04891146 0.096931584 -0.035319917 -0.024517477
000020 a9 69 a8 3d f5 f8 1d bd b8 f8 cb 3d 1d a2 f7 3c
       0.08223278 -0.038567502 0.09959549 0.030228669
000030 8e 13 15 3d 92 86 5b bd 92 43 3f 3d 4d fe 14 bc
       0.036395602 -0.053595133 0.0466953 -0.009093833
000040 be a4 9e 3d 33 a1 0a bd 78 0f 99 bc 38 27 80 bd
       0.07746266 -0.033845138 -0.018684134 -0.062574804
000050 3f 67 95 bd 06 55 73 bd 0d ec 60 3d d0 cc 6f 3d
       -0.07295083 -0.059407257 0.054912616 0.058544934
000060 2d 5f 8e 3d 3d 32 95 bc 95 8c 01 3d 7e 40 85 3c
       0.06951747 -0.018212432 0.03162821 0.016266104
000070 68 eb 83 3c 8b 43 9b 3d 3a 33 06 3d 4f 89 bb 3d
       0.016103461 0.07581242 0.032763697 0.09157049
000080 82 6f 40 bd 6e c4 89 3a 90 0b 8d 3c 7e eb 30 3d
       -0.046981342 0.0010510811 0.017217427 0.043193333
000090 d5 dd 04 bc b8 2a 03 bd 2f 55 7f bc 53 cd 06 bd
       -0.0081095295 -0.03202316 -0.015584274 -0.032910656
0000a0 e9 73 3c bc bb 6f 5b 3d 32 c8 b2 bc a5 5a 5b 3b
       -0.0115022445 0.05357335 -0.021823976 0.0033470776
0000b0 9d 0a c4 3c 87 74 3e bc 01 82 d8 3c 43 5c e5 3c
       0.023930842 -0.011624462 0.026429178 0.027998095
0000c0 2c 73 84 3d 1d 2a 3b bd ff 9c 51 3d ae a4 5b bb
       0.0646728 -0.04569446 0.051175114 -0.0033514905
0000d0 26 c6 82 bb ff 4f d3 bc 3b 3d 83 3d c7 4d 90 bc
       -0.0039909063 -0.025794981 0.06408163 -0.017615212
0000e0 16 69 a9 3d 91 f0 c0 3d 52 3c 3c bd 22 61 82 bc
       0.08271997 0.094208844 -0.045955963 -0.015915457
0000f0 75 1f cc bc 84 16 38 bd 1a d6 a0 3d aa 39 2c 3d
       -0.024917344 -0.044943348 0.07853337 0.04204718
000100 e5 ff cb 39 4e d4 be 3d e0 3e 8c 3a df 3e 92 3d
       0.00038909834 0.09317838 0.001069989 0.07140898
000110 51 3c 51 3d 6f 2c 49 3d 04 14 b9 bc 7f 23 fc bc
       0.051082913 0.04911464 -0.022592552 -0.030778645
000120 c0 9a 72 3d 9e ed a4 bc 65 1f d0 bc f5 a5 bd bc
       0.059229612 -0.020132836 -0.025405595 -0.023150424
000130 52 44 e5 bc 3d 6f b8 3b 0a 1b 2d 3d d3 6f 6b bd
       -0.02798668 0.005628495 0.042262115 -0.05747969
000140 60 31 0a bd 15 b9 02 bc 76 7a 9d bc 2d 5b 6e 3c
       -0.033738494 -0.007978697 -0.019223433 0.014548105
000150 da 02 e4 bc 35 74 87 ba 16 2d 80 3d 0c d3 19 bb
       -0.027833391 -0.0010334315 0.062585995 -0.002347174
000160 eb 1b 96 3d d7 33 04 bd a0 3f 71 bc 93 ad 15 3d
       0.07329544 -0.032276 -0.014724642 0.036542486
000170 eb d0 6c bc e6 bf 7c 3c 47 7f af 3d a8 b5 bb bb
       -0.014454107 0.0154266115 0.08569198 -0.005728442
000180 77 85 89 3d a4 37 c5 bc a5 25 fd bc f9 d1 4b 3d
       0.067149095 -0.024074383 -0.03090174 0.049760792
000190 98 48 b2 bc e2 f7 a0 bc 41 bd 84 bc 74 ac 82 3d
       -0.021763131 -0.01964945 -0.016203525 0.06380549
0001a0 2c 3b 98 bc a6 17 8f bb 70 f1 e9 bc 05 ee c3 bc
       -0.018582903 -0.004366833 -0.02855751 -0.023917207
0001b0 b7 d6 06 bc 64 a8 80 3d 3b 42 02 3d 43 92 a5 3d
       -0.008229903 0.06282118 0.031801444 0.08084538
0001c0 93 55 63 b9 5c 98 a2 3d 8d 6e 9e 3d 4c 30 df bc
       -0.00021680286 0.079392165 0.0773593 -0.02724471
0001d0 4e 42 50 bc 10 ca 9d bc 42 cf aa bc ea 42 80 bc
       -0.012711121 -0.01926139 -0.020850781 -0.015656907
0001e0 b5 30 d9 3c 98 69 b7 bc 26 0f f6 3c 06 86 0e bc
       0.026512483 -0.022389218 0.03003652 -0.008698946
0001f0 7d aa 3e bc 33 b0 b8 bc 7c c5 9e bc 2c e2 8f 3d
       -0.011637327 -0.022544956 -0.019381277 0.07025561
000200 3b d5 91 3d 9d ed 93 bc 8a ef aa bc 24 4f 12 bd
       0.071207486 -0.018057639 -0.020866174 -0.035720006
000210 9b c7 60 bc 02 66 4e 3d 34 09 92 bc ba c3 50 bc
       -0.013719465 0.05039025 -0.017826654 -0.012741977
000220 19 ac 85 3d 95 45 e5 bc 7d b0 f3 bc 2a 07 6b 3d
       0.06526966 -0.02798728 -0.029747242 0.05737988
000230 7b c5 ab bc 32 46 69 3d 0b 52 a1 3d f2 3f 37 bd
       -0.02096819 0.05695171 0.078769766 -0.044738717
000240 b6 86 4a bc b2 ae 92 3c cf ca 7c 3b 77 fb 10 3b
       -0.012361219 0.017905567 0.0038573032 0.002212254
000250 18 db 16 3d 49 5e 6b 3d 38 5b 5b 3d 86 7c ca 3c
       0.036830038 0.057462964 0.05355379 0.02471758
000260 c5 cf f2 bc 5d ed 9d bc fb a9 69 3d 2b 04 72 3b
       -0.029640088 -0.019278223 0.05704687 0.0036928754
000270 4e ca a8 3d c3 86 75 bc 2f 43 26 bc 19 8c d3 bb
       0.082417116 -0.014985743 -0.010147854 -0.00645591
000280 90 a4 5d 3d b2 a0 a2 3d 20 55 52 3d e0 7a e4 3c
       0.054112017 0.079408064 0.051350713 0.027890623
000290 03 aa 84 3d e9 85 07 bd 86 02 35 bd 12 ec a9 3c
       0.0647774 -0.03308669 -0.04419186 0.02074245
0002a0 5a 44 26 bd dc b6 94 bc f8 9a bc bc c4 0b 4b bd
       -0.04059253 -0.0181536 -0.023023114 -0.049571767
0002b0 ce 0d 8b bc 6c 04 ba 3b b9 e2 18 bc da d6 d0 bc
       -0.016974356 0.0056767967 -0.009331399 -0.025493074
0002c0 da eb 2c bd 5f 92 fc 3b 84 83 80 3d 77 13 a0 3d
       -0.042217113 0.0077078785 0.062750846 0.078162126
0002d0 3d 62 2b bb 12 76 88 bc 05 db 04 3d 1f 13 a3 3d
       -0.0026151084 -0.016657863 0.032435436 0.079626314
0002e0 37 e9 40 bd e2 f2 84 3b 6c 2a 14 bd cb 4a 77 bc
       -0.04709741 0.004057274 -0.03617327 -0.015093516
0002f0 ec cd 27 3b 79 8e ef bc ac 75 b0 bc cc f2 06 bd
       0.0025604917 -0.029242741 -0.021540485 -0.032946393
000300 b4 f3 36 3d e8 08 f9 bc e3 1f 52 bd 70 d1 48 bd
       0.044666007 -0.030399755 -0.05129994 -0.04902786
000310 d1 c3 0e bd 08 45 26 3d cc c7 59 bb cb 46 bb bc
       -0.034854714 0.040593177 -0.003323066 -0.022860905
000320 a6 1c ea 3b 2c 23 90 3d 19 f1 35 bd 54 21 1b 3d
       0.0071445284 0.070379585 -0.04441938 0.03787358
000330 ba a7 5e ba 15 b7 00 3d 62 f5 dc 3c c7 98 ea bc
       -0.0008493621 0.0314246 0.026972476 -0.028637303
000340 a8 e7 65 3d 11 ab 1b 3d df d5 a5 3d 77 83 27 3d
       0.056129128 0.03800494 0.08097433 0.04089686
000350 d5 48 ee bb 32 6e 97 3d 2f 94 ab 3d f6 e9 97 3d
       -0.007271866 0.07394065 0.08377873 0.074176714
000360 3d 66 6e bc bb 70 c1 bc 33 04 87 3d 62 cb 27 3d
       -0.014550743 -0.023613324 0.06592598 0.040965445
000370 d3 62 b4 3d 6d a4 29 bd 35 34 33 3c 55 eb 01 bd
       0.08807912 -0.041416574 0.01093774 -0.03171857
000380 65 7e d2 3d bc 69 71 bc a1 15 c5 bb f0 e7 58 3d
       0.10278014 -0.014734682 -0.0060145413 0.052955568
000390 42 cd 92 3d ca 48 5c bd 24 18 96 3d b7 37 88 bc
       0.07168056 -0.053780355 0.07328823 -0.01662813
0003a0 00 78 9a bb 53 04 bd bb 67 1b 59 3c 75 ee 67 3d
       -0.004714012 -0.0057683378 0.013251162 0.056623895
0003b0 51 74 6e bc 19 92 ac 3d da 04 9a 3c 9a 9c 6f bd
       -0.014554099 0.084263034 0.018801142 -0.058498956
0003c0 67 40 56 3d 51 94 07 bd 4a fb a5 3d 98 9f b2 3d
       0.052307513 -0.03310043 0.0810457 0.08721846
0003d0 ca 1d 8d 3d 8e 96 89 3d f0 74 d6 3c 76 99 81 3d
       0.068904474 0.06718169 0.026178807 0.063280985
0003e0 e3 79 90 bc 84 69 08 bd a4 9b 32 bd c2 57 85 bc
       -0.017636245 -0.033303753 -0.04360546 -0.016277198
0003f0 2c 0f 12 bb d0 13 9e 3d ba c5 bc 3d 57 76 90 3d
       -0.0022286875 0.07718623 0.09217401 0.070538215

fc3.bias f4 [40]
000000 a3 4f 9d 3a 54 6f 82 3b 72 12 fc 3a f7 5c 09 3c
       0.0012001883 0.0039805565 0.0019231571 0.008383981
000010 80 f6 a7 3a 80 17 5b 3c fd 22 f4 bb 9a b8 10 3b
       0.0012814552 0.013372302 -0.00745046 0.0022082687
000020 32 bf a0 39 12 0b f6 bb 5a f0 33 3c bf 54 01 bb
       0.0003066003 -0.007508644 0.010982597 -0.001973435
000030 b3 47 9d 3b 01 68 b6 39 22 ad a9 3a ba 78 2d 3b
       0.004799807 0.00034791234 0.0012945274 0.0026469664
000040 30 e7 d6 3a f9 a6 ed ba 07 d3 88 3b d1 f8 2b bb
       0.0016395804 -0.0018131427 0.004175547 -0.0026240835
000050 8c 99 8c 3c 16 2b 47 3c c1 cb cc 3a aa 18 94 3b
       0.01716306 0.012156269 0.0015624688 0.0045195417
000060 a9 fe 7c 3c 5e f6 e6 3b 0f 09 05 3c 20 ac a4 3b
       0.015441575 0.007048412 0.0081198355 0.0050254017
000070 d5 f7 b8 3c c8 8e 67 3c 0c ad 8d 3c 0d eb 54 bc
       0.022579113 0.014133163 0.01729443 -0.012995494
000080 c8 ea f6 ba 89 d1 1c 3c 49 4f 84 bb 22 36 07 bb
       -0.0018838281 0.009571441 -0.004037772 -0.002063163
000090 57 03 67 3b 27 02 53 3a a7 ee b0 3c 08 75 91 b9
       0.0035249793 0.0008049332 0.021598173 -0.0002774375
