outfiles/cnn/ORL32_4Train_cnn.pth (torch, 334655 bytes, 10 tensors)

conv_layer1.weight f4 [8, 1, 5, 5]
0.014706882 -0.001867579 0.011449485 -0.0060163355 0.0014521023 0.0032694205 -0.013567583 0.0031576126
-0.0010844275 -0.0127819255 0.011907942 0.00662009 0.010752832 0.013885912 0.005181045 -0.0027760242
0.00839315 0.00024435186 -0.0036946007 -0.019133938 -0.0015510686 -0.016413916 -0.0040490264 0.006942226
0.006690381 0.17740998 0.3575846 0.22796401 0.22161283 0.054932803 0.20238467 0.27170146
0.08663378 0.1585462 -0.027574625 0.003282615 0.19837803 -0.123597614 -0.051069595 -0.2903159
0.17272027 -0.08239898 -0.14110717 -0.3962483 -0.4241488 0.15576567 -0.028954154 0.06264593
-0.34787485 -0.36752823 -0.017579127 -0.09113713 -0.094614215 -0.023588562 -0.021156304 0.01960972
-0.010796864 0.02574014 -0.03660836 -0.05026165 0.009295011 0.033996064 0.008566163 0.042004906
0.025156101 0.0411234 0.04205609 0.059696037 0.04960679 0.021257265 0.015152856 0.049371704
0.06162428 0.08754946 0.06369698 -0.054992624 0.09843848 -0.17220198 -0.067628935 0.060852814
0.14087692 0.07002014 -0.103831984 0.0022533757 -0.04070739 0.15720464 0.0145958215 -0.026078327
-0.1849738 0.017979648 0.15341271 -0.022745812 -0.083696075 -0.15939906 0.07643523 0.20239943
-0.02051645 -0.15781642 -0.10071757 -0.057749268 -0.016941737 0.006724609 -0.061982054 0.0566033
0.014527384 -0.008287101 -0.014490812 -0.009566981 0.03015667 0.08282525 -0.040815864 -0.0010342528
-0.055309117 0.0015411067 0.058600962 -0.010174531 -0.03835166 -0.065394275 -0.037732676 0.025884451
-0.040920835 -0.057746314 -0.048668146 0.05142085 0.027464772 0.06281859 -0.0084415795 0.024186881
0.0143845705 0.019395702 -0.10173771 -0.048623066 -0.12818657 -0.105748326 -0.08289183 -0.112143934
-0.13091433 -0.11691832 -0.022476343 0.0025842008 0.04405112 -0.02239915 0.113725506 0.08748772
-0.009556963 0.19252142 0.14284252 0.07838491 0.10515387 0.03917655 0.029700972 -0.11630629
-0.41338357 -0.3197358 -0.225436 0.19155873 -0.062211107 -0.11401492 -0.14395879 -0.20956786
0.23330024 0.106485575 0.0154089155 0.15749271 0.034892425 0.13261168 0.033756044 0.1572623
0.24716513 -0.019172657 -0.027544979 0.15314268 0.2985958 0.27283546 -0.01322941 0.007038899
0.08762207 0.05970301 -0.015179004 -0.053545423 0.020193774 -0.01124467 -0.07028812 0.036281005
-0.0108999945 0.09502918 0.09162515 -0.008215086 -0.043439586 -0.058106624 0.017656732 0.032070898
-0.063951395 0.014399734 -0.027810324 -0.03488148 -0.047573928 -0.055250693 -0.030112252 -0.06268314
00000000: 22f5 703c 8dc9 f4ba 9f96 3b3c ae24 c5bb
00000010: 7854 be3a c643 563b 914a 5ebc f3ef 4e3b
00000020: 5923 8eba 486b 51bc 8719 433c 57ed d83b
00000030: a52c 303c bc81 633c c1c5 a93b f5ed 35bb
00000040: 6c83 093c 5a1c 8039 1d21 72bb c7be 9cbc
00000050: 3a4d cbba 7a76 86bc b2ad 84bb 9d7b e33b
00000060: fc3a db3b f6aa 353e 5415 b73e 666f 693e
00000070: 79ee 623e 3801 613d ed3d 4f3e 741c 8b3e
00000080: 0d6d b13d ef59 223e 2ee4 e1bc 2421 573b
00000090: 9c23 4b3e bf20 fdbd 5a2e 51bd 49a4 94be
000000a0: 95dd 303e ccc0 a8bd 667e 10be 0fe1 cabe
000000b0: 082a d9be 0981 1f3e 4331 edbc 824c 803d
000000c0: a71c b2be a92c bcbe 1a02 90bc 1ba6 babd
000000d0: 19c5 c1bd cd3c c1bc fc4f adbc 90a4 a03c
000000e0: 54e5 30bc fcdc d23c a6f2 15bd 29df 4dbd
000000f0: 1a4a 183c 753f 0b3d 1759 0c3c 560d 2c3d
00000100: 2b14 ce3c 0371 283d 0243 2c3d d583 743d
00000110: 7d30 4b3d b723 ae3c af43 783c fc39 4a3d
00000120: be69 7c3d 224d b33d 9073 823d f23f 61bd
00000130: 1d9a c93d b755 30be 0a81 8abd cd40 793d
00000140: 0a42 103e b866 8f3d dda5 d4bd 5fad 133b
00000150: cbbc 26bd 41fa 203e 5023 6f3c 37a2 d5bc
00000160: c669 3dbe 0e4a 933c 3918 1d3e 6d55 babc
00000170: d968 abbd 8239 23be 138a 9c3d cc41 4f3e
00000180: 1d12 a8bc a19a 21be 0345 cebd 7f8a 6cbd
00000190: 66c9 8abc 1c5a dc3b e5e0 7dbd ddd8 673d
000001a0: 4404 6e3c 9fc6 07bc df6a 6dbc d4be 1cbc
000001b0: 1f0b f73c 49a0 a93d 892e 27bd c48f 87ba
000001c0: d08b 62bd f6fe c93a 9007 703d 13b3 26bc
000001d0: a116 1dbd 6fed 85bd 948d 1abd a10b d43c
000001e0: 9b9c 27bd 6687 6cbd 4058 47bd ab9e 523d
000001f0: cdfd e03c 08a7 803d 8d4e 0abc 9123 c63c
00000200: 43ad 6b3c bce3 9e3c dc5b d0bd fb28 47bd
00000210: 5743 03be 9492 d8bd 31c3 a9bd b8ab e5bd
00000220: 680e 06be df72 efbd 4f20 b8bc b25b 293b
00000230: f26e 343d 6c7e b7bc ebe8 e83d c32c b33d
00000240: cf94 1cbc 5624 453e 4f45 123e 4588 a03d
00000250: ea5a d73d 9777 203d 744f f33c fe31 eebd
00000260: 03a7 d3be 69b4 a3be b2d8 66be f927 443e
00000270: 13d1 7ebd a880 e9bd ef69 13be f598 56be
00000280: 42e6 6e3e 1c15 da3d ad75 7c3c c545 213e
00000290: 5ceb 0e3d 5bcb 073e c743 0a3d 5e09 213e
000002a0: db18 7d3e fa0f 9dbc 02a6 e1bc 6fd1 1c3e
000002b0: 8ce1 983e 17b1 8b3e 2bc0 58bc 91a6 e63b
000002c0: 3373 b33d 258b 743d 5bb1 78bc 7252 5bbd
000002d0: 6a6d a53c 903b 38bc 38f3 8fbd 649b 143d
000002e0: e495 32bc a99e c23d f7a5 bb3d 9198 06bc
000002f0: b5ed 31bd 3601 6ebd daa4 903c c65c 033d
00000300: f3f8 82bd ddec 6b3c 7ad2 e3bc e2df 0ebd
00000310: e1dc 42bd 8d4e 62bd f8ad f6bc 0560 80bd

conv_layer1.bias f4 [8]
-0.0077493293 -0.0043563363 -0.0012995037 -0.007375366 -0.014384323 -0.008812982 -0.0027820368 0.0067510926
00000000: 16ee fdbb 99bf 8ebb 1c54 aaba 0ead f1bb
00000010: 39ac 6bbc 5364 10bc d552 36bb 4538 dd3b

conv_layer2.weight f4 [16, 1, 5, 5]
0.014161094 0.007803782 0.0013004155 -0.018733243 0.007767064 0.004967001 -0.00762053 -0.0001018811
-0.011933605 -0.0026076273 -0.008775676 0.006165714 -0.010234372 0.0073142876 -0.003028786 0.015019791
-0.009143875 0.0017650086 0.006816083 -0.014125717 0.010306017 -0.0060305367 -0.008925574 -0.017379893
0.0044222656 0.0001752952 -0.015396844 0.011913803 -0.015456496 0.00504898 -0.0106021585 -0.0022516819
-0.010796365 -0.017306559 0.015955294 0.010862276 -0.017386336 0.012697915 0.0023028213 -0.009620683
0.00035761922 -0.009802353 0.013372576 0.005395733 -0.003820817 0.0013490523 0.012625152 0.016380094
-0.0045100125 0.0124579845 -0.018429158 0.069082454 0.023635056 -0.05151909 -0.010574458 -0.115272164
-0.012146867 0.08071105 -0.10435603 -0.15069854 -0.17870761 -0.15489121 -0.014539967 -0.2594804
-0.17789914 -0.06746173 0.06724073 0.23186752 -0.22926009 -0.2118094 0.07024522 0.19125502
0.4511781 0.15483612 -0.03743674 -0.16186251 0.029423228 -0.19627695 -0.012039146 -0.12968566
-0.0028250148 -0.10229661 -0.215127 0.11037292 0.13308592 -0.06607712 -0.20806766 -0.11313681
0.34768566 0.3502121 -0.17203984 -0.08830994 -0.03171171 0.3200299 0.31069994 0.04825125
0.025958542 -0.19170165 0.040206783 -0.12527885 0.019603178 -0.016002443 0.02197536 0.076573044
0.011849879 -0.0020663089 0.060488265 0.0019147042 0.07569641 -0.015587519 -0.06015987 0.012124274
0.053436246 -0.03363031 -0.056606524 -0.06380914 -0.0298338 -0.01253315 -0.013963615 -0.066833235
-0.019683218 -0.023899524 -0.0025832339 -0.04872468 -0.05934676 -0.040313143 -0.018059602 0.068825774
-0.010563169 0.060098086 -0.052305765 -0.0023897751 0.05879268 0.09190651 -0.022599043 -0.04368603
-0.06673352 0.056219175 0.07013817 -0.068056256 0.022955878 -0.07833556 -0.018698927 0.05995824
-0.09399048 -0.009155719 -0.05158689 -0.043808375 -0.0029134746 -0.04791442 -0.055037253 0.033288542
0.03542594 -0.040380996 -0.010493699 -0.09494512 0.1137932 0.15111129 -0.07940567 -0.0006339692
-0.055971213 0.14975092 0.15651877 -0.08154246 0.006690466 -0.05350308 0.055148922 0.089010514
-0.026457248 -0.008473871 -0.05080128 0.014088698 0.028273882 -0.05135418 -0.0044136546 0.0654326
0.015402882 -0.035845064 -0.026101595 -0.0029522707 0.10235302 0.033134542 -0.020546105 -0.011638375
-0.013599325 0.118104905 0.09577892 0.0034595383 0.004145122 -0.038251158 0.12994951 0.10610244
0.02525003 -0.02324291 -0.01995301 0.06153887 0.09230165 0.014528147 -0.0014548494 -0.011588717
-0.0035393385 -0.0151512325 -0.0010003726 -0.006468864 0.001059897 -0.0037464374 0.017203618 0.017602589
-0.0124526555 -0.008616782 0.04236885 -0.0072533763 0.015708588 -0.003219256 -0.0101328865 0.04089804
0.01977095 -0.0018275367 0.0068561663 0.0020238312 0.054492 0.012248408 0.013736962 -0.010053305
-0.002689058 0.0047251284 -0.0039318814 -0.003009573 0.0026585632 0.020915935 -0.0045023123 0.019779636
-0.015211086 -0.007865922 0.03352911 -0.002141859 0.003463145 0.017058931 -0.0007226687 0.028317885
-0.01760961 0.031488094 0.027201641 -0.013297782 0.0319817 -0.022218281 0.025082253 -0.006273043
0.009334485 0.02002188 -0.031115491 -0.06574542 -0.045406852 -0.088574074 -0.052986655 -0.072139844
00000000: ef03 683c deb6 ff3b b472 aa3a 7576 99bc
00000010: db82 fe3b 39c2 a23b a4b5 f9bb 00a9 d5b8
00000020: 2b85 43bc bae4 2abb dac7 0fbc c209 ca3b
00000030: 11ae 27bc b1ac ef3b 997e 46bb 9215 763c
00000040: 31d0 15bc dc57 e73a 7359 df3b 8d6f 67bc
00000050: 91da 283c cf9b c5bb 923c 12bc 4760 8ebc
00000060: a7e8 903b 72cf 3739 0b43 7cbc 1d32 433c
00000070: 3e3d 7dbc ea71 a53b adb4 2dbc f490 13bb
00000080: 3de3 30bc 7cc6 8dbc adb4 823c b0f7 313c
00000090: ca6d 8ebc ea0a 503c eeea 163b 12a0 1dbc
000000a0: d77e bb39 0c9a 20bc a618 5b3c b0ce b03b
000000b0: ac66 7abb afd2 b03a bad9 4e3c 8c2f 863c
000000c0: bac8 93bb 931c 4c3c bff8 96bc 1a7b 8d3d
000000d0: 4e9e c13c ae05 53bd 7e40 2dbc d013 ecbd
000000e0: a703 47bc d64b a53d 9db8 d5bd b850 1abe
000000f0: 21ff 36be cd9b 1ebe 0b39 6ebc 9dda 84be
00000100: 312b 36be 6029 8abd 82b5 893d ae6e 6d3e
00000110: 28c3 6abe 90e4 58be badc 8f3d 5bd8 433e
00000120: d100 e73e 5c8d 1e3e 4457 19bd 49bf 25be
00000130: fb08 f13c d3fc 48be d73f 45bc 51cc 04be
00000140: e223 39bb e380 d1bd 414a 5cbe 330b e23d
00000150: ad47 083e 7153 87bd b00f 55be 46b4 e7bd
00000160: db03 b23e 004f b33e 362b 30be d8db b4bd
00000170: 23e4 01bd f6da a33e 1014 9f3e 1aa3 453d
00000180: 02a7 d43c 704d 44be deaf 243d 1949 00be
00000190: d896 a03c 8e17 83bc ac05 b43c 54d2 9c3d
000001a0: ff25 423c e96a 07bb 8bc2 773d d0f6 fa3a
000001b0: b806 9b3d cb62 7fbc 326a 76bd e4a4 463c
000001c0: f7df 5a3d f0bf 09bd 3edc 67bd 5eae 82bd
000001d0: 0366 f4bc d757 4dbc a5c7 64bc dddf 88bd
000001e0: b33e a1bc efc8 c3bc 794b 29bb 8893 47bd
000001f0: 9715 73bd 651f 25bd bbf1 93bc 87f4 8c3d
00000200: 2411 2dbc 6929 763d 923e 56bd c69d 1cbb
00000210: 98d0 703d 7b39 bc3d a121 b9bc 1ff0 32bd
00000220: 95ab 88bd 1446 663d 9aa4 8f3d 1461 8bbd
00000230: f70d bc3c 656e a0bd 7e2e 99bc c596 753d
00000240: 157e c0bd de01 16bc c64c 53bd 6970 33bd
00000250: feef 3ebb e941 44bd be6e 61bd 9159 083d
00000260: ca1a 113d 8b66 25bd c4ed 2bbc 9672 c2bd
00000270: 690c e93d ebbc 1a3e 719f a2bd f430 26ba
00000280: 1242 65bd 4e58 193e 7546 203e bcff a6bd
00000290: b23b db3b 0c26 5bbd d6e3 613d 254b b63d
000002a0: dfbc d8bc fed5 0abc 0115 50bd 48d4 663c
000002b0: a19e e73c c358 52bd 6ba0 90bb 8701 863d
000002c0: 5f5c 7c3c 46d2 12bd 03d3 d5bc e27a 41bb
000002d0: 769e d13d 16b8 073d 4e50 a8bc e2ae 3ebc
000002e0: b4cf 5ebc fce0 f13d bd27 c43d 6cb9 623b
000002f0: ced3 873b 3fad 1cbd 7c11 053e 3c4c d93d
00000300: 27d9 ce3c ea67 bebc 7f74 a3bc 2f10 7c3d
00000310: a608 bd3d 7707 6e3c a5b0 beba 9ade 3dbc
00000320: 3ff4 67bb e03c 78bc ef1e 83ba c4f8 d3bb
00000330: 3eec 8a3a ca86 75bb 9aee 8c3c 4e33 903c
00000340: 3906 4cbc 672d 0dbc f68a 2d3d bbad edbb
00000350: 4caf 803c 27fa 52bb 6804 26bc b484 273d
00000360: b0f6 a13c f589 efba b1a9 e03b 41a2 043b
00000370: 0133 5f3d 8cad 483c ff10 613c 9eb6 24bc
00000380: e83a 30bb 40d5 9a3b 03d7 80bb 423c 45bb
00000390: 4a3b 2e3b e557 ab3c 2288 93bb e708 a23c
000003a0: eb37 79bc 11e0 00bc d255 093d 6e5e 0cbb
000003b0: eff5 623b 2cbf 8b3c 7a71 3dba e9fa e73c
000003c0: 0742 90bc a9f9 003d fad5 de3c f1de 59bc
000003d0: 3eff 023d 1d03 b6bc 4c79 cd3c 198e cdbb
000003e0: abef 183c ed04 a43c eae5 febc 89a5 86bd
000003f0: 89fc 39bd 5366 b5bd 8908 59bd 0ebe 93bd

conv_layer2.bias f4 [16]
-0.011972071 -0.00072138035 -0.014040975 -0.0076353047 0.0010230812 0.00040981176 -0.010081599 -0.024081301
-0.0073694354 -0.0027917055 -0.0030498432 -0.012730615 -0.0109212 0.004102222 -0.0015078175 0.0068983734
00000000: 8126 44bc 041b 3dba 1e0c 66bc 9431 fabb
00000010: e918 863a 01dc d639 4a2d 25bc 2646 c5bc
00000020: 4e7b f1bb 0cf5 36bb e1df 47bb 1294 50bc
00000030: d5ee 32bc ef6b 863b f6a1 c5ba c00b e23b

fc1.weight f4 [120, 576]
-0.0008485175 0.00014281039 0.002910381 4.4333097e-05 0.0023901607 0.002253257 -0.0015134492 -0.0012387409
0.0011051181 0.0024833544 0.000100955076 0.0017421915 -0.00014955361 -0.0002532782 0.0004300896 -0.0010567913
0.002412345 0.0018762621 0.0016105595 -0.00035742894 -0.0013039783 0.0024241332 -0.0023801392 -0.001362741
0.0030450528 0.00068700005 0.0007151286 -0.00085273874 0.0018594613 -0.00041123552 -0.0026919423 -0.0013620144
-0.0014921358 -0.0005811011 0.0009492704 -0.00067182456 -0.003209842 0.0005144004 -0.003169037 0.0014927256
-0.0022901418 -0.002455127 0.00064722646 -0.0027989151 0.002212228 0.00032893167 -2.9745212e-05 -0.002285617
-0.0031429825 -0.0018486703 -0.0026291069 -0.0021708908 -0.0005684621 -0.002117711 0.00209203 0.00084155437
-0.00035188152 -0.0020276487 0.002146751 0.0024126242 -0.0023185653 -0.0025383923 -0.0031155231 0.0015161975
0.0011578308 0.0021922658 -0.002841973 0.0012902997 0.0011233023 -9.658193e-05 -0.0005567848 -0.0013334538
0.04645456 -0.06742777 0.008501429 0.0052638263 0.0064058634 0.03817623 0.018902056 -0.014896531
-0.009683128 -0.020533558 -0.020294726 -0.02113513 0.028603803 0.020233061 -0.019501584 -7.6318116e-05
-0.019896189 0.0116629405 0.00631357 0.018566635 -0.00782673 -0.0019725927 -0.040723998 -0.0051807174
0.074882425 -0.0021804275 -0.018018348 -0.013730546 -0.025397744 -0.059339404 -0.010545018 -0.014957073
-0.00041338467 0.019907719 0.030394685 -0.0014639175 -0.04246994 -0.02379585 -0.022743866 0.017934954
0.05606255 0.0076464177 -0.022997437 0.0135696 0.0522044 0.007731035 0.021954773 -0.03696871
0.005295745 -0.009068637 0.0367801 -0.03586692 -0.02885663 -0.03484599 0.042393714 -0.023316007
0.04319807 -0.03653326 0.021532543 -0.06704812 0.00025612212 -0.011243448 -0.006613842 -0.030528327
0.014673524 -0.065839715 -0.012739192 -0.040552158 -0.023476992 0.024577048 -0.027943876 -0.0072606793
-0.00476754 0.002356304 -0.00080771797 -0.0004982213 0.0013073798 0.008919069 0.002164761 -0.0019219267
-0.0023629374 -0.00036547205 0.0023729291 0.0012341542 0.005588794 0.0023213972 0.00068781344 -0.0006561883
-0.00083142536 0.0012148638 0.0005196062 0.0025941906 -0.0011853424 0.002544708 -0.0008771695 -0.0044427873
-0.0002139216 7.36219e-05 0.002601323 -0.00089467096 0.0028146037 -0.008648757 -0.015891673 -0.005210711
-0.0037194772 0.0038929249 -0.0043412144 -0.004357386 -0.0042878133 0.002226148 0.005997674 0.002393453
0.003785077 0.003196982 0.0011800986 0.000991178 0.0005156973 -3.113266e-05 0.0019445106 -0.009469381
0.009168439 -0.00070577994 0.0032866069 -0.0024308295 0.0012477175 -0.0101700155 0.008681704 0.0019953954
-0.0010873738 0.0019501611 -0.002204677 -0.007929498 -0.0012541617 0.0013272575 0.0008112203 0.00043895724
0.0015851019 -0.006542957 -0.02386861 0.0070987483 -0.0029716208 0.010164711 -0.0010491458 -0.010267219
0.025463881 0.011610482 -0.001965851 -0.00541018 -0.0051172473 -0.0060683913 0.013987486 0.013151944
-0.0032264306 -0.008002734 -0.007432421 0.0024165015 0.0031146463 0.013386016 -0.004064593 -0.008531438
-0.021763196 0.00092706986 0.0023738113 0.0068700523 -0.0066154785 -0.017270641 -0.02229186 0.0015597007
0.015336428 0.017141882 -0.002334172 -0.00673881 -0.019738449 0.0017053399 0.024086723 0.0020478142
0.0008549429 -0.00092508335 -0.01689042 -0.008045411 0.0034683992 0.033307515 0.0050397865 -0.0026932766
00000000: 0c6f 5eba 5fbf 1539 17bc 3e3b 4df2 3938
00000010: 3ea4 1c3b 61ab 133b ee5e c6ba 3f5d a2ba
00000020: 9cd9 903a c6bf 223b d8b7 d338 3f5a e43a
00000030: 7ed1 1cb9 6dca 84b9 a67d e139 0884 8aba
00000040: 6f18 1e3b e9ec f53a 6919 d33a 4d65 bbb9
00000050: 40ea aaba 35de 1e3b 1cfc 1bbb 009e b2ba
00000060: 828f 473b cb17 343a 7877 3b3a 548a 5fba
00000070: 2bb9 f33a 199b d7b9 4c6b 30bb 9f85 b2ba
00000080: c593 c3ba 0955 18ba 75d8 783a 621d 30ba
00000090: 365c 52bb d4d8 063a 9eaf 4fbb 8fa7 c33a
000000a0: 3416 16bb 32e6 20bb a2aa 293a 016e 37bb
000000b0: 07fb 103b 7674 ac39 5b85 f9b7 4aca 15bb
000000c0: 7ffa 4dbb 154f f2ba 184d 2cbb 8145 0ebb
000000d0: d904 15ba 4bc9 0abb 701a 093b c29b 5c3a
000000e0: bd7c b8b9 4de2 04bb 81b0 0c3b 1e1d 1e3b
000000f0: 12f3 17bb 285b 26bb ce2d 4cbb 25bb c63a
00000100: 5bc2 973a 1eac 0f3b 6540 3abb 461f a93a
00000110: c53b 933a 078c cab8 32f5 11ba 49c7 aeba
00000120: 2347 3e3d 9217 8abd 9449 0b3c 2d7c ac3b
00000130: 47e8 d13b ae5e 1c3d 7cd8 9a3c 9410 74bc
00000140: fca5 1ebc fe35 a8bc 2041 a6bc 9523 adbc
00000150: 8652 ea3c cebf a53c c9c1 9fbc fa0c a0b8
00000160: 55fd a2bc eb15 3f3c 10e2 ce3b 0e19 983c
00000170: af3b 00bc 9d46 01bb 35ce 26bd 02c3 a9bb
00000180: f55b 993d 81e5 0ebb 379b 93bc 16f6 60bc
00000190: ee0e d0bc e00d 73bd 03c5 2cbc 830e 75bc
000001a0: 8dbb d8b9 8315 a33c 46fe f83c ece0 bfba
000001b0: f6f4 2dbd 84ef c2bc 5851 babc 53ec 923c
000001c0: d8a1 653d cd8e fa3b 1f65 bcbc 0753 5e3c
000001d0: 48d4 553d 9f54 fd3b 7fda b33c 816c 17bd
000001e0: ee87 ad3b 9f94 14bc bba6 163d 31e9 12bd
000001f0: bd64 ecbc abba 0ebd 08a5 2d3d 3601 bfbc
00000200: 76f0 303d e6a3 15bd 0465 b03c 8650 89bd
00000210: 2148 8639 7036 38bc eeb8 d8bb 8b16 fabc
00000220: 3869 703c f9d6 86bd 0bb8 50bc 051a 26bd
00000230: d252 c0bc ce55 c93c 8eea e4bc feea edbb
00000240: 0639 9cbb 396c 1a3b 09bd 53ba 119b 02ba
00000250: 635c ab3a 4921 123c aade 0d3b 29e9 fbba
00000260: 83db 1abb d49c bfb9 2583 1b3b 58c3 a13a
00000270: 3422 b73b 9522 183b 614e 343a 0d04 2cba
00000280: 03f4 59ba 113c 9f3a 2f36 083a 4c03 2a3b
00000290: 7e5d 9bba 1ec5 263b d9f1 65ba cd94 91bb
000002a0: 2450 60b9 7565 9a38 f57a 2a3b 5a88 6aba
000002b0: 3775 383b 84b3 0dbc 412f 82bc 9dbe aabb
000002c0: 79c2 73bb 7120 7f3b bf40 8ebb 67c8 8ebb
000002d0: c980 8cbb 91e4 113b 2388 c43b 7adb 1c3b
000002e0: 0e0f 783b 7584 513b 8aad 9a3a 6aea 813a
000002f0: dc2f 073a 7094 02b8 f3de fe3a 7625 1bbc
00000300: 3837 163c 1704 39ba 1d64 573b 8d4e 1fbb
00000310: 748a a33a 23a0 26bc b53d 0e3c 2ec5 023b
00000320: 3686 8eba 8c9c ff3a 587c 10bb baea 01bc
00000330: af62 a4ba 5ff7 ad3a 13a8 543a d823 e639
00000340: 32c3 cf3a 4d66 d6bb 1a88 c3bc 9e9c e83b
00000350: 86bf 42bb e389 263c 7e83 89ba d637 28bc
00000360: a199 d03c e439 3e3c 82d5 00bb e147 b1bb
00000370: 95ae a7bb 5bd9 c6bb c52b 653c 407b 573c
00000380: 8672 53bb e61d 03bc ab8b f3bb 2b5e 1e3b
00000390: 181f 4c3b 0551 5b3c 4730 85bb 72c7 0bbc
000003a0: bb48 b2bc 9b06 733a f291 1b3b 2d1e e13b
000003b0: a8c6 d8bb 297b 8dbc 6b9d b6bc df6e cc3a
000003c0: a445 7b3c 226d 8c3c e8f8 18bb 3cd1 dcbb
000003d0: 87b2 a1bc b685 df3a 8551 c53c 9f34 063b
000003e0: 3f1e 603a 4b81 72ba c75d 8abc e6d0 03bc
000003f0: 154e 633b 766d 083d cb24 a53b af81 30bb

fc1.bias f4 [120]
-0.0058017066 0.0004989157 -2.0772193e-05 -0.0037380036 -0.0016607441 -0.003234585 -0.0022425326 0.0019787827
0.0010564442 0.00048339317 -0.00019215088 -0.00032983176 -0.0022476483 0.0013513096 0.0015123829 0.0017298539
0.0022375353 0.0013218754 -0.00015897589 0.0002584466 -0.00515308 -0.004789144 0.00093263545 -0.0031971408
-0.0040433016 -0.0027685266 -0.0011897427 -0.00409506 -0.0023413734 -0.0030322883 -0.0006165169 0.00040700712
-0.00094765454 0.0017746206 -0.0022731698 -0.00166363 0.0017830303 0.0018036028 -0.00018429519 -0.0009016896
-0.0040788553 0.0010393286 -0.0030051544 -0.0003944596 2.3552506e-05 -0.0020001915 -0.0019427559 0.0021512415
-0.0025128447 -8.6023065e-06 -0.0017195831 -0.00047305226 0.0030146183 0.002430612 0.0012509088 0.0013920506
-0.004173817 0.00016151505 -0.0026633402 -0.0014321336 -0.0015377209 -0.006208454 0.0031552592 -0.00025107918
-0.0015250887 0.0015370706 0.0018061638 -0.003260544 0.0018195367 -0.0022435498 -0.001702236 -0.0023138332
-0.003445691 0.0005594863 0.000989195 0.00056061463 -0.0029016885 0.00071994297 -1.8032792e-05 -0.00023325767
0.0013159107 -6.504922e-05 0.0009269718 0.0011694231 -0.00017829605 -0.0024058144 -0.0006276878 -0.0023170786
0.00062801817 -0.0016066295 -0.0010685837 0.0014748506 -0.0012282921 -0.0016501007 -0.00066591316 -2.6774504e-05
-0.00090144 0.0018582544 -0.00041267907 0.00046937366 -0.00093702966 -0.0011302106 0.0025856232 -0.0005413082
0.00041923474 -0.002229576 -0.0046220007 -0.0025035806 0.0003462659 0.00095079833 0.0016060697 -0.00399572
-0.0005804819 -0.0013601765 -0.0006776916 -0.005826519 -0.0010506746 -0.0017677775 -0.0034775552 -0.0025262637
00000000: 3e1c bebb aac9 023a f23f aeb7 4bf9 74bb
00000010: 53ad d9ba 55fb 53bb 74f7 12bb 77ae 013b
00000020: 6378 8a3a ef6f fd39 1c7c 49b9 45ed acb9
00000030: 484d 13bb 6d1e b13a 263b c63a 44bc e23a
00000040: 9da3 123b c742 ad3a c4b2 26b9 1e80 8739
00000050: 2bdb a8bb 40ee 9cbb 1b7c 743a 1f87 51bb
00000060: ac7d 84bb 2b70 35bb 24f1 9bba da2f 86bb
00000070: ba71 19bb 5bb9 46bb c09d 21ba 9263 d539
00000080: 056c 78ba 639a e83a 76f9 14bb 290e daba
00000090: 92b4 e93a de66 ec3a 5d3f 41b9 5d5f 6cba
000000a0: eba7 85bb 153a 883a 20f2 44bb 79cf ceb9
000000b0: 9f92 c537 a515 03bb 12a4 feba d8fb 0c3b
000000c0: 8aae 24bb a052 10b7 a263 e1ba 0004 f8b9
000000d0: e790 453b e74a 1f3b 89f5 a33a 7875 b63a
000000e0: 84c4 88bb 5e5c 2939 6f8b 2ebb 6eb6 bbba
000000f0: 5a8d c9ba 4970 cbbb 77c8 4e3b 47a3 83b9
00000100: 7ce5 c7ba 8877 c93a cdbc ec3a daae 55bb
00000110: 857d ee3a 8508 13bb 901d dfba aea3 17bb
00000120: 1ad1 61bb 7daa 123a e0a7 813a 36f6 123a
00000130: 412a 3ebb 8eba 3c3a 2045 97b7 a196 74b9
00000140: a37a ac3a 096b 88b8 0600 733a 5447 993a
00000150: fbf4 3ab9 deaa 1dbb 6a8b 24ba 21da 17bb
00000160: 96a1 243a 8a95 d2ba b80f 8cba c64f c13a
00000170: a5fe a0ba 3148 d8ba ad90 2eba cf99 e0b7
00000180: 9d4e 6cba ac90 f33a d95c d8b9 4416 f639
00000190: ffa2 75ba 9323 94ba 8f73 293b 94e6 0dba
000001a0: bccc db39 141e 12bb 2774 97bb 1d13 24bb
000001b0: 068b b539 ff3e 793a c282 d23a 87ee 82bb
000001c0: 7b2b 18ba f347 b2ba 1da7 31ba 62ec bebb
000001d0: cab6 89ba c5b4 e7ba b2e7 63bb ac8f 25bb

fc2.weight f4 [80, 120]
0.03312691 0.004415724 -0.022483543 -0.019055022 -0.060591564 -0.0070341853 -0.034493804 -0.021107249
-0.0008921488 0.0056673316 -0.01684844 -0.035112955 0.027771972 0.020644696 0.007490668 0.049302287
0.0002888862 -0.0058838194 0.061672505 0.013757008 -0.010114032 0.060466606 -0.008260922 -0.0284976
0.018346405 0.0049094693 0.01930533 -0.01550131 0.006185339 0.035836484 -0.028755104 0.041033205
0.069268644 -0.004931592 0.045844324 -0.022022668 0.046129674 0.0058188387 0.046649925 0.06447371
-0.03297785 0.0009350804 -0.033249233 0.021605024 -0.023340672 0.034485526 -0.006256557 0.013488712
0.018514406 0.047349654 0.015513984 -0.024554344 -0.0213309 0.0016682653 0.016940603 -0.027840486
-0.025104277 0.08696808 -0.012608648 0.00071288296 0.02179943 -0.028196678 -0.01220158 0.0016997656
-0.029585483 -0.011357068 0.061708372 0.012982885 0.029394243 -0.015776848 0.019641373 0.007458283
-0.0021188667 0.07938705 0.012956067 0.003178612 0.039644822 -0.02846698 0.0014088857 0.0064428393
0.014295351 -0.031326953 -0.008751748 -0.029494867 -0.028269548 0.025930842 -0.019656274 0.00022109502
0.011958706 -0.024468733 -0.011429655 -0.0015951783 0.043380767 -0.012056313 -0.01946237 0.0088387495
-0.03692875 -0.01681209 0.004243144 -0.015682511 -0.010394811 -0.029310383 0.018639795 -0.013305492
-0.030876068 -0.0015720096 -0.012470726 -0.018604396 -0.006295571 -0.047667008 0.007449439 0.078023694
-0.03554096 0.036391757 0.013664095 -0.037112553 -0.03114204 -0.0065251156 -0.016202591 0.00316162
0.027073476 0.0080348905 0.030740833 -0.02340735 0.032275964 -0.049509842 -0.011094429 0.048430063
0.035713837 -1.6896785e-05 -0.032123663 0.00780165 0.003967225 -0.009681712 0.0041925106 0.023685928
0.02117547 -0.0022095237 -0.016143098 -0.027770055 -0.015150385 0.08917563 -0.018226175 0.004705821
-0.021042287 -0.06572601 0.001958046 -0.015101022 -0.06761143 0.05138984 -0.01033487 0.082875624
-0.022873964 0.0010078322 0.022158591 0.06336551 -0.0037752949 0.005829295 0.0136301825 -0.024624882
-0.016498001 -0.007451969 -0.011992235 0.0654999 -0.0018180055 -0.012396686 0.0055659297 0.033852134
-0.0072961217 0.033083472 0.009801132 -0.017978182 0.0033372089 -0.004699212 -0.024412157 -0.035049397
0.059530254 -0.019692084 -0.031406075 0.048129268 -0.023670685 0.041139673 0.016139451 0.00030635993
0.015495932 0.015581657 -0.01836622 0.040876262 0.066909485 0.025009308 -0.005029102 -0.062480908
0.0048032035 0.09493563 -0.011447928 -0.026267825 -0.006565793 0.05897181 0.002569708 -0.040028132
-0.009756515 0.0010920325 0.015267583 0.030899044 0.002668784 0.018690394 -0.023493072 0.0012603817
0.015463454 0.0119381845 0.013738533 0.025423033 0.037329786 0.009584942 -0.031094832 0.008336092
-0.004482601 -0.0007023785 0.03040083 0.01217919 -0.016825447 -0.047197685 0.00940201 0.037660044
0.0043113874 -0.00024166962 0.07368679 0.046913337 0.005514427 -0.011431797 0.042935584 -0.024990143
0.025472771 0.033187103 0.020557068 0.04847796 -0.041346695 0.0054999576 -0.0064240578 -0.00074636313
-0.00400215 -0.004319815 0.029730741 0.012146643 0.074657336 -0.0075389333 0.022173837 0.016413866
0.006631584 0.0013627431 -0.013382387 -0.013030626 -0.00557964 -0.02891977 -0.016123366 -0.014318946
00000000: 15b0 073d c7b1 903b 682f b8bc 4719 9cbc
00000010: dc2e 78bd 067f e6bb 6049 0dbd 1ce9 acbc
00000020: 18df 69ba 06b5 b93b bd05 8abc 9ad2 0fbd
00000030: 0c82 e33c 111f a93c 4774 f53b 32f1 493d
00000040: a675 9739 0ecd c0bb 4f9c 7c3d 1365 613c
00000050: 53b5 25bc d5ab 773d d158 07bc cd73 e9bc
00000060: 334b 963c 9ddf a03b 3626 9e3c 35f9 7dbc
00000070: 62ae ca3b 47c9 123d d38f ebbc 6f12 283d
00000080: b8dc 8d3d 3199 a1bb 42c7 3b3d e268 b4bc
00000090: 78f2 3c3d f5ab be3b fe13 3f3d cb0a 843d
000000a0: c813 07bd 2f20 753a 5930 08bd 05fd b03c
000000b0: f034 bfbc b240 0d3d ce03 cdbb c2ff 5c3c
000000c0: 86ab 973c b6f1 413d 5d2e 7e3c 3126 c9bc
000000d0: 24be aebc b2a9 da3a 05c7 8a3c bb11 e4bc
000000e0: 7ca7 cdbc 521c b23d 8194 4ebc c4e0 3a3a
000000f0: b894 b23c b8fc e6bc 23e9 47bc abca de3a
00000100: 415d f2bc ff12 3abc ebc1 7c3d 2bb6 543c
00000110: 32cc f03c 733e 81bc f2e6 a03c 9d64 f43b
00000120: afdc 0abb ad95 a23d af45 543c 4350 503b
00000130: 9c62 223d 9633 e9bc 5caa b83a 741e d33b
00000140: 0c37 6a3c b150 00bd 7e63 0fbc 389f f1bc
00000150: 8a95 e7bc eb6c d43c 3206 a1bc bed5 6739
00000160: 73ee 433c a772 c8bc 7343 3bbc 4d15 d1ba
00000170: 08b0 313d d887 45bc 8c6f 9fbc 67d0 103c
00000180: 9a42 17bd 82b9 89bc 120a 8b3b 9c78 80bc
00000190: ff4e 2abc 541c f0bc 7cb2 983c 47ff 59bc
000001a0: cfef fcbc e40b ceba 0452 4cbc 3f68 98bc
000001b0: 144b cebb 7b3e 43bd 6c1a f43b e3ca 9f3d
000001c0: 6693 11bd 860f 153d 5edf 5f3c 5503 18bd
000001d0: 971d ffbc a3d0 d5bb 4cbb 84bc 2f33 4f3b
000001e0: 32c9 dd3c c6a4 033c 33d4 fb3c c5c0 bfbc
000001f0: cd33 043d d5ca 4abd 68c5 35bc 9a5e 463d
00000200: ac48 123d 92bd 8db7 1a94 03bd fca4 ff3b
00000210: 7fff 813b 0ba0 1ebc 5461 893b fe08 c23c
00000220: 2e78 ad3c a8cd 10bb 883e 84bc 077e e3bc
00000230: 5239 78bc b6a1 b63d 0f4f 95bc 4a33 9a3b
00000240: e060 acbc 5c9b 86bd 9052 003b 476a 77bc
00000250: dd77 8abd 277e 523d 9653 29bc b2ba a93d
00000260: 2e62 bbbc 3d19 843a ef85 b53c c7c5 813d
00000270: f06a 77bb ac03 bf3b 2151 5f3c 1fba c9bc
00000280: d126 87bc a62f f4bb 147b 44bc d024 863d
00000290: 244a eeba 781b 4bbc 6762 b63b 89a8 0a3d
000002a0: 4e14 efbb 8982 073d ed94 203c fb46 93bc
000002b0: 13b5 5a3b d9fb 99bb 01fc c7bc f58f 0fbd
000002c0: ffd5 733d 4b51 a1bc a8a3 00bd 3223 453d
000002d0: 06e9 c1bc 1382 283d e236 843c ef9e a039
000002e0: a6e2 7d3c 354a 7f3c c174 96bc de6d 273d
000002f0: d707 893d 52e0 cc3c 2acb a4bb fbeb 7fbd
00000300: 3164 9d3b 9d6d c23d 1790 3bbc 9f2f d7bc
00000310: dd25 d7bb 6d8c 713d 8c68 283b 8af4 23bd
00000320: cad9 1fbc 8822 8f3a e224 7a3c fe1f fd3c
00000330: c4e6 2e3b 991c 993c 8b74 c0bc 6433 a53a
00000340: 6d5a 7d3c 6098 433c 9517 613c f743 d03c
00000350: 1ee7 183d 290a 1d3c 97ba febc 1b94 083c
00000360: c8e2 92bb d31f 38ba 290b f93c 3a8b 473c
00000370: 85d5 89bc 5c52 41bd e30a 1a3c 6b41 1a3d
00000380: 8a46 8d3b b268 7db9 1ae9 963d 3328 403d
00000390: 5eb2 b43b 6f4c 3bbc 39dd 2f3d 21b8 ccbc
000003a0: 46ac d03c 33ef 073d 4c67 a83c d390 463d
000003b0: 275b 29bd fd38 b43b e780 d2bb 95a7 43ba
000003c0: 7824 83bb 3c8d 8dbb e28d f33c b702 473c
000003d0: f2e5 983d 2809 f7bb e8a5 b53c 5f76 863c
000003e0: c24d d93b 129e b23a cd41 5bbc 687e 55bc
000003f0: 6ad5 b6bb 27e9 ecbc 2615 84bc 039a 6abc

fc2.bias f4 [80]
0.0006547048 -0.008478889 -5.5427678e-05 -0.007827146 -0.0046310932 0.007556936 0.004669019 0.0037981854
-0.0072437814 0.004906115 -0.002377132 -0.006790344 0.0042939517 -0.0005585371 -0.0013448854 -0.0035012453
0.0027949247 -0.0034273842 0.00059327245 0.00062476477 0.0036722147 0.0027994763 -0.002696846 -0.0072927377
0.004616363 -0.0017853972 -0.0009112464 -0.006280074 -0.0010352777 0.0062299734 0.00537225 -0.0018851066
-0.0030758972 -0.0033414105 0.0069459626 0.00087099173 -0.00022644842 0.00045285854 -0.0009548578 -0.0011387588
-0.001183729 -0.0006146302 -0.009839873 0.0023673829 0.0004133145 -0.0026830197 -0.0076033548 -0.004038663
-0.0040873834 -0.006062016 -0.0049721897 0.0014151933 0.0057292553 0.0018920171 -0.000114847506 -0.0112626
-0.004796128 0.007561184 0.0056313216 0.0022884773 0.00045035675 -0.0048792837 -0.0023288934 -0.0061774887
-0.005445171 -0.009075236 0.005774734 -0.0005709071 0.0073393104 -0.00510352 0.0031977515 -0.0039582537
0.0058438876 -0.0067508216 -0.0029553005 -0.00317126 -0.005101446 -0.007616112 -0.0059577944 0.0039158976
00000000: 7fa0 2b3a 0aeb 0abc 047b 68b8 6e3d 00bc
00000010: 6dc0 97bb 2ca0 f73b 92fe 983b faea 783b
00000020: 3e5d edbb 7ac3 a03b a8c9 1bbb 8981 debb
00000030: 47b4 8c3b ca6a 12ba de46 b0ba 2675 65bb
00000040: 0e2b 373b f79d 60bb d785 1b3a 41c7 233a
00000050: 8aa9 703b 6b77 373b 91bd 30bb ebf7 eebb
00000060: dc44 973b fd03 eaba b6e0 6eba 14c9 cdbb
00000070: 28b2 87ba ce24 cc3b b309 b03b ae15 f7ba
00000080: fe94 49bb 91fb 5abb f59a e33b 4453 643a
00000090: c972 6db9 a56d ed39 6c4f 7aba 6842 95ba
000000a0: 5b27 9bba 221f 21ba 6b37 21bc 1826 1b3b
000000b0: 22b2 d839 9ad5 2fbb 9025 f9bb c356 84bb
000000c0: 75ef 85bb e0a3 c6bb c0ed a2bb 027e b93a
000000d0: 7abc bb3b 8ffd f73a 49da f0b8 c586 38bc
000000e0: d628 9dbb cfc3 f73b f386 b83b 47fa 153b
000000f0: dc1d ec39 66e2 9fbb 59a0 18bb 886c cabb
00000100: 686d b2bb 4cb0 14bc fb39 bd3b eda8 15ba
00000110: 997e f03b 6e3b a7bb 5e91 513b 3db4 81bb
00000120: 157e bf3b ff35 ddbb b7ad 41bb ead4 4fbb
00000130: 082a a7bb 9490 f9bb 9a39 c3bb ee50 803b

fc3.weight f4 [40, 80]
-0.020958655 0.029145995 0.037660684 -0.037338816 0.0949032 0.012002129 0.090084 -0.04100478
0.0017808814 -0.021326277 -0.0136365695 0.07455013 0.010029577 0.0803444 -0.027987977 0.077709965
-0.00574099 0.011647118 0.026616802 0.08048808 -0.015624562 -0.03514435 0.061932232 0.054837774
-0.042838782 -0.018577237 -0.006504867 0.043587662 -0.004676346 -0.007843119 -0.018105082 0.032949325
-0.0037102492 -0.03849885 -0.010736349 -0.03807829 -0.051393546 0.07936723 -0.019047538 -0.04472794
-0.009377054 0.07670839 -0.029124375 0.062069226 0.06931311 -0.0059494204 -0.012901024 0.013871696
-0.003994844 -0.033994175 -0.03158242 0.06938914 -0.046088498 -0.021865828 -0.008003905 0.038745433
0.036223747 0.043787364 -0.021954909 -0.012055056 0.032550674 0.08933176 -0.012684503 0.017872166
-0.009811415 0.00916816 0.059042875 -0.0074727056 -0.022844601 0.020931888 -0.04108241 0.015167728
-0.006402014 -0.0450134 0.08992672 -0.02207613 -0.027713476 -0.031192863 0.08349119 0.04319053
-0.02671361 -0.022817086 -0.030231165 0.0026528568 0.08177216 -0.0134359365 0.046049252 0.044308238
-0.0025127388 -0.011189094 -0.01004067 0.023474991 0.02039911 -0.021083932 0.020510128 0.04979389
-0.00042383012 0.093844555 -0.031399846 -0.037395153 -0.0135300215 -0.027507205 0.07525258 0.01883469
-0.024447361 0.003050244 -0.019024102 -0.015469541 8.434788e-05 -0.007922214 -0.022376647 0.07656483
-0.028888628 -0.026502512 0.04476349 0.059160713 -0.036937237 0.014875533 0.07462645 -0.042587962
-0.019587798 0.05475836 -0.005936174 -0.014482086 -0.008269518 0.03717539 0.037927654 -0.0022196723
-0.039481234 0.06984438 0.084379375 0.024667837 0.046850923 -0.018876446 0.032431528 -0.026415894
0.0042429427 0.027492385 0.044984464 -0.0072198445 -0.043244068 0.05247795 -0.004381665 0.04216197
-0.032386508 -0.014144313 0.029214066 -0.03128006 0.025484633 -0.016549584 -0.018022731 -0.03105238
-0.0032108105 0.013741273 -0.0046205763 0.06455666 -0.023609731 -0.019703053 0.0192113 0.06558757
0.090497 0.04873392 0.05901225 -0.0062844004 -0.03491556 0.037178252 -0.029021585 0.065882854
-0.00791736 0.08373107 0.050685346 -0.026674211 -0.0172409 -0.009295428 -0.01566905 -0.03275532
1.2807557e-06 -0.037591115 0.01038223 -0.010190043 -0.014591425 0.0035625796 -0.035526752 -0.026008632
0.084849305 -0.0362483 0.10030257 0.0031664574 0.041847542 -0.009490558 0.09276513 0.009779151
-0.007993622 0.074695565 0.016469559 0.07948978 0.030540269 -0.010122791 -0.006296042 0.07653027
-0.016801108 -0.036990233 -0.0058926092 -0.02294734 0.03502549 0.08229909 -0.016881356 -0.009084128
-0.023153014 -0.040813975 -0.006333122 -0.020541511 -0.018168693 0.012746152 -0.026578732 0.04849376
0.005468963 0.016286701 -0.015821269 -0.012348155 0.028310945 -0.05859279 -0.0038974313 -0.015475247
0.10907743 -0.0026421505 -0.018100435 0.05905574 0.059231244 -0.006197307 -0.0139708 -0.022796253
0.054945767 -0.033794075 -0.039640415 -0.027177569 0.043397926 0.061778225 0.028077485 -0.0071264696
0.057993073 -0.04590438 -0.043388598 0.10483882 -0.029640434 -0.0024255752 0.05255769 0.034801524
-0.0011314121 -0.035499234 0.03123562 0.018659709 0.021011213 0.0022923658 0.052877262 0.018500337
00000000: 7cb1 abbc 95c3 ee3c 1742 1a3d 96f0 18bd
00000010: 9c5c c23d 94a4 443c f67d b83d a1f4 27bd
00000020: 776c e93a 72b4 aebc eb6b 5fbc bdad 983d
00000030: 1853 243c 9b8b a43d 0b47 e5bc 6726 9f3d
00000040: ea1e bcbb 8ed3 3e3c 7b0b da3c efd6 a43d
00000050: 2afe 7fbc 86f3 0fbd a7ac 7d3d 939d 603d
00000060: b877 2fbd 4a2f 98bc c826 d5bb fa88 323d
00000070: 093c 99bb 6d80 00bc 1c51 94bc dff5 063d
00000080: a727 73bb f8b0 1dbd 83e7 2fbc fbf7 1bbd
00000090: 0a82 52bd 498b a23d 9509 9cbc a534 37bd
000000a0: 37a2 19bc 4a19 9d3d 3e96 eebc 4d3c 7e3d
000000b0: 08f4 8d3d 5bf3 c2bb d15e 53bc 1c46 633c
000000c0: 2ee7 82bb 7a3d 0bbd 915c 01bd e51b 8e3d
000000d0: 4bc7 3cbd f71f b3bc d022 03bc 88b3 1e3d
000000e0: 5a5f 143d 615a 333d c8da b3bc 9282 45bc
000000f0: db53 053d 92f3 b63d a9d2 4fbc a668 923c
00000100: 0fc0 20bc 0d36 163c f1d6 713d 99dd f4bb
00000110: 9a24 bbbc 5a79 ab3c 0746 28bd 1082 783c
00000120: fcc7 d1bb f95f 38bd 802b b83d 00d9 b4bc
00000130: 5f07 e3bc 2d88 ffbc 6efd aa3d 8ee8 303d
00000140: 80d6 dabc e6ea babc 59a7 f7bc 8ddb 2d3b
00000150: 2a78 a73d 6722 5cbc 249e 3c3d 8e7c 353d
00000160: c3ac 24bb 7652 37bc 9f81 24bc a04e c03c
00000170: 091c a73c 36b8 acbc db04 a83c aef4 4b3d
00000180: 8435 deb9 9331 c03d 209d 00bd a92b 19bd
00000190: 06ad 5dbc ca56 e1bc 061e 9a3d 354b 9a3c
000001a0: d545 c8bc 9ae6 473b 6fd8 9bbc f573 7dbc
000001b0: ece3 b038 2dcc 01bc 3b4f b7bc 06ce 9c3d
000001c0: d8a7 ecbc cc1b d9bc ec59 373d 8152 723d
000001d0: 804b 17bd 82b8 733c c1d5 983d b770 2ebd
000001e0: 9776 a0bc 4d4a 603d 3d84 c2bb 4546 6dbc
000001f0: df7c 07bc 3945 183d 075a 1b3d ec77 11bb
00000200: 13b7 21bd 920a 8f3d 18cf ac3d 3414 ca3c
00000210: c1e6 3f3d c7a2 9abc ecd6 043d 2566 d8bc
00000220: 6208 8b3b b637 e13c a141 383d 7294 ecbb
00000230: b120 31bd 1ef3 563d 1294 8fbb 08b2 2c3d
00000240: b7a7 04bd 8cbd 67bc 5652 ef3c 851f 00bd
00000250: 26c5 d03c fe92 87bc 68a4 93bc 9061 febc
00000260: 766c 52bb 1423 613c 3468 97bb 4836 843d
00000270: 3269 c1bc 4c68 a1bc 0461 9d3c c752 863d
00000280: 7e56 b93d 389d 473d d4b6 713d 5fed cdbb
00000290: 9e03 0fbd 3948 183d adbe edbc 97ed 863d
000002a0: d1b7 01bc 327b ab3d 709b 4f3d e083 dabc
000002b0: ca3c 8dbc da4b 18bc 615c 80bc 712a 06bd
000002c0: 6ee6 ab35 24f9 19bd 3b1a 2a3c 23f4 26bc
000002d0: df10 6fbc 2b7a 693b 8084 11bd 0e10 d5bc
000002e0: 79c5 ad3d 1979 14bd 6f6b cd3d 5784 4f3b
000002f0: 5468 2b3d 497e 1bbc a5fb bd3d bb38 203c
00000300: aef7 02bc fdf9 983d 2beb 863c 8acb a23d
00000310: 962f fa3c 10da 25bc 074f cebb e7bb 9c3d
00000320: 7aa2 89bc 1283 17bd ca16 c1bb 0ffc bbbc
00000330: e376 0f3d 6d8c a83d c54a 8abc 98d5 14bc
00000340: 64ab bdbc 8e2c 27bd 1486 cfbb ac46 a8bc
00000350: 83d6 94bc 3cd5 503c a4bb d9bc 65a1 463d
00000360: fd34 b33b b06b 853c 9b9b 81bc ea4f 4abc
00000370: 5bec e73c fefe 6fbd 0c6c 7fbb e48b 7dbc
00000380: fd63 df3d ee27 2dbb 5d47 94bc 6ee4 713d
00000390: 769c 723d c712 cbbb c8e5 64bc 35bf babc
000003a0: d00e 613d a86b 0abd fd5d 22bd 7ea3 debc
000003b0: 06c2 313d 2a0b 7d3d c102 e63c 2985 e9bb
000003c0: 258a 6d3d 3b06 3cbd 3eb8 31bd bcb5 d63d
000003d0: 7fd0 f2bc 66f6 1ebb bb46 573d 0b8c 0e3d
000003e0: e44b 94ba a567 11bd d8e1 ff3c 3fdc 983c
000003f0: b51f ac3c 843b 163b d495 583d 058e 973c

fc3.bias f4 [40]
0.002950859 0.013322487 0.005447418 0.007134953 0.009970416 0.023778168 -0.0009230428 0.004503441
-0.0051561855 0.012816793 -0.0031902252 0.0066297073 0.013599978 0.0067060334 -8.8496e-05 0.011998331
0.006629006 -0.0021063574 0.0018082696 0.0006506236 0.0148484865 0.016267382 0.0013465694 -0.0014025345
0.002144523 0.014640222 0.009870197 0.004419193 0.011489409 0.015778568 0.017387278 0.0043289745
0.009435902 0.01902251 0.0027136768 0.0021635438 0.00885383 0.013891166 0.028973483 -0.0017680357
00000000: 3363 413b 8f46 5a3c 4180 b23b 53cc e93b
00000010: f55a 233c 6fca c23c 5bf8 71ba 9a91 933b
00000020: 38f5 a8bb 87fd 513c 1913 51bb 043e d93b
00000030: 71d2 5e3c 49be db3b ee96 b9b8 a694 443c
00000040: 2238 d93b d00a 0abb 7603 ed3a 9c8e 2a3a
00000050: 1147 733c 2c43 853c 5f7f b03a 40d5 b7ba
00000060: 208b 0c3b 8bdd 6f3c 9bb6 213c e1ce 903b
00000070: 133e 3c3c 0e42 813c c46f 8e3c 12da 8d3b
00000080: 0b99 1a3c 18d5 9b3c f1d7 313b 3eca 0d3b
00000090: a80f 113c c697 633c cc59 ed3c 6fbd e7ba
