outfiles/cnn/ORL32_6Train_cnn.pth (torch, 334655 bytes, 10 tensors)

conv_layer1.weight f4 [8, 1, 5, 5]
0	0x3d496f18	0.049178213
1	0xbc89ad2f	-0.016806213
2	0xbbbb28d9	-0.0057116565
3	0x3cd05815	0.025432626
4	0x3ccfb3cb	0.025354287
5	0x3c93d4a1	0.018045725
6	0x3d1aa401	0.037754063
7	0xbcaf12bd	-0.02137124
8	0xbc17ad04	-0.009257559
9	0x3bf6b880	0.0075293183
10	0x3d254dd6	0.040357433
11	0xbc98f9eb	-0.018673858
12	0xbd18285f	-0.037147876
13	0x3d16d94f	0.036828335
14	0x3c9fe860	0.019519985
15	0x3be11568	0.006869007
16	0xbd064a08	-0.032785445
17	0xbd9126fc	-0.07087514
18	0x3c61cbb2	0.013781475
19	0xbbac77bf	-0.0052632983
20	0x3d1d128b	0.038347762
21	0xbd96b41c	-0.07358572
22	0xbda5aebf	-0.08089971
23	0x3cdc165b	0.026866129
24	0xbcd5a1bc	-0.026078098
25	0xbd6aaa26	-0.057291172
26	0x3ce47289	0.027886646
27	0x3dc80dab	0.09768232
28	0x3e180691	0.14846255
29	0x3e27cfc7	0.16387855
30	0xbadb7800	-0.0016744137
31	0x3bafea75	0.0053685256
32	0x3dd15db0	0.102229476
33	0x3e0ec08e	0.13940641
34	0x3dc970d4	0.098359734
35	0xbd1fa7e4	-0.038978472
36	0x3cd00f34	0.025397874
37	0x3dc7e623	0.09760692
38	0x3d990b8a	0.07472904
39	0x3dbe5e34	0.092953116
40	0xbdf452d9	-0.119298644
41	0xbcb7c4cf	-0.022432713
42	0x3c295ab2	0.010336565
43	0x3d2d3de5	0.042295355
44	0xbccc719b	-0.024956515
45	0xbe22c91b	-0.15897028
46	0xbdf7aea9	-0.12093861
47	0xbd8a9dce	-0.0676838
48	0xbd7bdb55	-0.06148847
49	0xbd7a0f9f	-0.061050054
50	0x3c641170	0.013920173
51	0xbbb95d2c	-0.005656859
52	0xbc4b536c	-0.012410026
53	0x3bc09db3	0.005878174
54	0x3c5f797e	0.013639806
55	0x3be62890	0.0070238784
56	0xbc52aa01	-0.012857915
57	0x3c062c88	0.008189328
58	0xbc2df255	-0.0106168585
59	0xbad57165	-0.0016284405
60	0xbc2cc56a	-0.010545114
61	0xbc4fa7cd	-0.012674284
62	0xbc27c5f7	-0.01024007
63	0xbbe6b8f3	-0.0070410906
64	0xbb71ca4d	-0.0036894262
65	0x3ab0717a	0.0013461553
66	0x3bda200f	0.0066566537
67	0xbc106b65	-0.008814667
68	0xba8e0858	-0.0010836227
69	0x3b413c40	0.0029485375
70	0xbc6b14d2	-0.014348226
71	0x3c02a830	0.007974669
72	0xbb89f081	-0.0042095785
73	0x3b7a5c99	0.0038202165
74	0xbc4f4277	-0.012650124
75	0x3e466834	0.19375688
76	0x3c671741	0.014104665
77	0xbe23ca9e	-0.15995261
78	0xbdc8fdbd	-0.09814022
79	0xbe2cc1a6	-0.16870746
80	0xbdb31d78	-0.08745855
81	0x3db97be4	0.090568334
82	0xbe6784b8	-0.22609222
83	0xbea2929a	-0.31752473
84	0xbe5cbf31	-0.21557309
85	0x3db5b9aa	0.08873303
86	0xbd754e7f	-0.059889313
87	0xbd8c7370	-0.068579555
88	0xbe501dbc	-0.20323843
89	0xbe093765	-0.13400038
90	0x3d3e2689	0.04642347
91	0x3e54925f	0.20758961
92	0x3d740196	0.059571825
93	0xbd9cc6a1	-0.07655073
94	0xbe2ece7d	-0.17070957
95	0x3e59032c	0.21192616
96	0x3e3fc0f6	0.18725953
97	0x3e3f0ccb	0.18657224
98	0x3e26e41d	0.16297956
99	0x3da062cb	0.07831343
100	0xbd3f5a1f	-0.046716806
101	0x3d4f04ab	0.05054156
102	0x3dc0e976	0.09419529
103	0xbdf38a23	-0.11891582
104	0x3d3df34a	0.046374597
105	0x3d68a22c	0.056795284
106	0x3ca62ca8	0.020284966
107	0x3db026a6	0.086011216
108	0xbe1b6f59	-0.15179195
109	0x3d68ad6d	0.056806017
110	0xbcd17582	-0.025568727
111	0x3cc26a88	0.023732439
112	0x3ddd513d	0.108065106
113	0xbda5f0cd	-0.0810257
114	0x3d9c0530	0.07618177
115	0xbdd331f0	-0.10312259
116	0x3d8b2cdb	0.06795665
117	0x3da6796d	0.08128629
118	0xbdee18f5	-0.11625854
119	0x3c3edc60	0.011649221
120	0xbe1efd23	-0.15526251
121	0x3d23bf2d	0.03997724
122	0x3d1e9725	0.03871836
123	0xbd831efd	-0.06402395
124	0x3cfc3fce	0.030792143
125	0xbd66ef8a	-0.056380786
126	0xbe400c60	-0.1875472
127	0x3d441150	0.047868073
128	0x3d784732	0.060614772
129	0x3dbc8120	0.09204316
130	0xbe2c60c1	-0.16833784
131	0xbe212cbe	-0.15739724
132	0xbd2a083f	-0.04151177
133	0x3e898435	0.26858678
134	0x3e6742c3	0.22584061
135	0xbe64cbf6	-0.2234343
136	0xbe715140	-0.2356615
137	0x3e2244a6	0.158465
138	0x3e8d071b	0.27544484
139	0x3dc5ed69	0.09664423
140	0xbce60ddd	-0.028082782
141	0xbe3714a9	-0.17878975
142	0x3df871a6	0.12131052
143	0x3e4c8121	0.19971134
144	0x3c63e2f1	0.0139090875
145	0xbe43eec6	-0.19134054
146	0xbdca09c1	-0.09865142
147	0x3bd4b524	0.00649132
148	0x3d311a91	0.043238226
149	0x3dacce62	0.08437802
150	0x3e9c63ba	0.30544835
151	0x3df60642	0.12012912
152	0xbdc47b83	-0.095938705
153	0xbe455d77	-0.19273935
154	0x3c9aa57e	0.018877741
155	0x3e97a666	0.2961914
156	0x3d3a9cf6	0.045559846
157	0xbdde2cdf	-0.10848402
158	0x3d1fb99a	0.038995363
159	0xbd82a351	-0.063788064
160	0x3e55678d	0.20840283
161	0x3d1ac7e2	0.03778828
162	0xbd0123a6	-0.031528138
163	0xbcc96512	-0.024584327
164	0xbb743c42	-0.0037267362
165	0x3e5823a6	0.21107349
166	0xbdffac47	-0.12484031
167	0xbe9d9602	-0.3077851
168	0xbd4352e5	-0.047686476
169	0x3d846c61	0.06465984
170	0x3a9c2c9a	0.0011915148
171	0xbe59d00a	-0.21270767
172	0xbea9d352	-0.33169037
173	0x3ba41e81	0.005008519
174	0x3e104d38	0.14091957
175	0xbe5d29cc	-0.21597975
176	0xbe3525c1	-0.17690183
177	0xbe6d29ec	-0.23160523
178	0xbcaf1ecb	-0.021376988
179	0x3dc8724e	0.09787427
180	0xbe324201	-0.17407991
181	0xbdc214aa	-0.094765976
182	0xbdfee905	-0.12446789
183	0xba3a0cca	-0.00070972426
184	0x3e23a6c6	0.15981588
185	0xbd86cccc	-0.06582031
186	0xbd18b430	-0.037281215
187	0xbd322263	-0.043489825
188	0x3dfaccfa	0.122461274
189	0x3e7c9e40	0.24669743
190	0xbe125068	-0.14288485
191	0x3abfbfce	0.0014629306
192	0x3e09a605	0.13442238
193	0x3e45d9f7	0.19321428
194	0x3e9c68e4	0.30548775
195	0xbe0a2d77	-0.13493906
196	0x3d83e13f	0.06439447
197	0x3da76f18	0.08175486
198	0x3e3b3bd2	0.18284538
199	0x3ea2e6f8	0.3181684

conv_layer1.bias f4 [8]
0	0xbbd451c7	-0.006479475
1	0xbc261ed1	-0.010139183
2	0xbc2391e0	-0.00998351
3	0x3c4b650b	0.012414227
4	0xbc3a4c6b	-0.0113707585
5	0x3c5b12f0	0.013371214
6	0xbb92a95f	-0.004475757
7	0xbc7997d0	-0.015233949

conv_layer2.weight f4 [16, 1, 5, 5]
0	0xbc098c0c	-0.008395206
1	0x3cfa3006	0.030540477
2	0xbc15344a	-0.009106705
3	0x3b46d380	0.0030338466
4	0xbc2955f3	-0.010335433
5	0xbcc5bbee	-0.024137463
6	0x3cb08f38	0.021552667
7	0xbc855c7f	-0.016279457
8	0xbcb448b0	-0.022007316
9	0x3ba9177b	0.00516027
10	0xbcaf7565	-0.021418283
11	0x3ced0cca	0.028936762
12	0xbbc773d5	-0.0060868063
13	0x3cd094e9	0.02546163
14	0x3cb6c6b2	0.022311542
15	0xbcbff040	-0.02342999
16	0x3b558e18	0.0032585915
17	0x3cc8d768	0.024516776
18	0x3ba5f273	0.0050643026
19	0xbcd6f488	-0.026239648
20	0xbcae38d9	-0.021267341
21	0x3c7aaf0e	0.015300525
22	0x3cb3d034	0.021949865
23	0xbc91139c	-0.017709546
24	0xbcf887b8	-0.030338153
25	0x3c0b7fd6	0.008514365
26	0x3c39031f	0.011292248
27	0x3c0865fa	0.008325094
28	0xbc86a5e6	-0.016436528
29	0x3c8c1fe4	0.01710505
30	0xbc30fb8f	-0.010802164
31	0x3c843f95	0.0161436
32	0xbbce159b	-0.0062891967
33	0xbcb8dc55	-0.022566
34	0xba16184a	-0.0005725665
35	0xbd239f5c	-0.0399469
36	0x3d0087e8	0.03137961
37	0xbb5bf8b4	-0.0033564987
38	0xbd003b71	-0.031306688
39	0xbcbca181	-0.02302623
40	0xbd2e5712	-0.042563505
41	0x3d9ad5f6	0.07560341
42	0x3d5bfd56	0.053708397
43	0x3c24f4c1	0.0100681195
44	0xbc7e0947	-0.015505142
45	0xbd2ac6f2	-0.041693635
46	0x3d786fc9	0.06065348
47	0x3cb64440	0.022249341
48	0xbcfcbcbb	-0.030851712
49	0xbc0d2463	-0.008614632
50	0xbcead5fa	-0.028666485
51	0xbc73f994	-0.014891047
52	0x39bd3b3f	0.0003609303
53	0x3bac1f84	0.0052527804
54	0xbb62e744	-0.0034622708
55	0xbc27536c	-0.01021276
56	0xbc21092a	-0.009828845
57	0xbbd0d4b4	-0.0063730124
58	0x3c82a56e	0.015948024
59	0xbbf32b79	-0.007420954
60	0x3b332290	0.0027333833
61	0xbbc5aab9	-0.0060323146
62	0x3be56b0a	0.0070012854
63	0x3cc99f85	0.024612198
64	0x3c74c6c8	0.014939971
65	0xbc3bf78d	-0.011472595
66	0xbc3b91f7	-0.011448375
67	0xbbd62daa	-0.0065362053
68	0x3c5043c4	0.012711469
69	0xbc81499b	-0.015782168
70	0xbc8c2a1f	-0.017109929
71	0xbc8907d4	-0.016727366
72	0x3c3e5d5f	0.011618941
73	0xbbce5890	-0.0062971786
74	0xbc85221a	-0.016251612
75	0x3d355e2c	0.044279262
76	0x3e3c1af2	0.18369654
77	0x3e0e0914	0.1387065
78	0x3d14ccd3	0.036328148
79	0xbd8ae103	-0.06781199
80	0x3d591d33	0.053006362
81	0x3d6c1fba	0.057647444
82	0xbba43747	-0.0050114724
83	0xbe0f4d7d	-0.13994403
84	0xbdf06edb	-0.11739894
85	0xbc084431	-0.008317039
86	0xbd9a5d02	-0.07537271
87	0xbdb50680	-0.088391304
88	0xbe088ac4	-0.13334185
89	0xbd1d2fd1	-0.03837568
90	0x3dad6f0c	0.08468446
91	0xbd998a60	-0.07497096
92	0xbdf339b5	-0.11876241
93	0xbe3ad4e4	-0.18245274
94	0x3cf1e53c	0.029528253
95	0x3dba1f05	0.09087948
96	0x3ddabb7f	0.10680293
97	0x3db22f5c	0.08700439
98	0x3dc81153	0.09768929
99	0xbc47bb4b	-0.01219065
100	0xbc1f519f	-0.00972405
101	0xbc45dd7b	-0.012076731
102	0xbba68ec4	-0.005082937
103	0xbc29f579	-0.010373467
104	0x3c303b62	0.0107563455
105	0xbc57f478	-0.0131808445
106	0x3a5bd6dd	0.0008386204
107	0xbb4d4b22	-0.00313253
108	0xbb7277c3	-0.0036997653
109	0xbc0daff2	-0.008647906
110	0x3b233568	0.0024903659
111	0xbc6c555e	-0.01442465
112	0xbbb4d1cf	-0.005518175
113	0xbaa1080f	-0.0012285727
114	0x3af3b17e	0.0018592326
115	0xbc3e0f23	-0.011600289
116	0x3b7f79eb	0.003898258
117	0xbc59de41	-0.013297618
118	0x3a801cad	0.0009774171
119	0x3b95c52a	0.004570623
120	0x3bef86cb	0.0073097697
121	0xbc4999e3	-0.012304756
122	0xbbdff35e	-0.0068344316
123	0x3b705c5c	0.0036676144
124	0x3c16ae47	0.009196824
125	0xbc024aee	-0.007952435
126	0x3b28d948	0.0025764275
127	0xbc5d3036	-0.013500264
128	0xbb1f5acc	-0.0024315594
129	0xbc632220	-0.0138631165
130	0xbb3ea0d6	-0.0029087565
131	0x3c002619	0.007821583
132	0x3b6bd6bc	0.0035986146
133	0x3bf542fc	0.007484792
134	0x3c5b343c	0.013379153
135	0x3ba6d979	0.0050918427
136	0xbc01717b	-0.007900591
137	0xbbca0559	-0.0061651883
138	0x3c183d12	0.009291904
139	0xbc505903	-0.012716535
140	0x3c21ce60	0.009875864
141	0x3b9ad7fb	0.004725454
142	0xbb392fa1	-0.0028257149
143	0x3c5017ea	0.012701014
144	0xbc0afdb3	-0.008483338
145	0x3ac7c14c	0.0015240102
146	0xbc36ce8c	-0.011157643
147	0xbbc0f804	-0.0058889408
148	0x3c062586	0.008187657
149	0xbc150a9e	-0.00909677
150	0xbd702359	-0.05862746
151	0xbc90ac13	-0.017660176
152	0x3e2a4811	0.16629054
153	0x3e338d10	0.1753428
154	0xbd48e716	-0.049048506
155	0xbda2af25	-0.079435624
156	0x3d00d2cf	0.031451043
157	0x3e1fd552	0.15608719
158	0x3e2cc411	0.16871668
159	0xbd65fd33	-0.056149673
160	0xbd26c9ae	-0.04071968
161	0x3d3053b8	0.04304859
162	0x3e13a98f	0.1442015
163	0x3d2615c6	0.04054811
164	0xbd88e7fc	-0.066848725
165	0xbdab9213	-0.08377471
166	0x3de1f455	0.11032931
167	0x3e4c452c	0.19948262
168	0x3ce3e145	0.027817378
169	0xbd23b934	-0.039971545
170	0xbd9c44e0	-0.07630324
171	0x3d482045	0.0488589
172	0x3dc00c4c	0.093773454
173	0x3c083848	0.0083142
174	0xbc5e3f99	-0.013564968
175	0xbdfbb74e	-0.12290822
176	0x3e3adac8	0.18247521
177	0x3e8f5def	0.28001353
178	0x3ead011a	0.33789903
179	0x3dd2d5f1	0.10294712
180	0xbd8459ab	-0.06462415
181	0x3dc6c93c	0.09706351
182	0x3e833237	0.25624248
183	0x3e65a594	0.22426444
184	0x3cc33a0d	0.023831392
185	0xbcc05ea7	-0.023482634
186	0x3be6ec6f	0.007047228
187	0xbc0c4acc	-0.008562755
188	0x3cfad03b	0.03061687
189	0xbcc19c30	-0.023634046
190	0xbd2fdaba	-0.042933203
191	0x3b6617b1	0.0035109336
192	0x3d04791b	0.032342058
193	0x3c910d01	0.017706396
194	0xbcce10d2	-0.025154505
195	0xbdaafadd	-0.083486296
196	0xbdd82aea	-0.1055506
197	0xbdcbaa5c	-0.09944603
198	0xbd46944f	-0.04848128
199	0xbd3c2297	-0.045931425
200	0x3cd23600	0.025660515
201	0xbd035371	-0.032061998
202	0xbd0adf52	-0.03390438
203	0x3c7117a5	0.01471511
204	0xbc197a71	-0.009367571
205	0xbadeb5e2	-0.0016991461
206	0xbd84e778	-0.06489462
207	0xbdbbd368	-0.09171182
208	0x3d961232	0.07327689
209	0x3db0817c	0.08618447
210	0x3c221065	0.009891604
211	0xbda38fbd	-0.079864
212	0xbd9d66f9	-0.07685656
213	0x3c1a8af3	0.009432542
214	0x3cda7465	0.02666683
215	0xbd14dd04	-0.03634359
216	0xbd463707	-0.048392322
217	0xbd20e931	-0.03928489
218	0x3dc28f66	0.09500007
219	0x3909dacf	0.0001314685
220	0x3ca9be9a	0.020720769
221	0xbd1fe44e	-0.039036088
222	0x3d060555	0.03271993
223	0x3dac7415	0.084205784
224	0x3c615c46	0.01375491
225	0xbc5d9882	-0.01352513
226	0x3c6c708a	0.014431128
227	0x3c987d6d	0.018614495
228	0x3cb37274	0.021905161
229	0xbd5d3a31	-0.054010574
230	0xbdc26001	-0.094909675
231	0xbd5ba357	-0.05362257
232	0x36f2d8c8	7.2373987e-06
233	0x3da62647	0.081127696
234	0x3d8346a7	0.0640996
235	0xbdda7ada	-0.10667963
236	0xbd5dbf19	-0.054137323
237	0xbd7191bf	-0.058976885
238	0x3dd6eddf	0.10494589
239	0x3e014c66	0.126268
240	0xbcee05ff	-0.029055594
241	0xbc7218da	-0.014776433
242	0xbd39cba5	-0.045360226
243	0x3d80c6eb	0.062879406
244	0x3dfdc750	0.123915315
245	0xbcd1643a	-0.025560487
246	0xbd54e34b	-0.051974576
247	0xbd9d67b0	-0.076857924
248	0xbce494ae	-0.027902927
249	0x3d308ec3	0.0431049
250	0xbd3f24a6	-0.04666581
251	0xbe01f9dd	-0.12692972
252	0x3bc9bb48	0.006156359
253	0xbca0216a	-0.019547183
254	0xbc0b38b8	-0.0084974095
255	0x3cd06321	0.025437893

conv_layer2.bias f4 [16]
0	0x3af2306b	0.0018477564
1	0xbc28a224	-0.010292564
2	0xbbe7355e	-0.0070559224
3	0xbc78210c	-0.015144598
4	0xbc0747f7	-0.008256904
5	0xbc589f88	-0.013221629
6	0xbd0f7719	-0.03502569
7	0xbcc1f393	-0.023675716
8	0x3beb3582	0.0071780095
9	0xbba2375c	-0.004950447
10	0xbc42f264	-0.011898611
11	0xbca577e4	-0.02019877
12	0xbd2add24	-0.041714802
13	0xbc7c0022	-0.015380891
14	0xbc9335f7	-0.017970068
15	0xb99fe74e	-0.0003049918

fc1.weight f4 [120, 576]
0	0xbbe4444e	-0.0069661504
1	0x3a2cf466	0.00065976975
2	0xba427cf3	-0.00074191316
3	0xbad4e15b	-0.0016241478
4	0xb9bca961	-0.0003598435
5	0xbb1c85f4	-0.0023883553
6	0xbb788835	-0.0037922983
7	0x3b3c9934	0.002877784
8	0x3a3d45d9	0.0007220186
9	0xbac08d95	-0.0014690632
10	0x3b186fca	0.002325999
11	0xb90ba133	-0.00013316124
12	0xba0cc2a4	-0.000536958
13	0xbb3fb910	-0.0029254593
14	0xbb232eee	-0.0024899798
15	0xb8f663f3	-0.00011748811
16	0x39decfce	0.00042497966
17	0xbb3eb0d0	-0.0029097088
18	0xbb2e0c79	-0.0026557727
19	0x390f3abc	0.00013659423
20	0xbb2c68c1	-0.0026307555
21	0xbb68019e	-0.0035401355
22	0xbb06248e	-0.0020468566
23	0xbb2e41ea	-0.002658958
24	0xbb139cd0	-0.0022523887
25	0x3b2420dd	0.0025044002
26	0xba8d0b9d	-0.0010760907
27	0xba3873b9	-0.0007036287
28	0x39f46396	0.00046613504
29	0xbb438b9e	-0.0029837857
30	0xbb578e72	-0.00328913
31	0xb8312aaa	-4.2239823e-05
32	0xba6b9a76	-0.0008987555
33	0x3a5c9d04	0.0008415731
34	0x3b663720	0.0035128072
35	0xb65c1c9b	-3.2799205e-06
36	0xbb4620df	-0.0030231995
37	0xbc13013d	-0.008972463
38	0x3a2d1de2	0.0006603879
39	0xbb698b0d	-0.003563586
40	0x3a7c0cf5	0.0009614968
41	0x3b7072f6	0.0036689616
42	0xbb590ba3	-0.0033118508
43	0xbb41c8c1	-0.0029569122
44	0xb8d4d382	-0.00010148344
45	0x3a79beb8	0.00095270155
46	0xbbab8410	-0.005234249
47	0x3ae64233	0.0017567336
48	0xbad6f2d6	-0.0016399275
49	0x3b8df41d	0.004332079
50	0xb9c9a8a0	-0.00038463343
51	0x3aba5318	0.0014215438
52	0xbb803596	-0.003912638
53	0xbb782e25	-0.00378693
54	0xbbe772d3	-0.0070632487
55	0x3b57680a	0.0032868409
56	0xbaaea77e	-0.0013325063
57	0xb978d37d	-0.00023729909
58	0x3ab9ba28	0.0014169859
59	0x3aafc74a	0.0013410833
60	0xbc208b2c	-0.009798806
61	0xbbd1fb9f	-0.0064081694
62	0x3aa108f3	0.0012285992
63	0x39b32d7b	0.00034175426
64	0xb9fd7448	-0.00048342557
65	0xba952837	-0.0011379783
66	0x39df3118	0.00042570452
67	0xbba34aab	-0.0049832663
68	0x3908d4c4	0.00013049232
69	0xbbaf07a3	-0.0053414865
70	0xbb15d9f9	-0.0022865518
71	0x3b094d20	0.002095051
72	0xba33541c	-0.00068408414
73	0x3a1dc86b	0.00060189393
74	0x3b16d04a	0.0023012334
75	0xbb080028	-0.0020752046
76	0xb7be57cf	-2.2690654e-05
77	0x3a26f676	0.0006369123
78	0x3ac7e56f	0.0015250872
79	0x3b342cbe	0.0027492489
80	0x3a2bc535	0.00065525185
81	0x3a73c139	0.0009298507
82	0x3a983c55	0.001161466
83	0x3a821a03	0.0009925965
84	0xbb11a4a4	-0.0022223378
85	0x3ad8cf23	0.0016541224
86	0x3ad1db48	0.0016010785
87	0x3b03a790	0.0020088889
88	0xbb0bca81	-0.0021330419
89	0xba8cc7d9	-0.0010740712
90	0x3b247f1f	0.0025100184
91	0x3ae1a462	0.0017215128
92	0xbb02c82d	-0.001995574
93	0x3a562613	0.00081691256
94	0xbb10f611	-0.0022119323
95	0x3af4265e	0.0018627157
96	0xbb376137	-0.0027981529
97	0xbb051255	-0.0020305116
98	0xbb0c4f85	-0.0021409702
99	0x3b0854ed	0.0020802573
100	0xbac8ae4a	-0.0015310731
101	0xbb28f293	-0.002577935
102	0x3a0098f0	0.0004905602
103	0x3b97dba0	0.0046343356
104	0x3a5b574b	0.00083671947
105	0xbafd3681	-0.0019318612
106	0x3b49b96a	0.0030780681
107	0xbb361d3d	-0.0027788423
108	0xba291970	-0.0006450629
109	0xba4ba9be	-0.0007769129
110	0x3aeb4d24	0.0017952067
111	0x3c03d42d	0.008046192
112	0x3c188c32	0.009310769
113	0x3d1357d8	0.035972446
114	0x3c47655d	0.012170163
115	0xbb5c0405	-0.0033571732
116	0x3b20fe5c	0.0024565673
117	0xbc128d75	-0.008944859
118	0xbbe9273f	-0.007115274
119	0xbabf2f08	-0.001458616
120	0x3bc5c58c	0.0060355123
121	0xb967febf	-0.00022124777
122	0x3c9256ef	0.017863719
123	0x3c087dc4	0.008330766
124	0xbbd59d4f	-0.006518997
125	0x3c623daf	0.013808652
126	0x3b2bdf14	0.0026225494
127	0xba8bff0e	-0.0010680871
128	0xbb0a58ae	-0.0021109986
129	0xbc3fadb5	-0.01169913
130	0xbbe16799	-0.006878805
131	0x3c549155	0.012974103
132	0x3b7700b6	0.0037689633
133	0xbb29ab8a	-0.0025889599
134	0xbc4cd7a6	-0.0125025865
135	0xbd000600	-0.031255722
136	0xbcebf2c2	-0.02880228
137	0x3c04a6ee	0.00809644
138	0x3ce344af	0.027742712
139	0x3bef795c	0.0073081683
140	0x38fc826f	0.000120405915
141	0xbc8a7077	-0.01689933
142	0xbc3df641	-0.011594356
143	0x3bddf8bf	0.0067740376
144	0xbb04cb87	-0.0020262913
145	0x3b22d616	0.0024846843
146	0xba557770	-0.0008143103
147	0x3a1c1027	0.00059533346
148	0x3ab5699c	0.0013840678
149	0x3adbee4e	0.0016779394
150	0x38672c5d	5.511601e-05
151	0x397e58b8	0.00024256378
152	0x3856d315	5.121816e-05
153	0xb5ade897	-1.2957197e-06
154	0x3ab1a15f	0.0013552121
155	0xba65452c	-0.0008745964
156	0x368e8ca3	4.248302e-06
157	0x370566dc	7.951367e-06
158	0xbb2a610a	-0.0025997781
159	0x3ab5bef9	0.0013866118
160	0xbb4438ca	-0.0029941075
161	0x3a871e4b	0.0010308711
162	0xba24955c	-0.000627836
163	0x3a3cca0e	0.00072017394
164	0xbb080770	-0.0020756386
165	0x3ad6ac55	0.0016378263
166	0xbae573ea	-0.0017505859
167	0x3a3b4e66	0.0007145166
168	0xba9e5c11	-0.0012081881
169	0x380fadb6	3.4255638e-05
170	0x3a2f4ab5	0.00066868524
171	0x3ac36232	0.0014906584
172	0xbab39247	-0.001370021
173	0x3b0c927c	0.0021449616
174	0x3b4204cb	0.0029604908
175	0x3a87b50d	0.001035364
176	0x3b0ea508	0.0021765847
177	0x3a07f23a	0.0005185936
178	0xbae593ff	-0.001751542
179	0x3aeb0715	0.0017931188
180	0x3ace61da	0.0015745715
181	0xbad703a0	-0.0016404279
182	0xbb119c6a	-0.0022218474
183	0xbaec6b58	-0.0018037362
184	0xbaa263bd	-0.0012389343
185	0x3b2c7c07	0.0026319043
186	0xb918cb91	-0.00014571684
187	0x3a0c4914	0.00053514657
188	0x39be1ce9	0.00036261164
189	0x38b5d4dd	8.6704014e-05
190	0x3ac1a328	0.0014773356
191	0x3a53ddcc	0.00080820615
192	0xba6be324	-0.0008998385
193	0xbaa2e277	-0.0012427111
194	0xba295598	-0.0006459593
195	0x3acb9190	0.0015531052
196	0xbacb227d	-0.0015497949
197	0x3b0f8cb2	0.002190393
198	0x3b1d1f71	0.002397504
199	0x3b1addf5	0.0023630832
200	0xba1c85e5	-0.00059708796
201	0x3b08d0fe	0.0020876522
202	0xba9f6458	-0.0012160642
203	0xbb197e60	-0.0023421273
204	0xbb1814b8	-0.0023205709
205	0x3aa8b57f	0.0012871473
206	0xb9dabb6b	-0.00041719837
207	0x3a929f44	0.0011186381
208	0x3a647471	0.0008714861
209	0x3b0aaec0	0.0021161288
210	0xbb3965ea	-0.0028289505
211	0xb93fb1f2	-0.00018281469
212	0xbb2b171c	-0.0026106304
213	0x3ad8e07c	0.0016546394
214	0xbb0c8e38	-0.0021447074
215	0xbb24ef5e	-0.0025167088
216	0xbbc9b8ac	-0.006156048
217	0x3c167378	0.009182803
218	0x3bcddb3d	0.0062822388
219	0xbbc4bebe	-0.0060041836
220	0xbc5c9f3a	-0.013465697
221	0xbbd8836d	-0.006607464
222	0x3c71be86	0.014754897
223	0x3c804b92	0.015661035
224	0x3c780bf4	0.015139569
225	0xbc11b077	-0.00889217
226	0x3c695045	0.014240329
227	0xbb57d1fa	-0.0032931552
228	0x3c358024	0.011077914
229	0x3c998c1b	0.018743565
230	0xbb7ddb79	-0.0038735552
231	0xbc597ed8	-0.013274871
232	0xbc4f8033	-0.012664842
233	0x3ca68c71	0.02033064
234	0x3c4e63b5	0.012597014
235	0x3c4162d8	0.011803351
236	0xbbd7f594	-0.0065905545
237	0xbca1203a	-0.019668687
238	0xbc93bdcd	-0.01803484
239	0xbbfce6e6	-0.007717955
240	0x3ca73fef	0.020416228
241	0x3b9a498f	0.004708476
242	0xbc4fbcb4	-0.012679268
243	0xbc180691	-0.009278909
244	0xbc933e1a	-0.017973948
245	0xbc0fbc80	-0.008772969
246	0x3c8e2255	0.017350355
247	0x3901737a	0.00012345417
248	0xbb8a265e	-0.0042159995
249	0xbc8ebabf	-0.017423032
250	0xbbb749bf	-0.005593508
251	0xbb8475e7	-0.0040423754
252	0xbd925391	-0.07144845
253	0xbcdbc8dc	-0.026829176
254	0x3bd037a9	0.0063542915
255	0xbacd51d6	-0.0015664648

fc1.bias f4 [120]
0	0xbb30879e	-0.0026936303
1	0x3aed5ae4	0.0018108753
2	0xba1721c3	-0.0005765224
3	0xbb1af127	-0.0023642273
4	0xbb52611a	-0.0032101334
5	0x3a8d9782	0.0010802599
6	0xbb42a5aa	-0.0029700794
7	0xbaa94a4d	-0.001291582
8	0xbaafc8e5	-0.0013411312
9	0xbb2fd938	-0.0026832353
10	0xb9bed0fb	-0.00036395327
11	0xbb5cd497	-0.003369605
12	0xba8cb8a0	-0.0010736175
13	0xbb4e564a	-0.0031484538
14	0xbb539860	-0.0032286867
15	0xba4b276a	-0.00077497086
16	0x3924697d	0.00015679556
17	0x3a3ddc7b	0.0007242632
18	0xbb4c2c6d	-0.003115441
19	0x3937b339	0.00017519006
20	0xbb78a19d	-0.0037938126
21	0x3a83e2f7	0.0010062148
22	0xbadf471b	-0.0017034741
23	0x39c55305	0.00037636622
24	0x3976ee11	0.00023549075
25	0x3aa527e3	0.0012600388
26	0x3a84b33a	0.0010124214
27	0xba64afae	-0.0008723688
28	0x394f876f	0.00019791511
29	0xba55e506	-0.00081594323
30	0xba99a3a3	-0.0011721741
31	0xbb51a7e9	-0.0031990951
32	0xbb71181d	-0.0036788054
33	0xba12c970	-0.00055994745
34	0xbae80b95	-0.0017703647
35	0xba361757	-0.0006946227
36	0xba8baf67	-0.0010657132
37	0xba86267f	-0.0010234861
38	0x3b2702f9	0.002548395
39	0xbafc1390	-0.0019231904
40	0xba886fd2	-0.0010409302
41	0xbb30f9b6	-0.0027004308
42	0xbab6eeb4	-0.0013956637
43	0x3b3fc4c3	0.0029261566
44	0xbabfe304	-0.00146398
45	0xbb9fdda3	-0.004878716
46	0x3aad0f6c	0.0013203449
47	0xba0a8c7a	-0.0005285215
48	0xbae14a74	-0.0017188326
49	0x3b412a8c	0.0029474823
50	0x3a23968b	0.0006240389
51	0xbb4c7d65	-0.003120267
52	0xba475bde	-0.0007604937
53	0xbb09a73e	-0.0021004225
54	0xbb2a121b	-0.0025950733
55	0xbb1565a2	-0.0022796174
56	0x3aab19bd	0.0013053935
57	0xb9ca6292	-0.00038601883
58	0x39e3deec	0.00043462904
59	0x3a4874ff	0.00076468283
60	0x3a97a452	0.0011569357
61	0xbb8f0f75	-0.0043658563
62	0xbb13a508	-0.0022528786
63	0xbb667926	-0.0035167425
64	0xbb8556c5	-0.0040691816
65	0xbac91964	-0.001534265
66	0xbb1a7c90	-0.002357278
67	0xba9b0821	-0.0011827984
68	0x3a982c70	0.0011609923
69	0xbaa165b1	-0.0012313632
70	0xbba648bb	-0.005074588
71	0xba8df7af	-0.0010831262
72	0xb9cc88be	-0.00039011793
73	0x392eff7f	0.00016689113
74	0x392db2c7	0.00016565165
75	0xb9c24467	-0.00037053527
76	0xbb06b4a5	-0.002055445
77	0x3b1782ad	0.002311866
78	0xbad476d8	-0.0016209735
79	0x3a4309fd	0.0007440148
80	0xba11ce0e	-0.00055620156
81	0xba2b1d8c	-0.0006527535
82	0x39d14093	0.00039911698
83	0xba7e8d73	-0.00097104086
84	0xbb010130	-0.0019684546
85	0xbb86a21f	-0.004108682
86	0xba8577d2	-0.0010182804
87	0x3a8b27d0	0.0010616723
88	0xbb5bc8dc	-0.003353647
89	0xbacc0b9b	-0.0015567424
90	0xbb3c7988	-0.0028758962
91	0x3824eb88	3.9320003e-05
92	0x39786c84	0.00023691548
93	0xbb3497ee	-0.0027556377
94	0xbb255d52	-0.0025232625
95	0xbb43ddc9	-0.0029886833
96	0xba026d42	-0.0004975387
97	0x3b026cbe	0.0019901241
98	0x3b078eca	0.0020684474
99	0xbb4545f9	-0.0030101521
100	0xbad4efb8	-0.0016245758
101	0x39c403a5	0.0003738675
102	0xbb19c4a9	-0.0023463166
103	0x3b082c1b	0.0020778242
104	0xbb16e3ce	-0.0023023966
105	0x3a1c4be1	0.00059622346
106	0x39916c8d	0.00027737432
107	0x3aa6e210	0.0012732167
108	0x3b745ace	0.003728557
109	0xbb2200c8	-0.0024719704
110	0xb8033f04	-3.129152e-05
111	0x3ae93179	0.0017791233
112	0xbb3e286c	-0.0029015793
113	0xbb598dc4	-0.003319607
114	0xbadaa3bb	-0.0016680876
115	0xba878834	-0.0010340274
116	0xbb510f4d	-0.003189999
117	0xbb2104ab	-0.0024569433
118	0x39587dc4	0.00020646217
119	0xbb80f419	-0.0039353487

fc2.weight f4 [80, 120]
0	0xbc218308	-0.0098579
1	0x3c4b0aef	0.0123927435
2	0x3cc183b8	0.023622379
3	0xbc0c072b	-0.008546631
4	0x3d7c7541	0.06163526
5	0xbd0e3be5	-0.03472509
6	0xbb75be14	-0.0037497329
7	0x3c0d4e96	0.008624693
8	0x3c9cb283	0.01912809
9	0xbb1fe870	-0.0024400018
10	0x3d238cf8	0.03992936
11	0xbc073553	-0.00825246
12	0x3d9f2170	0.077700496
13	0xbbae41ca	-0.0053179013
14	0xbcdde687	-0.027087463
15	0xbc74d229	-0.014942684
16	0x3c704f2e	0.014667315
17	0xbb86acbb	-0.0041099465
18	0x3c37f6f4	0.011228312
19	0xbcb899d7	-0.022534294
20	0xbccaa806	-0.024738323
21	0xbb02b73d	-0.0019945644
22	0x3d82fc2f	0.063957565
23	0x3cf8f14a	0.030388493
24	0x3bd0f228	0.0063765235
25	0x3cf04ddf	0.029334007
26	0x3d07352e	0.0330097
27	0x3ce67a82	0.028134588
28	0x3ce612b2	0.028085086
29	0xba78c830	-0.00094902795
30	0xba65b498	-0.00087625673
31	0xbbc271e1	-0.0059339856
32	0xbc427704	-0.011869196
33	0xbbaecebf	-0.0053347046
34	0x3bd303be	0.006439655
35	0xbca5f842	-0.02025998
36	0x3b32e241	0.0027295502
37	0x3b0b7566	0.0021279692
38	0x3d4ae4ac	0.049534485
39	0xbc4d436a	-0.01252828
40	0xbc39ff5c	-0.011352386
41	0x3af71cf8	0.0018853238
42	0xbcc2fb51	-0.023801478
43	0xbc7143b4	-0.014725614
44	0x3b5bc725	0.0033535447
45	0x3c70f720	0.014707357
46	0xbc0d0f0d	-0.008609545
47	0x3cb545af	0.022127954
48	0xbb84d6f4	-0.0040539447
49	0x3a2a5528	0.00064976746
50	0x3d486bb9	0.048930857
51	0x3c094ba0	0.008379847
52	0x3c6dd8b3	0.014516997
53	0xbc67775b	-0.014127578
54	0x3d5213a9	0.05128828
55	0xbc6713a5	-0.014103805
56	0x3ccffd60	0.025389373
57	0xbcd1000c	-0.025512718
58	0xbcaa91c1	-0.020821454
59	0x3bb801e1	0.0056154584
60	0xbc504516	-0.012711784
61	0xb9f7067e	-0.00047116348
62	0x3d064092	0.032776423
63	0xbc2e5cc3	-0.010642233
64	0x3bdd6a07	0.006757024
65	0xbc7e67dd	-0.015527693
66	0x3bb5271c	0.005528344
67	0xbd01104b	-0.03150968
68	0x3bd50750	0.006501116
69	0x3a5cf651	0.0008429038
70	0x3b35a4da	0.0027716667
71	0x3b7b00fa	0.0038300143
72	0x3c945c69	0.01811047
73	0xbc8d8dce	-0.017279532
74	0xbd4f3ef2	-0.05059714
75	0x3d060bb1	0.032725994
76	0xbbc9ceb7	-0.0061586755
77	0x3d278f38	0.04090807
78	0xbc1ec504	-0.009690527
79	0xbd12168b	-0.03566603
80	0xbb0d5830	-0.0021567456
81	0xbd158503	-0.036503803
82	0xbcae5fd3	-0.021285927
83	0x3c806ba8	0.015676335
84	0xba42d223	-0.00074318255
85	0x3baa7ece	0.0052031046
86	0x3cab409b	0.02090483
87	0xbbbddeed	-0.005794397
88	0x3b034d4d	0.0020035089
89	0xbbce2b14	-0.0062917564
90	0xbd1b129d	-0.037859548
91	0x3daa8d9a	0.083277896
92	0x3d83a0d9	0.06427164
93	0xbcf666b2	-0.030078266
94	0x3be16e1e	0.006879582
95	0xbb8ed1a6	-0.004358488
96	0xbce1dd8b	-0.02757146
97	0x3c1782a9	0.00924746
98	0xbbb11ac6	-0.005404803
99	0x3ceca660	0.028887928
100	0x3969dc09	0.00022302581
101	0x3b840951	0.004029431
102	0x3d21578b	0.039390128
103	0x3d47c9a5	0.048776288
104	0x3cfb8eeb	0.030707797
105	0x3bce8716	0.0063027246
106	0xba6c5d76	-0.00090166123
107	0xbc5c8ab3	-0.013460803
108	0x3c46fd13	0.0121452985
109	0x3d977670	0.07395637
110	0xbabf7498	-0.0014606891
111	0xbca2c3fb	-0.019868841
112	0xbd68bc3c	-0.05682014
113	0xba624333	-0.0008631229
114	0xbd141b1e	-0.036158673
115	0xbd2b7b5e	-0.0418657
116	0x3c57ca46	0.013170784
117	0x3aa0740e	0.0012241618
118	0xbb86fc92	-0.004119464
119	0x3d06b34e	0.032885842
120	0x3ca6d6f1	0.020366164
121	0x3c1be3bf	0.009514748
122	0xbd02211d	-0.03176986
123	0x3cf30538	0.029665574
124	0xbd090bc6	-0.033458494
125	0x3cd2c5b4	0.025729038
126	0x3d1293f4	0.03578563
127	0x3d984794	0.074355274
128	0x3d23d066	0.039993666
129	0x3d13f09d	0.03611814
130	0xbc6716c7	-0.014104552
131	0x3cd9adfa	0.026572216
132	0x3ba6788a	0.0050802873
133	0x3d05a363	0.03262652
134	0xbd1591fb	-0.03651617
135	0x3bfdf808	0.007750515
136	0xbb9c08d7	-0.004761796
137	0x3d5210a4	0.0512854
138	0x3c1394bb	0.009007628
139	0xbd1cbae7	-0.03826418
140	0xbc957f8b	-0.018249294
141	0x3d08f4b7	0.033436503
142	0x3c5268f0	0.012842402
143	0x3d9767d5	0.07392851
144	0x3ad4ccc6	0.0016235344
145	0x3b4170cf	0.0029516702
146	0xbc957087	-0.018242134
147	0x3c950c6a	0.018194396
148	0xbbe70298	-0.0070498697
149	0x3d68ed75	0.05686708
150	0xbceda7de	-0.02901071
151	0xba3e5675	-0.0007260808
152	0x3b262212	0.0025349897
153	0x3c63be20	0.01390031
154	0x3cb8309e	0.02248412
155	0x3cd73d14	0.026274242
156	0xbb984948	-0.0046474077
157	0xbc730857	-0.014833531
158	0xbcb0e590	-0.021593839
159	0x3b876f7a	0.004133162
160	0xbd1f3e67	-0.03887787
161	0x3a99cad2	0.0011733419
162	0xbd5970b1	-0.053085987
163	0xbc1ddc22	-0.009635003
164	0x3ca37ea3	0.019957846
165	0xbd14abf3	-0.036296796
166	0xbc00bb15	-0.007857104
167	0x3d3871ce	0.045030408
168	0xbb57378f	-0.0032839512
169	0x3b870d9e	0.0041214963
170	0xbc1459b5	-0.009054591
171	0xbd4530dc	-0.0481423
172	0x3da256d4	0.079267174
173	0xbc3ea241	-0.011635364
174	0x3d826c6f	0.06368338
175	0xbc304a8f	-0.010759964
176	0x3c516e70	0.012782678
177	0xbba01dff	-0.0048863883
178	0xbd00bb37	-0.031428542
179	0xba2d327d	-0.00066069496
180	0xbc27bfd9	-0.010238611
181	0x3d54f5d8	0.051992267
182	0x3a9d56c1	0.0012004004
183	0xba86865a	-0.0010263429
184	0x39a1a163	0.00030828555
185	0xbb84e1d8	-0.004055243
186	0xba6d9b01	-0.000906393
187	0xbbf89dc0	-0.0075871646
188	0xbb8926dc	-0.0041855406
189	0xbc875035	-0.016517738
190	0x3c191282	0.0093427915
191	0xbc1591fe	-0.0091290455
192	0xbc8f2242	-0.01747239
193	0x3d7ba9b1	0.061441127
194	0x3c9e3bbc	0.019315593
195	0xbd42c5a3	-0.047551762
196	0xbc7f305c	-0.015575495
197	0xbbb7d8a3	-0.005610542
198	0x3cac8eab	0.021064123
199	0xbaf19bdb	-0.0018433289
200	0x3c9dd6de	0.019267496
201	0x3d5d8c9f	0.054089185
202	0x3b870125	0.0041200095
203	0x3c089e6f	0.008338555
204	0xbd025f8c	-0.0318294
205	0xbcc2f5ae	-0.02379879
206	0xbd7f9c75	-0.06240507
207	0xbc16eab5	-0.009211232
208	0x3c864c3c	0.016393773
209	0x3c44d5d7	0.012013874
210	0x3b969f82	0.0045966515
211	0xbd7c0445	-0.06152751
212	0xbcda12ad	-0.026620233
213	0x3bb910ae	0.0056477403
214	0xbc7ac737	-0.015306286
215	0x3ce94516	0.028475326
216	0xbcd18d44	-0.025580056
217	0x3c4c1953	0.01245721
218	0xbbcf47b5	-0.006325687
219	0x3d3486eb	0.04407398
220	0xbb60e291	-0.0034314732
221	0x3af19fb0	0.0018434431
222	0xbc848ac1	-0.016179444
223	0xbc4dd9b5	-0.012564112
224	0x3ce9055d	0.02844494
225	0x3d50bc12	0.050960608
226	0x3ce48ae9	0.027898269
227	0x3c8204b4	0.015871383
228	0x3c36c03c	0.011154231
229	0xbcfeb674	-0.03109286
230	0xbb156bb3	-0.002279979
231	0x3db98725	0.0905898
232	0xbd0a37e3	-0.033744704
233	0xbbaef7ab	-0.005339583
234	0x3c94fcbf	0.018186925
235	0x3cd3f3a9	0.025873022
236	0x3c460a28	0.012087382
237	0xbcaa7b4e	-0.02081075
238	0x3a174dbb	0.00057717756
239	0x3b4c629b	0.0031186703
240	0xbbb24870	-0.005440764
241	0xbbd3eeaf	-0.0064676623
242	0xbc93fb55	-0.01806418
243	0xbd696fdd	-0.056991447
244	0xbaae2239	-0.0013285346
245	0xbbd2f4f5	-0.0064378926
246	0x3d018987	0.031625297
247	0xbcf06826	-0.029346537
248	0x3d342031	0.043976013
249	0x3bda6264	0.006664561
250	0xbd787a7b	-0.06066368
251	0xbbcaae9e	-0.006185367
252	0x3d173e32	0.03692455
253	0xbcd27b1d	-0.02569347
254	0x3cf82f50	0.030295998
255	0xbd06304c	-0.032760903

fc2.bias f4 [80]
0	0xbb85bbaa	-0.004081209
1	0x3b6b7171	0.003592577
2	0xbbb41d57	-0.0054966616
3	0x3c17e4e2	0.0092708785
4	0xbbb52045	-0.0055275285
5	0x3b4e2780	0.003145665
6	0xbb3474cf	-0.0027535444
7	0xbb506650	-0.0031799264
8	0x3b134803	0.0022473342
9	0x3b7125fd	0.0036796324
10	0xbb75f116	-0.0037527732
11	0xbbb743f5	-0.005592818
12	0xbb02c7ee	-0.0019955593
13	0x3b8e0ddf	0.0043351497
14	0xbaa3d9d0	-0.0012500826
15	0x3b9e4d25	0.0048309737
16	0xbbbed0f5	-0.0058232495
17	0xbbbeb158	-0.005819481
18	0xbba1a9e8	-0.0049335845
19	0x3b81c1b8	0.0039598607
20	0x3bd5f2eb	0.006529202
21	0x3b99c3ce	0.004692531
22	0x3b9328d7	0.0044909525
23	0xbb61a220	-0.003442891
24	0x39e0b54c	0.00042859686
25	0xbae57d17	-0.0017508593
26	0x3b6ce6dc	0.0036148345
27	0xbae77ed1	-0.0017661696
28	0x3bcf849f	0.0063329483
29	0x3b450e2f	0.0030068269
30	0xbbab4b2d	-0.0052274675
31	0x3aba24ca	0.0014201638
32	0xbad95d0d	-0.0016583517
33	0x3b235248	0.002492087
34	0xbb8f056b	-0.0043646595
35	0x3b9617da	0.00458048
36	0xbb8a92f5	-0.0042289444
37	0x3b889499	0.004168105
38	0xbbbcd632	-0.0057628388
39	0xbb8a4217	-0.0042193043
40	0x3ac0bb41	0.0014704244
41	0xba52ea25	-0.00080457545
42	0x3bf25688	0.0073955692
43	0x3b896001	0.0041923528
44	0xbb7a9adb	-0.0038239274
45	0x3b9e7d6d	0.0048367293
46	0xbc15f359	-0.009152257
47	0xbbdc74e7	-0.006727803
48	0x3ad9539c	0.0016580704
49	0xbb39b6a1	-0.0028337615
50	0xba84b27c	-0.0010123993
51	0xbb959050	-0.0045643225
52	0xbab9c333	-0.0014172554
53	0xbbdc3194	-0.0067197774
54	0x3c0eff58	0.008727871
55	0x3a82811d	0.0009956692
56	0x3b2125b7	0.002458913
57	0xbae47c68	-0.0017432095
58	0xbaa02f5d	-0.0012221147
59	0xbb616b41	-0.0034396204
60	0x3b79b38b	0.00381014
61	0x3946b042	0.00018948413
62	0x3930ad3c	0.00016849203
63	0x3c18b37f	0.009320139
64	0x3b465263	0.0030261509
65	0x3baa78fd	0.005202411
66	0xbb3180a6	-0.0027084737
67	0xbc0361cc	-0.008018922
68	0xbaa28368	-0.0012398781
69	0x3bb35975	0.0054733106
70	0xbbc56a43	-0.0060246303
71	0xbba60b1e	-0.0050672432
72	0x3b23a0cb	0.0024967666
73	0x3b9518d0	0.004550077
74	0xbbac251b	-0.0052534468
75	0xbb6a1af2	-0.0035721627
76	0x3b90e794	0.0044221375
77	0x3b8c12d2	0.0042747045
78	0xbbb20e73	-0.0054338514
79	0xbb7ac821	-0.0038266259

fc3.weight f4 [40, 80]
0	0x3daf282d	0.08552585
1	0xbcac5c42	-0.021040086
2	0xbca6855c	-0.020327263
3	0xbd077bb3	-0.033076953
4	0xbc6ae9c6	-0.0143379625
5	0x3d7257dc	0.05916582
6	0x3d86134d	0.0654665
7	0xbca0c204	-0.019623764
8	0x3da2fdab	0.079585396
9	0xbc800856	-0.015628975
10	0x3d60fc1f	0.05492794
11	0xbc85acf3	-0.01631782
12	0x3caaf699	0.02086954
13	0xbc10595a	-0.008810366
14	0x3ba66db7	0.005078997
15	0x3de80faf	0.113311164
16	0xbbda649d	-0.006664826
17	0x3d198051	0.037475888
18	0xbcfc59c7	-0.030804528
19	0xbc8056d5	-0.015666405
20	0xbd05fed6	-0.032713734
21	0x388250d2	6.213937e-05
22	0xbd0fc204	-0.035097137
23	0xbd0db341	-0.034594778
24	0xbc5faca6	-0.013652002
25	0xbcfd7cc5	-0.030943284
26	0xbc303ad2	-0.010756211
27	0x3db435bc	0.087993115
28	0x3d211534	0.03932686
29	0x3dbb509a	0.09146233
30	0xbc90b354	-0.017663635
31	0xbca6b714	-0.02035097
32	0x3ce7a9f9	0.028279291
33	0xbad9c480	-0.0016614348
34	0xbc0501cf	-0.008118107
35	0xbc32f373	-0.010922301
36	0xbb749f27	-0.0037326308
37	0x3d91c5e0	0.0711782
38	0xbcce2e13	-0.025168454
39	0xbcc52cd9	-0.024069237
40	0xbbf52041	-0.0074806516
41	0x3dce301c	0.1006777
42	0xbd5f3dda	-0.054502346
43	0xbb87aaa6	-0.004140216
44	0xbcb454aa	-0.022013027
45	0x3d34a1a8	0.04409948
46	0xbd1b6e00	-0.0379467
47	0xbcf7b81a	-0.030239154
48	0x3db27621	0.087139376
49	0x3d7ee2c1	0.062227968
50	0xbc7c33b8	-0.01539319
51	0x3cc0673c	0.023486726
52	0xbb94e439	-0.004543808
53	0x3d94102b	0.07229646
54	0xbd544639	-0.051824782
55	0x3dacf8c2	0.08445884
56	0xbc8167d8	-0.015796587
57	0xbcd89d51	-0.026442202
58	0xbd47c49b	-0.048771482
59	0xbc8da5e7	-0.017291022
60	0x3d157aef	0.03649419
61	0xbcce79a3	-0.025204485
62	0x3dcdbb44	0.10045484
63	0x3db6f87c	0.089341134
64	0x3d498a57	0.049204197
65	0x3dbd137e	0.092322335
66	0xbc0e2bb7	-0.008677415
67	0xbbca542b	-0.0061745844
68	0xbd185f45	-0.03720023
69	0x3db12ef8	0.08651537
70	0xbbc149da	-0.0058986964
71	0x3d429ecd	0.047514725
72	0xbcd3a5ac	-0.025835834
73	0x3d8205eb	0.06348785
74	0x3d18de6b	0.03732149
75	0xbba1efa9	-0.0049419
76	0xbb9cb56b	-0.004782369
77	0x3d87d10e	0.06631671
78	0xbc361bba	-0.011115009
79	0xbd2135d8	-0.03935799
80	0x3c97af61	0.018516244
81	0x3d7b6ada	0.0613812
82	0xbcef0f43	-0.029182082
83	0xbc3cb9fc	-0.0115189515
84	0xbc8960eb	-0.016769847
85	0xbc9afb64	-0.0189187
86	0xbc9a5ecd	-0.018844033
87	0xbd113821	-0.03545392
88	0x3d4dd39d	0.05025064
89	0xbca9af78	-0.020713553
90	0x3da27bca	0.07933767
91	0xbd3e4878	-0.04645583
92	0x3cc851a5	0.024452994
93	0xbceaf81e	-0.028682765
94	0xbcbbba94	-0.022916116
95	0x3d4de2c8	0.050265104
96	0x3ac90489	0.0015336435
97	0xbd1ca147	-0.038239744
98	0xbd015bd4	-0.031581715
99	0x3da72965	0.08162192
100	0x3d13ab93	0.036052298
101	0xbbab3a6b	-0.00522547
102	0xbc947acb	-0.018124959
103	0xbd0dca30	-0.03461665
104	0xbd1d1d38	-0.038357943
105	0xbbdfabf9	-0.0068259207
106	0xbcf0eb04	-0.02940894
107	0xbca9eacb	-0.02074184
108	0xbcd45f86	-0.025924455
109	0x3bb13185	0.0054075145
110	0xbc53565f	-0.01289901
111	0xbc5e7ab2	-0.0135790575
112	0x3d787435	0.0606577
113	0x3bcef87c	0.0063162427
114	0xbcb47250	-0.022027165
115	0xbca28b09	-0.019841688
116	0x3d453369	0.04814473
117	0x3d7622e7	0.06009188
118	0xbce7748f	-0.028253822
119	0xbc323524	-0.0108769275
120	0xbcfc9d20	-0.030836642
121	0x3da66608	0.0812493
122	0x3d4c9cb8	0.049954146
123	0xbc1d838f	-0.009613886
124	0xbce460aa	-0.027878124
125	0x3d7b94a1	0.06142104
126	0x3c67dde2	0.014152022
127	0xbd083ddb	-0.033262115
128	0x3d07a991	0.033120696
129	0x3cd7fe83	0.026366478
130	0xbd2fe443	-0.042942297
131	0xbcc392c0	-0.023873687
132	0xbd287549	-0.041127477
133	0xbc3510e4	-0.01105139
134	0x3d72b729	0.059256706
135	0x3d4bdc44	0.04977061
136	0xbcaf9ea9	-0.02143796
137	0x3d845b0c	0.06462678
138	0x3d79da39	0.06099913
139	0xbc66ce82	-0.014087321
140	0x3cfe99b2	0.031079147
141	0x3bfed328	0.0077766366
142	0xbcbfa916	-0.023396056
143	0x3df64259	0.120243736
144	0x3d735964	0.05941142
145	0xbbb547af	-0.005532227
146	0x3d640835	0.05567189
147	0xbd1fa245	-0.03897311
148	0xbcf8ea2f	-0.030385105
149	0x3d4a2e45	0.049360532
150	0x3d9999d2	0.07500042
151	0xbc9b242b	-0.018938145
152	0x3d6ae995	0.057351667
153	0x3b4fdc19	0.0031716882
154	0x3d834389	0.06409366
155	0xb93de9f0	-0.00018111593
156	0xbbf434be	-0.0074525764
157	0xbd01ad6a	-0.03165952
158	0x3da6397f	0.08116435
159	0x3cbeff37	0.023315055
160	0xbce43e64	-0.027861781
161	0xbd3bac7d	-0.045818795
162	0x3dbc8ed8	0.09206933
163	0x3d4fb571	0.050710145
164	0xbb05b050	-0.002039928
165	0xbd332197	-0.043733206
166	0xbc83793e	-0.016049024
167	0x3df149ea	0.11781676
168	0xbd1944bc	-0.037419066
169	0xbc40b928	-0.011762895
170	0xbd3dc694	-0.046331957
171	0x3db84297	0.08997076
172	0xbada825b	-0.0016670929
173	0x3d6b6967	0.057473566
174	0x3c944bc5	0.018102536
175	0xbb89cc4a	-0.0042052614
176	0x3bfef638	0.0077808164
177	0x3d716ee0	0.05894363
178	0x3db0f7e5	0.08641032
179	0xbca3fbeb	-0.020017585
180	0x3d47cefa	0.048781373
181	0x3d96a419	0.07355518
182	0x3d8c4f0d	0.06851015
183	0x3d816392	0.0631782
184	0x3d9d38ae	0.076768264
185	0x3d153a03	0.036432277
186	0xbcf12451	-0.029436262
187	0xbd64dc01	-0.055873875
188	0xbcd2d87f	-0.025737999
189	0xbcd5f10f	-0.026115922
190	0x3d960f71	0.07327164
191	0x3b76b8e2	0.003764682
192	0xbc63e084	-0.013908509
193	0x3b35fd96	0.0027769557
194	0xbc90f727	-0.017695976
195	0xbb7a28ec	-0.0038171364
196	0x3dcad6f6	0.09904282
197	0x3d928059	0.071533866
198	0x3b80a80a	0.003926282
199	0x3d031d41	0.03201032
200	0xbc204c55	-0.009783824
201	0xbcb77b1a	-0.022397567
202	0x3d1a2b6e	0.037639074
203	0x3c1c7214	0.009548683
204	0xbaeb8827	-0.0017969654
205	0x3a949e48	0.0011338675
206	0x3c263f1b	0.010146881
207	0x3c9356a1	0.017985644
208	0xbcb01339	-0.021493541
209	0x3dba81db	0.09106799
210	0x3cde3e03	0.027129179
211	0x3d9f7903	0.07786753
212	0x3d5dbfe6	0.054138087
213	0x3d384bf9	0.04499433
214	0x3cb0527d	0.021523708
215	0x3d9b8533	0.07593765
216	0x3d08d607	0.033407237
217	0xbc4f57ec	-0.01265524
218	0xbd17e433	-0.037082862
219	0xbc0aae10	-0.008464351
220	0x3da86bb0	0.08223665
221	0x3da580ad	0.080811836
222	0xbd035da4	-0.032071725
223	0xbd4bc397	-0.049747076
224	0xbcbcb349	-0.023034709
225	0x3d72d3f9	0.059284184
226	0xbd375d4b	-0.044766705
227	0x3d7870cf	0.060654458
228	0xbcb50e75	-0.02210162
229	0xbc43bb04	-0.0119464435
230	0xbd142d31	-0.03617591
231	0xbcf75570	-0.030192107
232	0xbcd9c00b	-0.026580831
233	0xbca404c3	-0.020021802
234	0xbcfb77aa	-0.030696709
235	0x3bede143	0.0072595193
236	0xbbee565c	-0.0072734784
237	0xbcca1405	-0.02466775
238	0xbc9af75c	-0.018916778
239	0x3d200126	0.039063595
240	0x3d4c53ab	0.04988448
241	0x3d5c8016	0.05383309
242	0x3d855c42	0.065117374
243	0xbc979b24	-0.018506594
244	0xbccaae1a	-0.024741221
245	0x3daba79a	0.08381577
246	0x3d0f7eec	0.03503315
247	0xbd2689fd	-0.04065894
248	0xbcd71b3d	-0.026258105
249	0xbc5c43b5	-0.013443877
250	0x3dbf3206	0.09335713
251	0xbd057e34	-0.03259106
252	0x3aa3e6e2	0.0012504722
253	0xbd11c58a	-0.03558878
254	0xbcc8b581	-0.02450061
255	0x3c318359	0.010834538

fc3.bias f4 [40]
0	0x3c1c7987	0.009550459
1	0x3c922f08	0.017844692
2	0x393ab387	0.00017805221
3	0x3bc2bac1	0.005942673
4	0x3c664aef	0.0140559515
5	0x3c65c40b	0.014023791
6	0x3c2f4ff0	0.010700211
7	0x3bc04699	0.005867791
8	0xbbd46af6	-0.0064824773
9	0xbc66d6de	-0.014089314
10	0x3c0c69be	0.008570133
11	0x393ef5f5	0.00018211438
12	0x3b87c3eb	0.0041432283
13	0xbbf40474	-0.00744682
14	0x3babc5f3	0.0052421032
15	0x3c17a4c7	0.009255595
16	0x3b998a37	0.004685666
17	0xbb228e70	-0.0024804138
18	0x3aefd03b	0.001829631
19	0xbbdeb5a5	-0.006796556
20	0x3c6149e9	0.013750532
21	0x3b251dfc	0.0025194874
22	0x3bd79e46	0.006580147
23	0x3ad7844f	0.0016442629
24	0xbb3c7630	-0.0028756969
25	0x3b3c6a0c	0.0028749732
26	0x3b9e58d7	0.004832368
27	0x39bc3e85	0.00035904735
28	0x3c0346a1	0.008012445
29	0x3ae9e42b	0.0017844489
30	0x3c9d453c	0.019198053
31	0x3c0f3254	0.0087400265
32	0xbb109b5d	-0.002206526
33	0x3b3f5498	0.002919471
34	0x3bce1f97	0.006290387
35	0x3c75f936	0.01501303
36	0xba907772	-0.0011021926
37	0x3b93c3d6	0.0045094294
38	0x3cf474db	0.029840877
39	0x3b9d3db8	0.004798617
