outfiles/cnn/ORL32_2Train_cnn.pth (torch, 334655 bytes, 10 tensors)

conv_layer1.weight f4 [8, 1, 5, 5]
0	0x3c0b1f3c	0.008491334
1	0xbe14d055	-0.14532597
2	0xbe236177	-0.15955149
3	0xbe58fd1d	-0.21190305
4	0xbde39272	-0.111119166
5	0x3df6da53	0.12053361
6	0x3c2b12a0	0.010441452
7	0xbd19c4a8	-0.03754106
8	0xbe422660	-0.18959951
9	0xbe5a7415	-0.21333344
10	0x3e8ed7a6	0.27898902
11	0x3e58e66c	0.21181649
12	0xbd53a373	-0.05166955
13	0xbe22b73d	-0.15890212
14	0xbe3f96e5	-0.18709905
15	0x3e85efff	0.26159665
16	0x3d920cac	0.07131323
17	0xbd06d1f4	-0.03291507
18	0xbd9d4728	-0.076795876
19	0xbc0c05ab	-0.008546273
20	0x3ea580f6	0.32324952
21	0x3e87a404	0.26492321
22	0x3e4a99c9	0.19785227
23	0x3d3ab40e	0.04558187
24	0xbe320776	-0.17385659
25	0x3cce1873	0.025158143
26	0xb8d96c9a	-0.00010367595
27	0x3c1e3e3f	0.009658395
28	0x3c6235db	0.013806785
29	0x3ba18e81	0.004930318
30	0x3cba853d	0.022768611
31	0xbc7b23dc	-0.015328374
32	0xbb541a58	-0.0032364335
33	0xbc9e7fe2	-0.019348089
34	0xbaacd33e	-0.0013185514
35	0x3ba539ee	0.005042306
36	0xb996cb43	-0.0002876167
37	0x3c55083e	0.013002453
38	0x3c553e0a	0.01301528
39	0xba163550	-0.000572999
40	0xbb132b0f	-0.0022456085
41	0x3c70027f	0.014649033
42	0xbbfa7f12	-0.0076445425
43	0xbcc78766	-0.024356555
44	0x3c887e40	0.016661763
45	0x39b2827b	0.0003404802
46	0xbce0c14b	-0.02743592
47	0xbca4dfec	-0.020126306
48	0xbc052d9c	-0.00812855
49	0x3b9bb00a	0.00475121
50	0x3c14250b	0.009042035
51	0xbb93505c	-0.0044956636
52	0x3bb46e43	0.0055063083
53	0xbc2d0910	-0.010561243
54	0xbb6276f7	-0.0034555772
55	0x3c451eef	0.012031301
56	0xbc5b0100	-0.013366938
57	0x3c942b36	0.01808701
58	0xbb040086	-0.0020141914
59	0xbc8a58c8	-0.016888037
60	0xbc035e9b	-0.008018161
61	0xbbd20c82	-0.0064101825
62	0x3c8e29ae	0.017353859
63	0x3c379440	0.011204779
64	0x3c95765c	0.018244915
65	0xbc31ef2d	-0.010860247
66	0x3a58817a	0.00082590396
67	0x3ba4d4f9	0.005030271
68	0xbc79ca2f	-0.015245958
69	0xbc5c6eae	-0.0134541225
70	0x3c5b2b58	0.013377033
71	0x3c341f18	0.010993741
72	0x3a730377	0.00092702307
73	0xbc62d16d	-0.013843876
74	0x3c8dbf2e	0.017303076
75	0x3ecfc75b	0.40581784
76	0x3da2b20b	0.07944115
77	0x3e77a3b0	0.24183536
78	0x3e1fafda	0.15594426
79	0x3db874b3	0.090066336
80	0x3ec204c3	0.37894258
81	0x3e2f1b4e	0.1710026
82	0x3e80da02	0.25166327
83	0x3e3d3e60	0.18480825
84	0x3d3ff113	0.046860766
85	0x3e4fcce8	0.2029301
86	0xbe342126	-0.1759077
87	0x3d72bcfc	0.05926226
88	0xbc136db2	-0.008998321
89	0xbe4e61cf	-0.20154499
90	0x3db6b6e1	0.089216
91	0xbe4521ab	-0.19251125
92	0xbe1fb0c7	-0.15594779
93	0xbe172b56	-0.14762625
94	0xbef1f6d8	-0.4725864
95	0x3da357e6	0.0797575
96	0xbddc8457	-0.10767429
97	0xbd05d8ee	-0.032677583
98	0xbe98c967	-0.29841158
99	0xbee8644e	-0.45389026
100	0xbb7cd0de	-0.0038576643
101	0xbc78ced4	-0.01518603
102	0x3cf2607f	0.029587029
103	0xbc5cc974	-0.013475765
104	0xbd03cfa9	-0.032180462
105	0xbd2dc86c	-0.042427465
106	0x3b4e8a14	0.0031515406
107	0xba41e4f1	-0.00073964807
108	0x3cc1d911	0.023663076
109	0x3c78dc0c	0.015189182
110	0x3c96561e	0.01835161
111	0xbd029823	-0.03188337
112	0x3955d790	0.00020393566
113	0x3c1041b1	0.008804725
114	0xbb4bf09b	-0.0031118754
115	0x3cbef763	0.023311323
116	0xbc4c79d6	-0.01248022
117	0xbc2dc2f3	-0.010605562
118	0x3cbac378	0.022798285
119	0xbc20c2d6	-0.0098120775
120	0xbc6117b9	-0.013738566
121	0xbb59f4f7	-0.0033257583
122	0x3cc65492	0.024210248
123	0xbcd46985	-0.025929222
124	0x3c996fef	0.018730132
125	0xbc8ea9e5	-0.017414996
126	0x3a7ac99f	0.0009566787
127	0x3c125902	0.008932354
128	0xbcb65f15	-0.022262136
129	0x3b37bd59	0.0028036444
130	0x3cad337c	0.021142714
131	0xbc748ef4	-0.014926661
132	0xbcdbfdee	-0.026854482
133	0xbcbc60c5	-0.022995362
134	0x3b7ed76b	0.0038885723
135	0xbc5c0e20	-0.013431102
136	0xbbc32164	-0.005954908
137	0xbcf225d1	-0.029559048
138	0x3a8fd661	0.0010973924
139	0xbd01a1a8	-0.031648308
140	0x3cd92336	0.026506048
141	0x3cd97bb2	0.02654824
142	0x3ca13d06	0.019682419
143	0x3c9779a4	0.01849062
144	0x3c21a1f9	0.009865277
145	0xbb91916d	-0.004442385
146	0xbc26c407	-0.0101785725
147	0xba97e8ad	-0.0011589729
148	0x3c94cc60	0.01816386
149	0xb98d55e6	-0.00026957615
150	0x3e4dc722	0.20095494
151	0x3e35576c	0.1770913
152	0x3e6374ff	0.22212599
153	0x3e014e60	0.12627554
154	0x3d12edce	0.03587132
155	0x3d2ebfb6	0.0426633
156	0x3d429c2c	0.04751222
157	0xbd2c9d51	-0.042142216
158	0x3e13ee97	0.14446484
159	0xbd8de8fa	-0.069292024
160	0xbde08321	-0.10962511
161	0xbdfe55a9	-0.12418682
162	0x3d94dc11	0.07268537
163	0xbc719d8c	-0.014747035
164	0x3dfe39e9	0.12413389
165	0xbdd55348	-0.10416275
166	0xbc4af9de	-0.012388675
167	0xbe1fc7c4	-0.15603548
168	0xbd318632	-0.04334087
169	0x3c489f82	0.012245061
170	0xbe2da2c0	-0.16956615
171	0xbe4e969c	-0.2017464
172	0xbe605e49	-0.21910967
173	0xbcea0a28	-0.028569296
174	0xbe195c77	-0.14976679
175	0x3b078c86	0.0020683124
176	0x3c54cf7b	0.01298892
177	0xbca3c4a8	-0.019991234
178	0xbbc155e0	-0.0059001297
179	0xbcaddddb	-0.021223953
180	0x3a923f18	0.001115772
181	0xbca5fe2e	-0.020262804
182	0x3c599172	0.013279306
183	0x3b9b0890	0.0047312453
184	0x3c0f8b64	0.008761261
185	0x3bd0d47d	0.006372987
186	0xbb5f196e	-0.0034042257
187	0xbc823595	-0.01589469
188	0xbc32a61f	-0.010903864
189	0x3c86445c	0.016390018
190	0xbb36ee99	-0.0027913211
191	0xbc638b13	-0.013888138
192	0xbc1788d5	-0.009248932
193	0xbc6a2d69	-0.014293053
194	0x3b358bab	0.0027701657
195	0x3c48aef1	0.0122487405
196	0x3c2b1f35	0.010444452
197	0xbbf2ee0f	-0.0074136327
198	0xbc29aee7	-0.010356641
199	0x3cbdc78b	0.023166439

conv_layer1.bias f4 [8]
0	0x3c1935f3	0.009351241
1	0xbc21dec5	-0.009879773
2	0x3c7498ba	0.014928991
3	0xbb84ee56	-0.004056732
4	0xbc957645	-0.018244872
5	0xbb538b4a	-0.0032279068
6	0xbb8f4af2	-0.004372948
7	0x3c51e141	0.012810052

conv_layer2.weight f4 [16, 1, 5, 5]
0	0x3b5ccb29	0.0033690429
1	0xbd91a84d	-0.07112179
2	0xbe4e8ca8	-0.20170844
3	0xbd659994	-0.056054667
4	0xbe0301bc	-0.1279363
5	0x3d96fac6	0.0737205
6	0x3cc2979e	0.023753937
7	0xbe059ef8	-0.13048923
8	0xbd8ddc1f	-0.069267504
9	0xbe6fe090	-0.23425508
10	0xbd86e9b5	-0.06587545
11	0xbd662374	-0.056186154
12	0x3e4825d3	0.19545679
13	0x3e3afd81	0.18260767
14	0xbe1dcb9a	-0.15409699
15	0xbb527b40	-0.003211692
16	0xbd6c59f4	-0.057702973
17	0x3e48d3f8	0.1961211
18	0x3e97ef5d	0.29674807
19	0xbca93d6f	-0.020659177
20	0xbe053fc4	-0.13012606
21	0xbe63453e	-0.22194383
22	0x3e4c26b0	0.19936633
23	0x3e9a50de	0.30139822
24	0xbd55c068	-0.052185446
25	0x3d8c6192	0.068545476
26	0x3ca255e6	0.01981635
27	0xbdcfde42	-0.10149814
28	0xbe4638e7	-0.19357644
29	0xbc88c12f	-0.01669368
30	0xbd911d34	-0.07085648
31	0xbc722065	-0.014778231
32	0x3c34ec03	0.011042598
33	0xbe65ef5c	-0.2245459
34	0xbd5d379a	-0.054008104
35	0xbd9ff2f5	-0.07810012
36	0x3dd5e539	0.104441114
37	0x3db67184	0.0890837
38	0x3d357e8f	0.04431015
39	0xbdaa14d8	-0.08304757
40	0xbda6767c	-0.08128068
41	0x3dd77fc7	0.105224185
42	0x3e5f55d3	0.21810083
43	0x3e012ed0	0.12615514
44	0xbaae0931	-0.0013277886
45	0x3c829d3d	0.015944118
46	0xbe05619e	-0.13025519
47	0x3dcb1b07	0.099172644
48	0x3cef6115	0.029221097
49	0xbb536a8b	-0.003225955
50	0x3cad392f	0.021145431
51	0x3c250d4b	0.01007397
52	0x3c5888df	0.013216226
53	0xbbc71905	-0.0060759806
54	0x3c9a3959	0.018826174
55	0xbc18ccc7	-0.0093261665
56	0xba2c213b	-0.0006566231
57	0x3b1b8ce5	0.0023735103
58	0xbb9af732	-0.004729175
59	0x3afddfc1	0.0019369052
60	0xbc2ae5fc	-0.010430809
61	0xbca7a71c	-0.020465426
62	0x3c420836	0.011842778
63	0xbc312cbc	-0.010813888
64	0x3aa22336	0.0012370113
65	0xbc9dbd76	-0.019255381
66	0xbc3ef991	-0.011656181
67	0x3c007652	0.00784071
68	0xbc885a84	-0.016644724
69	0xbca56204	-0.020188339
70	0x3b8da356	0.0043224497
71	0x3ca2e561	0.019884767
72	0x3c9bb628	0.019007757
73	0xbc8e36cb	-0.017360112
74	0xbccdbc7a	-0.025114287
75	0x3c866866	0.016407203
76	0x3c1100da	0.008850301
77	0x3c80101b	0.01563268
78	0xbca8cd9c	-0.020605855
79	0xbc8ce30d	-0.01719811
80	0x3c03d810	0.008047119
81	0xbc0ea0c1	-0.008705319
82	0xbc6f3f31	-0.014602468
83	0x3c8127bf	0.015766023
84	0xbcc1bcd3	-0.023649609
85	0xbcc39c2b	-0.023878178
86	0xbc9f9023	-0.01947791
87	0xbb7a5418	-0.0038197096
88	0x3ba405eb	0.0050055883
89	0xbbdb673f	-0.0066956575
90	0x3c79e998	0.015253447
91	0xbc50b987	-0.012739546
92	0xbb2d08ba	-0.0026402907
93	0x3c6ec67b	0.014573689
94	0xbb8164d8	-0.003948789
95	0x3c8c2744	0.017108567
96	0x3b93e9e1	0.0045139645
97	0xbc9413ef	-0.018075911
98	0x3c2eb52f	0.010663315
99	0xbbde9510	-0.006792672
100	0xbba6b8cf	-0.005087949
101	0x3b7814eb	0.0037854265
102	0xbc8aa488	-0.016924158
103	0xbc2b0115	-0.01043727
104	0x3b05aa8e	0.0020395848
105	0x3c4b79ec	0.012419205
106	0xbb621bad	-0.003450136
107	0x3c023087	0.00794614
108	0xbc0c927c	-0.0085798465
109	0xbc766c3d	-0.015040454
110	0xbc1d1004	-0.009586338
111	0xbc3664c8	-0.011132427
112	0x3c43a81d	0.011941937
113	0xbc582002	-0.013191225
114	0xbba4a480	-0.0050244927
115	0x3c054e76	0.008136382
116	0x3c235fac	0.00997154
117	0xbc2944a8	-0.01033131
118	0x3b620120	0.0034485534
119	0xbc34107f	-0.010990261
120	0xbb8d5205	-0.004312756
121	0xbc42d54e	-0.011891676
122	0x3c760cc1	0.015017689
123	0xbc1efe5c	-0.009704199
124	0x3c8f9798	0.01752834
125	0xbb8933d8	-0.0041870885
126	0x3c932309	0.017961042
127	0xbc87edac	-0.016592823
128	0xbc70e9ff	-0.0147042265
129	0x3b80b31b	0.003927601
130	0xbc579651	-0.013158397
131	0xbc95d381	-0.01828933
132	0x3b995f2d	0.0046805353
133	0x3aa82550	0.0012828503
134	0xbc815cad	-0.015791262
135	0xbc47a9d0	-0.012186483
136	0xbc4e63e9	-0.012597063
137	0xbc86d623	-0.01645953
138	0x3c8af3e7	0.016962005
139	0xbc9552ed	-0.018228019
140	0xbc83322c	-0.016015135
141	0x3c3fc2c6	0.011704152
142	0xbc17904a	-0.00925071
143	0xbc82af09	-0.015952604
144	0x3c4ee84e	0.012628628
145	0x3bf868c6	0.0075808493
146	0xbbb0b6bd	-0.005392878
147	0xbab5b377	-0.0013862689
148	0xbbf56c1a	-0.0074896934
149	0x3b25a4c7	0.0025275217
150	0xbe1b8d29	-0.15190567
151	0xbd860216	-0.065433666
152	0xbe89a9cc	-0.26887357
153	0xbe75f7c0	-0.2402029
154	0xbdc0bc26	-0.094108865
155	0x3e9c66cc	0.30547178
156	0x3e1d632f	0.15369867
157	0x3e4567d4	0.19277889
158	0xbe88673a	-0.26641256
159	0x3cce56e9	0.025187926
160	0x3ebdbbe2	0.37057406
161	0x3e96f4eb	0.29483733
162	0x3e57500e	0.21026632
163	0xbe30e312	-0.1727412
164	0x3e505498	0.2034477
165	0x3df6e634	0.120556265
166	0xbd0bad37	-0.034100737
167	0xbe5c19f3	-0.21494274
168	0xbe833838	-0.2562883
169	0x3e03e7a9	0.1288134
170	0xbe5f6bc0	-0.21818447
171	0xbdb1b5d8	-0.08677262
172	0xbd882eb5	-0.06649534
173	0xbe0226c5	-0.12710102
174	0x3e4119ae	0.18857452
175	0x3e8d8db5	0.27647176
176	0x3deed756	0.11662166
177	0xbc4d099e	-0.0125145
178	0xbe0e0a18	-0.13871038
179	0xbe03c0d1	-0.12866522
180	0x3e448dd0	0.19194722
181	0xbdc346c9	-0.095349856
182	0xbe25cfe5	-0.16192587
183	0xbe287696	-0.16451487
184	0xbd0066c5	-0.03134801
185	0x3dcab567	0.09897881
186	0xbe182c28	-0.14860594
187	0xbe2b08bb	-0.16702549
188	0x3d237e48	0.039915353
189	0xbdeb112c	-0.11477885
190	0x3e578045	0.21045025
191	0xbdc9d6c4	-0.098554164
192	0xbdf016ff	-0.11723136
193	0x3c89ad35	0.016806224
194	0x3cb7cf4f	0.02243772
195	0x3deb87fd	0.11500547
196	0x3dbd5c42	0.092461124
197	0xbd8f0f0a	-0.0698529
198	0x3d1ff1ac	0.039048836
199	0xbdf7cb67	-0.12099343
200	0xbc52e0ac	-0.012870949
201	0xbc65a6ec	-0.014016848
202	0x3c822b08	0.01588966
203	0x3cbc5f08	0.022994533
204	0x3cb3a608	0.021929756
205	0xbc17e113	-0.0092699705
206	0xbc5644d1	-0.013077931
207	0x3c91c6b5	0.017794946
208	0x3c4a9d7d	0.01236665
209	0x3c83f964	0.01611013
210	0xbc58f853	-0.013242799
211	0xbb8f7877	-0.004378374
212	0x3c570b28	0.013125218
213	0xbc897eb1	-0.016784044
214	0x3be5f2b2	0.007017457
215	0x3bb19617	0.0054195034
216	0x3c832fa9	0.016013937
217	0xbc7a1cca	-0.015265653
218	0x3c65b430	0.014020011
219	0xbc4aa4fa	-0.012368435
220	0xbbc589a4	-0.006028371
221	0xbbe3ea74	-0.006955439
222	0x3c344049	0.011001655
223	0xbcb25c4b	-0.021772524
224	0x3c641262	0.013920398
225	0x3b818010	0.003952034
226	0x3b8391d0	0.004015185
227	0xbc5aadc9	-0.013347098
228	0x3c1e5ee6	0.00966618
229	0x3b2891f5	0.0025721763
230	0xbc8954ce	-0.01676407
231	0x3c34f9df	0.011045902
232	0xbc93cecb	-0.018042943
233	0x3aab8c4c	0.0013088076
234	0x3c13b00b	0.00901414
235	0x3c1b4672	0.009477245
236	0x3c4fda12	0.012686269
237	0xbbc8bbd1	-0.006125905
238	0xbc23ca84	-0.009997014
239	0x3c2bcaee	0.010485394
240	0xbc065fec	-0.0082015805
241	0xbc9f51e7	-0.019448234
242	0x3c4875c6	0.012235111
243	0x3c0fe3b4	0.008782316
244	0xbc69e9da	-0.014276946
245	0xbbf822ba	-0.007572499
246	0x3bec8496	0.007217954
247	0x3c81a479	0.015825497
248	0xbb893339	-0.0041870144
249	0xbbad7d02	-0.005294443
250	0x3abf3833	0.0014588892
251	0x3c6de3ab	0.014519612
252	0x3c8c78f4	0.017147519
253	0xbbaf3741	-0.005347163
254	0x3ca26d0b	0.019827386
255	0x3c332283	0.010933521

conv_layer2.bias f4 [16]
0	0xbc1b41f4	-0.009476174
1	0xbb4e5fcf	-0.0031490212
2	0x3c876f69	0.016532617
3	0xb92ca256	-0.00016463673
4	0x3c0e399b	0.008680726
5	0xbc5cce0e	-0.013476862
6	0xbae8b468	-0.001775396
7	0xbc3d06a6	-0.01153723
8	0xbc9337bb	-0.01797091
9	0xbabc1610	-0.0014349837
10	0xbb1e910b	-0.002419534
11	0xbbc774dc	-0.006086929
12	0xbb9a8cd6	-0.004716496
13	0xbc9f6647	-0.01945795
14	0x3bf5f6ec	0.007506242
15	0xbc8412bc	-0.016122214

fc1.weight f4 [120, 576]
0	0xbbc50a38	-0.006013181
1	0xbb81ecbf	-0.00396499
2	0x3ab2c938	0.001364029
3	0xbc663cb4	-0.014052559
4	0xbc8e9112	-0.01740316
5	0x3c891b71	0.016736718
6	0x3cc47f41	0.02398646
7	0xbbad33e6	-0.005285728
8	0x3c41eb85	0.011835937
9	0xbba1fb5b	-0.004943294
10	0xbc91b1bf	-0.017784951
11	0x3cd20085	0.025635013
12	0x3bc8cd84	0.006128015
13	0xbc5f0507	-0.013612038
14	0x3d0b1e29	0.03396431
15	0xbd4d53d3	-0.05012877
16	0x3caeff2e	0.021361914
17	0xbab7c166	-0.0014019429
18	0x3c8e224e	0.017350342
19	0xbc67aff1	-0.014141069
20	0xbac34c27	-0.0014900015
21	0xbd53808a	-0.051636256
22	0x3a1b0578	0.00059135957
23	0x3ca86720	0.020556986
24	0x3d03e627	0.032201912
25	0x3c74badb	0.014937128
26	0x3a847deb	0.0010108327
27	0xbcdf1862	-0.027233306
28	0xbba2dd9d	-0.004970266
29	0x3c5fd147	0.013660735
30	0x3d104dc2	0.035230406
31	0x3c513aa4	0.012770329
32	0xb9db1f65	-0.00041794326
33	0xbcc8797c	-0.02447199
34	0xbb819ddc	-0.003955586
35	0xba38a792	-0.0007044013
36	0xbc3d04fd	-0.011536834
37	0x3b70850a	0.0036700391
38	0xba512751	-0.0007978576
39	0x39e31c99	0.0004331812
40	0xb8f4e3dd	-0.000116772695
41	0x3b94c3b5	0.0045399317
42	0xbb611c7d	-0.0034349256
43	0x3b508678	0.003181843
44	0x3c0d3d09	0.008620509
45	0x3be9c755	0.007134358
46	0x3c1b8629	0.0094924355
47	0x3bd713aa	0.0065636234
48	0xbc0e6dd9	-0.008693182
49	0x3c2d7654	0.010587294
50	0x3d0a7dd3	0.0338114
51	0xbc2d03ab	-0.010559957
52	0x3c962290	0.018327028
53	0xbd07b644	-0.033132806
54	0x3a899290	0.001049595
55	0xbb13c0b9	-0.0022545292
56	0xbb3b0942	-0.0028539454
57	0xbcf15ea2	-0.02946407
58	0xbc5d798a	-0.013517747
59	0xbd048994	-0.032357767
60	0x3cf145ff	0.029452322
61	0x3c772f66	0.015086984
62	0xbc3bf9cd	-0.011473131
63	0xbb606699	-0.003424084
64	0xb9c9330f	-0.0003837575
65	0xbc9edfc1	-0.019393804
66	0xbb6d5aeb	-0.0036217521
67	0x3ca59a9b	0.020215323
68	0xbb86bdd8	-0.0041119866
69	0xbc235497	-0.009968898
70	0x3c5f6cb5	0.013636758
71	0xbb5443cd	-0.0032389045
72	0x3b296e10	0.0025852956
73	0xbb173f5b	-0.0023078534
74	0xba2e15c0	-0.0006640814
75	0x3ae9cac5	0.0017836919
76	0xbb33fd9d	-0.0027464398
77	0x390fd6b4	0.00013717526
78	0xbb54b6bb	-0.0032457549
79	0x3bbc8f6e	0.005754403
80	0x3af17d19	0.0018424123
81	0xba67e6c2	-0.0008846336
82	0x3b98bba3	0.00466104
83	0x3b932941	0.004491002
84	0xbb19409c	-0.0023384457
85	0xbb01b2d7	-0.0019790435
86	0x3a638bbd	0.00086801854
87	0x3b9dc486	0.004814687
88	0x3a0c6f10	0.0005357126
89	0x3ac47993	0.0014989845
90	0x3a70704d	0.00091720076
91	0x3b71d92b	0.0036903124
92	0x3b9df16a	0.0048200386
93	0x3b30920b	0.0026942517
94	0x3b97d429	0.0046334458
95	0xba903a17	-0.001100364
96	0xbaab6e49	-0.0013079132
97	0xba74881d	-0.0009328144
98	0xba8a7f94	-0.0010566586
99	0x3b580a47	0.003296511
100	0xbb09067c	-0.0020908406
101	0x3a7413dc	0.00093108206
102	0x3b262a07	0.002535464
103	0x3b20a8d6	0.0024514697
104	0x3b1e3428	0.0024139974
105	0x39b6b64d	0.0003484957
106	0x3b1f9f22	0.0024356325
107	0x3ad8c9a8	0.001653959
108	0xbaba324f	-0.0014205667
109	0x3aea4abb	0.0017875055
110	0xbb5b8bb3	-0.0033500015
111	0xb941d74f	-0.00018486123
112	0xbad46fb4	-0.0016207607
113	0x3abbe64e	0.0014335604
114	0x3b82381b	0.0039739734
115	0xbaf219c4	-0.0018470814
116	0x3ade72a1	0.0016971418
117	0x3b4db410	0.0031387843
118	0x39f8b010	0.00047433423
119	0x3a7696e2	0.00094066386
120	0xb918d101	-0.0001457371
121	0x3a591401	0.0008280874
122	0xbb294c90	-0.0025832988
123	0x3b3c196a	0.0028701671
124	0x3ad57354	0.0016284981
125	0xb8f0f37c	-0.00011489444
126	0x3af80d8c	0.0018924936
127	0xbb82bfac	-0.003990134
128	0xb8bc8733	-8.9897214e-05
129	0xbaaaa30f	-0.0013018566
130	0x3a986246	0.0011625967
131	0x3b304cee	0.0026901322
132	0xbb4cd449	-0.0031254462
133	0x3b52a5ef	0.003214236
134	0x3b1670f3	0.0022955507
135	0x3abc351b	0.0014359088
136	0x3b49b3c9	0.0030777326
137	0x3b1df3fd	0.0024101727
138	0x3962f680	0.00021644868
139	0x3b0e935d	0.0021755316
140	0x3b0cd120	0.0021486953
141	0xbaf7695e	-0.0018876006
142	0xbb4c8d88	-0.003121229
143	0x3b888d19	0.004167211
144	0x3b30ad36	0.002695871
145	0xbaeca7bf	-0.0018055363
146	0x3b5d7d58	0.0033796635
147	0x3a1f6833	0.00060808955
148	0xbb62c9e9	-0.003460521
149	0xbadb9751	-0.001675347
150	0xba6f9dad	-0.0009140622
151	0x3b4b4f15	0.0031022478
152	0x3a15e9e7	0.0005718753
153	0x3a9406f0	0.0011293571
154	0xbaf3b0b2	-0.0018592088
155	0xbaaeaa19	-0.001332584
156	0x39e50101	0.00043679032
157	0x3a91bfa7	0.0011119739
158	0xbb671904	-0.0035262713
159	0xbb0c0eda	-0.0021371157
160	0x3b652aff	0.0034968255
161	0xbb77688f	-0.003775153
162	0xbb80dbf6	-0.0039324714
163	0xbb4b7859	-0.0031047075
164	0xbb55a861	-0.0032601582
165	0x3ab8f1c4	0.0014110138
166	0xba6ff0b0	-0.00091529917
167	0x3ae78e26	0.0017666265
168	0x39d742ea	0.0004105785
169	0x3924b1c6	0.00015706485
170	0x3b36462f	0.0027812829
171	0x3b3a9878	0.0028472226
172	0x3abd29f8	0.0014432063
173	0xbaa640fd	-0.0012684163
174	0x3a28aaa5	0.00064341194
175	0x3b6be93d	0.0035997175
176	0xb936e163	-0.00017440836
177	0x39fe17fc	0.00048464525
178	0x379172b7	1.7338765e-05
179	0x3906b2a1	0.0001284578
180	0xbb3cf83e	-0.0028834487
181	0xbacdc130	-0.0015697833
182	0x3b140b4b	0.002258974
183	0x3b500262	0.0031739702
184	0xbb3977b2	-0.0028300104
185	0xbb7a5944	-0.003820018
186	0xbb26cdcd	-0.0025452257
187	0xbaf82224	-0.0018931073
188	0x3b06308c	0.0020475714
189	0x3b508436	0.0031817085
190	0xb9eb1d90	-0.0004484472
191	0x3b0791d2	0.002068628
192	0xbb087828	-0.0020823572
193	0x3b6fae61	0.0036572444
194	0xbb56046f	-0.0032656451
195	0x398effef	0.00027275036
196	0xbb7c5782	-0.0038504307
197	0xba32b0fd	-0.00068165344
198	0xbaaa1865	-0.0012977241
199	0x3b4d9803	0.0031371124
200	0x3a860d4c	0.0010227351
201	0xbb6dfa0d	-0.0036312372
202	0xba865812	-0.0010249636
203	0x3a7b39a5	0.000958348
204	0x3a53e7be	0.00080835435
205	0xba2e31fb	-0.0006645021
206	0x3b2bae0b	0.0026196267
207	0x3a8817b9	0.0010383046
208	0x3a0833b9	0.00051956956
209	0x3ace5171	0.0015740824
210	0x3b72b038	0.0037031304
211	0xba47a9dc	-0.00076165586
212	0x3b1e5258	0.0024157967
213	0xbb7a10fe	-0.00381571
214	0xb9fb7976	-0.00047964946
215	0xbae1bab7	-0.0017221783
216	0xbbaa9d62	-0.00520675
217	0x3c15bddc	0.009139504
218	0xbd07c361	-0.033145312
219	0xbb8cd9da	-0.004298431
220	0xbcf5e14b	-0.030014655
221	0xbc37b1ab	-0.011211793
222	0xbcc5760b	-0.024104139
223	0x3d191162	0.037370093
224	0xbc8fe4aa	-0.01756509
225	0xb968c03a	-0.00022196854
226	0x3b8140a1	0.003944472
227	0x3d98a696	0.07453649
228	0xbb20d75d	-0.002454243
229	0x3c679f61	0.01413712
230	0xbcaac0d0	-0.020843893
231	0xbcdfac54	-0.027303852
232	0xbd5067d6	-0.050880276
233	0x3d55f630	0.052236736
234	0xbcb41533	-0.021982765
235	0x3cd3a13d	0.02583372
236	0xbcf8a2d1	-0.030351074
237	0x3d477989	0.04869989
238	0xbcb36562	-0.021898929
239	0x3d0ec743	0.034858
240	0xbca262a1	-0.01982242
241	0x3c539260	0.0129133165
242	0xbcc3fb48	-0.023923531
243	0x3c52f38a	0.012875447
244	0xbca6f658	-0.020381138
245	0x3bfa2544	0.007633837
246	0xbc3c21c6	-0.011482662
247	0x3d42d8e5	0.047570128
248	0xbc6c2c58	-0.014414869
249	0x3cd154f4	0.025553204
250	0xbc9ee4d8	-0.01939623
251	0xbd0c3d1c	-0.034237966
252	0xbcb27452	-0.021783981
253	0x3bd3670e	0.006451494
254	0xbc1214c0	-0.00891608
255	0x3cdaebfc	0.026723854

fc1.bias f4 [120]
0	0xb9a256a1	-0.0003096359
1	0x3b19c791	0.0023464898
2	0x3a6daf4c	0.0009066954
3	0x3b210918	0.002457207
4	0xbb7373af	-0.003714781
5	0xba09a999	-0.0005251407
6	0xb970c659	-0.00022962074
7	0xbb16f44b	-0.0023033794
8	0x3ac2ddf1	0.0014867169
9	0x3abae45c	0.001425873
10	0x3b6887b5	0.0035481278
11	0xbb34aad5	-0.0027567644
12	0xba6fd796	-0.0009149251
13	0x3ab113ff	0.0013509988
14	0x3aa25eef	0.0012387912
15	0xba2c5e22	-0.0006575306
16	0xba4296be	-0.0007422975
17	0x3afe17e0	0.0019385777
18	0xbaf0f5f8	-0.0018383851
19	0xbb64cf86	-0.0034913733
20	0xbaa1b948	-0.0012338543
21	0x3aa06dbf	0.0012239738
22	0x3b457560	0.0030129775
23	0x3abe7416	0.0014530446
24	0xbb11ae32	-0.0022229073
25	0x3b2cdf84	0.0026378343
26	0xbab93b73	-0.0014132097
27	0x3882e1e8	6.2409614e-05
28	0xb973a03b	-0.00023233976
29	0xba1dbc41	-0.0006017127
30	0xbb8193a9	-0.00395437
31	0x3aab08cb	0.0013048885
32	0xbb0990cc	-0.0020990847
33	0x3b5d0f09	0.0033730885
34	0xbb89d426	-0.0042061983
35	0xbb0442f4	-0.0020181509
36	0xb79148f7	-1.7319324e-05
37	0x3aa05e67	0.0012235165
38	0x3b429aa5	0.0029694226
39	0x3a1389c4	0.00056281337
40	0xbb791a49	-0.0038010052
41	0x3acd7fff	0.0015678405
42	0x39abbb7b	0.00032755345
43	0xb9c86882	-0.00038224837
44	0xbb64f25c	-0.0034934497
45	0xbb62a47a	-0.00345829
46	0xba4f5a41	-0.0007909872
47	0x3a97e9af	0.0011590029
48	0xbb098994	-0.0020986544
49	0x3aad8b2d	0.001324033
50	0x3b044273	0.0020181208
51	0x3a3cffc6	0.0007209744
52	0x3a6357ef	0.0008672466
53	0xbb47fda8	-0.003051618
54	0x3b5af1b5	0.0033408229
55	0xbad6e1c7	-0.0016394191
56	0xbb2d1dcc	-0.0026415465
57	0xba841d3b	-0.0010079512
58	0xbb862000	-0.00409317
59	0xbb5c6152	-0.0033627343
60	0x3b39a1ac	0.0028325124
61	0xbb8a8777	-0.0042275744
62	0x39de86f4	0.00042443688
63	0x3ab61fb2	0.0013894944
64	0xb94b9372	-0.00019414516
65	0xbbc1f729	-0.0059193564
66	0x3aa7ab51	0.0012792145
67	0xbb3bc4fa	-0.0028651343
68	0xbb475a2f	-0.0030418744
69	0x3abd5367	0.0014444411
70	0xbb055c62	-0.0020349254
71	0xbaee6d40	-0.0018190518
72	0xbb033abf	-0.002002403
73	0x3ad0f5cd	0.0015942395
74	0xbab34f74	-0.0013680295
75	0x3a9cc5c6	0.0011960797
76	0x3904c755	0.00012662758
77	0x3b1b6f33	0.0023717403
78	0xbb7a44cf	-0.0038187986
79	0xb627c552	-2.4999795e-06
80	0x39f45e47	0.0004660955
81	0xbb0a1535	-0.002106977
82	0xbac77560	-0.0015217476
83	0x3a42862c	0.0007420506
84	0x3ad6764b	0.0016362158
85	0xbb8f2ffd	-0.0043697343
86	0xbaba253f	-0.0014201774
87	0xbaa98bdc	-0.0012935358
88	0xbb6ee3a6	-0.0036451607
89	0xb5192136	-5.704527e-07
90	0xbb7d3db6	-0.003864152
91	0xbb0280da	-0.0019913227
92	0xbb26cfee	-0.0025453526
93	0xbab013a0	-0.0013433583
94	0xb8ae9de1	-8.326374e-05
95	0xb87712b9	-5.8906826e-05
96	0x39f2536e	0.00046219997
97	0xb86f4fa4	-5.705621e-05
98	0x391cefa4	0.00014966592
99	0xb9eb9324	-0.0004493232
100	0xb9ddc9f9	-0.00042302886
101	0xbbc0dc7a	-0.005885658
102	0xbb000103	-0.0019531853
103	0x3b4940ba	0.0030708746
104	0xbb3e671b	-0.0029053155
105	0xbb2e8ca4	-0.0026634121
106	0x3ab6f00b	0.0013957036
107	0xb9a1fa69	-0.00030894883
108	0xbb8a5e79	-0.004222688
109	0x3b5429c0	0.0032373518
110	0xbb97bdaf	-0.0046307663
111	0x393e09a5	0.00018123405
112	0xbb7ad20e	-0.0038272175
113	0x3b488fbf	0.0030603257
114	0xbb7ddd38	-0.0038736593
115	0x397fe6b0	0.00024404633
116	0xbbc13d91	-0.005897232
117	0xba821070	-0.0009923112
118	0xbb2ae8f9	-0.0026078804
119	0xbb027cab	-0.0019910734

fc2.weight f4 [80, 120]
0	0x3c4722ad	0.012154263
1	0x3c05894b	0.008150409
2	0xbb45a8b2	-0.0030160365
3	0x3bd1d8b2	0.006404006
4	0x3cfb71c0	0.030693889
5	0x3b3937ee	0.0028262096
6	0x3a875e9a	0.0010327876
7	0xbbcb14e4	-0.0061975587
8	0xbb485406	-0.003056766
9	0xbc81dcf3	-0.015852427
10	0x3aea746a	0.0017887477
11	0xbb34f643	-0.0027612604
12	0x3c0a3c6f	0.00843726
13	0x3ade91f6	0.0016980756
14	0xbc0ffbf0	-0.008788094
15	0xbd256a63	-0.04038466
16	0x3d03baf4	0.032160714
17	0x3b948e67	0.0045335772
18	0x3c2b1830	0.0104427785
19	0xbc7724ff	-0.015084504
20	0xbb88cb3f	-0.0041746194
21	0xbd0c339d	-0.03422891
22	0xbaeb3fae	-0.0017948055
23	0x3d88e851	0.06684936
24	0x3b3299c5	0.0027252298
25	0xbc8c6edf	-0.017142711
26	0xbc684c17	-0.0141782975
27	0x3b454f5b	0.0030107114
28	0x3d3657f1	0.04451746
29	0xbaf1235e	-0.0018397381
30	0x3ccf719d	0.02532273
31	0xbcb6d3c2	-0.02231777
32	0xbcf07b37	-0.029355628
33	0xba4e73bf	-0.0007875524
34	0x3d2c8041	0.0421145
35	0xbb9aead8	-0.0047277026
36	0x3d865d26	0.065607354
37	0x3cb477bb	0.022029748
38	0x3a721184	0.00092341774
39	0xbca3295c	-0.019917183
40	0xbd23fb85	-0.04003479
41	0x3a29cee5	0.0006477668
42	0xbd809d6b	-0.06280025
43	0x3c0e1d8b	0.008674036
44	0xbcb8f8d3	-0.022579586
45	0x3d2a61e4	0.041597262
46	0xbadcf364	-0.0016857204
47	0x3ae6ca47	0.0017607891
48	0xbccd45ed	-0.025057757
49	0xbca9c880	-0.020725489
50	0x3d0e39b0	0.034722984
51	0x3d32d6a7	0.04366174
52	0x3c019382	0.007908704
53	0xbd964951	-0.07338203
54	0xbc8b72ff	-0.017022608
55	0x3c9fb169	0.019493775
56	0xbc88cf9a	-0.016700555
57	0x3d0f2091	0.034943167
58	0x3cecc75d	0.028903658
59	0x3cb440a9	0.022003489
60	0x3c11b47e	0.00889313
61	0xbc125978	-0.008932464
62	0x3c81ffd4	0.015869059
63	0xbce428fa	-0.02785157
64	0x3db5015b	0.08838149
65	0x3d4c47e4	0.049873248
66	0x3b934c30	0.0044951662
67	0x3bca3319	0.006170642
68	0xbca8f662	-0.020625297
69	0x3c231f37	0.009956173
70	0x3c22dbc1	0.009940089
71	0xbc1db4b3	-0.009625602
72	0x3d8886f7	0.066663675
73	0x3c0bea22	0.008539708
74	0xbb45428e	-0.0030099484
75	0x3c3e60dd	0.011619774
76	0xbc4d3b20	-0.0125263035
77	0x3bf3eb94	0.0074438546
78	0x3d68af46	0.05680778
79	0x3da29385	0.07938293
80	0x3d1d596c	0.038415357
81	0x3be6d2a5	0.0070441538
82	0xbba1ba30	-0.0049355254
83	0xbbb18eba	-0.0054186257
84	0xbcca5c01	-0.024702074
85	0x3cfa62d8	0.03056471
86	0x3d5743f4	0.05255504
87	0x3b639207	0.003472449
88	0xbc447b33	-0.011992264
89	0x3acaae7f	0.0015463381
90	0x3b6a2260	0.0035726056
91	0x3b8cab58	0.0042928867
92	0xbc024348	-0.007950611
93	0xbb207910	-0.0024486221
94	0x3bc6b28f	0.0060637663
95	0xbd303fa7	-0.043029454
96	0xbbf421ca	-0.007450317
97	0xbcbf8c28	-0.023382261
98	0x3b8a96a7	0.004229385
99	0xbac79f0d	-0.0015229896
100	0xbba20bc2	-0.0049452493
101	0xbd4a69dd	-0.049417365
102	0x3c9ce75c	0.01915329
103	0xbbb2f981	-0.005461872
104	0x3cdb30ef	0.026756732
105	0xbb9d122e	-0.004793427
106	0xbd5958d0	-0.053063214
107	0x3b86e396	0.004116486
108	0xbc2f4f8a	-0.010700116
109	0x3b78dfd0	0.00379752
110	0xbd3be9c0	-0.04587722
111	0x3bab320f	0.0052244733
112	0xbccc835e	-0.024964985
113	0xbc4762b0	-0.012169525
114	0x3d0830ad	0.033249546
115	0x3c9b8011	0.018981965
116	0x3d23fc5b	0.040035587
117	0xbd0091f3	-0.031389188
118	0x3cc7b315	0.024377385
119	0xbbbcf1c4	-0.0057661254
120	0x3a249b07	0.00062792044
121	0x3cbca9ee	0.023030248
122	0xbb056b06	-0.002035798
123	0xba586ae9	-0.0008255677
124	0x3c9b8261	0.018983068
125	0x3aeab623	0.0017907064
126	0x3d08ea5e	0.033426635
127	0x3c057899	0.0081464285
128	0xbc03efd2	-0.008052783
129	0xbd1440f1	-0.036194745
130	0x3bcd0551	0.0062567373
131	0x3cf5e76b	0.030017575
132	0xbbf5bfee	-0.0074996864
133	0x3c27b45f	0.010235875
134	0x3d04b0d6	0.032395206
135	0xbb138e76	-0.0022515333
136	0x3ae4ed03	0.0017465655
137	0x3b0de3a2	0.0021650572
138	0x3c0d3cc6	0.008620447
139	0x3d5bd9ad	0.05367439
140	0x3b40070e	0.002930108
141	0xbd4c9a10	-0.049951613
142	0xbb673cbd	-0.0035284006
143	0xbccc5c3d	-0.024946326
144	0x3c66e90e	0.0140936505
145	0xbd409357	-0.047015514
146	0xbc3715f7	-0.01117467
147	0xbbc0d0f8	-0.005884286
148	0xbd1f6beb	-0.038921278
149	0x3c0cc3e4	0.008591626
150	0x3d8a17bd	0.06742809
151	0xbc315d6f	-0.010825499
152	0xbd4a5d7b	-0.049405556
153	0x3be1de61	0.0068929647
154	0x3cc89eea	0.024489839
155	0xbb9d2419	-0.004795563
156	0xbc549e22	-0.012977155
157	0x3bf8e070	0.0075951144
158	0x3aeccfcc	0.0018067299
159	0xbd5b9495	-0.053608496
160	0xbc643404	-0.013928417
161	0x3b7e33ff	0.0038788316
162	0x3c43d04e	0.011951519
163	0xbcf23844	-0.029567845
164	0xbcb6f906	-0.02233554
165	0x3bcbba17	0.006217252
166	0xba39bb57	-0.0007085106
167	0x3c10708c	0.008815896
168	0xbccda6bf	-0.025103925
169	0x3ab87b43	0.0014074821
170	0xbc1ecb6d	-0.009692055
171	0x3bbcc374	0.0057606045
172	0x3d421e32	0.047392078
173	0x3d279a92	0.040918894
174	0x3bf874b3	0.007582271
175	0xbcbcced3	-0.02304784
176	0x3ce6cdd3	0.028174317
177	0x3b3d8983	0.0028921075
178	0x3d0ab266	0.03386154
179	0x3cd7de04	0.026350982
180	0x3c21750f	0.009854569
181	0xbcbea239	-0.023270713
182	0xbce4e7ce	-0.027942564
183	0x3bf60841	0.007508308
184	0x3c2a85e2	0.010407897
185	0x3d99a17a	0.07501502
186	0xbb6534b9	-0.0034974052
187	0x3b434783	0.0029797263
188	0xbc7b21a6	-0.015327847
189	0xbcbd7016	-0.023124736
190	0x3c03addf	0.00803706
191	0xbd0d674d	-0.034522343
192	0x3d589fdc	0.05288683
193	0x3d265765	0.04061069
194	0x3aaf643b	0.0013381311
195	0x3d6fc36e	0.058535986
196	0xbaa14714	-0.0012304508
197	0x3bb01724	0.0053738523
198	0xba9ddf4e	-0.0012044699
199	0x3c133c80	0.008986592
200	0xbccd8815	-0.025089303
201	0xbc08b344	-0.0083435215
202	0x3b87b4dc	0.004141433
203	0x3be6edc1	0.0070473854
204	0xbc9caf94	-0.01912669
205	0xbbfa3ee8	-0.0076368935
206	0xbcead07b	-0.028663864
207	0x3a1f245b	0.0006070786
208	0x3c849455	0.016184011
209	0xbbf780e3	-0.0075532063
210	0x3b331c54	0.0027330117
211	0xbbeb5cd7	-0.007182698
212	0x3bd2d14b	0.006433641
213	0x3c0a8b1e	0.00845602
214	0x3d061c11	0.03274161
215	0x3c17a306	0.009255176
216	0xbb85ce12	-0.0040834034
217	0xbc51fa53	-0.01281603
218	0x3a1c7883	0.00059688854
219	0x3c0000a8	0.007812656
220	0xbb36a290	-0.002786789
221	0x3c554179	0.013016098
222	0x3dd85e56	0.10564868
223	0x3a9b76f1	0.0011861009
224	0x3d61f5ef	0.05516618
225	0x3ca587b5	0.020206312
226	0xbd2ce42b	-0.042209785
227	0xbbceb246	-0.006307873
228	0xbb7f4900	-0.0038953424
229	0x3b6c13ab	0.0036022465
230	0x3c1e7559	0.009671533
231	0xbb63818a	-0.0034714662
232	0x3b3e26f0	0.0029014908
233	0xb97e866d	-0.00024273405
234	0xbc0bd787	-0.008535272
235	0x3c287bd7	0.010283432
236	0x3cce887d	0.025211567
237	0xbd2a4441	-0.041569
238	0xbafa15c6	-0.0019079975
239	0x3bba955d	0.005694075
240	0xbbeb4bce	-0.0071806675
241	0x3ca88125	0.020569393
242	0xba19ce98	-0.00058672717
243	0x3d70fc5c	0.05883442
244	0x3c22e311	0.009941832
245	0xbc040f78	-0.008060329
246	0x3cfbb298	0.030724809
247	0x3bff99f9	0.0078003374
248	0xba9f2cb0	-0.0012144055
249	0x3d4b61e7	0.049653914
250	0x3b21edf1	0.0024708475
251	0x3dba9db4	0.09112111
252	0xbb4ac692	-0.003094111
253	0x3a00475c	0.0004893446
254	0xbd000fa2	-0.03126491
255	0x3ce7af11	0.02828172

fc2.bias f4 [80]
0	0xbbe6fdfd	-0.0070493207
1	0xbc187b02	-0.009306671
2	0x3b50ea90	0.0031878091
3	0x3a3b827c	0.00071529276
4	0x3a0c8912	0.0005361001
5	0xba980944	-0.0011599441
6	0x3a5c4600	0.0008402765
7	0xbba77c3a	-0.0051112445
8	0xbb1e64a1	-0.0024168866
9	0xbc0413e3	-0.008061382
10	0x3b11754a	0.0022195154
11	0xbbd30fe6	-0.006441104
12	0xbbd91fee	-0.006626121
13	0xbb8279af	-0.003981791
14	0x3c2b504a	0.010456154
15	0x3aa60308	0.0012665698
16	0xb90a376a	-0.00013181349
17	0xbb97b366	-0.0046295403
18	0xbc081fb4	-0.00830834
19	0x3b961dda	0.0045811953
20	0xbb96e9b5	-0.004605497
21	0x3ae9ce94	0.0017838054
22	0x3bc0b5eb	0.0058810613
23	0x3bf04851	0.0073328395
24	0xba0dd810	-0.0005410919
25	0x3bf1c152	0.007377782
26	0xbb5a15e9	-0.003327722
27	0x3ad7158b	0.0016409619
28	0xbb58e75d	-0.0033096888
29	0x3be47e65	0.006973075
30	0xbaf152a3	-0.0018411468
31	0xbbd96bf0	-0.0066351816
32	0x3bc0325d	0.005865379
33	0xbb80d260	-0.0039313287
34	0x3af345eb	0.0018560266
35	0x3b12c07f	0.0022392569
36	0x3b84f2a5	0.004057246
37	0xbaa1d62e	-0.0012347156
38	0x3b9d07db	0.004792196
39	0xbbb6b024	-0.005575197
40	0xbb468101	-0.0030289295
41	0xbbf6cb40	-0.0075315535
42	0xbc185128	-0.009296693
43	0xbc0680f7	-0.008209459
44	0x3b64031b	0.003479189
45	0x3bb1c10e	0.0054246252
46	0x3bd957c2	0.006632776
47	0x3aab3e75	0.0013064878
48	0xbb10805e	-0.002204917
49	0xbc037561	-0.008023591
50	0x3b2d6014	0.0026454972
51	0x3c167863	0.009183976
52	0x3bdb6043	0.006694825
53	0x3b7fa66f	0.0039009114
54	0xbb47c1bf	-0.0030480472
55	0xbb9b6d81	-0.0047432785
56	0x3bf0299b	0.0073291785
57	0xbbbf4380	-0.005836904
58	0x39aa96ec	0.00032537372
59	0xbc07833a	-0.008271033
60	0x3bb272da	0.0054458203
61	0x3bbf1cee	0.005832306
62	0xbc1ba98a	-0.0095008705
63	0xbbbd453b	-0.005776075
64	0xbb44c949	-0.0030027202
65	0x3b1b6087	0.0023708658
66	0x3b1f3674	0.0024293931
67	0x3bd70726	0.0065621315
68	0xba87c134	-0.0010357262
69	0x3be67ce3	0.0070339306
70	0xbb7a451e	-0.003818817
71	0xb98258ca	-0.00024861685
72	0xbc0e7137	-0.008693985
73	0x3bc7c1a0	0.00609608
74	0xba03d88c	-0.00050295214
75	0x3ba38b66	0.004990983
76	0xbaa72465	-0.0012751935
77	0xbbc9aade	-0.006154402
78	0x3b5518a5	0.003251591
79	0x3b7b34cd	0.0038331032

fc3.weight f4 [40, 80]
0	0x3c8b3861	0.016994657
1	0xbcca0a44	-0.024663098
2	0x3d9f0704	0.0776501
3	0x3c5fd0a3	0.013660583
4	0xbd155aae	-0.036463432
5	0x3d5b64cf	0.053562935
6	0xbd0d543d	-0.034504164
7	0x3bddb4c3	0.0067659332
8	0xbd1cb49a	-0.038258173
9	0xbcd7f19c	-0.026360326
10	0xbce79e6b	-0.028273782
11	0x3d187035	0.037216384
12	0x3d7ea535	0.062169272
13	0xbb0718af	-0.0020614078
14	0x3c87a27d	0.016556973
15	0x3d69339f	0.056933995
16	0xbd473711	-0.0486365
17	0x3d8c7446	0.06858115
18	0xbb86286e	-0.004094175
19	0xbcbffad6	-0.023435038
20	0x3d90baaf	0.07066857
21	0xbbd3e69a	-0.006466699
22	0xbc04b96e	-0.0081008505
23	0xbca69a92	-0.020337377
24	0xbad81286	-0.0016485013
25	0x3d86bae4	0.06578615
26	0xbc9c608f	-0.019089011
27	0xbcbdf60b	-0.023188611
28	0xbd2c9cad	-0.042141605
29	0x3d4d33f7	0.050098386
30	0xbd394ccb	-0.04523925
31	0xbd0f9f9e	-0.035064332
32	0xba96e5fa	-0.001151263
33	0xbd35f449	-0.04442242
34	0x3d47a56c	0.048741743
35	0x3d6715d2	0.056417294
36	0x3d9253cc	0.07144889
37	0xbd07d466	-0.033161543
38	0x3bad9216	0.005296956
39	0xbc5a32e8	-0.013317801
40	0x3c220ad5	0.009890278
41	0xbc5a6eee	-0.013332112
42	0xbcd58f39	-0.02606927
43	0xbced6027	-0.028976513
44	0x3d57565b	0.05257259
45	0x3d938b41	0.07204295
46	0x3bcb1271	0.0061972667
47	0xbd239eef	-0.039946493
48	0x3d3e0d6f	0.04639953
49	0xbd091453	-0.03346665
50	0x3dba4d07	0.09096723
51	0x3d6ec4a3	0.058292996
52	0xbc882bfe	-0.01662254
53	0xbcf55b5c	-0.02995079
54	0xbc2a189f	-0.010381847
55	0x3d09535d	0.033526767
56	0xbc86b682	-0.016444448
57	0xbc9c401e	-0.019073542
58	0xbcec4e43	-0.028845912
59	0xbcc0ada2	-0.023520295
60	0xbc82da52	-0.015973244
61	0xbca3f13b	-0.020012489
62	0xbcaa76d7	-0.02080862
63	0x3d524a15	0.05134018
64	0x3d38b4fd	0.04509448
65	0x3d2d22b1	0.042269412
66	0xbc4639db	-0.012098755
67	0xbcabf1ac	-0.020989262
68	0xbad8790f	-0.001651557
69	0xbc19947f	-0.009373783
70	0xbd642107	-0.05569556
71	0x3d4a06fb	0.049323063
72	0xba88d956	-0.0010440748
73	0x3c6f89ef	0.014620288
74	0xbc9c5e89	-0.019088047
75	0xbd112eb8	-0.035444945
76	0x3b4769ae	0.003042798
77	0x3d01ab39	0.03165743
78	0xbd35c316	-0.0443755
79	0xbcc1e896	-0.023670476
80	0xbce3adba	-0.0277928
81	0xbc896c16	-0.016775172
82	0x3d7ddf47	0.061980512
83	0xbc87227d	-0.016495937
84	0x3d675b06	0.05648329
85	0xbc569e2a	-0.013099233
86	0xbcb947af	-0.02261719
87	0xbc8bcade	-0.017064508
88	0xbc8c1ebc	-0.017104499
89	0xbccc98d3	-0.024975216
90	0xbcb8ba54	-0.022549786
91	0x3d907b46	0.070547625
92	0xbc806942	-0.01567519
93	0x3862ac71	5.4043197e-05
94	0x3d79a8e1	0.06095207
95	0xbd29e9f1	-0.04148287
96	0xbaaabea4	-0.0013026786
97	0x3d8324d4	0.06403509
98	0xbca4592e	-0.020062055
99	0x3d97ae6c	0.07406315
100	0xbd53fbaf	-0.051753696
101	0x3cfd3b76	0.030912142
102	0x3b05f792	0.0020441753
103	0xbcdcf4f3	-0.02697227
104	0xbc5aa5b8	-0.0133451745
105	0x3d66b53a	0.056325175
106	0x3baf31fe	0.0053465357
107	0x3b31cba0	0.0027129427
108	0x3d063184	0.032762066
109	0x3c83d9de	0.016095098
110	0xbabfc889	-0.0014631908
111	0xbc91fb91	-0.017820152
112	0x3d394b4c	0.045237824
113	0xbcfb8d06	-0.030706894
114	0xbd2277ad	-0.039664913
115	0x3d8b9446	0.0681539
116	0xbcec7cd4	-0.028868116
117	0xbbe8d6c6	-0.007105681
118	0x3c92dcb7	0.01792751
119	0xbca13ae0	-0.019681394
120	0xbd142f95	-0.03617819
121	0xbc175cf0	-0.009238467
122	0xbcf2a809	-0.029621141
123	0xbc328012	-0.010894792
124	0xbceb6829	-0.02873619
125	0x3d9d9614	0.07694641
126	0x3b1d0db0	0.0023964457
127	0x3cc42582	0.023943666
128	0xbb98b4ec	-0.0046602394
129	0xbd150ae2	-0.03638733
130	0xbce63485	-0.028101215
131	0xbd461429	-0.04835907
132	0x3d708d41	0.05872846
133	0xbd419cda	-0.047268726
134	0xb9df925c	-0.0004264292
135	0xbcef9961	-0.029247941
136	0x399f6158	0.0003039937
137	0xbcc457b0	-0.023967594
138	0xbc3278e4	-0.01089308
139	0xbcf6d35c	-0.03013008
140	0x3d2cd819	0.042198274
141	0xbb6f5cac	-0.0036523743
142	0xbc8ff5cb	-0.017573258
143	0xbc732213	-0.014839667
144	0x3d1d6e31	0.038435165
145	0x3d93a206	0.07208638
146	0x3da4b89b	0.08043023
147	0xbbea0165	-0.0071412795
148	0x3bf81e29	0.0075719547
149	0x3c9f3e21	0.019438805
150	0x3c9b16f9	0.018931853
151	0xbc3346b5	-0.010942151
152	0xbc772769	-0.01508508
153	0xbc9d0016	-0.01916508
154	0xbc88d3c1	-0.016702535
155	0x3d0b9636	0.0340788
156	0xbc688ef6	-0.014194241
157	0xbd1a9cc8	-0.037747175
158	0xbcd8c9d1	-0.026463421
159	0xbd143b67	-0.036189463
160	0xbce1a706	-0.027545463
161	0xbcdd4ee4	-0.027015157
162	0x3d221788	0.039573222
163	0xbd254013	-0.04034431
164	0x3d26699a	0.040628053
165	0xbc81bb35	-0.015836338
166	0xbce89943	-0.028393393
167	0x3bc973aa	0.0061478214
168	0xbc9a31e9	-0.018822627
169	0x3d8712bb	0.065953694
170	0x3cd5a07d	0.026077503
171	0xbd0e6aed	-0.03476994
172	0xbb6b5dce	-0.0035914066
173	0x3ba8dde4	0.0051534045
174	0xbceccb9b	-0.02890568
175	0x3ca18bc3	0.019719964
176	0xbcb0066e	-0.02148744
177	0xbcaaa0dd	-0.020828659
178	0xbc9edff2	-0.019393895
179	0x3cf846f0	0.030307263
180	0xbd231ee7	-0.039824393
181	0x3c88d778	0.016704306
182	0x3bcbc485	0.0062184953
183	0x3da806bf	0.08204412
184	0xbbc62023	-0.0060463115
185	0xbd18b367	-0.037280466
186	0xbd14a155	-0.03628667
187	0x3dcd8952	0.100359574
188	0xbd22546e	-0.0396313
189	0x3ce0fa67	0.027463151
190	0x3d888692	0.06666292
191	0x3d9039ed	0.070422985
192	0xbd0b265f	-0.03397214
193	0x3cece261	0.02891654
194	0xbcb46701	-0.022021772
195	0xbc57d094	-0.0131722875
196	0x3cc8e053	0.024521029
197	0xbc96763e	-0.01836693
198	0x3b523682	0.0032075946
199	0xbb8088d0	-0.0039225593
200	0xbd25e268	-0.04049912
201	0xbbda4992	-0.0066616023
202	0xbd6408c2	-0.055672415
203	0xbaf14d04	-0.0018409793
204	0x3cdbef94	0.026847638
205	0x3af3adde	0.0018591245
206	0x3d2e5d23	0.04256929
207	0xbd0aca35	-0.033884246
208	0xbbaec85a	-0.0053339424
209	0x3d8adf41	0.067808636
210	0xbd1062fa	-0.03525064
211	0xbc2a4622	-0.0103926975
212	0x391ea021	0.00015127707
213	0xbcee511c	-0.02909141
214	0x3d86c4f1	0.06580532
215	0xbc9b80b7	-0.018982274
216	0xbc6bd94b	-0.014395068
217	0x3ca9c39e	0.02072316
218	0x3d8fa42a	0.07013734
219	0x3d936a7d	0.071980454
220	0xbd22900f	-0.039688166
221	0xbc0ab5ae	-0.008466167
222	0x3d78ea6b	0.060770433
223	0xbba90b17	-0.0051587927
224	0x3c3bae78	0.011455171
225	0x3d5eff5c	0.05444275
226	0xbd02c34b	-0.031924527
227	0xbc9fc1eb	-0.019501647
228	0xbbdcaad1	-0.00673423
229	0x3b2c48d9	0.0026288538
230	0xbba465f4	-0.0050170366
231	0xba095211	-0.0005238364
232	0x3d8fe9c3	0.070270084
233	0xbbcb2cdf	-0.0062004174
234	0xbc828c1d	-0.015935952
235	0x3d2cd55c	0.042195663
236	0xbc4e606d	-0.012596232
237	0xbd1437ac	-0.036185905
238	0x3d4e37fd	0.050346363
239	0x3d5f1e7f	0.054472443
240	0xbd2464b4	-0.0401351
241	0xbd1c3e02	-0.038145073
242	0x3db24556	0.08704631
243	0x3c98a593	0.01863364
244	0x3d74fe29	0.0598127
245	0xbc5c68dd	-0.013452736
246	0xb995a58b	-0.00028542834
247	0x3d3cc40b	0.0460854
248	0x3b9bfe69	0.0047605527
249	0xbd0ea480	-0.03482485
250	0xbc354211	-0.011063115
251	0x3d757bd3	0.05993254
252	0x3d9b56cd	0.07584915
253	0x3bd588ae	0.0065165376
254	0x3cba1181	0.022713425
255	0xbd298e5c	-0.04139553

fc3.bias f4 [40]
0	0x3baacff0	0.0052127764
1	0x3b740663	0.0037235252
2	0xba3b958d	-0.00071557687
3	0x3b4774d0	0.0030434616
4	0x3ac5b24b	0.0015083043
5	0x3aad55a6	0.0013224378
6	0xba1d9b2b	-0.00060121965
7	0x3c3db202	0.011578085
8	0xbc041a80	-0.008062959
9	0xbbf19beb	-0.007373323
10	0x3bb29e96	0.005451034
11	0x3b992919	0.0046740887
12	0x3c104a93	0.008806842
13	0xbc3bdb3d	-0.011465845
14	0xb9b10c47	-0.00033769218
15	0x3b532407	0.003221752
16	0x3c8082bb	0.015687337
17	0x3bb682a3	0.0055697723
18	0x3c0bfe82	0.008544566
19	0x3bda28f7	0.0066577154
20	0x3b34b274	0.0027572187
21	0xbb019e38	-0.0019778144
22	0xbb7ef1c2	-0.0038901423
23	0x3c4b2d21	0.012400896
24	0xbadf317c	-0.0017028297
25	0x3bbe29fd	0.0058033452
26	0x3c0e2915	0.008676787
27	0x3a2defa2	0.00066351343
28	0x3be29449	0.0069146496
29	0x3bf3b46d	0.00743728
30	0x3c80b020	0.015708983
31	0x3c922efd	0.017844671
32	0x39a9bf9a	0.00032376946
33	0x3b9621e0	0.004581675
34	0xbb649d5a	-0.0034883828
35	0xba8b948c	-0.0010649129
36	0x3b88dd17	0.0041767466
37	0x3b8e8853	0.004349747
38	0x3ca4a0e6	0.020096254
39	0x3aa4aa56	0.0012562971
