outfiles/cnn/ORL32_5Train_cnn.pth (torch, 334655 bytes, 10 tensors)

conv_layer1.weight f4 [8, 1, 5, 5]
0.011464285 -0.012397446 0.00706903 0.009164341 -0.013985753 -0.017060513 -0.010916726 0.0086950045
-0.005436078 -0.0006607363 0.0153397955 -0.01184071 0.011082002 -0.008184129 0.0013799206 -0.0027906
0.0020676681 0.00515362 -0.0030242545 -0.01629 -0.011975874 -0.0066210055 -0.019323172 -0.003437906
0.004070956 -0.01608889 0.022234244 0.044495363 0.042372975 -0.019585282 0.0068818396 -0.0048052883
0.029454565 0.03525465 0.018843353 -0.0012966284 -0.01785553 -0.015679186 0.046097174 -0.00417589
-0.0092553105 -0.005803667 0.021023082 -0.007808053 0.0014315852 -0.014522667 0.0025317785 0.0070420736
0.015977846 -0.020424088 -0.026239974 -0.0034623602 0.05949968 0.06351548 0.012341772 -0.020291466
-0.02370757 0.03148722 -0.0401762 0.03536095 -0.047447313 -0.018182022 -0.04525011 0.05143505
0.018490672 0.01640977 -0.08086878 -0.046509303 0.023786446 -0.001274202 0.037693933 -0.00029414607
-0.09212183 0.012640234 0.018086407 -0.2612819 -0.22586334 -0.074314624 -0.005590681 0.09705209
0.12495871 0.11580913 0.2565327 0.33428985 0.06362228 -0.08587159 0.013815653 0.23057653
0.3150346 0.2577884 -0.25022683 -0.35841072 -0.031654123 0.24960242 0.07038693 0.060425084
-0.17409796 -0.3599043 -0.28390187 0.032874208 0.012991017 0.0014511979 0.025287377 0.020645622
0.040135775 0.016601589 -0.0147313075 0.020925764 0.01988548 0.02624767 0.001275237 -0.0010332803
-0.00783366 0.016277963 0.016586574 0.0063514607 0.011660565 0.0009009458 -0.0024332558 -0.0104134
-0.02836407 -0.006663739 -0.010887019 -0.012289238 -0.012592855 -0.14902891 -0.18508714 0.092913404
0.11429565 -0.076828666 0.049236305 -0.0850936 0.15874992 0.14821509 0.15750873 0.06852966
0.10210132 0.1465789 0.04191153 -0.065233104 -0.06386874 -0.019973902 -0.00017868835 -0.017715856
-0.14127475 -0.08723968 -0.0618472 0.05463466 -0.06678701 -0.07475901 0.33328775 0.22393017
0.38541242 0.3096978 -0.116949536 0.20918211 0.14708 0.30959815 0.1732202 -0.16171794
-0.049310565 0.08079739 0.16246112 0.12788022 -0.09556621 0.009890953 0.16461763 0.086522065
-0.20503332 -0.34130073 -0.18198635 -0.14592294 -0.3033715 -0.50891376 -0.32732078 -0.0070922337
-0.0017444236 -0.00056053186 -0.018311217 0.007700533 0.0097131645 -0.019126158 -0.004771753 0.011117957
0.0071813054 0.0074633127 0.0057073985 -0.015560173 0.00265733 0.0038557993 -0.0038099077 -0.0034284873
-0.018468095 0.0011965507 0.000110136185 -0.006309166 -0.012865467 0.009416819 -0.019542523 -0.016469665
00000000: b2d4 3b3c a81e 4bbc 52a3 e73b 0826 163c
00000010: 8024 65bc 7dc2 8bbc 11dc 32bc 7e75 0e3c
00000020: 2121 b2bb 4335 2dba c453 7b3c 8aff 41bc
00000030: 4991 353c ba16 06bc 74de b43a 80e2 36bb
00000040: b781 073b b3df a83b 9232 46bb 9b72 85bc
00000050: 7536 44bc 05f5 d8bb a14b 9ebc 7e4e 61bb
00000060: a765 853b d9cc 83bc 9724 b63c c540 363d
00000070: 498f 2d3d 5071 a0bc 0e81 e13b ae75 9dbb
00000080: b34a f13c 2e67 103d 605d 9a3c a1f3 a9ba
00000090: c345 92bc a371 80bc 64d0 3c3d e7d5 88bb
000000a0: 96a3 17bc b02c bebb 9938 ac3c b2da ffbb
000000b0: 07a4 bb3a 7bf0 6dbc 32ec 253b 32c1 e63b
000000c0: f9e3 823c 6b50 a7bc 37f5 d6bc c4e8 62bb
000000d0: f0b5 733d 6714 823d 2535 4a3c 4a3a a6bc
000000e0: 6136 c2bc bef8 003d cd8f 24bd a5d6 103d
000000f0: 1d58 42bd 77f2 94bc 2e58 39bd 8fad 523d
00000100: c079 973c c86d 863c 889e a5bd 8a80 3ebd
00000110: cbdb c23c 2003 a7ba f464 1a3d 9e37 9ab9
00000120: 5faa bcbd fc18 4f3c f229 943c bec6 85be
00000130: b848 67be 4432 98bd 0832 b7bb 3fc3 c63d
00000140: 5aea ff3d 562d ed3d 4158 833e 0a28 ab3e
00000150: 664c 823d 72dd afbd 0c5b 623c 411c 6c3e
00000160: 374c a13e d7fc 833e bb1d 80be 9c81 b7be
00000170: c1a7 01bd c797 7f3e 0627 903d 4b80 773d
00000180: bc46 32be 6045 b8be 965b 91be 1ba7 063d
00000190: 46d8 543c 1f36 be3a 7927 cf3c 0221 a93c
000001a0: 6965 243d 0e00 883c 955b 71bc 826c ab3c
000001b0: e0e6 a23c 5b05 d73c da25 a73a 226f 87ba
000001c0: c058 00bc 5d59 853c 91e0 873c ea1f d03b
000001d0: f40b 3f3c 732d 6c3a 4277 1fbb f79c 2abc
000001e0: c45b e8bc 7f5b dabb 785f 32bc cd58 49bc
000001f0: 4352 4ebc 099b 18be 7c87 3dbe 6249 be3d
00000200: d613 ea3d 5958 9dbd 02ac 493d 8e45 aebd
00000210: 578f 223e b2c5 173e f849 213e 4759 8c3d
00000220: 7f1a d13d c718 163e 6dab 2b3d ef98 85bd
00000230: 9dcd 82bd 4fa0 a3bc 4a5e 3bb9 d820 91bc
00000240: 54aa 10be b8aa b2bd 7d53 7dbd 98c8 5f3d
00000250: a1c7 88bd 401b 99bd b1a4 aa3e f34d 653e
00000260: c754 c53e b690 9e3e 3d83 efbd d633 563e
00000270: 249c 163e a683 9e3e a360 313e 6399 25be
00000280: e0f9 49bd 1a79 a53d 355c 263e 08f3 023e
00000290: 38b8 c3bd aa0d 223c 8691 283e 7b32 b13d
000002a0: 41f4 51be f8be aebe a15a 3abe d36c 15be
000002b0: 8253 9bbe 2c48 02bf 9796 a7be f865 e8bb
000002c0: 25a5 e4ba a8f0 12ba 6801 96bc c154 fc3b
000002d0: f723 1f3c 76ae 9cbc 5e5c 9cbb 1728 363c
000002e0: 2851 eb3b ce8e f43b 2105 bb3b 19f0 7ebc
000002f0: 9926 2e3b 94b1 7c3b a5af 79bb 79b0 60bb
00000300: 674a 97bc 94d5 9c3a eaf8 e638 1fbd cebb
00000310: aec9 52bc 0049 1a3c a417 a0bc 64eb 86bc

conv_layer1.bias f4 [8]
0.019647472 0.012504849 0.011057218 0.011946993 -0.0046872906 -0.019960126 -0.017688252 0.008894895
00000000: bcf3 a03c 23e1 4c3c 5529 353c 52bd 433c
00000010: d897 99bb 6b83 a3bc f4e6 90bc e5bb 113c

conv_layer2.weight f4 [16, 1, 5, 5]
0.009382383 -0.0133693265 -0.003003665 0.0043320237 -0.004446838 -0.0020702921 0.019013153 -0.016324535
-0.014210476 0.011792416 0.001456632 -0.012426946 0.0027045521 0.009542893 0.012470049 -0.0021579713
-0.015403818 -0.010481044 0.010479587 -0.009625281 0.008332178 0.010467258 0.0011833095 0.016892934
-0.016052242 -0.005902931 -0.009190051 0.009385275 0.0052788723 -0.0034974967 -0.015798917 0.019748777
-0.015891042 0.0005630577 0.013184944 -0.006964362 -0.0045186747 -0.003913323 0.00024928045 -0.011353578
0.0045546973 0.012032403 0.0062039546 0.00047650211 -0.016867213 -0.010458915 0.018137958 -0.0023972678
0.0016830873 -0.017398326 0.06740461 0.061742373 0.036054794 5.957796e-05 -0.021540824 0.04806579
0.044166103 -0.0127198445 -0.049495988 -0.02040027 -0.0101752365 -0.037673876 -0.020442527 0.0031726852
-0.010235214 -0.037934754 -0.06048968 0.026334591 -0.06832824 -0.01526575 -0.03703337 0.032291085
0.024305763 -0.047504522 -0.021437312 -0.013361581 -0.04017725 -0.042806122 0.02762188 0.051774252
-0.0657803 -0.07136657 -0.008033949 -0.033321448 0.046443895 -0.06804372 -0.019594263 0.04130132
0.015117586 0.047609597 0.059384022 0.0148741 -0.0613732 -0.056906927 0.05083783 0.055438645
0.027471332 -0.06831885 0.011040074 0.034297317 -0.006113438 -0.01197253 -0.023222776 0.011388243
-0.0040697735 -0.019409461 -0.023823736 0.015306038 -0.004122741 -0.016107157 0.0063123317 -0.004522037
-0.0035678546 0.02090813 -0.014558161 0.055397104 0.0038068464 -0.0116131045 -0.008623816 -0.027087862
0.05815573 0.0066075404 -0.020809641 -0.0024781562 -0.020952063 -0.030844431 0.017130729 -0.028956423
-0.009777284 -0.026098019 0.0041060224 0.020369304 0.03534383 -0.036888633 -0.0063011823 -0.0390587
0.039489124 0.046564516 -0.0037625995 -0.00027070314 -0.02821781 0.0076376074 0.038133103 0.01586903
-0.0016456243 -0.01943192 -0.021625053 -0.017516317 -0.01306496 0.003977043 -0.11520365 -0.13706712
0.18974993 0.27435526 0.19528364 -0.05164226 -0.1906306 0.16276336 0.23869729 0.1881012
-0.076022424 0.020624937 -0.1323231 -0.12946767 0.031782243 0.045906536 0.11945763 -0.11984426
-0.21059619 -0.16133334 -0.05277906 -0.0130127175 0.053747296 -0.1229861 -0.093070276 0.08887531
0.037423775 -0.14207436 -0.116725035 -0.11446412 -0.034303077 -0.04524099 -0.15141535 -0.19717455
-0.15701479 -0.097327605 -0.031631276 0.0151777025 -0.1914546 -0.15648766 -0.0064593526 0.027494859
0.08099663 -0.020775728 0.028911253 -0.14411567 0.3238539 0.42101985 0.32587543 0.17276484
-0.018897962 -0.007662186 0.013868601 0.02139785 -0.011980403 -0.0031838177 0.005996698 0.012011508
0.021013724 -0.009628923 -0.0023319782 -0.02254907 0.008197336 -0.0045908354 0.0053944383 -0.018733002
0.0072508627 -0.021372352 -0.023562532 0.01392666 0.0070793554 0.01759224 -0.017141663 -0.01826751
-0.0029738655 -0.0065845787 -0.016935626 0.0058104526 -0.015696146 -0.008492916 -0.0056286235 -0.015199953
-0.0130441105 -0.043147743 -0.032961465 -0.0114584975 -0.013842273 -0.017544191 -0.02318705 -0.022557039
-0.017490804 -0.014358863 0.009064256 0.015755732 0.009780206 0.020997843 0.043472543 0.022683887
0.032937773 0.03164412 0.07845354 0.13824548 0.08009119 -0.023965305 -0.08554114 -0.06227204
00000000: 91b8 193c 050b 5bbc 23d9 44bb a6f3 8d3b
00000010: c8b6 91bb bdad 07bb 79c1 9b3c 08bb 85bc
00000020: 0ed3 68bc fa34 413c 76ec be3a 649a 4bbc
00000030: db3e 313b cb59 1c3c 2d4f 4c3c c06c 0dbb
00000040: 4c60 7cbc afb8 2bbc 93b2 2b3c 5bb3 1dbc
00000050: b083 083c dd7e 2b3c 4719 9b3a 0d63 8a3c
00000060: fe7f 83bc 606d c1bb de91 16bc b2c4 193c
00000070: 64fa ac3b 4236 65bb bb6c 81bc 30c8 a13c
00000080: ee2d 82bc 2a9a 133a aa05 583c 4e35 e4bb
00000090: 6411 94bb 553b 80bb dbb1 8239 5c04 3abc
000000a0: 923f 953b 8e23 453c 8b4a cb3b 08d3 f939
000000b0: 1c2d 8abc de5b 2bbc 0e96 943c 7b1b 1dbb
000000c0: 0a9b dc3a ef86 8ebc 6e0b 8a3d 92e5 7c3d
000000d0: 31ae 133d 59e3 7938 6276 b0bc a2e0 443d
000000e0: 84e7 343d e566 50bc 4ebc 4abd 781e a7bc
000000f0: 09b6 26bc ec4f 1abd 1677 a7bc d3ec 4f3b
00000100: 99b1 27bc 7961 1bbd 07c4 77bd a4bb d73c
00000110: adef 8bbd 321d 7abc 4eb0 17bd a843 043d
00000120: e11c c73c 1a94 42bd 4d9d afbc 88ea 5abc
00000130: e690 24bd 7955 2fbd 4847 e23c 3d11 543d
00000140: d2b7 86bd a328 92bd d3a0 03bc 127c 08bd
00000150: f43b 3e3d 825a 8bbd 2684 a0bc 932b 293d
00000160: c0af 773c 4802 433d a93c 733d 7fb2 733c
00000170: 7762 7bbd 3d17 69bd 543b 503d a213 633d
00000180: 8f0b e13c c1ea 8bbd 6de1 343c 587b 0c3d
00000190: 3c53 c8bb 6e28 44bc b13d bebc c195 3a3c
000001a0: bc5b 85bb 9700 9fbc ff29 c3bc 2dc6 7a3c
000001b0: 0f18 87bb 28f3 83bc add7 ce3b 992d 94bb
000001c0: abd2 69bb 8747 ab3c 5a85 6ebc 13e8 623d
000001d0: 497c 793b e444 3ebc e84a 0dbc 5de7 ddbc
000001e0: b434 6e3d 1184 d83b fb78 aabc 9068 22bb
000001f0: a9a3 abbc 76ad fcbc be55 8c3c 0536 edbc
00000200: e730 20bc 83cb d5bc d08b 863b 87dd a63c
00000210: b1c4 103d 8918 17bd 267a cebb 04fc 1fbd
00000220: 59bf 213d 6fba 3e3d f295 76bb 29ed 8db9
00000230: 0929 e7bc e544 fa3b 7531 1c3d c5ff 813c
00000240: fdb1 d7ba b12f 9fbc 0627 b1bc 617e 8fbc
00000250: 6a0e 56bc db51 823b e4ef ebbd 535b 0cbe
00000260: ce4d 423e 4b78 8c3e 6ff8 473e d686 53bd
00000270: ab34 43be 70ab 263e 106d 743e 9a9d 403e
00000280: a5b1 9bbd a1f5 a83c b57f 07be 2c93 04be
00000290: 192e 023d 7e08 3c3d 34a6 f43d e870 f5bd
000002a0: 87a6 57be 9134 25be db2e 58bd 4b33 55bc
000002b0: 2026 5c3d 23e0 fbbd a19b bebd 4204 b63d
000002c0: ac49 193d f17b 11be 890d efbd 2a6c eabd
000002d0: 6281 0cbd 9e4e 39bd a00c 1bbe 20e8 49be
000002e0: 7cc8 20be b253 c7bd cc8f 01bd e6ab 783c
000002f0: ad0c 44be 4d3e 20be faa8 d3bb e63c e13c
00000300: 90e1 a53d dc31 aabc 4bd7 ec3c 0f93 13be
00000310: 2ed0 a53e ea8f d73e 25d9 a63e 44e9 303e
00000320: e6cf 9abc 1313 fbbb 2139 633c 8b4a af3c
00000330: 7449 44bc 99a7 50bb f37f c43b ebcb 443c
00000340: f924 ac3c a1c2 1dbc 1ad4 18bb d4b8 b8bc
00000350: 1f4e 063c b86e 96bb d4c3 b03b f475 99bc
00000360: a598 ed3b 1215 afbc 3606 c1bc a52c 643c
00000370: f0f9 e73b 9a1d 903c ac6c 8cbc bfa5 95bc
00000380: 2fe5 42bb 73c3 d7bb 95bc 8abc 9c65 be3b
00000390: 3495 80bc df25 0bbc 5170 b8bb 3909 79bc
000003a0: f7b6 55bc b0bb 30bd 9a02 07bd 6cbc 3bbc
000003b0: b3ca 62bc d6b8 8fbc c5f2 bdbc 8ac9 b8bc
000003c0: e048 8fbc 7041 6bbc 3f82 143c 2a12 813c
000003d0: 283d 203c ab03 ac3c 4410 323d 8fd3 b93c
000003e0: c2e9 063d 449d 013d 40ac a03d 3990 0d3e
000003f0: da06 a43d e352 c4bc 3130 afbd f710 7fbd

conv_layer2.bias f4 [16]
-0.005561594 -0.0026530921 -0.011729839 -0.015670503 0.006200752 -0.0127810715 -0.007799038 -0.016999075
-0.018184887 0.0010889039 -0.024810797 -0.0007407243 0.0017839881 0.0018211666 0.0043546357 0.0019254874
00000000: 083e b6bb 80df 2dbb 832e 40bc 6d5f 80bc
00000010: ae2f cb3b b367 51bc 138f ffbb a541 8bbc
00000020: 79f8 94bc 8db9 8e3a 0340 cbbc 2b2d 42ba
00000030: b5d4 e93a 36b4 ee3a 55b1 8e3b a360 fc3a

fc1.weight f4 [120, 576]
-0.0034990553 -0.0028297484 -0.0011328863 -0.004053724 -0.0023666436 -0.0036404072 -0.0039150263 0.0033729058
0.0021367099 -0.0036790625 -0.00071382883 0.003377185 0.0033252107 -0.0022815967 -0.0007611204 -0.002648237
-0.0036618572 0.0012439316 -0.0008561675 0.002169968 0.0007152078 -0.0003282807 0.0011831188 0.0039032355
0.0010872451 -0.0019383167 0.003854981 0.003670947 -0.003858244 -0.0026552111 -9.522605e-05 0.0033650582
0.0017583782 0.0037968727 0.00018333348 0.0040312065 0.0010512129 0.0023343472 0.0015648142 0.0008443972
0.0017217697 0.00041327148 0.0020891193 -0.0030011744 -0.0015879851 0.0010511124 0.00094348163 0.0021021978
0.001032918 -0.0012247154 -0.0029934407 -0.0014846476 -0.0031600774 -0.0014029256 0.0007206487 -0.00029568386
0.0024852676 -0.0013557025 0.0011006069 0.0012649617 0.00038189793 -0.001231112 -0.00011816364 0.00092601025
0.001124047 -0.0016905208 0.0038972758 -0.00090561993 0.0011183869 0.00051221234 0.0038155105 -0.0039311205
-0.0016168578 0.0030143694 0.0027272422 0.0006080324 0.0025961064 -0.0085267285 -0.0015080776 -0.0033273953
0.0029020961 -0.00065577996 0.0022524884 -0.009765064 0.0037534514 0.003872775 0.0045073237 0.004268993
0.0003980987 -0.0012591555 -0.0027587928 -0.001840912 0.0012755337 -0.0007141199 -0.0015524504 0.0040573445
0.0044315113 0.0034040816 0.0029179575 -0.0022009409 0.0020831022 0.0046017757 0.0010463686 -0.003495197
-0.0016890933 0.0052521653 0.0045270873 0.010275626 0.0010378126 0.003014971 0.0026379786 0.00013582538
-0.0027673796 -0.007625285 0.0017686414 0.0024732286 0.00014336042 -0.004827219 0.0010218499 -0.0023013717
0.00017917124 -0.0015434289 -0.0026836733 -0.0017582196 -0.0029624992 -0.0018596033 -0.0038934797 -0.007453171
-0.0025260635 -0.0054432163 -0.0025193933 0.00029703547 -0.00027502858 -0.0035090412 -0.0046691108 -0.003924764
-0.006126551 -0.0004701541 0.0013989995 -0.005015326 -0.004404496 -0.0038433108 -0.00249978 -0.00090345176
-0.0049003707 -0.003693442 -0.001367699 -0.006007824 -0.0013956816 -0.003605934 0.0003827184 0.0010352675
0.0014873286 -0.00080860173 0.0049401736 -0.000983601 -0.0014221115 -0.005958996 -5.048447e-05 -0.00070244214
0.0023842133 -0.004171687 0.0048842067 -0.0039512273 -0.0013336879 0.0026461454 0.0012946648 -0.0046661953
0.0053574485 -0.002140013 -0.0062249005 -0.002915065 -0.0030275662 -0.004935806 0.000110618435 -0.0011639845
-0.00692609 -0.003670382 -0.0010491319 -0.0009917388 -0.005664081 -0.007626304 -0.0038780503 0.0028396551
-0.0051512807 -0.0044755614 -0.0044361698 -0.0021996517 -0.0040009576 -0.00020576628 0.004790793 0.0001615948
-0.0009400897 -0.00096136326 -2.4683446e-05 0.00013060568 -0.0016713819 0.0017141826 -0.0024035557 -0.007563778
-0.00052566663 -0.0010789766 -0.0051164264 -0.0071286936 -0.004002721 -0.0024523807 -0.0011239877 -0.005911731
-0.0005019302 -0.006790994 -0.002028511 -0.006019614 -0.0021171637 -0.0024213665 -0.0012946859 -0.0017877087
-0.019230675 -0.01013576 -0.0145095205 0.007529885 -0.030975085 0.035777517 -0.025018657 0.0077027013
-0.007014379 -0.0066889715 0.0030735105 0.010767957 0.008132938 0.03255549 -0.010118649 -0.009423032
0.044665605 0.0030238165 -0.017393414 -0.029713776 0.023852684 0.051830553 0.0060764207 0.0029503442
0.0057319626 -0.039972946 -0.016646195 -0.016438097 -0.003040502 0.015154124 0.011615683 0.0131871095
-0.012169996 -0.017757485 -0.031202545 -0.019923655 0.00077498675 0.044176403 0.019361984 -0.026740685
00000000: 6850 65bb 4d73 39bb 5b7d 94ba 1ad5 84bb
00000010: b119 1bbb e693 6ebb 9f49 80bb f80b 5d3b
00000020: 0b08 0c3b 6d1c 71bb 3e20 3bba c353 5d3b
00000030: c7eb 593b d786 15bb ed85 47ba 0b8e 2dbb
00000040: c5fb 6fbb 6b0b a33a 6e70 60ba 0636 0e3b
00000050: c87c 3b3a 171d acb9 e112 9b3a 6dcd 7f3b
00000060: e481 8e3a 1e0f feba d9a3 7c3b 4594 703b
00000070: 98da 7cbb 0d03 2ebb 19b4 c7b8 4f88 5c3b
00000080: 6279 e63a f4d4 783b 353d 4039 3618 843b
00000090: dac8 893a d9fb 183b 741a cd3a 895a 5d3a
000000a0: 01ad e13a 5cac d839 9be9 083b 5aaf 44bb
000000b0: f023 d0ba 7bc5 893a fb53 773a 07c5 093b
000000c0: fa62 873a a186 a0ba 9a2d 44bb 8298 c2ba
000000d0: 4d19 4fbb 5fe2 b7ba eae9 3c3a 0406 9bb9
000000e0: dfdf 223b d4b1 b1ba 3d42 903a 12cd a53a
000000f0: 7939 c839 445d a1ba 9fce f7b8 7fbf 723a
00000100: c254 933a 7794 ddba 7069 7f3b 2067 6dba
00000110: d696 923a fd45 063a a50d 7a3b a1d0 80bb
00000120: bfec d3ba ba8c 453b 88bb 323b 5d64 1f3a
00000130: 7023 2a3b b1b3 0bbc b0aa c5ba 6e10 5abb
00000140: 1831 3e3b a6e8 2bba 7c9e 133b a6fd 1fbc
00000150: 77fc 753b 62ce 7d3b 2cb2 933b e9e2 8b3b
00000160: e7b7 d039 3f0a a5ba ddcc 34bb c24a f1ba
00000170: cf2f a73a c633 3bba 977b cbba 79f3 843b
00000180: 3636 913b 0317 5f3b 343b 3f3b a93d 10bb
00000190: a884 083b 7eca 963b 4e26 893a ad0f 65bb
000001a0: 9164 ddba 5b1a ac3b f657 943b 195b 283c
000001b0: 3607 883a d296 453b f0e1 2c3b 596c 0e39
000001c0: ed5c 35bb 87dd f9bb c2d1 e73a e415 223b
000001d0: 0553 1639 a62d 9ebb 98ef 853a 9cd2 16bb
000001e0: eadf 3b39 e14c caba 91e0 2fbb 0f74 e6ba
000001f0: 7d26 42bb efbd f3ba c029 7fbb bb39 f4bb
00000200: 508c 25bb 025d b2bb 681c 25bb 6dbb 9b39
00000210: b631 90b9 f1f7 65bb 57ff 98bb 4f9b 80bb
00000220: 3cc1 c8bb 047f f6b9 a25e b73a 9b57 a4bb
00000230: 9753 90bb 0ee0 7bbb 59d3 23bb 9fd5 6cba
00000240: 4a93 a0bb ad0d 72bb 5d44 b3ba 48dd c4bb
00000250: 4eef b6ba 8951 6cbb 98a7 c839 d0b1 873a
00000260: 77f2 c23a 58f8 53ba 2ee1 a13b 2cec 80ba
00000270: 2566 baba ae43 c3bb 49bf 53b8 1824 38ba
00000280: 7640 1c3b a6b2 88bb b20b a03b 4c79 81bb
00000290: 24cf aeba f46a 2d3b beb1 a93a e2e6 98bb
000002a0: 898d af3b 763f 0cbb 40fa cbbb ad0a 3fbb
000002b0: 226a 46bb 8bbc a1bb d2fb e738 d790 98ba
000002c0: 41f4 e2bb cb8a 70bb 0683 89ba 3bfd 81ba
000002d0: c199 b9bb 13e6 f9bb e326 7ebb 8219 3a3b
000002e0: 13cc a8bb bba7 92bb 4a5d 91bb 0828 10bb
000002f0: 771a 83bb f7c2 57b9 16fc 9c3b c671 2939
00000300: 5a70 76ba ff03 7cba 4c0f cfb7 32f3 0839
00000310: 4512 dbba 6cae e03a f984 1dbb 92d9 f7bb
00000320: e4cc 09ba 726c 8dba b2a7 a7bb d197 e9bb
00000330: 4229 83bb 1fb8 20bb c552 93ba 32b7 c1bb
00000340: f793 03ba fd86 debb c4f0 04bb 2f40 c5bb
00000350: 1dc0 0abb caaf 1ebb 73b2 a9ba 8d51 eaba
00000360: a689 9dbc 7510 26bc 57b9 6dbc 41bd f63b
00000370: 76bf fdbc 728b 123d edf3 ccbc f166 fc3b
00000380: e0d8 e5bb 292f dbbb f36c 493b 166c 303c
00000390: 0440 053c e858 053d b1c8 25bc 1063 1abc
000003a0: 48f3 363d 392b 463b a27c 8ebc 4e6a f3bc
000003b0: b466 c33c 464c 543d b61c c73b 905a 413b
000003c0: 30d3 bb3b acba 23bd 9a5d 88bc 30a9 86bc
000003d0: 2943 47bb 0149 783c b54f 3e3c bf0e 583c
000003e0: aa64 47bc 2578 91bc 7b9c ffbc ef36 a3bc
000003f0: 7b28 4b3a 51f2 343d 069d 9e3c 480f dbbc

fc1.bias f4 [120]
-0.0053139357 -0.0021374088 -0.0022561755 0.0017459586 0.00046211554 0.000830259 -0.0049963784 0.0009615402
-0.002915579 -0.00041387606 -0.0014218057 0.0003673758 -0.003926842 -0.00486635 -0.0013351332 0.0011762858
0.0015392291 0.0011881645 0.0017945823 0.0018217656 -0.00058228604 0.0014122934 -0.004147583 0.0017960792
0.0011245691 0.0013246008 -0.002290665 -0.0042298036 -0.003781678 0.0026339123 -0.0011368797 0.0020784475
-0.0009135398 -0.0041790674 -0.0029841862 -0.0021598572 -0.0013987389 0.002723774 0.001387833 -0.0019913684
0.0005931598 -0.0016387337 -0.0041888016 -0.0069004027 0.0020289018 -0.0033986368 -0.0016178468 0.0027872473
-0.00525779 0.0016982441 -0.0017195083 -0.0023955551 0.0016391396 -0.00011415731 -0.004534058 -0.001748573
-0.002928111 -0.003651774 0.0015022897 0.001503403 0.0015127313 -0.00021267585 -0.001652614 -0.00427393
0.00046199918 0.0012543383 0.0028063818 -0.0012867121 -0.0013218075 -0.0024464887 0.0021966645 0.0031574906
-8.592521e-05 -0.0033166672 -0.0026829257 -0.00010349461 -0.002812187 -0.003920886 -0.00036771156 0.002917925
0.0036927783 -0.003921131 -0.003413237 0.0029918032 -0.0031625442 0.0035287105 0.0032757798 0.0031776216
-0.00035513064 0.000805536 0.0024025526 0.00077463465 -0.002900392 -0.005018844 0.0022571438 -0.0017964485
0.003644281 -0.0025112894 -0.0046881475 -0.0027960567 0.0013528921 -0.004009295 0.0013025322 -0.005022959
0.0009039109 -0.0018099927 0.0019866943 0.0014439641 -0.0017745985 0.0018072148 -0.0031905517 0.0028930535
0.0002250704 -0.0031442612 -0.0034424015 -0.0024157972 0.002693595 -0.003829466 0.0006816015 -0.0017804054
00000000: 8620 aebb c513 0cbb 58dc 13bb a6d8 e43a
00000010: 1948 f239 bda5 593a a9b8 a3bb df0f 7c3a
00000020: 4c13 3fbb 81fd d8b9 e25b baba 589c c039
00000030: bdac 80bb e775 9fbb a3ff aeba 9a2d 9a3a
00000040: f5bf c93a 2fbc 9b3a 3138 eb3a 4fc8 ee3a
00000050: 8ea4 18ba b41c b93a 73e8 87bb 6b6a eb3a
00000060: 4766 933a 3a9e ad3a fb1e 16bb 2a9a 8abb
00000070: 07d6 77bb b79d 2c3b 5a03 95ba 9036 083b
00000080: 9e7a 6fba 8ff0 88bb 5692 43bb 648c 0dbb
00000090: e455 b7ba 5881 323b f3e7 b53a 9e81 02bb
000000a0: 487e 1b3a c7ca d6ba 3742 89bb c61c e2bb
000000b0: 53f7 043b aabb 5ebb ee0d d4ba 40aa 363b
000000c0: 8a49 acbb 9e97 de3a 2061 e1ba bffe 1cbb
000000d0: 66d8 d63a bd67 efb8 6f92 94bb 6030 e5ba
000000e0: 8de5 3fbb 9a52 6fbb 7ae8 c43a d50d c53a
000000f0: d746 c63a bd01 5fb9 869c d8ba 530c 8cbb
00000100: 7b38 f239 9c68 a43a 46eb 373b e5a6 a8ba
00000110: 8040 adba 4555 20bb eaf5 0f3b e7ed 4e3b
00000120: bf32 b4b8 715c 59bb 06d4 2fbb 3f0b d9b8
00000130: ab4c 38bb c77a 80bb 69c9 c0b9 a83a 3f3b
00000140: 8a02 723b d57c 80bb 9db0 5fbb 2112 443b
00000150: b042 4fbb f041 673b 77ae 563b a53f 503b
00000160: d430 bab9 9b2a 533a 2574 1d3b da10 4b3a
00000170: 8114 3ebb 1d75 a4bb 97ec 133b cf76 ebba
00000180: e4d4 6e3b 7294 24bb 089f 99bb 0c3e 37bb
00000190: 8753 b13a 6760 83bb bab9 aa3a a297 a4bb
000001a0: 6ff4 6c3a 473d edba 3333 023b 6543 bd3a
000001b0: a599 e8ba 11e0 ec3a 9318 51bb 6299 3d3b
000001c0: e000 6c39 f30f 4ebb ea99 61bb 5a52 1ebb
000001d0: 0687 303b c7f7 7abb 81ad 323a 7e5c e9ba

fc2.weight f4 [80, 120]
0.009144218 -0.03924636 -0.054178163 0.025663715 0.002028239 0.03157563 0.017211366 0.04794317
0.002533047 -0.0011943 0.0050424514 -0.024295986 0.0070146043 0.00040403986 0.0020723718 0.0011335935
0.019302052 0.0045637693 0.046213165 -0.016608467 0.047532223 0.05053316 0.022972336 -0.03345294
0.006076692 -0.040457774 0.010600062 0.0009849299 0.007871588 0.039962336 -0.02824008 -0.0117996195
0.013223276 0.016731849 -0.024016092 0.010828932 -0.010422883 0.06585143 0.0074427463 0.0018672647
-0.019420775 0.037100706 0.009484737 0.009968215 0.014934314 0.009185676 0.05134567 0.023996428
0.014510014 -0.033571716 -0.021297166 0.002466351 -0.01046683 0.034692638 0.075517036 -0.022599896
0.007962015 -0.04096426 0.010012398 0.0051277434 -0.0243452 0.021132028 -0.02023496 -0.023606276
-0.013464185 -0.0080136275 -0.035309613 0.0040434306 -0.016528128 -0.024607133 -0.0139029715 0.0010719233
0.016318005 0.04435768 0.0043775844 -0.0032283834 -0.028622134 0.02722466 0.04088789 0.039661277
-0.0025031867 0.01249777 0.013920261 -0.0068215597 0.005785524 -0.00014785527 -0.0001207507 0.0040828353
-0.013582158 0.019831926 -0.00024471793 -0.027229898 -0.03071024 0.021542197 0.067067035 -0.03306935
0.033539042 -0.026596291 0.010328158 -0.027093405 0.01102707 -0.01889516 -0.016498204 -0.007895063
-0.0101482915 -0.013871634 0.029469367 0.005135344 -0.0069719385 0.007321352 0.012608256 0.03410339
0.0022732103 0.024190871 0.0025500802 0.007721018 -0.017252253 -0.021428647 -0.0031156358 -0.02191262
0.034212418 -0.05041624 0.015041196 0.025340868 -0.012674189 3.701966e-05 0.06428732 0.028957967
-3.778892e-05 -0.025728295 -0.043041445 0.037307568 -0.007914497 -0.00946304 -0.061550107 -0.03461361
-0.00968111 -0.017238583 -0.021179207 -0.020565908 -0.016938783 -0.0386827 -0.0020206186 0.011742155
-0.011717325 0.016041862 0.054918427 -0.017137919 -0.007514299 -0.0016901813 -0.014126786 0.024624461
0.0018029282 -0.05632104 -0.011886605 -0.003236032 -0.040098175 0.00050651067 0.090322 0.041002113
0.071420066 0.023796877 0.0448391 0.034738887 0.008981206 0.012641343 0.010596532 0.032920603
-0.004167349 -0.02638546 -9.200887e-05 0.0041309306 -0.0022572866 0.023399204 -0.01340159 0.008550254
0.0023473075 -0.009271657 0.032558944 0.051888283 -0.04317768 -0.027192634 0.029698852 -0.014725287
0.009382419 0.022842571 -0.012289226 0.0045493636 0.0016767164 0.05947406 0.0009043216 -0.008984818
-0.021613628 0.05033899 0.003983769 0.03543759 -0.0032513838 -0.035163347 -0.02460248 0.020128343
-0.032193646 0.045348562 -0.0018768684 -0.003902095 -0.026254853 -0.014507639 0.000108877604 -0.0006873276
-0.019371301 0.03579916 0.052200265 -0.0010885267 0.02665937 0.026280334 0.0014878771 0.0026402087
0.018793365 -0.009423657 -0.0331169 0.0421696 0.036198173 0.026297543 -0.04988128 0.036704194
0.04565944 0.016506644 0.014684494 0.028878536 -0.007968056 0.012454811 -0.031846926 0.019801155
0.051686242 -0.014302708 0.0068984134 0.032094013 -0.0038838047 -0.001595415 -0.01628344 -0.015638597
0.052733198 0.094986804 -0.035890568 -0.02733232 0.06558574 0.040381905 0.04793176 0.009854125
0.0037555427 0.0033169317 -0.030469809 -0.033808026 -0.0015382782 0.014056902 -0.022967663 -0.04050235
00000000: a1d1 153c cbc0 20bd ece9 5dbd b63c d23c
00000010: 34ec 043b 7355 013d dafe 8c3c 0f60 443d
00000020: 7a01 263b 0f8a 9cba 263b a53b 6008 c7bc
00000030: c4da e53b 50d5 d339 a1d0 073b 1695 943a
00000040: 561f 9e3c ac8b 953b 044a 3d3d 7b0e 88bc
00000050: 26b1 423d dcfb 4e3d 7b30 bc3c f305 09bd
00000060: fd1e c73b 0db7 25bd e2ab 2d3c c318 813a
00000070: d5f7 003c 8caf 233d be57 e7bc 3153 41bc
00000080: 70a6 583c 3b11 893c 65bd c4bc d56b 313c
00000090: bdc4 2abc 1ddd 863d 48e2 f33b 02bf f43a
000000a0: 5118 9fbc e9f6 173d df65 1b3c b951 233c
000000b0: 0eaf 743c 857f 163c d64f 523d 2894 c43c
000000c0: 69bb 6d3c 7f82 09bd 6577 aebc 81a2 213b
000000d0: 117d 2bbc de19 0e3d ada8 9a3d 6b23 b9bc
000000e0: 1d73 023c 24ca 27bd 0a0b 243c a106 a83b
000000f0: 966f c7bc 131d ad3c c9c3 a5bc f361 c1bc
00000100: e398 5cbc 974b 03bc d0a0 10bd c17e 843b
00000110: ff65 87bc e694 c9bc 4ac9 63bc c77f 8c3a
00000120: 56ad 853c 66b0 353d d771 8f3b 4993 53bb
00000130: f778 eabc 4006 df3c 0f7a 273d dd73 223d
00000140: 810c 24bb 72c3 4c3c ce11 643c 6487 dfbb
00000150: 7e94 bd3b 9909 1bb9 8a3b fdb8 4ec9 853b
00000160: b387 5ebc 9076 a23c 7c4d 80b9 3c11 dfbc
00000170: 0b94 fbbc 4379 b03c 715a 893d ba73 07bd
00000180: 3c60 093d 77e0 d9bc 6f37 293c fdf2 ddbc
00000190: e2aa 343c 06ca 9abc 3e27 87bc 4b5a 01bc
000001a0: 0545 26bc da45 63bc be69 f13c 6346 a83b
000001b0: dc74 e4bb f4e7 ef3b dc92 4e3c ffaf 0b3d
000001c0: 24fa 143b ef2b c63c 3f1f 273b 9800 fd3b
000001d0: 9954 8dbc 218b afbc b22f 4cbb 1882 b3bc
000001e0: 5222 0c3d 4281 4ebd 596f 763c a797 cf3c
000001f0: 67a7 4fbc 8f45 1b38 12a9 833d 4239 ed3c
00000200: 8b7f 1eb8 25c4 d2bc 3a4c 30bd d2cf 183d
00000210: ceab 01bc de0a 1bbc f71b 7cbd 00c7 0dbd
00000220: 859d 1ebc ee37 8dbc 0480 adbc d679 a8bc
00000230: 34c3 8abc c071 1ebd 5b6c 04bb 2b62 403c
00000240: 06fa 3fbc 396a 833c 25f2 603d d264 8cbc
00000250: 823a f6bb 1389 ddba 0974 67bc 3db9 c93c
00000260: 3b50 ec3a e4b0 66bd 09c0 42bc 9c13 54bb
00000270: fc3d 24bd 5bc7 043a befa b83d d5f1 273d
00000280: af44 923d abf1 c23c 34a9 373d 5d4a 0e3d
00000290: e925 133c a31d 4f3c 149d 2d3c c1d7 063d
000002a0: 428e 88bb 5226 d8bc e3f4 c0b8 c25c 873b
000002b0: fcee 13bb b0af bf3c 5892 5bbc 5d16 0c3c
000002c0: 49d5 193b 26e8 17bc 875c 053d cf88 543d
000002d0: 14db 30bd 16c3 debc 024b f33c 5542 71bc
000002e0: b8b8 193c 5820 bb3c c058 49bc d412 953b
000002f0: 44c5 db3a 129b 733d ff0f 6d3a 0f35 13bc
00000300: 100f b1bc 4230 4e3d 478a 823b 0227 113d
00000310: 2b15 55bb 7107 10bd 248b c9bc 32e4 a43c
00000320: 7cdd 03bd 6abf 393d 4101 f6ba 4aba 7fbb
00000330: 6b14 d7bc 73b1 6dbc 3855 e438 c62d 34ba
00000340: 90b0 9ebc 24a2 123d f2cf 553d e5ac 8eba
00000350: c064 da3c db49 d73c df04 c33a 5a07 2d3b
00000360: 8bf4 993c af65 1abc 96a5 07bd 08ba 2c3d
00000370: 8944 143d f26d d73c 5050 4cbd 2357 163d
00000380: 6505 3b3d f138 873c 3b97 703c ae92 ec3c
00000390: 738c 02bc 430f 4c3c ec71 02bd 0836 a23c
000003a0: f4b4 533d e855 6abc 160c e23b 0375 033d
000003b0: 6e87 7ebb 3e1d d1ba d964 85bc 841c 80bc
000003c0: c4fe 573d 7188 c23d fd01 13bd 08e8 dfbc
000003d0: d151 863d 7f67 253d 1854 443d 3273 213c
000003e0: 8d1f 763b e160 593b d29b f9bc 497a 0abd
000003f0: 0da0 c9ba ec4e 663c ae26 bcbc cbe5 25bd

fc2.bias f4 [80]
0.0069972873 -0.0035146847 0.004951789 0.0087411385 -0.0011408018 -0.005449392 0.00605405 0.006736034
-0.005917126 0.0058443933 0.005980664 0.0011523046 0.0059897644 -0.0053137625 0.0010899786 -0.010056073
0.004426109 -0.00852497 -0.00026911887 -0.0044459375 0.0068501527 -0.008042243 -0.004518864 -0.009560089
0.005869016 0.0027246643 -0.000525486 0.006356741 0.007689407 -0.0023412807 0.0031218345 0.0025306742
-0.0034577798 0.00091804954 0.0062070093 0.0062266844 -0.006521044 0.0016943061 -0.0026058613 0.0039381557
-0.006863308 0.0033938244 0.010747841 -0.0051278034 0.00027958807 -0.0008522768 -0.009787449 -0.0032753833
0.005762253 0.0067470367 -0.0015956925 0.008992422 -0.0014844658 -0.0015011582 0.0012405782 0.0019208681
0.0010415545 -0.0003392326 -0.008843068 -0.0069346004 -0.003229054 0.006357148 -0.010132162 -0.0074764765
0.007411557 0.005899485 -0.0015842789 0.012202269 -0.0024033291 0.0011431293 0.0035099562 -0.0023007651
0.0077980985 -0.0042439196 0.0074019833 -0.0050493088 0.0075625693 0.009048301 0.004286759 0.0073935855
00000000: 8049 e53b a056 66bb 9e42 a23b fe36 0f3c
00000010: f586 95ba d090 b2bb 0d61 c63b f3b9 dc3b
00000020: 73e4 c1bb 5382 bf3b 72f9 c33b ed08 973a
00000030: c945 c43b 121f aebb 9ddd 8e3a 3ac2 24bc
00000040: e508 913b 51ac 0bbc 8618 8db9 3aaf 91bb
00000050: 3f77 e03b 9dc3 03bc fb12 94bb eba1 1cbc
00000060: e050 c03b 4890 323b c5c0 09ba 354c d03b
00000070: 6cf7 fb3b 2c70 19bb b197 4c3b abd9 253b
00000080: eb9b 62bb 43a9 703a 2b64 cb3b 3709 cc3b
00000090: 7bae d5bb 7b13 de3a 19c7 2abb a50b 813b
000000a0: 9ae5 e0bb ed6a 5e3b b617 303c 2207 a8bb
000000b0: ad95 9239 546b 5fba 895b 20bc d0a7 56bb
000000c0: 48d1 bc3b 3f16 dd3b 8e26 d1ba f454 133c
000000d0: 6892 c2ba 83c2 c4ba e69a a23a a3c5 fb3a
000000e0: c584 883a 07db b1b9 84e2 10bc a53b e3bb
000000f0: 899e 53bb 9f4f d03b 5e01 26bc 3bfd f4bb
00000100: a5dc f23b 7850 c13b 94a7 cfba 07ec 473c
00000110: 2c81 1dbb 0ed5 953a 4b07 663b 6fc8 16bb
00000120: 3187 ff3b 9410 8bbb 568c f23b ac74 a5bb
00000130: 6ecf f73b 533f 143c f177 8c3b e445 f23b

fc3.weight f4 [40, 80]
-0.020551952 0.030924583 -0.023163328 -0.040778164 0.020667301 0.08416689 0.045359213 0.039152697
0.062197324 -0.0032324938 0.020438977 -0.0112550575 -0.039946046 -0.001648393 -0.04456227 0.09251074
0.011033722 -0.012432406 0.037231117 0.02680151 -0.014120107 -0.016789112 -0.04145589 -0.025540464
-0.04511062 0.05983454 0.033836562 0.050072104 -0.038651153 0.078538194 0.017472422 0.078935996
-0.010886679 -0.023188092 -0.014976405 -0.0068171 -0.019516233 0.04693332 0.044866983 -0.030183304
-0.00030705848 0.037143018 0.066873625 0.09473378 0.02754574 -0.034169555 -0.015556241 0.009661792
-0.025039708 -0.009988307 -0.034745563 -0.0021717628 -0.010149285 0.010390058 -0.034506474 0.078803286
-0.035161644 0.099808075 0.042063486 0.015142368 -0.016029622 -0.028796798 0.027294844 -0.021558799
-0.026307806 -0.041934915 0.01254414 -0.022573024 0.007328893 -0.0050357385 -0.025715886 0.010751233
-0.029234096 0.06426813 0.0065713795 0.07253924 0.033401515 -0.042763934 0.0981501 0.07044323
0.051572945 -0.008472864 -0.038132437 0.058403395 0.031379823 0.05165919 0.054453637 0.034201376
-0.0059765712 -0.0031384735 -0.016735552 0.01158549 -0.026736323 0.0060857413 0.07112485 -0.011782249
0.008177158 -0.0004497288 -0.009158865 0.018814726 0.0850105 -0.038622193 -0.026662096 0.009614849
-0.016927969 -0.017237907 0.018688327 -0.02274384 -0.030442962 0.08091351 0.06471874 0.07304515
0.07128793 -0.046372328 0.07801074 0.0002520768 0.0746398 0.07575122 -0.011819806 0.004893374
0.07990549 -0.01880028 0.057673875 -0.042694576 -0.037625268 -0.03233962 -0.025295354 -0.0049727093
-0.030348094 0.03485606 -0.03920241 0.007527782 -0.0072509623 -0.04698545 -0.04690523 -0.034833398
-0.038140997 0.010285505 0.021843517 0.03587606 -0.0238056 -0.027549656 -0.017875278 0.043892507
-0.010280293 -0.031583488 -0.011136106 0.073574446 -0.04345615 -0.044759475 -0.031210706 -0.010690002
-0.03377164 0.05110916 0.013488494 0.068051554 -0.009493684 -0.036423597 -0.016141713 0.08287728
-0.03335601 0.022512056 -0.025343418 -0.037004367 -0.022948077 -0.033347677 -0.04444625 -0.016213134
-0.036896355 0.05644742 0.09434919 -0.023800284 0.05944255 -0.009141921 -0.038099617 -0.015457963
-0.0016696578 0.07294774 0.037035372 -0.01935031 -0.0017422253 -0.031480074 0.06557252 -0.0031233137
0.04072757 -0.025428647 -0.048640538 -0.02702625 0.033853132 -0.050223604 -0.0331236 0.06097814
0.03630235 0.09871536 0.00853373 0.06184033 0.055681832 0.066385515 -0.03013968 0.035080582
-0.04606598 0.034446858 -0.0046497807 0.029007856 -0.02740683 0.0015815564 0.0034452612 0.0050642937
0.08064735 -0.0049073305 -0.0037342247 0.063531466 -0.009407343 0.08496888 0.08385798 -0.039807886
-0.037442427 -0.017544668 -0.025549512 0.09685533 -0.00041984234 0.015822303 -0.01312338 0.019946802
0.055600267 0.0013213106 -0.02920362 -0.033558458 0.03962416 0.061160006 0.054781526 0.07185483
0.09435366 -0.031054832 -0.011986264 -0.045667686 -0.019076603 -0.023708224 -0.03310677 -0.031710092
0.003706336 0.003615988 -0.02068035 -0.020254362 0.0049624704 -0.03228149 0.029260876 -0.027022554
0.040150985 -0.014187485 -0.022159891 0.007175034 0.051859938 -0.013039908 -0.010461501 0.08231208
00000000: 915c a8bc 8d55 fd3c 05c1 bdbc 0107 27bd
00000010: 794e a93c b15f ac3d 95ca 393d 945e 203d
00000020: 9fc2 7e3d 3fd8 53bb a46f a73c 2267 38bc
00000030: 779e 23bd e40e d8ba ed86 36bd 4576 bd3d
00000040: c9c6 343c 4ab1 4bbc a87f 183d d78e db3c
00000050: 0558 67bc 5289 89bc a7cd 29bd 3c3a d1bc
00000060: eac5 38bd 1015 753d 3598 0a3d 6818 4d3d
00000070: ac50 1ebd a2d8 a03d 5322 8f3c 32a9 a13d
00000080: 0b5e 32bc f4f4 bdbc 985f 75bc fb61 dfbb
00000090: 82e0 9fbc 273d 403d 71c6 373d fa42 f7bc
000000a0: b1fc a0b9 4723 183d 0af5 883d c903 c23d
000000b0: 9ba7 e13c 60f5 0bbd 9bdf 7ebc 7e4c 1e3c
000000c0: 1320 cdbc ffa5 23bc 5d51 0ebd 2254 0ebb
000000d0: 3049 26bc 103b 2a3c a956 0dbd 9e63 a13d
000000e0: a805 10bd 2d68 cc3d c34a 2c3d b217 783c
000000f0: 8e50 83bc 43e7 ebbc 7099 df3c 149c b0bc
00000100: 7883 d7bc f2c3 2bbd f085 4d3c 10eb b8bc
00000110: 3627 f03b d602 a5bb 1faa d2bc f125 303c
00000120: 587c efbc 029f 833d ba54 d73b 748f 943d
00000130: 07d0 083d 3c29 2fbd eb02 c93d 8a44 903d
00000140: 273e 533d c4d1 0abc c230 1cbd 6638 6f3d
00000150: 2188 003d 9698 533d c70a 5f3d be16 0c3d
00000160: 1dd7 c3bb d9ae 4dbb ff18 89bc 11d1 3d3c
00000170: 2206 dbbc e66a c73b e8a9 913d 560a 41bc
00000180: 7df9 053c 94c9 ebb9 100f 16bc 5721 9a3c
00000190: fc19 ae3d 4e32 1ebd 786a dabc 9a87 1d3c
000001a0: 86ac 8abc 8336 8dbc 4318 993c 4a51 babc
000001b0: 8563 f9bc fbb5 a53d 428b 843d b298 953d
000001c0: 68ff 913d e9f0 3dbd 18c4 9f3d 2d29 8439
000001d0: c0dc 983d 7523 9b3d dca7 41bc 9958 a03b
000001e0: 7da5 a33d 0b03 9abc 713b 6c3d 82e0 2ebd
000001f0: f41c 1abd 8d76 04bd 3438 cfbc 1cf2 a2bb
00000200: 919c f8bc 3ac5 0e3d b592 20bd 9dab f63b
00000210: 7b99 edbb d173 40bd b31f 40bd 77ad 0ebd
00000220: bc39 1cbd 8984 283c 2df1 b23c c7f2 123d
00000230: f603 c3bc d1af e1bc 2d6f 92bc a1c8 333d
00000240: ad6e 28bc b05d 01bd 3774 36bc 33ae 963d
00000250: 13ff 31bd b655 37bd 98ad ffbc 1e25 2fbc
00000260: 2254 0abd d757 513d d8fe 5c3c 9d5e 8b3d
00000270: 668b 1bbc e930 15bd a03b 84bc 90bb a93d
00000280: 50a0 08bd 346b b83c 009d cfbc e491 17bd
00000290: 9bfd bbbc 9397 08bd 450d 36bd 68d1 84bc
000002a0: a220 17bd 6935 673d 263a c13d d0f8 c2bc
000002b0: 087a 733d ffc7 15bc 580e 1cbd 6543 7dbc
000002c0: 6bd8 daba a065 953d 67b2 173d 8b84 9ebc
000002d0: 615b e4ba 40f1 00bd e34a 863d 82b0 4cbb
000002e0: f4d1 263d bd4f d0bc 4d3b 47bd 2766 ddbc
000002f0: 95a9 0a3d 44b7 4dbd 9dac 07bd 37c4 793d
00000300: c6b1 143d 472b ca3d 0fd1 0b3c 494c 7d3d
00000310: a212 643d 21f5 873d 7de7 f6bc a8b0 0f3d
00000320: aeaf 3cbd 2618 0d3d 305d 98bb e2a1 ed3c
00000330: 4a84 e0bc 3a4c cf3a e4c9 613b 60f2 a53b
00000340: 702a a53d accd a0bb e5b9 74bb c91c 823d
00000350: 4221 1abc 2a04 ae3d bcbd ab3d 980d 23bd
00000360: 3b5d 19bd d6b9 8fbc 364d d1bc 165c c63d
00000370: 491e dcb9 c69d 813c 7203 57bc 7a67 a33c
00000380: 1bbd 633d d42f ad3a 6e3c efbc 9874 09bd
00000390: f14c 223d ea82 7a3d 9862 603d a028 933d
000003a0: 7e3c c13d b466 febc 0962 44bc 0a0e 3bbd
000003b0: 8946 9cbc c037 c2bc f79a 07bd 71e2 01bd
000003c0: 00e6 723b 36fa 6c3b d669 a9bc 7aec a5bc
000003d0: 389c a23b 9839 04bd 81b4 ef3c 675e ddbc
000003e0: 5c75 243d a072 68bc a988 b5bc 8c1c eb3b
000003f0: 166b 543d 57a5 55bc b766 2bbc 3c93 a83d

fc3.bias f4 [40]
0.0127552515 -0.0007140314 0.010313738 7.440057e-05 -0.0020588113 0.022318928 -0.008313838 0.008975558
0.005393436 0.0029755814 -0.00053734356 -0.009469448 0.0019288462 -0.008010884 0.015039314 0.009429984
-0.0059875445 0.011114016 0.00654062 -0.0037304088 0.0028507705 0.002191648 -0.00024057482 0.026924651
0.01553617 -0.0022656776 -0.004744627 0.0015721621 -0.0049473047 0.008714546 0.013346489 0.011659674
0.0028806727 0.0015917489 0.01809805 0.00032807444 0.012374839 0.009483378 0.031540688 0.009973708
00000000: 67fb 503c d62d 3bba f4fa 283c 8007 9c38
00000010: 1fed 06bb 2fd6 b63c c436 08bc 380e 133c
00000020: 6cbb b03b f901 433b 84dc 0cba be25 1bbc
00000030: 57d1 fc3a 1540 03bc 7467 763c 3880 1a3c
00000040: 2a33 c4bb 9017 363c b252 d63b e079 74bb
00000050: fed3 3a3b c0a1 0f3b d042 7cb9 1691 dc3c
00000060: 6c8b 7e3c c37b 14bb d178 9bbb 0211 ce3a
00000070: 001d a2bb 75c7 0e3c 3bab 5a3c 3808 3f3c
00000080: abc9 3c3b 3ba2 d03a 5d42 943c 6801 ac39
00000090: d6bf 4a3c 2c60 1b3c cf30 013d c368 233c
