outfiles/cnn/ORL32_3Train_cnn.pth (torch, 334655 bytes, 10 tensors)

conv_layer1.weight f4 [8, 1, 5, 5]
000000 ec c7 4e be 9c de 6e be d7 1c 88 be 42 ae 0c be
       -0.20193452 -0.23327106 -0.26584503 -0.13738349
000010 ed 51 11 bd e0 4c 85 bc a8 0b 0d be 79 0b 80 be
       -0.03547852 -0.016272008 -0.13773978 -0.25008753
000020 2d 00 18 be 55 9a 37 be ea c8 55 3d 66 cc 0f 3e
       -0.14843817 -0.17929967 0.05219356 0.14042816
000030 da a6 6e 3e 42 fc 03 3e de 11 08 3e 0e 79 43 3e
       0.23305836 0.12889197 0.13288066 0.19089147
000040 88 58 f1 3d c9 45 51 3e 39 3f 2e 3e cd 34 11 3e
       0.11784464 0.20436777 0.17016305 0.14180298
000050 f4 4a a7 3d 09 f1 08 3e dd c3 32 3d 89 7b 00 3c
       0.08168593 0.13373198 0.04364382 0.007841953
000060 a7 a7 80 bd 73 9b 96 3d 3c 3b e4 3c c6 51 9a bd
       -0.06281977 0.07353868 0.027860276 -0.07535128
000070 6f c5 c1 bd c7 51 64 bc 43 72 a5 bd 5e db bd 3d
       -0.094614856 -0.013935513 -0.08078434 0.092703566
000080 ee 27 8f bc c3 79 1c be f1 78 90 be 07 c2 74 3e
       -0.017475095 -0.15280823 -0.2821727 0.2390214
000090 30 8b 69 3e c8 d4 2f bd 69 24 1a be dd bd 57 be
       0.22807002 -0.042927533 -0.15052952 -0.21068521
0000a0 59 bd 75 3e a6 32 33 3e ad 74 6a 3b 80 c4 54 3c
       0.23998012 0.1749979 0.003577511 0.012986302
0000b0 1a 77 95 bd 3b f1 2d 3d 92 0c 40 bd 54 eb ee 3d
       -0.072981074 0.042466383 -0.046886988 0.11665979
0000c0 b1 75 a6 3c 83 ea 33 bd f3 92 3c bd d7 2a 70 bd
       0.020319792 -0.04392482 -0.04603858 -0.058634605
0000d0 54 e5 ce bb d7 90 2c be 8f b2 e1 3d 04 9d 82 3d
       -0.006313959 -0.16852127 0.110203855 0.063776046
0000e0 a8 38 48 3d c1 79 2d 3c 66 fb 38 bd c4 af 1e 3e
       0.048882157 0.01058811 -0.045161627 0.15496737
0000f0 cf e3 6c bd 24 76 a8 3d 95 99 f5 3d 1f 5b 52 be
       -0.057834443 0.082256585 0.11992184 -0.20542572
000100 69 5d ea 3d c1 96 82 3d b9 ec c0 3c 3b 06 e1 3d
       0.11443598 0.0637641 0.023550378 0.109875165
000110 09 b1 46 be 59 68 4f 3c c5 89 9c bd 39 a0 83 3d
       -0.19403471 0.012659156 -0.07643465 0.064270444
000120 f4 88 5f 3b 95 f8 ec bd 87 eb e3 bc 15 19 5b 3e
       0.003410873 -0.11570851 -0.02782227 0.21396287
000130 64 5e 47 3d 52 8b 08 3e 96 41 2b be 60 4f 2e 3d
       0.048674002 0.13334396 -0.16724238 0.042556167
000140 4f ea ef 3c b1 7f 6e 3e a4 80 fc 3d 3c 52 80 be
       0.029286532 0.23290898 0.12329224 -0.2506274
000150 20 fd 70 be e9 e5 08 3e 37 ac 82 3e 4e 1b 0a 3d
       -0.2353406 0.13368954 0.25522014 0.033717446
000160 cc 27 3f be 3c f9 e1 be c3 29 8f 3d 8d 37 35 3e
       -0.18667525 -0.44135463 0.06990387 0.17696972
000170 00 5f 80 3e c5 1f f2 bd ff cd bd be 74 76 4e 3e
       0.2507248 -0.11822466 -0.37071225 0.20162374
000180 0c 5b 5c 3e 66 b7 63 3e 4f b2 dc bd 1f 75 a3 be
       0.21519107 0.2223793 -0.10776197 -0.31925294
000190 40 0b 11 3e 4f d7 2c 3d 57 59 8a bc a8 53 66 bc
       0.14164448 0.04219752 -0.016888304 -0.014058031
0001a0 2a 5e 55 3c 28 8d 0a 3e 1f 8e 24 3e 0d 1e 06 3e
       0.013022939 0.1353041 0.1606984 0.13097401
0001b0 77 20 ef bc d3 50 b7 3d ee e6 4d bd c2 2b 1e 3d
       -0.029190285 0.08950963 -0.05026906 0.03861595
0001c0 b6 1e 73 3d 8e f8 21 3d be 3f 91 3c 11 6a 10 be
       0.05935546 0.03954368 0.01773059 -0.14102961
0001d0 31 1a 30 bd e8 18 2a bd cf b1 35 bd c5 1f 1f be
       -0.042993728 -0.04152766 -0.044359025 -0.15539463
0001e0 0b 6b 23 be fc 15 cd bd e4 30 8b bc 9d d9 07 be
       -0.15958802 -0.10013959 -0.016991086 -0.13266607
0001f0 22 61 5a bd a2 a1 f7 bb b3 22 e3 3b b7 3e ee 3b
       -0.05331529 -0.00755711 0.0069316267 0.00727066
000200 70 97 81 3b 9e e2 fb bb 01 44 57 3c 98 19 7b bc
       0.0039548203 -0.007686927 0.013138772 -0.015325926
000210 88 a6 85 3c 6d 10 05 bc 28 ae 66 bc 9d 92 0b b9
       0.01631476 -0.008121592 -0.014079608 -0.0001331069
000220 49 d5 63 bb 40 ae 42 3c dd 5e 9c 3c 56 44 0e 3b
       -0.003476458 0.011882365 0.019088203 0.0021708212
000230 4e 92 9e bc 20 4e 13 ba 7d 4c 43 3c ae 83 bc 3b
       -0.019356873 -0.00056192465 0.011920092 0.005753002
000240 ac 1c 79 bc ae de 43 bc c8 cc 87 3b 6a 64 45 3c
       -0.01520459 -0.011954946 0.004144285 0.012047866
000250 3a c5 29 bc b0 7b 7e 3c d0 59 16 3d 3f 29 52 3d
       -0.010361964 0.015532419 0.036706746 0.051308867
000260 91 c3 0c 3c 28 20 00 bd e3 bb 83 3c bc 22 ba bc
       0.008591549 -0.031280667 0.016080802 -0.02272164
000270 5d c4 da 3c ba 1a 19 bd bf 22 71 bc 0a 01 1a bd
       0.026704961 -0.037379004 -0.014717757 -0.037598647
000280 47 98 35 bd b6 92 18 bd 30 7f 55 bc c8 ba 16 bc
       -0.044334676 -0.03724929 -0.013030812 -0.009199806
000290 64 d1 c0 3c 84 85 94 bc 4a b4 ae 3c 32 52 a4 bb
       0.023537345 -0.018130071 0.021326203 -0.0050146813
0002a0 9a dc 8b 3c 44 a4 e3 3a e8 d8 0a bd 69 a5 f7 bb
       0.017072964 0.001736768 -0.033898264 -0.00755756
0002b0 8c 28 b7 3c d1 7d 07 3d ad 91 24 3d bf d7 9b 3c
       0.022358201 0.033078972 0.04017799 0.019023774
0002c0 b8 07 1c be 5c 46 e7 bc 48 8f 84 3c d5 94 1f bd
       -0.1523732 -0.028231792 0.016181603 -0.038960297
0002d0 8a c5 a4 3c 54 f6 01 be 73 b4 55 bd fc 0b 12 3e
       0.020113725 -0.12691623 -0.052174043 0.14262384
0002e0 1d 82 da 3d d1 28 83 bd 72 47 2d be 72 42 fd 3d
       0.106693484 -0.064042695 -0.16921785 0.12366189
0002f0 4c 68 22 3e 4b f2 03 3e dd c1 e4 bd 56 65 09 be
       0.15860099 0.12885396 -0.11169789 -0.13417563
000300 90 7b 89 bd bb e1 8d bd 55 95 b4 bc 43 95 3d bc
       -0.06713021 -0.0692782 -0.022043863 -0.011571231
000310 4b 24 bd bd b8 80 09 3e 41 32 95 3d f5 22 24 bc
       -0.09235438 0.13428009 0.07284976 -0.0100181

conv_layer1.bias f4 [8]
000000 d3 5a 03 bc 06 f2 75 3c 9d c2 ef ba 76 63 bb 3a
       -0.00801726 0.015011316 -0.0018292252 0.001429661
000010 3a 0a 12 3c a2 2a 7a 3c 2b be 9d bb c3 f8 70 3b
       0.008913571 0.0152689535 -0.0048139296 0.0036769367

conv_layer2.weight f4 [16, 1, 5, 5]
000000 ed 84 3e be 97 5b 4b be 82 0a 0b be a4 2a 5d bd
       -0.18605395 -0.19859158 -0.13578227 -0.053995743
000010 05 97 80 3d c7 f8 dc bc 4a 31 5a 3a 1d 24 2e 3d
       0.06278805 -0.026974095 0.00083233847 0.04251491
000020 e4 ea 16 bd d4 e6 30 bd 0a c6 63 3e 3b 6e b3 3e
       -0.036845103 -0.043188885 0.22243515 0.35045037
000030 4b 4c 81 3e 54 44 05 3e e9 b3 9d bd f2 ce d7 3d
       0.2525352 0.13014346 -0.07700331 0.105375186
000040 ed 39 a5 3c b3 37 b0 bd 94 45 7b bd 78 d1 b1 bd
       0.020169223 -0.08604374 -0.06134565 -0.08682531
000050 06 77 97 bd d4 20 6f bd 8a a3 ed bd 40 84 00 be
       -0.07395749 -0.058380917 -0.11603458 -0.1255045
000060 9d c2 91 bd e7 84 31 bd 50 07 c0 bc 5e 35 bb bd
       -0.07117198 -0.043339636 -0.023440987 -0.09141038
000070 47 54 f7 bd e6 85 ed bd 36 3f 2e be 4b 5e 18 be
       -0.120766215 -0.11597805 -0.170163 -0.1487972
000080 f7 5c 97 3d de c9 31 3e bd 91 96 3d 2b dd 61 3c
       0.073907785 0.17362162 0.07352016 0.013785641
000090 d6 64 90 bd d0 95 1e 3d d8 4c 6f 3e a6 f8 cb 3d
       -0.07050483 0.03871709 0.23369157 0.09959535
0000a0 2f 70 2c 3d e5 de 9e bd e2 99 e4 bc 80 f5 79 bd
       0.042099174 -0.077573575 -0.027905408 -0.061025143
0000b0 de fd fc bd e8 1b 86 3d 0a 2f 11 3e 67 24 98 3d
       -0.12353109 0.065482914 0.141781 0.07428818
0000c0 d3 21 5f bc 3d 20 cc bc 76 16 86 bc ef 65 00 be
       -0.013618904 -0.024917716 -0.016368132 -0.12538885
0000d0 6d b3 10 bb e9 7e e5 3c 9a e0 66 3d 40 9e 49 3d
       -0.0022079602 0.028014617 0.05636654 0.049223185
0000e0 cf 3c 5b 3d ae 20 08 3d 3e 9b 85 3e 18 00 96 3e
       0.05352479 0.03323429 0.26095003 0.29296947
0000f0 10 2a 91 bd 21 86 58 bd 7b 4f 36 be b0 17 b2 3d
       -0.07088101 -0.05286229 -0.17803757 0.08695924
000100 bf 4b 51 3e a5 8e bd bc 5b 35 da bd 62 bf 3d be
       0.20439051 -0.023139307 -0.10654708 -0.18530038
000110 db c1 a5 bd 35 e6 0f bd 7b d2 8a bd 52 ee a7 bd
       -0.080936156 -0.035131652 -0.06778427 -0.08199753
000120 41 fd 95 bd 92 2e ef bc 30 fa 20 bd c9 b3 64 bd
       -0.07323695 -0.029197011 -0.039301097 -0.05583552
000130 cd 6f 5c bd 5b 64 28 3c f6 70 84 bd 27 c8 c7 bd
       -0.05381756 0.010277833 -0.06466858 -0.09754973
000140 c8 75 39 3d 13 d3 f7 bc ab cb b7 3d 5e f2 ef 3d
       0.04527834 -0.030252015 0.089743935 0.1171615
000150 e9 f2 12 bb 10 99 e1 3d 04 5c ae 3a 67 94 1f bc
       -0.0022422618 0.110155225 0.0013302569 -0.009739972
000160 bd 34 e3 3d be 4d ea bb b3 b4 b9 3d 6e a6 9b bd
       0.110940434 -0.007150381 0.09067669 -0.07600103
000170 11 b6 cc bd 8a a6 03 bd 50 f4 71 bd 8a 8d 88 3c
       -0.09995664 -0.032141246 -0.059070885 0.016669054
000180 36 c9 ae bd 29 dc 90 bd f5 8f 06 bd 79 3d 5d bd
       -0.08534472 -0.07073242 -0.032852132 -0.054013703
000190 d8 32 93 bb c0 2a 54 3d 53 75 96 3c c2 7d 87 bd
       -0.004492145 0.051798582 0.018366491 -0.06615783
0001a0 81 61 6a bd af cf 0b bd 23 4e 10 3e fd 56 26 3e
       -0.057221893 -0.03413361 0.14092307 0.16244121
0001b0 5d c8 64 bc 92 36 15 bc 8b 56 7a bd 22 34 e2 3d
       -0.013963786 -0.009107249 -0.06111769 0.110451
0001c0 18 6f 10 3e 5a 3a cf bd cd e7 18 bd bb 40 8b bd
       0.14104879 -0.101185516 -0.037330437 -0.06799456
0001d0 87 fd 54 3c 13 ef a7 3d 74 af da bd 78 72 77 bd
       0.012999899 0.08199897 -0.10677996 -0.0604119
0001e0 6b d5 14 bd c7 ca 69 bd a5 71 75 bd 54 8d 25 bd
       -0.036336344 -0.05707815 -0.059922833 -0.040417984
0001f0 27 15 16 bd d9 2b 62 bd d0 5b ec 3c 24 e9 58 bd
       -0.036641266 -0.055217598 0.028852373 -0.052956715
000200 8a 2a a7 bc ab 9c c8 38 9f 64 a7 3d 4f ed d8 3d
       -0.020406026 9.565925e-05 0.08173489 0.10592138
000210 6f aa 73 bd b8 23 8e bd b9 52 18 bd 68 3c 89 3d
       -0.05948871 -0.069404066 -0.037188265 0.06700975
000220 32 c7 fc 3d dc ad a0 bd d4 f8 3a bc d4 fe 2a bc
       0.12342681 -0.07845661 -0.011411864 -0.010436732
000230 ad 54 87 3d ef 50 31 3d 7c 33 60 bd 20 e4 91 bd
       0.066079475 0.043290075 -0.0547366 -0.071235895
000240 be c5 49 bc dc 81 a9 bc 95 04 9d 3c 32 6f a5 bc
       -0.012315212 -0.020691805 0.019167224 -0.020194624
000250 43 b2 9a bc 86 65 4d bd 3d 52 22 3e 46 87 e3 3d
       -0.01888383 -0.05014565 0.15851684 0.11109786
000260 91 e9 1a be f0 cc 1a be e4 47 79 bd 72 ae e5 3d
       -0.15128161 -0.1511724 -0.060859576 0.112149134
000270 2b c1 87 3e 0f 07 c4 bd f2 7b 27 be 36 07 d1 bc
       0.26514563 -0.09571659 -0.16355875 -0.025516134
000280 e8 61 4a 3d 39 03 17 3e 71 6f e6 3d 41 b8 a0 be
       0.049409777 0.14747323 0.112517245 -0.31390575
000290 d2 4c 46 be 4c 59 1d be 10 73 6b 3e 18 62 85 3e
       -0.19365242 -0.15366095 0.22993112 0.26051402
0002a0 b5 2f 21 be 68 6b 07 be bf eb aa be 09 28 2a be
       -0.15740855 -0.13224566 -0.33382985 -0.16616835
0002b0 e3 47 e2 3d 3d 4f 9f 3d e5 70 1d 3e cf 71 ff bd
       0.110488676 0.077787854 0.15375097 -0.12472879
0002c0 5b 42 bc bd b4 88 5c 3e 2c ba 46 3e c2 81 4a be
       -0.09192344 0.21536523 0.19406956 -0.19776061
0002d0 7f ce 0b be de 17 61 be 07 5c 88 3e 4e cb 18 3e
       -0.13652991 -0.21981761 0.2663271 0.14921305
0002e0 79 ba d7 bc 55 0a 3e bb 83 f8 30 be b5 50 9c bb
       -0.026334034 -0.0028997858 -0.172823 -0.004770363
0002f0 c8 34 6d 3e e7 8c 55 be 66 69 4d 3d 0c 27 38 be
       0.23164666 -0.20854531 0.050149344 -0.17983645
000300 75 fa 91 3d dd be 4a bd b1 a9 a7 bd 8e 31 9f 3c
       0.07127849 -0.049498428 -0.08186663 0.01943281
000310 f3 95 38 be 4d 83 68 3d 76 0e a0 bc 30 38 b6 3c
       -0.18025951 0.056765843 -0.019538146 0.02224359
000320 9d b5 b0 3c 6a f6 42 3c e7 cf 1c bc 60 5a 1d bd
       0.021570975 0.01189957 -0.009571052 -0.038416266
000330 65 7c 98 bc e7 a3 f9 3c 40 fc 46 3c cb 88 4f bc
       -0.018614003 0.030473663 0.012145102 -0.012666891
000340 c0 00 ac bc 6f 2b c7 bc db 17 14 bd 6e 77 9c bc
       -0.020996451 -0.024312703 -0.036155563 -0.019099917
000350 05 32 dd bc fb 62 63 bc 70 b5 04 3b 38 12 69 3d
       -0.02700139 -0.013878579 0.0020249747 0.05690214
000360 b2 54 36 3d 03 3e c1 3c 96 ea 11 3c 65 c5 ac ba
       0.044514365 0.02358914 0.008906027 -0.0013181387
000370 a9 40 26 3e ba a2 17 3e fc 20 d9 3d b1 d0 17 3d
       0.16235603 0.14808169 0.106019944 0.037064258
000380 5d 24 08 bb cc a4 3b bc 0b 86 05 bd 42 3c 93 bc
       -0.0020773627 -0.011452865 -0.032598536 -0.01797307
000390 39 8a 14 bd 34 b4 d8 bc 8e a4 e1 bc e1 76 d7 bb
       -0.036264632 -0.026453115 -0.027544286 -0.0065754508
0003a0 e9 10 f9 bb 9d 82 38 3d 40 cc 1d 3d 50 13 f3 3b
       -0.007600893 0.045046438 0.038524866 0.0074180737
0003b0 3e 93 a7 3a 1a 27 c3 bb 27 c1 53 3d a7 32 d0 3d
       0.001278497 -0.005955589 0.051697876 0.10165911
0003c0 b1 f5 70 3c c4 75 8b 3b 6e d9 00 3d a6 bd 0a 3d
       0.014707015 0.004255982 0.031457357 0.03387227
0003d0 83 2f cf 3d 67 d4 de 3d 81 87 c4 3d 09 4e e5 3d
       0.10116484 0.10880356 0.09596158 0.11196525
0003e0 e4 0c e9 3d 4c 48 ba 3d ba 32 8f 3c a3 85 cb bc
       0.11379412 0.09095821 0.017480243 -0.024843996
0003f0 82 4a 6e 3a 25 82 e5 bb 31 09 5f bc a5 09 8f 3b
       0.0009090082 -0.00700404 -0.013613031 0.0043651634

conv_layer2.bias f4 [16]
000000 67 2a 1d bd 4b 1d 86 bc ce c5 90 bc 67 c9 f5 bc
       -0.038370516 -0.01637139 -0.017672446 -0.030003263
000010 30 55 d9 bc 24 ce 46 bc 12 43 9e bc cb ae 0e bc
       -0.026529878 -0.012134109 -0.019319091 -0.008708666
000020 10 37 dd bb c9 40 b1 bb fc af 3a 3c da a4 0b 3c
       -0.0067509487 -0.0054093343 0.011394497 0.00852319
000030 df 16 7b bc 95 a9 91 37 48 64 a6 bc b7 6a 08 bd
       -0.015325277 1.7364315e-05 -0.02031149 -0.033304896

fc1.weight f4 [120, 576]
000000 e9 24 09 3d a2 86 ba 3c 8c 2d c9 3c f8 ca 58 3c
       0.033482466 0.022769276 0.024557851 0.013231985
000010 0b 0a ba bb 88 70 03 bd 23 ad 32 bb fb 23 9f bc
       -0.0056774667 -0.03208974 -0.0027263842 -0.019426337
000020 94 32 fd bc 2c 67 6d bb ff a7 16 bb 13 35 04 3c
       -0.030907907 -0.0036224825 -0.0022988317 0.0080692945
000030 cb 79 9e bc 8e 7e e5 3a 99 5a 2d 3c b3 d8 90 3c
       -0.019345185 0.001750903 0.010580682 0.017681455
000040 2d 55 cd 3a de cc 2c 3c 9e b4 49 3c 60 aa 38 3d
       0.0015665643 0.010546891 0.012311129 0.045084357
000050 74 f8 ea 3c 74 44 02 bc 9e f1 2f bc 64 ef 82 bb
       0.028682925 -0.007950891 -0.010738758 -0.0039958227
000060 45 dd e9 ba 90 ba 81 bc 44 65 3d bb 74 e5 cf bb
       -0.0017842433 -0.01583603 -0.002889947 -0.0063444916
000070 48 55 12 bc 86 a7 19 bc e7 f1 c0 3b d3 75 50 3c
       -0.008931465 -0.00937832 0.005888212 0.012723404
000080 5e 0c 81 3b cf 1f 37 bc ee f4 89 bc a7 ba 01 bd
       0.003938242 -0.011177017 -0.016840424 -0.031672146
000090 fa 62 04 bd 7f 66 57 3c 4d 0e 11 3c d6 f4 df bb
       -0.032320954 0.013146996 0.008853507 -0.0068346066
0000a0 db 9f 03 bc 12 ce 10 bc bc 32 90 bb 65 1f a7 bc
       -0.008033718 -0.0088381935 -0.0044005793 -0.020400712
0000b0 8b 2b cf 3a 4a 9f 5a 3c 4d 5c 09 3b 38 b4 5f 3c
       0.0015805823 0.013343642 0.0020959557 0.013653807
0000c0 15 4b 4f bc 5f ba a5 bb 25 a6 37 3a ff bf 8f bc
       -0.012652178 -0.0050576176 0.00070056535 -0.017547606
0000d0 29 04 c3 bb d9 d9 97 3a 42 c3 a4 3c 01 ec 08 3d
       -0.0059514237 0.0011585309 0.020112637 0.033428196
0000e0 b6 f9 38 3c eb cb 7f bb 4d 6f cd bc 66 ca 90 bc
       0.0112900045 -0.0039031457 -0.025077486 -0.017674636
0000f0 40 2a 5e bc 1c 8c ff b9 cd 79 65 bb d4 cc 9d bc
       -0.013559878 -0.0004874178 -0.0035015226 -0.019262709
000100 2e 2a 90 bc 21 0d a7 bc 0c ca 85 3c e5 ca 4f bc
       -0.017598238 -0.020392003 0.016331695 -0.012682651
000110 b6 24 f5 3a d5 a7 8c bb 7d 04 f6 bb 67 b4 9d bb
       0.0018702957 -0.004292468 -0.0075078593 -0.0048127654
000120 4f d9 fa bb 18 19 c5 3c 30 4e ce 3b c5 7a d6 bc
       -0.0076552997 0.024059817 0.006295942 -0.026181588
000130 e6 26 fe bc 71 e6 5c bd b7 6e 0c bc 37 61 cd 3c
       -0.031024408 -0.053930704 -0.008571318 0.02507077
000140 02 9b 4e 3c 79 df 33 bb 2c 4c 44 3c 31 4a 58 bc
       0.012610199 -0.0027446433 0.011981051 -0.013201282
000150 d9 8d 70 bc 77 7b 1f 3c e6 dc c8 3c 46 32 eb 3b
       -0.014682257 0.009734026 0.024519395 0.007177624
000160 52 cb 30 bc d0 51 6d bb 57 8f 35 bb 35 f0 aa ba
       -0.010790663 -0.0036212094 -0.0027703845 -0.0013041558
000170 86 b2 96 3c 73 3e 09 3d f6 a0 22 bb fb 64 33 bc
       0.018395673 0.03350682 -0.0024815178 -0.010949369
000180 3e 7e 80 3b eb f0 a3 bb 74 f9 8d bc 83 14 cd 3b
       0.0039212992 -0.005003085 -0.017330863 0.0062585487
000190 44 64 38 39 1a 4c 5e b9 ad 83 a1 3c 84 b7 f8 3b
       0.0001758496 -0.0002119992 0.019716108 0.007590236
0001a0 d5 69 13 bc f7 81 26 bc bd c2 4f bc e5 a1 b5 bc
       -0.0089974 -0.010162822 -0.012680707 -0.022171924
0001b0 93 6e 34 3c 87 de 02 3c 1c 53 45 bb 24 29 e1 bb
       0.011012691 0.007987625 -0.0030109352 -0.0068713594
0001c0 01 86 14 bc c4 54 10 bd db 26 4e bb fb af 0e bc
       -0.009065152 -0.03523709 -0.0031456265 -0.008708949
0001d0 a2 63 94 bb e2 39 5d 39 ac 5e cc bb 41 d9 a7 ba
       -0.0045284787 0.00021097765 -0.0062368717 -0.0012805836
0001e0 14 cd fb bb c4 58 ba b9 23 c5 00 bc f9 08 6d ba
       -0.0076843593 -0.0003554282 -0.007859501 -0.00090421695
0001f0 23 a4 dd bb d8 d0 69 3c 26 d1 23 bb 0a 78 a5 bb
       -0.0067639514 0.014270984 -0.0024996488 -0.00504971
000200 5f 51 91 bb 3e 29 a1 ba 0f 58 cd bb 31 a1 2f bc
       -0.004434749 -0.0012295616 -0.006266601 -0.010719583
000210 7a e4 1c 3b 69 8b 02 bb 09 08 ba bb ac be 30 bc
       0.0023939894 -0.001991952 -0.0056772274 -0.010787647
000220 ba c9 57 bb 0d 03 0e bb e0 b5 85 3c 63 dc 87 3b
       -0.0032926635 -0.00216693 0.016322076 0.004146145
000230 88 83 b5 3b b7 08 13 bc 07 d4 fd bb 4b 77 7a bc
       0.0055393614 -0.008974246 -0.007746223 -0.015287231
000240 cf 42 06 3c 99 5c 60 bc f5 7e 09 bc c1 ba 82 bb
       0.008194639 -0.013693952 -0.008392085 -0.003989548
000250 17 1c 1c ba 9a ea 43 3c 7a cb 9c 3c 93 fb df ba
       -0.00059551134 0.011957789 0.019139994 -0.0017088525
000260 24 14 22 3c d5 15 2c 3b 7a fd ec bb 4b ed a7 bb
       0.009892497 0.002625813 -0.007232365 -0.005124723
000270 f2 e5 b5 ba eb 5f 4b 3b da f0 80 3a 17 35 c3 3b
       -0.0013877733 0.0031032513 0.0009837404 0.0059572565
000280 ec 3d 48 bc cb 8c 92 3a 30 87 57 bb ed 72 d5 bb
       -0.012221795 0.0011180876 -0.0032886975 -0.0065139444
000290 a1 7e b8 ba d7 49 5a 3a 64 80 ce b9 e4 6c c5 bb
       -0.0014075824 0.0008327043 -0.0003938704 -0.0060249437
0002a0 a9 6d d0 3b b3 39 57 bc f5 e2 6e 3b 82 2b 3d bc
       0.0063607288 -0.013136315 0.0036451195 -0.011546018
0002b0 99 48 65 3b ac c2 5f bc b9 e3 e0 3b 71 3e df bb
       0.0034985899 -0.013657253 0.006863084 -0.0068128635
0002c0 0b da 2c 3c 8e 0c c0 3b fe b6 e2 bb bb 17 2f bc
       0.010550032 0.0058608716 -0.006918787 -0.01068681
0002d0 aa 17 4e 3c 57 da 8b bb 2b 49 63 bb 76 24 9a 3b
       0.012578884 -0.0042679715 -0.0034681063 0.0047040535
0002e0 7f 2d 06 bc 6b 1b 6b bb e5 fd 36 3b b5 4a d5 ba
       -0.008189558 -0.0035874497 0.002792233 -0.0016272875
0002f0 87 d2 3b 3b e0 ec 25 3b ce 82 76 bb 71 6d 9f bb
       0.002865942 0.002531819 -0.0037614587 -0.0048653414
000300 47 93 45 ba e5 79 82 3b 5b e9 27 3b 70 11 cc 38
       -0.00075368996 0.003981816 0.0025621268 9.730726e-05
000310 6b 1b c5 ba 32 29 b0 bb 3e 8a 9b ba 51 50 73 3b
       -0.0015038078 -0.0053760046 -0.0011866761 0.003712673
000320 79 77 01 bb 95 68 d8 3a c1 82 02 3b fd 0c 7b bc
       -0.001975505 0.001651066 0.0019914361 -0.015322921
000330 0c 24 df 3b 79 ab 0c bb e0 1d 0b bb 20 43 68 3b
       0.006809717 -0.002146451 -0.0021227524 0.00354404
000340 b1 63 b3 bb d4 95 27 bc 1d c0 bc 38 7b 21 7b bb
       -0.0054745306 -0.010228593 9.0003225e-05 -0.0038319516
000350 02 8b 5c bb 95 75 13 3c a8 b4 8e bb 56 49 5c bb
       -0.003365219 0.009000202 -0.004355032 -0.0033613048
000360 6e dd 94 3d 4d 19 14 bd 39 74 9d 3c 44 26 1b 3d
       0.07268797 -0.03615694 0.019220458 0.03787829
000370 2f 60 30 bc 99 e2 b7 3c 13 de 6a 3d 77 0c db bc
       -0.010765119 0.022446917 0.057340693 -0.026739342
000380 3e 2b 2d 3c 01 b6 2b 3d 61 37 79 bc d4 88 9c bc
       0.010569392 0.04192162 -0.015210957 -0.019108213
000390 07 d5 64 3c 8a e1 ec bc 9a 8f 05 bc 57 58 b2 3c
       0.013966805 -0.02891614 -0.008151913 0.02177064
0003a0 5a 53 d6 bc 5d 0a 56 bc fe 7f 02 3d da 74 d0 3b
       -0.026162792 -0.013063994 0.031860344 0.006361586
0003b0 57 4d 1d bc 81 c1 f2 bc 77 77 cf 3a 8f e2 1e 3d
       -0.009600959 -0.029633285 0.001582845 0.03879028
0003c0 57 2e e4 3c d8 93 21 3c 7a c8 08 bb 67 55 f4 bc
       0.027854128 0.009861909 -0.0020871446 -0.02982588
0003d0 2e 53 35 bc e5 3a d7 3c f0 7d 17 bb ef bc d4 bc
       -0.011067195 0.0262732 -0.0023115836 -0.025968997
0003e0 32 a0 8f 3b 93 cd 71 3c 6e 40 26 3c 0f 8c e1 3c
       0.0043831104 0.014758485 0.010147197 0.027532605
0003f0 e4 f2 42 3b 6b 2a d3 3b 6a 7f 17 3d d8 19 16 b9
       0.0029746825 0.0064442656 0.036986746 -0.00014314742

fc1.bias f4 [120]
000000 78 38 98 3a 0c 17 c3 ba fa 9b bb bb 81 e1 20 bb
       0.0011613509 -0.0014884188 -0.005725381 -0.0024548473
000010 ef f4 ec ba 3e 90 c8 ba 3f 17 e9 3a f8 d6 10 3b
       -0.0018078367 -0.0015301777 0.0017783417 0.0022100788
000020 57 80 09 3a 66 be 9d ba 1e 48 aa ba 16 7b c2 b9
       0.00052452594 -0.0012034893 -0.0012991463 -0.0003709427
000030 d5 80 54 ba 7a 26 0d bb c5 fb 31 bb b7 41 df 39
       -0.00081063557 -0.0021537826 -0.0027158123 0.00042582836
000040 a0 0e 8c 3a 1d a8 14 ba 5c 4c 23 bb cb 3c e4 3a
       0.0010685511 -0.0005670803 -0.002491734 0.0017413137
000050 23 23 4a bb 4a 7f 11 3b 71 12 2a bb 6d 82 9d bb
       -0.0030843697 0.0022201114 -0.0025950933 -0.0048068077
000060 ad c4 37 b9 dd db 10 3a 67 b5 d4 ba da 64 2f ba
       -0.00017525507 0.0005525926 -0.0016228379 -0.0006690748
000070 55 4f 0e 3b f3 9e 4b 3b 02 b7 0f ba 4e 6f ad 3a
       0.0021714766 0.0031070083 -0.00054822874 0.0013232024
000080 87 af 67 bb d6 8d 26 39 07 d7 2c bb e4 1f 0e 39
       -0.0035352425 0.00015883832 -0.0026373283 0.00013554055
000090 7e 4a d3 3a 02 4b 8c bb 7d 23 57 39 8c ec b8 39
       0.0016120223 -0.0042814026 0.00020517218 0.00035271456
0000a0 c1 3b 93 ba f6 e8 25 bb d1 82 51 bb 78 18 a7 38
       -0.0011233018 -0.0025315857 -0.0031968842 7.967738e-05
0000b0 cb 6f f9 b9 32 a7 b1 3a 39 d4 c8 b8 15 cb 73 bb
       -0.00047576273 0.0013553856 -9.576273e-05 -0.0037199904
0000c0 1a 9b 61 3b d8 7a 90 bb 2f 8f 8b bb c5 11 67 bb
       0.0034424723 -0.0044091754 -0.004259012 -0.0035258394
0000d0 d3 b4 37 bb 46 35 bc 3a a1 5a 02 bb 08 fd 80 ba
       -0.0028031364 0.0014359138 -0.0019890445 -0.0009841034
0000e0 da a8 23 3a 0e 79 9c ba ca a1 79 bb 43 d2 b4 3a
       0.00062431174 -0.0011937933 -0.0038090819 0.0013795573
0000f0 06 ea 8f 3a 3e 2c 23 3b 91 f6 d2 ba c2 e0 1d 3a
       0.0010979779 0.0024898197 -0.0016095211 0.0006022566
000100 f9 b6 3b bb 4e f3 b0 3a a0 24 fd 3a 1a 84 49 3b
       -0.0028642996 0.0013500245 0.0019313283 0.0030748905
000110 23 d1 d6 ba 97 b3 1e 3b 73 40 3c bb ff 8f 0e bb
       -0.0016389232 0.002421593 -0.0028724938 -0.0021753309
000120 05 6f 15 bb 04 e7 f1 3a e1 08 a0 3a 37 1e e6 b9
       -0.0022801769 0.0018455689 0.0012209677 -0.0004389153
000130 9a 46 11 3b cd aa 3c 39 97 d1 0f 39 97 78 57 b6
       0.0022167326 0.00017992705 0.00013715621 -3.210769e-06
000140 ab 83 15 bb e4 20 22 bb d4 d5 91 bb 6c ce f7 b8
       -0.0022814076 -0.0024738843 -0.004450539 -0.00011816327
000150 69 63 b5 bb 36 96 fa ba fd c7 34 3b e5 fa 1b 39
       -0.0055355323 -0.0019118253 0.0027585023 0.00014875417
000160 04 9b 67 bb 4f c0 00 bb af b1 c0 bb 33 01 42 3b
       -0.00353402 -0.0019645875 -0.0058805565 0.0029602766
000170 f8 23 9e ba 6c 5a 28 bb 09 04 a0 ba 2a 07 2c b9
       -0.0012065163 -0.0025688661 -0.0012208234 -0.00016405867
000180 5b bb 35 39 22 ad 4e bb 49 1d d0 3a e6 db 49 bb
       0.000173313 -0.00315363 0.0015877868 -0.0030801236
000190 02 fb f1 ba 1d 49 64 bb 16 c7 58 bb 98 d6 f6 37
       -0.0018461647 -0.0034833618 -0.003307765 2.9425413e-05
0001a0 1d ab e7 39 9a 47 b9 bb 99 b8 17 3b 1a 73 83 bb
       0.00044187243 -0.0056542875 0.00231508 -0.004011524
0001b0 56 02 4e bb e8 c3 28 ba 61 13 ff 38 c4 1a b9 3a
       -0.0031434498 -0.0006437884 0.00012162957 0.0014122357
0001c0 23 3c 57 ba b4 8e 81 3a 50 e6 4b bb 87 ee 15 bb
       -0.000821056 0.0009884448 -0.0031112619 -0.002287777
0001d0 15 79 25 3a 68 f1 a5 ba 7c fc 14 3b b7 83 a0 39
       0.0006312293 -0.0012660446 0.00227335 0.00030615713

fc2.weight f4 [80, 120]
000000 ab 2c 47 3d f1 6f 24 3d aa 97 c3 3c 11 b5 9f 3a
       0.048626583 0.04014582 0.02387603 0.0012184699
000010 61 58 a5 3c 36 16 39 3d 81 d2 75 bc 35 a5 be bb
       0.020183744 0.045187198 -0.015003801 -0.005818034
000020 12 04 f0 3b 4a e3 13 bd 06 37 02 bc e4 5e 25 bd
       0.007324704 -0.03610543 -0.007947689 -0.040373698
000030 7d cb a8 3c f8 26 91 bc 08 4f 1d 3d 81 0d 73 3c
       0.020604843 -0.017718777 0.03840545 0.014834763
000040 0e a5 2f bc 66 6e 6b bb 70 53 37 3b ea 93 46 3c
       -0.010720504 -0.0035923957 0.0027973317 0.012120226
000050 d1 31 b1 3c 44 c5 06 bb 9b 73 9d ba 96 7f d9 3c
       0.0216302 -0.0020564357 -0.0012012603 0.026550096
000060 9b c0 40 bc 82 37 03 bd 53 18 19 bd cb 59 aa bb
       -0.011764671 -0.03203536 -0.037376713 -0.0051986924
000070 3d 28 b1 bb d4 26 16 bd e2 e0 26 3b c5 6f 8c bb
       -0.005406408 -0.036658123 0.002546363 -0.004285785
000080 02 8f 02 3d e2 77 83 bc cb 75 67 3b 53 09 03 bd
       0.031874664 -0.016048376 0.0035318013 -0.031991314
000090 0e c6 a5 3c 24 32 31 bc d3 bb 81 bc 77 a3 eb ba
       0.020236041 -0.010815177 -0.015836632 -0.0017977793
0000a0 ff ff d3 3c 75 a6 c3 bc f1 ec 13 3c 74 06 47 3d
       0.025878904 -0.023883084 0.009028659 0.04859014
0000b0 2d 8f 12 bd 09 79 1d 3c 4d 66 06 3d a4 b6 37 bc
       -0.035781074 0.009611377 0.032812405 -0.0112129785
0000c0 ee 31 a3 3c 5b 5e 47 3c 49 49 cd 3b 1c da 6b 3a
       0.01992127 0.012168492 0.00626484 0.00089970394
0000d0 74 b8 e5 bb 60 e0 98 bb 9f cc 9a bc a0 ed 0d bd
       -0.007010514 -0.0046654195 -0.018896399 -0.034650445
0000e0 85 db 53 bd 94 1e 0a bd 95 bf fb 3b c0 f0 50 bc
       -0.051723022 -0.033720568 0.0076827505 -0.012752712
0000f0 f2 3c dd 3c 3a 5d 65 3d 72 f7 79 bb b5 6a d7 bb
       0.0270066 0.05599711 -0.0038141874 -0.0065739998
000100 08 c6 16 bd a0 ba e0 bc e6 68 31 3d c0 95 65 bb
       -0.03680995 -0.02743274 0.04331293 -0.0035031885
000110 22 8d 28 3b 73 fe c3 bc 9c 26 fa bc 16 94 1f bb
       0.0025718887 -0.023925042 -0.030535989 -0.002434974
000120 32 48 31 bc 43 3a f8 3c 25 57 d6 bc ff 7b d6 3c
       -0.010820435 0.030301219 -0.0261646 0.026182173
000130 32 71 c2 bb 79 35 85 3d a7 33 64 3b d9 53 b4 3c
       -0.005933904 0.0650434 0.0034820826 0.022012638
000140 65 1f 3b 3d a7 73 01 bd af 7e 1e 3c 04 86 4f 3c
       0.045684237 -0.031604435 0.009673758 0.012666229
000150 c9 b8 29 3d 5c 53 27 3d 45 eb d1 3b 2b 0c b8 3c
       0.04143599 0.040850982 0.00640622 0.02246674
000160 fd df 8d 3c a0 51 4d bd bd 87 5c 3c 52 b8 e6 3a
       0.01731872 -0.05012667 0.013460097 0.0017602539
000170 2e 01 8f bc fd d3 2c bc 74 47 c3 3b e6 f7 fd b9
       -0.017456617 -0.010548589 0.0059594456 -0.0004844062
000180 d5 06 2c 3c 0b 28 5e 3c a2 af e2 3a 40 b9 08 bd
       0.010499676 0.013559352 0.0017294774 -0.033379793
000190 e4 9f 69 3d c3 d8 05 3d 43 43 6c 3c 7c 1f 2f 3d
       0.05703725 0.032677423 0.014420333 0.042754635
0001a0 ce 10 db 3d c9 6d 87 bc b8 4a ea bc b4 ec a5 3c
       0.106965646 -0.016531842 -0.028600082 0.02025447
0001b0 46 b0 06 bc 3a f4 58 bb 7e ca c6 3c 23 a5 12 bc
       -0.008220738 -0.0033104555 0.024266478 -0.0089505045
0001c0 ce 16 a1 bb 20 26 3d bc 7f 20 2d 3b 1f d1 ba bb
       -0.0049160486 -0.011544734 0.0026417074 -0.0057011987
0001d0 8c c6 aa 3b 4f df ae bc 2d 5c 95 3b a2 e9 7d 3d
       0.005211657 -0.021346716 0.0045581074 0.061990388
0001e0 8e 09 1d 3c a6 8e 9c bb 95 f7 93 bc 99 dd 99 ba
       0.009584798 -0.004777747 -0.018062392 -0.0011739015
0001f0 3c 6d 98 bc 0b c1 3b 3d 41 5a 6f bc 4f 57 03 bd
       -0.018606775 0.045838397 -0.014608921 -0.032065686
000200 9f 67 58 3c 29 82 e3 bc 13 75 b3 3c 11 3f 3f bb
       0.013208299 -0.027772026 0.021906411 -0.0029181878
000210 4c 65 0b 3d a7 ea 6a bc 0f 30 32 bc f4 b5 8d 3b
       0.03403215 -0.014338172 -0.010875716 0.004324669
000220 06 77 fd bb 10 1b 8b bb 08 cc d7 bc 14 6a ca 3b
       -0.007735136 -0.0042451695 -0.026342407 0.0061771963
000230 3a 3a b2 bc c8 58 6c bb b0 86 c2 3c bb ff 9b bc
       -0.02175628 -0.003606366 0.023745865 -0.01904284
000240 ba 2f 04 bd 55 33 0c 3b 02 da df 3c 37 59 bb 3a
       -0.032272078 0.00213929 0.027325634 0.0014293556
000250 db b9 1b bd b8 f1 b8 3b 11 f6 3f 3c da 32 bf 3c
       -0.038019042 0.0056440495 0.011716382 0.023339678
000260 87 b6 6e 3d 24 c1 9d ba ed ec 02 bd 99 8d 20 bc
       0.05827954 -0.001203571 -0.03196423 -0.0097993845
000270 98 49 20 3d b3 b7 4b 3c d3 9a fd bb c9 c4 db bb
       0.039132684 0.012433934 -0.0077394038 -0.006706808
000280 98 b9 56 bc d0 20 c7 3c bd c6 08 bc 50 75 24 3c
       -0.013105772 0.024307638 -0.008348164 0.010037735
000290 da 4c 17 bd b7 32 28 3c 19 f7 1f 3c 50 a3 a1 3a
       -0.036938526 0.010265998 0.0097635025 0.0012331996
0002a0 cf eb fb ba 2b 66 c4 3c cc 83 75 3c 77 92 3f bb
       -0.0019220057 0.023974499 0.014985036 -0.0029231587
0002b0 91 09 78 b8 3d c1 4b 3b 93 b0 d2 3c 76 17 aa bc
       -5.9136717e-05 0.003109052 0.025718963 -0.02076314
0002c0 90 ca a1 bc cc 41 88 bc c6 ed 9c 3b e8 7e 97 bb
       -0.01974991 -0.016632937 0.004789087 -0.0046232827
0002d0 f2 35 49 3d 1e dd fc bb bc ea ab bb 86 59 b9 bb
       0.049123712 -0.007716789 -0.0052464884 -0.005656424
0002e0 4e 20 8b bc fc 69 1d bc a6 35 a8 3d 2e 36 6b 3c
       -0.016983178 -0.009607788 0.082133576 0.014356179
0002f0 2d 91 90 bb 67 c3 df bc 09 cc 53 3c c9 7e 12 bd
       -0.0044118376 -0.027314855 0.012927064 -0.035765443
000300 54 a2 2b bb 1d 94 80 bc a9 9c 88 3c 94 45 09 3c
       -0.0026189284 -0.015695626 0.016676264 0.008378405
000310 c0 f6 2c 39 07 2b 92 3c b8 4d c8 3a 6a 5b 44 3c
       0.0001649512 0.017842783 0.0015281951 0.011984685
000320 3c ff f2 bb 7e 48 ff 3c 07 df 2f bd fa d1 19 bd
       -0.00741568 0.031162497 -0.042937305 -0.037553765
000330 7e cf 23 bc 55 96 dc bc 00 73 e9 bc 69 e2 d1 bc
       -0.0099982 -0.026927153 -0.02849722 -0.025620656
000340 e0 50 59 3a 01 02 82 3b b5 2d 8a bc 98 a4 45 bb
       0.00082899444 0.003967524 -0.016867498 -0.003015792
000350 1e 96 31 3d e4 24 8a bc 1e 4a 28 3c 8a 04 87 bb
       0.043356054 -0.016863294 0.010271577 -0.004120414
000360 41 2d 3f 3d 54 2b 3e 3d 11 50 f8 3b 53 58 0f bd
       0.046674017 0.04642804 0.007577904 -0.034996342
000370 f2 3f 51 bc b5 a5 f2 3b 6d 87 b3 bc 69 e7 f1 bb
       -0.012771593 0.0074050077 -0.021915162 -0.0073823226
000380 c4 d5 80 3d cc 7d 07 bd c0 ab 8c bc aa 2d e8 ba
       0.062907726 -0.033078954 -0.01717174 -0.0017713804
000390 e3 71 6d bb f2 0c a8 3b 85 36 55 3c a0 48 56 3c
       -0.0036231212 0.0051284963 0.013013487 0.013078839
0003a0 3d 64 82 3d c3 6f e7 3b d6 29 f5 ba 5d cb 06 bc
       0.06366775 0.0070628836 -0.0018704485 -0.0082271965
0003b0 16 49 d3 ba 8f 62 68 ba ce 95 ca 3a df f5 a2 3d
       -0.0016119804 -0.0008864784 0.0015456022 0.079570524
0003c0 60 ab 9f 3c e9 83 80 bb dd 03 04 3c d1 2e 8f 39
       0.019490898 -0.003921975 0.008057562 0.00027309966
0003d0 e7 f7 40 bc 05 02 58 ba 1b 9d 30 b7 7d dc ee bb
       -0.0117778545 -0.0008240047 -1.0526996e-05 -0.007289468
0003e0 00 d2 ca bb d2 7b 75 bb 8e 15 6d 3b 5b 8c 42 bb
       -0.0061895847 -0.0037457836 0.0036176178 -0.002968571
0003f0 18 39 1a 3c 98 aa 33 bc 2e ff e1 bb 85 9c 41 bc
       0.009413026 -0.010965966 -0.006896875 -0.011817102

fc2.bias f4 [80]
000000 16 96 45 3b f5 0b 9f bb 6f 44 46 3b 65 93 f7 bb
       0.0030149273 -0.0048537203 0.0030253192 -0.0075554126
000010 2a fb 7f bb aa 38 77 ba e2 ed 70 3b 9a 8f c0 bb
       -0.0039059618 -0.0009430746 0.0036762883 -0.0058764936
000020 a3 27 73 bb af 70 85 3b 3f 63 ba bb 3e 68 fe 3b
       -0.0037102483 0.004072271 -0.0056881006 0.0077638915
000030 6a 51 7b 3b 3c ed cf bb c5 86 f3 bb 39 f3 ae bb
       0.0038348087 -0.006345419 -0.0074318373 -0.005339053
000040 52 19 e0 ba d8 e1 ed 3a d9 34 dc bb 3f ff cf ba
       -0.001709739 0.0018148972 -0.006720167 -0.0015868916
000050 27 65 01 3c 71 c1 d3 bb f9 b7 f0 3b 90 dd cb 3a
       0.007897652 -0.006462269 0.00734615 0.0015553702
000060 75 6f a2 bb 6c da ad bb a8 ff 96 3b fa 74 0f ba
       -0.0049571344 -0.005305579 0.0046081133 -0.0005472448
000070 5b a3 f0 3a d1 a8 0e bc 90 24 aa bb ac e2 0d 3b
       0.0018359231 -0.008707241 -0.005192347 0.002165
000080 b4 77 0a 3b 43 b0 98 3a 15 de 6b 3b 51 91 5d ba
       0.0021128478 0.001164921 0.0035990526 -0.0008452135
000090 32 49 57 3b cb 90 0f bb 45 b2 1c 3b fc 6d f1 bb
       0.0032850024 -0.0021906372 0.0023909968 -0.0073678475
0000a0 3e 5e 9a 3b 39 ab 21 3b 7a 54 c9 3a 00 b3 dc bb
       0.0047109416 0.0024668707 0.0015360259 -0.0067352057
0000b0 b7 93 4d 3b e7 a2 75 3b e1 12 79 3a c4 0d 6d ba
       0.0031368562 0.003748113 0.00095014094 -0.0009042884
0000c0 ba a1 56 3a 6c 99 33 3a 63 b7 02 bc e3 8f d7 3a
       0.0008187551 0.000685117 -0.007978293 0.001644608
0000d0 ea 6c db 39 a2 2c 5a 3b cb ea 2a 3b 4e e0 9d b9
       0.00041852082 0.0033290763 0.002607989 -0.00030112494
0000e0 1d 63 be bb aa bf e7 3b 0e 30 b6 3b 0f 54 e5 bb
       -0.005810155 0.0070724087 0.005559928 -0.006998546
0000f0 07 57 d5 ba 26 78 61 3b 19 c8 30 bc e2 38 3e bb
       -0.0016276547 0.003440389 -0.0107898945 -0.0029025604
000100 5d 62 a5 ba a1 d1 28 ba da 91 54 ba 81 bf d8 3b
       -0.0012617816 -0.00064399285 -0.0008108892 0.006614626
000110 21 d9 6a 3b 66 cd d8 39 79 ff 93 bb 10 c1 75 bb
       0.0035834985 0.00041351764 -0.0045165387 -0.0037499107
000120 30 3d 20 3a 83 f8 9c bb eb 5d 44 3b 8c b9 05 3c
       0.0006112633 -0.004790367 0.0029963206 0.008161914
000130 6b 6a 48 3b 3c 30 b7 39 46 e4 92 bb ff 60 81 bb
       0.0030581008 0.00034940417 -0.0044827787 -0.0039483304

fc3.weight f4 [40, 80]
000000 7f e1 b0 3d 5b ab f6 ba 39 7a 84 3a ae 48 fd bb
       0.0863676 -0.0018819378 0.0010107226 -0.0077296114
000010 a1 2e 06 bd 54 fb 89 bc 3c 1b f6 3c 81 f4 b6 bc
       -0.032759313 -0.016843475 0.030042283 -0.022333385
000020 b9 18 6d 3d 45 d5 84 ba 61 52 e8 bc 8e 02 0a bd
       0.057884905 -0.001013436 -0.028359594 -0.033693843
000030 2d b2 d0 3a 67 bc 53 3c 27 4b ab bc a3 a1 13 bd
       0.0015922241 0.012923337 -0.020909859 -0.03604282
000040 eb 18 ae bc ce 93 4c 3d 5b 5d 83 3c 04 4a 8b 3d
       -0.021252116 0.049945645 0.016035726 0.06801227
000050 15 05 c0 3c 07 c0 e9 bc a7 2d 94 3d a9 c7 03 3d
       0.023439923 -0.028533949 0.0723527 0.032172833
000060 ab 95 99 bb 86 0a 24 bd 59 42 d2 bc 49 51 50 bc
       -0.0046870313 -0.0400491 -0.025666403 -0.012714692
000070 50 90 a2 bc 92 fe aa bc f2 2c a9 3d 24 65 6f 3c
       -0.019844204 -0.020873342 0.08260526 0.014611516
000080 b5 a4 57 bd cf a9 09 bc 79 8b b7 3d d0 35 7f 3d
       -0.05264731 -0.008402302 0.08962149 0.06230718
000090 da a2 ba bc da b4 56 bd 12 fb 43 bd 4d b5 b2 bc
       -0.022782732 -0.052418567 -0.04784686 -0.021814967
0000a0 6c 76 8c 3d 30 ec c0 3c e1 d7 c9 bc 70 f0 eb bb
       0.06858525 0.023550123 -0.024639072 -0.0072002932
0000b0 8f 03 86 3d 9b da 1b bd f0 7d b6 3a 61 f1 d5 3c
       0.065436475 -0.038050275 0.001392303 0.026116075
0000c0 be 79 5d bc fc de 1e 3d 90 e4 95 3d 61 33 84 bc
       -0.013517795 0.038786873 0.073189855 -0.01613778
0000d0 c6 5b ac 3d 22 60 43 3c 34 4a bf bc 9a 6d 85 bc
       0.08415942 0.011924775 -0.023350812 -0.016287614
0000e0 39 e2 05 bc ce 05 49 bd ea 4a f6 bc 38 6a 99 3d
       -0.008171611 -0.0490778 -0.030065019 0.07490963
0000f0 62 67 d2 bc 6d 21 1c bd f1 55 6f 3d c0 b5 1b bd
       -0.025684062 -0.038117815 0.05843157 -0.038015127
000100 54 21 65 3d 64 b6 94 3d 14 20 3f bc bc 39 8b bc
       0.055939987 0.07261351 -0.011665363 -0.016995303
000110 b2 b9 d2 3c 32 80 c0 bc 43 22 81 3d ce 98 22 bd
       0.025723312 -0.023498628 0.06305363 -0.039696507
000120 ec ae ca bc b6 62 8c 3d c3 fe 61 3d 04 4a 80 3c
       -0.024741612 0.06854765 0.0551746 0.015660293
000130 1f a9 71 bc d0 17 02 bd cd 2b 00 3d 19 e5 dd bc
       -0.014749794 -0.03176099 0.03129177 -0.027086781
000140 67 e2 af 3d bd 96 a8 bc 43 3f 96 bc 08 aa 3a 3c
       0.08588105 -0.02057969 -0.018340712 0.011393078
000150 36 e4 63 3d 60 05 83 3d be 8c 60 3d 6a 97 8a 3d
       0.05563756 0.063975096 0.054821722 0.06767161
000160 84 3b 8d 3d 4a 79 77 3c c4 35 c1 bc 3a 85 c6 3c
       0.06896117 0.015104601 -0.023585208 0.02423345
000170 47 31 a6 3c ab aa 92 bc 0f ec 2d 3d f6 db 06 bd
       0.02028717 -0.017903646 0.04246145 -0.032924615
000180 02 65 9f bc 16 05 94 3c ea af 9b bc 19 ef 05 bd
       -0.019457344 0.018068831 -0.01900478 -0.032698724
000190 f0 30 b1 3b f2 60 c8 3c 09 1e 8f 3d 08 93 bd 3d
       0.005407445 0.02446029 0.069881506 0.092565596
0001a0 9d 2e b8 bc 1a 87 4e 3c fa c3 1f bd b6 e5 b9 bc
       -0.022483164 0.012605453 -0.039005257 -0.022692543
0001b0 11 59 d5 bb 89 a8 fe bc 37 a7 88 3d 6a b8 4e bc
       -0.0065108617 -0.031086223 0.06672519 -0.01261721
0001c0 9e 34 cb bc a6 d5 57 bc b4 87 60 bb 04 3f 38 3d
       -0.024805363 -0.013173496 -0.0034260573 0.04498197
0001d0 db 6e 09 3d b3 76 fb bc a8 fb 15 bc 55 9f d9 3a
       0.033552986 -0.030696249 -0.009154238 0.0016603271
0001e0 fb ec 79 3d 5a 25 fd ba 73 dc 19 3d 2b e2 11 bd
       0.061017018 -0.00193135 0.037563752 -0.03561608
0001f0 a9 98 86 3d d2 94 25 3d 93 de 07 bd 9e 0a e3 bc
       0.06572086 0.04042513 -0.033171248 -0.027715024
000200 eb c5 02 3d f3 ff fe bc b2 72 27 3d 18 68 05 bd
       0.03192703 -0.031127905 0.040880866 -0.032569975
000210 dc 1c 65 bc 8e ce 85 bc de dc d0 bc dd fc e4 3c
       -0.013983931 -0.016333845 -0.025495943 0.027952606
000220 0a 69 f5 bc b6 85 f9 bc df 1d 20 3d 8f ad 8e bc
       -0.029957313 -0.030459266 0.039090987 -0.017416744
000230 22 04 3c 3d 44 27 b7 bc 61 e6 7f 3d a3 fe 93 bc
       0.04590238 -0.02235759 0.062475566 -0.018065756
000240 e1 66 05 bd b9 46 d0 3b c2 7f 9a bc d9 9c 13 bd
       -0.032568816 0.006356087 -0.018859748 -0.036038253
000250 a5 11 b7 3b c3 b4 9b 3d ca bb 14 3d f7 0c 81 3c
       0.00558682 0.07602837 0.036311902 0.015753252
000260 13 4d 67 3d fc 3d 0c bd 43 e6 8a bc ab c3 43 3d
       0.056469988 -0.0342388 -0.0169555 0.047794025
000270 36 b6 12 3d 3d fa 91 bc dc 7b 83 bc 70 fa 02 bd
       0.0358183 -0.017819518 -0.016050272 -0.031977117
000280 9b 93 a1 3d 3c 52 8d 3d c4 e7 26 ba c2 81 74 3d
       0.07889482 0.069004506 -0.0006366933 0.05969406
000290 26 db ab 3b 90 60 35 bd 65 36 30 bd c2 cf 1e 3d
       0.0052446304 -0.044281542 -0.043020625 0.038772352
0002a0 1b af 21 3d 6f 87 8d ba 27 d4 e4 3c b7 db 5f 3d
       0.039473634 -0.0010797809 0.027933193 0.054652896
0002b0 5d d6 8c 3d 90 6d 19 3d a6 82 c5 3c 90 23 5c 3d
       0.06876824 0.037458003 0.02411015 0.053744853
0002c0 f3 9b 71 3d b7 c5 b3 3c c5 68 f9 bc b0 39 b5 3b
       0.058986615 0.021944864 -0.030445466 0.0055305585
0002d0 4c 6f 51 bd 41 07 f5 bc 64 f7 43 bd f9 6f 98 bc
       -0.05113153 -0.029910685 -0.047843352 -0.01860808
0002e0 06 7e e3 3b d0 00 9f bb 5d 2c ae 3c b1 f8 56 3d
       0.0069425134 -0.004852392 0.021261388 0.052483264
0002f0 5d 95 8a bb e1 8e 95 bc 04 6b 2b bd dd e6 e7 bc
       -0.0042292313 -0.018256607 -0.041850105 -0.028308326
000300 21 44 04 bd f4 b5 59 3d 95 99 bb bc e2 b3 e8 bc
       -0.032291535 0.05315204 -0.022900382 -0.028406087
000310 48 c6 a2 3b 9e f1 52 3d 3f 94 0a bc b4 a1 1b bc
       0.0049674846 0.051499955 -0.008458196 -0.009499002
000320 8b 5a d5 bc ec 02 22 3c 81 f2 09 bd f0 96 94 3d
       -0.02604415 0.009888392 -0.033678535 0.072553515
000330 0b 77 5f bd a0 b9 a8 bc d6 19 ae 3d f4 f4 05 bd
       -0.054556888 -0.020596325 0.085010216 -0.03270431
000340 46 f5 97 bc 62 6c 7f 3d 7d 71 a7 bc 55 4a 23 3c
       -0.018549573 0.06235922 -0.020439858 0.009966453
000350 a4 d0 24 3c 92 12 b9 3d 42 96 1a 3d 7b 66 f7 3c
       0.010059509 0.09036745 0.037740953 0.030200234
000360 30 c4 a8 3d 30 1b fc 3c c3 63 46 3c 6e 29 48 3c
       0.08240545 0.030774683 0.012108746 0.012216909
000370 45 cb 97 bc f6 9c dd 3c bb 3c 46 3d 2c ff 12 bc
       -0.018529544 0.027052384 0.04839776 -0.0089719705
000380 f1 0f 52 bd ff 7b 8d bc 1c 57 2e 3d 7e 8f 9a 3d
       -0.051284734 -0.01727104 0.042563543 0.075469
000390 10 2a 58 3d 52 33 e1 bc 37 62 22 bd 87 13 5b bd
       0.05277449 -0.027490292 -0.039644446 -0.05348542
0003a0 c1 52 31 bd 1f e3 42 3d 47 d1 b5 bc 8e 45 5f bd
       -0.04329181 0.04757988 -0.022194518 -0.054509692
0003b0 7a 43 7e 3b b4 5c b3 3c 7d ab 1a bd be fc 14 3d
       0.0038797543 0.02189479 -0.0377612 0.036373846
0003c0 68 6f c9 bb a1 c0 d4 3b ea 69 19 bc 3e 22 21 3d
       -0.006147314 0.0064926897 -0.009363631 0.039339297
0003d0 4a 7c b9 3d e4 f0 f7 bc c1 ae 82 bc b4 b1 db bc
       0.090569094 -0.030266233 -0.01595247 -0.026818134
0003e0 df 45 33 3d ae 2d 79 bc 99 a0 a5 3d 50 07 53 bd
       0.043767806 -0.015208645 0.08087272 -0.051520646
0003f0 b3 c1 78 39 73 59 70 bc 6c b9 2d 3d 1f 18 59 3c
       0.00023723282 -0.014669764 0.04241316 0.01325038

fc3.bias f4 [40]
000000 49 8c 84 bb e0 e5 e1 3b ff 53 fe 3b 7b ae 5a 39
       -0.0040450436 0.0068938583 0.007761478 0.00020855099
000010 45 6f b8 ba 31 e0 2d 3c 19 74 1c bb 94 43 62 3c
       -0.0014071247 0.010612533 -0.002387291 0.013810057
000020 13 7a e8 3a 6e 0e c8 bb 54 49 39 3a 08 54 94 bb
       0.0017736576 -0.006105236 0.00070681167 -0.004526619
000030 48 16 b2 ba a8 aa 2c 3c 80 4d 4b 3c a4 66 81 3c
       -0.0013586963 0.0105387345 0.012408614 0.015796013
000040 b8 45 3d 3c 3b 47 5f 3b 1b e6 68 bb eb 56 13 bc
       0.011552267 0.0034069556 -0.0035537544 -0.008992891
000050 47 6f c8 ba 7b 41 f9 3a c0 bc 18 3c a3 ba 4a 3c
       -0.0015291952 0.0019016707 0.009322345 0.012373599
000060 2d 01 e4 3b b1 23 83 3c f2 bb 19 39 31 7f f2 bb
       0.006958148 0.01600823 0.00014661232 -0.0074004163
000070 6c f0 27 3c 7c ed 50 3b 72 e6 fa 3b 95 cf 35 3c
       0.010250192 0.0031879833 0.0076568658 0.011096855
000080 61 4c c7 ba 96 bd 86 3b 54 38 b1 3b f4 bf 5b bc
       -0.0015205258 0.004111956 0.005408326 -0.013412464
000090 a8 41 1d 3a 0f df 32 3c 9b 54 d7 3c 5a 4c 88 3a
       0.0005998858 0.010917439 0.02628546 0.0010398731
