outfiles/cnn/ORL64_7Train_cnn.pth (torch, 613695 bytes, 10 tensors)

conv_layer1.weight f4 [16, 1, 5, 5]
0.008625492 -0.020364065 -0.027935706 0.030377654 -0.0029624384 0.033728596 -0.0020347526 0.03859044
0.03531894 0.012680216 -0.021371067 0.021477683 0.0040929983 0.0148216635 0.028434094 -0.021250447
0.015069921 5.8082023e-05 -0.02195964 -0.026177526 -0.03256689 0.0044369292 -0.023761477 -0.03604819
-0.027962238 0.06819622 -0.029593337 -0.078841135 -0.039853353 -0.04937094 0.04924066 0.039612442
-0.042502407 -0.15336327 -0.14797045 0.068025455 0.055955634 -0.00024162706 -0.082770616 -0.06908651
0.13067846 0.053791482 -0.03321826 -0.074645795 -0.057377245 0.11778112 0.13429743 0.07166069
0.036658738 0.021118324 -0.000744562 0.0070676026 0.0076542073 -0.0021817647 0.006744587 -0.00800963
-0.008505571 0.0031159099 0.0076092086 0.0047488357 0.0040108017 0.002503148 0.005275826 0.008372583
-0.0048849056 -0.0014309972 0.0041370983 0.008199191 0.0033303273 -0.0023064672 -0.002390212 -0.004737929
-0.00040484662 0.0023304399 0.0098694 -0.00076371065 -0.0057580043 0.006005723 -0.004602864 -0.0069683352
0.0031954616 -0.0093260985 -0.0033919348 0.009626495 0.0011048309 0.0021709648 -0.0013235288 0.0015038482
-0.0062818844 -0.0030526402 -0.009414371 0.0047893086 -0.006984202 0.008764651 0.0059242547 0.0035422938
-0.00701508 0.0052735545 -0.0026445899 0.0025873564 0.041537125 -0.0367916 -0.07409052 -0.0068742107
-0.052659456 -0.14972666 -0.17487833 -0.17425981 -0.11230046 -0.15906191 -0.0075664516 0.033943098
-0.1557545 -0.18205567 -0.19210815 0.054754645 0.20318192 0.120733686 -0.046588253 -0.03816785
0.24034353 0.2645937 0.28078508 0.04485504 -0.021691924 0.14858209 0.15448658 0.1291368
0.09112796 0.054062016 0.109783545 0.19942681 0.19537126 0.14088841 0.006176987 0.10061193
0.046799242 0.021893304 0.027581511 -0.10382151 -0.03233375 -0.03626062 -0.15919134 -0.15540986
-0.1294867 -0.082336634 -0.18809652 -0.21208724 -0.18181355 -0.08567282 0.022608086 0.024639383
0.012466356 0.0021113397 -0.018547472 0.02737981 0.0012324579 -0.023114663 0.014263495 0.020662928
-0.019768298 -0.03095563 -0.0064141243 0.004130886 -0.013509348 -0.009364709 -0.0068757166 -0.024615292
-0.0071929144 -0.0076617426 -0.007824637 -0.008097031 0.0065456773 0.01796821 0.015828013 -0.016985016
-0.066665426 -0.027503276 -0.027202096 0.019156057 -0.048499063 -0.038662214 0.0123568 0.07191522
0.074708536 -0.06771282 0.0035077464 0.054488964 0.05788933 0.040204056 -0.064174935 -0.03188242
0.03756896 0.01940594 -0.0058235563 -0.0773424 0.009508946 0.027200868 0.0062336097 0.013282349
0.17106967 0.13421246 -0.008808434 -0.06745743 -0.092642374 0.19659704 0.09480239 -0.043090735
-0.11192717 -0.14607121 0.1068218 0.14264452 -0.03904995 -0.06289151 -0.12729838 0.15497135
0.15166236 -0.023503061 -0.12058249 -0.23602897 0.13837354 0.11382403 0.023967901 -0.14652821
-0.2558915 0.024876708 -0.047041614 -0.009940216 -0.11537002 -0.28816602 0.12499959 0.15709594
-0.011349647 -0.12680854 -0.28214836 0.23863725 0.16136226 -0.000310851 -0.093816444 -0.13574284
0.24866219 0.15045162 0.039579045 -0.15623404 -0.08370604 0.22788683 0.15462151 0.06658396
-0.09473977 -0.08326093 -0.0068390057 -0.002092215 -0.00015275794 0.0018201155 -0.005433346 -0.0075736274
00000000: f051 0d3c 8ad2 a6bc 6cd9 e4bc 8fda f83c
00000010: 7825 42bb ff26 0a3d 7c59 05bb 0211 1e3d
00000020: 98aa 103d aec0 4f3c 6012 afbc f7f1 af3c
00000030: 8f1e 863b 90d6 723c 9eee e83c 6b15 aebc
00000040: d4e7 763c 199d 7338 b4e4 b3bc 4072 d6bc
00000050: dc64 05bd a963 913b 6ea7 c2bc 44a7 13bd
00000060: 1011 e5bc 76aa 8b3d ba6d f2bc 7677 a1bd
00000070: 453d 23bd 2f39 4abd 93b0 493d a840 223d
00000080: 0117 2ebd 430b 1dbe 9185 17be ee50 8b3d
00000090: bc31 653d 455d 7db9 a483 a9bd 3a7d 8dbd
000000a0: 93d0 053e 7554 5c3d df0f 08bd e5df 98bd
000000b0: 6704 6bbd 3a37 f13d 4485 093e d7c2 923d
000000c0: 7927 163d 5600 ad3c b62e 43ba 5997 e73b
000000d0: 25d0 fa3b f0fb 0ebb b201 dd3b d33a 03bc
000000e0: f35a 0bbc 4b34 4c3b ab56 f93b 1f9c 9b3b
000000f0: 0b6d 833b db0b 243b d6e0 ac3b 292d 093c
00000100: 8f11 a0bb 4c90 bbba 7f90 873b e655 063c
00000110: 9f41 5a3b 1928 17bb 1aa5 1cbb a140 9bbb
00000120: 9841 d4b9 4bba 183b 44b3 213c c133 48ba
00000130: a4ad bcbb a8cb c43b 9fd3 96bb a256 e4bb
00000140: f36a 513b 7ecc 18bc 394b 5ebb 72b8 1d3c
00000150: f9cf 903a bf46 0e3b 427a adba c61c c53a
00000160: 44d8 cdbb ce0e 48bb bc3e 1abc a2ef 9c3b
00000170: bcdb e4bb 9c99 0f3c 4020 c23b d425 683b
00000180: c2de e5bb c8cd ac3b db50 2dbb a390 293b
00000190: d522 2a3d cab2 16bd c5bc 97bd 0f41 e1bb
000001a0: 71b1 57bd f251 19be 4e13 33be 2a71 32be
000001b0: c9fd e5bd 20e1 22be ffef f7bb eb07 0b3d
000001c0: 1c7e 1fbe cd6c 3abe 00b8 44be 6846 603d
000001d0: ec0e 503e 3943 f73d 53d3 3ebd e455 1cbd
000001e0: 9d1c 763e d378 873e 10c3 8f3e ebb9 373d
000001f0: 43b3 b1bc e725 183e bb31 1e3e 703c 043e
00000200: 4ca1 ba3d 2270 5d3d 32d6 e03d 8b36 4c3e
00000210: 670f 483e 0d45 103e 5368 ca3b a10d ce3d
00000220: 90b0 3f3d 9659 b33c 9ff2 e13c 5fa0 d4bd
00000230: 6570 04bd 0486 14bd 0e03 23be c323 1fbe
00000240: 2998 04be 1ca0 a8bd 609c 40be 662d 59be
00000250: 552d 3abe 3b75 afbd 9834 b93c 88d8 c93c
00000260: b03f 4c3c 675e 0a3b def0 97bc a04b e03c
00000270: 6d8a a13a f65a bdbc 6fb1 693c 4d45 a93c
00000280: 20f1 a1bc a996 fdbc 932d d2bb 625c 873b
00000290: 5056 5dbc 706e 19bc b14d e1bb 02a6 c9bc
000002a0: 8ab2 ebbb 5b0f fbbb e832 00bc 69a9 04bc
000002b0: 1f7d d63b 1132 933c c0a9 813c 2924 8bbc
000002c0: e287 88bd 8d4e e1bc eed6 debc 2aed 9c3c
000002d0: f4a6 46bd 455c 1ebd 2d74 4a3c 4948 933d
000002e0: ca00 993d 05ad 8abd 38e2 653b d22f 5f3d
000002f0: 5d1d 6d3d 02ad 243d 266e 83bd 2497 02bd
00000300: e9e1 193d 35f9 9e3c 88d3 bebb b165 9ebd
00000310: 69cb 1b3c 5bd4 de3c 4f43 cc3b 369e 593c
00000320: e32c 2f3e fe6e 093e 4051 10bc 1f27 8abd
00000330: 49bb bdbd bc50 493e c127 c23d e97f 30bd
00000340: 123a e5bd b193 15be 63c5 da3d 6811 123e
00000350: d7f2 1fbd 44cd 80bd 825a 02be cfb0 1e3e
00000360: 614d 1b3e 7e89 c0bc f4f3 f6bd 94b1 71be
00000370: cbb1 0d3e 931c e93d 5558 c43c 7e0b 16be
00000380: 3604 83be 3dca cb3c b5ae 40bd 4adc 22bc
00000390: 1e47 ecbd 7f8a 93be c9ff ff3d c2dd 203e
000003a0: dff3 39bc 19da 01be c075 90be 535d 743e
000003b0: 263c 253e b7f9 a2b9 d622 c0bd 2c00 0bbe
000003c0: 4da1 7e3e fd0f 1a3e a31d 223d d1fb 1fbe
000003d0: 136e abbd 2a5b 693e 1a55 1e3e 2c5d 883d
000003e0: ed06 c2bd b584 aabd bd19 e0bb 8b1d 09bb
000003f0: a62d 20b9 f190 ee3a 360a b2bb 312c f8bb

conv_layer1.bias f4 [16]
0.008776179 -0.007731513 0.002327087 0.0069579063 0.0077150804 6.358891e-05 -0.008839719 -0.008904736
-0.000946153 0.00714643 0.0075778584 0.0017279873 0.008797801 0.0016050756 0.0062329182 -0.0084174285
00000000: f6c9 0f3c a258 fdbb 0b82 183b 26ff e33b
00000010: c9ce fc3b 095b 8538 78d4 10bc 2be5 11bc
00000020: 4107 78ba 9a2c ea3b af4f f83b a27d e23a
00000030: a724 103c 6661 d23a 823d cc3b 41e9 09bc

conv_layer2.weight f4 [32, 1, 5, 5]
-0.009677496 -0.021319576 0.02092379 0.017695 0.00049635454 -0.007148512 -0.0076694186 0.009729115
-0.0017971224 0.011370244 -0.0038468859 -0.025938474 -0.016452959 0.006055663 0.007638953 -0.019172922
-0.011786262 -0.0155069865 -0.017709976 0.020393921 -0.009167485 0.018747373 0.020094957 -0.0009408497
0.032115944 -0.009486397 0.00057393353 0.0071285577 -0.010547693 -0.015343981 -0.010041526 0.009096956
0.019319732 0.0008289068 -0.0038127138 0.009782859 0.016539775 -0.01731104 -0.010919547 -0.0004498284
0.016984766 0.015469031 -0.01303193 -0.017381808 -0.0027678972 0.010725839 -0.0070310887 0.0032457989
0.0015802319 -0.006869415 -0.0991125 -0.026026305 -0.03727501 -0.046751834 -0.054953363 0.03253935
-0.0069609103 -0.037139375 -0.040414985 -0.07906475 0.04659383 0.10991898 -0.0749241 0.028845208
-0.007038793 0.09908528 0.13943888 -0.04505499 0.02051143 -0.026095796 0.0049631903 0.03995292
-0.040567137 0.028656583 -0.008439888 -0.008087851 -0.07564341 -0.07239553 -0.0028364796 0.026665278
0.03792925 -0.0068158475 -0.043390702 -0.054530982 -0.057149857 -0.022071334 -0.07725138 -0.060026146
-0.06464953 -0.039688516 0.0656274 0.08912212 0.06196444 -0.033236362 -0.0013949017 0.04674235
0.15012947 0.12927368 -0.06246425 -0.0102298185 -0.0017549514 -0.0072572185 0.01025243 -0.01094803
-0.00036427184 -0.008685675 0.0023813115 0.006402483 -0.008140841 -0.015224333 0.0017907231 0.007535872
0.00084308535 0.010117313 -0.011351438 -0.0016791581 0.012697973 -0.0019442936 0.012921822 -0.0016953653
-0.008065899 0.0014232143 0.006049611 -0.0073714377 -0.013506769 0.0031034297 -0.0017856407 0.007050819
-0.0010603854 -0.0067336583 -0.0059030503 0.0054213954 -0.0072048414 0.0042847865 -0.00044863933 0.0038299393
-0.00084611727 0.0041040326 -0.0067961384 -0.008905598 -0.008359599 -0.007449428 0.003121267 -0.007147533
0.00827385 0.0039736666 -0.00040521682 -0.005286546 -0.00919543 0.0097586475 -0.0047553023 0.004213991
-0.0092195375 -0.009593998 -0.0084579075 0.0017638244 0.0039613927 -0.0037237492 0.004596611 0.008799546
0.005771082 -0.0031288094 0.0059487512 0.0056943404 -0.008984533 0.0021278914 -0.008980285 -0.0031371547
0.0027418463 0.0019506272 -0.0005294441 -0.009822387 -0.0022463696 -0.009139306 -0.0039560753 -0.005417176
0.0035759385 -0.001424026 0.008813214 0.001414692 0.002470401 -0.0057505197 0.007086088 0.0025240444
0.010229182 0.0037378755 -0.0062774965 0.008176195 0.008140082 -0.0073244544 -0.00096047245 0.0071412283
-0.0030544272 0.009637273 0.002189452 -0.007278801 -0.0066322554 0.008619807 0.0036968377 0.006770608
-0.040712286 -0.012074281 0.010467737 0.011478332 -0.004226014 -0.027868329 0.032268744 0.1258945
0.3370779 0.29358244 -0.023269556 0.007818853 0.10737463 0.3229456 0.26748833 -0.010420458
-0.02257403 -0.023109207 0.10250623 0.08874275 -0.03968609 -0.030209908 -0.041532513 0.0270421
0.10423877 -0.031431034 -0.03465004 0.11386122 0.19340196 0.15386212 -0.027128002 0.0075592767
0.012568478 -0.05787163 -0.05187734 0.070689395 0.04007032 -0.011408885 -0.022650054 -0.0337308
0.061572526 0.046063956 -0.02138019 -0.012539739 -0.026215352 -7.481685e-05 0.02977857 -0.020170104
-0.015353125 -0.0012119202 -0.07635903 -0.068594195 0.01855772 -0.07648571 -0.14199606 -0.082833305
00000000: 5c8e 1ebc 64a6 aebc 5e68 ab3c 1bf5 903c
00000010: ca1d 023a 113e eabb bf4f fbbb de66 1f3c
00000020: 6c8d ebba 434a 3a3c 091c 7cbb ec7c d4bc
00000030: 5bc8 86bc 956e c63b 2f50 fa3b 8810 9dbc
00000040: 2a1b 41bc 0411 7ebc 8314 91bc 2711 a73c
00000050: 3833 16bc 1794 993c 2e9e a43c 5ba3 76ba
00000060: 028c 033d d56c 1bbc 0774 163a ad96 e93b
00000070: 3bd0 2cbc 5265 7bbc 3685 24bc 660b 153c
00000080: 6a44 9e3c fe4a 593a b9de 79bb 4948 203c
00000090: 6c7e 873c e2cf 8dbc e6e7 32bc f2d6 ebb9
000000a0: a323 8b3c d271 7d3c e083 55bc 4b64 8ebc
000000b0: 9c65 35bb 6ebb 2f3c 0c65 e6bb 78b7 543b
000000c0: c91f cf3a d418 e1bb 7ffb cabd 1e35 d5bc
000000d0: aead 18bd da7e 3fbd c716 61bd fb47 053d
000000e0: 5918 e4bb 751f 18bd 2f8a 25bd b3ec a1bd
000000f0: 2cd9 3e3d 341d e13d ce71 99bd c94c ec3c
00000100: ada5 e6bb 39ed ca3d 11c9 0e3e 958b 38bd
00000110: 9607 a83c dac6 d5bc 42a2 a23b aca5 233d
00000120: ba29 26bd 36c1 ea3c 7547 0abc e882 04bc
00000130: efea 9abd 1c44 94bd 3be4 39bb 2471 da3c
00000140: b45b 1b3d 7957 dfbb 73ba 31bd e15b 5fbd
00000150: f815 6abd f1ce b4bc f935 9ebd fadd 75bd
00000160: f966 84bd 6d90 22bd a967 863d a885 b63d
00000170: 6dce 7d3d da22 08bd 22d5 b6ba e874 3f3d
00000180: 8abb 193e 5260 043e 83da 7fbd f89a 27bc
00000190: 6606 e6ba f6cd edbb cff9 273c 5e5f 33bc
000001a0: bdfb beb9 5d4e 0ebc c70f 1c3b eccb d13b
000001b0: 2961 05bc 7b6f 79bc b2b6 ea3a 7aef f63b
000001c0: 8002 5d3a 16c3 253c 62fb 39bc 3217 dcba
000001d0: 290b 503c abd7 feba 0db6 533c 0537 deba
000001e0: d526 04bc 268b ba3a d13b c63b 1a8c f1bb
000001f0: 7f4b 5dbc e962 4b3b 290c eaba 8f0a e73b
00000200: a1fc 8aba 05a6 dcbb 606e c1bb f6a5 b13b
00000210: 9716 ecbb 6567 8c3b 5a37 ebb9 b8ff 7a3b
00000220: f8cd 5dba 1f7b 863b 24b2 debb c9e8 11bc
00000230: b3f6 08bc 551a f4bb 2c8e 4c3b da35 eabb
00000240: 0b8f 073c 8835 823b 4873 d4b9 c33a adbb
00000250: 6ea8 16bc bce2 1f3c 5ed2 9bbb 8515 8a3b
00000260: 8b0d 17bc 2530 1dbc 0993 0abc 2030 e73a
00000270: 92ce 813b 250a 74bb 2b9f 963b f92b 103c
00000280: 581b bd3b b60c 4dbb beed c23b 9797 ba3b
00000290: dd33 13bc 1874 0b3b 0c22 13bc b998 4dbb
000002a0: 8cb0 333b 30ac ff3a 64ca 0aba 14ee 20bc
000002b0: d437 13bb 07bd 15bc f7a1 81bb 9182 b1bb
000002c0: 4b5a 6a3b 62a6 baba 4c65 103c 306d b93a
000002d0: 74e6 213b db6e bcbb 6a32 e83b 706a 253b
000002e0: 4d98 273c 25f7 743b 75b3 cdbb 73f5 053c
000002f0: fa5d 053c fa01 f0bb 37c8 7bba f700 ea3b
00000300: c92c 48bb a7e5 1d3c e97c 0f3b 0283 eebb
00000310: 6453 d9bb 173a 0d3c a546 723b fadb dd3b
00000320: edc1 26bd 35d3 45bc df80 2b3c 9d0f 3c3c
00000330: 607a 8abb 1f4c e4bc 3b2c 043d 7dea 003e
00000340: 7995 ac3e 7050 963e cc9f bebc a51a 003c
00000350: 3be7 db3d 2059 a53e 3bf4 883e 92ba 2abc
00000360: 2ced b8bc 854f bdbc c9ee d13d c2be b53d
00000370: e28d 22bd c57a f7bc ff1d 2abd 6587 dd3c
00000380: 237b d53d d4bd 00bd 33ed 0dbd 1230 e93d
00000390: 2a0b 463e 088e 1d3e 8b3b debc cfb3 f73b
000003a0: 04ec 4d3c cd0a 6dbd 557d 54bd 9ac5 903d
000003b0: c720 243d 55ec 3abc 9b8c b9bc 4f29 0abd
000003c0: 7933 7c3d 8fad 3c3d 8225 afbc 7a73 4dbc
000003d0: 94c1 d6bc fee6 9cb8 30f2 f33c c63b a5bc
000003e0: ac8b 7bbc 4bd9 9eba 2062 9cbd 1d7b 8cbd
000003f0: 5c06 983c 8aa4 9cbd 6a67 11be 82a4 a9bd

conv_layer2.bias f4 [32]
0.00441152 -0.004728076 -0.001766634 -0.014171052 0.0041258805 -0.005911253 -0.0019970855 0.0071039274
-0.027169956 -0.025182554 -0.005175117 -0.007100637 0.0039999136 0.0063219545 -0.0006397178 0.0020582923
-0.01818876 -0.034565978 -0.00808109 -0.0025233063 -0.0054996326 0.008770195 -0.0090022525 -0.003080945
0.008484452 0.009145443 -0.009711687 0.0048143663 -0.015255307 -0.0040381523 0.002725911 -0.0032845142
00000000: 838e 903b faed 9abb 678e e7ba b32d 68bc
00000010: 6532 873b 2fb3 c1bb 89e1 02bb 10c8 e83b
00000020: 8793 debc a54b cebc 0794 a9bb 76ac e8bb
00000030: b511 833b 6628 cf3b bcb2 27ba 6ae4 063b
00000040: 9800 95bc 0e95 0dbd 8c66 04bc 0e5e 25bb
00000050: 4336 b4bb ddb0 0f3c 2f7e 13bc aee9 49bb
00000060: 5f02 0b3c c5d6 153c c51d 1fbc d5c1 9d3b
00000070: 65f1 79bc 7a52 84bb 33a5 323b 0141 57bb

fc1.weight f4 [120, 1152]
0.0046156393 0.0025843899 0.00054696563 0.0032485537 -0.0006832745 -0.0034250345 0.0028417767 0.0050439555
0.0020217677 -0.0012894531 -0.0010718273 -0.00012390062 0.0022310915 0.002942031 0.0012364795 -0.0015244944
-0.00038382533 0.0010065762 0.0029202793 0.0011076934 0.0014940134 -0.00058085774 -0.002728989 -0.0006236632
0.0045392 2.8608914e-05 -9.204788e-05 0.0009567933 -0.0019687188 -0.004288555 0.008344196 0.006446198
0.0022245557 0.0014831468 0.00052198564 -0.002195456 0.0010414347 0.0026849404 0.0039276727 0.0007144428
0.00198298 -0.0023799327 -2.2820703e-05 0.003355379 0.0028949159 0.0011083651 0.0007692803 -0.0007607447
0.0012738728 0.002178399 0.0004659605 -0.00061426766 0.0023947982 -0.0017689669 -0.00071840466 -0.00012618046
0.00025984694 -0.00086133665 -0.001375242 -0.0010602 0.0007516501 0.0034912282 9.5300784e-05 0.0004066718
-0.0005821562 -0.0006305422 0.0025385788 0.0028429658 0.0029808453 0.001925909 0.0015508482 -0.0002722382
0.011985077 -0.012702566 -0.0034239364 0.005595136 3.6055717e-05 -0.0034993025 0.007287955 -0.00020227191
-0.00071783416 -0.008973325 -0.005658285 -0.005335952 -0.0032048065 0.0019434006 0.0074769477 0.0028470606
-0.008370263 0.0032716151 -0.008116394 -0.020084271 -0.0008314209 0.0061049536 -0.0033151114 -0.006572584
0.012994908 -0.0059314384 0.001172701 -0.002184047 -0.0055670673 -0.009704924 0.018681979 -0.0019221401
0.0010402336 -0.00069496216 -0.00502704 -0.0025123844 -0.0038896159 -0.0023604091 0.00084031885 0.0007889035
-0.0075468277 0.002489981 0.017688885 0.015756384 -0.010458567 0.0024206403 -0.015328786 0.016429642
0.0005107516 0.0032394635 0.0004843055 0.011186661 -0.016580746 0.011494755 -0.0028774182 -0.0101180645
-0.004739608 0.026865648 -0.0003653233 -0.009052142 0.00504876 0.0032412407 -0.0025219503 -0.0049081757
-0.009937854 -0.017936802 -0.004855452 -0.010231831 -0.009717408 -0.0023682187 0.00220235 -0.006920639
0.0004320602 -0.001259882 0.00012290111 -0.0009853505 0.0007535421 -0.00067923707 -0.0017776757 0.0008082611
7.444328e-05 0.00094470114 -0.00053229014 0.0010273221 -0.00076508935 7.655708e-05 -0.0006573095 -0.00063549576
0.0009883869 0.0014913765 0.00092329516 0.00014243033 0.00034904922 -0.00019221612 -0.0010596811 -0.0013677331
0.0004384968 0.00012168425 0.0014538037 -0.0003372347 -0.0009189613 -0.00080130016 -0.0003878854 0.0013606122
0.0011606686 0.0011112138 -0.0012264774 -0.0006531254 -0.00027035276 -0.0009173251 -0.0004729458 0.0013509323
-0.00012598101 0.00029973953 -0.00023484697 0.00080923236 0.0001657868 -0.00145208 0.0009836565 -0.0005594036
-0.0011419043 -0.0013644445 0.00078102475 0.0012259934 0.00088025315 -0.00072318653 0.0003550764 -0.0009265173
0.0013012259 0.0013237838 0.00090468896 -0.0012798428 0.00013737076 0.0008966736 -0.0008874901 -0.0007585698
-0.0007971364 0.0011877223 0.0003302064 0.0005641605 0.0006521393 -0.00038672908 0.0005592083 0.0010956905
0.0003723295 -0.0013276169 0.0007028329 0.001398642 -0.0006133523 0.00058857433 0.0005322329 -0.0008439256
-0.000224143 0.0013864696 0.0011070741 6.8795525e-05 -0.0013170426 0.00028297314 0.001456223 -0.0013836954
0.0003019659 0.0010836852 0.000558866 0.00030429047 0.0003994408 -0.00034463487 0.0013543232 0.0010184301
-0.00049513206 0.0010549028 -0.0009426545 0.00055226224 0.0011704495 -0.0010820115 0.00046112368 0.00023609563
7.1047536e-05 0.00085831474 -0.0014003214 -0.0014135673 -0.00050252565 -0.00081265206 -0.00010140147 -0.00038267032
00000000: ca3e 973b de5e 293b 3e62 0f3a b0e5 543b
00000010: c71d 33ba 8b76 60bb 1a3d 3a3b c447 a53b
00000020: a27f 043b de02 a9ba 8e7c 8cba 52eb 01b9
00000030: 8137 123b 17cf 403b 5e11 a23a 8bd1 c7ba
00000040: 2a3c c9b9 18ef 833a 2862 3f3b 0630 913a
00000050: c5d2 c33a b444 18ba d7d8 32bb 547d 23ba
00000060: 92bd 943b 2dfd ef37 d409 c1b8 50d1 7a3a
00000070: 9f05 01bb 0287 8cbb 18b6 083c a13a d33b
00000080: dac9 113b 2666 c23a ddd5 083a a4e1 0fbb
00000090: c080 883a d3f5 2f3b b5b3 803b 7249 3b3a
000000a0: e2f4 013b a5f8 1bbb 166f bfb7 ebe5 5b3b
000000b0: a1b8 3d3b 9046 913a 87a9 493a b66c 47ba
000000c0: 14f8 a63a 78c3 0e3b 294c f439 ce06 21ba
000000d0: 0cf2 1c3b aedc e7ba 5253 3cba 4f4f 04b9
000000e0: 113c 8839 53cb 61ba 7741 b4ba 69f6 8aba
000000f0: 620a 453a 17cd 643b 38dc c738 9136 d539
00000100: d79b 18ba f94a 25ba 495e 263b 0d51 3a3b
00000110: 495a 433b c86e fc3a d545 cb3a 31bb 8eb9
00000120: 0e5d 443c 6c1e 50bc 1f64 60bb 6757 b73b
00000130: 883a 1738 8e54 65bb cccf ee3b f418 54b9
00000140: 092d 3cba da04 13bc 2369 b9bb 36d9 aebb
00000150: bb07 52bb b4b9 fe3a 2f01 f53b c095 3a3b
00000160: 6d23 09bc 9868 563b a0fa 04bc c587 a4bc
00000170: b6f3 59ba 100c c83b 5742 59bb d55e d7bb
00000180: 98e8 543c 835c c2bb 51b5 993a 3a22 0fbb
00000190: f26b b6bb 6701 1fbc f30a 993c 52f0 fbba
000001a0: 7358 883a 1f2e 36ba deb9 a4bb d1a6 24bb
000001b0: ede8 7ebb 18b1 1abb d848 5c3a 6bce 4e3a
000001c0: 614b f7bb f32e 233b 48e8 903c 8813 813c
000001d0: 695a 2bbc 9ba3 1e3b 9725 7bbc 7597 863c
000001e0: f6e3 053a 2e4d 543b 62ea fd39 4248 373c
000001f0: 58d4 87bc 7f54 3c3c 1193 3cbb 3dc6 25bc
00000200: b74e 9bbb 5915 dc3c dd88 bfb9 6f4f 14bc
00000210: 1270 a53b ff6a 543b 4e47 25bb c3d4 a0bb
00000220: 61d2 22bc 33f0 92bc 7c1a 9fbb 69a3 27bc
00000230: c335 1fbc 1e34 1bbb 4d55 103b 87c6 e2bb
00000240: 2386 e239 a022 a5ba 04df 0039 e026 81ba
00000250: 5b89 453a d40e 32ba e600 e9ba 7ce1 533a
00000260: 6e1e 9c38 d2a5 773a 6389 0bba 36a7 863a
00000270: 4790 48ba 458d a038 4b4f 2cba 6697 26ba
00000280: c38c 813a 4b7a c33a 4a09 723a 5a59 1539
00000290: 9800 b739 9f8d 49b9 ffe4 8aba 8245 b3ba
000002a0: 0be6 e539 bc30 ff38 8f8d be3a e0ce b0b9
000002b0: 73e6 70ba 580e 52ba 195d cbb9 9256 b23a
000002c0: 9321 983a 26a6 913a c1c1 a0ba 8136 2bba
000002d0: 22be 8db9 a578 70ba b6f5 f7b9 c411 b13a
000002e0: c519 04b9 5c26 9d39 4141 76b9 aa22 543a
000002f0: 0ed7 2d39 b853 beba 09ee 803a f1a4 12ba
00000300: f3ab 95ba 29d7 b2ba afbd 4c3a 83b1 a03a
00000310: cac0 663a 3a94 3dba 8c29 ba39 86e1 72ba
00000320: e58d aa3a d082 ad3a a628 6d3a 66c0 a7ba
00000330: 2f0b 1039 bf0e 6b3a 74a6 68ba c2da 46ba
00000340: ebf6 50ba 59ad 9b3a 8e1f ad39 2ce4 133a
00000350: 54f4 2a3a e6c1 cab9 d597 123a 469d 8f3a
00000360: 3835 c339 6e03 aeba 513e 383a a352 b73a
00000370: 60c9 20ba 8e4a 1a3a 8c85 0b3a e33a 5dba
00000380: ee07 6bb9 33ba b53a 3e1b 913a 5146 9038
00000390: 9ea0 acba 035c 9439 bcde be3a 1d5d b5ba
000003a0: 2d51 9e39 710a 8e3a dd80 123a 2d89 9f39
000003b0: 096c d139 1cb0 b4b9 8c83 b13a d87c 853a
000003c0: c0cb 01ba aa44 8a3a 791c 77ba b1c5 103a
000003d0: c569 993a 48d2 8dba f9c2 f139 7090 7739
000003e0: 5bff 9438 8700 613a fd8a b7ba 7347 b9ba
000003f0: edbb 03ba 2808 55ba 80a7 d4b8 24a1 c8b9

fc1.bias f4 [120]
-0.0016991463 -0.0022380934 -0.0020936534 -0.00029507815 -7.444818e-05 -0.0016219631 -0.003970081 -0.00042459884
-0.0006786628 -0.0028741257 -0.0014578297 -0.0005119883 0.0005228989 0.00013312289 -0.0028471465 -0.000512867
0.0009543378 0.00018916205 0.00069261127 -0.0018025747 -0.0011836444 -0.0014329856 -0.0004540506 -0.003398442
-0.000778963 -0.0032217368 -0.0013269585 -0.0023412907 0.0012549616 0.0011674971 0.0010794175 -0.00051066204
-0.0015269367 0.0013120656 -0.0015472014 -0.0023536906 -1.8702793e-05 -0.0008851696 -0.0020030201 -0.0017792669
0.00018689482 -0.0024353485 -0.0023983107 -0.00033803456 -0.0025030868 -0.0021663639 -0.0009396278 -0.0012022279
0.0003766522 -0.0011019431 4.0569423e-05 0.00047044517 2.7860733e-05 -0.00030676887 -0.00079599366 -0.0017974897
-0.0015753761 0.0008127575 -0.0002761456 -0.0014622689 -0.0028561747 -0.0006706716 -0.0003768741 -0.0010875349
-0.0017121205 -0.00067292794 -0.0026892382 0.0010122795 -0.0008417221 -0.00090268854 -0.00011909915 -0.003402475
-0.00029954725 0.00042182268 0.00056672137 4.45231e-05 -0.0020105373 -0.003461068 0.0004618169 -0.0001506863
0.00010321065 -5.608748e-06 -0.00068230403 -0.00359742 -0.00040869537 -0.00062223925 0.0010669557 -0.0030047258
-0.0007858805 -0.0051022205 -0.0006055802 -0.00055398064 4.0234616e-05 -0.0015378756 0.0007448572 -0.0020460293
-0.0016225384 -0.0015209981 -0.002641491 -0.0019416095 -0.0026932731 -0.0002634423 -0.0014085997 -0.0014122361
-0.001009373 -0.0028617894 -0.0012387978 0.000525606 0.0009155522 -0.0032310002 -0.00013392647 -0.0017672896
-0.00085621007 5.521715e-05 0.0005081468 -0.0011106863 -0.0014962177 -0.00079221756 0.0007867436 -0.0024449741
00000000: e4b5 deba faac 12bb ad35 09bb b8b4 9ab9
00000010: 1021 9cb8 0d98 d4ba 7417 82bb b19c deb9
00000020: 4ae8 31ba d45b 3cbb a614 bfba f436 06ba
00000030: 2713 093a e796 0b39 3197 3abb ec71 06ba
00000040: 872c 7a3a cd59 4639 5b90 353a 5f44 ecba
00000050: 8424 9bba 05d3 bbba a40d eeb9 65b8 5ebb
00000060: 5233 4cba c623 53bb 57ed adba 5770 19bb
00000070: 867d a43a b406 993a 3e7b 8d3a f3dd 05ba
00000080: 7e23 c8ba 9ef9 ab3a 77cb caba 6040 1abb
00000090: f1e3 9cb7 ba0a 68ba 1a45 03bb 4a36 e9ba
000000a0: 32f9 4339 5e9a 1fbb fa2c 1dbb 3b3a b1b9
000000b0: d40a 24bb 8ef9 0dbb 5b51 76ba 1394 9dba
000000c0: 6779 c539 136f 90ba 1629 2a38 15a6 f639
000000d0: 78b6 e937 d2d5 a0b9 3baa 50ba bf99 ebba
000000e0: da7c ceba 3c0f 553a a3c7 90b9 9aa9 bfba
000000f0: a92e 3bbb 02d0 2fba 2f97 c5b9 9e8b 8eba
00000100: 3b69 e0ba 6e67 30ba ee3d 30bb 77ae 843a
00000110: 04a7 5cba 67a2 6cba dfc4 f9b8 0ffc 5ebb
00000120: 8d0c 9db9 1528 dd39 0790 143a 51be 3a38
00000130: 38c3 03bb 16d3 62bb 0420 f239 8c01 1eb9
00000140: cc72 d838 c732 bcb6 a6dc 32ba b1c2 6bbb
00000150: 2a46 d6b9 c51d 23ba 18d9 8b3a efea 44bb
00000160: 8c03 4eba 8730 a7bb cdbf 1eba 0339 11ba
00000170: 97c1 2838 8b92 c9ba 8542 433a ad16 06bb
00000180: 5bab d4ba 3a5c c7ba dd1c 2dbb 9b7d feba
00000190: a081 30bb a11e 8ab9 c3a0 b8ba c81a b9ba
000001a0: f04c 84ba dc8c 3bbb 285f a2ba d2c8 093a
000001b0: ab01 703a 30bf 53bb 9d6e 0cb9 66a4 e7ba
000001c0: 4973 60ba f798 6738 2835 053a 7394 91ba
000001d0: bc1c c4ba d2ac 4fba 783d 4e3a dc3b 20bb

fc2.weight f4 [80, 120]
-0.018906912 0.0300442 -0.024227688 -0.0031043473 0.003268925 0.005716318 0.016740043 0.0016757669
0.031520832 -0.049395204 0.01211745 -0.0050925575 -0.004062973 0.09578963 -0.05090084 0.0016759206
0.047754444 0.018873751 0.044425886 0.0016412811 0.00038004367 0.017979806 0.013644045 -0.034429003
-0.025067935 0.00041514987 0.022635242 -0.004054601 0.039667413 0.00087544374 0.0018154393 -0.008198596
0.007047468 0.0016285899 -0.022064846 0.0043722126 -0.012732001 0.0020459553 -0.033685233 0.023593014
0.017577337 -0.020183753 0.01928177 0.01978483 -0.024649344 0.0005005149 0.041100167 0.014349005
-0.0041833785 0.004225739 0.026381653 0.0049382206 0.011615777 -0.0025967918 0.00037214428 0.04124558
-0.001841638 -0.0006273413 0.0047289217 -0.018798329 0.05827454 -0.007943846 -0.0053657815 0.0042854724
-0.04533374 -0.014993081 -0.029261159 0.021702224 -0.027459301 0.028558755 -0.0046587256 0.00050619384
0.003171787 -0.009435834 0.0060998895 -0.037257995 0.06349467 -0.050094515 -0.05985765 0.077870056
0.0187989 -0.0012254817 -0.011921911 0.03848993 0.016241055 -0.002912981 -0.008056738 0.011130896
0.010455248 0.031130107 -0.0344308 -0.03861219 0.014050262 -0.028135672 0.0032429749 0.01523705
-0.011260357 -0.014173589 0.044714827 0.004472207 0.017420292 -0.0033796567 -0.039956603 -0.013370109
0.034332983 -0.034527272 -0.0037467964 0.00805059 0.00027959642 -0.002450886 0.054407388 -0.012546273
-0.01944675 -0.0035597545 0.00278006 -0.00045240333 -0.027497936 0.00012173041 -0.016965887 -0.0029236425
-0.003677324 0.00036579944 0.0041893027 -0.0016861007 -0.0014799823 -0.002393466 0.0030259802 -0.0028941587
0.002182844 -0.0063272114 0.0009663875 0.004124869 -0.0004340641 -0.0006620092 0.0022890137 -0.00030722568
0.002885419 -0.0018711225 -0.0044227517 -0.0046929712 4.280284e-05 -0.0050099175 -0.0024546555 0.00039131317
-0.005425804 -0.00056624 -0.0027030618 0.0003685992 -0.000996269 -0.0019142301 0.0016108104 -0.0038673647
0.0032077716 -0.0025809722 -0.0014411131 0.002227739 -0.004777498 0.0034784472 0.002023967 0.0016352847
-0.00048339114 0.0014009024 -0.005325827 0.0020458954 0.0012760315 6.184174e-05 -0.0040609194 -0.003429512
-0.0031520706 0.0009058382 -0.002732989 -0.0020315165 -0.00023929344 -0.0010746765 -0.003076323 -0.0008792156
-0.00032854866 -0.00011413948 0.0017946606 0.0004941658 -0.0035783777 4.389865e-06 0.0024728877 -0.0010889114
-0.0016336748 0.0008006137 0.0014464081 0.0010848892 0.0014726262 0.0026749542 -0.002342227 -0.003297757
-0.0057787537 -0.0038383184 -0.0034498854 -0.0014717011 -0.0041969074 -0.0054781944 -0.003955331 0.00066274224
-0.0021471812 -0.003071071 0.0023210833 -0.0034527485 -0.0014578416 -0.004327227 0.0023115105 0.0032815144
-0.0043121036 -0.0039295885 -0.0032572304 -0.0011567067 -0.0030181722 -0.0034180556 -0.0011449715 -0.0019485531
-0.00065655104 0.0027818168 0.0016589648 0.0036828946 -0.0044230907 0.0010029972 -0.0038426658 0.00073114637
-0.0006341392 0.0031465597 -0.000106103675 0.00020899235 0.003504895 -0.0008352374 -0.00018217263 0.0013548655
-0.004997301 -0.0043400764 -0.004391949 0.0037893816 0.003779606 -0.0043002125 -0.0033813028 0.0020022404
0.027741583 -0.0063204546 0.051609695 -0.0016310924 0.0005437272 0.016486607 -0.022308636 0.00396628
-0.045261994 0.10040557 -0.0060069775 0.0060855555 -0.0013687677 -0.016299898 -0.0004530162 0.060666442
00000000: abe2 9abc 411f f63c 2579 c6bc 4e72 4bbb
00000010: 763b 563b f34f bb3b 6a22 893c 68a5 db3a
00000020: fd1b 013d a052 4abd 4588 463c 78df a6bb
00000030: b022 85bb 5b2d c43d 667d 50bd 90aa db3a
00000040: 2a9a 433d 209d 9a3c ebf7 353d 4120 d73a
00000050: 9940 c739 634a 933c 468b 5f3c 6d05 0dbd
00000060: 455b cdbc 79a8 d939 8b6d b93c 75dc 84bb
00000070: 4c7a 223d 097e 653a 09f4 ed3a 6753 06bc
00000080: 72ee e63b 6976 d53a 56c1 b4bc c744 8f3b
00000090: e299 50bc 6f15 063b 87f9 09bd 2346 c13c
000000a0: 59fe 8f3c 6658 a5bc cdf4 9d3c cc13 a23c
000000b0: 6ced c9bc fd34 033a a658 283d 1718 6b3c
000000c0: b914 89bb 1178 8a3b 561e d83c ccd0 a13b
000000d0: 1a50 3e3c f02e 2abb 5c1c c339 20f1 283d
000000e0: 1e63 f1ba 2974 24ba 12f5 9a3b f4fe 99bc
000000f0: 49b1 6e3d e826 02bc 70d3 afbb 266d 8c3b
00000100: dfaf 39bd 8aa5 75bc 19b5 efbc ddc8 b13c
00000110: 54f2 e0bc 0df4 e93c 39a8 98bb 18b2 043a
00000120: c1dd 4f3b c298 1abc 95e1 c73b d79b 18bd
00000130: 7e09 823d e82f 4dbd 4c2d 75bd 567a 9f3d
00000140: 2700 9a3c 58a0 a0ba 1e54 43bc 9ea7 1d3d
00000150: f60b 853c b6e7 3ebb 6900 04bc 5d5e 363c
00000160: 7d4c 2b3c 9104 ff3c 4f07 0dbd d127 1ebd
00000170: 1233 663c c87c e6bc 1788 543b d2a4 793c
00000180: 5c7d 38bc 5738 68bc e526 373d 978b 923b
00000190: 00b5 8e3c 3b7d 5dbb 89a9 23bd 4d0e 5bbc
000001a0: bea0 0c3d 786c 0dbd d08c 75bb 9fe6 033c
000001b0: cc96 9239 0b9f 20bb 48da 5e3d e28e 4dbc
000001c0: ca4e 9fbc c54a 69bb ab31 363b 8c30 edb9
000001d0: 5a43 e1bc 8449 ff38 0bfc 8abc 959a 3fbb
000001e0: 42ff 70bb c5c8 bf39 6b46 893b 2700 ddba
000001f0: f7fb c1ba b2db 1cbb 864f 463b edab 3dbb
00000200: 0c0e 0f3b 7f54 cfbb 2b55 7d3a e929 873b
00000210: 1993 e3b9 af8a 2dba 4703 163b 2213 a1b9
00000220: 4c19 3d3b 7440 f5ba bbec 90bb 7fc7 99bb
00000230: 3387 3338 3c2a a4bb 49de 20bb 2a29 cd39
00000240: f1ca b1bb b96f 14ba da25 31bb 8c40 c139
00000250: 3e95 82ba e7e6 faba d421 d33a 9d73 7dbb
00000260: 7a39 523b 8725 29bb bbe3 bcba 42ff 113b
00000270: 8f8c 9cbb a9f6 633b 88a4 043b 0d57 d63a
00000280: a96f fdb9 7c9e b73a 4684 aebb 6e14 063b
00000290: 8340 a73a 08b1 8138 7611 85bb aac1 60bb
000002a0: f892 4ebb c675 6d3a f21b 33bb 3123 05bb
000002b0: d8ea 7ab9 29dc 8cba 239c 49bb 297b 66ba
000002c0: 0e41 acb9 2b5e efb8 d13a eb3a e88a 013a
000002d0: 3783 6abb a74c 9336 2c10 223b ceb9 8eba
000002e0: 0821 d6ba 47e0 513a 6795 bd3a d732 8e3a
000002f0: 2305 c13a 494e 2f3b 0c80 19bb 2e1f 58bb
00000300: b35b bdbb 4c8c 7bbb 7917 62bb 18e6 c0ba
00000310: 3686 89bb 6d82 b3bb b99b 81bb e1bb 2d3a
00000320: b9b7 0cbb 0644 49bb 511d 183b 8247 62bb
00000330: 0c15 bfba 69cb 8dbb b67c 173b ad0e 573b
00000340: 8c4c 8dbb c7c3 80bb 4277 55bb a39c 97ba
00000350: 87cc 45bb 7501 60bb de12 96ba 9866 ffba
00000360: 651c 2cba 244f 363b 9f71 d93a b85c 713b
00000370: 93ef 90bb 0077 833a 3cd5 7bbb 67aa 3f3a
00000380: 5d3c 26ba 8336 4e3b fa83 deb8 f524 5b39
00000390: 61b2 653b d5f3 5aba 9805 3fb9 be95 b13a
000003a0: 66c0 a3bb 3337 8ebb 57ea 8fbb 4657 783b
000003b0: 44b3 773b cce8 8cbb d998 5dbb 0538 033b
000003c0: 5142 e33c d11b cfbb b064 533d 61ca d5ba
000003d0: ea88 0e3a ec0e 873c 9ac0 b6bc 91f7 813b
000003e0: a464 39bd 6fa1 cd3d 2ed6 c4bb 5769 c73b
000003f0: 3968 b3ba 5d87 85bc ce82 edb9 607d 783d

fc2.bias f4 [80]
0.004680993 -0.00090712757 -0.0036899194 0.0021047164 0.0012632774 0.0031965778 0.0005775346 -0.0008966458
0.0066298037 0.005619291 0.0017515076 -0.00080308423 -0.00093854364 0.0011369563 -0.0016162756 0.002268221
-0.00029754767 -0.007320137 0.0024322122 0.0012431737 0.0075928266 5.8478458e-05 0.0010074496 -0.0019370236
-0.0025918817 -0.0015188395 0.0007705235 -0.00023626235 0.0047178953 0.0022181983 -0.0022533806 -0.0047327806
0.0023447934 -0.002119545 -0.004420327 -0.0010797397 -0.0040373607 -0.0012222856 0.00072944944 0.0034892827
0.0008549921 0.0007145883 -0.0013800196 0.002718437 0.0048758527 -0.0015938777 -0.0018631098 -0.003632612
0.0034935554 -0.0024637335 -1.923206e-05 0.0013384972 -0.0012480607 0.005615563 0.003795851 -0.005087902
-0.007932014 -0.00089904916 0.004433116 2.4207555e-05 0.0025836956 0.0004354214 -0.0038005544 -0.00044779858
0.0065266485 0.0001720409 -0.00033786224 -0.0025810124 0.006351966 -0.00094555545 -0.0029664806 -0.0042661154
-0.0014778477 -0.0041504335 -0.0015622891 -0.0005074026 -0.0036863862 -0.0016968604 -0.00032254402 -0.004165611
00000000: 0463 993b 4dcc 6dba 93d2 71bb 48ef 093b
00000010: 8e94 a53a ad7d 513b b165 173a e20c 6bba
00000020: d33e d93b 0822 b83b d892 e53a 1286 52ba
00000030: 9908 76ba ec05 953a 36d9 d3ba 6fa6 143b
00000040: 2c00 9cb9 c3dd efbb c065 1f3b fdf1 a23a
00000050: 3fcd f83b c446 7538 660c 843a bae3 fdba
00000060: 8fdc 29bb cc13 c7ba f5fc 493a 31bd 77b9
00000070: 9398 9a3b 315f 113b 74ad 13bb 7115 9bbb
00000080: 1bab 193b 10e8 0abb 64d8 90bb 0d86 8dba
00000090: d64b 84bb 1935 a0ba 8638 3f3a 73ac 643b
000000a0: 8c21 603a 3653 3b3a c6e1 b4ba ce27 323b
000000b0: 9ec5 9f3b a9e9 d0ba 9733 f4ba 1e11 6ebb
000000c0: 22f4 643b 9776 21bb 8954 a1b7 8370 af3a
000000d0: f895 a3ba c202 b83b d0c3 783b 6ab8 a6bb
000000e0: 47f5 01bc 2bae 6bba ac43 913b 5411 cb37
000000f0: 3853 293b 4549 e439 b912 79bb 82c6 eab9
00000100: 7fdd d53b e165 3439 1a23 b1b9 3426 29bb
00000110: 2724 d03b 27df 77ba 4969 42bb c5ca 8bbb
00000120: 57b4 c1ba 5c00 88bb b9c5 ccba 3603 05ba
00000130: 4c97 71bb 3069 deba 201b a9b9 ae7f 88bb

fc3.weight f4 [40, 80]
-0.022855543 0.0017016771 -0.0082421815 -0.024257654 -0.037966914 0.09266743 0.090376034 0.11034802
0.07851084 0.08851805 0.00539696 0.1145304 0.08738863 0.0013779751 -0.030728437 0.009075658
-0.0015838258 0.024286292 -0.023040604 0.016761195 -0.05622818 0.047469318 -0.019617744 0.070511706
0.010465494 0.07279303 0.049624626 -0.0027708623 -0.014755107 -0.024981538 -0.026482914 -0.0024867933
0.08743836 0.09462877 -0.05309297 -0.0059785983 0.0012222067 0.07767733 -0.027844645 -0.022267874
0.053700235 -0.02424075 0.01935869 -0.030156748 0.00077596284 -0.0056069256 -0.002744228 -0.013152694
0.08005985 -0.0155144 -0.028521055 -0.03303508 -0.014195484 0.0023640878 -0.019734688 -0.022004545
4.0463492e-05 -0.04027726 0.033471 -0.0035850918 -0.04976251 -0.037691493 0.06587019 0.00878803
0.06782379 0.02494342 -0.022598365 0.013564439 0.08142007 -0.03116637 -0.035582107 -0.013164553
-0.0031040478 -0.022285117 0.010842332 0.017923225 0.0893743 0.0903925 -0.00074634637 -0.018068878
0.010147432 0.0009265711 -0.03769546 0.06939666 -0.019879388 0.059401054 0.0298266 0.036462642
0.06017256 0.07812134 -0.011446796 -0.01846322 -0.009235671 0.09286732 0.05698989 -0.019584266
0.0077118473 0.021588737 -0.018062398 -0.013185825 0.06448189 -0.025925083 0.002111184 0.089188196
-0.025064057 0.023216994 -0.019405466 0.07553455 -0.017460495 0.023950392 -0.014588152 -0.0020397545
-0.009023757 0.069708265 -0.054062903 -0.02585697 0.0046012118 -0.027496777 -0.024138978 -0.023402708
-0.033545543 -0.018148268 -0.0030084993 -0.016552318 0.06363881 -0.03659316 0.05019068 -0.020451795
0.06220584 0.043071423 0.03571065 -0.025931405 2.967844e-05 -0.013633132 -0.030100556 0.022184007
-0.01765939 0.027747361 -0.024187282 -0.03476341 0.021813916 -0.007934739 0.08954436 0.061470013
0.04118476 -0.02098959 -0.010664423 -0.027273584 0.05280008 -0.036350947 0.05498544 0.054545935
-0.008557058 -0.02595625 -0.031295 -0.016509553 0.09856809 0.044848084 0.097033076 -0.03414999
-0.0075547057 -0.001431112 0.050526667 -0.023853427 -0.006114251 0.08771648 -0.030671338 -0.028236218
-0.025163524 -0.011876117 0.059332903 0.046653867 0.035166945 -0.026932199 -0.0094063785 0.07948589
-0.010461817 0.017649394 -0.040751714 0.0066658845 -0.04638188 -0.01705861 0.059317254 0.057429
0.067873895 0.07871584 -0.011787416 -0.0011298285 -0.02526766 -0.028767573 -0.021640673 0.0017762968
0.0077904803 0.051717244 0.0062233424 0.067155324 -0.008329082 0.07703313 -0.016245702 -0.009876736
-0.010342873 0.004738085 -0.018770363 0.025806474 -0.022821337 -0.018682353 -0.023703605 -0.009415058
-0.008004381 0.027364567 -0.032014318 0.054221313 0.035894845 -0.023244074 0.05255835 -0.006254499
0.041395627 0.08257603 -0.021714143 0.06218617 0.072154485 0.045499343 -0.012365156 -0.028756944
-0.034511544 -0.013118498 -0.019283993 0.08906239 -0.041307136 0.08771137 0.008053292 -0.005279402
-0.019627554 -0.023265334 0.0579922 0.06152833 -0.012171707 0.054535326 -0.023983492 0.059789073
-0.03002002 -0.002941273 0.062070176 0.08823489 0.027728757 0.06083478 -0.023609351 0.03382933
-0.009552253 0.058026362 -0.053665154 0.0031657934 -0.019905746 0.06047135 0.07978285 -0.010098658
00000000: 8c3b bbbc cf0a df3a 370a 07bc fdb7 c6bc
00000010: 3283 1bbd 6cc8 bd3d 1217 b93d 25fe e13d
00000020: 4bca a03d f448 b53d fbd8 b03b ea8e ea3d
00000030: cff8 b23d 2c9d b43a 34ba fbbc 12b2 143c
00000040: 6098 cfba 0cf4 c63c a6bf bcbc c64e 893c
00000050: 854f 66bd 306f 423d 64b5 a0bc 7168 903d
00000060: 7777 2b3c 8314 953d 3143 4b3d 5b97 35bb
00000070: 68bf 71bc 15a6 ccbc b2f2 d8bc 78f9 22bb
00000080: e212 b33d bbcc c13d 0478 59bd 1ee8 c3bb
00000090: 7432 a03a 4b15 9f3d 741a e4bc 1e6b b6bc
000000a0: c7f4 5b3d 8a94 c6bc 1e96 9e3c 490b f7bc
000000b0: fc69 4b3a 4dba b7bb 82d8 33bb 667e 57bc
000000c0: 6bf6 a33d 1c30 7ebc fda4 e9bc cb4f 07bd
000000d0: 2d94 68bc d0ee 1a3b a4aa a1bc e042 b4bc
000000e0: 58b7 2938 c5f9 24bd e318 093d dcf3 6abb
000000f0: c6d3 4bbd 6562 1abd f3e6 863d abfb 0f3c
00000100: 33e7 8a3d 2556 cc3c 3520 b9bc 613d 5e3c
00000110: 91bf a63d 9d50 ffbc 8bbe 11bd 23b0 57bc
00000120: 486d 4bbb 478f b6bc 09a4 313c bad3 923c
00000130: df09 b73d b41f b93d 75a6 43ba 2f05 94bc
00000140: 6a41 263c 22e5 723a 8e66 1abd d61f 8e3d
00000150: 19da a2bc 854e 733d ea56 f43c da59 153d
00000160: 8177 763d 15fe 9f3d 588b 3bbc 2e40 97bc
00000170: 3651 17bc 3931 be3d 3b6e 693d 2f6f a0bc
00000180: aab3 fc3b ddda b03c 98f7 93bc 5c09 58bc
00000190: 150f 843d d760 d4bc ca5b 0a3b 4da8 b63d
000001a0: 2353 cdbc 9131 be3c 36f8 9ebc dcb1 9a3d
000001b0: 5009 8fbc 9d33 c43c 2503 6fbc 67ad 05bb
000001c0: 61d8 13bc 35c3 8e3d 1071 5dbd ffd1 d3bc
000001d0: c3c5 963b ec40 e1bc 1bbf c5bc 09b7 bfbc
000001e0: 0d67 09bd adab 94bc 3e2a 45bb ba98 87bc
000001f0: 1055 823d b6e2 15bd be94 4d3d 868a a7bc
00000200: 8dcb 7e3d a96b 303d 5545 123d 196e d4bc
00000210: f7f5 f837 805d 5fbc 7195 f6bc 3cbb b53c
00000220: 6daa 90bc 6f4e e33c 6824 c6bc 1464 0ebd
00000230: 19b3 b23c b500 02bc 0963 b73d fbc7 7b3d
00000240: 5ab1 283d 5cf2 abbc d5b9 2ebc da6c dfbc
00000250: e644 583d bbe4 14bd 6a38 613d 8f6b 5f3d
00000260: e732 0cbc 34a2 d4bc 302f 00bd 0b3f 87bc
00000270: 11de c93d a0b2 373d 47b9 c63d dce0 0bbd
00000280: 778d f7bb 2694 bbba 0df5 4e3d 4368 c3bc
00000290: 0e5a c8bb b3a4 b33d 7542 fbbc a44f e7bc
000002a0: bc23 cebc 0c94 42bc 0f07 733d 2018 3f3d
000002b0: 370b 103d eaa0 dcbc 361d 1abc 80c9 a23d
000002c0: 0a68 2bbc 7695 903c 45eb 26bd 7e6d da3b
000002d0: edfa 3dbd 80be 8bbc a6f6 723d ac3a 6b3d
000002e0: 7801 8b3d c535 a13d 0220 41bc c116 94ba
000002f0: 20fe cebc f9a9 ebbc c847 b1bc a1d2 e83a
00000300: 4947 ff3b 76d5 533d 2eed cb3b bb88 893d
00000310: b476 08bc 8cc3 9d3d b515 85bc 09d2 21bc
00000320: 2775 29bc f041 9b3b 4ec4 99bc 1968 d33c
00000330: d0f3 babc bc0b 99bc 102e c2bc 9e41 1abc
00000340: cf24 03bc a82b e03c 7221 03bd 2b17 5e3d
00000350: 7906 133d 5b6a bebc 6d47 573d 8af2 ccbb
00000360: 768e 293d 9f1d a93d dce1 b1bc edb6 7e3d
00000370: bbc5 933d 855d 3a3d 3997 4abc af93 ebbc
00000380: fa5b 0dbd f8ee 56bc 77f9 9dbc 5866 b63d
00000390: ac31 29bd 05a2 b33d f4f1 033c d5fe acbb
000003a0: f7c9 a0bc f196 bebc 3b89 6d3d 2105 7c3d
000003b0: d76b 47bc 6f60 5f3d 0779 c4bc 63e5 743d
000003c0: 8cec f5bc 5fc2 40bb 4c3d 7e3d 7eb4 b43d
000003d0: 6b27 e33c e42d 793d 6668 c1bc a090 0a3d
000003e0: 0e81 1cbc 0dad 6d3d fecf 5bbd 3379 4f3b
000003f0: 6011 a3bc ceb0 773d 3165 a33d d774 25bc

fc3.bias f4 [40]
0.008393047 0.014777087 0.009013101 -0.010254583 0.01716849 0.014545738 0.005594395 -0.0015897684
-0.011875657 7.901444e-05 0.004042433 0.0026517613 0.0039344677 0.001247984 0.013908053 0.011706
0.008377355 0.0059157196 0.0026796756 0.008629796 0.019466808 0.0072101 0.011194587 0.011174281
-0.0021074887 0.012634464 0.009575748 0.0060974164 0.0058668144 0.006125233 0.008375822 -0.0053138267
0.0016345107 0.011912184 0.008881426 0.0023812961 0.009457357 0.012053532 0.027771907 0.0042174286
00000000: fe82 093c 981b 723c b0ab 133c d702 28bc
00000010: efa4 8c3c 3f51 6e3c 3051 b73b c75f d0ba
00000020: 1e92 42bc 8eb4 a538 6376 843b 2cc9 2d3b
00000030: b5ec 803b 6593 a33a 9ade 633c 86ca 3f3c
00000040: 2c41 093c a7d8 c13b 7f9d 2f3b fd63 0d3c
00000050: db78 9f3c b442 ec3b 8069 373c 5514 373c
00000060: cb1d 0abb c800 4f3c 99e3 1c3c d6cc c73b
00000070: 683e c03b 2eb6 c83b be3a 093c 9c1f aebb
00000080: 143d d63a 522b 433c 6783 113c 850f 1c3b
00000090: 08f3 1a3c 2d7c 453c e981 e33c 5b32 8a3b
