outfiles/cnn/ORL64_3Train_cnn.pth (torch, 613695 bytes, 10 tensors)

conv_layer1.weight f4 [16, 1, 5, 5]
000000 d8 a3 af bc d9 8f 33 3c 9f c7 a1 bb 54 50 66 3c
       -0.021440431 0.010959589 -0.0049371268 0.014057238
000010 3d 83 76 ba 5f a3 c5 3b cb 63 90 bc 58 90 2b bb
       -0.00094037113 0.0060314382 -0.01762571 -0.0026178565
000020 dd 3a 81 3c 6c 69 92 bc 87 c9 b2 3b c4 74 22 3b
       0.015775139 -0.017872535 0.005456153 0.0024788836
000030 e1 ea ac 3c b8 07 05 3c 73 d5 26 bc 64 f4 de 3b
       0.021108093 0.008119516 -0.010182726 0.006804036
000040 fb 6e 8c bc 10 4d 8e bb 74 51 95 bb d5 05 5a bc
       -0.017142763 -0.0043426827 -0.004556829 -0.0133070545
000050 68 b9 8f bb b2 4e 13 bc 92 e0 aa 3c 8e ac 89 bc
       -0.004386116 -0.00899093 0.020859037 -0.016805913
000060 a2 4d ac 3c 20 57 bf 3d 2b bc fd 3d 8c 17 37 3e
       0.021033112 0.0934279 0.12389406 0.17880076
000070 dd 7a 62 3e 64 54 9c 3d 59 45 29 bc aa ee fc 3c
       0.22117181 0.07633284 -0.010331475 0.030875523
000080 a7 be 61 3e 47 c8 84 3e 1d 08 6a 3e 0c 6d 03 bc
       0.22045384 0.2593405 0.22854657 -0.008021604
000090 57 f2 da 3d 53 34 8c 3d f1 80 be 3c 6f c7 0f 3e
       0.10690754 0.068459176 0.023254843 0.14040922
0000a0 63 50 0c be a5 01 65 bd 92 aa a1 bd de af 6a be
       -0.1370254 -0.05590977 -0.07893862 -0.2291865
0000b0 e5 6e 27 be b8 1c 43 be 72 26 88 be 14 1d 90 be
       -0.16350897 -0.19053924 -0.2659183 -0.28147185
0000c0 a9 a5 2a be 17 1d 5c be 0b 75 21 3d 09 8e 2d 3d
       -0.16664757 -0.21495472 0.03941826 0.042371783
0000d0 be c6 9c bc 7c b2 20 bc 97 d5 15 3d 7b dd 9f bc
       -0.019137736 -0.009808179 0.03658065 -0.01951479
0000e0 91 0e bf 3c 65 63 7c 3c 8f a2 80 bc 34 f8 8f bc
       0.023322375 0.015404557 -0.015702514 -0.017574407
0000f0 b7 2c 55 bc 5f 9a 94 3c 9d 3b 73 bc 7b 35 93 3c
       -0.013011149 0.018140016 -0.014845756 0.017969837
000100 84 02 5b bc e1 c1 6f 3c 7f e2 e2 bc 2f ed 4f 3a
       -0.013367299 0.014633627 -0.027695892 0.00079317664
000110 88 6c de bc 2f 6b 9f 3c 0c a6 9d bc 6f 62 da bc
       -0.027151361 0.019460289 -0.019244216 -0.026658265
000120 fa 36 2f bd 12 83 87 bc 87 42 f2 3c 19 17 d7 3c
       -0.04277704 -0.016541991 0.029572738 0.026256131
000130 11 5a 41 3c 61 28 5e 3c bf 9f 32 3c 62 87 b1 3c
       0.011801259 0.013559432 0.010902344 0.021671
000140 79 7d b9 3c 6f d2 bb 3c 5a 75 2d bc 36 6f 41 bc
       0.022642838 0.022927491 -0.010587061 -0.0118063
000150 a3 78 44 3b 54 3e bf 3c 57 fc c0 bb b3 cf a0 bc
       0.0029979132 0.02334515 -0.0058894563 -0.019630289
000160 86 fd bb 3c 51 b6 0c bc 03 f0 4a bc a3 b8 85 bc
       0.022948038 -0.0085883895 -0.012386325 -0.016323393
000170 4f 74 c8 3c f4 27 14 bc c9 38 8f bc 3c f8 9e 3b
       0.024469523 -0.009042729 -0.017483132 0.004851369
000180 80 dd 1a bb db f0 3c 3c 07 5a af bb 45 e7 b6 3b
       -0.002363056 0.011532034 -0.0053513083 0.0055817687
000190 5d 3a eb 3d 81 38 96 3d 71 e8 39 bd d5 c4 68 3b
       0.11485741 0.07334996 -0.04538769 0.0035517712
0001a0 92 86 2b bd 8f 75 e1 3d 23 01 3f 3b a6 93 79 bd
       -0.041876383 0.11008751 0.0029144965 -0.060931824
0001b0 c7 04 86 bd 79 f1 af bc e4 5e a5 3c 87 51 3e 3d
       -0.0654388 -0.021477448 0.020186849 0.04646447
0001c0 df e4 1b bc cb 47 57 3c 96 d3 ac 3c c0 d0 32 bc
       -0.009515016 0.013139675 0.021096986 -0.010914028
0001d0 44 e3 7a bd 92 50 a6 bc 6f d3 8a bc 9a ac 4a bd
       -0.061251894 -0.02030209 -0.016946523 -0.049481012
0001e0 1f 7c d9 3c 69 7d 83 bd 02 8a 6e bd e6 4c 03 3d
       0.026548443 -0.064204045 -0.058237083 0.032055758
0001f0 c0 b6 27 bd dc 88 a7 bc c4 59 57 bd f9 67 11 bd
       -0.04094577 -0.020451002 -0.05257584 -0.035499547
000200 ee f9 ef bb 3b 29 31 3d 7a 8c 69 bd 49 37 65 bd
       -0.007323495 0.04325221 -0.057018735 -0.055960927
000210 29 dd 60 bd 37 b1 bf 3c 09 a8 42 3d e1 90 2a 3c
       -0.054898415 0.023399932 0.047523532 0.010410518
000220 14 eb 58 3a b9 d3 c8 bc 90 ba 63 3d 21 98 84 3c
       0.00082747755 -0.02451502 0.05559784 0.016185822
000230 3c e0 4c bd 48 74 71 b7 b3 bd 05 3d 5a 80 77 bb
       -0.050018534 -1.4391793e-05 0.032651614 -0.0037765712
000240 58 72 2b 3d 8a 79 58 bc c4 e7 38 3c 2b 61 ae bc
       0.041857094 -0.013212571 0.011285726 -0.021286568
000250 80 9e 39 3d 54 b2 dc bc 02 86 4d bc c8 90 cd 3a
       0.045317173 -0.026940502 -0.012544157 0.0015683407
000260 51 3a a4 3b c9 67 84 bc 1d c6 83 bc 20 cd 37 3c
       0.0050118347 -0.01616277 -0.016085679 0.011218339
000270 82 28 a5 bc 77 5e 1e 3c 29 b3 09 bb 84 d1 3c 3c
       -0.020160917 0.009666077 -0.0021011329 0.011524562
000280 80 52 f9 3b 72 94 02 3c 1f 6b a7 bb ae f8 ab bc
       0.0076087117 0.007969962 -0.0051092054 -0.020992603
000290 3a 84 10 bc 23 0b 33 3c e7 32 c6 bb 16 ca a0 3c
       -0.008820588 0.010927948 -0.0060485485 0.019627612
0002a0 2f 6d ec 3b bd b0 98 3c 07 d6 9e bc 53 85 d2 bb
       0.007215164 0.018638963 -0.019389166 -0.006424585
0002b0 d5 61 29 bc 29 6f 5d 3a 5e 04 21 3c 7e 20 88 3c
       -0.010338266 0.0008447045 0.009827701 0.016617056
0002c0 f6 0d 98 bc 9b 54 2d bc d1 a6 99 bc 38 b8 87 ba
       -0.018561345 -0.010579254 -0.018756302 -0.0010354584
0002d0 f2 cb 31 3c a8 d9 20 bb 65 75 0a ba f5 e3 93 bc
       0.010851847 -0.0024543796 -0.00052817754 -0.018053034
0002e0 a4 03 77 3c 71 56 18 3b 28 79 83 bb b7 85 53 3c
       0.015076552 0.0023244882 -0.0040122457 0.012910298
0002f0 74 f0 e1 bb 45 4b 3d 3b 5c cd 7d bc 0e 01 09 bb
       -0.0068951193 0.0028883975 -0.015490856 -0.002090517
000300 e5 69 ef bb 85 a8 1e 3c 33 1f 6f bc 20 3e 52 bc
       -0.007306325 0.009683733 -0.014594841 -0.012832195
000310 a1 bc 31 3c 5e a7 d4 bb f5 8f 25 3b 91 84 96 bc
       0.010848195 -0.0064896783 0.0025262807 -0.01837376
000320 0c 99 80 be f4 41 10 be ef 64 3f bd 8f 17 4a 3d
       -0.25116765 -0.14087659 -0.046727117 0.049338873
000330 ab 9f 34 3c 8d d4 1a be 36 9b 5d be 3e 12 fa bd
       0.011024396 -0.15120144 -0.2164124 -0.12210511
000340 26 24 85 bd 20 24 53 3d 27 bb f7 bd 96 87 a6 bd
       -0.065010354 0.051548123 -0.12096243 -0.0813133
000350 71 5e 66 3c 97 57 38 3e 7a e7 6b 3e 41 c1 14 bd
       0.0140606025 0.18002163 0.2303752 -0.036317114
000360 84 bd 76 bd ab fb 16 3e 33 57 94 3e 26 c0 89 3e
       -0.06023933 0.14744441 0.28972778 0.2690441
000370 f2 41 8c 3d 3b cd d6 3d 3f 06 3e 3e 95 40 7f 3e
       0.068485156 0.10488363 0.1855707 0.2492698
000380 7b 2a a8 3e e2 e8 bf b8 e9 33 f6 b9 a1 c0 ae bc
       0.3284491 -9.1509675e-05 -0.00046959452 -0.021332087
000390 62 1b 87 3b 6c a0 b0 bc 1d af 08 3c 56 b6 78 bc
       0.0041231373 -0.02156087 0.0083425315 -0.015180191
0003a0 cc 25 a3 3c b5 a1 b1 3c a5 5d dd ba 61 ba 5b 3b
       0.019915484 0.021683553 -0.001688887 0.0033527839
0003b0 e4 fd 8c bc bf 11 0d 3c a4 1c 97 bc 46 34 24 bc
       -0.017210908 0.008610188 -0.018446274 -0.010022229
0003c0 0e 1a 81 3c 13 35 8a 3b 70 b4 8d bc 4f e5 5d bc
       0.015759494 0.0042177527 -0.017297953 -0.013543441
0003d0 98 40 8f bc e1 3c 8b bc db 03 93 3c b4 86 99 3c
       -0.017486855 -0.016996803 0.017946174 0.01874099
0003e0 4d 16 a7 bc 73 91 a7 3b 02 3c 81 ba 84 1d dc 3b
       -0.020396376 0.0051137744 -0.0009859803 0.0067173857
0003f0 5b 8f e6 bb 34 5f a1 bc e2 5a ae 3c 6b df af bc
       -0.0070361323 -0.019698717 0.02128357 -0.021468839

conv_layer1.bias f4 [16]
000000 96 03 2a 3b a0 41 2d 3c 32 ad 01 ba 2f 04 9e 3c
       0.0025942079 0.010574728 -0.00049467676 0.019289104
000010 98 b9 52 bc b0 f5 0c 3c 15 fe a3 bc 1e 33 af 3b
       -0.012861632 0.008603498 -0.020018617 0.00534667
000020 1f 1b 0e bc f7 0e 31 3b 35 0d 98 3b 85 dd 9d bc
       -0.008673458 0.0027016976 0.0046402463 -0.019270668
000030 3d 25 92 3a bf 08 72 3b d7 6b a2 bc 57 50 4b 3b
       0.0011150014 0.0036931483 -0.019826813 0.0031023228

conv_layer2.weight f4 [32, 1, 5, 5]
000000 37 96 41 bc d7 55 ec bb a8 9b a5 bc 5b ac 68 3c
       -0.011815599 -0.0072123813 -0.020215824 0.014201249
000010 23 34 65 3c ef 50 91 3c 8c be 61 bc 46 d6 67 3c
       0.013989481 0.017738787 -0.01377834 0.014150208
000020 6c 21 33 3c cf 91 90 bc 0d 60 99 3c fb 19 78 3c
       0.010933261 -0.017647652 0.018722558 0.015142913
000030 df 8a 8d 3c 49 88 31 bc 65 6f 67 3b 53 fc 7b 3c
       0.017278133 -0.010835716 0.00353142 0.015379983
000040 68 f5 88 bc 1d 78 02 bc 18 6b 9e bc 7e 65 59 3b
       -0.016718581 -0.007963208 -0.019338176 0.0033172066
000050 91 3f 1a bb b1 3f 2c bc 4d e2 8e 3c 22 12 51 bb
       -0.0023536424 -0.010513232 0.017441893 -0.0031901677
000060 bf c8 39 3b db 88 94 bc e1 3b 2a 3c a7 54 6a 3c
       0.0028348414 -0.018131664 0.010390253 0.014302409
000070 09 83 c0 bb 57 c8 41 bc 77 35 47 bc a4 67 0a 3c
       -0.0058749956 -0.01182755 -0.012158743 0.008447561
000080 cb cd 15 bc bd 9c eb ba 4b 4a 95 3c 3d 33 14 bc
       -0.009143303 -0.0017975789 0.018223902 -0.009045419
000090 e1 92 ae 3c a4 83 8b 3b 9c f3 b4 3b 61 5e 4a 3c
       0.021310272 0.004257636 0.0055222046 0.012351603
0000a0 43 fc 96 3c eb 30 5a bc 40 52 5e bc df d6 a5 bc
       0.018430835 -0.013317327 -0.013569415 -0.02024406
0000b0 93 d2 90 bc 0e 7a 29 3c e4 14 2e bc 8d 3e 8d 3c
       -0.017678535 0.0103440415 -0.010625098 0.01724174
0000c0 3e b3 a3 bc 27 23 54 3c 4d a4 ab 3b 32 15 98 bd
       -0.01998293 0.012947834 0.005238092 -0.07425918
0000d0 c0 ad af bd 77 71 9e bd 69 e8 b6 bb 15 c8 78 bd
       -0.08578062 -0.077364855 -0.0055819047 -0.060737688
0000e0 46 9d 0f be 37 4a 1e be 44 ff bc bd 91 e2 34 be
       -0.14024839 -0.15457998 -0.092283756 -0.17664553
0000f0 86 f6 d6 bb bc 18 39 bc fa f7 68 3c 34 86 5b bd
       -0.0065601496 -0.011297401 0.0142192785 -0.053594783
000100 cd d4 fa bd 7e fd 44 bd af 52 de 3d c6 07 d2 3c
       -0.1224762 -0.04809331 0.108556144 0.025638472
000110 cf 09 de bd 5a 0c 46 3d d8 e3 ad 3c 0b e1 5e 3e
       -0.108417146 0.048351623 0.021226808 0.21765535
000120 6b 8e 7e 3e 95 18 4c 3e 1f 97 a4 3d 51 37 89 bd
       0.24859016 0.19931252 0.080366366 -0.06700004
000130 32 67 13 bd cc 1b 90 bd c2 db 25 3d b9 9b d8 3a
       -0.035987087 -0.07036552 0.04049278 0.0016525901
000140 59 84 c4 bd 1b e7 1a be 5a 34 3b be 0c 2b c7 bc
       -0.09595556 -0.15127222 -0.1828169 -0.024312519
000150 dd b0 1b be 30 3e 91 bc 7e c6 46 3d ec 8f bc 3d
       -0.15204187 -0.017729849 0.04852914 0.092071384
000160 c3 90 1f be 9f 9d 3e be 96 2c f5 bd 72 d6 73 3e
       -0.15582566 -0.18614815 -0.11971395 0.23812273
000170 10 a6 c2 3e 67 22 46 3e 9e cc ed 3c f7 51 cc 3c
       0.3801732 0.19349061 0.029028233 0.024941428
000180 31 a1 81 bd 59 14 1f 3e 8c 56 2a 3e d2 ad 90 bd
       -0.06329573 0.15535106 0.16634578 -0.070644036
000190 f7 66 98 3c c6 f5 2c bb c5 5b 1e 3c f8 d2 53 bb
       0.018603785 -0.002639161 0.009665434 -0.0032321792
0001a0 ef e1 d5 3c d8 28 88 bc 9b 0d bb bb 5a 69 b2 bc
       0.02610871 -0.016621038 -0.005708409 -0.021778751
0001b0 03 08 c3 3b 93 83 ff 3b 63 ab a5 3c c8 41 b0 3c
       0.005951883 0.0077976673 0.020223325 0.021515742
0001c0 ac 56 b6 bc 1c 0a d8 bc f4 65 7d 3c 08 2b cd bb
       -0.022258125 -0.026372008 0.015466202 -0.0062612332
0001d0 b2 18 9a 3c 3f 49 8e bc 0c 5c b0 3b ac 68 36 bc
       0.018810604 -0.01736891 0.0053820666 -0.011133354
0001e0 1c b7 3f 3b 38 0e ac 3c 5a 1e 38 bc a5 2c 07 bc
       0.0029253429 0.021002874 -0.011237705 -0.00825039
0001f0 a0 02 9a bc 1a 09 b4 3c 82 07 df ba c2 c0 97 bc
       -0.01880008 0.021976996 -0.0017015787 -0.018524531
000200 cf df 90 bb dc ed 8a bc 3c 6f da 3b a7 6f 5f bc
       -0.0044212113 -0.016959123 0.006666092 -0.01363746
000210 94 b2 83 3b 24 86 b9 3c 98 6e 1f bc 65 ed 88 bc
       0.004019091 0.022646971 -0.009730957 -0.016714761
000220 e0 1d 4e 3c 67 3b c4 3c 33 da 18 ba 3f d7 0f bc
       0.012580365 0.023954106 -0.0005830854 -0.008779346
000230 d6 5e d0 3b d0 a3 87 bc 6e 40 ff 3c 31 87 65 3c
       0.0063589616 -0.016557604 0.031158652 0.014009283
000240 dd 56 a0 bc 8a 68 a9 3b 67 f1 16 3c e7 45 4e 3a
       -0.01957267 0.0051699327 0.009212828 0.00078686926
000250 66 cd fc ba f9 34 3e bc 80 2a b3 bc c4 f2 18 bc
       -0.0019287288 -0.011609309 -0.021870852 -0.009335224
000260 18 81 ad bc db a1 78 3c cf 53 9c bc 46 92 c7 3c
       -0.02117972 0.015175308 -0.019082932 0.02436174
000270 da e0 1c 3c 60 49 a1 3c bd a8 f7 bc 37 30 03 bd
       0.009575093 0.019688308 -0.030231828 -0.032028403
000280 09 08 4e 3c 2f bc b3 3c 3c 3b 04 bb 46 8a 5e bc
       0.012575158 0.021940319 -0.0020176908 -0.013582772
000290 58 47 ee bb d1 aa c8 3c 40 89 fc 39 f4 14 b3 bc
       -0.0072716884 0.024495514 0.00048167445 -0.021860577
0002a0 d6 e7 9d bc a1 f5 3a 3c 94 1b 23 bb d3 6a b8 3c
       -0.019275587 0.011411102 -0.0024888264 0.022511875
0002b0 c2 5b 89 bc 9d 65 9e 3c 73 a0 cf bc 27 f3 5f bc
       -0.016767386 0.019335562 -0.025345063 -0.013668812
0002c0 fb 74 42 bc 54 91 a7 3c 64 4a 40 3c 8a fd 44 bc
       -0.011868711 0.02045504 0.011736486 -0.012023339
0002d0 5e e7 75 3c ee 35 56 3c ac 2c 6f bc 5f f5 1a 3b
       0.0150087755 0.013074381 -0.014598053 0.0023644788
0002e0 54 b7 dc ba cc b2 19 3c 3a a4 29 bc 98 ca 39 bb
       -0.0016839304 0.009381007 -0.010354096 -0.0028349515
0002f0 d0 74 a8 bc 2a 64 a4 bc 59 ce 5e 3c 9e 63 b0 bc
       -0.020563513 -0.020067293 0.013599002 -0.021531876
000300 29 5f 0b bc 54 4f ac bc 43 d7 1a 3c d0 52 88 bc
       -0.008506575 -0.02103392 0.009450736 -0.01664105
000310 44 dc 9b bc 2c 88 88 bc 40 5c c3 bb 26 c7 1a bc
       -0.01902593 -0.016666494 -0.005961925 -0.009446895
000320 d0 83 1b 3d 6d 9e e8 3c be d3 31 bd f3 9c c5 ba
       0.037967503 0.028395856 -0.043414824 -0.0015076682
000330 60 fe 5d bb 8f a4 33 3c 27 9d 53 bc 96 73 07 bd
       -0.0033873543 0.010964527 -0.012915886 -0.033069216
000340 02 f7 8f 3c 6a f0 e2 bc 15 19 bd 3b 25 8e 1e bd
       0.017573837 -0.027702529 0.0057708123 -0.03870978
000350 68 48 59 bb 7d 5e b3 bc 2f 5d 5f 3d 08 45 ed bc
       -0.003315473 -0.021895641 0.054532226 -0.02896358
000360 ba ce 86 ba c0 b7 00 bd 36 35 38 3c ee 16 a2 3d
       -0.0010284998 -0.031425238 0.011243155 0.0791453
000370 62 cc 71 3c 7a c3 c2 bc 4f 82 d7 b9 d6 c5 64 3d
       0.014758201 -0.023774851 -0.00041105083 0.055852734
000380 f8 8e 84 3d cf f2 6c 3d 64 cd d3 bc 3d 48 57 3c
       0.064725816 0.057848748 -0.025854774 0.013139782
000390 38 e0 c8 bb c8 cc ce 3c 07 ea 71 3d e3 e6 e8 bc
       -0.0061302446 0.025244132 0.059061076 -0.028430408
0003a0 82 f9 86 bc bb cd ba 3a 98 e9 50 3d b1 0b 3a 3c
       -0.016476396 0.0014251986 0.051004022 0.0113553265
0003b0 95 51 6e bc e2 c6 72 3c ce 3c aa bc a9 3a 51 bc
       -0.014545818 0.014817925 -0.020780947 -0.012770333
0003c0 b3 55 21 bc 46 f8 30 bc 78 78 8e bc 58 9c be 3b
       -0.009847092 -0.0108013805 -0.017391428 0.0058169775
0003d0 dd be 0a bc 17 56 9f bc 99 56 42 bc d2 6a 4c bb
       -0.008468357 -0.01945023 -0.011861467 -0.00311916
0003e0 1c 73 94 bc ca eb af bb ff db e1 bb c2 0e ac bc
       -0.018121295 -0.0053686844 -0.0068926807 -0.02100313
0003f0 b7 f4 e9 bc 48 2d f8 3c 3c a2 2d 3d 97 c4 3b bd
       -0.028559072 0.03029503 0.042391047 -0.04584178

conv_layer2.bias f4 [32]
000000 b6 86 8c 3c 1c 25 96 bc ee 82 3a bc fb 5a be bc
       0.017154079 -0.018328242 -0.011383755 -0.023236742
000010 d1 9c 8b 3c e2 56 94 ba 6d 69 55 bc ba 85 6e 3c
       0.01704255 -0.0011317397 -0.013025624 0.01455825
000020 36 8a 47 bc bb c1 1a bc 1b a7 9d bc 4c d0 b4 bc
       -0.012178948 -0.009445603 -0.019244721 -0.02207198
000030 01 16 a7 3c 94 32 ca 3b 98 e0 86 bb 4a c9 a0 3b
       0.020396234 0.00617058 -0.004116129 0.004906808
000040 ac 46 96 3c 57 6d 94 3b 13 05 8c 39 c0 5b 33 3c
       0.018344246 0.004529636 0.0002670666 0.010947168
000050 6d 80 5d 3b e2 f1 35 3c 9e 7e 50 bc 1d 3b e4 ba
       0.0033798472 0.011105033 -0.0127255 -0.0017412637
000060 a7 c1 cf 3b 93 f5 b1 bc ad c7 1c bc 25 14 0c bd
       0.006340224 -0.021723544 -0.009569091 -0.0341989
000070 8d 98 82 bc f0 8a 69 3b 7d 20 da bc fb be ac bc
       -0.015941883 0.0035635792 -0.02662682 -0.02108716

fc1.weight f4 [120, 1152]
000000 ce 82 cf 3a bb da 38 bb fc 11 23 3b 5c 72 b3 39
       0.001583183 -0.0028206545 0.0024882546 0.00034226745
000010 07 87 17 3b 19 b1 3c 3b 6f 9f 5d ba a5 bf 80 3a
       0.0023121254 0.0028792082 -0.00084542384 0.000982274
000020 ca 27 2e 3b d0 af 49 3b 2d 74 02 bb 6e 1f c6 ba
       0.002657401 0.0030774958 -0.0019905672 -0.0015115568
000030 4b 74 fb ba c4 1d 69 ba 9e b2 5f bb cb b2 60 3a
       -0.0019184438 -0.000889268 -0.0034133564 0.0008571564
000040 c6 24 52 3b 4a 96 1c bb 79 40 a7 ba d6 14 43 3b
       0.0032065376 -0.002389329 -0.0012760303 0.0029767058
000050 7f 64 26 3b fc c5 cf 3a 08 b3 e9 3a 45 ca fd 39
       0.002538949 0.0015851851 0.0017829845 0.00048406623
000060 f4 6b a9 b9 48 76 e0 ba 0b 0d a0 b7 7a b2 b8 3a
       -0.00032314623 -0.0017125094 -1.907956e-05 0.0014091276
000070 a5 68 18 ba 07 36 06 3b 70 75 a6 3a 52 5c 34 3b
       -0.0005813933 0.002047898 0.0012699794 0.0027520848
000080 40 81 e4 ba c5 50 3f 3b b2 35 c6 3a 96 2f 26 b9
       -0.0017433539 0.002919243 0.0015122204 -0.00015848721
000090 56 c0 20 3b 93 1d e0 b9 da 74 f5 ba b6 d9 2d 3b
       0.0024528704 -0.00042746644 -0.0018726841 0.002652747
0000a0 0e b5 90 3a a5 2f 2c bb ae 3e da ba 90 b2 3a 3b
       0.0011040287 -0.0026273516 -0.001665076 0.002848778
0000b0 7a dd be b9 01 97 bc ba 69 7e 4b bb 68 86 51 3b
       -0.00036404637 -0.0014388264 -0.0031050688 0.0031970982
0000c0 2b a1 34 bb 7a 0a 0a bb ae 8a 38 b8 db a3 37 3b
       -0.0027561884 -0.0021063373 -4.3998174e-05 0.002802125
0000d0 d6 af 6c ba 33 a3 66 3a 55 f3 35 bb 51 2b d2 ba
       -0.0009028887 0.0008798122 -0.0027763445 -0.0016034638
0000e0 c3 e0 b4 ba b2 d7 0d bb ec 45 2b bb 3a e3 5c ba
       -0.0013799894 -0.0021643457 -0.0026134206 -0.00084261934
0000f0 83 97 f2 ba 72 e3 e7 3a 18 0d db ba 27 b2 0c ba
       -0.0018508289 0.0017691685 -0.0016712276 -0.0005367123
000100 b0 fa f7 3a ec 94 04 bb bd b4 15 3b 66 ed 59 39
       0.0018919315 -0.0020230366 0.0022843324 0.0002078317
000110 d1 81 99 ba 42 24 4a 3a 53 7e 02 3a 4b 82 21 bb
       -0.0011711662 0.00077110913 0.000497793 -0.002464431
000120 82 10 26 bc 35 74 00 bc 5b bc 7c 38 57 65 0f 3a
       -0.010135772 -0.007840206 6.02569e-05 0.0005470118
000130 c5 7c 9c ba 43 92 c6 bb 58 8f 66 ba 66 d2 62 3b
       -0.001193904 -0.006059916 -0.00087951636 0.003461027
000140 dc 71 90 3c 27 67 9b 3c 86 63 c0 3c fb 2b 16 3d
       0.017632417 0.018970085 0.023484956 0.036663037
000150 29 90 bd 3b a8 e2 06 bc f2 99 8a bc 03 95 c3 3b
       0.0057850075 -0.00823275 -0.01691911 0.0059686913
000160 31 29 16 3c 8a 40 a4 bb 17 9a c4 3b eb 39 ae 3c
       0.009165094 -0.0050125765 0.0059998143 0.021267852
000170 f1 dd 1c 38 58 b6 bd b9 7f 8c 03 bb 39 24 05 bb
       3.7399997e-05 -0.00036184746 -0.0020072756 -0.002031578
000180 b9 48 08 bb 3e 03 c5 3b 21 28 b8 37 35 8a 61 bb
       -0.00207953 0.0060123494 2.1953196e-05 -0.0034414653
000190 cf 38 04 bc 6d 23 35 3c 30 e7 ed bc 89 af d9 bc
       -0.008070185 0.011055809 -0.029040903 -0.02657296
0001a0 19 0b cf bb 93 63 0c bc 86 98 a2 bc c0 41 c0 bc
       -0.0063184616 -0.008568662 -0.01984812 -0.023468852
0001b0 49 d6 a8 bc 56 e2 f7 3a 2d 69 3d 3c dc 32 0e 3c
       -0.020609992 0.0018912058 0.01156072 0.008679118
0001c0 28 e3 84 bc b9 0a 86 bc d2 e9 99 bc 73 bc 25 3b
       -0.016221598 -0.016362535 -0.018788252 0.0025289326
0001d0 38 a1 ed 3b b8 b2 bf 3c d1 8f d8 ba c0 ae 73 3d
       0.007251885 0.02340065 -0.0016522353 0.059492826
0001e0 7b fc c5 bb 3a 93 31 bc 5e 54 e1 bc 82 bc 20 3d
       -0.006042061 -0.010838324 -0.02750605 0.039242275
0001f0 69 19 5a bc 98 47 9a bb b2 65 82 3b fe 4d 68 3c
       -0.013311722 -0.0047082417 0.003979408 0.014178751
000200 a6 42 80 bb ee 49 10 bb 61 84 9e bb 23 86 1f 3c
       -0.003914195 -0.0022016722 -0.004837558 0.0097365705
000210 3e 1f 84 bc 95 b6 04 3c 24 9a c8 3b 5a ab 4f 3c
       -0.016128179 0.008100172 0.0061218906 0.012675131
000220 f4 1c e8 ba 01 6d 55 bc 6f 37 ce bc 6c e6 3d bd
       -0.0017708824 -0.013026477 -0.025172917 -0.046362326
000230 52 7c 7f bc 82 47 f1 bb 2b 03 58 3b 16 9c b4 bb
       -0.015593605 -0.0073632607 0.0032960873 -0.005511771
000240 40 f1 72 bb f5 44 4e ba 6c c7 c2 ba 11 06 0b 3b
       -0.0037070066 -0.0007868552 -0.0014860458 0.0021213333
000250 56 3e 30 bb 6e b0 5c ba 1b 15 b7 b9 65 fe 9a 38
       -0.0026892624 -0.0008418624 -0.00034920205 7.390677e-05
000260 b2 23 54 3b 56 d7 1c bb 61 39 41 bb 9a 7f bd b9
       0.003236991 -0.002393206 -0.0029483663 -0.0003614396
000270 b9 5b 94 3a 6b cf 0d bb e0 e8 34 bb c2 8b 01 ba
       0.0011318839 -0.0021638523 -0.0027604625 -0.0004941785
000280 dc 5a f7 3a 8d 0f 7c 3a f3 41 8c b9 5c 92 d7 ba
       0.0018871683 0.00096153544 -0.00026752017 -0.0016446817
000290 70 7f 4b 3b 35 a7 72 bb a8 e5 db ba d4 d5 ea ba
       0.00310513 -0.0037025933 -0.0016776817 -0.0017916509
0002a0 a3 59 1b bb b7 54 62 ba 56 01 04 bb f0 41 a5 3a
       -0.002370455 -0.00086338393 -0.0020142398 0.0012608152
0002b0 2e 3d 46 3b 77 69 44 bb 2a 68 2a 3b 94 4d 91 3a
       0.0030248868 -0.0029970089 0.0026002028 0.0011085742
0002c0 10 2a 1f bb dd 7b b7 ba d4 17 37 bb a8 4c 0c bb
       -0.0024286546 -0.0013998706 -0.0027937787 -0.0021407995
0002d0 14 b5 81 3a f6 1b 3b bb 54 7d 94 3a fa 11 35 3a
       0.0009895884 -0.0028550602 0.0011328855 0.0006907281
0002e0 17 cb 8f ba 9f ec e5 ba f6 3a 38 3b 70 94 f1 ba
       -0.001097056 -0.0017541832 0.0028111315 -0.0018431079
0002f0 c6 50 6f 3a 32 a7 42 3b 9b d6 d7 ba 04 5d ae 3a
       0.00091291626 0.0029701707 -0.0016467156 0.0013302867
000300 5d f7 28 bb 25 6b 03 bb bb 69 08 37 e2 7b c9 39
       -0.0025782206 -0.0020052877 8.130849e-06 0.00038430007
000310 10 36 81 ba 04 49 96 3b f7 fe e5 3a 14 7c f8 b9
       -0.0009858031 0.004586341 0.0017547299 -0.00047394692
000320 d9 0e 7d bb 24 0a b2 ba ea 98 0f bb 52 be e0 ba
       -0.0038613586 -0.0013583344 -0.0021911212 -0.0017146564
000330 a5 e7 05 3b 21 ff 65 39 4f 03 5a bb dc 4b 5b bb
       0.002043226 0.00021934185 -0.0033266132 -0.0033461964
000340 b8 53 27 b9 11 bf da ba bb 6f 38 3a 46 a7 51 bb
       -0.00015957549 -0.0016689022 0.0007035692 -0.0031990572
000350 87 fd ea 3a 62 64 28 bb 60 46 82 b9 be 2c 17 b8
       0.001792834 -0.0025694598 -0.00024847966 -3.6042875e-05
000360 f3 21 9a ba ce 88 33 bb 6f 67 ef 39 9c af 11 3b
       -0.0011759385 -0.0027394774 0.00045662696 0.0022229915
000370 95 df a2 3a 76 d2 51 b8 14 0c 22 3b 43 61 72 39
       0.0012426252 -5.002549e-05 0.0024726437 0.00023115151
000380 78 30 9c 3a 48 57 db 3a 30 d3 05 3b 49 84 7c 3a
       0.00119163 0.0016734386 0.0020420067 0.0009632749
000390 b4 bc b0 3a 1f 70 dc 3a 30 6b bd ba 3d d0 3d ba
       0.0013483972 0.0016818083 -0.00144515 -0.0007240808
0003a0 54 2c b8 ba 8f 95 f3 3a 86 3a cf 3a 6a aa b2 ba
       -0.0014051297 0.0018584001 0.0015810288 -0.001363111
0003b0 74 34 f6 3a 95 52 4d 3b 5b ba 0e 3b 94 51 19 3b
       0.0018783943 0.003132974 0.0021778557 0.0023394572
0003c0 dc f1 8c ba 66 ea f1 39 80 93 60 b9 57 d2 b1 38
       -0.0010753232 0.00046141742 -0.00021417253 8.4791965e-05
0003d0 32 ef d6 3a 68 a7 35 3b c5 4b 5b ba 02 17 fb ba
       0.001639819 0.002771819 -0.00083654776 -0.0019156637
0003e0 7f e5 1d bb 21 72 48 bb 38 ac 1f bb 87 d2 09 3b
       -0.002409309 -0.0030585604 -0.0024364125 0.0021030025
0003f0 61 c3 3f bb a8 eb 2a 3a 29 a8 28 bb 29 4f 79 ba
       -0.0029260742 0.0006520101 -0.0025734997 -0.0009510392

fc1.bias f4 [120]
000000 57 26 1f 3b 75 da 71 39 03 e1 89 bb f1 a3 72 bb
       0.0024284327 0.00023064933 -0.0042077317 -0.0037023986
000010 9b 76 1c 3b 6f 67 71 bb 10 f6 8c 3a 21 a2 36 bb
       0.0023874405 -0.0036835333 0.0010754485 -0.0027867632
000020 8e eb 19 3b 0c 4c 47 3a 08 c9 10 3a 78 9b 2f 3a
       0.0023486349 0.00076025794 0.000552312 0.0006698887
000030 0a 00 a1 b9 80 ca 44 bb 5d bf e0 39 83 9a a3 ba
       -0.00030708342 -0.0030027926 0.00042867186 -0.0012481961
000040 df 8b 75 b9 55 64 6c 3a 9a ed 43 b9 bd b9 05 3b
       -0.00023417127 0.0009017636 -0.00018685163 0.0020404898
000050 7c 2b f6 ba 71 09 1a 3a f9 7d 1a 3a 07 79 41 3a
       -0.001878127 0.00058760407 0.0005893405 0.00073804
000060 09 2f 00 bb f0 a7 55 ba a0 3d 25 bb 2b b8 e0 ba
       -0.0019559285 -0.000815033 -0.0025213733 -0.001714473
000070 31 d0 9a ba 84 82 1a 3b f1 19 3d bb 08 64 ea 3a
       -0.0011811313 0.0023576329 -0.0028854574 0.0017882595
000080 7f 08 8a ba 0e c3 f4 ba d2 2e ab ba 82 9b 7e 3a
       -0.0010531096 -0.0018673853 -0.0013060218 0.00097125035
000090 53 05 03 bb 5a e6 73 bb 23 84 e8 ba ff 09 8e bb
       -0.0019992187 -0.0037216158 -0.0017739575 -0.0043346877
0000a0 4e d3 ba b7 17 84 90 bb dd 4a e3 3a 20 60 ca ba
       -2.2271324e-05 -0.0044102776 0.0017341037 -0.0015440024
0000b0 be 4e 22 bb db fd 80 bb 6b f3 07 39 a2 b7 04 ba
       -0.0024766172 -0.003936512 0.00012965284 -0.0005062764
0000c0 30 d9 fa ba af b0 63 b9 90 38 2a bb 18 30 23 bb
       -0.0019138213 -0.00021714227 -0.0025973655 -0.0024900492
0000d0 dd c6 0c bb 81 f7 cd 3a 69 1e db ba d1 fe 5f 3a
       -0.0021480836 0.0015714021 -0.0016717437 0.00085447455
0000e0 a2 b6 0b bb 21 ff 03 bb 96 4b 19 bb 16 77 00 bb
       -0.0021318574 -0.0020141082 -0.0023391 -0.001960223
0000f0 04 87 8b ba 32 4e 27 bb 08 11 46 3a 03 bf ac 39
       -0.0010645096 -0.0025528786 0.00075556384 0.0003294871
000100 3c f4 7b bb 66 8a 7f 39 0c c5 20 3a 1f 51 7c bb
       -0.0038445136 0.00024370253 0.0006132878 -0.00385005
000110 20 76 6f bb 9f 17 a7 ba c5 29 7b bb 54 c5 e6 39
       -0.0036538914 -0.0012748129 -0.0038324457 0.0004401604
000120 f1 46 14 3b a4 f9 9a bb 9c a7 1b 3b f5 99 33 bb
       0.0022625292 -0.0047294665 0.0023751026 -0.0027404998
000130 ba 53 5e ba 46 ec 43 ba 20 41 b0 39 d7 98 0f bb
       -0.0008481104 -0.0007473867 0.00033617858 -0.0021911168
000140 8f 24 87 ba 06 62 c7 39 6c 65 7c bb b0 0b 25 bb
       -0.0010310578 0.0003802927 -0.00385126 -0.0025183968
000150 a5 a2 0b bb f3 10 b8 ba bd bb cf 3a cd e9 08 bb
       -0.002130666 -0.0014043137 0.0015848797 -0.002089131
000160 64 57 6a ba 3e 7f d6 39 05 6b 77 bb 19 2f 55 39
       -0.0008939414 0.00040912064 -0.0037752998 0.00020330808
000170 82 c7 5a 3a c7 c5 da ba 2c cb ab b8 c4 cf e9 ba
       0.0008345769 -0.0016691022 -8.191759e-05 -0.0017838408
000180 ab e3 05 bb 9b 01 70 ba 54 fe 0c bb b4 f5 19 bb
       -0.002042989 -0.00091555127 -0.0021513896 -0.0023492398
000190 53 24 60 ba 41 f1 fe ba 79 1c 9d bb c7 58 a4 bb
       -0.00085503346 -0.0019450561 -0.004794654 -0.005015466
0001a0 39 11 84 3a 32 c0 b6 b9 ca 00 d9 ba f0 24 14 bb
       0.0010075934 -0.00034856942 -0.0016556021 -0.0022605024
0001b0 04 24 f3 ba 6a d0 0e 3b 0d be 41 ba b7 68 e3 ba
       -0.0018550162 0.0021791705 -0.00073906855 -0.0017349933
0001c0 30 da d6 3a 5d 7f 3d b7 c7 fe 15 bb c1 ad 0a 3b
       0.0016391929 -1.1294932e-05 -0.0022887455 0.0021160694
0001d0 67 35 66 3a a0 c1 90 3a de 1d 2c 3b 33 06 ef b8
       0.0008781761 0.0011044033 0.002626292 -0.00011397563

fc2.weight f4 [80, 120]
000000 ff 33 c9 3a 2e 17 02 ba 04 50 8f bb ef 19 b9 3a
       0.0015350579 -0.00049625605 -0.0043735523 0.0014122109
000010 a5 78 0c bc 57 78 5e bb 76 8d d8 3b c3 ae 01 ba
       -0.008573686 -0.003394624 0.0066086603 -0.0004947001
000020 5c fc 10 3b 81 88 86 bb 4c 01 51 bc b5 c5 e2 3b
       0.0022123074 -0.004105628 -0.012756657 0.006920541
000030 aa c3 a6 bb c4 e1 7e 3a c7 2b a7 3c 0b bc c1 ba
       -0.005089243 0.0009722973 0.020406617 -0.0014780773
000040 ab 5a 5c bc e4 02 a7 3b 3e 04 8c 3b f4 b8 86 ba
       -0.013449351 0.00509678 0.0042729666 -0.0010278509
000050 2c 25 f4 3b eb 99 b3 ba 63 3b cc bb 7e 1b 0a 3a
       0.0074507203 -0.0013702487 -0.0062326654 0.0005268379
000060 5b 4f 8d b9 74 6a b7 3a c9 6c 9e bb 93 50 df bb
       -0.0002695274 0.0013993517 -0.0048347455 -0.006815025
000070 56 ef b2 39 7c f0 f9 3a b4 d9 84 3b 62 71 06 3c
       0.00034129125 0.0019068862 0.0040542725 0.0082057435
000080 92 f0 05 3a 15 cd 8c 3b ea 2d 70 ba 0a aa 2a bc
       0.0005109395 0.0042969086 -0.0009162115 -0.010416517
000090 f2 33 c6 3b c8 94 d0 3b 75 8a 21 bc 0b 8e 28 bc
       0.006048673 0.0063653924 -0.009859671 -0.010287772
0000a0 86 df 99 3b a8 e1 dc bb f3 41 59 3a 15 d8 87 bb
       0.0046958355 -0.0067407675 0.000828772 -0.004145632
0000b0 2b bc 4f 3a d4 2b ef ba 1e 74 09 3c 49 d9 67 3b
       0.00079244626 -0.0018247315 0.008389501 0.0035377315
0000c0 79 e4 c9 ba a1 15 af bb 71 d5 93 bb 6a 55 59 3b
       -0.0015403173 -0.0053431545 -0.004511528 0.0033162483
0000d0 bb 9a 1b 3b 75 10 ca 3b f7 60 fc ba 74 fc c2 bb
       0.002374335 0.0061665126 -0.0019254972 -0.005950505
0000e0 27 a0 1e bb 46 b7 18 bb 9c 0d 04 bc fc a4 1b bc
       -0.0024204345 -0.00233026 -0.008059885 -0.009499785
0000f0 cc d5 16 3c fa c5 80 3b 01 92 90 39 d5 5a 1c 3c
       0.009206247 0.0039298506 0.00027574602 0.00954314
000100 97 3b 0f bc 2f 7c a2 bb 3d ac 16 bb 39 a3 f1 3b
       -0.008742235 -0.0049586515 -0.0022990846 0.007374194
000110 28 57 61 b9 82 23 da bb 51 62 e0 bb a7 89 d4 3b
       -0.0002149014 -0.006657065 -0.0068476577 0.006486136
000120 fc 81 61 bc 93 a0 3e bc 52 92 16 3c 8d 84 33 3c
       -0.013763901 -0.011634964 0.009190159 0.010956896
000130 db 4c ff ba e8 57 5a 3c 03 03 64 bb e1 15 8e bb
       -0.0019477861 0.013326623 -0.0034791834 -0.0043361043
000140 bb 58 b1 39 32 37 96 3a 6b e6 2a bc 2c 4e 12 3c
       0.0003382618 0.0011460541 -0.0104309125 0.00892977
000150 80 71 4a 3c e0 e4 09 3b 07 37 6b 3b be a8 e9 3b
       0.012356162 0.002104096 0.0035890953 0.0071307113
000160 3f 9b ab bb 40 28 11 bc ca c3 43 3c 4b fb da bb
       -0.0052370126 -0.008859694 0.011948535 -0.0066827885
000170 e8 67 40 3a b8 14 05 bc 0c 9d bd ba f6 c0 89 bb
       0.0007339702 -0.0081226155 -0.0014466359 -0.004203911
000180 8e f1 29 3b 53 68 6b bb a1 ae e5 3b 7a 90 45 3c
       0.0025931331 -0.0035920336 0.007009343 0.012058372
000190 97 c5 20 bc 34 eb ca 3a 94 28 d0 bb 7d d8 aa bb
       -0.009812734 0.0015481473 -0.0063524935 -0.0052137957
0001a0 23 bb bf 39 36 8a 66 3b 6a 94 1e bc 97 0b 60 3c
       0.00036569787 0.0035177595 -0.009678939 0.013674638
0001b0 2b e6 9c b9 14 88 98 3c 27 d7 23 3c 50 07 e8 3b
       -0.00029926127 0.018619575 0.010000027 0.00708095
0001c0 36 b5 e0 bb 37 0f 3d bb 4e 92 c0 bb ae bf a5 ba
       -0.0068575395 -0.002884818 -0.005876816 -0.0012645626
0001d0 f1 19 83 bb b4 76 f2 3b b8 08 dd 3c 0b 07 e3 bb
       -0.004000895 0.0073994044 0.026981696 -0.00692833
0001e0 e9 1a 7d bc 35 bd 94 bb c9 40 59 3c 35 3d 39 3d
       -0.01544831 -0.004539157 0.013260075 0.045224387
0001f0 f1 63 50 bb 15 8d 01 3d c4 0f c8 3c f8 5f 32 bc
       -0.003179785 0.031628687 0.02442158 -0.010887139
000200 e9 07 58 bc 00 fc 82 bc da 16 62 3b 08 68 43 bd
       -0.01318548 -0.015989304 0.0034498484 -0.047706634
000210 f1 3e c2 bc f0 29 ef bb ee c3 a6 bc 32 39 0d 3d
       -0.023711653 -0.0072987005 -0.020357098 0.034478374
000220 9a 5e e4 3c ca 6d cb bc 90 c2 bb 3b 3d 8f 42 bb
       0.02787714 -0.024832625 0.0057299808 -0.0029687427
000230 0c b3 9a 3c b5 5b 4f bc 6c b5 0d 3d 72 1c 00 3c
       0.018884204 -0.012656142 0.034596846 0.007819282
000240 c7 70 67 3c 8b a0 93 bc 5f 27 6b 3d 92 04 1e bc
       0.014126009 -0.018020889 0.057410594 -0.009644644
000250 c4 17 94 b9 49 b0 08 3c 08 62 0c bd 71 2e 4a 3d
       -0.00028246467 0.008342811 -0.034273177 0.049360696
000260 e6 d0 61 bd 5a a2 bd bb f4 00 60 3d d3 81 f6 bc
       -0.05513086 -0.005787176 0.05468841 -0.030091202
000270 be d2 53 bc 97 f9 98 bc 95 cb 28 bc 15 72 18 3c
       -0.012928663 -0.018673701 -0.010302444 0.009304543
000280 2b 30 89 bb 26 f7 93 3d 61 d3 32 bc 96 3f 33 bc
       -0.0041866503 0.07224874 -0.0109146545 -0.010940453
000290 74 a0 04 bc 87 07 e3 3a c5 0c b1 bc 60 b0 bf bc
       -0.008094896 0.0017320969 -0.021612534 -0.023399532
0002a0 7f f7 96 3b ea b4 5f bc 83 fd 10 3c 09 d2 c6 bb
       0.0046071406 -0.013653973 0.008849504 -0.0060675186
0002b0 31 1f 40 bb 3e 85 12 3c ac 1c c9 3c a3 33 b7 bc
       -0.0029315467 0.0089429 0.024549805 -0.02236349
0002c0 03 9a 40 bc de 9b 9a bb 87 c0 9b bc 5e ed 1a bc
       -0.011755469 -0.004718288 -0.019012703 -0.009456007
0002d0 d5 4b 47 bc df 7f d8 3c 71 f7 61 3d 26 ad e9 3b
       -0.012164076 0.026428161 0.05516762 0.0071312366
0002e0 7a 75 72 3d 09 be 20 bc 2f 45 19 3b 04 96 32 3d
       0.059194066 -0.009810933 0.0023387184 0.043600097
0002f0 93 9c 5f 3d 89 09 d1 bc 8e dc be 3d b9 d0 7d 3c
       0.05459268 -0.025517242 0.09319411 0.015491658
000300 3e d0 3e bb 78 f9 04 bd 36 97 ab bc 97 31 02 ba
       -0.0029115821 -0.032464474 -0.020946126 -0.0004966496
000310 6c 3a 8e bc 1f 3f b8 bb c4 e3 80 bc c0 31 5f bd
       -0.017361842 -0.005622759 -0.015733607 -0.054490805
000320 8f 2d d8 bb 5d a0 34 bd c3 58 a4 3c 73 ed 1e bb
       -0.006597228 -0.044098247 0.020061856 -0.0024250417
000330 68 7c 02 3d 5c 6e 93 3c 7c 30 53 bd 70 91 98 39
       0.031856924 0.01799696 -0.05155991 0.0002910006
000340 e1 72 65 3c 45 ac 04 3d 82 52 f2 bb 2b de 8b 3d
       0.01400444 0.03239085 -0.0073950896 0.068294846
000350 57 e6 8a 3c 18 8f 1a 3c 86 e9 4f 3b 75 88 0a 3d
       0.016955538 0.00943353 0.0031724884 0.03382154
000360 94 38 f2 3c d8 4b 0b bc f6 f6 c8 bc a5 7f c8 3c
       0.029567994 -0.008501969 -0.024531823 0.024474928
000370 e6 c8 01 3d a5 c9 35 bb 37 26 9e 3d 92 6d b8 3c
       0.031685732 -0.0027738598 0.07722133 0.022513185
000380 c1 ad 89 bc e5 47 99 bc 31 33 38 b9 12 01 29 3c
       -0.016806485 -0.01871104 -0.00017566678 0.010315197
000390 31 65 07 3c db 9f c9 bc d1 21 6e 3d b2 ae b8 3c
       0.008263872 -0.024612358 0.05813772 0.022544239
0003a0 0f 12 05 bc b3 a6 c9 bc b7 38 87 bc f3 89 9f 3c
       -0.008121981 -0.024615621 -0.016506536 0.019474959
0003b0 c3 56 b4 3c a5 89 84 3d 53 38 53 3c e7 7c cc b8
       0.022014027 0.06471566 0.012891847 -9.750743e-05
0003c0 45 80 e6 3c 1b fe e8 3b fd ad ba 39 d3 ce 79 bd
       0.028137336 0.00711037 0.00035606316 -0.06098826
0003d0 37 71 11 bc 58 1a aa 3c a9 7a ab bc ae c2 cb bb
       -0.00887709 0.020764515 -0.020932512 -0.006218276
0003e0 12 68 73 3b cb fc 26 3c 8b 16 41 bc 65 24 76 3c
       0.0037140888 0.0101921065 -0.01178516 0.015023326
0003f0 9c de bb b9 6d 63 ba b8 82 04 3f 3d f0 ae f3 3c
       -0.00035833276 -8.887691e-05 0.04663516 0.029746503

fc2.bias f4 [80]
000000 bd fe 12 3c f8 7c 07 3c 00 08 68 39 da ae be 3a
       0.008971867 0.008269541 0.00022128224 0.001454796
000010 37 ca 7d 3b 32 a8 f8 3a b2 1e 68 bb 0d d5 de 3b
       0.0038725266 0.0018971025 -0.0035418686 0.0068003
000020 87 46 c4 3b 2b 53 fb 3b 00 89 24 bc ec 54 dd ba
       0.005989853 0.0076698265 -0.010042429 -0.0016886271
000030 82 70 a5 3b 52 8d 04 3c 9c 15 f8 3a 76 08 01 bc
       0.0050488124 0.008090334 0.0018927339 -0.007875552
000040 f6 21 22 bb c2 f3 07 bc 66 9f ee 3b af 07 89 3b
       -0.002473948 -0.0082978625 0.0072821854 0.004181824
000050 c2 ec 0d ba bf c1 b3 3a 2c ab af 3b cb 52 7f bb
       -0.0005414003 0.0013714357 0.0053609814 -0.003895926
000060 0b 5b 90 bb 9d 9e b7 3a 74 b2 2f bc f5 63 79 3b
       -0.0044053844 0.0014009062 -0.010723699 0.0038053964
000070 4f e3 91 bb e7 e4 85 ba ad b1 89 bb 0c 59 15 ba
       -0.004452146 -0.0010215313 -0.004202089 -0.0005697168
000080 2f 4a 0d bb 11 5b a0 3a a4 c0 84 bb 18 8b 2c bc
       -0.002155911 0.0012234171 -0.004051285 -0.010531209
000090 ab 76 e5 3b e0 c9 f5 ba 04 e7 0f 3c 42 a6 07 3b
       0.0070026717 -0.001875218 0.008783106 0.0020698463
0000a0 5e 9d 43 3b 1d 34 e7 3b d9 99 e9 3b 4f bb 50 3b
       0.0029848437 0.007055773 0.007128936 0.0031849926
0000b0 12 69 95 3a 75 08 c4 bb 16 e0 06 3c 0a ff 24 bb
       0.0011399111 -0.0059824535 0.008232137 -0.002517643
0000c0 50 a8 bb bb 66 22 4a 3b 2f d4 b8 3a f9 83 42 bc
       -0.0057268515 0.0030843257 0.0014101322 -0.011872285
0000d0 60 f6 a0 bb 28 36 b8 bb d9 ca 75 bb fb d6 4c bb
       -0.0049121827 -0.0056216903 -0.003750494 -0.0031256068
0000e0 6e 5d 85 bb c4 43 f5 3a c5 e4 81 bb de 74 73 bb
       -0.0040699756 0.0018712212 -0.003964039 -0.0037148516
0000f0 26 c9 ab bb 29 69 cd 3b 47 e6 ba ba 97 8f 0f 3c
       -0.0052424846 0.0062686396 -0.0014259302 0.008762262
000100 d7 4b ed 3b 75 1a b6 3b c2 ad e0 3a c5 8d cd bb
       0.007241707 0.005557353 0.0017141628 -0.0062730038
000110 52 5e 1b 3c e4 59 14 bc 9d 16 44 ba b1 3b cc 39
       0.009482937 -0.009054635 -0.0007480176 0.00038954386
000120 11 41 ac 3b 17 bc bf 3b 93 17 a9 3b 1d 70 ad 3b
       0.00525678 0.0058512795 0.005160281 0.005292906
000130 c2 3d e7 3b bd e0 96 3b 74 17 a3 3b 0d 47 1c 3b
       0.0070569227 0.0046044276 0.004977161 0.002384606

fc3.weight f4 [40, 80]
000000 6b 13 16 bc cd 91 07 bd 33 74 8e bc b4 55 12 3d
       -0.009159903 -0.03309803 -0.017389392 0.035726264
000010 9b f9 25 3d 4c 4c 4c bc bb ba c2 3c 83 83 67 bc
       0.040521245 -0.0124693625 0.02377068 -0.014130476
000020 17 1e 43 3c f5 0e f1 bc f6 5c 9a 3d 72 c5 8b bc
       0.011909029 -0.029426077 0.07537262 -0.017061923
000030 0a 50 bb 3d 0e aa d0 bc dc c2 65 bc a7 7d 10 bd
       0.091461256 -0.025471713 -0.014023509 -0.03527608
000040 d4 d6 22 bd 79 d6 1b 3c 93 c6 1a bd 4a cc c7 bc
       -0.039755657 0.0095115835 -0.03778703 -0.024389405
000050 d2 4f c1 bc 6d 75 9d 3d b1 0a 93 3c 8c 4a 9e 3d
       -0.023597632 0.07688413 0.017949434 0.077290624
000060 94 ba e2 bc cf 07 44 bd 0a 44 aa ba 72 81 4c bd
       -0.027676858 -0.04785901 -0.0012990248 -0.049928136
000070 59 f0 d3 bb 6d 7c 73 3b bb 14 8f bc ca ac f2 3c
       -0.0064678607 0.003715302 -0.01746594 0.029623408
000080 66 3c 85 bc 2a f6 63 bd ff 78 a9 3d e4 02 37 bc
       -0.016264152 -0.055654682 0.08275031 -0.011170123
000090 cc 0f 19 bc 42 e8 af bc 56 69 90 bc 2a 45 39 3d
       -0.009342145 -0.021473054 -0.017628353 0.045231976
0000a0 af 20 79 3d 4b 27 33 bd 05 47 38 bd 7b d2 7a 3d
       0.060822185 -0.043738645 -0.044989605 0.061235886
0000b0 39 7f 17 bd 45 f3 24 bd 79 ea ba bc 39 53 69 3d
       -0.036986563 -0.040271062 -0.022816883 0.056964133
0000c0 bc 34 a4 bc 2f 01 0f bc b1 80 9c 3d b1 cb a4 3d
       -0.020044677 -0.00872831 0.076417334 0.080466636
0000d0 0c 08 06 3c 8f 60 30 3d f0 aa dd bc da 01 39 3c
       0.008180629 0.043060835 -0.027059048 0.011291945
0000e0 cc d5 8c 3c fb 04 4b 3d 68 0f 68 3d 44 d2 a8 3d
       0.01719179 0.049565297 0.056655318 0.0824323
0000f0 c3 b0 76 bc 5e 60 08 bd 3e 75 21 bd 2b 8e 1e bd
       -0.015056792 -0.033295028 -0.03941845 -0.0387098
000100 d5 26 4b bc be f1 10 3b 03 cb 6f bb 63 92 26 bd
       -0.012399395 0.0022116746 -0.003658951 -0.04066695
000110 40 13 f9 3c a4 96 81 3c 3f 51 61 3d 4e 36 a2 bc
       0.030404687 0.015818901 0.055009123 -0.019801285
000120 0b 64 8a 3d 15 11 ea bc 7d 50 01 3d d0 6b 77 3d
       0.06757363 -0.028572598 0.0315709 0.060405552
000130 2f a1 aa 3d a8 66 92 3d 68 86 fa bc 0a 58 ef 3b
       0.083315246 0.071484864 -0.030581668 0.0073041962
000140 e2 c3 09 3d 5e 92 b6 bc 18 ab 97 3d d7 37 16 bc
       0.033634074 -0.02228659 0.074056804 -0.009168587
000150 37 c8 99 3c d8 a4 e9 bc 9c 83 48 3d 58 6d c4 3c
       0.018772228 -0.028520986 0.048953637 0.02397792
000160 52 11 30 bd d3 95 eb bb f2 39 92 bc 89 72 d0 bb
       -0.042985268 -0.0071894913 -0.017849896 -0.00636131
000170 f2 69 82 3d 47 94 79 3c 3e d7 c5 bc cd 56 c9 bc
       0.06367864 0.015233106 -0.024150487 -0.024577523
000180 b3 b1 bf bc 1f b5 1e 3c ba a3 89 3d a1 b1 16 bd
       -0.023400163 0.009686737 0.067206815 -0.036790494
000190 97 d9 7d 3d 1f 47 df 3c 23 8d b8 bc 72 8d 33 3d
       0.061975088 0.027255593 -0.022528237 0.043836065
0001a0 ab c3 d1 bc 6b 25 48 bc 82 f3 71 3d 14 3e 3b bc
       -0.025605997 -0.012215952 0.059070118 -0.011428375
0001b0 b3 17 41 bd fa d9 1a 3a 86 9c ac bc fa 6f 5b 3c
       -0.047141742 0.0005907115 -0.02107073 0.0133933965
0001c0 7b 77 7b 3d 2f e6 8e 3d 08 36 8d bc 12 f8 20 bc
       0.061393242 0.06977498 -0.017237678 -0.00982477
0001d0 98 89 09 3d 30 5b 09 bd fd 07 2b bc 2e 1b a9 bb
       0.033578485 -0.03353423 -0.010438916 -0.005160711
0001e0 af d1 9e 3b 87 38 48 bd 01 7c 86 3d 02 98 09 bd
       0.0048467736 -0.048882034 0.065666206 -0.03359223
0001f0 84 d9 84 3d 9f e1 7a 3d ee 89 14 3d f7 17 74 3d
       0.064868 0.061250325 0.036264353 0.059593167
000200 c1 2c 85 ba 46 cd 06 3d d6 61 7c bb c8 e7 8e bc
       -0.0010160432 0.032910608 -0.0038510463 -0.017444506
000210 ed 51 fb bc 48 af 3e 3d 80 6f 00 3c 9b 3a 67 bb
       -0.030678714 0.04655388 0.007839084 -0.0035282734
000220 be 5e 98 3d b2 8b 8f 3d 1f 5e 26 3c 07 36 d4 bc
       0.07439946 0.07009067 0.010154276 -0.025904668
000230 b0 e3 6a 3d be c9 8e bc 84 e4 87 3d b4 96 7d 3d
       0.057346046 -0.017430183 0.06635383 0.0619113
000240 be c2 03 bd 5b 71 61 3d 65 23 27 bd 36 2f 37 3d
       -0.032168142 0.055039745 -0.04080524 0.04472276
000250 9e e5 11 bd 20 4b ea bc 93 49 66 bb 64 a9 d4 bc
       -0.03561937 -0.028600276 -0.0035139068 -0.025959678
000260 b0 2c 84 bc 63 1f 68 3c d2 a8 bc bc 96 35 2f bd
       -0.01613459 0.014167639 -0.023029719 -0.042775713
000270 e4 fd 3f bd a2 f2 ea bc 5e ab 3f 3d 78 6d 22 bd
       -0.04687299 -0.02868015 0.046794288 -0.03965518
000280 04 0e dc 3a d3 7d 38 3d 88 55 af bc c1 d8 be 3d
       0.0016788845 0.04504187 -0.02140309 0.09318686
000290 57 67 e4 bc 28 b9 31 3d 8d e0 77 3d e9 56 1f 3d
       -0.027881308 0.04338947 0.060516883 0.038901243
0002a0 c0 d5 af 3c 8b e7 bf bc 16 4e c7 bc 44 37 85 bc
       0.021464229 -0.023425838 -0.024329226 -0.016261704
0002b0 b7 74 1a bd 2e 8a 62 bd 6a 3c ab 3c 70 fc b1 3c
       -0.037708964 -0.05530756 0.020902831 0.021726817
0002c0 a2 3d 59 3d 60 d8 60 3a c5 3c a6 bc 45 83 b9 3d
       0.053037293 0.0008577164 -0.020292649 0.09058241
0002d0 cd c2 3f bc ee a8 25 bd 4d e4 44 bc d3 aa 3b bd
       -0.011704159 -0.040444307 -0.012017322 -0.045817208
0002e0 c1 92 c7 3b c4 14 c3 3c 3e 1c 1b 3d 84 4c 68 bd
       0.0060904925 0.023813613 0.03786873 -0.056713596
0002f0 2d 0f 39 bd 48 10 86 3b 6c 5c 96 3d b7 8d 25 bd
       -0.04518049 0.0040912963 0.07341847 -0.040418353
000300 6a 26 a1 bc 4a c3 87 3d 1a e1 0a 3d 45 d1 af 3c
       -0.019671638 0.06629045 0.03390608 0.021462092
000310 41 e8 c3 bc c2 b1 61 3d aa 8a 77 3d a4 9a 83 3d
       -0.023914458 0.055101164 0.060434975 0.0642598
000320 9c 96 99 3d af ed 00 3d af 88 68 3d ca 85 b6 bc
       0.074994296 0.031476673 0.056770977 -0.022280592
000330 91 2f 64 bd 24 7d 82 3d 63 e4 25 3c 2e a7 ee bc
       -0.055709425 0.06371525 0.010125252 -0.029132452
000340 7a 54 fb 3b 3a d8 21 3d d5 22 ca 3c b7 e6 33 3d
       0.0076699825 0.03951285 0.024674812 0.0439212
000350 0a fa be 3d 14 7c 18 bd 5d da b6 bc b1 27 1c 3d
       0.09325035 -0.037227705 -0.02232092 0.03812379
000360 f3 3e 15 bd a2 76 57 3d 30 d7 68 bd 5c 56 8c bc
       -0.036436986 0.05260337 -0.056845844 -0.017131023
000370 a4 0c 0a bd 06 13 7e 3d 16 09 9e 3c f3 9c 5a bd
       -0.03370346 0.06202986 0.019291442 -0.053372335
000380 a0 0a 85 3d 76 3e a2 bd 29 a0 89 3c 36 2c ad 3d
       0.06496167 -0.0792207 0.016800003 0.08455698
000390 15 93 40 3d e5 3e 33 3d 19 88 bf 3d a5 fd 2d 3d
       0.04701527 0.043761153 0.093521304 0.042478222
0003a0 ea 3d 1c 3c 26 88 4e bd ce 36 0e bc 4d 04 d4 3d
       0.009536246 -0.05042281 -0.008680059 0.10352383
0003b0 69 f1 84 3d 78 09 a3 bc 44 2b 0f bc ec 5d a2 3c
       0.06491358 -0.019901976 -0.008738343 0.019820176
0003c0 69 be 0d 3c d2 66 20 3d be 68 6e 3d 49 70 3d bd
       0.008651354 0.039160557 0.05820536 -0.04624966
0003d0 81 04 e3 bc 34 a6 9a bc e4 79 ab 3d 35 c1 97 3c
       -0.027712109 -0.01887808 0.08372858 0.018524745
0003e0 17 6e f1 bb 07 54 75 bc 92 b8 b2 3d 84 a6 4b bd
       -0.00736786 -0.014973647 0.0872661 -0.04971935
0003f0 48 a1 f2 3c c7 c6 4e 3d 0d 3f 8c bd a3 30 c3 3b
       0.02961792 0.050482538 -0.068479635 0.0059567257

fc3.bias f4 [40]
000000 45 90 11 39 06 74 6a 3c 51 b2 9c 3c 2a 42 7a 3c
       0.00013882022 0.014309889 0.019127997 0.015274564
000010 dd 70 50 3c e5 65 cf 3c a4 ba c5 3c 7a a9 bc 3b
       0.012722221 0.025317142 0.024136849 0.005757508
000020 41 14 16 bc 28 2b ae 3b fd 4e f0 3a 65 68 ea ba
       -0.009160102 0.005315203 0.0018334087 -0.0017883895
000030 c3 d0 39 3c 44 a6 b8 3b 3c bd 94 3b ec 76 4b 3c
       0.011341277 0.005635055 0.00453916 0.01241849
000040 f6 24 f4 3b 8f 66 76 3c b8 be 16 bb c2 a5 68 bb
       0.007450695 0.0150391 -0.002300186 -0.003549919
000050 93 26 20 3b 04 c5 4f 3c 6c 42 0b 3c 6f cd 6c 3c
       0.0024437055 0.0126812495 0.008499723 0.014453276
000060 79 f4 13 3c 30 62 7d 3c 07 3e 0c 3c 2b 3b 88 3b
       0.009030455 0.015465304 0.00855971 0.004157444
000070 bb 6e c5 3b 74 6e d9 3c 07 7d 1b 3a 2a dc 26 bc
       0.006025163 0.026541926 0.0005931411 -0.010184327
000080 ea 36 64 3b 1a 65 b4 3c a4 48 1a 3b 65 a2 34 3b
       0.003482277 0.022020865 0.0023541832 0.0027562615
000090 29 48 eb bb b0 ee 39 ba 42 66 74 3b 30 23 a8 bb
       -0.007180233 -0.0007092757 0.0037292396 -0.005131148
