outfiles/cnn/ORL64_4Train_cnn.pth (torch, 613695 bytes, 10 tensors)

conv_layer1.weight f4 [16, 1, 5, 5]
0	0xbb88d4aa	-0.004175742
1	0xbbc36820	-0.0059633404
2	0xbbce5241	-0.0062964265
3	0xbbb6240d	-0.005558497
4	0xbb9fbc14	-0.0048747156
5	0xbbc44bb3	-0.0059904694
6	0xbc0d584a	-0.008627007
7	0xbba90c40	-0.005158931
8	0x3b58d857	0.0033087933
9	0xbb9f0074	-0.004852349
10	0xbc09971b	-0.008397843
11	0xbb412ecf	-0.0029477363
12	0xb93659d5	-0.00017390338
13	0xbaa055c8	-0.0012232596
14	0xbc0aff7c	-0.008483764
15	0x3b8bf119	0.0042706844
16	0xbbfeed20	-0.0077797323
17	0xbbe2c883	-0.0069208755
18	0xb9a9eb67	-0.0003240958
19	0x3bae265f	0.005314633
20	0x3c11af26	0.008891856
21	0xb7a4d37e	-1.9648807e-05
22	0x3b1c0123	0.0023804388
23	0xbc151746	-0.009099787
24	0xbbdc8152	-0.0067292834
25	0x3dddd0e8	0.10830861
26	0xbcd5c16a	-0.026093204
27	0xbdc0ef4f	-0.094206445
28	0x3d91688c	0.07100019
29	0x3e87332e	0.26406235
30	0x3cefd7a2	0.029277626
31	0xbdb258e4	-0.08708361
32	0xbdeb0367	-0.11475258
33	0x3d0f36eb	0.034964483
34	0x3e535207	0.2063676
35	0xbaa983b4	-0.0012932927
36	0xbdf089fc	-0.117450684
37	0xbe0a84ce	-0.13527223
38	0x3db0c0c8	0.0863052
39	0x3ddeac32	0.108726874
40	0x3b8ef206	0.0043623475
41	0xbe4de71e	-0.20107695
42	0xbe127bcf	-0.14305042
43	0x3d526f01	0.051375393
44	0x3e48ac04	0.19596869
45	0xbe17364a	-0.14766803
46	0xbe779683	-0.2417851
47	0xbe1a92c8	-0.15095055
48	0x3dfe59de	0.124194846
49	0x3e44bdcc	0.19213027
50	0xbc060d7c	-0.008181926
51	0x3bda5d7f	0.0066639776
52	0x3b705c96	0.003667628
53	0x3ba4127a	0.0050070854
54	0xba3ffb44	-0.0007323513
55	0x3c21f832	0.0098858345
56	0xb9e1e30f	-0.00043084516
57	0x3c5ebe87	0.01359523
58	0x3c7ddf32	0.015495108
59	0x39f9f2c1	0.00047673847
60	0xbbfefe44	-0.0077817757
61	0xbc32030b	-0.010864983
62	0x3b8ff186	0.0043928055
63	0xbc1bc53c	-0.009507474
64	0xbb503768	-0.0031771306
65	0x3b84db76	0.004054482
66	0xbc50dc1a	-0.012747789
67	0xbc721092	-0.0147744585
68	0x3b1ed09c	0.0024233228
69	0xbb565fa8	-0.0032710824
70	0x3bd12eef	0.0063837687
71	0xbbea5a69	-0.007151891
72	0x3bd6c608	0.006554369
73	0x3b8edb48	0.0043596365
74	0x3b5a0ff8	0.0033273678
75	0x3bce8aa4	0.0063031483
76	0x3bd9de8e	0.006648845
77	0x3c1c5173	0.009540903
78	0xbca600df	-0.020264087
79	0xbb788254	-0.0037919478
80	0x3c81d796	0.01584987
81	0x3cbf5086	0.023353826
82	0x3c843353	0.016137755
83	0x3c93d691	0.01804665
84	0xbc120d4d	-0.008914304
85	0x3cbfea10	0.02342704
86	0x3c2815a4	0.010259066
87	0x3b0ed51d	0.0021794506
88	0x3d0f9ba1	0.03506053
89	0x3ca5c1ff	0.020234106
90	0x3cfa6914	0.030567683
91	0x3cc99a59	0.024609732
92	0x3d2cbf56	0.04217466
93	0x3d0e1bdc	0.034694538
94	0x3bdb4906	0.0066920547
95	0x3cfd1e0f	0.030898122
96	0x3c0742f7	0.008255712
97	0x3cdf9980	0.027294874
98	0x3bb4d981	0.0055190925
99	0xbc12c451	-0.008957938
100	0x3cbe9fff	0.023269651
101	0xbd944cbf	-0.07241201
102	0xbdd5d30e	-0.10440646
103	0xbde6b308	-0.11264616
104	0xbdce65b2	-0.100779906
105	0x3dc491c9	0.09598119
106	0xbc739bb2	-0.014868664
107	0xbd7632a4	-0.06010689
108	0xbe3bf0cc	-0.18353575
109	0xbe0df459	-0.13862742
110	0x3e0f21e7	0.13977776
111	0x3dd5ea65	0.10445098
112	0xbd4ae578	-0.049535245
113	0xbdb4c1bd	-0.08826015
114	0xbe3cb2eb	-0.18427627
115	0x3e0cfc11	0.1376803
116	0x3da20779	0.079115815
117	0x3d9094c7	0.07059627
118	0xbc7829b8	-0.015146665
119	0xbde9f204	-0.11423114
120	0x3e3a5eaa	0.18200174
121	0x3e2ba3ed	0.16761751
122	0x3e14f45b	0.14546339
123	0x3d892f72	0.066985026
124	0x3cdfe0ff	0.027328966
125	0x3c0fb3c1	0.008770884
126	0xbc283281	-0.010265947
127	0x3b88a0bd	0.004169552
128	0x3af81858	0.0018928153
129	0x3aade487	0.0013266959
130	0xbaf294df	-0.0018507502
131	0xbb88867e	-0.0041664233
132	0xbc054a68	-0.008135416
133	0x3b811188	0.0039388575
134	0xbb161670	-0.0022901557
135	0xbbf92757	-0.0076035666
136	0xbb6c5a2a	-0.0036064484
137	0x3b0e2076	0.0021686829
138	0x3c1807ed	0.009279233
139	0xbc1a7f22	-0.009429725
140	0xbac6d1a7	-0.0015168682
141	0x3a710993	0.0009194847
142	0xba01b143	-0.00049473735
143	0xbb1bc595	-0.002376889
144	0x3bfdaf0d	0.007741815
145	0xbb270d4a	-0.0025490099
146	0xbbc01275	-0.0058615752
147	0x3befce80	0.007318318
148	0xbc21ba63	-0.009871098
149	0xbb80ba7a	-0.0039284797
150	0x3bdebece	0.006797648
151	0xbb69447d	-0.00355938
152	0xbbe0d7e5	-0.006861674
153	0xbc18706b	-0.009304146
154	0x3bb2bea5	0.0054548555
155	0x3ba59b20	0.0050538927
156	0xbb659cd9	-0.0035036115
157	0xbbe088a0	-0.0068522245
158	0xb956c81f	-0.00020483181
159	0x3ba88037	0.0051422375
160	0x3b79ff9d	0.0038146742
161	0xba8addc1	-0.0010594652
162	0x3bae5ce4	0.005321132
163	0x3be9102e	0.0071125245
164	0xbc19c672	-0.009385692
165	0xbbfda448	-0.007740531
166	0xbbb9ffc8	-0.0056762435
167	0xba7f60d4	-0.00097419065
168	0x3bf18f3e	0.007371812
169	0xbc00a407	-0.007851607
170	0xbb0d23fd	-0.0021536343
171	0xbbf891a2	-0.00758572
172	0xba2dd886	-0.0006631691
173	0x3ac527b9	0.0015041746
174	0xbc22ce05	-0.009936814
175	0x3aba4142	0.0014210122
176	0x3bc99b67	0.0061525586
177	0xbbc06857	-0.0058718133
178	0x3c1e9f89	0.009681591
179	0xbb53f6f4	-0.003234324
180	0xbb4d34c6	-0.0031311973
181	0xbc18c6a6	-0.009324705
182	0x3b3136ef	0.00270408
183	0xbbd7fba4	-0.006591277
184	0x3bf367da	0.0074281516
185	0xbc105702	-0.008809807
186	0x3ac3819f	0.001491595
187	0xbc0a3b24	-0.008436952
188	0x3c1e7788	0.009672053
189	0x3bceafc5	0.0063075745
190	0xbb1068d8	-0.0022035148
191	0xbb3597b3	-0.0027708828
192	0xbbdb676b	-0.006695678
193	0xbc0229ab	-0.007944505
194	0xbc030ad1	-0.007998184
195	0xbb94a762	-0.004536555
196	0xbbd1fae8	-0.006408084
197	0xbb9d555a	-0.0048014345
198	0xbc0e2149	-0.008674928
199	0xbb7c001f	-0.003845222
200	0xbd5a92ae	-0.05336254
201	0xbc03de74	-0.008048642
202	0xbd023f39	-0.031798575
203	0xbb944c30	-0.004525684
204	0x3cd76f17	0.026298089
205	0xbd1afbfe	-0.037837975
206	0xbc84f5a7	-0.016230417
207	0xbd5f0091	-0.0544439
208	0xbdac9840	-0.08427477
209	0xbd11e144	-0.03561522
210	0xbcdab6c7	-0.026698483
211	0xbd69f75a	-0.05712066
212	0x3c460cad	0.012087983
213	0xbcc027e1	-0.023456516
214	0xbd731d9a	-0.059354402
215	0x3bde51e4	0.0067846645
216	0xbc3392ae	-0.010960264
217	0xbd0775a3	-0.03307117
218	0xbc1effd7	-0.009704552
219	0x3c88083f	0.016605495
220	0x3d7a1df7	0.061063733
221	0x3dd4ef60	0.1039722
222	0x3dcedd0f	0.10100757
223	0x3d82c9e4	0.06386164
224	0x3d5fac5a	0.054607727
225	0x3b104efe	0.002201974
226	0xbbc22066	-0.0059242724
227	0x39f14347	0.00046017228
228	0xbbb72674	-0.0055893008
229	0xbc1fa886	-0.009744769
230	0x3c0a40a4	0.008438263
231	0xbc050f60	-0.0081213415
232	0xbaa4ede6	-0.0012583106
233	0xba1c21a4	-0.00059559406
234	0x3c0cfb33	0.008604812
235	0x3bd16d0f	0.0063911746
236	0xbb9872e6	-0.004652369
237	0xbaa58bf9	-0.0012630216
238	0xbc0f0ec1	-0.008731545
239	0xbbcdd389	-0.0062813205
240	0xba92361e	-0.0011155044
241	0x3c1839fd	0.009291169
242	0xbc221c63	-0.009894463
243	0x3b1f06a2	0.0024265428
244	0xbb82a1f5	-0.003986592
245	0xbbe0ddc1	-0.0068623726
246	0xbbfe413a	-0.0077592405
247	0xbb10995e	-0.002206407
248	0xbc12023d	-0.008911666
249	0xbbd4e55e	-0.0064970693
250	0x3c53c0a1	0.012924344
251	0xbd009927	-0.031396057
252	0xbd7978a8	-0.060906082
253	0xbd863f7b	-0.06555077
254	0xbd4d4dbf	-0.050122973
255	0xbd6716ee	-0.05641835

conv_layer1.bias f4 [16]
0	0x3b31e51d	0.0027144619
1	0x3be97676	0.0071247173
2	0xbbf4517e	-0.0074560037
3	0xbc29e8ba	-0.010370428
4	0xbb7e1c40	-0.0038774163
5	0xbb89ae82	-0.004201711
6	0xbc1b48ee	-0.009477837
7	0xbb0f83fa	-0.0021898733
8	0xbbd75db0	-0.0065724477
9	0x3a0cf14c	0.0005376532
10	0xbb4b52a5	-0.0031024602
11	0x3c1e69a5	0.009668742
12	0x3c218a03	0.009859565
13	0x3b4837f4	0.0030550929
14	0x3c152a94	0.00910439
15	0xbc022ff7	-0.007946006

conv_layer2.weight f4 [32, 1, 5, 5]
0	0xbb896165	-0.0041925185
1	0x3a84b8e2	0.00101259
2	0xbaccb742	-0.001561858
3	0xbb8cc4a0	-0.0042959005
4	0x3bdc94ec	0.00673162
5	0xbbf84bf7	-0.007577415
6	0x3aaa28e4	0.0012982157
7	0x3c06a963	0.008219096
8	0x3a4b2e71	0.0007750756
9	0x3a0b9af5	0.00053255196
10	0xbb91189c	-0.0044279825
11	0xbbe0cdeb	-0.006860485
12	0xbb8607fb	-0.004090307
13	0xba20eaf9	-0.0006138529
14	0xbafe519b	-0.0019402982
15	0x3c1a8ce4	0.009433005
16	0x3b8e3112	0.0043393457
17	0xbc166289	-0.009178766
18	0xbbb68dcd	-0.005571103
19	0x3c13426b	0.008988003
20	0xbb000eed	-0.0019540146
21	0xbb6dfe76	-0.0036315
22	0x3bfdeb1d	0.007748975
23	0x3c1aaee5	0.009441112
24	0xbc0419eb	-0.00806282
25	0xbafd56b9	-0.0019328214
26	0x3add957d	0.0016905513
27	0xb9448457	-0.00018741317
28	0xbbcf6e52	-0.00633029
29	0xbbfdd551	-0.0077463766
30	0x3a6921c6	0.0008893277
31	0xbacc5b36	-0.0015591148
32	0xbb692713	-0.0035576269
33	0xb9e77e0d	-0.0004415367
34	0x3bb8eae0	0.0056432337
35	0xbc127007	-0.008937842
36	0xbbe2200f	-0.0069007943
37	0x3bb8b52a	0.005636831
38	0xbb94669b	-0.004528833
39	0xbb3b69c3	-0.0028596974
40	0xbb4b1679	-0.0030988737
41	0x3b79c81c	0.003811366
42	0x3bd9e586	0.006649676
43	0x3bcb734e	0.0062088137
44	0xbc09fb57	-0.0084217405
45	0x3bdc2e6d	0.0067194016
46	0x3b2b4dc4	0.0026138881
47	0x3bbc6c22	0.005750195
48	0x380257bb	3.107612e-05
49	0x3bcd1c42	0.006259472
50	0xbd2e5f61	-0.04257143
51	0xbdc3ee2b	-0.09566911
52	0xbd009bac	-0.03139846
53	0x3c9c8e3c	0.019110791
54	0xbcb76d12	-0.022390876
55	0xbd8b6f82	-0.06808378
56	0xbe0463a9	-0.12928642
57	0xbd361ea6	-0.044462822
58	0xbd943795	-0.07237164
59	0xbd41d2f1	-0.04732031
60	0xbd26f306	-0.04075911
61	0xbe05c2dd	-0.13062616
62	0x3e168091	0.14697482
63	0x3d1b4cc3	0.037915003
64	0xbde3c699	-0.11121864
65	0xbcbcf322	-0.023065154
66	0xbd990c04	-0.07472995
67	0x3e8accd1	0.27109388
68	0x3e49161f	0.19637345
69	0xbe1926e2	-0.14956239
70	0xbd77d502	-0.060505874
71	0xbc8ccdfa	-0.017188061
72	0x3e91fe3d	0.2851428
73	0x3e50c01a	0.20385781
74	0xbdd5044e	-0.10401212
75	0xbc40697c	-0.011743899
76	0xbd1ff4cc	-0.039051816
77	0x3c748b25	0.014925753
78	0x3d4308fe	0.047615997
79	0xbd3821b1	-0.044954006
80	0x3c739662	0.014867397
81	0xbd8c565a	-0.06852408
82	0x3caec575	0.02133439
83	0x3c8cd42c	0.017191015
84	0xbc9e052e	-0.01928958
85	0x3dde1a18	0.10844821
86	0xbda13c1f	-0.07872795
87	0x3c8c134a	0.017099041
88	0xbc8e90d0	-0.017403036
89	0x3d0165ca	0.031591214
90	0x3e24e04f	0.16101192
91	0xbdf4785e	-0.11937021
92	0xbd6410c7	-0.055680063
93	0x39f7c651	0.00047259268
94	0xbbec8a71	-0.007218652
95	0x3e163a2d	0.1467063
96	0xbe014388	-0.12623417
97	0xbd5f1f60	-0.05447328
98	0x3bef50c8	0.007303331
99	0xbcf5e5eb	-0.03001686
100	0x3b1f18e9	0.0024276322
101	0xbb82e941	-0.003995091
102	0x3c70c8e1	0.014696331
103	0x3c8aa565	0.01692457
104	0x3c986884	0.018604524
105	0xbb7a12fa	-0.0038158284
106	0xbbbfa6cc	-0.005848741
107	0xbbf47df4	-0.007461304
108	0xbbb4aada	-0.005513531
109	0x3c89e128	0.016830996
110	0xbc38871b	-0.01126268
111	0xbbfd327a	-0.0077269645
112	0xb84764e6	-4.7539266e-05
113	0xbc183111	-0.009289042
114	0x3c15c860	0.009142011
115	0xbb0f9425	-0.002190837
116	0x3af195e8	0.0018431516
117	0xbc1df566	-0.009641027
118	0xbbf893af	-0.0075859646
119	0x3b445209	0.0029956123
120	0x3b7c4792	0.0038494808
121	0xba6643e5	-0.0008783921
122	0x3a445c81	0.0007490591
123	0x3b212edf	0.0024594588
124	0xbb60332f	-0.0034210195
125	0x3c1d9394	0.009617705
126	0xbbf9c6cf	-0.007622577
127	0xbbb3ed56	-0.005490939
128	0xbc1cde90	-0.009574547
129	0xbbec05a4	-0.007202821
130	0x39c19a74	0.00036926905
131	0xbb1e55fc	-0.0024160137
132	0xbb005340	-0.001958087
133	0x3a894c75	0.0010475056
134	0x38edf776	0.00011347134
135	0x3b1566fc	0.002279698
136	0x3b86cc90	0.004113741
137	0xbbcde26f	-0.0062830965
138	0xbb2d65ae	-0.002645831
139	0xbb500731	-0.0031742568
140	0xbb95040a	-0.0045476006
141	0xba5693e5	-0.000818549
142	0x3c0f253c	0.008736905
143	0x3bf177e7	0.00736903
144	0x3bbd6836	0.005780245
145	0xbc13b714	-0.009015817
146	0xbc161550	-0.009160355
147	0xbbeaff1a	-0.0071715238
148	0x3c063171	0.008190499
149	0x3adcad90	0.0016836394
150	0xbc16c2c0	-0.009201705
151	0xbc33031c	-0.010926034
152	0xbc7236eb	-0.014783601
153	0xbc5d4625	-0.013505493
154	0xbc4f511f	-0.012653618
155	0xbb6855a3	-0.0035451434
156	0x3ccf4961	0.025303544
157	0x3c8756f0	0.016520947
158	0xbcc51d15	-0.024061719
159	0xbba6ba6f	-0.0050881426
160	0xbc060f48	-0.008182354
161	0x3d0a85b1	0.033818904
162	0x3cba9a29	0.022778587
163	0xbc81a9d1	-0.015828045
164	0xbd054f9a	-0.032546617
165	0x3c7d4ad5	0.015459736
166	0x3c572b03	0.013132813
167	0xbc991129	-0.01868494
168	0xbc036ee3	-0.008022043
169	0xbd02c23f	-0.03192353
170	0xbbd8edc0	-0.006620139
171	0xbbff1d04	-0.0077854414
172	0x3d0aa007	0.03384402
173	0xbb5ee795	-0.0034012545
174	0xbd0ceb72	-0.034404226
175	0xbc94f175	-0.018181542
176	0xbd6988ed	-0.05701535
177	0x3ca751b5	0.020424703
178	0x3d962cd9	0.07332773
179	0x3c96524d	0.018349791
180	0x3cbb1842	0.022838715
181	0x3bd3e648	0.0064666606
182	0x3ce1221f	0.02748209
183	0x3bd4b559	0.006491345
184	0xbcca3ab0	-0.024686188
185	0xbd0974ff	-0.03355884
186	0x3d831647	0.064007334
187	0x3d72ac53	0.059246372
188	0x3d5b4dcb	0.053540986
189	0xbd17c166	-0.037049673
190	0xbc97be4a	-0.018523354
191	0x3b97717a	0.0046216818
192	0xbce847ff	-0.028354643
193	0x3d42976d	0.047507692
194	0xbca547ae	-0.020175781
195	0x3d100006	0.035156272
196	0xbd67e0da	-0.05661092
197	0xbdc72eb8	-0.09725708
198	0xbdbcf5aa	-0.09226544
199	0xbd3ec160	-0.046571136
200	0xbd9d8d45	-0.07692961
201	0xbc4942fd	-0.012284038
202	0xbd09eaa5	-0.03367104
203	0xbd04d9b9	-0.0324342
204	0xbca1e219	-0.019761132
205	0x3d852a5f	0.06502222
206	0x3d28fad3	0.04125483
207	0xbdf3dff5	-0.11907951
208	0xbd351a73	-0.044214677
209	0x3d266804	0.04062654
210	0x3cfe27a4	0.031024761
211	0xbd8f652b	-0.07001718
212	0xbde8843a	-0.11353345
213	0xbdbc67c2	-0.09199478
214	0xbd9e6c17	-0.0773546
215	0x3cd27ad3	0.025693333
216	0xbd81a1cb	-0.06329688
217	0xbd3c3671	-0.045950357
218	0xbc844257	-0.016144915
219	0xbda588f3	-0.080827616
220	0x3e3350e4	0.17511326
221	0x3e592c6b	0.2120835
222	0x3dd5a634	0.10432091
223	0x3d020b42	0.031749018
224	0x3cd9c929	0.026585178
225	0xbd8080bc	-0.06274554
226	0x3de78615	0.11304871
227	0x3c730967	0.014833785
228	0xbb2bc370	-0.002620902
229	0xbe03874b	-0.12844579
230	0xbd72b4b9	-0.05925438
231	0xbcf6650b	-0.030077478
232	0x3d2c2a4b	0.04203252
233	0xbc277d57	-0.010222754
234	0xbc0e0762	-0.008668752
235	0xbd9e3991	-0.07725824
236	0xbd07be48	-0.03314045
237	0xbc52cc4d	-0.012866092
238	0x3d7dd995	0.06197508
239	0x3e37c6f1	0.17946984
240	0x3c344e5d	0.011005011
241	0xbdfba110	-0.122865796
242	0xbd9c27f2	-0.076248065
243	0xbca700f9	-0.020386206
244	0x3e785f8b	0.24255197
245	0x3d12015b	0.035645824
246	0xbdba7a1b	-0.09105321
247	0xbe1b4608	-0.15163434
248	0xbd9b6264	-0.07587126
249	0x3e41f4ad	0.18940993
250	0x3aa30331	0.0012436864
251	0xbc21f1a2	-0.00988427
252	0xbbf812b7	-0.0075705904
253	0xbbc087b6	-0.005875553
254	0xba816e86	-0.0009874857
255	0x39359bda	0.00017319564

conv_layer2.bias f4 [32]
0	0x3b32c628	0.0027278755
1	0xbbfe9ab1	-0.0077699055
2	0xbcb6f701	-0.022334578
3	0xbb8025b4	-0.0039107446
4	0x3adcd5e5	0.0016848414
5	0x3c0d3301	0.008618117
6	0xbc026ceb	-0.007960538
7	0xbbd9802a	-0.006637593
8	0xbb753b91	-0.0037419538
9	0xbc9fa8b6	-0.019489627
10	0x3ba953e8	0.005167473
11	0x3c194e57	0.009357057
12	0xbbc5cca2	-0.006036357
13	0xbc1d423e	-0.009598313
14	0x3bae2349	0.005314265
15	0x3ba1dd58	0.0049397163
16	0xb9c1b9b9	-0.00036950203
17	0xbbe5a241	-0.0070078676
18	0x3b6657d7	0.0035147571
19	0x3bd2271e	0.0064133545
20	0xbc8c68b5	-0.017139772
21	0xbaf5e383	-0.001875982
22	0x3b39af66	0.0028333305
23	0x3c11640a	0.008873949
24	0x3b470b7d	0.0030371838
25	0x3c0f54d2	0.00874825
26	0xbc8f4ccb	-0.017492672
27	0xbcc07320	-0.023492396
28	0xbb07677a	-0.0020661042
29	0x3bc37d0f	0.005965836
30	0xbc207e52	-0.009795742
31	0xbc205eaa	-0.009788195

fc1.weight f4 [120, 1152]
0	0xba90d034	-0.0011048377
1	0x3a9f3a5b	0.0012148129
2	0xba8c2434	-0.0010691942
3	0x3a52e715	0.0008045298
4	0x3923c55c	0.00015618413
5	0x3ab8e045	0.0014104923
6	0xba482ae8	-0.0007635788
7	0xbac10728	-0.0014726864
8	0xba6e0732	-0.00090800517
9	0x3a5c04ba	0.00083930383
10	0xba726ded	-0.00092479476
11	0x3a01730a	0.00049381016
12	0xba443214	-0.0007484269
13	0x3a639f58	0.0008683107
14	0xbab7e677	-0.0014030476
15	0xb9f52f16	-0.00046765123
16	0xba8ec997	-0.0010893819
17	0xb91c508c	-0.00014907325
18	0x38cbb5e8	9.713677e-05
19	0xba77d600	-0.0009454191
20	0x3a2a01e1	0.00064852653
21	0x3a4f6c1f	0.00079125346
22	0x3a5e3904	0.0008477124
23	0xba043542	-0.00050433364
24	0xba51cedc	-0.0008003542
25	0x3a660df9	0.0008775886
26	0xb8126d0e	-3.4910678e-05
27	0x3a013caa	0.0004929999
28	0x385e53a0	5.3006806e-05
29	0x3a91816f	0.0011101196
30	0x3a898f0d	0.0010494903
31	0x3a7de440	0.0009685196
32	0x39d6373d	0.00040858416
33	0xba6b970e	-0.00089870475
34	0xba33d8f4	-0.00068606366
35	0xba960f6a	-0.0011448686
36	0xbab79346	-0.0014005683
37	0xba7276ca	-0.00092492683
38	0xba72e80a	-0.0009266144
39	0x3a773bd9	0.000943122
40	0xb95377e2	-0.00020167188
41	0xbabb8d5a	-0.0014309094
42	0x3a7191f2	0.0009215168
43	0x39d13d38	0.00039909198
44	0xb9975e70	-0.00028871326
45	0xba547e56	-0.0008105984
46	0x3a86b0ca	0.0010276076
47	0x38e728fd	0.00011022573
48	0x3905c888	0.00012758572
49	0xba82bbe3	-0.0009974207
50	0x3a5f2ed3	0.0008513752
51	0xba21ac78	-0.00061673624
52	0x3a56f513	0.0008199971
53	0x37d5daa9	2.54934e-05
54	0xb8d57d76	-0.000101800004
55	0xb98ebdf3	-0.00027225874
56	0xba6e70de	-0.0009095798
57	0xba602a46	-0.0008551221
58	0x3a54d678	0.00081191165
59	0xb98f6dff	-0.0002735704
60	0xba967819	-0.0011479884
61	0xb9fd19d3	-0.0004827516
62	0x38a91f43	8.064371e-05
63	0x39cc10e0	0.00038922485
64	0xbab63b40	-0.0013903156
65	0x3943c3e6	0.00018669627
66	0xba9fa0f3	-0.0012178704
67	0x3ab30427	0.0013657854
68	0xb76d4b59	-1.4143844e-05
69	0xba9e17c0	-0.0012061521
70	0xb9d92116	-0.00041414116
71	0x37f2e4c1	2.895517e-05
72	0x3c4c7702	0.012479546
73	0xbd0f7abd	-0.03502916
74	0x3c63ca86	0.013903266
75	0xbcc03a5f	-0.023465334
76	0x3a878ae1	0.0010341072
77	0xbb475282	-0.0030414169
78	0x3c4b584b	0.012411187
79	0xbc828310	-0.015931636
80	0x3c224adf	0.009905546
81	0xbc72692f	-0.014795586
82	0xbc5925bb	-0.013253625
83	0xbc3df017	-0.011592886
84	0x3c790dd8	0.0152010545
85	0x3c03c06f	0.008041485
86	0x3b22b961	0.0024829733
87	0xbc2aca47	-0.010424203
88	0xbbe51da0	-0.006992057
89	0xbce79bd5	-0.028272549
90	0x3d2cd12a	0.042191662
91	0x3cc0026b	0.023438653
92	0x3caadef5	0.020858267
93	0x3c1d6411	0.009606377
94	0x3cfad39c	0.030618481
95	0x3ba8af30	0.005147837
96	0x3caa0002	0.020751957
97	0xbbc44a45	-0.005990299
98	0x3c8c2611	0.017107995
99	0x3c495125	0.012287413
100	0x3d1fdb79	0.039027665
101	0x3cff791b	0.031185677
102	0x3d5c19b1	0.05373544
103	0xbbd4584c	-0.0064802524
104	0xbb685427	-0.003545055
105	0x3b82045b	0.0039678044
106	0x3c5ba613	0.013406294
107	0xbbda9853	-0.0066709905
108	0x3c8bb382	0.01705337
109	0x36b743da	5.461724e-06
110	0xbc31c080	-0.010849118
111	0x3a89df21	0.0010518768
112	0x3a6c1eb5	0.0009007261
113	0x3b954005	0.004554751
114	0x3c7336b1	0.014844582
115	0xbb20a81b	-0.0024514261
116	0xbb135076	-0.0022478378
117	0xb9612106	-0.00021469974
118	0xbb80825b	-0.0039217896
119	0x3aafe949	0.0013420965
120	0x3c33043f	0.010926305
121	0xba993bd1	-0.00116908
122	0x3c22a7d6	0.0099277105
123	0xbc2e5454	-0.010640223
124	0xbb376430	-0.00279833
125	0x3c2861ae	0.010277195
126	0xbc557ba5	-0.013029967
127	0x3c54afae	0.012981338
128	0xbb5c2535	-0.0033591513
129	0x3beb9229	0.0071890545
130	0x3b97bc0c	0.004630571
131	0xb92a9248	-0.00016266957
132	0xbc5f69d2	-0.013636069
133	0x3c02a2cc	0.007973384
134	0x3aa6bef8	0.0012721708
135	0x3c0eb9a3	0.008711251
136	0x39d40d69	0.00040445782
137	0xba907cc7	-0.0011023515
138	0xbbb35b40	-0.0054735243
139	0x3b256489	0.0025236926
140	0x3c2df1e0	0.0106167495
141	0x3b954ffb	0.0045566536
142	0x3b55d363	0.0032627217
143	0x39f940fc	0.00047541398
144	0x3add71e2	0.0016894902
145	0x39b8e5f2	0.00035266537
146	0xbadcacdc	-0.0016836184
147	0x3a826b23	0.0009950142
148	0x3a2be096	0.0006556598
149	0xb8d958d1	-0.0001036391
150	0x3b1d8223	0.0024033866
151	0x3a7e87c2	0.00097095605
152	0x3a11dc6d	0.0005564157
153	0xba5128fd	-0.0007978825
154	0x3ab9aa1f	0.001416508
155	0x39779f53	0.00023615109
156	0xbaac0a58	-0.0013125641
157	0xba518225	-0.00079921103
158	0xba8ed728	-0.0010897862
159	0x393312ea	0.00017077816
160	0xba9cd1c1	-0.0011964367
161	0xba241272	-0.0006258852
162	0x3a122b08	0.000557587
163	0xba933a65	-0.0011232613
164	0x3ad391b4	0.0016141445
165	0x38ad3df9	8.260826e-05
166	0xbaf29560	-0.0018507652
167	0xba90e6e1	-0.0011055135
168	0x3a61dd8a	0.0008616081
169	0xb99f29b2	-0.0003035791
170	0xb9fa9758	-0.00047796476
171	0x393d44d0	0.00018050079
172	0xbada65a1	-0.0016662368
173	0xb9fda44c	-0.0004837833
174	0x3a3a841a	0.00071150216
175	0x3a6a75dc	0.0008943954
176	0x3aeb3475	0.001794471
177	0xba9c919d	-0.0011945252
178	0x386f5147	5.7057736e-05
179	0xba70bfcc	-0.00091838534
180	0xba282645	-0.0006414394
181	0x399bc346	0.00029709394
182	0x3a430c1d	0.00074404647
183	0x3719932e	9.153779e-06
184	0x3a93464e	0.0011236162
185	0xba80bf05	-0.0009822553
186	0x3a072c67	0.0005156458
187	0x38fbccfc	0.00012006794
188	0xb897ca94	-7.237974e-05
189	0x3ab89cc0	0.0014084801
190	0x3a0ba53d	0.00053270516
191	0xb9ec43c7	-0.00045063926
192	0x3a4f759b	0.0007913948
193	0x3a949584	0.0011336063
194	0x39f38efd	0.00046455106
195	0xb9f250eb	-0.00046218125
196	0xba82a41a	-0.0009967119
197	0xb906a225	-0.0001283964
198	0x390f897c	0.0001368876
199	0xbab4f7a8	-0.0013806717
200	0x39e66795	0.00043946193
201	0xba9c53d8	-0.0011926843
202	0x3a170d52	0.0005762178
203	0xbabe32f7	-0.0014511038
204	0x3a8abcd5	0.0010584841
205	0x3a95f75d	0.0011441518
206	0x38c57213	9.41494e-05
207	0x395308f0	0.00020125858
208	0xb9f82a2d	-0.0004733367
209	0x39205f8c	0.00015294383
210	0x3a9dc874	0.0012037889
211	0x3a303349	0.0006721509
212	0x39aaf585	0.00032607853
213	0x3a78103c	0.00094628683
214	0xb91c44aa	-0.00014902899
215	0x39855783	0.00025432938
216	0x3b9c173f	0.0047635133
217	0x3ad8a7c2	0.0016529488
218	0xb9d74ca5	-0.000410651
219	0xbb00c058	-0.0019645896
220	0xbab4e0c7	-0.0013799899
221	0x3a1a947a	0.00058967585
222	0x3a4e9c55	0.00078815717
223	0xb95c67c9	-0.00021019498
224	0x3b01da5c	0.001981399
225	0x39881361	0.0002595438
226	0x3aae2a7a	0.0013287805
227	0x3abd1435	0.0014425578
228	0x3b40d638	0.002942456
229	0x3ab2b9cd	0.0013635695
230	0x3a8d06cf	0.0010759475
231	0xb9e5110c	-0.00043690985
232	0x3ab24f00	0.0013603866
233	0x3afc8709	0.0019266318
234	0x3b0d1943	0.002152995
235	0x3a672496	0.00088174024
236	0x3a0ac1d3	0.0005293164
237	0x3a2bf2ac	0.0006559293
238	0x3add7f87	0.0016898968
239	0xb9daf728	-0.00041764346
240	0x3b1e690d	0.0024171502
241	0x3a874b7f	0.0010322182
242	0x3b00f2ce	0.0019675973
243	0x3a25d2f8	0.0006325687
244	0x3a7a10e8	0.00095392624
245	0xba564f79	-0.00081752945
246	0x3b2dea90	0.0026537515
247	0xba942453	-0.0011302329
248	0x3a69fe49	0.0008926136
249	0xb9fb1d37	-0.00047896217
250	0x3b17deac	0.0023173494
251	0x39e0adc5	0.00042854078
252	0xbb8cec4d	-0.00430063
253	0xbadae37e	-0.0016699878
254	0xbb3fe4b6	-0.002928061
255	0xbb43ab50	-0.002985675

fc1.bias f4 [120]
0	0xbb3ec6f5	-0.0029110287
1	0xbafef808	-0.0019452581
2	0xbabfce69	-0.0014633659
3	0xbaae0c33	-0.0013278782
4	0xba5c5aac	-0.0008405845
5	0xbb273330	-0.0025512688
6	0xb920eefa	-0.00015347815
7	0xb862e0a5	-5.4091815e-05
8	0x3a865bf5	0.0010250794
9	0xbb38bc01	-0.002818823
10	0xba9cdb68	-0.0011967244
11	0xbb27a8f5	-0.0025582884
12	0xb93a1566	-0.00017746314
13	0xb9b8660e	-0.00035171252
14	0x38e72483	0.00011021739
15	0xbb4a66d1	-0.0030884037
16	0xbaeb4c58	-0.0017951829
17	0xbae38c34	-0.0017360509
18	0x3a624bd3	0.00086325145
19	0xb9243e1e	-0.00015663399
20	0xba0cbad9	-0.00053684186
21	0xbacc360d	-0.0015580073
22	0xba51a187	-0.0007996787
23	0xba513ab9	-0.00079814676
24	0xba525d01	-0.0008024723
25	0x38ec1b14	0.000112584006
26	0x39e85fb0	0.0004432178
27	0x36f3c282	7.264608e-06
28	0xb9334b55	-0.00017098834
29	0x3a89c22a	0.0010510136
30	0xba8e1228	-0.0010839151
31	0x3a926885	0.0011170065
32	0xba491435	-0.00076705526
33	0xbad8f3c3	-0.0016552139
34	0x39c29399	0.00037112532
35	0xbb4baadf	-0.003107719
36	0xbb5cfc70	-0.00337198
37	0xbaa09b7d	-0.001225337
38	0xbad644ba	-0.0016347386
39	0xba1eb032	-0.0006053477
40	0x39fa16ae	0.00047700614
41	0x399b969d	0.0002967612
42	0x3a608d39	0.00085659657
43	0xba10d803	-0.00055253523
44	0xb9f73a5d	-0.00047154995
45	0xbaf47c1e	-0.0018652712
46	0x3a904a98	0.0011008559
47	0xbab29fa6	-0.0013627901
48	0x39fa9ee8	0.0004780211
49	0xbaa60619	-0.0012666612
50	0x38edf84e	0.00011347291
51	0xbae90e0f	-0.0017780679
52	0xba194d31	-0.0005847989
53	0xbb099acd	-0.002099681
54	0xbb2a4405	-0.0025980484
55	0x3ab7a7ed	0.0014011838
56	0x39c65757	0.00037830576
57	0x39adc8cf	0.00033146745
58	0xbac0e00f	-0.0014715212
59	0x3a98b8fb	0.0011651808
60	0xbaf2ba13	-0.0018518589
61	0xba69808e	-0.0008907401
62	0xb83ffc8b	-4.5773148e-05
63	0x3aad8b3c	0.0013240348
64	0x3a245c50	0.0006269859
65	0xbb448c05	-0.0029990685
66	0xb9cd4f95	-0.0003915994
67	0xb85481e4	-5.066571e-05
68	0xbb26339f	-0.0025360358
69	0xba233fb4	-0.0006227449
70	0xbabc6841	-0.0014374332
71	0xb96730e1	-0.00022048086
72	0xbaa552df	-0.0012613198
73	0x3a6d920b	0.00090625946
74	0xbac6edb8	-0.0015177047
75	0xbb2ef88a	-0.0026698434
76	0xbb6b95b6	-0.003594739
77	0x3a5145fd	0.00079831464
78	0xb985d86f	-0.00025528992
79	0xbabdd40f	-0.0014482754
80	0xbaaa4196	-0.0012989517
81	0xba7e4215	-0.0009699178
82	0xbb62a41d	-0.0034582682
83	0x39e27212	0.00043191068
84	0xb9a06fad	-0.00030600783
85	0xbab2e5f4	-0.0013648854
86	0xba0abbdf	-0.0005292277
87	0xbab6cbd0	-0.0013946239
88	0xbb32e041	-0.002729431
89	0xbadb4b85	-0.0016730881
90	0xba8a7756	-0.0010564129
91	0xba3a7cda	-0.0007113941
92	0xbafc794a	-0.0019262221
93	0xba60970b	-0.0008567429
94	0xbade9a20	-0.0016983189
95	0xbad9de6d	-0.0016622074
96	0xbb6927de	-0.0035576741
97	0x3811c1ef	3.475131e-05
98	0xbb05f517	-0.0020440274
99	0xb9e66018	-0.00043940614
100	0xbb0fb2d6	-0.0021926663
101	0xba9c72fa	-0.0011936121
102	0xbb827f91	-0.0039824923
103	0xb7e92212	-2.779163e-05
104	0x3a1311e9	0.0005610274
105	0xbb05e57d	-0.0020430975
106	0x39a91444	0.0003224929
107	0xba474b59	-0.0007602475
108	0xba3934db	-0.0007065066
109	0xba29e3fa	-0.00064808095
110	0xbaa92d56	-0.0012907188
111	0xbb39715e	-0.0028296332
112	0xba800466	-0.0009766936
113	0xba391407	-0.0007060174
114	0xb9df4fa3	-0.00042593208
115	0xba73164f	-0.00092730386
116	0x3b106552	0.0022033048
117	0xba049397	-0.0005057393
118	0xbb248621	-0.002510436
119	0xbb0ce632	-0.0021499512

fc2.weight f4 [80, 120]
0	0x3a153d78	0.00056930585
1	0xbbcaa9ad	-0.0061847777
2	0xbb313229	-0.0027037954
3	0xbc2200ae	-0.009887857
4	0xbb06386e	-0.0020480412
5	0x3abb97ba	0.0014312186
6	0x3d46f459	0.04857287
7	0x3ca7cca5	0.020483324
8	0x3b3b43be	0.0028574313
9	0x3c832662	0.016009513
10	0x3ce5b0f1	0.028038474
11	0xbc91f201	-0.017815592
12	0x3d19bfff	0.037536617
13	0x3bf8d349	0.0075935465
14	0xbb82ebfe	-0.0039954176
15	0x3b88aa5f	0.0041707004
16	0xbc6ac90e	-0.014330162
17	0x3d73a2c4	0.059481397
18	0x3c3ec655	0.011643966
19	0xbc89eec2	-0.016837481
20	0xbbf14293	-0.0073626726
21	0x3d03608c	0.032074496
22	0x3b87dbc3	0.0041460707
23	0xbadf4100	-0.0017032921
24	0xbbf98fbc	-0.0076160114
25	0xbc13136a	-0.008976797
26	0xbba03254	-0.004888812
27	0xbb1ca229	-0.0023900366
28	0xbca4ebba	-0.020131934
29	0xbc66ec50	-0.014094427
30	0xbcbacd98	-0.022803113
31	0xbae8915d	-0.0017743517
32	0x3d57f238	0.052721232
33	0x38fdb5f7	0.00012097874
34	0x3cc87eef	0.02447459
35	0xbce4e9e0	-0.027943552
36	0xb962fe0c	-0.0002164768
37	0xbc483fc7	-0.012222237
38	0x3d1e798d	0.03869014
39	0xba9c6e7c	-0.0011934782
40	0x3bdb8acc	0.0066998955
41	0xbc941615	-0.018076936
42	0xbb4b8ebb	-0.0031060416
43	0x3c619d2f	0.013770386
44	0xbc2ca827	-0.0105381375
45	0xbca49d61	-0.020094575
46	0x3cb780b3	0.022400236
47	0xbcbe0e79	-0.02320026
48	0xbacd2e77	-0.0015654106
49	0xbc48366e	-0.012220008
50	0xbb82bacd	-0.0039895535
51	0xbc806db9	-0.01567732
52	0xbc7cf024	-0.015438113
53	0xbd6baf3b	-0.05754016
54	0x3d045c3f	0.032314535
55	0xbb3829aa	-0.0028101006
56	0xbc8be183	-0.017075306
57	0xbca340dc	-0.019928388
58	0xbc04bb8d	-0.008101356
59	0xbce0b274	-0.027428843
60	0x3d00ee18	0.031477064
61	0x3d6c6f62	0.05772341
62	0x3bc153a1	0.005899862
63	0xbcf3c8e8	-0.029758886
64	0x3c22b9ba	0.009931976
65	0xbc02d976	-0.007986417
66	0x3d07db41	0.03316808
67	0xbb845f57	-0.0040396857
68	0x3c8d22b8	0.01722847
69	0x3ca05a50	0.019574314
70	0x3c93528f	0.017983703
71	0xbb9dde35	-0.004817749
72	0x3cf88317	0.030335946
73	0xbc23e9df	-0.01000449
74	0xbb1001aa	-0.0021973648
75	0xbc2d344f	-0.010571553
76	0x3a8375cb	0.0010029612
77	0xbd1d7917	-0.03844556
78	0xbc04866a	-0.008088687
79	0x3c046ea0	0.008083016
80	0xbcb7be19	-0.022429513
81	0x3a7d9c68	0.00096744904
82	0x3d2ec345	0.042666692
83	0xbcde7ae4	-0.027158208
84	0xba8511d2	-0.0010152406
85	0xbae79a2e	-0.001766985
86	0x3d577b65	0.052607913
87	0xbb54a8c4	-0.0032449225
88	0xbca053bc	-0.019571178
89	0x3d6b8ae5	0.057505507
90	0x3b612e60	0.0034359917
91	0xbc666471	-0.014062033
92	0xbbd81aec	-0.006595006
93	0xbc46e71c	-0.012140062
94	0x39ae3fa1	0.00033235273
95	0xbd1f5b19	-0.038905237
96	0xbc931b2a	-0.017957289
97	0x3a272fa1	0.00063776417
98	0xbd018e8e	-0.03163009
99	0xbc811954	-0.015759148
100	0xbb4115a8	-0.002946237
101	0x3b866d18	0.0041023605
102	0x3ca05108	0.019569889
103	0xbc853083	-0.016258484
104	0x3cbb47bd	0.022861356
105	0x3be6bce3	0.00704156
106	0x3d31d21e	0.043413274
107	0x3b7d1d14	0.0038622068
108	0x3aea9903	0.0017898384
109	0xbb50c791	-0.0031857232
110	0x3c7b5aba	0.015341455
111	0x3d6bb222	0.057542928
112	0x3da8abaf	0.08235871
113	0x3d18f588	0.03734353
114	0x3c91b72b	0.017787537
115	0x3d69e977	0.057107415
116	0x3c05defb	0.0081708385
117	0x3d812b32	0.06307067
118	0x3d1aa6ef	0.037756857
119	0xbc573248	-0.013134547
120	0x3b7c49fd	0.003849625
121	0x3c483895	0.012220521
122	0xbb33f098	-0.0027456637
123	0x3cca323a	0.024682153
124	0x3b947077	0.0045300084
125	0x3c6d61b3	0.014488625
126	0xbb05a47c	-0.002039223
127	0x3cf3f8c1	0.029781701
128	0x3ac1f48c	0.0014797612
129	0x3c82c5af	0.015963404
130	0xbbe76688	-0.007061783
131	0x3c7e1f20	0.0155103505
132	0x3c921789	0.017833488
133	0x3d18f45d	0.037342418
134	0xbbfb3d9c	-0.0076672565
135	0x3bdc4254	0.006721774
136	0xbaf7ca6f	-0.0018904934
137	0x3c820e62	0.015875999
138	0xbc651e5c	-0.013984289
139	0x3d01e39f	0.031711217
140	0xbcafe958	-0.021473572
141	0xbcb39220	-0.021920264
142	0xbc9a11f6	-0.018807393
143	0x39f04794	0.00045829697
144	0x3c61b3ba	0.01377576
145	0xbd0bb65a	-0.03410945
146	0xbae7d10e	-0.0017686205
147	0x3c035b14	0.00801732
148	0x3c60cd90	0.013720885
149	0x3c32241e	0.010872869
150	0x3ca0a2fd	0.019608969
151	0x3b77ebdc	0.0037829792
152	0x3b119390	0.0022213198
153	0x3d075a81	0.033045296
154	0x3d83b4e8	0.064309895
155	0x3b99564e	0.004679478
156	0x3cd3b982	0.025845293
157	0x3d971543	0.07377102
158	0x3d780cc4	0.06055905
159	0xba40d6ad	-0.0007356208
160	0xbb977440	-0.0046220124
161	0x3d80533d	0.062658764
162	0xbb6c7d3a	-0.0036085383
163	0xbcfbc845	-0.030735144
164	0x3c578e94	0.013156552
165	0xbbc95ec0	-0.0061453283
166	0xbd0b083c	-0.0339434
167	0x3c4b2bf6	0.012400618
168	0xbb868a21	-0.0041058217
169	0x3d190834	0.03736134
170	0xbb016f1e	-0.001975007
171	0x3bb11ddc	0.005405171
172	0x3cf12f42	0.02944148
173	0xbc907267	-0.017632676
174	0x39ed3cc2	0.0004524943
175	0xbb25bad4	-0.002528836
176	0x3d3bcffa	0.04585264
177	0xbc328bab	-0.010897557
178	0x3d821992	0.063525334
179	0x3d9b70c4	0.07589868
180	0x3c9d4297	0.019196792
181	0xbc6f0ab9	-0.014589959
182	0x3ce3b058	0.027794048
183	0xbc40d5bd	-0.011769709
184	0x3bb5a05f	0.0055427994
185	0x3aa914ca	0.0012899872
186	0x3c8e459a	0.017367173
187	0x3c1afa78	0.0094591305
188	0x3c46d230	0.012135074
189	0xbaac5246	-0.0013147078
190	0x3c92e750	0.017932564
191	0x3d431641	0.047628645
192	0x3cfbef92	0.030753884
193	0x3d01a88b	0.031654876
194	0x3bfa4afc	0.0076383334
195	0xbd073bce	-0.03301602
196	0xbc31de4c	-0.010856222
197	0x3d7873ab	0.060657185
198	0xba01f913	-0.00049580744
199	0x3aa48740	0.0012552515
200	0x3b8b8b54	0.0042585526
201	0x3b820c9e	0.0039687892
202	0x3d109626	0.035299443
203	0xbcfffd5d	-0.031248743
204	0xb81b6739	-3.7051013e-05
205	0xbb868cfa	-0.004106161
206	0x3d0d6c54	0.034527138
207	0x3dbb0f2e	0.09133755
208	0x39cfba8f	0.00039621114
209	0xbb17f396	-0.002318596
210	0xbb351cbc	-0.0027635535
211	0xbd3387b0	-0.043830574
212	0xbd0a7fba	-0.033813216
213	0x3ba9347d	0.005163728
214	0xbcd14066	-0.025543403
215	0xbb54e69c	-0.0032486087
216	0x3d64b926	0.055840634
217	0x3b0840d4	0.0020790594
218	0xbd2878cc	-0.041130826
219	0xbc1908f4	-0.0093405135
220	0x3c0fb844	0.00877196
221	0xbb19f3c3	-0.002349124
222	0xbb19009b	-0.0023346308
223	0x3c9b6b4e	0.018972065
224	0xbc975e40	-0.01847756
225	0x3b359dab	0.0027712386
226	0xbcf9a5f9	-0.03047465
227	0xbc2a8a67	-0.010408974
228	0xbba6f150	-0.0050946847
229	0x3c216189	0.009849914
230	0x3ab05e96	0.0013455923
231	0xbcfd6465	-0.03093166
232	0x3c906349	0.017625468
233	0x3c42a9c9	0.0118813
234	0xbbd8c6f4	-0.006615514
235	0xbaa70f9a	-0.0012745738
236	0x3b9fb25e	0.004873558
237	0x3cf7c03f	0.030243037
238	0xbc452dbb	-0.012034829
239	0x3caa9d9a	0.020827103
240	0xbc89fdb1	-0.016844602
241	0x3c6043b8	0.01368802
242	0x3bec8a40	0.007218629
243	0xbcbb7ad7	-0.022885723
244	0x3b79e14d	0.0038128674
245	0xbc6cf6ef	-0.01446317
246	0xba89c9f7	-0.0010512461
247	0xbcb67707	-0.022273554
248	0xbb40f332	-0.002944183
249	0x3cb3d4b4	0.02195201
250	0xbcfc05df	-0.030764518
251	0x3c7cdc2a	0.015433351
252	0xbc85583e	-0.016277429
253	0xbb3467d9	-0.0027527718
254	0x3be9e63f	0.007138043
255	0xbb8b608e	-0.0042534536

fc2.bias f4 [80]
0	0x3859824f	5.185819e-05
1	0x3b8314b3	0.0040002703
2	0xbb473b12	-0.00304002
3	0xbb0894b0	-0.0020840578
4	0x39dca48f	0.00042084276
5	0x3ba10f64	0.004915165
6	0x3bae2120	0.0053140074
7	0xbba4756b	-0.00501888
8	0xbb599c4e	-0.0033204737
9	0x3b4fed77	0.0031727233
10	0xbb4b852e	-0.0031054723
11	0x3b9c2e14	0.004766235
12	0xba83699f	-0.0010025984
13	0xba99b20f	-0.0011726039
14	0x3bd101c3	0.006378384
15	0x3b8df073	0.0043316423
16	0x3b246469	0.0025084263
17	0xbb46b58b	-0.003032061
18	0xbb96fe5d	-0.004607959
19	0xbb6ef14c	-0.0036459742
20	0x3b6c4bdd	0.003605596
21	0xba121798	-0.0005572974
22	0x3b7eba84	0.0038868496
23	0x3b06b202	0.0020552878
24	0x3bbf290f	0.005833752
25	0xbb5e4656	-0.0033916435
26	0xbb5d492f	-0.0033765545
27	0xbb135b61	-0.0022484886
28	0xbaa400d3	-0.0012512453
29	0x39bd3a50	0.00036092335
30	0xba39ffc8	-0.00070953043
31	0xbb4b5f79	-0.0031032248
32	0xbab5ec1b	-0.0013879569
33	0x3b3994d0	0.002831746
34	0xb9247a8a	-0.00015685908
35	0x3b5529e0	0.003252618
36	0x3b3436b1	0.002749842
37	0x3a08f802	0.00052249443
38	0x3855e757	5.099861e-05
39	0x3b235aa6	0.0024925857
40	0x3b6796f1	0.003533777
41	0x3b89dae3	0.0042070015
42	0x3b854d2a	0.0040680366
43	0x3b14b44a	0.0022690468
44	0xb98e5ae3	-0.00027152066
45	0xbbd58212	-0.0065157497
46	0xbbc04e2d	-0.0058686943
47	0x3afc9e4e	0.0019273253
48	0x3b0f745a	0.002188942
49	0xbbcb9e55	-0.006213943
50	0xbbae15c6	-0.005312654
51	0x3b47ba09	0.0030475876
52	0xbb1cd483	-0.0023930378
53	0xbb053763	-0.0020327203
54	0x3b8b8caa	0.004258712
55	0x3b999011	0.0046863635
56	0xbb8b64a0	-0.004253939
57	0x3b000335	0.0019533162
58	0xbb03c8c7	-0.0020108686
59	0x3b05fceb	0.002044494
60	0x3b066821	0.0020508843
61	0x3b944a2d	0.004525444
62	0x3a991de1	0.0011681878
63	0x3ae9ce2a	0.0017837931
64	0x3b912e04	0.0044305343
65	0x39b1b0b0	0.00033891713
66	0xbbc19e5c	-0.0059087705
67	0xbad25296	-0.0016046341
68	0xbba816f2	-0.0051296884
69	0xbae0c95a	-0.0017149851
70	0x3b813423	0.0039429828
71	0xbb70b1b1	-0.0036727006
72	0x3aefb1c3	0.001828723
73	0x3b326067	0.0027218105
74	0x3b8ebdad	0.004356107
75	0x3b3eba8b	0.0029102887
76	0xb9bfda48	-0.0003659299
77	0xbb7bebf1	-0.0038440193
78	0x3af66773	0.0018799141
79	0xbb331341	-0.0027324709

fc3.weight f4 [40, 80]
0	0xbccd7c00	-0.025083542
1	0x3d9f27ce	0.07771264
2	0x3dcdf642	0.100567356
3	0xbb646b41	-0.0034853967
4	0x3d05c511	0.03265864
5	0xbd34275d	-0.043982852
6	0xbd351fc5	-0.04421975
7	0xbd1f5271	-0.03889698
8	0xbcf7e9f8	-0.030262932
9	0x3cef197f	0.029186962
10	0x3bdb4a74	0.006692225
11	0x3d1c83ac	0.03821151
12	0xbd222079	-0.03958175
13	0xbbb8c7cc	-0.005639052
14	0x3dafa480	0.08576298
15	0x3ce4a7b1	0.027911993
16	0x3d093e43	0.033506643
17	0xbd11253d	-0.035435904
18	0xbd01c4fd	-0.031682003
19	0xbcfae012	-0.030624423
20	0x3b84b11b	0.004049433
21	0x3b66c44c	0.0035212217
22	0xbd21ed25	-0.0395328
23	0x3ca996fa	0.020701874
24	0x3da64199	0.081179805
25	0xbc5355f6	-0.012898913
26	0xb9e9e676	-0.0004461293
27	0x3dd81d3f	0.10552453
28	0x3c0b207e	0.008491633
29	0xbcae4026	-0.021270823
30	0xb9983a17	-0.0002903498
31	0xbc098326	-0.008393085
32	0xbc626b28	-0.013819493
33	0xbc4d9788	-0.012548335
34	0x3c430c81	0.011904837
35	0x3d9acda8	0.07558757
36	0xbd145fab	-0.03622405
37	0xbd8e5d27	-0.06951361
38	0xbccfc352	-0.02536169
39	0xbc30027a	-0.010742778
40	0xbcca24d9	-0.024675773
41	0x3d973fd5	0.07385222
42	0xbcde30b4	-0.027122833
43	0x3c49b3c2	0.012310924
44	0xbc35cce4	-0.011096213
45	0x3c8361ec	0.016037904
46	0xbd837e6d	-0.06420598
47	0x3da78d3e	0.08181237
48	0x3ddc08d6	0.10743873
49	0x3cd8ebd9	0.026479648
50	0xbd26d5e0	-0.04073131
51	0x3d8f296d	0.06990323
52	0x3d81001a	0.062988475
53	0x3ad39097	0.0016141114
54	0x3c9ed1b5	0.019387105
55	0x3dba4b98	0.090964496
56	0x3c94875a	0.018130947
57	0xbcf8ceab	-0.030371984
58	0xbc6b343d	-0.014355716
59	0x3db51201	0.088413246
60	0xbd2724fb	-0.04080675
61	0x3be938cf	0.007117368
62	0xbceb17c6	-0.02869786
63	0x3d82ef0f	0.06393253
64	0x3ddf5d81	0.10906506
65	0xbd50ca1d	-0.050974
66	0x3d824910	0.06361592
67	0xbd02ca11	-0.031930987
68	0xbc9ab80a	-0.018886585
69	0xbc3a0e8a	-0.011356005
70	0xbc5c432d	-0.01344375
71	0xbd12276f	-0.035682138
72	0x3ab1a93e	0.0013554466
73	0x3cc86448	0.02446188
74	0x3da7c4b0	0.08191812
75	0x3c88aa5a	0.016682792
76	0xbcb3d0bb	-0.021950116
77	0xbd0e71e1	-0.034776572
78	0x3dccc6a3	0.099988244
79	0xbc156b57	-0.00911983
80	0x3d09e75e	0.033667915
81	0x3db360c7	0.08758693
82	0x3b368ff5	0.0027856801
83	0xbaae9d74	-0.0013322071
84	0x3b33a7b9	0.0027413203
85	0x3d1d4243	0.03839327
86	0x3ca06315	0.019578496
87	0x3d889961	0.0666988
88	0x3d6858db	0.056725364
89	0x3cc0b210	0.023522407
90	0x3d84ce79	0.06484694
91	0x3d72c8a2	0.05927337
92	0x3c712303	0.01471782
93	0xbcc8ebc6	-0.024526488
94	0x3da5b613	0.080913685
95	0x3afba6bc	0.0019199471
96	0xbd0f7beb	-0.035030287
97	0xbcff2a2e	-0.031148043
98	0xbc823047	-0.015892161
99	0x3b4a28d3	0.0030847087
100	0x3bc7f08d	0.006101674
101	0xbc87671d	-0.01652866
102	0xbc846ae5	-0.016164253
103	0xbc82cb58	-0.015966102
104	0x3d96c20f	0.073612325
105	0x3b7054db	0.0036671672
106	0x3d49c744	0.0492623
107	0x3d9e12d4	0.07718435
108	0xbc1f08ef	-0.00970672
109	0x3ca2bdf8	0.019865975
110	0x3b8c39bb	0.004279343
111	0xbd3b2d48	-0.04569748
112	0x3d9f6cab	0.07784399
113	0xbcad6d27	-0.021170212
114	0x3c284c16	0.010272047
115	0xbc36707d	-0.011135218
116	0xbcaf05ff	-0.021365164
117	0xbcc12432	-0.02357683
118	0x3cc6c8eb	0.024265727
119	0xbb3f4496	-0.0029185168
120	0x3d42566d	0.047445703
121	0xbccb3d78	-0.024809584
122	0xbcd17d91	-0.02557257
123	0xbd048533	-0.03235359
124	0x3d9d019e	0.07666324
125	0x3db4bf25	0.088255204
126	0x3d6a7ec1	0.05724979
127	0xbc9870b7	-0.018608434
128	0x3d20d165	0.039262194
129	0x3d81df7a	0.06341453
130	0xbcf34e64	-0.029700466
131	0xbcd7d50e	-0.02634671
132	0xbc669c16	-0.0140753
133	0x3d6883f2	0.056766458
134	0xbc6d21f4	-0.014473427
135	0xbcbb6c03	-0.022878652
136	0xbbaaffd6	-0.0052184863
137	0xbd425754	-0.047446564
138	0x3d5271a4	0.051377907
139	0x3d2fe3a2	0.042941697
140	0xbcf01123	-0.029305046
141	0xbd37ba77	-0.04485556
142	0xbcb3dfa5	-0.021957228
143	0x3b44efe0	0.0030050203
144	0x3d93bcd4	0.072137505
145	0xbc8e2bd9	-0.017354893
146	0x3db5a152	0.0886866
147	0x3c45bf6e	0.012069566
148	0xbc8fb00b	-0.017539999
149	0xbcb2abba	-0.021810401
150	0x3d2497ff	0.040184017
151	0xbc52c17f	-0.012863516
152	0xbb1d4104	-0.002399505
153	0x3bc98789	0.0061501903
154	0x3d935193	0.071932934
155	0xbca76615	-0.020434419
156	0xbb45b2e2	-0.0030166437
157	0x3d257ea5	0.04040398
158	0x3d2b6a25	0.041849274
159	0x3b306d8a	0.002692076
160	0x3cb98fcd	0.022651577
161	0xbc449164	-0.011997554
162	0xbcc62ab3	-0.024190282
163	0x3b299c41	0.0025880488
164	0xb825df4c	-3.9547027e-05
165	0x3da0fbee	0.07860552
166	0xbcc220eb	-0.023697337
167	0x3c057a42	0.008146824
168	0x3bdc2075	0.0067177364
169	0x3cf30845	0.02966703
170	0xbcb6e2f4	-0.022325017
171	0x3d425b3e	0.047450297
172	0x3d3cad68	0.04606381
173	0x3d9af2bc	0.07565829
174	0xbd214131	-0.039368812
175	0x3d09f462	0.033680327
176	0x3cd17471	0.025568219
177	0x3d3ec504	0.046574607
178	0xbcafc4db	-0.021456173
179	0x3ce7dfbf	0.028304933
180	0x3c5a1bd5	0.0133123
181	0x3acb19e6	0.0015495389
182	0xbc6de7e7	-0.014520622
183	0xbc357b2b	-0.011076729
184	0x3d009e3b	0.0314009
185	0x3d658b76	0.056041203
186	0x3d3f0b86	0.04664185
187	0xbd351c7b	-0.044216614
188	0xbd30787b	-0.04308365
189	0xbd26cc71	-0.040722314
190	0xbab78e05	-0.0014004117
191	0xbcf0f093	-0.02941159
192	0xbd13afa9	-0.036056194
193	0x3d0a9b44	0.03383948
194	0xbbcdc481	-0.0062795286
195	0xbd14a300	-0.03628826
196	0x3db6ad7f	0.089198105
197	0xbd1dc064	-0.038513556
198	0x3d6711ba	0.05641339
199	0x3d90ccfd	0.070703484
200	0x3daebaea	0.08531745
201	0xbd3bda78	-0.045862645
202	0x3c34eaa6	0.011042273
203	0x3d2fa799	0.042884443
204	0x3ca336f8	0.019923672
205	0x3cb224d9	0.021746086
206	0x3d453c88	0.04815343
207	0x3de94075	0.11389247
208	0x3c8351af	0.01603016
209	0xbd15ddeb	-0.03658859
210	0x3db187b6	0.08668463
211	0x3dbe1148	0.0928064
212	0xbd1f35e1	-0.038869742
213	0xbc378c54	-0.01120289
214	0x3db26bdd	0.087119795
215	0x3d03cdb1	0.032178584
216	0xbd32fa0c	-0.043695495
217	0xbb269a57	-0.0025421584
218	0x3d8a3991	0.06749261
219	0xbcdbc4e4	-0.026827283
220	0x3d808e12	0.06277098
221	0x3d7788be	0.060433142
222	0xbd7a566c	-0.061117575
223	0xbd47b5e1	-0.048757438
224	0x3b709949	0.0036712459
225	0x3d1e5062	0.038650878
226	0x3cb8c957	0.022556944
227	0xbd2b00a7	-0.04174867
228	0x3daa23a7	0.083075814
229	0x3d974731	0.073866256
230	0x3cba5296	0.022744458
231	0xbcd185e5	-0.025576541
232	0x3c4eac7d	0.012614367
233	0x3b071ff3	0.0020618408
234	0x3d391e7b	0.045195084
235	0xbbed7b71	-0.0072473814
236	0xbd1592fd	-0.036517132
237	0xbd83de90	-0.06438935
238	0x3ca2aaf1	0.019856902
239	0xbbcde303	-0.0062831654
240	0xbcbb00cc	-0.022827528
241	0x3dae2cda	0.085046485
242	0x3a024463	0.0004969297
243	0xbb1b3c6f	-0.0023687144
244	0x3cf32d91	0.029684814
245	0xbd0837fd	-0.03325652
246	0x3d96d527	0.07364874
247	0xbcd15734	-0.025554277
248	0xbcef8b6e	-0.02924129
249	0xbc90ff85	-0.017699966
250	0xbba3f3ea	-0.005003442
251	0x3c4a79f2	0.012358176
252	0x3d7fbad1	0.06243402
253	0xbce71ace	-0.028211024
254	0xbd193913	-0.037407946
255	0x3da9b777	0.08286946

fc3.bias f4 [40]
0	0x3c7e55f0	0.015523419
1	0x3c51b75d	0.012800065
2	0x3c018768	0.0079058185
3	0x3b89e943	0.004208715
4	0x3c69e063	0.014274689
5	0x3c99ed52	0.018789921
6	0x3bb1c38c	0.0054249223
7	0x3b7d1913	0.0038619682
8	0xba749504	-0.00093300664
9	0x3ba9d460	0.005182788
10	0x3c2a445a	0.010392273
11	0xbaa4617c	-0.001254126
12	0x3b869abd	0.0041078017
13	0x3ab059a9	0.0013454455
14	0xbbea3109	-0.0071469587
15	0x3c5930c7	0.013256258
16	0x3c330038	0.010925345
17	0xbac1c501	-0.0014783443
18	0x3c446b06	0.011988407
19	0x3b111921	0.0022140222
20	0x3c84349a	0.016138364
21	0x3b9ddc71	0.0048175384
22	0x3b750ada	0.0037390501
23	0x3c3d253e	0.011544524
24	0x3c230296	0.009949347
25	0x3c35cd90	0.011096373
26	0x3bdc91e9	0.006731261
27	0x3b9e1528	0.0048242994
28	0x3c9a2435	0.018816093
29	0x3a08a84a	0.00052130653
30	0x3c92e6ab	0.017932257
31	0x3a5c784a	0.00084102585
32	0x3c341254	0.010990698
33	0x3c9d1b6f	0.01917812
34	0x3ba59d06	0.005054119
35	0xbb265d63	-0.0025385253
36	0x3c1d34b4	0.009595085
37	0xbc1872a3	-0.009304675
38	0x3c5f83b0	0.013642237
39	0x3c83505f	0.016029535
