outfiles/cnn/ORL64_6Train_cnn.pth (torch, 613695 bytes, 10 tensors)

conv_layer1.weight f4 [16, 1, 5, 5]
0	0x3e56f4a6	0.20991763
1	0x3c818a2e	0.01581296
2	0xbdbdd18a	-0.09268482
3	0xbdc13288	-0.09433466
4	0xbcbb47e5	-0.02286143
5	0x3e4e49f5	0.201454
6	0x3e21a7b8	0.15786636
7	0x3d479047	0.048721578
8	0xbdca871b	-0.098890506
9	0xbe03b11e	-0.12860534
10	0x3d1e3aa6	0.03863015
11	0x3d2c7e37	0.042112555
12	0xbd1805e7	-0.037115004
13	0xbe0b0c43	-0.13578896
14	0xbd9c41d8	-0.07629746
15	0x3e261847	0.16220199
16	0xbd9171aa	-0.07101758
17	0xbdfc40c3	-0.1231704
18	0xbe11f155	-0.14252217
19	0xbe1e6bc4	-0.15470797
20	0x3d007f97	0.03137168
21	0xbcd47c09	-0.02593805
22	0xbe1aa420	-0.15101671
23	0xbba3fc25	-0.005004423
24	0x3d019aab	0.031641643
25	0x3bdb3988	0.006690208
26	0x3b609ab6	0.0034271902
27	0xbc4b1bb7	-0.012396744
28	0x3b3a2f81	0.0028409662
29	0x3c0a734e	0.008450342
30	0xbb482219	-0.0030537902
31	0x3c369300	0.011143446
32	0xbba33f0d	-0.0049818815
33	0xbbd37b77	-0.006453927
34	0xbc181d7a	-0.0092843715
35	0xbbc0c960	-0.005883381
36	0xbbeafe4b	-0.0071714274
37	0xbc2846e5	-0.010270809
38	0xbbd7a198	-0.006580543
39	0x3b5b48d4	0.0033460157
40	0x3ae13d69	0.0017184439
41	0xbc4cb6fb	-0.012494798
42	0x3c445298	0.0119825825
43	0xbc08cead	-0.008350057
44	0xbbec91e3	-0.0072195395
45	0xba0d7b6c	-0.00053971144
46	0xbb883389	-0.004156534
47	0xbc1e84bf	-0.009675204
48	0x3c0abd32	0.008467959
49	0x3c4eb5b8	0.012616567
50	0x3aae9143	0.0013318438
51	0xbd31fd98	-0.043454736
52	0xbcb341aa	-0.021881897
53	0xbbb3deb6	-0.0054891957
54	0xbc7a6199	-0.015282058
55	0x3b6ef73e	0.0036463286
56	0xbd0f06bd	-0.034918536
57	0x3ccc55aa	0.024943192
58	0x3d1b5b6f	0.037928995
59	0x3d1b3487	0.03789189
60	0xbcf5e4ce	-0.03001633
61	0xbc9c913a	-0.019112218
62	0x3d0f9ac7	0.035059717
63	0x3cec5bdb	0.028852394
64	0x3cc38157	0.023865385
65	0xbd02ae98	-0.031904787
66	0x3b112317	0.002214616
67	0xba0dcc39	-0.00054091547
68	0xba6d80b3	-0.000906001
69	0xbb108ce7	-0.002205664
70	0xbc8e114e	-0.017342236
71	0xbcdba829	-0.026813583
72	0x3bfa5a1d	0.007640137
73	0x3c08a132	0.008339213
74	0xbb71b50e	-0.0036881599
75	0x3b7d1cd5	0.0038621922
76	0xbc5128ab	-0.012766044
77	0x3b3b9a14	0.0028625773
78	0xba332a73	-0.00068346335
79	0xbc0527f9	-0.008127206
80	0xb98897e2	-0.00026053103
81	0xbbf39ebe	-0.007434695
82	0x3b9257d7	0.0044660377
83	0xbbbc647d	-0.005749284
84	0xbc47f0e1	-0.012203426
85	0xbbf806ed	-0.007569185
86	0xbaf9001b	-0.0018997224
87	0x3b7850d2	0.003788997
88	0xbc20ed0d	-0.009822142
89	0x3b860758	0.004090231
90	0x3a3b8d8e	0.0007154577
91	0xbafaaf8d	-0.0019125805
92	0xbc341876	-0.01099216
93	0xbbe2b6c5	-0.0069187605
94	0xb9a6c4ab	-0.00031808516
95	0x39fc2011	0.00048089077
96	0xb9eeef33	-0.00045573115
97	0xb8812925	-6.158863e-05
98	0xbb3dc86b	-0.002895857
99	0x3bfc0c8d	0.007691926
100	0xbc491907	-0.012274033
101	0x3ae2bb66	0.0017298281
102	0xbbecb1a1	-0.0072233235
103	0xba942bfe	-0.0011304615
104	0x3aadf9f5	0.0013273346
105	0xbbef14c5	-0.007296177
106	0xbb9c27e4	-0.0047654975
107	0x3b9836db	0.004645211
108	0x3bc98eab	0.0061510406
109	0xbb6731a7	-0.0035277398
110	0x3b8f56d2	0.0043743635
111	0x3ab52f42	0.0013823288
112	0xb9cb5682	-0.0003878363
113	0x3ac22fe5	0.0014815299
114	0xbbbb7df7	-0.0057218033
115	0xbc0e36e1	-0.008680076
116	0xbad583af	-0.0016289855
117	0x3b30d911	0.002698485
118	0xb9520771	-0.00020029933
119	0x3a5d4011	0.00084400276
120	0xb8e3d535	-0.000108639164
121	0xbbd308c6	-0.006440255
122	0x3b9fe11f	0.0048791314
123	0xbc4eb704	-0.0126168765
124	0x3be1681c	0.006878866
125	0xbda61220	-0.08108926
126	0xbda89500	-0.082315445
127	0xbdb6c295	-0.08923832
128	0xbd8fc258	-0.0701949
129	0x3dee0273	0.11621561
130	0xbdeed518	-0.11661738
131	0xbbb42819	-0.005497944
132	0xbdcb0a32	-0.09914054
133	0x3d006c09	0.03135303
134	0x3e3b9fd3	0.18322687
135	0xbd5efbed	-0.054439474
136	0xbd93a771	-0.07209671
137	0x3d43d85f	0.04781377
138	0x3d2afc9f	0.041744824
139	0x3d8d8ab2	0.0691122
140	0xbe0a2d27	-0.13493787
141	0xbdf387c9	-0.11891133
142	0xbd64c798	-0.05585441
143	0xbc87f8e1	-0.016598167
144	0x3e0e233d	0.1388063
145	0xbdfdbd3b	-0.123896085
146	0x3d217373	0.03941674
147	0xbd959561	-0.073038824
148	0x3e0aae48	0.13543046
149	0x3e063f4f	0.13110088
150	0xbe98ac03	-0.29818735
151	0xbeb4536f	-0.35219905
152	0xbea71a30	-0.32637167
153	0xbd596bb4	-0.05308123
154	0xbc85e587	-0.016344799
155	0xbe865b64	-0.262416
156	0xbe9532e0	-0.29140377
157	0xbdd15946	-0.10222106
158	0x3e12d370	0.1433847
159	0x3e4a7d5c	0.19774383
160	0xbe19c8d1	-0.15018012
161	0xbe30c970	-0.17264342
162	0x3de91961	0.11381794
163	0x3e301de3	0.17198901
164	0x3ea3cdc8	0.31992936
165	0xbccec7e1	-0.025241794
166	0x3c2df852	0.010618286
167	0x3e58c507	0.2116891
168	0x3e71c91a	0.2361187
169	0x3e981286	0.29701632
170	0x3dc27f75	0.09496967
171	0xbd76a578	-0.060216397
172	0x3ddcdd6c	0.1078442
173	0x3eabef74	0.33581126
174	0x3eb6c474	0.35696757
175	0xbc1545e9	-0.009110906
176	0xbc5b85ff	-0.013398646
177	0xbc6c86b4	-0.014436413
178	0xbc6ad3a6	-0.0143326875
179	0xbc5f9041	-0.013645233
180	0xbc3f6d04	-0.011683706
181	0xbc992708	-0.01869537
182	0xbb99fa57	-0.0046990323
183	0x3ac881cd	0.0015297473
184	0x3b5babd5	0.0033519168
185	0x3cec35af	0.028834192
186	0x3cbbadb0	0.02290997
187	0xbd03c69b	-0.032171827
188	0xbceb109d	-0.028694445
189	0xb9b753f7	-0.0003496704
190	0x3d2221d7	0.039583053
191	0x3cb947ad	0.022617185
192	0x3c908116	0.017639678
193	0xbcd861dd	-0.026413852
194	0xbc8f1816	-0.01746754
195	0x3ce8c491	0.028414043
196	0x3cf03dc9	0.029326336
197	0xbc5271bd	-0.0128445
198	0xbcad653c	-0.021166436
199	0xbcba09c7	-0.02270974
200	0xb96cfae8	-0.00022600184
201	0x3dce9452	0.100868836
202	0xb7e727b4	-2.7555834e-05
203	0xbe19b0cd	-0.1500885
204	0xbe209a38	-0.1568383
205	0x3d66045a	0.056156494
206	0x3ca0f644	0.019648679
207	0xbd0aa626	-0.033849858
208	0xbdc6e471	-0.097115405
209	0xbe64bd9e	-0.22337958
210	0x3d9d60e8	0.07684499
211	0x3d4b59a1	0.049646024
212	0xbd615428	-0.0550119
213	0xbdf1c0c2	-0.11804344
214	0xbe407eef	-0.18798421
215	0x3dd78984	0.10524276
216	0x3e0c613f	0.13708971
217	0x3dded855	0.10881106
218	0xbd418de1	-0.047254447
219	0xbdf974fc	-0.12180516
220	0x3e2777c1	0.16354276
221	0x3df7ee97	0.12106054
222	0x3e18fd40	0.14940357
223	0xbd80b37a	-0.062842324
224	0xbdc018a4	-0.093797
225	0xbbffff5b	-0.007812423
226	0xbc1569d1	-0.009119467
227	0xbb105180	-0.0022021234
228	0xbc4fe69f	-0.012689262
229	0x38bed919	9.1003436e-05
230	0xbae11413	-0.001717212
231	0xba829964	-0.0009963927
232	0xbba3bda2	-0.004996971
233	0x3c7d4d3e	0.0154603105
234	0xbb09ca99	-0.0021025299
235	0x3c865f66	0.016402911
236	0x3c95eaa1	0.018300356
237	0xbc0ebd9e	-0.0087122
238	0xbb3c973d	-0.0028776668
239	0x3c9541b4	0.018219806
240	0xbb93beef	-0.004508845
241	0xbc15123a	-0.009098584
242	0x3c10a79d	0.008829025
243	0x3c8b6d78	0.017019972
244	0x397a89a5	0.00023893134
245	0xbc0bfed5	-0.008544643
246	0xbbf9371a	-0.0076054456
247	0xbb9d0557	-0.0047918963
248	0xbbee4039	-0.0072708395
249	0x3a1614d5	0.000572515
250	0x3da16326	0.07880239
251	0xbca31896	-0.019909184
252	0x3d4633ea	0.048389353
253	0x3dd4f626	0.103985116
254	0x3d9a9228	0.07547408
255	0x3d5f93b3	0.054584216

conv_layer1.bias f4 [16]
0	0x3b4fbe09	0.0031698963
1	0x3c433837	0.011915258
2	0x3c2be15d	0.0104907425
3	0x3b34089f	0.002747096
4	0xbbec4557	-0.0072104144
5	0xbc830a0d	-0.015996004
6	0x3bb2ada8	0.0054528303
7	0xbc1b235f	-0.009468882
8	0x3c238ca3	0.009982261
9	0x3b135ad9	0.002248457
10	0x3bd607e8	0.006531704
11	0x3b009801	0.0019621851
12	0xbbc04394	-0.005867431
13	0xbbd11a40	-0.006381303
14	0xbba47b30	-0.005019568
15	0x3c2d66ae	0.010583563

conv_layer2.weight f4 [32, 1, 5, 5]
0	0xbb9a1eb5	-0.0047033676
1	0x3c946254	0.018113293
2	0xbc7bc9d6	-0.015367946
3	0xbc53976e	-0.012914522
4	0xbcaf8905	-0.02142764
5	0x3d13daaf	0.036097225
6	0xba40090e	-0.0007325568
7	0xbc8f7cd9	-0.017515587
8	0xbd0dcf6f	-0.034621652
9	0xbcf1a610	-0.02949813
10	0x3d6100be	0.05493235
11	0x3d274eb2	0.040846534
12	0x3d0b2df2	0.033979364
13	0xbb4d7e41	-0.003135577
14	0xbc6d77c0	-0.014493883
15	0x3d37be1b	0.044859033
16	0x3da95da3	0.08269813
17	0x3d8da4b2	0.06916179
18	0x3ab086b1	0.0013467876
19	0xbcc9f326	-0.024652075
20	0x3d4bfabe	0.049799673
21	0x3e120102	0.14258197
22	0x3dc16f44	0.0944505
23	0xbd115c03	-0.03548814
24	0xbd08cd9e	-0.033399217
25	0xbc6357d0	-0.013875917
26	0xbc9fde07	-0.01951505
27	0xba143e60	-0.00056550466
28	0xbcab3b57	-0.020902319
29	0xbccd3cb1	-0.025053354
30	0xbc61ed4b	-0.013789485
31	0xbd83e3f9	-0.06439967
32	0x3d3bc74b	0.045844357
33	0x3d87f4c9	0.06638486
34	0xbb73bbc7	-0.0037190781
35	0xbcd3ce00	-0.025855064
36	0xbd9a2528	-0.07526618
37	0x3df6d053	0.120514534
38	0x3e23bdf4	0.1599043
39	0xbb1a4701	-0.0023540857
40	0xbc8cf591	-0.017206939
41	0xbbb2b5f8	-0.0054538213
42	0x3e3a5176	0.18195137
43	0x3e03a113	0.12854414
44	0xbbfe3a94	-0.007758448
45	0xbc6d6274	-0.014488805
46	0x3c90fef1	0.01769969
47	0x3e467c16	0.19383273
48	0x3d82324f	0.06357252
49	0xbd0fbc5e	-0.03509175
50	0x3bd95cad	0.0066333623
51	0x3b7cb003	0.003855706
52	0x39fd00b5	0.00048256447
53	0x3b9bbd22	0.004752771
54	0xb86aeb8f	-5.600933e-05
55	0x3c1b672e	0.009485049
56	0x3b3cd5bf	0.0028813926
57	0xbc3c2c3d	-0.011485157
58	0xbb9a10bf	-0.0047017033
59	0x3be0de36	0.006862427
60	0xbc18b10b	-0.009319554
61	0xbbb4533a	-0.0055030854
62	0xbc45a428	-0.012063064
63	0x3c4fe5cb	0.012689064
64	0xbbc1f639	-0.0059192446
65	0xbbe66858	-0.0070314817
66	0x3c105bdf	0.008810966
67	0xb5d5a6f1	-1.5918323e-06
68	0x3c4518b9	0.01202982
69	0xb9cf4f6d	-0.00039541294
70	0x3c1928b0	0.00934808
71	0x3c3dd266	0.011585807
72	0xbba5c93a	-0.0050593885
73	0xbb027b6a	-0.0019909986
74	0x3c45a406	0.012063032
75	0xbb58fd2a	-0.0033109882
76	0x3bbd95e9	0.005785693
77	0xbc4125ab	-0.011788766
78	0xbc51d89a	-0.0128079895
79	0x3c234004	0.009963993
80	0xbc4e812f	-0.012604042
81	0x3b1d1a1a	0.0023971857
82	0x3bbc3a05	0.005744221
83	0x3b8f7a96	0.004378627
84	0xbc241856	-0.010015568
85	0xbc2f63db	-0.01070496
86	0xbbf9a9c7	-0.007619116
87	0xbb447e9c	-0.0029982692
88	0xbafb91a5	-0.0019193186
89	0x3c16de27	0.009208239
90	0xbae1aec2	-0.001721822
91	0xbc27eb2d	-0.010248941
92	0xbbb92907	-0.005650643
93	0xbb92b400	-0.004477024
94	0xbb8b8b80	-0.004258573
95	0xb9709f25	-0.0002294747
96	0x3bd0775e	0.006361886
97	0xba54b7ff	-0.0008114576
98	0x3c47babc	0.012190517
99	0xbbd3014e	-0.0064393645
100	0xbbf049a5	-0.007332998
101	0xbc4d9965	-0.012548779
102	0x3bbc6838	0.0057497285
103	0xbbeeb084	-0.007284226
104	0x3bfa4c4b	0.0076384894
105	0xbca8e338	-0.020616159
106	0x3cf4dda6	0.029890846
107	0x3d6fbeda	0.05853162
108	0x3d5eccf7	0.05439469
109	0xbb59583e	-0.0033164169
110	0xbc478be8	-0.012179352
111	0xbc757341	-0.014981092
112	0x3aa252ff	0.0012384354
113	0x3c4c641f	0.012475043
114	0xbb5173c2	-0.0031959866
115	0xbc27c1b8	-0.010239057
116	0xbc9f6697	-0.019458098
117	0xbc7df27b	-0.015499706
118	0xbc4496ac	-0.011998814
119	0x3c88f103	0.016716486
120	0xbc201728	-0.009771146
121	0xbc84b0dc	-0.016197614
122	0x3a3e123f	0.00072506437
123	0xb954eae3	-0.00020305398
124	0xbc166929	-0.009180346
125	0xbc7ee6e3	-0.015557977
126	0xbb72c13d	-0.0037041449
127	0xbb559b6d	-0.0032593862
128	0x3bf473d2	0.007460096
129	0xbc46f0a7	-0.012142337
130	0x3a41d398	0.00073938956
131	0x3c5a0ff7	0.01330947
132	0xbc866224	-0.016404219
133	0x3b8ed65e	0.0043590507
134	0xbc774e42	-0.015094342
135	0x3cd542c6	0.026032817
136	0x3cc97fbe	0.024597045
137	0xbc79a752	-0.015237646
138	0x3c33c4fa	0.010972256
139	0xbc395f2f	-0.011314197
140	0x3cb01146	0.021492612
141	0xbb1cb24f	-0.002390999
142	0xb9fce4e2	-0.00048235717
143	0xbc7cc62d	-0.015428108
144	0xbc9716a0	-0.018443406
145	0x3c51f0ca	0.012813756
146	0xbc7c58b0	-0.015402004
147	0xbc276077	-0.01021587
148	0x3c1bde72	0.009513484
149	0x3a9c3971	0.0011918974
150	0x3acf495a	0.0015814707
151	0xbbe66a8f	-0.0070317457
152	0xbb787638	-0.003791226
153	0x3c2b422d	0.010452789
154	0x3b781d5a	0.0037859292
155	0xbba28116	-0.004959236
156	0x3bcc6ab3	0.0062383055
157	0xbc36fa75	-0.011168112
158	0x3a269d96	0.00063558796
159	0x3b39fb7e	0.002837866
160	0xbc47be77	-0.012191406
161	0xbc273df2	-0.01020764
162	0x3beaf85d	0.0071707205
163	0x3c4bb8d9	0.012434208
164	0xbabd7fab	-0.0014457604
165	0x3c14116f	0.00903736
166	0x3c4a30b3	0.012340712
167	0x3ad90147	0.0016556167
168	0xbbc57284	-0.006025614
169	0x3bdfeb7d	0.0068334923
170	0x3c38c5fe	0.011277674
171	0x3b40c9f3	0.0029417246
172	0x3b20767e	0.002448469
173	0x3c4f9adf	0.0126712015
174	0x3ba0b242	0.0049040625
175	0x3aab9394	0.0013090246
176	0xbb8a62ae	-0.0042231893
177	0x3ae9ae30	0.0017828401
178	0xbb939cf4	-0.0045047943
179	0x3b7945b1	0.0038035924
180	0xbbbd36bf	-0.0057743485
181	0x3c28d88e	0.010305537
182	0x3bb2ba45	0.005454334
183	0x3c30037f	0.010743021
184	0xbc2bcdcb	-0.010486077
185	0xbc3c5294	-0.0114942975
186	0x3b2bb659	0.0026201217
187	0xbc4cc5d3	-0.012498337
188	0x3c014d41	0.007891954
189	0xbc4fab78	-0.012675159
190	0x3b2042c5	0.002445386
191	0xbae73ff5	-0.0017642962
192	0x3bab4a22	0.005227343
193	0x3bf495f3	0.0074641644
194	0xbb429081	-0.0029688182
195	0x3c3127cf	0.010812714
196	0xbb604554	-0.003422101
197	0x3bdbcf64	0.0067080725
198	0x3c3ecab3	0.011645007
199	0xbb79f9d6	-0.0038143299
200	0xbb996c10	-0.0046820715
201	0xba5a2343	-0.00083212944
202	0xbb6a0827	-0.0035710426
203	0x3b7bb663	0.0038408272
204	0x3bf378b3	0.00743016
205	0xbc4b263e	-0.012399254
206	0x3c51da6e	0.012808425
207	0x3ba06afe	0.004895567
208	0x3b60c28d	0.0034295649
209	0x3b8bd59f	0.004267409
210	0xbc0d9742	-0.00864202
211	0xbc1db144	-0.009624783
212	0xbb3c91c5	-0.002877341
213	0x3bb1332c	0.0054077115
214	0xbbc2f847	-0.005950007
215	0xbc117597	-0.008878133
216	0x3c25d48e	0.010121478
217	0x38c4c987	9.383546e-05
218	0xbc12971b	-0.008947159
219	0xbbf51538	-0.007479336
220	0x3bb6b022	0.005575196
221	0xbc4dc9ba	-0.012560302
222	0x3aaed3d1	0.0013338273
223	0xbc4762a0	-0.01216951
224	0xbc04b455	-0.008099635
225	0xbbdbc4cf	-0.006706811
226	0x3a58ed30	0.000827509
227	0xbb089322	-0.002083965
228	0x3c42d235	0.011890938
229	0x3c04ecfe	0.008113144
230	0x3b745660	0.0037282929
231	0xbb9027a4	-0.004399257
232	0x3ae49244	0.001743861
233	0x3b8cd3a5	0.004297691
234	0x3c2c9d73	0.010535586
235	0xbb96c29e	-0.004600837
236	0x3c457d50	0.012053803
237	0x3c14d44c	0.009083819
238	0xbb998bbc	-0.004685847
239	0x3c2f2269	0.010689356
240	0xbbb34a0d	-0.005471474
241	0xbabb8599	-0.0014306783
242	0x3c0859c2	0.008322181
243	0x3be9d6db	0.0071362085
244	0xbc3f90af	-0.01169221
245	0x3c182f7d	0.009288666
246	0xbc4aa4bf	-0.01236838
247	0x3be71f8b	0.0070533208
248	0x3b29d3ad	0.0025913522
249	0x3b130bce	0.0022437456
250	0xbc367896	-0.011137148
251	0xbcc5c426	-0.024141382
252	0x3ccd25ac	0.025042377
253	0xbd16c58b	-0.036809485
254	0xbc89e4c1	-0.016832711
255	0xbd197269	-0.037462626

conv_layer2.bias f4 [32]
0	0xbc9a9d9a	-0.018873978
1	0xbc323a69	-0.010878184
2	0x3b8a1126	0.00421347
3	0x3bb52260	0.0055277795
4	0x3bb76125	0.0055962973
5	0x3bc47139	0.0059949425
6	0x3b1db5d8	0.0024064686
7	0x3bc41095	0.005983422
8	0x3b30138a	0.0026867115
9	0x3c13f94b	0.009031604
10	0xbbc71e4f	-0.006076611
11	0xbc942cef	-0.018087832
12	0xbb91fc70	-0.0044551417
13	0xbc1c02c9	-0.009522148
14	0xbbb862ac	-0.005626997
15	0x3820c46b	3.83299e-05
16	0xbbe14a2e	-0.006875298
17	0xbc8414be	-0.016123172
18	0xbc482b1b	-0.012217308
19	0x3c1b5c96	0.009482523
20	0xbc7d0672	-0.015443431
21	0xbc6ea10b	-0.014564763
22	0xbb03704c	-0.0020055948
23	0x3bc06373	0.0058712303
24	0xbbc3611d	-0.0059625045
25	0xbb9170f0	-0.004438512
26	0xbc6ea7f9	-0.014566415
27	0xbc1cfa28	-0.009581126
28	0x3be7906b	0.0070667765
29	0x3c30f70f	0.010801091
30	0xbc84ce88	-0.016211763
31	0xbcc6d391	-0.024270805

fc1.weight f4 [120, 1152]
0	0xbac00998	-0.0014651297
1	0xbb4b8355	-0.0031053622
2	0xbaa4a8b9	-0.001256249
3	0xbb2877db	-0.0025706205
4	0xbbb50838	-0.0055246614
5	0xbc0db51b	-0.008649136
6	0xbbc8ce03	-0.006128074
7	0xbc009138	-0.007847123
8	0xbb4d0d9d	-0.0031288632
9	0x3c6824a6	0.014168894
10	0xbbf2d9f3	-0.0074112355
11	0xbc412e92	-0.011790888
12	0xbaacc292	-0.0013180545
13	0xbb879577	-0.0041376906
14	0x3b91348a	0.004431312
15	0x3c9e7a82	0.019345526
16	0x3b201ddb	0.0024431858
17	0xbc1b57e6	-0.009481406
18	0xbb5b8448	-0.0033495594
19	0x3bb162d7	0.005413394
20	0x3c34632b	0.011009972
21	0x3c909176	0.017647486
22	0x3c0d031a	0.0086066965
23	0xbbb7e42e	-0.005611918
24	0xbb8d37d7	-0.004309635
25	0x3bb07222	0.0053846994
26	0xbad6f56e	-0.0016400048
27	0x3b6443d4	0.0034830468
28	0x3c472072	0.012153732
29	0xbb6856aa	-0.0035452046
30	0xbc15cdd6	-0.009143313
31	0xba715729	-0.0009206408
32	0xbb16512d	-0.0022936568
33	0xbba5ec19	-0.0050635454
34	0xbc338cb9	-0.010958844
35	0xbc87363d	-0.016505355
36	0x3a7f05b6	0.0009728329
37	0x3a561cfe	0.00081677723
38	0xbb097680	-0.0020975173
39	0xbc130b42	-0.008974852
40	0xbc1ee00c	-0.009696972
41	0xbc5366e7	-0.012902952
42	0xbacada3e	-0.0015476418
43	0xbbc28307	-0.00593603
44	0x3c584418	0.013199829
45	0x3b3c5ecc	0.0028743027
46	0xbc90de45	-0.017684111
47	0xbc7cf499	-0.015439176
48	0xbb747385	-0.00373003
49	0xbaf55d58	-0.0018719835
50	0x3cd556f1	0.026042433
51	0x3c16e1b4	0.009209085
52	0xbc65a737	-0.014016918
53	0xbc537a9b	-0.012907649
54	0x3be0d637	0.006861474
55	0x3bc5bdfd	0.0060346113
56	0x3d05c87e	0.032661907
57	0x3bb12f81	0.0054072742
58	0xbc5d1989	-0.013494858
59	0xbcb8c6d8	-0.022555754
60	0x3c0c0308	0.008545645
61	0x3b9549d3	0.0045559197
62	0x3c57b323	0.013165268
63	0x3bc742ca	0.00608096
64	0x3b6b98a5	0.0035949138
65	0xbcbcbbd3	-0.02303878
66	0x3bec764a	0.0072162496
67	0xbb2d0cea	-0.0026405402
68	0xbb6c519e	-0.003605939
69	0x3bacc4cf	0.005272485
70	0xbc8efaaf	-0.01745352
71	0xbd1c6b12	-0.038188048
72	0x3a73cd86	0.000930034
73	0xb96978b9	-0.00022265584
74	0xb9e9792c	-0.00044531503
75	0xba92266d	-0.0011150368
76	0xba80b27e	-0.000981882
77	0xbac536a8	-0.0015046196
78	0xbaf03008	-0.0018324861
79	0xbaeed52c	-0.0018221489
80	0x39f73f06	0.00047158467
81	0x3a29842a	0.00064665324
82	0xb9da6de7	-0.00041662084
83	0x3a0717c4	0.00051533827
84	0xb905999f	-0.00012741097
85	0x3ad8f838	0.0016553467
86	0x3ae3c127	0.001737629
87	0xba17e86f	-0.0005794828
88	0x38fdbb7e	0.00012098903
89	0x3a9e2966	0.0012066781
90	0x3abbee55	0.0014337996
91	0xbaefb73c	-0.0018288861
92	0x3a9566e5	0.0011398463
93	0x3ac44cf2	0.0014976545
94	0xbaea329b	-0.0017867865
95	0xba5f47d2	-0.0008517477
96	0x3ad1f3a4	0.0016018045
97	0x39d20551	0.00040058282
98	0xbaee3760	-0.0018174462
99	0xbaf7ccb5	-0.0018905612
100	0xbab046cf	-0.0013448837
101	0xba955577	-0.0011393268
102	0xba414d0f	-0.00073738483
103	0xbad4f6ee	-0.0016247907
104	0x3ad1f6ba	0.0016018965
105	0x38b2e036	8.529464e-05
106	0x38e31df2	0.00010829781
107	0x3aa6d715	0.0012728894
108	0x3a156ce0	0.00057001226
109	0x3abef3dc	0.0014568525
110	0x3a3f67f7	0.0007301564
111	0xba81bf32	-0.00098989
112	0x3aebb491	0.001798289
113	0xba90b0fd	-0.0011039075
114	0xba7551ed	-0.0009358216
115	0xbae55b2c	-0.0017498485
116	0xb8ec0ff3	-0.00011256328
117	0xba09273a	-0.00052319805
118	0xb9ecfc2b	-0.00045201308
119	0x3a9a6364	0.0011778888
120	0x3a65b1b7	0.00087621383
121	0xb9ffe36a	-0.00048806827
122	0x3ac3f326	0.0014949783
123	0xbae8f883	-0.0017774258
124	0xba81a460	-0.0009890907
125	0xba8c2c4f	-0.0010694357
126	0x39a26498	0.00030973996
127	0xbae4f643	-0.0017468411
128	0x3a4c9a67	0.000780499
129	0x3aea05c4	0.0017854501
130	0xb88f7374	-6.840276e-05
131	0x3aee12e1	0.0018163585
132	0xbaf60683	-0.0018770251
133	0xbadd5eb8	-0.001688919
134	0xb9cb2b01	-0.00038751218
135	0xb9adabfe	-0.00033125276
136	0xbaf035ac	-0.0018326542
137	0x3a495c01	0.0007681251
138	0xba3a0e82	-0.0007097499
139	0xba4acfe6	-0.0007736668
140	0x3aae2d98	0.0013288734
141	0xbadb3a8c	-0.0016725822
142	0xbaa219ed	-0.0012367346
143	0xb9666516	-0.00021972167
144	0x3a08a022	0.000521185
145	0xbb24add3	-0.0025128021
146	0x3a9754c8	0.0011545653
147	0x3a95342d	0.0011383347
148	0x3b0e24bd	0.0021689378
149	0xbc5649ae	-0.01307909
150	0xbb2ee3b5	-0.0026686017
151	0xbaefdbd2	-0.0018299764
152	0x3a648942	0.0008717963
153	0xba4fa634	-0.00079211895
154	0xb91450ae	-0.00014144435
155	0xba13093f	-0.0005608983
156	0xba106723	-0.00055085326
157	0xbbadece8	-0.0053077824
158	0xb9150dd2	-0.00014214896
159	0xba317cd4	-0.0006770615
160	0xba2a9499	-0.0006507128
161	0xbad8402e	-0.0016498619
162	0xbabcee3b	-0.001441426
163	0xbaaa2758	-0.0012981696
164	0x3aed46cd	0.0018102765
165	0xbb92b846	-0.0044775335
166	0xbb8a8a73	-0.00422793
167	0xbb6b2e16	-0.0035885624
168	0x3af56288	0.0018721381
169	0x3ad0c8e3	0.001592901
170	0x3ac949d3	0.0015357084
171	0xba77c0af	-0.00094510143
172	0xbb8a1b57	-0.004214685
173	0xbb82fa74	-0.0039971415
174	0xbb301c87	-0.0026872472
175	0x3a9b00f0	0.0011825841
176	0x39ea7a80	0.00044723228
177	0xba370870	-0.0006982153
178	0x3aaa0659	0.0012971862
179	0xbb25836d	-0.0025255338
180	0x3ad525a4	0.0016261828
181	0xba69c7eb	-0.0008918035
182	0xbb96098f	-0.004578776
183	0xb93491b3	-0.00017220415
184	0x3b4b97a5	0.003106573
185	0x3a14568d	0.0005658649
186	0x3a30d0dd	0.000674499
187	0xbb85bc82	-0.00408131
188	0xbb4dba8a	-0.0031391704
189	0xba64c0b3	-0.0008726224
190	0x3b646896	0.0034852377
191	0x3a766f5d	0.00094007497
192	0xbb130c8a	-0.0022437894
193	0x3a924c32	0.0011161624
194	0xbb9c4dd6	-0.004770021
195	0xba9bc3fe	-0.0011883972
196	0x3addd1cc	0.0016923486
197	0x3ae7cab8	0.0017684316
198	0xba45917c	-0.00075366325
199	0x3988c34d	0.00026085452
200	0xb916bf56	-0.00014376393
201	0xba118ff0	-0.00055527594
202	0x3ba0a9dc	0.0049030613
203	0xbb6b702c	-0.0035925014
204	0xbb29d82f	-0.002591621
205	0xbb295c10	-0.0025842227
206	0xb9f80d80	-0.00047312304
207	0xbb2e2239	-0.0026570691
208	0xbb08e4cd	-0.002088833
209	0x3b9174ed	0.0044389875
210	0xba35a480	-0.00069291145
211	0xbbb24fab	-0.005441626
212	0xbb92dad2	-0.004481652
213	0xbaa0f588	-0.0012280205
214	0x3a1a032c	0.00058751064
215	0x3b6176df	0.0034403128
216	0xbafa8e4f	-0.0019115898
217	0x3a9c50cc	0.0011925935
218	0x39a4cec5	0.00031434573
219	0xb7eec29e	-2.8462437e-05
220	0x3a86f7e4	0.0010297266
221	0x3ac21670	0.0014807712
222	0x3a97cc39	0.0011581249
223	0xbad38ee5	-0.0016140608
224	0x3997dc40	0.00028965063
225	0x3ab8e70f	0.0014106947
226	0xb97d2062	-0.00024140024
227	0x3a91df03	0.0011129085
228	0xbaafc4d8	-0.0013410104
229	0x3a0820d7	0.0005192882
230	0xba8e8d98	-0.0010875938
231	0x39f0ffa4	0.00045966834
232	0xbafc8955	-0.0019267002
233	0x38f853e3	0.00011841187
234	0x3a469349	0.0007575048
235	0x3ade25ac	0.0016948483
236	0xb926b8e8	-0.00015899877
237	0x387a699b	5.9702998e-05
238	0xbaf793a1	-0.0018888601
239	0x39555cb1	0.00020347793
240	0x39755c3a	0.00023399378
241	0x3ac726df	0.001519408
242	0x3ab362ae	0.0013686025
243	0x3aa34882	0.0012457522
244	0x3ae4fd82	0.0017470571
245	0x3a1f38d5	0.0006073837
246	0xba35b8a3	-0.0006932115
247	0xb9fede1b	-0.00048612137
248	0xb8e2062c	-0.000107776694
249	0x3ae3759f	0.0017353779
250	0x3abf9f01	0.001461953
251	0xba8023f5	-0.0009776341
252	0x3a4a43ff	0.00077158207
253	0xb84334e3	-4.6540878e-05
254	0x3a8c77d1	0.001071686
255	0xbae84612	-0.0017721078

fc1.bias f4 [120]
0	0xbb9e3606	-0.0048282174
1	0xbb58c1f9	-0.00330746
2	0xba21e5d3	-0.0006175909
3	0xbb2a47fe	-0.0025982852
4	0x3aec7fa3	0.001804341
5	0xbb9408b7	-0.0045176405
6	0xbac7c71a	-0.0015241832
7	0xba2315da	-0.00062212127
8	0xb9894802	-0.00026184326
9	0x3a7f2b46	0.0009733926
10	0xbb7816ad	-0.0037855313
11	0xbb2e8260	-0.0026628003
12	0x3a9e6db1	0.0012087134
13	0xbb1b54e1	-0.0023701715
14	0xbab51ff4	-0.0013818727
15	0x39a5cc9f	0.00031623707
16	0xb9b46699	-0.00034408717
17	0x3aab83b1	0.0013085512
18	0xbb718b3d	-0.0036856674
19	0xb7b87cb5	-2.199258e-05
20	0xbb41e9bf	-0.0029588786
21	0xbaae9ff3	-0.0013322815
22	0xbabcd4ed	-0.0014406719
23	0xba3c38e9	-0.0007180111
24	0xba6e1520	-0.00090821274
25	0xb96b9c6d	-0.0002246962
26	0xbb11c628	-0.0022243354
27	0xb91e3155	-0.00015086432
28	0xbaa927f9	-0.001290559
29	0xba7846ee	-0.00094710186
30	0xbb41d7d6	-0.002957811
31	0xba9d84c1	-0.0012017713
32	0xb8acc058	-8.237426e-05
33	0x39abd066	0.0003277093
34	0xb9759855	-0.00023421769
35	0xba62dbac	-0.00086539495
36	0xbae188e6	-0.0017206937
37	0xbb3ab600	-0.0028489828
38	0xbb206e5e	-0.0024479846
39	0x39e78795	0.0004416077
40	0x39e06407	0.00042799136
41	0xbabd7c7f	-0.0014456658
42	0x3a3ae8cb	0.0007130026
43	0xbb04dd06	-0.0020273342
44	0xbb2dfca2	-0.0026548286
45	0x398bf160	0.00026691984
46	0xbb3f83fb	-0.0029222954
47	0xba815691	-0.0009867718
48	0xba8a2c15	-0.0010541702
49	0xba8adbbe	-0.0010594053
50	0xba28201b	-0.00064134755
51	0xbae5cfd2	-0.0017533249
52	0xbb09c94f	-0.002102453
53	0xba3a15d6	-0.0007098591
54	0xbb1c1159	-0.002381405
55	0x3ab0f63c	0.0013501118
56	0x3a668092	0.0008792962
57	0xbb56b22c	-0.0032760007
58	0xbb0bbf98	-0.0021323916
59	0x3a3eab6a	0.00072734675
60	0x3addcb6f	0.001692159
61	0xba064e20	-0.0005123336
62	0xb9a77d6e	-0.00031946175
63	0x3af5726f	0.001872612
64	0xbb65ed0b	-0.0035083916
65	0xba5bfb58	-0.000839164
66	0xb98a0df8	-0.0002633182
67	0xbb146705	-0.0022644412
68	0x3acd5553	0.0015665687
69	0xbb06d80a	-0.0020575547
70	0x3722b9e1	9.699231e-06
71	0xbab7519e	-0.0013986116
72	0xbb1c0bd3	-0.0023810759
73	0xbb8271e3	-0.0039808615
74	0xbb1ec3f7	-0.002422569
75	0x398cf8ac	0.00026888156
76	0xb95d58c1	-0.00021109266
77	0xbb343c09	-0.0027501604
78	0xbba25c5e	-0.0049548587
79	0xbab705e5	-0.0013963549
80	0xbb499bd3	-0.0030763044
81	0x3987c23f	0.0002589393
82	0xbad728b3	-0.0016415328
83	0x39e883ba	0.00044348632
84	0x39746b64	0.0002330966
85	0xba61be77	-0.00086114503
86	0xbaf4e6b2	-0.0018684475
87	0x3b0d02e8	0.0021516625
88	0xbab4ec98	-0.0013803421
89	0xb9716076	-0.00023019486
90	0x39568c7a	0.00020460962
91	0x3a704ded	0.0009166885
92	0x39f00154	0.00045777357
93	0xbac9fcd9	-0.0015410437
94	0xba6754f0	-0.00088246074
95	0x3a828a02	0.0009959342
96	0xba9a66bb	-0.0011779884
97	0xb85a174b	-5.1996944e-05
98	0xbb5e58bb	-0.00339274
99	0x3a5e4a62	0.0008479712
100	0xb90d6147	-0.00013483046
101	0x3910de1e	0.00013815655
102	0xba9e7073	-0.0012087956
103	0xbb028483	-0.001991541
104	0xbb18a1bd	-0.0023289763
105	0xb8c5c906	-9.4311355e-05
106	0x3a538a11	0.0008069585
107	0xba18c52d	-0.00058277213
108	0xbaaa4c8d	-0.0012992785
109	0xbb2037e1	-0.002444737
110	0xbb46defc	-0.0030345311
111	0xba2c6ce2	-0.0006577504
112	0xbae09d58	-0.0017136736
113	0xbb12fdbe	-0.0022429074
114	0xbb3a9f2a	-0.0028476217
115	0xbad69f40	-0.0016374364
116	0x39dac3a5	0.00041725967
117	0x394effb5	0.00019740949
118	0x3a59dd8e	0.0008310907
119	0xba93513c	-0.001123942

fc2.weight f4 [80, 120]
0	0x3bffb35d	0.007803364
1	0xbbcf7a53	-0.006331721
2	0xbd1b97ca	-0.037986554
3	0xbcc123dd	-0.023576671
4	0x3bee1844	0.0072660763
5	0xbc5f5aa9	-0.013632455
6	0x3d52cf66	0.05146732
7	0x3c42da96	0.011892935
8	0x3d1c8fdb	0.03822313
9	0xba1f2106	-0.00060702895
10	0x3d0eb3ce	0.034839444
11	0xbcff2b0b	-0.031148454
12	0x3bcb9593	0.006212899
13	0xbc969b36	-0.018384557
14	0x3b9c2422	0.0047650496
15	0xbd16f067	-0.03685036
16	0x3d50b969	0.05095807
17	0x3c535ca7	0.012900508
18	0x3c566561	0.013085694
19	0xbd2d5997	-0.042321768
20	0x3d14c4a7	0.036320355
21	0x3c2ab6fe	0.010419605
22	0xbcf94f41	-0.030433299
23	0x3d18b380	0.03728056
24	0x3d3955e7	0.04524794
25	0x3cba9d93	0.022780215
26	0xbd1fdacf	-0.03902703
27	0xbc114d6e	-0.008868558
28	0x3bf5ca34	0.007500911
29	0x3d18c594	0.0372978
30	0x3c2fdf9b	0.010734464
31	0x3ba92b84	0.005162658
32	0xbc582abc	-0.013193782
33	0xbc9d647c	-0.019212954
34	0x3b4f1024	0.0031595314
35	0xbd2345f1	-0.039861623
36	0xbd05fdb7	-0.032712664
37	0xbc1ef264	-0.009701345
38	0x3c902b37	0.017598731
39	0xbd0109d6	-0.03150352
40	0x3d051d96	0.03249892
41	0xbbf81acf	-0.007571555
42	0x3cc5b6ec	0.024135076
43	0xbd0e7f2f	-0.03478926
44	0x3c4d6e8e	0.012538565
45	0x3b748084	0.0037308047
46	0x3cbca7db	0.023029258
47	0xbc98fd1a	-0.018675376
48	0xbbd7ba3f	-0.0065834816
49	0x3d18c093	0.037293028
50	0xbcdd5e63	-0.027022546
51	0xbca96a7b	-0.020680657
52	0x3bede476	0.0072599007
53	0x3d0391f7	0.032121625
54	0x3bd7f390	0.006590314
55	0xbca6cef1	-0.02036235
56	0xbc6df6dc	-0.014524188
57	0x3dbe0705	0.092786826
58	0x3d043856	0.03228029
59	0xbc14222a	-0.0090413485
60	0xbd41df54	-0.047332123
61	0xbd0225fe	-0.031774513
62	0xbd4e7294	-0.05040224
63	0xbd41ea1d	-0.04734241
64	0x3d71bc06	0.059017204
65	0x3cf53fac	0.029937588
66	0xbc8830e5	-0.016624877
67	0xbc9f5036	-0.019447427
68	0x3bef248e	0.007298059
69	0xbc3b2537	-0.011422447
70	0x3c986bec	0.018606149
71	0x3cad44e9	0.021151023
72	0x3bc5765f	0.006026074
73	0x3c680638	0.014161639
74	0x3c22662c	0.009912055
75	0x3d1e8bac	0.03870742
76	0xbc0e1058	-0.008670889
77	0xbb807875	-0.0039206096
78	0x3c673ab6	0.014113119
79	0x3cbce1af	0.023056833
80	0x3c7250b4	0.014789749
81	0x3dcc064d	0.09962139
82	0x3dac634e	0.08417378
83	0x3c22fa3e	0.009947358
84	0x3d170fc0	0.036880255
85	0xbbc77470	-0.0060868785
86	0x3bb9075a	0.0056466283
87	0x3c0ce154	0.008598644
88	0x3d251238	0.040300578
89	0xbbaadae4	-0.005214082
90	0x3c86dbb4	0.016462184
91	0x3c2e7af3	0.010649431
92	0x3c228e23	0.009921583
93	0xbc494058	-0.012283407
94	0x3c9e5741	0.019328715
95	0xbd4e4d42	-0.050366648
96	0xbb3cb961	-0.0028797018
97	0x3b8cd384	0.0042976756
98	0x3cbc48e6	0.02298398
99	0xba6f92cb	-0.00091390003
100	0x3cfb0907	0.030643953
101	0x3d6f41f4	0.058412507
102	0xbc76c608	-0.015061863
103	0xbccb570d	-0.024821782
104	0x3d3eb040	0.046554804
105	0xbd065a01	-0.03280068
106	0x3d5d7586	0.054067157
107	0x3b0237f4	0.0019869776
108	0x3c08b02b	0.008342783
109	0xbcb5b817	-0.022182507
110	0xbd75f418	-0.06004724
111	0x3d1d723e	0.038439028
112	0x3c176011	0.009239213
113	0x3c77aaf0	0.015116438
114	0x3cccf901	0.025021078
115	0xbc3676b4	-0.0111366995
116	0xbd27d3f3	-0.040973615
117	0x3d620a54	0.05518563
118	0xbd46a532	-0.048497386
119	0xbcf88e5a	-0.030341316
120	0x3cb0510b	0.02152302
121	0x3d0a5f85	0.0337825
122	0x3dba4f1d	0.09097121
123	0xbcb09af1	-0.021558257
124	0xbcbc740f	-0.02300456
125	0x3dc151c1	0.094394214
126	0xbc284f6f	-0.010272845
127	0xbac35303	-0.0014902059
128	0x3ce130a9	0.027489023
129	0x3babb8c7	0.005240533
130	0x3bbf66e6	0.005841124
131	0x3c5d54d8	0.013508998
132	0x3cca4394	0.024690427
133	0x3d16239d	0.036655057
134	0xbd132314	-0.035922125
135	0x3cb26315	0.021775762
136	0xbc3efc17	-0.011656783
137	0xbc0e6342	-0.008690657
138	0x3cc3efbf	0.02391803
139	0x3b4740bc	0.0030403575
140	0xbc700595	-0.014649768
141	0xbcf40916	-0.029789489
142	0x3c1e8366	0.0096748825
143	0x3d0abb2a	0.0338699
144	0xbc953221	-0.01821238
145	0xbc547449	-0.012967178
146	0xbcb2ee90	-0.021842271
147	0x3c01924e	0.007908417
148	0x3c46bc50	0.012129858
149	0xbd01253a	-0.031529643
150	0x3d13b25d	0.036058772
151	0x3c38a51f	0.011269837
152	0xbc7ab25b	-0.015301312
153	0x3d4869ba	0.048928954
154	0x3d08899d	0.033334363
155	0xbca57645	-0.020197997
156	0xbc9b05cc	-0.018923663
157	0x3c9ff32c	0.019525133
158	0x3c7b017b	0.015320177
159	0xbce47b13	-0.027890718
160	0xbc8c14b9	-0.017099725
161	0x3bf2c088	0.0074082054
162	0xbc7a76e0	-0.015287131
163	0x3c9a40ed	0.018829787
164	0xbb947055	-0.0045299926
165	0x3bb9fd63	0.005675958
166	0xbc315714	-0.010823984
167	0xbcf61ec0	-0.03004396
168	0xbd036b05	-0.032084484
169	0x3937d847	0.0001753281
170	0xbcda44de	-0.026644167
171	0x3c42ccb7	0.011889628
172	0x3d1066b1	0.035254184
173	0x3d854dd9	0.06508989
174	0x3c44058e	0.011964215
175	0xbb1637a2	-0.0022921343
176	0x3bd7466e	0.006569675
177	0xbd0a4a84	-0.03376247
178	0xbc0c9dd8	-0.008582555
179	0xbc09415f	-0.008377402
180	0x3d2d957f	0.0423789
181	0x3d2bb44d	0.041919995
182	0xbcb64874	-0.022251345
183	0xbc23bea0	-0.009994179
184	0x39a0e7b0	0.000306902
185	0xbcaff7c2	-0.021480445
186	0xbc81a74c	-0.015826844
187	0xbd12d0b1	-0.035843555
188	0xbcd4bc91	-0.025968822
189	0x3d1303e1	0.03589237
190	0xbc42dd5b	-0.011893596
191	0x3d10234d	0.035189915
192	0x3c43c30b	0.011948357
193	0xbd28347d	-0.04106568
194	0xbd1e594b	-0.038659375
195	0x3c16d10f	0.009205117
196	0xbd244aa2	-0.040110238
197	0x3c285a7f	0.010275482
198	0x3dbb6d4c	0.09151706
199	0xbcafa7b9	-0.021442281
200	0xbcccac1c	-0.024984412
201	0xbcd742b8	-0.026276931
202	0x3d3ebeb0	0.046568573
203	0x3c0d36bc	0.008619007
204	0xbc2a3e2e	-0.010390801
205	0xbb9c0999	-0.0047618863
206	0xbb98913f	-0.0046559866
207	0x3c8e768c	0.017390512
208	0x3d2ffd53	0.0429662
209	0x3b65fdc0	0.0035093874
210	0x3a5c69ad	0.0008408081
211	0xbcfda887	-0.03096415
212	0xbc11f3a5	-0.008908187
213	0xbb412bc8	-0.0029475559
214	0xbbf57162	-0.007490323
215	0xbbf699cb	-0.007525658
216	0xbb238d91	-0.0024956206
217	0x3a179438	0.0005782279
218	0xbc603e88	-0.013686784
219	0xbb52d210	-0.0032168664
220	0x3cda21a5	0.026627371
221	0xbcd6353b	-0.02614843
222	0xbc995f9f	-0.018722354
223	0xbb806480	-0.0039182305
224	0x3cb1229f	0.021622954
225	0xbc4a564e	-0.012349678
226	0xbbbfe429	-0.005856056
227	0x3c49e3bd	0.012322363
228	0x3d0ee296	0.034884058
229	0xbc3fd573	-0.011708605
230	0x3d41bf6c	0.047301695
231	0x3d157cac	0.03649585
232	0x3cd32186	0.025772821
233	0x3ca60f81	0.020271065
234	0x3d282d5e	0.04105889
235	0x3c4a76cd	0.012357426
236	0x3ccfb282	0.025353674
237	0xbc36aa87	-0.011149055
238	0xba885e49	-0.0010404076
239	0xbcabf08e	-0.020988729
240	0x3d57d001	0.052688602
241	0xba1fe1c1	-0.00060990086
242	0x3cfe7619	0.031062173
243	0xbbc5cb08	-0.006036166
244	0xbd0159fd	-0.03157996
245	0xbb708ac7	-0.0036703811
246	0x3bc2a1a1	0.005939678
247	0xbca5f5b6	-0.020258766
248	0xbc8e9d8f	-0.017409114
249	0xbb127edf	-0.0022353453
250	0x3d18a35e	0.037265174
251	0x3d8280a5	0.06372193
252	0xbc11d0ea	-0.008899907
253	0xbccbc7eb	-0.024875602
254	0xbcdf2210	-0.027237922
255	0x3c479074	0.012180436

fc2.bias f4 [80]
0	0x3a98cf63	0.0011658486
1	0xbb827af6	-0.0039819432
2	0xba7bd7ce	-0.00096070475
3	0xbb419a73	-0.0029541522
4	0x3af66e37	0.0018801157
5	0x3b7cd12b	0.0038576822
6	0x3bf28672	0.007401281
7	0xb9ca91fe	-0.00038637215
8	0xbc140ff4	-0.009037007
9	0x3bee86c5	0.0072792494
10	0x3a09bdee	0.0005254437
11	0x3be1aa00	0.0068867207
12	0x3b8e2b4b	0.004338657
13	0xbbf7ca27	-0.0075619402
14	0x3b8c3d8f	0.0042797993
15	0x3bec8f08	0.007219199
16	0xbaa4df3c	-0.0012578736
17	0xb9d79405	-0.0004111828
18	0xbae31661	-0.0017325395
19	0x3af9b01e	0.0019049679
20	0xba8fba4f	-0.0010965558
21	0x3b835370	0.0040077493
22	0x388ad3ff	6.61984e-05
23	0xbb9deb3f	-0.0048193033
24	0xbbd500fb	-0.006500361
25	0x3af442ef	0.001863567
26	0x3b971cab	0.004611572
27	0x3b2323fc	0.0024893275
28	0xbb526570	-0.0032103918
29	0x3b8fc613	0.004387626
30	0xbaae4402	-0.0013295414
31	0x3b87237b	0.0041241026
32	0x39cd7925	0.00039190907
33	0xb9352bb3	-0.00017277784
34	0x3b4b82f7	0.0031053403
35	0xbb6f6add	-0.0036532201
36	0xbb6a0847	-0.00357105
37	0xbbb4ecaa	-0.0055213766
38	0xbbb1af59	-0.0054225144
39	0x3b7505be	0.0037387456
40	0x3b069a22	0.0020538648
41	0xbb468fa5	-0.003029802
42	0xbb5c354d	-0.0033601106
43	0x3abb2659	0.0014278396
44	0xbb980383	-0.0046390905
45	0x3b2bfb90	0.0026242472
46	0x3b86dcdc	0.004115684
47	0x3adbe963	0.0016777929
48	0xbb89498d	-0.004189676
49	0x3bb6ce8a	0.0055788206
50	0x3b921d2f	0.0044590454
51	0xbade0029	-0.0016937304
52	0xbb0455a5	-0.002019265
53	0xbba5652b	-0.0050474606
54	0x3b90f45b	0.0044236607
55	0x3b768d0e	0.0037620696
56	0xbbd01c18	-0.0063510053
57	0x3ae353e1	0.0017343723
58	0xbba93e69	-0.0051649106
59	0x3b2e6759	0.0026611893
60	0xbb422f30	-0.0029630177
61	0x3acc7cc2	0.0015601146
62	0x3aff1cc4	0.0019463529
63	0x3be12434	0.006870771
64	0xbbde7243	-0.0067885234
65	0x395e52d9	0.00021202433
66	0x3bcbb7be	0.006216972
67	0x3b169a30	0.0022980087
68	0x3bc8e848	0.0061312057
69	0x3b10504b	0.0022020515
70	0xbbbc1cb1	-0.005740725
71	0x3b81492e	0.0039454913
72	0xb9c62cbc	-0.00037798833
73	0x3bd23adb	0.0064157075
74	0x3b91b8a0	0.004447058
75	0xbbbfb022	-0.005849854
76	0x3b4d93f6	0.003136871
77	0xbb82c5a5	-0.003990846
78	0xbaa9e250	-0.0012961123
79	0xbc0e1761	-0.008672566

fc3.weight f4 [40, 80]
0	0x3c27c1c6	0.01023907
1	0xbc9da7c0	-0.019245028
2	0xbd533702	-0.05156613
3	0x3bd9b710	0.006644137
4	0xbca4a980	-0.020100355
5	0x3dd26cc5	0.102746524
6	0xbca934e8	-0.02065511
7	0xbd3b920b	-0.045793574
8	0xbbd25ce7	-0.006419766
9	0xbcc74e16	-0.024329226
10	0x3cf98a18	0.030461356
11	0x3de87763	0.11350896
12	0xbc505926	-0.012716567
13	0x3dcc25ef	0.09968173
14	0xbc4673c8	-0.012112565
15	0x3de4d312	0.11173071
16	0xbca0564c	-0.0195724
17	0xbc5606c8	-0.01306314
18	0x3d3bb3de	0.04582583
19	0x3d72035f	0.059085246
20	0xbcbe5748	-0.023234978
21	0x3cbfdf6f	0.023421971
22	0xbc9eb17f	-0.019371746
23	0xbc82bb2a	-0.015958387
24	0xbd42d028	-0.047561795
25	0xbd1b9c6f	-0.037990984
26	0x3d141d6d	0.036160875
27	0x3d69ff5f	0.057128306
28	0xbd23afa9	-0.039962444
29	0xbc6b5940	-0.014364541
30	0x3d9f8e0a	0.07790764
31	0xbc845b2b	-0.016156754
32	0x3da925c1	0.08259154
33	0xbc6439b6	-0.013929775
34	0x3d39c340	0.04535222
35	0x3c255790	0.010091677
36	0xbd00d436	-0.03145238
37	0xbd0b1ffc	-0.03396605
38	0x3a61adb1	0.0008608951
39	0xbcf53c08	-0.029935852
40	0x3cb9cfe0	0.02268213
41	0xbd16f9ee	-0.036859445
42	0xbc9a0a38	-0.0188037
43	0x3c4229e6	0.01185081
44	0xbb9f7bd9	-0.0048670587
45	0xba7498a6	-0.0009330608
46	0xbc56fd11	-0.013121859
47	0xbcf1d7b1	-0.029521795
48	0xbce4c43e	-0.027925607
49	0xbd0cca40	-0.034372568
50	0xbbcc9b9a	-0.006244135
51	0x3dce5b0d	0.1007596
52	0xbd102120	-0.03518784
53	0xbd31e164	-0.04342784
54	0x3dbb3ed5	0.09142844
55	0x3dd0d5f7	0.101970606
56	0x3db4ce86	0.08828454
57	0x3d519cfb	0.0511751
58	0xbcad499a	-0.02115326
59	0x3d2fc227	0.042909767
60	0xbcb1ffcd	-0.02172842
61	0x3aa60fab	0.0012669464
62	0x3a581751	0.00082432205
63	0x3d9e3ce7	0.0772646
64	0xbd3434a2	-0.043995507
65	0xb8b92a1c	-8.829331e-05
66	0x3de848f8	0.11342043
67	0x3da4b149	0.08041627
68	0x3d3fab9c	0.04679452
69	0xbc864495	-0.016390124
70	0x3dd66999	0.1046936
71	0x3d09de09	0.033659015
72	0xbd0f318d	-0.034959365
73	0x3da31043	0.07962086
74	0xbc7f8438	-0.015595488
75	0x3c845260	0.01615256
76	0x3d97bd05	0.074090995
77	0xbcec1eea	-0.028823335
78	0xbd520ff4	-0.051284745
79	0x3d85b3fd	0.06528471
80	0x3c4cda7b	0.012503262
81	0xbceaa5d6	-0.02864353
82	0x3cc8821c	0.024476103
83	0x397690f5	0.00023514389
84	0x3d41093f	0.04712796
85	0x3cb3a1dc	0.021927767
86	0x3d1aff43	0.037841093
87	0x3d251e0b	0.040311854
88	0xbcbeba66	-0.023282241
89	0x3bbd046e	0.0057683503
90	0x353d6370	7.055269e-07
91	0x3da4b762	0.0804279
92	0xbc2b64ee	-0.010461075
93	0x3da87156	0.08224742
94	0x3d7ecd6a	0.062207617
95	0x3cfb6d96	0.030691903
96	0x3c5e0e5d	0.013553229
97	0x3d4dff0a	0.050292052
98	0xbc1d6eeb	-0.009608964
99	0xbcd4e851	-0.025989683
100	0xbcfeb6c3	-0.031093007
101	0x3c5615a5	0.013066684
102	0xbc6030e9	-0.013683536
103	0xbd050b8e	-0.032481723
104	0xbc1aed8e	-0.0094560515
105	0xbcddd5bb	-0.027079454
106	0xbcb9bdbb	-0.022673478
107	0xbcabd5ad	-0.020975912
108	0x3bdc5e8b	0.0067251376
109	0x3b7fb07d	0.0039015107
110	0x3d9e424e	0.0772749
111	0xbc4aa5e6	-0.012368655
112	0xbc284aca	-0.010271737
113	0xbcabd5ac	-0.02097591
114	0xbd1301a8	-0.03589025
115	0x3db64898	0.08900565
116	0xbd0c6911	-0.034279887
117	0xbcddd0ec	-0.02707716
118	0xbba5e6b4	-0.0050629023
119	0xbcc780e7	-0.024353458
120	0x3d719802	0.058982857
121	0x3cae5901	0.021282675
122	0x3c9571d5	0.018242756
123	0x3d75a4ac	0.059971496
124	0xb9686ecc	-0.00022166519
125	0x3bac25d6	0.005253534
126	0x3d40b99e	0.04705202
127	0xbcc66447	-0.024217738
128	0x3d5b34dc	0.053517208
129	0xbce7ba7d	-0.028287167
130	0x3b878f65	0.004136967
131	0xbcc19dbd	-0.023634786
132	0xbcbdb38f	-0.02315691
133	0xbc571c33	-0.013129282
134	0xbcaf9568	-0.021433547
135	0x3dbf91c5	0.09353975
136	0x3d942bca	0.072349146
137	0x3d93610e	0.07196246
138	0xbcf4a91e	-0.029865798
139	0xbcdfd5d6	-0.027323645
140	0x3d9e6d26	0.07735662
141	0x3cac1765	0.02100725
142	0xba98e555	-0.0011665026
143	0x3d94fa4f	0.07274305
144	0xbcfd5802	-0.030925754
145	0x3da8ac26	0.0823596
146	0x3ce81233	0.02832899
147	0x3b5fb563	0.0034135215
148	0x3cf7edd0	0.030264765
149	0xbce11b1a	-0.027478743
150	0x3c3784e5	0.011201118
151	0xbd111231	-0.03541774
152	0x3ddb2819	0.107010074
153	0xbc938679	-0.018008457
154	0xbcb18421	-0.02166945
155	0x3d8ae1a7	0.06781321
156	0x3d8593f0	0.065223575
157	0x3db34b67	0.08754616
158	0xbcf52753	-0.029925978
159	0xbcae970c	-0.02131226
160	0xbd73d85b	-0.059532505
161	0x3c8722df	0.01649612
162	0xbd11a316	-0.03555592
163	0xbb00ed11	-0.0019672553
164	0xbd285beb	-0.041103285
165	0x3d3583a6	0.044315003
166	0x3da7b324	0.08188465
167	0xbd306e5a	-0.04307399
168	0x3d806cf1	0.06270779
169	0xbbc2535f	-0.0059303488
170	0xbd193e4b	-0.037412923
171	0xbcd1573b	-0.02555429
172	0xbc27cd7f	-0.010241865
173	0xbb9415bc	-0.0045191925
174	0x3da6f97c	0.08153054
175	0x3b60a6c7	0.0034279095
176	0x3d07be0b	0.033140223
177	0x3d20bc72	0.039242215
178	0x3c7ef6e1	0.01556179
179	0x3e1d69c3	0.15372376
180	0x3d54459e	0.051824205
181	0x3d20ed5d	0.039288867
182	0x3dc98f48	0.09841782
183	0x3d1450b5	0.03620978
184	0x3de6c2a0	0.112675905
185	0x3b868baf	0.004106007
186	0x3cb42b47	0.021993292
187	0x3b7f1cf1	0.0038927163
188	0xbcbb0db9	-0.022833692
189	0xbc82faad	-0.015988672
190	0x3d169da0	0.036771417
191	0xbcc274f2	-0.023737404
192	0xbd1becaf	-0.038067516
193	0xbcb839f5	-0.022488574
194	0x3e052250	0.1300137
195	0xbd2a72c8	-0.04161337
196	0x3cd99376	0.026559573
197	0x3d87f511	0.066385396
198	0xbb853876	-0.0040655686
199	0xbd6ac9a3	-0.057321202
200	0xbd6fb5fe	-0.05852317
201	0xbd5603b9	-0.052249644
202	0xbcae72ce	-0.021294978
203	0xbd443110	-0.047898352
204	0x3b297f2b	0.0025863152
205	0x3bcf568b	0.0063274554
206	0x3d3b9722	0.04579843
207	0x3d9ed23e	0.07754944
208	0x3c398760	0.01132378
209	0x3daaeb79	0.08345694
210	0xbc7b07f1	-0.015321718
211	0x3cd698f0	0.026195973
212	0x3cdfd148	0.027321473
213	0x3d0c800f	0.034301814
214	0xbb38d608	-0.0028203744
215	0x3d564b12	0.052317686
216	0xbd34ae75	-0.044111688
217	0xbc8b2d79	-0.016989456
218	0x3cd3c66a	0.025851447
219	0x3d75de5f	0.060026523
220	0x3dc4baaf	0.096059196
221	0x3d5ecbd7	0.054393616
222	0xbd2c32a7	-0.042040493
223	0x3d266e47	0.040632512
224	0x3c6d7392	0.014492886
225	0x3d98530f	0.07437717
226	0x3d8d4e4c	0.068996996
227	0xbd0ff8ba	-0.035149314
228	0xbcac8a5a	-0.021062065
229	0x3d48fc9f	0.049069043
230	0x3dc42bd0	0.09578669
231	0xbbf82586	-0.0075728325
232	0xbd65aa51	-0.05607063
233	0x3db5af41	0.08871318
234	0xbc317dbf	-0.010833203
235	0x3c5a4f22	0.013324531
236	0xbbdd7175	-0.00675791
237	0xbca2d5ac	-0.019877277
238	0xbb716207	-0.003683211
239	0x3dc95c06	0.09832005
240	0xbb8bc8f8	-0.0042659007
241	0xbb0d983c	-0.0021605631
242	0x3c01a43c	0.007912692
243	0xba86a2f3	-0.0010271951
244	0xbbcce96d	-0.0062534125
245	0x3bd98891	0.0066385944
246	0x3a2c525b	0.0006573551
247	0xbb9489dd	-0.004533036
248	0x3aaf09aa	0.001335432
249	0xbbbce5c8	-0.0057646967
250	0xbab7c8b5	-0.0014021607
251	0xbaf08fd9	-0.0018353417
252	0x3b9dfbad	0.004821262
253	0xb9b82210	-0.00035120593
254	0xba858e9d	-0.0010189597
255	0x36af50fa	5.2248333e-06

fc3.bias f4 [40]
0	0x3c8bb43c	0.017053716
1	0x3be60826	0.0070200143
2	0x3bcf4b9b	0.0063261515
3	0x3b56145f	0.003266595
4	0x3c018653	0.007905561
5	0x3cd50f78	0.026008353
6	0x3becc3f7	0.0072255093
7	0x3b82bdad	0.0039898963
8	0x388d7101	6.7444525e-05
9	0xbb992b55	-0.004674355
10	0x3c117ca0	0.008879811
11	0xbbf1a78f	-0.007374711
12	0x3cba97ac	0.0227774
13	0xbba910ca	-0.005159472
14	0x3c799d73	0.015235293
15	0xba238c31	-0.00062388467
16	0x3be6ac1f	0.0070395614
17	0xbb4e3be8	-0.0031468812
18	0x3c0b445d	0.008500186
19	0xbb1c6a19	-0.002386695
20	0x3c76c1a6	0.015060818
21	0x3c38099c	0.01123276
22	0x3c85ad21	0.016317906
23	0x3c03fd1e	0.008055953
24	0x3c1bd50a	0.009511242
25	0x3c3b650c	0.011437666
26	0x3c24e79e	0.0100649875
27	0x3b0557d1	0.0020346532
28	0x3bcd1554	0.006258646
29	0x3c938dae	0.018011894
30	0x3c35cece	0.011096669
31	0x3b75c509	0.0037501475
32	0x3c160782	0.009157063
33	0x3c7dbd28	0.015486993
34	0xbaf14c5c	-0.0018409598
35	0x3b94587f	0.004527151
36	0x3b722f69	0.0036954528
37	0x3bdeba3f	0.0067971046
38	0x3c84a4bf	0.016191838
39	0x3c057c31	0.008147285
