outfiles/cnn/ORL64_5Train_cnn.pth (torch, 613695 bytes, 10 tensors)

conv_layer1.weight f4 [16, 1, 5, 5]
000000 b0 ae cd bc 83 1a e9 3d ba ea 01 be 01 a8 65 be
       -0.025107712 0.1138201 -0.12687197 -0.2242737
000010 d0 7a 3f bd e7 4b 08 3e 01 b0 6d bb bf 90 2f 3b
       -0.046747983 0.13310204 -0.0036268237 0.0026789156
000020 87 e5 72 be 54 11 75 be 0e 96 69 3e 68 9d 0e 3b
       -0.2372037 -0.23932391 0.22811148 0.0021761302
000030 5a 49 8f 3d d3 50 49 be 96 d3 d3 bd 7a 60 5a 3e
       0.069964126 -0.19659738 -0.10343091 0.21325865
000040 35 4f 3d bd 3a d2 5f bd 92 ed 28 be 12 45 18 be
       -0.046218116 -0.054643847 -0.16496876 -0.14870098
000050 69 18 29 3e 91 1c 46 3e 9b 56 a4 3d 3a 21 99 3d
       0.16513218 0.19346835 0.08024331 0.074770406
000060 1e 68 0d be 1a 3a 37 3e e9 bb 61 3e 7b 4e 50 3e
       -0.13809249 0.17893258 0.22044338 0.20342438
000070 a1 24 48 bc 93 c4 9e bd fe b9 dc 3d cc 36 38 3e
       -0.012215764 -0.07752337 0.10777663 0.17989653
000080 eb 3a 35 3e 5f 97 7b bd 7d 91 5d be 41 ae 1e 3e
       0.17698257 -0.061423656 -0.2163753 0.1549616
000090 5f 64 e0 3d 19 32 af 3d 10 8f 7e bd d0 b2 80 be
       0.10956644 0.08554477 -0.062148154 -0.25136423
0000a0 e5 61 6b 3d cd c5 83 3d 95 69 48 bd 3f 69 57 be
       0.057466406 0.06434212 -0.048928816 -0.21036242
0000b0 2d 74 10 be 20 40 f3 3c f0 ae 13 3d 22 3c f3 bd
       -0.14106818 0.029693663 0.036055505 -0.11876704
0000c0 42 7e 7a be 25 0d 56 be e5 41 83 3b ba bd a6 3b
       -0.24462226 -0.20903452 0.004005658 0.005088535
0000d0 b1 07 04 bc af 88 d9 bb 1a 5e b1 3b 07 96 b7 bb
       -0.008058474 -0.0066386084 0.005412829 -0.0056026014
0000e0 35 eb a1 bb 73 19 19 bc 0b 37 9f 3b 10 10 15 bc
       -0.004941369 -0.0093444465 0.0048588566 -0.009098068
0000f0 de 2c 47 bb d6 8d 7e bb 0f ed 7f 3b 82 72 2e bb
       -0.0030391733 -0.0038841865 0.003905121 -0.0026618545
000100 26 b5 da ba 6b 94 39 39 99 ce a6 bb 1b 68 1f bc
       -0.0016686067 0.00017698265 -0.0050905463 -0.0097294105
000110 ac 06 21 3c 8f 7f 20 bb 72 40 28 bc d5 a6 ab bb
       0.009828251 -0.0024490093 -0.010269271 -0.005238394
000120 42 e9 0e bc 52 fb 31 3b 34 f3 e7 3b 8c 48 1c 3d
       -0.008722605 0.0027157855 0.0070785526 0.038155124
000130 69 c4 43 3e be 0b 67 3e 76 28 44 3e 47 71 f2 3d
       0.19117893 0.22563073 0.1915606 0.11838012
000140 36 2c 0a be ab ef b4 bd ad 10 cf bc b9 7f 4b bd
       -0.13493428 -0.088347755 -0.025276506 -0.049682353
000150 d2 a3 71 3c b2 66 93 bd c7 45 5f be 09 85 30 be
       0.01474853 -0.07197322 -0.21803962 -0.17238249
000160 fd 4a 0c be 29 7c 1e bd bd 28 5b 3d a9 8e eb 3c
       -0.13700481 -0.038692627 0.053505648 0.02875455
000170 96 a8 d7 bd 17 5f d3 bd 0f bc a7 bc 4e 05 be 3d
       -0.10530202 -0.10320871 -0.020475416 0.092783555
000180 68 81 fa 3d 20 de 73 3d 51 f5 2b 3d 9b af 12 bd
       0.122317135 0.059538007 0.041982 -0.035812
000190 6a 57 8a bc da e0 ad 3a 9c 6b 00 3c 6d 40 1e 3c
       -0.016887385 0.0013265864 0.007838156 0.009658915
0001a0 c7 fe fd 3c 9a ba d2 bb 0b 25 1f bc 7f 26 94 3b
       0.031005276 -0.006430936 -0.009713422 0.0045211907
0001b0 98 1d 95 bb 09 49 c4 39 3f 40 b5 bc 80 60 f3 bc
       -0.004550647 0.0003743845 -0.022125361 -0.0297091
0001c0 b3 50 dd 3b 43 60 e5 3c 90 86 0e 3d 35 70 7b 3b
       0.006754005 0.028000003 0.034796298 0.003836644
0001d0 fe a3 1c bd c1 57 b9 bc 77 e8 b4 3c 29 d7 1a 3d
       -0.038242333 -0.022624852 0.022083504 0.03780285
0001e0 49 ea ba 3c 80 88 ec bc 09 d1 1f bd aa 0e 24 3c
       0.022816794 -0.028873682 -0.03901771 0.010013262
0001f0 66 f1 8b 3c cb bf 19 bd fe c9 58 bd 7d b6 30 bd
       0.017082881 -0.037536424 -0.05292701 -0.043142784
000200 df 13 9f bc 20 50 aa bc 02 80 75 3c fe 76 a7 3c
       -0.019418655 -0.02079016 0.014984133 0.020442482
000210 25 20 68 3c 6f 2b d3 3c 8b a9 80 3c 42 90 2d 3c
       0.01416782 0.025777547 0.015705844 0.010593476
000220 5e 98 1d 3d 50 17 20 3d 71 ca 23 3d 0e 86 54 bc
       0.038475387 0.039084733 0.039987985 -0.012971414
000230 3d 6e 84 3c 1e 03 ec 3c d0 54 88 3c 62 e2 c0 3b
       0.016165847 0.02881008 0.016642004 0.005886362
000240 eb 92 b8 bb 62 83 8f bb 86 43 e3 bc a7 ea 47 ba
       -0.0056327484 -0.0043796757 -0.027742159 -0.00076262135
000250 6b 3b 26 bd cc 54 67 bd ab af 27 bc 28 ff 29 be
       -0.04058401 -0.056477353 -0.010234754 -0.1660124
000260 39 59 23 be 1f 21 b4 3d 6c 4b 21 3e 3b 33 c9 3c
       -0.15952004 0.0879538 0.15751427 0.024560561
000270 80 17 19 be d9 a4 5d be 13 40 f6 bc 9b 5a 5b bc
       -0.14950371 -0.21644916 -0.03005985 -0.013388301
000280 a6 9c 3a 3d 5f 1f 28 bd a7 99 62 be 92 5e c9 bd
       0.045559548 -0.041045543 -0.22128926 -0.09832491
000290 e4 dc 38 3b 7c 69 66 3e e7 46 24 3d db 43 f6 3c
       0.0028207833 0.22501177 0.04010668 0.030061653
0002a0 96 5c c7 bd 83 56 d4 bb 6b eb 83 3e 6c 28 31 3e
       -0.09734456 -0.0064800396 0.25765547 0.17300576
0002b0 94 79 13 3d 4e 28 63 bd 85 b4 08 bc 4f 4a 88 3c
       0.036004618 -0.05545836 -0.00834382 0.016636996
0002c0 e6 8f f7 3b bf b9 14 3c 51 e7 88 b7 52 44 21 bc
       0.007554996 0.009077488 -1.6320178e-05 -0.009842949
0002d0 32 ad 98 3c 42 f8 aa 3c 6c be e5 bb 9a 27 cb 3a
       0.018637273 0.020870332 -0.0070112254 0.0015499473
0002e0 48 e8 f1 bb e6 9f 9b 3b fe 64 8d 3b 60 49 2b 3c
       -0.0073824264 0.004749286 0.0043150177 0.010454506
0002f0 41 9f 41 bc 86 fa a9 bc 78 8b 39 3c 76 f8 07 3c
       -0.011817754 -0.020749342 0.011324756 0.008298984
000300 f8 37 11 3c 20 5c 4e 3c ba 35 59 bc 40 67 49 3b
       0.008863442 0.0125952065 -0.013257438 0.0030731708
000310 0c a7 59 3c 64 1b 1d 3c 02 a7 66 39 ae 65 1f bc
       0.013284456 0.00958905 0.00021996725 -0.009728832
000320 15 a0 b1 3c 89 89 f4 3a 87 a6 b5 3c f9 5d bb 3c
       0.021682778 0.0018656711 0.022174133 0.022871958
000330 54 66 24 3d c9 23 4c 3c ab 8a 02 3c 0c 84 fe 3c
       0.04013665 0.012459704 0.007967631 0.031068824
000340 45 ee 65 bb fb 9e 18 3c da d3 46 bc ea 4f ae 3b
       -0.0035084647 0.009315248 -0.01213547 0.005319585
000350 dd 31 d9 bc 2a 57 39 3c 4c 8c d4 bc b6 a5 ad bc
       -0.026513034 0.011312285 -0.025945805 -0.021197181
000360 38 37 76 3b 69 ea 0e bd 51 11 15 3b 8e c9 cd bc
       0.0037569534 -0.03489152 0.0022745917 -0.025120523
000370 ad 92 9d bc ba 3a 87 bc 0a 4a bb bc 92 12 be bc
       -0.01923498 -0.016507495 -0.022862453 -0.023202214
000380 90 45 8a bc 7c dc 96 39 a5 63 b6 bc b8 08 42 bb
       -0.016878873 0.00028774503 -0.022264311 -0.0029607248
000390 82 72 4e bc 06 58 51 bc ac 12 d0 3a 17 d6 f0 3b
       -0.012600543 -0.012777334 0.0015874705 0.0073497402
0003a0 7a bb 8b 3c 7c 0e 3f 3a 2f e8 41 3c 8e 6e 1e 3c
       0.01705717 0.000728823 0.011835142 0.009669913
0003b0 b6 98 02 3b 38 fb 1f 3c f7 8e 4d 3c f0 65 80 3c
       0.0019927449 0.009764485 0.0125462925 0.015673608
0003c0 85 7e 63 bc 9d df 58 3b a6 68 a9 3b 52 3d 72 3c
       -0.013885145 0.0033092268 0.005169946 0.014785128
0003d0 18 b4 a2 bb 93 56 bc 3b bc a6 0a 3c 78 2d a1 bb
       -0.0049653165 0.005747625 0.008462604 -0.0049187504
0003e0 d3 b5 53 bb d7 b9 7c bc f5 9d e6 3b 7a 5a 99 3b
       -0.003230442 -0.015425167 0.007037873 0.004679975
0003f0 eb f0 a0 bb ad 12 23 3b 9b 7a 0f 3b 85 96 1e 3b
       -0.004911532 0.0024882958 0.0021893147 0.0024198603

conv_layer1.bias f4 [16]
000000 fa 24 48 bc 63 a6 8f bb 8c 27 d7 bb ff db 86 bb
       -0.012215847 -0.0043838485 -0.0065659937 -0.004115581
000010 d1 ac cb 3b 7c 0d fd 3b c3 9e 65 3a 43 7f 6f bb
       0.0062156697 0.0077225547 0.0008759314 -0.003654436
000020 7f 75 2f bb 36 bf 85 3b b3 3c e2 3a 74 50 89 bb
       -0.0026772914 0.004081632 0.0017260521 -0.004190499
000030 77 a2 7d 39 3d 33 89 ba de ee 06 bc fa 26 ac bb
       0.00024188483 -0.0010467541 -0.008235661 -0.00525367

conv_layer2.weight f4 [32, 1, 5, 5]
000000 97 b2 41 bc 44 7a 41 bc 68 0c 1a bd cc a9 e4 3d
       -0.011822364 -0.011808936 -0.037609488 0.11165199
000010 19 93 d4 3d 2e 43 f3 bc eb 62 07 3d 30 b9 1f bd
       0.10379619 -0.02969512 0.03305332 -0.038994968
000020 1d 54 a4 3d 2a e6 cb 3d 6f 0a 20 bd f6 c5 a4 3d
       0.08023856 0.0995601 -0.03907245 0.080455706
000030 f9 78 3e 3d fd 08 26 bd fe ff 52 bd 85 c2 82 bd
       0.046502087 -0.040535916 -0.051513664 -0.06384758
000040 b6 05 52 3d 21 25 00 3e 23 dc 37 ba 02 9e 0f bd
       0.051274978 0.12514164 -0.0007013699 -0.035062797
000050 ab c7 32 bd a5 8f 1c bd 6e 53 9e 3d 14 1e 05 3d
       -0.04364745 -0.038222928 0.07730757 0.032499388
000060 c0 ae 0b bd fc 00 c9 3d 96 51 dc 3d 84 cd 88 bc
       -0.0341022 0.09814641 0.10757749 -0.01669956
000070 ef 69 02 bd 74 b0 ab 3b 7a 44 99 3e fa 74 99 3e
       -0.031839307 0.0052395407 0.29935056 0.2997206
000080 7b a8 3d 3c 2a e2 97 bc c7 66 32 3c e4 90 73 3e
       0.011575813 -0.01854046 0.010888762 0.2378574
000090 80 8f 8e 3e 71 98 ff 3c 15 b6 a7 bc aa 4b 16 3b
       0.27843857 0.03120062 -0.020472566 0.0022933283
0000a0 39 65 e8 3c 3f 4a 00 3e 0f 30 c8 bc 37 65 84 bc
       0.02836858 0.12528323 -0.024436979 -0.016161544
0000b0 5b cb 9a 3c 67 66 a9 ba d2 d2 3f 3d 84 dd 00 bd
       0.018895796 -0.0012924195 0.046831913 -0.031461254
0000c0 9f d9 09 bd 30 65 9f 3c ff ac 85 bd c3 04 1e bd
       -0.033654805 0.01945743 -0.06527137 -0.03857876
0000d0 07 7f a2 bc df 11 5f 3b 82 93 9f bd 9c 05 3b 3d
       -0.019835962 0.0034037752 -0.07791807 0.045659646
0000e0 87 90 1e bd 94 da f0 bd 75 43 74 bd ee a4 99 ba
       -0.03871205 -0.117604405 -0.059634645 -0.0011722127
0000f0 5e 30 17 3d e5 6d b4 bc d7 ef 3d be f0 f0 79 bc
       0.03691136 -0.022025058 -0.18548523 -0.015255198
000100 06 b8 94 3e 0b 2c fd bc 20 a6 89 bd ff 42 1c be
       0.2904665 -0.03090479 -0.06721139 -0.15259932
000110 a9 1c f0 3d fd b8 de 3e 45 51 7e bc 19 11 41 bd
       0.117242165 0.4350051 -0.015522306 -0.047135446
000120 9c d5 07 bd b8 f7 f4 3d 53 30 83 3e 10 60 08 bc
       -0.0331627 0.11961311 0.25622806 -0.008323684
000130 93 b9 bb 3d c2 87 40 bd e0 21 07 bd e3 69 6a bd
       0.09166255 -0.04700447 -0.03299129 -0.057229888
000140 c1 3a 13 3e 82 87 2a 3e db ee b0 3c 2f 9f 03 bc
       0.14377882 0.16653255 0.02159827 -0.008033558
000150 7c d3 a7 bd 82 e0 85 3d 4a 4d 92 3d 14 fb df bd
       -0.08194634 0.06536962 0.07143648 -0.10936561
000160 1b c4 d0 bc dd e7 ae bd e5 fa 18 3e 70 3c 96 3b
       -0.025484135 -0.08540318 0.14939459 0.0045848414
000170 ae 69 69 bd 7f 44 1f bb d1 3d ea bd 04 af b6 3d
       -0.05698555 -0.0024302301 -0.11437572 0.089201
000180 e4 e7 1e bd be 67 ab bd 6b fb 91 bd 48 24 92 bd
       -0.038795367 -0.083693966 -0.07128032 -0.07135826
000190 45 fc 08 3c 6d 76 01 3c 67 b2 9e bb 41 69 cf bb
       0.008360927 0.00790177 -0.0048430446 -0.006329686
0001a0 a5 5f f4 3b 83 e2 e4 3b a5 b9 5a 3b 9b b5 78 bb
       0.007457691 0.00698501 0.0033374813 -0.0037950042
0001b0 de 39 7d bb 99 02 23 bc 63 41 0e 3c 66 ee 28 bb
       -0.0038639228 -0.00994935 0.008682582 -0.0025776862
0001c0 d9 c5 b5 bb be 37 29 3c ba 59 9f 3b 23 8e d5 3b
       -0.005547267 0.010328231 0.004862991 0.006517188
0001d0 a1 a6 00 bc d9 f4 b7 3b 7d ab 08 bc 85 fa 94 b7
       -0.007852227 0.005613905 -0.008341667 -1.7759632e-05
0001e0 d9 11 3d 3a dd b2 06 bc d1 6b 0a 3c 35 c5 f5 bb
       0.00072124373 -0.008221355 0.008448557 -0.0075003156
0001f0 44 9b 7a bb b2 c5 07 bb 84 e2 24 bc 8a 55 12 3c
       -0.0038239518 -0.00207172 -0.010063771 0.008931527
000200 71 0a 79 bb 20 27 f7 3a 9b 7b 9d 3a 06 fe e4 bb
       -0.0038000608 0.0018856265 0.0012014987 -0.0069882898
000210 8e 7a 92 3b 83 b5 08 3c 87 53 19 bb 7f 71 cc 3b
       0.004470176 0.008344057 -0.0023395733 0.0062391157
000220 07 37 a6 3a 66 7d d9 3b 4f e8 ea 39 68 45 cf bb
       0.0012681194 0.006637263 0.0004480504 -0.0063254125
000230 be 5c c0 bb 0a f5 50 ba 35 a0 81 3b 53 35 e0 bb
       -0.0058704307 -0.0007971084 0.0039558657 -0.0068422942
000240 64 84 8b bb e8 28 6f ba de 27 47 bb 44 5c a8 3a
       -0.0042577256 -0.0009123222 -0.0030388753 0.001284488
000250 6b a3 1d 3c ea 32 89 bb 7e 28 1b bd d1 5f 15 bd
       0.009621481 -0.0041869776 -0.037880413 -0.03646833
000260 90 6d c4 3c 64 31 4b 3e 37 61 46 3e ab 64 6e 3c
       0.023978025 0.1984306 0.19373022 0.014550368
000270 d0 73 f0 bc 23 66 50 3c c3 2c 75 3e dc 26 56 3e
       -0.029352099 0.012719664 0.23942856 0.20913261
000280 f9 c1 8e bc be ad f7 bc f7 ad 1d bd 68 83 ea bc
       -0.017426478 -0.030234214 -0.038495984 -0.028627113
000290 bf f6 2d bd 86 9e 6f bd 36 26 4a bd b5 63 89 bd
       -0.042471644 -0.05850079 -0.049352847 -0.06708471
0002a0 9d d5 78 bd 18 e3 a4 bd 0e 8e 25 bd 56 69 53 bd
       -0.060750592 -0.08051127 -0.040418677 -0.051614128
0002b0 84 48 5f bd 4b 36 96 bd 7f f9 df bd d4 7d 78 bc
       -0.054512516 -0.07334574 -0.109362595 -0.0151667185
0002c0 c0 eb a4 3c 9e c3 af 3a d6 b4 7c bd 9c dd 56 bd
       0.020131946 0.0013409739 -0.061695896 -0.052457437
0002d0 93 f8 da bc ff 4c 47 bd 4a 28 87 bd 17 ec 43 bd
       -0.026729858 -0.048657414 -0.065994814 -0.047832575
0002e0 4c c5 00 bd a9 69 f5 bc 32 89 6f bd 09 0b 70 bd
       -0.031438157 -0.02995761 -0.05848045 -0.058604274
0002f0 68 51 45 bd b7 90 8a bd 50 76 94 ba 5e 4d a4 3c
       -0.04817334 -0.067658834 -0.0011326764 0.020056423
000300 b3 0e b9 3d 15 2f 91 3d 70 1a 35 bd 3a 1b 4a 39
       0.09036007 0.07089058 -0.044214666 0.00019274364
000310 61 79 b3 3c e7 cb 5c 3e d3 3e 60 3e 25 69 5f 3d
       0.021908464 0.21562158 0.21898966 0.054543633
000320 b1 57 2d bb 5a e3 99 3c eb 91 28 bc d8 8c a9 bc
       -0.0026449973 0.018785167 -0.010288696 -0.020697042
000330 ad 73 23 3a 27 72 35 3c 19 bf 1a 3d 83 72 93 3c
       0.00062351936 0.011074579 0.0377799 0.01799894
000340 61 12 07 bd bc dc 60 3c e3 a0 25 bc 80 48 24 3d
       -0.032976512 0.013724502 -0.010109159 0.040108204
000350 7a 71 a6 3c 4c 0d 3c bc 0a 4e 29 ba da 07 0b bc
       0.020317782 -0.01147778 -0.0006458467 -0.008485759
000360 ba 4d 5e 3c c6 d6 c2 39 1e 73 9b bc f4 a4 22 ba
       0.013568336 0.00037162582 -0.01897579 -0.00062043895
000370 65 70 d6 bb eb 4c ce bb da 43 ed bb dc f0 a5 bc
       -0.00654416 -0.0062957904 -0.0072407546 -0.020256452
000380 af 40 4f bc 71 b3 83 bb fc 3d 56 bc e9 00 33 3c
       -0.012649699 -0.004019194 -0.013076302 0.01092551
000390 05 da d0 3c 29 81 30 bc 84 5b 67 bc b4 8e 43 bb
       0.025494585 -0.010772982 -0.01412094 -0.0029839696
0003a0 6f 7d a4 3c ea 41 09 3d 84 80 72 bc ed a6 2e bb
       0.020079343 0.033510126 -0.014801148 -0.0026649788
0003b0 03 f3 8c bc 3a b8 d6 bb d9 76 7a 3c c0 3a 20 bc
       -0.01720572 -0.0065527232 0.015287125 -0.009779632
0003c0 43 62 87 bb ff fe 37 bc 9e 8d 71 bb 5f 1a 59 3c
       -0.0041315868 -0.011230229 -0.0036858092 0.013250916
0003d0 5b c7 76 3b a0 32 2a bc 46 bb 4b bb 03 56 09 bc
       0.0037655446 -0.0103880465 -0.0031086965 -0.008382323
0003e0 31 e0 8f bb bb 48 09 3c f8 27 7f bc 57 2d c0 bc
       -0.0043907394 0.008379157 -0.015573494 -0.02345912
0003f0 f6 71 e3 bc 2a 93 f6 3c 80 be 09 3d a2 2e 50 bc
       -0.027764302 0.03009947 0.03362894 -0.012706431

conv_layer2.bias f4 [32]
000000 60 59 b5 bc 05 86 17 bd 6d 3f 1b bd ec 9a e3 bc
       -0.022137344 -0.036993045 -0.037902284 -0.027783833
000010 71 89 58 bb 02 e7 26 bc 84 1b ee bb 56 0c e7 bc
       -0.0033040906 -0.0101869125 -0.0072664637 -0.028204124
000020 df 29 a9 3b 93 b7 e4 bb e3 58 17 bb 96 f4 3f 39
       0.005162462 -0.0069798916 -0.0023093752 0.00018306295
000030 52 1e ce bc b9 fa f7 bc 23 45 8a 3b aa 35 55 3b
       -0.025160942 -0.030270921 0.0042196675 0.0032533207
000040 e6 55 86 ba 4d 75 0b bc 83 67 fa bb 3b e2 17 bb
       -0.0010248988 -0.008511853 -0.007641734 -0.0023175615
000050 c9 4e 29 bb a0 fc 8e 3b 42 af 8b bc ae fd 82 bc
       -0.0025834313 0.0043636113 -0.017051343 -0.015990105
000060 65 eb 9f bc 29 13 16 bb 4f 48 d8 bc 43 7e c4 bc
       -0.019521425 -0.0022899604 -0.026401667 -0.023985988
000070 45 af 68 bc b8 d2 fd bb 55 21 e7 3b d6 c4 c9 3b
       -0.014201944 -0.007746067 0.007053534 0.006157498

fc1.weight f4 [120, 1152]
000000 d6 2d 47 3c c0 9e 0f bc ff 23 47 bb 91 28 90 b9
       0.012156924 -0.008765876 -0.0030386446 -0.00027496045
000010 87 27 8c bb bc 8e 76 bc ac bc 85 3c 89 64 be bb
       -0.004277173 -0.015048679 0.016325317 -0.0058103246
000020 60 af 1b 3b c0 7c d0 bc 66 cf 9d ba 42 eb ca bb
       0.0023755655 -0.02545011 -0.0012039959 -0.0061925957
000030 0e 82 f3 bb fe 82 73 3c a0 02 5a 3c e0 74 0f bc
       -0.007431275 0.014862774 0.01330629 -0.0087558925
000040 d1 39 29 bc 7a 07 3f bb 65 f8 04 3c 25 5c cd 3a
       -0.010328726 -0.0029148743 0.0081158625 0.001566772
000050 8e 6e ca 3b 4f 6e 16 3b d6 f1 4e 3c bb a8 f6 bb
       0.00617773 0.0022953933 0.0126309 -0.0075274385
000060 e4 d1 29 3c 05 da d2 39 a4 69 3c 3c 2d 46 a4 bb
       0.010364983 0.00040216758 0.011499796 -0.0050132484
000070 a6 88 19 bb cc 30 00 bc 0b ba 3d 3c ba 38 af bb
       -0.0023427396 -0.007824134 0.011580001 -0.0053473385
000080 f7 e7 ce bb ae e0 21 bb ee 6f 13 bc d0 8d 31 bb
       -0.0063142735 -0.002470057 -0.008998854 -0.0027092583
000090 1b 87 1b 3b 37 99 81 3c a0 0f c5 3b fa 76 51 3b
       0.0023731652 0.015820129 0.0060138255 0.0031961785
0000a0 1c c6 9b 39 91 dd 05 bb 40 77 6c 3c 26 0e f4 3b
       0.00029711507 -0.0020426253 0.014432728 0.0074479757
0000b0 d6 bc 1f bd 6e e4 ab 39 9f d9 89 bc 68 e1 f5 3b
       -0.038998447 0.00032785855 -0.016827403 0.007503677
0000c0 29 ca 7a 3c a1 24 e6 3c fb 27 67 bc 09 b2 a8 3b
       0.015306988 0.028093638 -0.014108653 0.0051481766
0000d0 e1 96 21 bd d4 a4 0a 3c 0b 36 4d bb 34 86 8d 3c
       -0.03945053 0.00846215 -0.003131273 0.017275907
0000e0 8f 44 83 3c d9 88 1a 3d 49 16 bd bc e7 c3 ba 3b
       0.016023902 0.037728164 -0.023081915 0.005699623
0000f0 ab ce c7 bb d7 6a 81 3b e3 21 41 3c 33 d5 12 3d
       -0.006097635 0.003949504 0.011787864 0.035847854
000100 6e 03 50 bc 7b 7e 32 bc 7c 6e 0a 3c c5 0a c3 3c
       -0.01269613 -0.010894413 0.008449193 0.023808846
000110 e6 f3 e5 bc b9 3f 01 bc 68 35 4b bc cb eb c1 bb
       -0.028070401 -0.007888728 -0.01240287 -0.0059180013
000120 d0 7d 74 bd bf 7f b9 bc 90 e4 ce bc 33 ae 9e 3c
       -0.059690297 -0.022643922 -0.025255471 0.019370174
000130 d0 7a b0 bb ac 81 f8 bb 16 03 36 bd 11 db 09 3d
       -0.005385734 -0.0075838175 -0.044436537 0.033656184
000140 e1 e9 83 3b 45 c0 15 3d 12 e6 c0 bb 1d c7 a0 3b
       0.0040256833 0.036560316 -0.0058868015 0.0049065487
000150 4d 1d a8 bc 14 31 83 3d e9 4e f4 b9 8e db 8e 3c
       -0.020521784 0.06405845 -0.000465981 0.017438676
000160 9c 7c c5 bc 50 89 10 bb c5 bb 48 3d 36 41 31 3d
       -0.02410727 -0.00220545 0.049007196 0.04327508
000170 2a 60 de 38 d9 aa aa bc 18 bb aa bc 71 1f de 3b
       0.00010603697 -0.02083342 -0.020841166 0.0067786505
000180 26 5e bc 3c 4d 67 22 bb a2 4f f2 bb a0 54 6e 3c
       0.022994112 -0.002478081 -0.007394747 0.014546543
000190 0f 46 12 bd f9 df 3f 3c 89 46 be bb 90 80 23 bc
       -0.035711344 0.011711114 -0.0058067483 -0.009979382
0001a0 6a 22 95 bc fa 9e 7f b8 c0 8f d8 bc ee 05 46 ba
       -0.018204886 -6.0944796e-05 -0.026435733 -0.0007553984
0001b0 64 15 66 3c 0f 3b ec 3c 07 12 85 bc 59 19 8f bb
       0.014043186 0.028836755 -0.016243948 -0.0043670353
0001c0 ae 7d 43 bb 00 0c 91 3b ea 5d 64 3c 04 15 36 3c
       -0.002982955 0.0044264793 0.0139384065 0.011113409
0001d0 49 c8 cb bc a8 a7 eb 36 16 6c 09 bc 59 51 9a 3c
       -0.024875777 7.0230635e-06 -0.008387586 0.018837618
0001e0 ad fb 95 3c 6b be 20 bb 70 88 08 bc 75 43 ec 3c
       0.018308485 -0.002452756 -0.0083333105 0.02884076
0001f0 d1 56 ac bc 7a ea fa 3b 3d 5f 33 bc 47 90 30 bc
       -0.021037491 0.0076573463 -0.010948 -0.010776586
000200 e3 6a 5e bb 7e 44 96 3c 33 7f 16 bb 98 4b 5d 3c
       -0.0033938221 0.018343206 -0.0022964 0.0135067925
000210 6a a7 b2 bc ca e5 04 3d b3 3f 7e bb 09 9e 0e bc
       -0.021808345 0.032445706 -0.0038795292 -0.008704671
000220 a2 c8 a1 bb e4 d4 42 3b 1d 70 1f bc 40 82 3e 3d
       -0.0049372474 0.0029728943 -0.00973132 0.046510935
000230 d2 c4 52 bc aa e8 05 bc e3 d2 68 ba e9 51 e9 3a
       -0.012864308 -0.008173147 -0.0008881522 0.00178009
000240 d2 47 61 ba 49 63 0c 3a a6 99 61 3a 6e 5b be ba
       -0.0008593771 0.0005355371 0.0008605964 -0.0014523098
000250 b9 2a 9f ba b2 d8 87 3a b6 a4 02 3a 43 d4 c0 3a
       -0.001214347 0.0010364263 0.000498365 0.0014711696
000260 11 bb 28 b9 8a b7 87 ba cc f7 8a 3a 4e e2 c3 b9
       -0.00016091416 -0.0010354382 0.0010602414 -0.00037361908
000270 13 70 8d b8 3b 82 c6 ba e8 98 59 ba f7 12 bd 3a
       -6.7442794e-05 -0.0015145013 -0.0008300678 0.0014425208
000280 c9 1a 8e ba 33 53 4e ba 64 b0 ae ba 3b 2f 5b 39
       -0.0010841723 -0.0007870674 -0.0013327715 0.00020903062
000290 a9 50 0f 3a 68 df 87 ba 86 3c b2 ba 32 19 f5 b9
       0.00054670364 -0.0010366263 -0.001359836 -0.00046748813
0002a0 c1 88 36 3a b3 7a c1 39 95 1b 98 ba 9d fa a1 b9
       0.0006963127 0.00036903247 -0.00116049 -0.00030895034
0002b0 0d fe 3e ba a7 17 04 ba 28 bf 8c 3a bc 90 f0 b9
       -0.00072857813 -0.0005038925 0.0010738121 -0.00045884203
0002c0 f5 dd b2 b9 19 f2 fd b9 30 06 af 3a 59 66 d0 b9
       -0.00034116177 -0.00048436297 0.0013353284 -0.00039749107
0002d0 65 92 12 3a 7e df d8 b9 71 17 fe 39 32 3a 6d ba
       0.00055912725 -0.00041365245 0.0004846412 -0.00090495043
0002e0 8d a1 4d ba cc 1f 48 ba fd 8a 9e 3a b9 db a0 3a
       -0.00078442023 -0.00076341326 0.0012095865 0.0012272514
0002f0 8c f2 14 39 7e 47 83 ba 9b 50 81 b8 18 52 23 ba
       0.00014204736 -0.0010015813 -6.166213e-05 -0.00062301895
000300 ef 7f 5a 3a 66 77 75 3a 38 7a 2a ba db 51 08 ba
       0.00083351036 0.00093638 -0.00065031974 -0.00052001857
000310 1c fb a7 ba d1 8a 09 ba a6 f3 c2 ba 07 b8 80 ba
       -0.0012815925 -0.00052468205 -0.0014873638 -0.000982047
000320 46 a5 ab b9 d9 a3 50 ba 39 4c 96 ba b8 04 17 b9
       -0.000327388 -0.00079589855 -0.0011466808 -0.0001440224
000330 3d 6b 66 ba bf 08 01 3a 66 b1 7e 39 14 0f a6 3a
       -0.00087897835 0.0004922263 0.00024289414 0.0012669289
000340 31 06 b3 3a 80 a7 a8 3a ec e4 81 ba 2f e3 1b 3a
       0.0013658461 0.0012867302 -0.0009910143 0.0005946634
000350 7a d4 c9 b8 36 4f 9b 3a 96 37 a5 3a af 9c b8 3a
       -9.624004e-05 0.0011849168 0.0012605067 0.0014084781
000360 1a a6 eb 3b a1 2f 18 bc b0 8b 00 3c 0b 07 e3 3b
       0.0071914317 -0.009288699 0.007845804 0.00692833
000370 0b 06 05 3c 75 24 a9 3b 28 0a 83 bc 2e d8 a8 bc
       0.008119117 0.0051618167 -0.015996054 -0.020610895
000380 7e a7 8b bb 57 fd 28 bb d3 15 a8 3b ee f3 25 3c
       -0.00426191 -0.0025785768 0.005129555 0.010128958
000390 f7 b0 38 3c d2 45 cd 3a fa 6a 30 3c 8e 72 41 bc
       0.01127266 0.0015661067 0.010767693 -0.011807097
0003a0 3d 1f be 3b 7b c8 52 bb 87 95 ec 3b d8 86 43 bb
       0.0058020637 -0.0032162953 0.0072199735 -0.0029835012
0003b0 c6 34 da 3c c4 18 4c bb 8e 2e 06 3c c3 8d 73 3c
       0.026636492 -0.003114269 0.00818981 0.014865342
0003c0 6d a2 09 bc f4 a3 25 bc 3b 6b 2a 3c 70 10 ba bb
       -0.008400542 -0.01010989 0.010401542 -0.005678229
0003d0 67 1e c3 b9 32 4b 2c 3c d7 6c 46 3c 99 92 2a ba
       -0.0003721595 0.010515975 0.01211091 -0.000650683
0003e0 8b 0c c5 ba c0 e2 25 bc 17 e0 88 3b c7 b8 bd ba
       -0.0015033645 -0.010124862 0.004177104 -0.0014474624
0003f0 14 87 d9 ba 2e bd 4e bc 6d 99 d9 3b d3 16 1e 3b
       -0.0016596043 -0.012618346 0.006640604 0.002412249

fc1.bias f4 [120]
000000 6a 3f b0 39 90 fe dc ba 9b 7b 16 ba cd 47 18 bb
       0.00033616583 -0.0016860534 -0.00057404645 -0.0023236156
000010 77 b0 d7 ba 61 aa 0b bb 64 10 2b ba bb 72 13 bb
       -0.0016455789 -0.002131127 -0.0006525575 -0.0022498805
000020 90 04 3b bb 1e bc c0 ba 95 c6 49 ba 3b f2 78 ba
       -0.0028536655 -0.0014704501 -0.00076971325 -0.00094965444
000030 ca 20 5b bb e0 82 06 39 ba 16 06 39 fc 49 0f bb
       -0.0033436292 0.0001282799 0.00012787702 -0.0021864166
000040 47 71 3e bb 37 b5 25 3a 5e 27 69 ba 4f 31 63 ba
       -0.0029059218 0.00063212536 -0.0008894111 -0.00086667103
000050 e9 08 9d ba 9d 0d a6 ba 4f cc 89 ba 87 e3 8d b9
       -0.0011980805 -0.0012668852 -0.0010513159 -0.00027063137
000060 83 8a e3 ba d0 8e ba 3a e9 78 91 ba 38 f0 01 bb
       -0.0017360005 0.0014233235 -0.0011098656 -0.001982702
000070 4a 8f 87 ba c1 c3 52 bb ce 38 11 bb cc 3a eb ba
       -0.0010342386 -0.0032160135 -0.0022159102 -0.00179466
000080 ec 98 5f b9 7f f9 3d bb 03 84 5d ba 4e f1 dc ba
       -0.00021323905 -0.0028987823 -0.0008450152 -0.0016856582
000090 c8 dd 94 ba 2b 07 2e 3a 44 21 98 ba d2 b1 2d bb
       -0.00113576 0.00066386414 -0.0011606594 -0.0026503694
0000a0 ab c3 09 bb e4 ed ca ba 5d 20 3e ba 0f 5e 27 bb
       -0.0021021168 -0.0015482274 -0.00072527473 -0.002553824
0000b0 f6 b9 39 ba 36 35 8f 39 31 7f 01 bb a9 3d 1b bb
       -0.00070849 0.0002731473 -0.001975965 -0.0023687875
0000c0 df a4 3d bb b6 1a ed ba e4 32 3d b8 57 0a 81 ba
       -0.0028937382 -0.0018089626 -4.5108507e-05 -0.0009845
0000d0 26 6b 3c 39 41 bf de ba 26 fe 11 39 d0 51 86 3a
       0.00017968993 -0.0016994254 0.00013922955 0.0010247771
0000e0 da 63 df ba f6 47 33 bb af 05 a5 ba bf 06 19 ba
       -0.0017043308 -0.0027356124 -0.0012590195 -0.0005837492
0000f0 23 c4 36 bb 9e 12 03 bb 5f e3 04 39 c1 5e d8 ba
       -0.0027887903 -0.002000011 0.00012673203 -0.0016507731
000100 b1 16 72 3a 9c 6c eb 39 55 96 93 39 3e 06 68 bb
       0.00092349487 0.00044903613 0.0002815003 -0.0035404111
000110 63 03 48 bb e9 98 5e b9 f0 90 03 bb a0 f6 e2 ba
       -0.0030519597 -0.00021228533 -0.0020075403 -0.0017315932
000120 6f 8d b3 ba e9 1c 02 bb be 20 c9 39 2c 60 11 3a
       -0.0013698767 -0.0019853658 0.00038362102 0.0005545642
000130 f6 66 bf ba bb d2 ff ba db 68 0c bb 2f 1a b6 ba
       -0.0014602828 -0.0019517759 -0.0021424803 -0.0013893301
000140 21 c2 c3 3a 7f 9e 47 bb 65 71 c1 ba 77 3e 1f bb
       0.0014935174 -0.0030459461 -0.0014758526 -0.0024298707
000150 af 14 34 ba d7 c2 2a bb a0 8e ab ba a7 ef 56 bb
       -0.0006869537 -0.0026056075 -0.001308877 -0.0032796653
000160 83 b2 88 b9 8a d5 25 3a 22 86 66 ba df 63 8a ba
       -0.00026072943 0.000632607 -0.0008793791 -0.0010558328
000170 ab cf 31 3a 31 9a c4 3a d7 a6 95 3a 49 86 43 bb
       0.0006782959 0.0014999566 0.001141752 -0.002983468
000180 5a 01 f9 39 a0 ab 73 bb 14 1d aa ba e6 17 03 bb
       0.00047493988 -0.0037181154 -0.0012978637 -0.0020003258
000190 9e eb a1 3a 89 92 5c 3a fa 57 2b bb f8 c1 10 b6
       0.0012353545 0.00084141694 -0.0026144967 -2.1570577e-06
0001a0 8a 79 f3 ba db 67 16 bb 98 b4 f2 ba 5a b4 8d ba
       -0.001857565 -0.0022950086 -0.0018516956 -0.0010811195
0001b0 5a b5 c0 ba 2b 9f 83 3a 5d 78 3a ba 8d e8 44 34
       -0.0014702484 0.0010041943 -0.00071132724 1.8338524e-07
0001c0 eb 85 08 bb d1 7f 04 bb 13 f9 ee b9 29 62 15 bb
       -0.0020831774 -0.0020217786 -0.00045580472 -0.0022794104
0001d0 00 ab bd 3a 7d d5 8b 3a db b9 a9 3a 22 58 e8 ba
       0.0014470518 0.0010668483 0.0012949066 -0.0017726461

fc2.weight f4 [80, 120]
000000 49 3d 91 3c 65 3f ac bb 93 b1 41 3d 20 ab 33 3c
       0.017729418 -0.0052565807 0.04728849 0.010966092
000010 d1 3f e1 bb 0a c1 05 3d 0b 1e 8f bc c5 a6 3c bd
       -0.0068740626 0.0326548 -0.01747038 -0.04605748
000020 b5 0e d4 bc d0 74 67 3c 52 04 82 bc ec c0 f5 38
       -0.02588592 0.014126971 -0.0158712 0.00011718445
000030 64 a3 3d 3d de 0a e9 bc 02 1c f7 bc aa 78 e9 bb
       0.0462984 -0.028447565 -0.030164722 -0.00712498
000040 bb 3d 03 3c 09 c2 26 bc 36 f2 b0 ba 86 da 8b bb
       0.008010323 -0.0101780975 -0.0013499919 -0.0042679934
000050 7e cb 7c bc 18 cc 8c 3c bf f5 66 bc 67 e6 52 bb
       -0.015429376 0.017187163 -0.014096676 -0.0032180788
000060 e4 76 74 bd e0 f5 3a bb e9 07 2f bb 56 c1 9b 3d
       -0.059683695 -0.00285279 -0.0026707596 0.07605235
000070 7f 09 6a 3c 01 7a 85 3d 00 e2 37 bb 30 d8 a6 3c
       0.014284491 0.06517411 -0.002805829 0.020366758
000080 a0 e2 e5 bc ad 76 bd bb e5 91 10 3d 13 7c 8d 3d
       -0.028062165 -0.0057819695 0.035295386 0.06908431
000090 80 9e 8d bc 8e 1f 12 bc f1 03 f6 3c 53 be 99 3d
       -0.017287493 -0.008918656 0.030031176 0.075070046
0000a0 5e 35 aa 3c 9f 40 0b 3b 32 b6 9d bc 20 0f 8b 3b
       0.0207774 0.0021248234 -0.019251917 0.0042437464
0000b0 36 67 ed bc 55 d8 1f bd 70 22 91 b9 2a 96 ff bb
       -0.028979879 -0.03902467 -0.00027682213 -0.0077998834
0000c0 9d 20 f1 bc aa d4 c1 3b 07 ba aa ba 54 f5 95 3c
       -0.029434497 0.005915244 -0.0013025411 0.018305458
0000d0 e7 3a 0b bd 4b 0a 5a bc bc da 21 bc f4 aa 98 3b
       -0.03399172 -0.013308118 -0.0098788105 0.004659051
0000e0 d6 a5 0e 3d b2 cf 0c 3d 4d 4d 8f 3c 7c 38 c9 b9
       0.034826122 0.03437776 0.017492915 -0.00038379792
0000f0 ed af 89 3c 57 0f 54 3d 70 85 f8 bb 87 91 9b b9
       0.01680752 0.05177244 -0.0075842664 -0.0002967233
000100 c2 b1 4e bc 98 c1 d1 bc 6a a0 99 bc 11 65 32 3d
       -0.012615623 -0.025605008 -0.01875325 0.043553416
000110 35 7c 05 bc 8e ab 3d 3c f5 aa 24 bd 40 88 aa bc
       -0.008147289 0.011576546 -0.0402021 -0.020816922
000120 95 c3 1c 3c 2d 64 b5 3c 5b 24 af bc 05 d0 b6 bb
       0.009568115 0.022142494 -0.02137964 -0.005578997
000130 a4 96 97 b9 6a dd 0d 3c 89 e3 92 3c d6 d3 82 3c
       -0.000289132 0.008658746 0.017930763 0.015970152
000140 e3 a4 46 bb b7 53 3c 3b 20 c5 1f 3c 51 ae a7 3c
       -0.0030310682 0.0028736421 0.009751588 0.020468863
000150 df 01 2d 3d a0 7d eb bc da 88 8d 39 6b 55 86 3b
       0.042238113 -0.028746426 0.00026995578 0.004099538
000160 88 79 bd 3b a2 71 c4 bc 74 40 3c 3d 59 78 6a bb
       0.00578231 -0.023979966 0.045959905 -0.00357773
000170 0b 24 e3 3c 28 e9 12 3d 9a 36 fa bb f1 da 19 3c
       0.027727148 0.035866886 -0.0076359035 0.009390579
000180 8d 8d 92 3c e8 86 a7 3c 4d 5d a7 bc a9 43 53 3d
       0.017889762 0.02045007 -0.020430231 0.051578198
000190 19 b2 6c 3c ad 79 5a bd 4a 1f b3 bc db 43 fb bc
       0.014446759 -0.053338695 -0.021865506 -0.030672004
0001a0 f3 d1 31 3d 3e d7 77 3b 73 18 fa 3c c1 dd d6 bc
       0.043413114 0.0037817503 0.030529236 -0.026228787
0001b0 83 78 37 3b a7 41 33 bb 45 a6 54 bb 5e 50 e5 ba
       0.0027995415 -0.0027352364 -0.0032447737 -0.0017495265
0001c0 74 45 24 3d 7a 8b ca bc e6 04 39 bd 29 19 71 3d
       0.0401053 -0.02472471 -0.045170687 0.058861885
0001d0 ac 1b 5b bb b4 e9 a7 3b aa 1f 49 bd 18 26 c4 3c
       -0.0033433242 0.005124295 -0.049102463 0.023943946
0001e0 f7 04 25 bc aa 80 12 ba 82 4a 2c 3d 5b b2 84 3c
       -0.0100719845 -0.00055886304 0.042063244 0.016198328
0001f0 fa 5c 26 35 5c 6c 28 3d 73 6c 3f bd 09 b3 d2 3b
       6.197512e-07 0.041118965 -0.046734285 0.006430034
000200 53 32 8a 3d a9 19 3a 3c 85 4b 8b bb 71 9b 79 bb
       0.0674788 0.011358657 -0.004250946 -0.0038087035
000210 2d 21 0b 3d 21 a9 b7 bc fa 7f 31 3d b3 63 b6 bc
       0.033967186 -0.022419514 0.04333494 -0.022264337
000220 b0 cb 49 3d 64 42 58 bd fd f6 94 bb 56 68 07 3b
       0.049266517 -0.05279769 -0.004546045 0.0020661554
000230 52 14 de bc ad 37 02 bd 22 bb 4e bb f8 c5 14 bb
       -0.027109299 -0.031791378 -0.0031544645 -0.0022701006
000240 d6 15 fe 3c 94 40 74 3b 90 8f 11 3d 21 cd d3 3c
       0.031016272 0.0037269937 0.035537302 0.025854649
000250 cf b6 b1 3c 47 14 c7 bb c2 1b ad 3b fd 0b d7 3a
       0.021693615 -0.0060754153 0.00528285 0.0016406771
000260 a9 48 8f 3b d9 6d 97 3c a7 c2 f0 bc 24 74 3a bc
       0.0043726754 0.018484997 -0.029389692 -0.011380229
000270 d7 16 2c ba 60 4c 50 3a 5a 59 f1 bc d6 ae f3 bb
       -0.00065646827 0.0007945951 -0.029461551 -0.0074366136
000280 6e 7b 26 3d 88 c2 66 3d 7d ad 58 3b c0 59 45 3d
       0.040645055 0.056337863 0.0033062391 0.048181295
000290 68 6e ff ba ca b3 40 3c 1a 6b 04 bd ff 12 bf bc
       -0.001948786 0.011761615 -0.032328703 -0.023324488
0002a0 0c fb d3 3b c2 1b 9b bc 3d ae 13 3b 21 6a d5 3c
       0.006469136 -0.018934134 0.0022534274 0.026051583
0002b0 7e bc 1e bd 1f ac 6f 3c 8f a6 6c bc d5 fc 42 3a
       -0.03875398 0.014628439 -0.014444008 0.00074381876
0002c0 ca 5e dc 3c 78 d2 7a 3c 7d 97 02 39 e5 c5 9d ba
       0.026900668 0.015308969 0.000124542 -0.0012037127
0002d0 a4 a0 be bb 5b 6c de 3c b8 62 66 bc d3 cb 94 bb
       -0.0058174897 0.027151277 -0.014061622 -0.0045408993
0002e0 e2 eb 2d 3d 26 ca 86 3c 0f aa a8 bc 79 9c dc 3c
       0.042461284 0.016453814 -0.020588903 0.02693008
0002f0 68 22 18 bc cb 2c 16 bc 82 dc 0d 3d 72 97 dc bc
       -0.009285547 -0.009165953 0.03463412 -0.026927684
000300 c9 cd 42 bd 7c be e1 bc 73 c2 a8 bc 77 90 d9 3c
       -0.047559533 -0.02755665 -0.020600533 0.026558144
000310 09 3a 39 bb e6 c9 0b bc 57 8a 89 3c 2c ed 8e bc
       -0.0028263351 -0.008532023 0.016789598 -0.017447077
000320 08 72 a2 ba 8d 68 4b 3d 2a d3 a7 bb ad 13 14 3c
       -0.0012393603 0.049660254 -0.0051216083 0.009037894
000330 69 8d 87 bb f0 e6 3e 3b 05 db 14 bd 9d ee 2c 3d
       -0.0041367305 0.0029129349 -0.036341686 0.042219747
000340 78 7c c6 bc ac 6d 08 3d c9 62 d8 bc 05 60 65 3c
       -0.024229273 0.033307716 -0.026414292 0.013999944
000350 46 a8 ad bb 48 83 66 3d 61 18 53 bb 3f 24 96 3d
       -0.005299601 0.056277543 -0.0032210576 0.07331132
000360 e5 86 0d bc b9 24 32 bc 93 72 b9 bc 1c d4 eb 3c
       -0.008638118 -0.010873013 -0.022637641 0.028787665
000370 12 31 23 3c 22 c4 09 bd d3 dc 14 bc 94 7c 69 3c
       0.00996043 -0.033634312 -0.009085852 0.014250893
000380 bf 65 2a 3c d1 a1 16 3c ab 3c 30 bc 14 16 0a bd
       0.010400235 0.0091938535 -0.010756652 -0.03371246
000390 24 52 1b ba 23 66 a1 3b 2c b5 9d 39 6c 97 c7 3a
       -0.00059250207 0.0049255057 0.00030080357 0.0015227622
0003a0 a8 14 78 3c 40 7e ca b9 ad 2a 45 3c 7d e6 97 3d
       0.015141644 -0.00038622506 0.0120341005 0.07417009
0003b0 6d 91 83 3a 55 73 3b 3c 78 0f 40 3d 2b c9 d2 3a
       0.0010037847 0.0114410715 0.046889752 0.0016081681
0003c0 53 c5 b1 bc c0 20 6d 3c e6 5d 09 bc 60 20 43 bc
       -0.021700537 0.01447314 -0.008384204 -0.011909574
0003d0 58 70 40 3d a6 60 13 bc 4a 18 af 3c bb 78 46 3c
       0.04698214 -0.008995211 0.021373887 0.012113745
0003e0 8b 14 28 bd 05 1b 81 bc f8 a4 c7 bc de 82 28 3b
       -0.041035216 -0.015759954 -0.024370655 0.0025712769
0003f0 04 d5 ae 3c d8 35 3c 3b a6 65 1d 3d 86 b1 77 bc
       0.021341808 0.0028718617 0.038427018 -0.0151180085

fc2.bias f4 [80]
000000 5f 89 47 bb 4f c8 3a 3b 54 c5 18 bb dd b3 be bb
       -0.003044687 0.002850074 -0.0023310976 -0.005819781
000010 df 12 60 bb 87 d9 c4 bb f5 a7 a0 ba e4 00 7d 3b
       -0.0034190936 -0.0060073766 -0.0012257086 0.0038605267
000020 ac f6 ec ba bd 1f 48 bb 0e 29 bf bb 0c 02 97 bb
       -0.0018078885 -0.0030536496 -0.0058337515 -0.0046083983
000030 23 dd fa 3a 20 39 34 ba 32 5d f9 3b 0e e8 93 bb
       0.001913939 -0.00068749674 0.0076099867 -0.004513747
000040 60 b8 df 3a c9 f4 59 39 09 d3 8f bb 97 90 18 bb
       0.0017068498 0.00020785922 -0.004389171 -0.0023279542
000050 e2 b6 6c bb 03 ae 46 ba eb 1f 6d 3b e2 cc e8 3b
       -0.003611975 -0.00075790304 0.0036182355 0.007104502
000060 ef 1b f0 ba 64 62 4d 3b b1 c9 81 3b a2 4b fb 3a
       -0.0018318872 0.0031339163 0.003960811 0.0019172321
000070 d4 64 b9 bb 1a 73 3d bb d4 ef 5b bb 33 1d c3 3b
       -0.0056577716 -0.0028907717 -0.0033559697 0.0059544086
000080 89 a3 5c ba c1 47 95 bb a1 e3 88 3a 7b 69 dc ba
       -0.00084167026 -0.004555673 0.0010443815 -0.0016816104
000090 1f d1 ac 3b 22 87 d2 ba 0b 83 74 3a b5 01 51 bb
       0.0052739526 -0.0016062001 0.0009327388 -0.0031891887
0000a0 71 6a 92 3a 90 a9 dd bb ac bf 7b ba c7 b8 95 3b
       0.0011170638 -0.006764598 -0.00096034515 0.0045691463
0000b0 57 b9 2b 3b 4a 4a 43 b8 81 d5 a0 3a 60 fb 23 bb
       0.0026203 -4.656081e-05 0.001227066 -0.0025021657
0000c0 af 95 8d bb 38 57 9c 3b dd e9 32 bb 81 9e 00 3b
       -0.004320822 0.0047711395 -0.0027300038 0.0019625726
0000d0 38 a5 5c ba 4a 3e d0 ba 6b a7 17 ba 47 9f 7d bb
       -0.00084169535 -0.0015887704 -0.000578514 -0.0038699673
0000e0 ef d4 37 bb 6b 50 bf 3b 47 58 0c 3b cd 05 2d b7
       -0.0028050502 0.005838444 0.0021414922 -1.0312954e-05
0000f0 05 ff 83 bb ca 40 e0 bb 3b 24 95 bb eb b3 df 3a
       -0.0040282034 -0.006843661 -0.004551438 0.001706717
000100 19 b7 c1 ba 89 2f ac bb 74 3c 9f 3a 8b 83 c7 ba
       -0.0014779299 -0.00525469 0.0012148754 -0.0015221698
000110 23 71 3f ba 3c 0b c2 3b 28 76 59 b9 cf f2 c4 bb
       -0.00073029305 0.0059217494 -0.0002073875 -0.0060103904
000120 b6 f8 03 bb b6 f3 05 3b 33 c2 16 3b 8c b1 87 ba
       -0.0020137257 0.0020439452 0.0023003935 -0.0010352596
000130 bf f0 9b 3b ec 00 a8 ba 0a 87 3a 3b 62 2a 93 bb
       0.004758924 -0.0012817658 0.0028461837 -0.0044911364

fc3.weight f4 [40, 80]
000000 c4 73 81 3d 49 fb 21 bd 7a c9 4a 3d e7 39 5d 3c
       0.06320909 -0.039546285 0.04950855 0.0135025745
000010 9a aa d0 bc 31 1b b8 3d 23 44 67 bc 1a 19 6e 39
       -0.025471974 0.08989561 -0.014115366 0.000227068
000020 7e 16 84 3c 2d 05 4e bc e5 b5 4f bc 8b d4 bb 3c
       0.016124006 -0.012574476 -0.012677644 0.022928497
000030 b5 f9 9c bb 27 01 c0 bb 19 fe 82 3d cc 33 1b bc
       -0.0047905096 -0.0058595124 0.063961215 -0.009472799
000040 7b 28 dd 3a a3 27 02 bc e7 1f 9f 3d c6 42 13 bd
       0.0016873026 -0.00794402 0.07769757 -0.035952352
000050 52 36 81 3d 6b ab c6 3c ef ab 0a 3d 82 2b 89 3d
       0.06309189 0.02425166 0.033855375 0.066977516
000060 01 f1 e1 bc ee a7 fb bb f8 d4 fd bc 5b c6 88 3d
       -0.02758074 -0.007679931 -0.03098534 0.06678458
000070 3a cf 7a 3d fb 40 98 3d 4d 0b c0 3c 3f af de bc
       0.061232783 0.07434269 0.023442889 -0.027183173
000080 db d0 10 3c fb 01 93 3d 26 69 45 3b c7 80 d8 b9
       0.0088388575 0.07178112 0.0030122488 -0.00041294677
000090 df 23 73 bc fb b5 d3 bc 5a 2a 70 3d ec 44 72 3d
       -0.014840095 -0.025843611 0.05863414 0.05914776
0000a0 ea 52 0e bd e6 3d dd bb 6b 9d 88 3d cf 7f cf bc
       -0.03474704 -0.0067517636 0.0667065 -0.025329499
0000b0 5a 24 a9 3c 99 bd 16 bd 89 60 99 3d 58 e8 ca bc
       0.020647217 -0.03680191 0.07489116 -0.024768993
0000c0 5e 3c 0c bd 01 50 92 bc 73 41 aa 3d e7 45 40 bd
       -0.034237258 -0.017860414 0.08313265 -0.046941664
0000d0 2a fa 03 3a 60 76 a0 3d d4 09 7f 3d 0e 07 f2 3c
       0.0005034531 0.07835078 0.062265232 0.02954438
0000e0 e5 dc 27 3d b7 65 bc 3d 49 59 ef bc 0a a3 51 bc
       0.040982146 0.09199088 -0.02921738 -0.012795219
0000f0 27 44 9f bc 29 18 02 3c 0e 25 db 3c 00 52 1b bd
       -0.019441677 0.007940331 0.026751067 -0.03792
000100 20 1c 5e bc 0f 4f ef 3c 27 e3 85 bb 5c 4d 2f bd
       -0.01355651 0.029212503 -0.0040859166 -0.042798385
000110 3f 8f 63 bc 3d 86 fa bc ce 9a 16 bd 60 94 d7 bc
       -0.013889133 -0.030581588 -0.036768727 -0.026315868
000120 9f f2 28 bd 37 01 99 3d 39 f8 11 bd 74 8c ce bc
       -0.041247007 0.07470935 -0.035637114 -0.025213458
000130 6b 32 99 3c f2 42 2d 3d 37 7b 74 bc 40 8a e6 bc
       0.018700799 0.042300172 -0.014921955 -0.028142095
000140 ad cf 13 bd 47 4b 76 3d 03 9b b8 3d ea 23 10 bc
       -0.036086727 0.060130384 0.09013941 -0.008797625
000150 07 2b 8e bb 8b f5 7e 3d a9 be 8c 3d b5 7d de bc
       -0.0043386254 0.062245887 0.06872303 -0.027159551
000160 b7 e4 6c 3d f2 4d d3 bc d4 85 15 bc 75 ac 48 3c
       0.057835307 -0.025794003 -0.009126145 0.012248148
000170 2d 00 a8 3d 65 9c 86 3d a4 35 13 3d 72 e7 44 3d
       0.082031585 0.06572799 0.035939828 0.048072286
000180 1d ed 10 bd ab e0 34 bd c2 01 a7 3d 22 82 93 bb
       -0.03538238 -0.044159573 0.08154632 -0.004501597
000190 46 e7 2e bd b0 fd 5b bc 0c fe 90 3d b7 49 aa 3d
       -0.04270103 -0.013427183 0.070797056 0.08314841
0001a0 2e 1a 8a bc 48 9f d0 bc 6d e8 e6 bc 48 b4 97 bc
       -0.016858187 -0.025466576 -0.028187001 -0.018518582
0001b0 e8 1a 81 3d 49 12 a0 3d e5 c0 55 3c 78 a4 c9 3c
       0.0630396 0.078159876 0.013046478 0.024614558
0001c0 3a 6c 71 3c c2 44 9a 3d e4 c7 4d 3b 4a 83 39 bd
       0.014735276 0.07532646 0.0031399662 -0.045291223
0001d0 47 77 fe bc c9 65 c5 bc 0c a2 8d 3d e0 17 7d 3c
       -0.031062735 -0.024096387 0.069156736 0.015447587
0001e0 55 fc 10 bd ee e1 23 3d 64 2e 00 bd 43 c7 0b 3d
       -0.035396893 0.040010385 -0.03129424 0.034125578
0001f0 dd 88 1e bd 00 29 a3 3d d7 37 40 bc ab 50 0e bc
       -0.03870474 0.079668045 -0.011732063 -0.008686225
000200 56 e5 fd bc 04 38 45 3d c3 eb 31 bc 1c 49 08 bd
       -0.030993145 0.048149124 -0.010859433 -0.033272848
000210 f0 d5 28 bd 5a 51 84 3c 4d bd 5e 3d 80 f8 bd bb
       -0.04121965 0.016152073 0.05437975 -0.005797446
000220 4d 2d e3 bc 5b 10 a7 3c 82 66 40 bc 17 90 46 bc
       -0.027731562 0.020393541 -0.01174319 -0.012119315
000230 7e cc 31 3d 54 df d3 bc 3c 75 94 bc 28 15 18 bd
       0.04340791 -0.025863327 -0.018122308 -0.03712955
000240 d8 03 fc bc ee 9e d9 3c 1e 09 3e 3d e2 7f 99 bc
       -0.030763552 0.026565041 0.046395414 -0.018737737
000250 2b 28 b9 bb e2 13 bc bc f6 84 bb bc 8f 06 0a bd
       -0.0056505403 -0.0229587 -0.02289055 -0.03369766
000260 59 49 94 3c ed 7f a6 bc 9d 3c d0 ba 83 be 8b bc
       0.018101381 -0.020324672 -0.0015887205 -0.017058617
000270 28 c4 0b bc a3 70 74 39 a0 30 98 3d 1c e4 b2 3c
       -0.008530654 0.00023311614 0.074311495 0.021837287
000280 a2 c4 d3 3d b4 31 38 3c 00 5d 82 3c ed 63 e2 bc
       0.10340239 0.011242319 0.015913486 -0.027635539
000290 8a 48 87 bc 43 28 15 bd 89 93 40 bd 4a e3 01 bc
       -0.016514082 -0.03641535 -0.0470157 -0.007927725
0002a0 7c 96 b7 bc 0e 07 c9 3c 65 25 97 bc 58 8d d5 3b
       -0.022410624 0.024539497 -0.018450448 0.0065170936
0002b0 c9 fd 42 3c 55 d6 18 bd 60 58 02 bc 2c aa 2d bd
       0.011901327 -0.037313778 -0.007955641 -0.042398617
0002c0 0e df 20 3c ab db 1f bc 93 a6 b3 3d 6c 00 0c 3c
       0.009818805 -0.009756963 0.08772006 0.008545022
0002d0 2f 33 c1 3d 87 ef 43 bd d6 94 77 3c 5c 48 86 bc
       0.094335906 -0.047835853 0.015111169 -0.016391926
0002e0 af fb 8a 3d 0c 1f 88 bc 67 f9 05 bd c7 e2 60 3d
       0.06786286 -0.016616367 -0.03270855 0.05490377
0002f0 6d c4 1a bd 58 27 05 3d c7 e4 18 3c 75 f1 5f bc
       -0.037784982 0.032508224 0.0093318885 -0.013668408
000300 5f 3e 72 3b d4 c7 a1 bc 21 d2 85 3b 76 05 60 3c
       0.0036963446 -0.019748606 0.004083887 0.013673177
000310 c7 84 8d 3d 73 44 ba bb 33 b5 8d bb 38 c3 8b 3d
       0.06910091 -0.0056844293 -0.004324579 0.068243444
000320 bc 02 69 bc 82 bb 89 bc 9a 0b 3c 3c fe 30 95 bc
       -0.014221843 -0.016813044 0.011477375 -0.018211838
000330 20 57 b5 3d cc df a2 3d 79 b5 4a bd c9 a5 d2 bc
       0.088545084 0.07952842 -0.049489472 -0.025713818
000340 33 90 73 3d 41 41 c0 bc ab f4 99 bc fd e9 af 3d
       0.05946369 -0.023468615 -0.018793425 0.085895516
000350 c1 0f 9b 3d a0 10 41 bd 88 b2 8b 3d e5 dd 88 3c
       0.07571364 -0.047134995 0.068211615 0.01670737
000360 aa 4e 00 3d 65 61 13 bc 79 ab e3 bc 41 c3 b1 bc
       0.03132502 -0.008995389 -0.027791725 -0.02169955
000370 df 41 8e 3d bf da 01 bd 29 48 ed 3d 0b e7 a0 bc
       0.06946158 -0.031702753 0.11586029 -0.01964142
000380 7e 1d 11 3d d5 6e b7 3d 1e ed f3 bc 3c 0e 97 3d
       0.035428517 0.089566864 -0.029776152 0.07375762
000390 7d b1 80 3c 40 89 9e 3d 5f 94 85 bc 97 26 88 3d
       0.015709633 0.07741022 -0.0163061 0.066479854
0003a0 da e6 0a bb e1 2e e7 3c 95 53 8b 3d 1b 07 8d 3d
       -0.0021194727 0.028220596 0.068030514 0.06886121
0003b0 7c d1 23 bd bc 8d b0 bc 90 24 a1 bc f9 64 f9 3c
       -0.0399947 -0.02155196 -0.019670755 0.030443655
0003c0 ec c6 88 3d c1 25 a8 bb 7a d9 75 3d 9a 64 c3 3c
       0.06678566 -0.0051314537 0.060021855 0.023851682
0003d0 95 bd 20 bd d5 e3 2e 3d 87 4d 5d bb eb 23 44 bc
       -0.0392433 0.042697746 -0.0033768134 -0.011971454
0003e0 4e 31 74 3d 6a 2b bd 3c 82 dc 95 bc af f3 f5 bc
       0.059617333 0.02309199 -0.018293623 -0.030023424
0003f0 e5 b5 da 3d fe d9 02 bd a4 d3 4b bd 50 3c 35 3d
       0.10679225 -0.031946175 -0.049762383 0.04424697

fc3.bias f4 [40]
000000 5c e8 77 3b 25 32 5f 3b f8 e3 5a 3c cf b1 ab 3a
       0.0037827706 0.0034056988 0.013360016 0.0013099256
000010 f8 54 fd 3b e4 ea e0 3c 78 53 3e bb c1 b2 cd ba
       0.0077310763 0.027455755 -0.002904145 -0.0015693532
000020 56 9b c4 3b bd 4f 8b bb aa 63 ff 3b 0f 7b 90 3a
       0.005999963 -0.004251449 0.0077938633 0.0011023002
000030 72 15 de bb 2b 37 8c bb 96 e7 56 3c 2b f8 89 3b
       -0.006777459 -0.0042790375 0.013116738 0.004210492
000040 22 5b 1e 3c 63 c3 2f bb 1a 4d 5e 3c af 28 83 3a
       0.009665282 -0.002681934 0.013568187 0.0010006631
000050 91 c4 bd 3a d4 2c 3d 3c f5 d2 72 3c 9e da db 3b
       0.0014478137 0.011546332 0.014820804 0.006709411
000060 8c 07 57 3c e8 02 c5 3b 5b 9b f0 3b 5c 4b 3b 3b
       0.013124358 0.0060123093 0.0073427386 0.0028578853
000070 5d af 30 3c 56 7d a2 ba 18 18 01 3c 2c 1e 11 bb
       0.010783997 -0.0012396972 0.00787928 -0.0022143228
000080 30 64 7a ba d4 34 36 3c 02 c5 66 3b b1 9b 6b 3b
       -0.0009551672 0.011120994 0.003521264 0.0035950954
000090 16 aa 08 3c b2 fd 24 3a 34 1d a0 3c 3f 28 d8 3b
       0.008341333 0.0006293907 0.019545175 0.0065965946
