outfiles/cnn/ORL64_8Train_cnn.pth (torch, 613695 bytes, 10 tensors)

conv_layer1.weight f4 [16, 1, 5, 5]
00000000: 5793 5ebd f10a 753e 09ad 783e 7025 f13d
00000010: d054 d8bc 1771 933d 4a8c 613e 5940 2b3e
00000020: 7126 dabc b2da b1bd 53f0 6dbd de59 aa3d
00000030: 3e6f 6c3d 6b70 97bd e762 28be ffc0 ed3c
00000040: 4092 d33d e3dd eebd b2ab 1ebe 324b 06be
00000050: cba6 fbbd 9fe9 e43c a719 b4bd fafe 25be
00000060: 54aa b5bd 9876 bf3a 9e22 853b 805f 50bb
00000070: 59ba 4db9 2cec db39 a603 5fbc 710a 873b
00000080: 1c20 24bb 62a6 1536 16c2 d4ba 4ad1 9839
00000090: 0563 57bc 1acd 163b 889f ce3b 52e1 4938
000000a0: ef61 0ebc 68a6 83bb 77d1 83bb ea02 c83b
000000b0: f9c5 fab7 ff6e fbb9 c6f2 adbb c895 433b
000000c0: 478b f73b 5cc0 14bc a3a7 b4bc a070 663c
000000d0: 9115 333c 49ed 0b3b 9d09 daba 8f1e 8fbc
000000e0: 6503 233b af14 663d 8dcf 333d cd21 083c
000000f0: 4403 483d df64 583d 1c9c 953d 9238 cd3c
00000100: b8fb 653c a1ea 763d 5794 8d3d a3b2 af3d
00000110: b6a9 4b3d 0d49 73bc 7929 523d 92e0 0e3d
00000120: 6c5b 343d 444a df3c cf1a 3bbc 5128 12bc
00000130: cc0c cb3b 5bb7 8abb 5569 8abb b5af c83b
00000140: ab2a 0fbb eed1 38bc c9d8 28bc 0822 a5ba
00000150: 2cf1 df3b ea33 3fbb c5a6 423a cc33 d2bb
00000160: 1573 f4bb 1f20 253b 4e39 c43a d877 903a
00000170: 1c92 c2bb 2750 653b 42c7 1fbb 39d8 243b
00000180: 45c0 34bb ef16 5ebb ffcb ce3b 502e 82bb
00000190: c4f2 663d 390a b13c 3c28 903d 7d80 b33d
000001a0: 4fab aa3d 7da8 1a3d f368 713d 5484 9d3d
000001b0: 1c6a d53d 3466 923d 8070 bf3c e83c 1b3c
000001c0: 7f1d 823d 10db af3d 96bd c03d 0a17 8d3c
000001d0: 90e6 573c 8488 653d 5761 913d be3f 5b3d
000001e0: 023f 11bb da52 a9bc eb64 b4bc 2c99 97bb
000001f0: e0ff 21bb df3a 0cbe 683c 52be 7112 28bd
00000200: 49b3 113e 3265 5e3e cbac 43be 7786 0dbe
00000210: a9e8 523c 721b ca3d fc49 603e b94c 76be
00000220: 16b7 cabd a4f5 c53b 1972 b03d 8111 373e
00000230: f263 42be 1a22 fabd 4752 f23d a500 493e
00000240: 2306 443e e5bb 24be c509 1bbe 5d5d dd3d
00000250: 6121 2e3e fada 843d 1572 b2bd f887 a7bd
00000260: 34a7 5a3d 9e6b e03d 7d0b 033e 8e0a 183d
00000270: 31f5 bbbc 4931 b5bd 2614 b2bc 6566 fd3d
00000280: f1a3 8b3d b741 5ebd 1c60 0abe fd0a f1bd
00000290: f813 ffbc 88dd b33d 4fc6 a03d 612c b9bc
000002a0: 73c8 2cbd cd88 15bb 7f2a 813d 213a 163c
000002b0: 5060 d53c 235f 9cbd d0b4 b7bb 36b8 19bd
000002c0: b40e b23c 180b 02bb e84b e43c 3b3d f03b
000002d0: 83f2 b2bc 4312 933b 366d 093d 361d 623c
000002e0: 48ea a9bb b44b 1bbd 759d a93c 4188 5cbb
000002f0: 5055 e53c 34a7 38bb 5d5c d73b 52dc d73c
00000300: 1661 b33c 0930 d63c 31b4 143d fc2a 3ebc
00000310: 0c9a 8a3c 7d2a 473b dd2a ee3c ecf6 27bb
00000320: 3892 b5bc de10 41be 3868 3fbe bcf4 7c3d
00000330: 1039 183e 54a5 b7bc 799f 22be 1941 c2bd
00000340: ee7b 0a3d 2b20 203e ec25 bbbd 8cc6 1cbe
00000350: 7c69 f3bd cd73 0b3e dd4a 773e 9282 2ebd
00000360: c5b0 23be 5079 68bd 6f5a 2f3e 7a4e 1a3e
00000370: 1bfa 67be f187 28be 68f7 4b3d f0c6 013e
00000380: f661 dc3d ded2 04bd 0ac3 903d 5d20 e03b
00000390: 0124 093e fa21 483e 3005 3f3d eee3 c0bc
000003a0: 9e66 b33d 4c14 113e fb57 0b3e 4b2e 0b3e
000003b0: 7667 80bb 8f41 253c 8a52 9dbc 8d0b 41bd
000003c0: 85ee ec3d 364b 8f3d 2759 04bd a8be 41be
000003d0: 0e74 38be d8ad 113d 981c 98bd 4f42 4bbe
000003e0: 0133 44be 3957 5fbe 3863 91bd 8e49 cabd
000003f0: e47b 96bd 1aef 603d 36aa dcbd c118 f63d
-0.054339733 0.23929955 0.24284758 0.11774719 -0.02640763 0.071993046 0.22026172 0.16723765
-0.026629658 -0.08684291 -0.05809052 0.08317922 0.057723276 -0.07394489 -0.16443978 0.029022692
0.10330629 -0.11663415 -0.15495184 -0.13114622 -0.122876726 0.02794343 -0.08793955 -0.16210547
-0.08870378 0.0014607487 0.0040629646 -0.0031795204 -0.00019619743 0.00041946897 -0.01361171 0.0041211178
-0.0025043553 2.2299578e-06 -0.0016232159 0.00029147632 -0.013146167 0.0023010434 0.0063056387 4.813198e-05
-0.008690341 -0.00401764 -0.004022773 0.006103863 -2.989451e-05 -0.0004795715 -0.005308482 0.0029843915
0.007554445 -0.009079065 -0.022052592 0.014064938 0.010930435 0.002135115 -0.0016634945 -0.017470626
0.002487385 0.05617207 0.043899108 0.00830884 0.04883124 0.052830573 0.07305166 0.025051389
0.014037065 0.060282353 0.06913059 0.08578994 0.049722396 -0.01484896 0.051309083 0.034882136
0.0440325 0.027257092 -0.011419966 -0.008920745 0.006196594 -0.0042332835 -0.0042239823 0.0061244615
-0.00218455 -0.01128052 -0.010305592 -0.0012598643 0.00683417 -0.002917523 0.00074253633 -0.006414866
-0.007460008 0.0025196148 0.0014970691 0.0011022044 -0.0059378278 0.0034990401 -0.0024380242 0.0025153293
-0.0027580422 -0.0033888181 0.0063109393 -0.003972806 0.056383863 0.02161132 0.07038924 0.087647416
0.08333456 0.03775834 0.058937978 0.07691255 0.104206294 0.071484 0.023369074 0.00947497
0.06353282 0.08586705 0.09411161 0.0172229 0.013177529 0.056038395 0.07098644 0.053527586
-0.00221628 -0.02066939 -0.022020778 -0.004626414 -0.0024719164 -0.13694333 -0.20530856 -0.041033212
0.14228548 0.2171829 -0.19108884 -0.13820826 0.012872853 0.09868516 0.21903223 -0.24052705
-0.09898202 0.0060412455 0.086155124 0.17877771 -0.18983439 -0.122135356 0.118320994 0.19629152
0.19142966 -0.16087301 -0.15140446 0.10808823 0.1700492 0.06487079 -0.08713166 -0.08180231
0.053382114 0.10958026 0.12797351 0.03711944 -0.022944065 -0.08847291 -0.021738123 0.12373046
0.06818379 -0.05426189 -0.13513225 -0.11769674 -0.031137452 0.08782488 0.07850324 -0.02260417
-0.04218335 -0.0022817135 0.063069336 0.009169132 0.026046902 -0.076353334 -0.0056062713 -0.037529193
0.021735527 -0.0019843038 0.027868226 0.007331518 -0.021844154 0.004488261 0.033551417 0.01380091
-0.005185399 -0.037913993 0.020704964 -0.003365055 0.027994782 -0.0028175833 0.00657229 0.026350174
0.02189688 0.026145952 0.036304656 -0.011606928 0.016919158 0.0030390315 0.029073173 -0.0025629355
-0.02216445 -0.1885409 -0.186921 0.061756834 0.14865518 -0.022417702 -0.15881146 -0.09485073
0.033809595 0.15637271 -0.091380924 -0.15310115 -0.11885354 0.13618393 0.24149652 -0.04260499
-0.15985401 -0.056756318 0.17124341 0.15068999 -0.22654001 -0.16458108 0.04979649 0.12673545
0.10760872 -0.03242766 0.07068451 0.0068397955 0.1339264 0.19544211 0.046635807 -0.023546185
0.08759807 0.14167899 0.1360778 0.13591878 -0.0039185835 0.010086431 -0.019204397 -0.047130156
0.115689315 0.06996767 -0.032311585 -0.18920386 -0.18013021 0.03556618 -0.07427329 -0.19849513
-0.19160081 -0.21810617 -0.070990026 -0.09877311 -0.07347849 0.054915525 -0.10774653 0.1201644

conv_layer1.bias f4 [16]
00000000: 3452 8d3b e81a 303b dc92 7e3a 8dcb 453b
00000010: ceb1 a53a ed17 1fbc ff18 ca3a 9358 263a
00000020: 3639 3f3c 737b 03bc 8618 89bb 910a 6ebc
00000030: 36a8 afba 6fc8 413a 867f 94ba 31c7 8fbb
0.004312778 0.0026871506 0.0009711215 0.003018114 0.0012641491 -0.009710294 0.0015418826 0.0006345596
0.011671355 -0.008025038 -0.0041838316 -0.014528886 -0.0013401571 0.00073922327 -0.0011329509 -0.004387759

conv_layer2.weight f4 [32, 1, 5, 5]
00000000: e66f 72bd 139d 9dbd 770d 65bc 1775 563b
00000010: 7645 03be 98c5 17bd 35cf dbbd 32fc 8a3c
00000020: 5113 4b3c 274e 16be e8ec a1bc 37da bfbd
00000030: 49d7 073e cf53 963e e1d5 55bd 00a6 463b
00000040: 47e9 cbbd 24c3 1e3e 4a86 8f3e b6f3 14bd
00000050: 624d cfbc f4ec 5bbd d97e f23d 6732 a33b
00000060: 3430 c6bd d67f a63b a3ec e6bd 0491 45bc
00000070: 1b2e 3c3d b83d 8f3d 4165 b5bd b457 c6bd
00000080: 3bd7 5a3d 060b e33d 5015 0a3e 1177 4fbd
00000090: f674 9abd 7dc1 123d 96ab d33d 567d 253d
000000a0: 4499 373d 5897 71bd 0500 8d3c c266 503c
000000b0: 3d92 a9bc 5aef b63d 5e2a 52bd fe23 79bd
000000c0: 5776 83bd 2bb2 cdbb 2ec0 25bc e529 e73b
000000d0: c46e 31bc 7363 093b a0f5 25bc 2abf 873b
000000e0: 4859 b5bb b21b 2e3b 49c3 2abb bf2e ba3b
000000f0: 0140 75bb 17e4 513c 18fb 143b 27c6 21bc
00000100: ba67 19bc dce8 00bc 4c48 48bc 6f4f d33a
00000110: d54f ec3b 09e6 783b 21b0 ee39 d0f0 c63b
00000120: 7285 b5bb 8fec 0e3c 0f2f 2e3c 5ed8 f638
00000130: 2b55 8dbb 9bfd c33b 7ed2 d4bb 4142 bb3b
00000140: 7601 263c 7a72 ebbb 40ae 48bc ed9b 063c
00000150: a558 f03b 08cd 19bc 7c4c 75bb 453b 3d3c
00000160: a5d1 e9bb 85c1 0f3c 0ef5 3cbc 14a0 6e39
00000170: 37c9 9b3b a6b5 ccbb 5406 8fbb bb1f 493c
00000180: 9e1d 4cbc c501 173c a876 1abc f647 99bb
00000190: b753 97bd be57 f73c eed8 2ebd 6d68 5ebd
000001a0: 51b8 993d b26f 61bd cf38 24be b86e 753c
000001b0: 4238 a93d b383 223e d36c a4bd 48b6 02be
000001c0: 8f7e ebbd 5fdc a63c 4b8e 383d 85d6 143d
000001d0: c3b0 ddbb 87ce 863d 4d30 2f3d bc2e 21bd
000001e0: 774a 53bd cf76 49bd b168 c03d 96d9 883d
000001f0: f221 af3d 0ec2 1e3b b1fc 5dbc d0ee c73b
00000200: 63b1 4dbc dad6 453c cc7f 6cbb 8085 f4bb
00000210: 1957 ac3a 990a b1bb 8537 46bc c262 703b
00000220: 9a00 693b 0700 8b3b 68b8 b53a 5266 933b
00000230: 83ec 02bc b1c4 2ebc 725d 21bc 630a 6b3b
00000240: a91e 9dba 8fad 393c c733 963b 17e3 55bc
00000250: 72fb 7b3b ecfb 5cbb 44c7 2abc 776c b0bb
00000260: 939b d1bb 5941 c4bb 5021 01bc 2bcd 1e3c
00000270: 8fb6 433b e16c 9ab9 5673 20bc 1e8a 36ba
00000280: 19c2 073c b85b 093c ca03 003a 75e3 0e3c
00000290: dab8 12bb 48e8 a03a be47 a43b fc79 123c
000002a0: 063d a83b dc5c 5b3c 6e99 8e3b f319 393c
000002b0: fb19 023c 9245 94bb 4f3f 803a a8d1 28bc
000002c0: 7d00 153c 920c 09bc e215 f9bb 9b60 cdbb
000002d0: 36a4 19bb 519c bbba a0cd 323c b2c9 de3b
000002e0: 057a 14bb 9522 d6bb e1fb 89b8 8e20 58bc
000002f0: 6d58 513b ff2d 3e3c a517 38ba be32 623b
00000300: 3944 c33b a726 643b 6b85 e53b f000 953b
00000310: d7a1 46bc 862f 06bc 5117 133c 662c 2a3c
00000320: 37a5 943d 98af cfbd df74 41bd 93ae 09bd
00000330: 565e a43d b1c6 a9bd e8aa 9fbd ac76 d4bc
00000340: 5188 993d f496 87bd afa0 ad3d 1bd6 99bd
00000350: 987f 29be 9781 513d c359 00be 6c3a 6ebb
00000360: 2fba f43d fb61 b1bd a14d 51bc 025c 2dbd
00000370: 9ead 323e 8567 303e 66a3 4e3d a057 9ebd
00000380: d63d f73b 5cf6 72bc 6f6b ec3c de89 a63b
00000390: 42ab b1bc 89c4 a7bd 1b8a 053d ccaa 65bd
000003a0: cbf3 27bd 6562 10be 27bd 18be 58c7 6abc
000003b0: 1892 403d 83a3 01be e988 12be 2e7c cebc
000003c0: 541c 3dbb f2e3 7d3d e3bd 983d 5135 df3d
000003d0: c550 babd 7f93 103e 0670 183e 6284 733d
000003e0: 8041 40bb 8cb7 bb3d eae1 01be c591 26bd
000003f0: 0c5f 6abd 4f24 16be ca26 443e 4cd9 9a3d
-0.059188746 -0.07695975 -0.013980261 0.00327236 -0.12819466 -0.037053674 -0.10732881 0.01696596
0.012394742 -0.1467825 -0.019766286 -0.09367793 0.13265719 0.29360816 -0.052205924 0.0030311346
-0.099566035 0.15504128 0.28032142 -0.036365233 -0.025305454 -0.053692773 0.118406005 0.0049803737
-0.09677163 0.005081157 -0.112756036 -0.0120585 0.045942407 0.06994194 -0.08857203 -0.09684697
0.053427916 0.11086087 0.13484693 -0.05065066 -0.0754184 0.035829056 0.10335462 0.040402733
0.0448239 -0.058982223 0.017211923 0.012719812 -0.020699615 0.089323714 -0.051309936 -0.06082534
-0.06419056 -0.006277343 -0.01011662 0.0070545548 -0.010829631 0.0020963817 -0.010129362 0.0041426616
-0.005534325 0.00265668 -0.002605634 0.005681842 -0.0037422183 0.0128107285 0.0022732671 -0.009873903
-0.009363109 -0.007868018 -0.012224268 0.0016121696 0.007211665 0.0037978909 0.00045526124 0.0060711876
-0.0055395896 0.008723392 0.010631337 0.000117704956 -0.0043131313 0.00598116 -0.006494819 0.005714685
0.010132184 -0.0071852775 -0.012248576 0.008215887 0.007334786 -0.009387262 -0.0037429621 0.0115497755
-0.0071355873 0.008774166 -0.011533035 0.00022757082 0.0047542113 -0.00624724 -0.004364768 0.012275632
-0.012458233 0.0092167305 -0.009427704 -0.004677768 -0.07389014 0.030193206 -0.04268735 -0.054298807
0.07505859 -0.05503816 -0.16037296 0.014980011 0.082626835 0.15870552 -0.08028569 -0.12764847
-0.114987485 0.020368753 0.045057576 0.036337394 -0.0067654564 0.06582361 0.042770673 -0.03935121
-0.051584687 -0.04918557 0.09394968 0.06682126 0.085513964 0.0024224552 -0.013549016 0.0061014667
-0.012554499 0.01207515 -0.0036086915 -0.0074622035 0.0013148516 -0.0054028747 -0.012098198 0.0036679958
0.0035553337 0.0042419466 0.0013864161 0.0044982815 -0.007990959 -0.010667012 -0.009848939 0.0035864345
-0.0011987287 0.0113328835 0.004583809 -0.013054631 0.0038449434 -0.0033719493 -0.010423485 -0.0053840238
-0.0063967197 -0.0059892354 -0.0078814775 0.009692471 0.0029863452 -0.0002945429 -0.009793123 -0.000696333
0.008286023 0.008383684 0.0004883377 0.008721222 -0.0022388012 0.0012276256 0.005013435 0.008940216
0.0051342277 0.013388839 0.0043517863 0.011297691 0.007940765 -0.004524895 0.0009784492 -0.010303892
0.009094355 -0.008364813 -0.0076014856 -0.00626762 -0.0023443825 -0.0014313554 0.010913283 0.0067989463
-0.0022655737 -0.006534884 -6.579585e-05 -0.013191355 0.0031943575 0.011607646 -0.0007022566 0.0034515108
0.0059590605 0.0034813078 0.00700443 0.004547231 -0.012123547 -0.008190041 0.008977727 0.010386562
0.07258075 -0.10140914 -0.047230598 -0.033613753 0.08025806 -0.082898505 -0.0779627 -0.025935493
0.074967034 -0.06620589 0.084779136 -0.075115405 -0.1655258 0.051148977 -0.12534241 -0.003635074
0.11949574 -0.086612664 -0.012774856 -0.042324074 0.17449042 0.1722699 0.050448798 -0.07731557
0.007545213 -0.014829244 0.028859822 0.005082353 -0.021688107 -0.08191783 0.03260241 -0.056071088
-0.041003983 -0.14100035 -0.14915906 -0.014329754 0.047014326 -0.12660031 -0.1431004 -0.025205698
-0.0028855996 0.061984964 0.07458093 0.10898841 -0.09097437 0.14118765 0.14886484 0.059452422
-0.0029335916 0.09165868 -0.12683836 -0.04066636 -0.05721955 -0.14662288 0.19155422 0.07560977

conv_layer2.bias f4 [32]
00000000: b589 ddbc ea59 e5bb e280 5e3a 00a1 58bb
00000010: 4639 2abc deff a13b 6da9 47bc e927 87bb
00000020: 4100 583b 48b7 3fbc 4702 93ba 1226 2c3b
00000030: 1de2 1dbc 993e a4bc d302 063c eb77 dfbb
00000040: 7bd5 d5bc baec 06bd 411f 97bc f5a1 fbbb
00000050: 6f11 97bb 5008 6bbc fffc fcbb 57cd 6abc
00000060: db5e 44bc 3386 08bc 01a8 433a 2eb2 adbb
00000070: cc30 193c d2d3 abbb 8ddb 93bc ea1a 59bb
-0.027043203 -0.006999244 0.0008487833 -0.0033054948 -0.010389632 0.004943832 -0.01218639 -0.0041246307
0.0032959136 -0.0117014125 -0.0011215889 0.002626781 -0.009636429 -0.02004938 0.008179384 -0.0068197153
-0.026102772 -0.032940604 -0.01844752 -0.007679219 -0.0046102325 -0.014345244 -0.007720589 -0.014331183
-0.011985506 -0.008332777 0.0007463694 -0.0053007817 0.009350013 -0.005243757 -0.018049026 -0.0033127614

fc1.weight f4 [120, 1152]
00000000: e9e9 683c 7e55 c83c c8d6 e1ba 43da 3bbc
00000010: 732a 97bc 5cd5 893b d2cf 3d3c 1941 6e3b
00000020: 14ab 3f3c 9abf 463c fdce 113d 7fe1 0c3d
00000030: 2d02 98bb b81a 18bc 8982 2b3d 0c84 7f3b
00000040: 9b98 063d 66cf 123c 6102 18bc 8ff2 6cbb
00000050: aec5 7a3b 20d9 49bc 0657 1d3b 5407 a6bc
00000060: 360e 13bc 68d4 ae3c e456 bebb 01ac 3ebc
00000070: 62a8 5dbb ab0f 18bb 2360 6cbb a1b0 9f3b
00000080: ec89 04bb ca30 5e3a 55e8 8b3c 48b6 a83c
00000090: e730 9fba 4b7b a03b 675e 9739 f3a4 06bb
000000a0: 78d6 d3bb 0757 b3bc 0c90 383c cde4 a33b
000000b0: 2e3b 28bc 5466 58bc ac59 453a b26a 1cbc
000000c0: 968b d7ba 9bd1 1ebb 206c 4d3c c5b5 c6bb
000000d0: 5f81 a73c 1148 adba 0a40 413b 96dd 02bc
000000e0: b848 463c 0d91 6dbc 5918 3d3c 185b 27bc
000000f0: 57f0 44bc a70a a4bb 0a9c a83b 18f7 20bc
00000100: 34e2 17bc b2ce 8fbc c8b7 e13a 08c0 253b
00000110: a307 2abc 45f4 e8ba 0e72 0b3b 66dc 20bb
00000120: 6cb8 893a e7eb 6f39 20f9 553a 32e6 9d39
00000130: 328f 5cba 0a90 01bb 5c88 6d38 fdd9 c5ba
00000140: ce80 af3a a87c 4e39 406b a639 e007 b3ba
00000150: fe13 1638 6fba adba 701d e3ba 4c70 503a
00000160: 794f 96ba bf3c 4fb9 da10 faba 4fb2 ebba
00000170: 8bfc 9d3a d4f5 f83a 7a46 cc3a 0928 953a
00000180: a5e7 f3ba 5f87 f5b9 6b84 bb3a 7ba9 c03a
00000190: 18e0 beba 5cfc cf3a 6a4c 8c3a 8223 2fba
000001a0: 0ab2 a3ba 1b68 ba3a d797 7cba 08bf 01ba
000001b0: cd53 b33a 6414 a63a 382f dfb9 aae1 61ba
000001c0: a1a8 8cba e282 bb3a cb59 9537 e421 cc39
000001d0: ee7e 39ba 80af 093a 76c4 9438 6cd4 17ba
000001e0: 9983 d739 6849 013a 2e09 e73a 32bf b839
000001f0: 77b8 fdba 7374 d4ba 6539 adba 6917 2e3a
00000200: cbd0 fbba d0a5 2e3a 91ca 0f39 6111 0e3a
00000210: fbc1 1d3a aea2 cd39 12da c33a c8cb a2ba
00000220: a7e0 103a d600 8839 3523 a73a eaa5 96ba
00000230: 615f b33a 2da1 653a a515 f33a 3c18 daba
00000240: 3ac7 1f3c 999f aa3b 03f5 2d3b 32e3 eb3b
00000250: 22be e8ba 0fb3 5ebb 6b9d 983c 662e 6cbb
00000260: 1250 f239 17e4 983b b33a 61ba 84f1 09bb
00000270: c961 293c 17a3 f9ba efd2 1cbb 3a67 793b
00000280: 9788 8b39 84d2 943a c910 2e3c e082 88ba
00000290: f4c6 743a 272d 8f3b 07a7 913a 18ac e539
000002a0: 9eac 8a3c a89d 06bc 03f0 c3bb c78f cb3b
000002b0: 4a08 073a 5ecf 73bb db7e b43c f6c8 96bb
000002c0: 2a5f a2bb 64d3 a83b 601e 0d3b eb24 88ba
000002d0: 2593 f939 b4f4 ef3a 9816 42ba c47b 8cba
000002e0: fc35 953a d346 efba 08be 2fba d78d ffb9
000002f0: 44d4 5038 d3e5 beba ef11 f4ba bf55 2539
00000300: 610c 8d38 3561 493a d01c cd3a e674 163a
00000310: 7124 db3a 908d a1ba 3bbd 9dba f6d9 8a3a
00000320: 5bd4 433a 76ad 8c3a 40a0 efb6 6a65 abba
00000330: 2d61 f43a 3003 a9ba 57a1 e4b9 9f85 4b3a
00000340: 1f95 b3ba b6b4 d639 9054 833a 9b07 0e3a
00000350: 9724 343a cdf6 c3b9 6c89 a6ba bb53 f43a
00000360: 59f3 f2ba a4c7 8c3a 01a1 743a 0f7d f43a
00000370: 4d9a c13a a713 513a bcfa 1fba 110f 9f3a
00000380: 3080 2cb9 8f54 86ba 7851 2139 d27f a9ba
00000390: b8ca 1a36 aa18 54b9 9d8b beb9 c3e1 3eb9
000003a0: 78b6 e3ba ec4e 69ba a8f8 2f3a 505e 0639
000003b0: abd0 e737 1c31 9e3a 2691 e83a 9679 513a
000003c0: 1b2e d6ba 7d6c 833a 62ae 65b8 51a0 8bba
000003d0: ddfa bd3a 1f16 913a 5d7e bd3a 9713 c1b8
000003e0: 52d3 9bba ff9e a2b9 61ea 7dba 250c 3a39
000003f0: ae27 3cb8 79bb dcb9 2692 34ba d7c3 5e3a
0.014215925 0.024454828 -0.0017230147 -0.011465612 -0.018452859 0.0042063426 0.011585193 0.003635472
0.011698503 0.012130642 0.03559779 0.034394737 -0.0046389312 -0.009283714 0.041872535 0.0038988618
0.03286038 0.00896058 -0.009277911 -0.0036155318 0.00382648 -0.012319833 0.002400817 -0.020267166
-0.008975556 0.021341518 -0.005808698 -0.011637689 -0.0033822288 -0.0023202698 -0.0036068044 0.0048733507
-0.002022381 0.0008475898 0.017078558 0.020594731 -0.0012145311 0.00489751 0.000288713 -0.0020545095
-0.0064647757 -0.021892084 0.011264812 0.0050016404 -0.010268016 -0.013207991 0.0007528316 -0.0095469225
-0.0016444798 -0.0024233821 0.012537986 -0.006064149 0.020447431 -0.001322033 0.0029487633 -0.0079874005
0.012102298 -0.014499915 0.011541449 -0.01021459 -0.012020192 -0.0050061527 0.0051455544 -0.009824537
-0.00927024 -0.017554615 0.0017220909 0.0025291461 -0.010377797 -0.0017772993 0.0021277699 -0.002454543
0.0010507233 0.00022880697 0.00081624277 0.00030116882 -0.0008413672 -0.0019769692 5.6632198e-05 -0.0015094873
0.0013389827 0.00019692129 0.00031741895 -0.0013658963 3.5781406e-05 -0.0013254414 -0.0017327499 0.0007951304
-0.0011467776 -0.00019763688 -0.0019078508 -0.0017982217 0.0012053413 0.0018994161 0.0015584968 0.0011379729
-0.0018608464 -0.000468309 0.0014306431 0.0014698947 -0.0014562635 0.0015868056 0.0010703926 -0.00066810113
-0.0012488973 0.00142217 -0.0009635663 -0.00049494253 0.0013681591 0.0012670872 -0.00042569055 -0.00086166954
-0.0010731408 0.0014305974 1.7803997e-05 0.00038935163 -0.0007076104 0.0005252287 7.093784e-05 -0.0005791846
0.00041106043 0.0004931898 0.0017626637 0.00035237666 -0.0019357343 -0.0016209021 -0.0013215957 0.00066410616
-0.0019212005 0.0006662281 0.00013713005 0.000541946 0.000601798 0.00039221853 0.0014942309 -0.0012420351
0.000552664 0.00025940564 0.0012751581 -0.0011493538 0.0013685041 0.0008759674 0.0018545879 -0.0016639302
0.009752089 0.005207014 0.0026543743 0.0071987147 -0.0017756859 -0.003398124 0.01862975 -0.0036038398
0.00046217494 0.0046658623 -0.0008591816 -0.0021048496 0.010338255 -0.0019045797 -0.0023929437 0.0038055913
0.00026613913 0.0011354242 0.010624119 -0.001041498 0.00093375077 0.0043693963 0.00111124 0.00043806504
0.016928013 -0.008216299 -0.0059795394 0.006212208 0.00051510765 -0.0037202458 0.022033146 -0.004601593
-0.004955192 0.005152153 0.0021532997 -0.0010386979 0.00047602612 0.001830718 -0.00074038794 -0.0010718037
0.0011383886 -0.001825536 -0.0006704037 -0.0004874307 4.9788752e-05 -0.0014564343 -0.0018621067 0.00015767569
6.72571e-05 0.00076820265 0.0015648846 0.0005739465 0.0016719234 -0.0012325514 -0.0012034544 0.0010593522
0.0007470303 0.0010732848 -7.1414106e-06 -0.0013076488 0.0018644683 -0.0012894627 -0.00043607756 0.00077637465
-0.0013701058 0.000409519 0.0010019708 0.00054180034 0.00068719074 -0.0003737718 -0.001270575 0.0018640676
-0.0018535658 0.001074065 0.0009331853 0.0018652993 0.0014770717 0.0007975646 -0.0006102731 0.0012135227
-0.00016450952 -0.0010248589 0.00015384506 -0.001293177 2.3065786e-06 -0.00020227084 -0.00036343644 -0.00018203915
-0.0017373106 -0.0008900005 0.0006712773 0.0001281437 2.7634514e-05 0.0012069079 0.0017743453 0.0007990835
-0.0016340645 0.0010026839 -5.476026e-05 -0.0010652636 0.0014494319 0.0011069215 0.0014457215 -9.206606e-05
-0.001188854 -0.0003101751 -0.0009686109 0.00017742866 -4.4859647e-05 -0.00042101348 -0.0006888233 0.00084978103

fc1.bias f4 [120]
00000000: 41dc e7b9 21ba f8ba af1f 87ba 9975 bbba
00000010: ad9d ecba 324a b43a 476d bd3a 890c 17bb
00000020: 0452 3fbb 582e 863a 1eff ae39 a714 a8b8
00000030: ed7d 6e39 3763 c6ba 7cf8 41ba 387f 7cbb
00000040: 6c4b 4fb9 137e 27bb 2301 0cba da55 a8ba
00000050: 92dc 6fbb b3d1 f03a 1a8c 21bb 1a0c c239
00000060: 978c d3ba 1c33 2abb 2432 a03a b6b1 cf3a
00000070: eb33 f3ba 90c9 67bb 5e00 ceba 09e8 a83a
00000080: a349 02bb 6ae7 d1ba 1d99 60ba 1617 cbba
00000090: e1bd b6b9 04ec 303a 2ecc 91ba 94a0 3b3a
000000a0: 8f11 1cbb a0c3 97ba 1f95 32ba 3c7e c0b9
000000b0: 1a64 8c39 02b9 14bb ac50 3aba b250 38bb
000000c0: 6aff d83a d93f feba 7d2c a6b9 58b4 68bb
000000d0: 6c1f c439 b8c5 5fbb d7f3 37bb df08 05bb
000000e0: 0a3b b2ba 150f 25bb 5f6e d0ba b4cb ddb9
000000f0: 1ea2 d6ba 37f9 0f3b 2dc4 ccb8 7d19 22bb
00000100: a899 0d3a f66c e439 dd2c 433a f9dd 51bb
00000110: 502c e3b9 8ea7 c2ba 0ba5 07bb 6a08 16bb
00000120: b18d 9fba 7ffc 97ba 8838 88b9 37b4 4aba
00000130: 48fe b73a 73b9 8b39 a220 31bb 01b6 fdba
00000140: a3a7 5ab9 aafb 08bb e0c0 90bb 5305 e63a
00000150: be20 9fba f28b 38ba 43fd 06ba 1d5a c8b9
00000160: 6cb5 db39 485c da38 9fd7 123a ec90 943b
00000170: 121a 0fba c073 25bb c103 2abb cfb7 10bb
00000180: a848 96ba 3ce6 38bb 5ece 21b6 411f ed38
00000190: ba2a 13bb cdb3 7bba e642 0ebb 93aa bbb9
000001a0: 9828 9bba c645 5dbb 0475 ff38 a18d 12bb
000001b0: c0e8 35ba 543a d9ba b17c beb9 d6cd 273b
000001c0: 4d44 41bb 4222 d839 f44e 9ab8 ec47 e7ba
000001d0: 852f 69b9 ef06 d73a 3240 1e3a 0ba2 d6ba
-0.00044223855 -0.0018976369 -0.0010309125 -0.0014302015 -0.0018052362 0.0013755022 0.0014452123 -0.0023048243
-0.0029193172 0.00102372 0.00033377943 -8.014711e-05 0.0002274436 -0.001513577 -0.0007399393 -0.0038527977
-0.00019769155 -0.0025557324 -0.00053407456 -0.0012842969 -0.0036599976 0.0018373042 -0.0024650157 0.0003701158
-0.0016139921 -0.0025970405 0.0012221974 0.0015845809 -0.0018554901 -0.0035367943 -0.0015716662 0.0012886535
-0.0019880317 -0.0016014401 -0.00085677375 -0.0015494551 -0.00034855216 0.0006749036 -0.0011123472 0.0007157412
-0.0023814177 -0.0011578687 -0.0006812382 -0.00036715146 0.00026777462 -0.002269328 -0.0007107358 -0.002812427
0.0016555612 -0.001939769 -0.00031695134 -0.0035507884 0.00037407444 -0.003414495 -0.0028068924 -0.0020299477
-0.0013597917 -0.0025185992 -0.0015902034 -0.00042304175 -0.0016375219 0.0021968612 -9.7640186e-05 -0.002473443
0.000540162 0.0004356873 0.0007445345 -0.0032023175 -0.0004332983 -0.001485096 -0.0020697739 -0.0022893199
-0.0012172965 -0.0011595635 -0.0002598206 -0.00077325426 0.0014037574 0.00026650316 -0.0027027507 -0.001935661
-0.0002085255 -0.0020901957 -0.0044175237 0.0017549194 -0.0012140495 -0.00070398964 -0.0005149433 -0.00038214112
0.00041906105 0.00010412239 0.0005601588 0.0045338776 -0.0005458902 -0.0025245994 -0.002594218 -0.0022082215
-0.0011465745 -0.0028213402 -2.411099e-06 0.00011306862 -0.0022455887 -0.00096016825 -0.0021707355 -0.00035794507
-0.0011837659 -0.0033763512 0.000121811434 -0.002236225 -0.00069392845 -0.0016573169 -0.00036332526 0.0025604866
-0.0029490173 0.00041224255 -7.3579984e-05 -0.0017645336 -0.00022238314 0.0016405265 0.00060367875 -0.0016375197

fc2.weight f4 [80, 120]
00000000: 2bd4 14bd 109e 8b3c cf65 9b3c 0300 c33c
00000010: 1b9f 4ebb 9ec9 b7bc 0fad 263c 1151 06bd
00000020: 90e0 db3c 1d1e c3bc e58a bf3b 7ee5 753b
00000030: c8d4 b33b 3f7b f83c a796 01bd 6aaf 413d
00000040: 49df 93bb a4df d6bc 2701 9fbc d160 97bc
00000050: 1fe2 15bc 71e6 c23c dd7c 25bc 52a5 11bc
00000060: 4e79 b8bc bc48 81bc 5a28 3c3c 8542 0ebd
00000070: 9d18 1a3d a4f5 27bd 504a ac3b 2e7f a53c
00000080: 568f 96bb bc51 08bc 36ce cfbc 0dd4 f5ba
00000090: 0e2e 1d3d b56a f13c 4bdf 42bb 13ee eebb
000000a0: 5a64 3d3b 99f4 373c 5eaf 423b d2dd 57bc
000000b0: f4b5 753c 043e e0bb aba3 ef3a 735a 9cbc
000000c0: d09a 4b3d c9e8 3fbc 4f73 43bd 2a5e a8bc
000000d0: 5289 dd3b 71c5 36bc 1217 a6bc e5b9 c9bb
000000e0: 9f1f 503d 1192 e0bc 94b0 3a3c c746 aabb
000000f0: 54ee 913b 1113 f53b c39f a83a 3f0a 953c
00000100: d0ad 193d 5165 59bb 1c52 c1bc 1ae9 99bc
00000110: 3fd7 a83c 7b20 55bc 48fb 59bb be23 413d
00000120: e060 033d bc53 33bb 8ade c3ba 1b6f 28bd
00000130: ff4f afbb e656 c03c ba7e ef3c 0a1c 93bb
00000140: 87d2 343c f73d b43c 0313 b6bc 8931 e7bc
00000150: 0285 14ba 0bd4 7dbc c4a7 383d dfca 0cbd
00000160: ec68 35bb 7270 c6bc 7574 a13b c9e2 38bc
00000170: 52ab 113b 32db 53bc 4eb2 073c 98e4 053d
00000180: e653 4a39 a694 bc3c 0203 02bc eec3 183c
00000190: 0ada f83b ca12 243b a793 22bc 21bc 57bc
000001a0: 6979 a3bb cf6e 423c d1b9 f4bb 2de5 ae3d
000001b0: c64d 6dbc da82 7abb 5f7a ceba 590a 87bc
000001c0: fa3f 43bc 264f f739 abcb c8bb 4253 26bb
000001d0: 22cf 90bc 3129 26bd 18f5 43bc 3c33 02bd
000001e0: 43d4 ddbc a4e8 debc 3c65 213d cfe5 ebbc
000001f0: e1ef f0bc 1c8f 173d 2ff5 743b 4730 3c3c
00000200: d2d5 3f3d 4daf b03c 36f7 57ba 8804 bf3a
00000210: 61bc 153b 2466 b63b c42d 173b 5671 37bd
00000220: c8f6 1cbc 6769 81bb 2e3c f0bc c8de 0e3b
00000230: 1e58 173d 6312 14bc e1c3 403d 2c7d 9dbb
00000240: 2caa 4b3d b0e6 993c 22fb 393d 638f d13c
00000250: 2e9f 033c 6115 1abd cd3a 9d3c 0570 7ebc
00000260: 0e84 e7bb bfdf 11bc 676f 863c 08fa e4bc
00000270: 0d63 e7bb 4da2 6a3c cf18 0bbd 8350 3cbb
00000280: 28e6 3abc 7eeb 41bc d086 f2bc 0707 7bbc
00000290: 4213 d5bc f76d 073d c8eb b1bb e407 b53c
000002a0: d98b 0cbc 19ce 25bc 7ceb 02bd 7461 7abb
000002b0: f8d7 193a a627 e83c b117 0a3d c820 dd3b
000002c0: a17b a0bc 35c5 653c cba8 60bd 4bdc 55bb
000002d0: 7095 d539 df25 cdba 9c5f d6ba a367 703d
000002e0: 2369 3abb 44d2 a4bb 4fa5 103d 4c01 983c
000002f0: 6ab3 cfbc 3b0f e03c 15c3 893d d7d5 d23b
00000300: b16e 823c 2c99 823c 622f 41bb 2eab 2ebc
00000310: 16ba 893b b44b 373d a889 52bc 23aa 5a3b
00000320: 9290 8d3c 7139 0dbd d8ad b9ba 5f10 b6bc
00000330: 8397 ad3a 7f75 483b a6eb 0e3d fd55 323d
00000340: a012 9cba 1965 443c 3a4b 6a3c efbf 8f3c
00000350: b0ec 44bc 5077 9cbc a4c6 b13c 74e5 30bc
00000360: 3d81 f93c 11bb ab3b 91cf d03a 8764 c2bc
00000370: 81bb 9e3a 0bef bfbb b931 463d 031d a737
00000380: ecee ef36 9979 e93d 7dc0 8fbc a291 20bb
00000390: b256 48bc 30b7 7fbc de3f aa3b 6939 fa3c
000003a0: 5fdf 0f3d bebc 8cbb ecdf b23c 2ce6 9fbb
000003b0: d976 6f3b b2fe fabc ac5a 733d fc7e 64bd
000003c0: 0886 fa3c dc35 b13c 434e a5bc 5a66 7abc
000003d0: e1e9 e93c 2603 a2bc 4268 72bc ac5b e53b
000003e0: d61c 043c 25ef 07bd 91df 6b3b f0b9 d4ba
000003f0: eb50 9ebb 23f4 43ba 48a5 98bc 1971 473d
-0.03633515 0.017043144 0.018969445 0.023803717 -0.003152794 -0.022435006 0.010173096 -0.032792155
0.026840478 -0.02381807 0.005845415 0.0037520821 0.005488012 0.030332206 -0.031637814 0.04728643
-0.0045127016 -0.026229687 -0.01940973 -0.018478783 -0.00914815 0.023791524 -0.0101005705 -0.008889513
-0.02251878 -0.015781753 0.01148423 -0.034731407 0.03762113 -0.041005746 0.005257882 0.020202246
-0.0045947237 -0.008320268 -0.025366884 -0.0018755213 0.038374 0.029469827 -0.0029735144 -0.0072915643
0.0028898926 0.01122775 0.0029706578 -0.013175445 0.014996994 -0.0068433303 0.001828303 -0.019086098
0.049708188 -0.011713215 -0.04771739 -0.020552713 0.0067607546 -0.011155472 -0.020274673 -0.0061561936
0.050811406 -0.0274134 0.011394639 -0.0051964256 0.0044534598 0.0074790795 0.0012864996 0.018193362
0.037519276 -0.0033171962 -0.023598723 -0.01878791 0.02061045 -0.013008232 -0.0033261348 0.047153227
0.03207481 -0.0027363142 -0.0014943641 -0.041121583 -0.0053501124 0.023478936 0.029235233 -0.0044894265
0.011036522 0.022002203 -0.022225862 -0.028221862 -0.00056655717 -0.0154924495 0.04508187 -0.03437316
-0.0027680947 -0.02422354 0.004927213 -0.011284539 0.002222736 -0.012930678 0.008282257 0.032688707
0.00019295476 0.0230201 -0.007935287 0.009324057 0.0075943517 0.0025035613 -0.009922898 -0.013167412
-0.0049888385 0.011867239 -0.00746844 0.085398056 -0.014483875 -0.0038224966 -0.0015753022 -0.016484426
-0.011917109 0.0004717048 -0.0061277947 -0.0025379215 -0.017676894 -0.040566627 -0.01196029 -0.031787142
-0.027078753 -0.027210541 0.039403185 -0.028796105 -0.029411258 0.037001714 0.0037377586 0.01148612
0.046834774 0.021567965 -0.00082384364 0.0014573494 0.0022847878 0.0055663753 0.002306805 -0.04478582
-0.009580322 -0.0039493325 -0.02932557 0.0021800268 0.03694927 -0.009037587 0.047061805 -0.0048061814
0.049722835 0.018786758 0.045405515 0.025581067 0.008033557 -0.037618045 0.019193077 -0.015529637
-0.0070653027 -0.008903443 0.016410543 -0.027951255 -0.0070613683 0.014320922 -0.033959206 -0.0028734512
-0.011407413 -0.011835931 -0.0296053 -0.0153215 -0.02601016 0.033063855 -0.0054297186 0.02209849
-0.008578264 -0.010119938 -0.031962857 -0.003820506 0.00058686687 0.028339218 0.033714 0.0067482926
-0.0195902 0.014024069 -0.054848474 -0.0032632526 0.00040737865 -0.0015651545 -0.0016355398 0.058692586
-0.0028444014 -0.0050299484 0.0353139 0.018555306 -0.025354106 0.027351012 0.06726662 0.006434183
0.015921922 0.015942179 -0.0029477705 -0.01066093 0.0042030914 0.04474993 -0.012850203 0.003336557
0.01728085 -0.03447861 -0.0014166189 -0.022224603 0.0013244007 0.0030587611 0.0348927 0.043539036
-0.0011907406 0.011986994 0.014300162 0.017547576 -0.012019321 -0.019099861 0.021701165 -0.010796893
0.030457133 0.005240806 0.0015931 -0.023729576 0.0012110324 -0.0058573536 0.048387263 1.9921461e-05
7.150569e-06 0.11400146 -0.01754784 -0.0024500866 -0.012227701 -0.01560764 0.005195602 0.030544953
0.035125133 -0.0042949608 0.02183529 -0.0048797335 0.0036539345 -0.030639026 0.059412643 -0.055785164
0.03058149 0.021632127 -0.02017892 -0.015283192 0.028553905 -0.019776892 -0.014795365 0.0069994535
0.008063516 -0.03318705 0.003599141 -0.001622973 -0.0048314235 -0.0007475039 -0.0186335 0.048691843

fc2.bias f4 [80]
00000000: 624c 0fbb 23a7 6f38 877e aaba 7bfa 09bb
00000010: 3d80 183b 337c 233c a0f3 f83a 2714 43bb
00000020: c85e c43b d1e4 773a bfac 5bbb a7eb a73a
00000030: 6d1e 86bb 1d21 a8bb 7267 26ba c35e e43b
00000040: 7988 abbb bbac 7abb 96ad 6cbb ab0e dbbb
00000050: 6e55 073c 7e6f 06bb 56a2 b8ba 28ae e93a
00000060: e94b 023a 71fc c9bb 4924 6b3b a3cb ed39
00000070: b546 883b 457d afbb 2634 033b 5e12 12bb
00000080: 1a0f 9fbb da86 113c ab02 31bb d449 0cbb
00000090: b193 f73a 734e 4bbb 80b5 2dba befc 7d3b
000000a0: d358 583a 026b 70ba b660 8b3a eba4 b53a
000000b0: d815 543b a21d bd3b 0cdd a3ba 0801 c8ba
000000c0: d022 bfbb 3c48 e43b fca6 6b3b 5999 f83b
000000d0: 366b 0e3c 0e73 fc3a 45b8 a9ba 0ab2 02bc
000000e0: c369 17bb 24f7 f2bb 4d27 5ebb a73a 98ba
000000f0: 2512 523a c3bb 833b a505 a839 7693 263b
00000100: 74bf 073b 1838 f4ba 6bdc 973b ddd7 08bb
00000110: 4863 cf3a a5ef 95ba 2a3d bbbb b094 2b3b
00000120: 21fd fab9 d6f2 04bb 4c6b 753a d9b0 183c
00000130: 7746 943b ad18 08ba 3b40 293c af5a 1fbc
-0.0021865596 5.71377e-05 -0.0013007679 -0.002105384 0.0023269795 0.009978342 0.0018993504 -0.002976665
0.005992744 0.00094563985 -0.0033519713 0.0012811319 -0.0040929825 -0.0051309005 -0.0006347812 0.0069693043
-0.0052347747 -0.0038249928 -0.0036114207 -0.006685098 0.008260114 -0.0020513232 -0.0014086466 0.0017828392
0.0004970418 -0.0061641266 0.0035879782 0.00045355884 0.0041588196 -0.0053555095 0.0020020097 -0.002228878
-0.004854095 0.008882249 -0.0027009647 -0.002140631 0.001888862 -0.0031022101 -0.0006626472 0.0038755382
0.0008252982 -0.0009171219 0.001063368 0.0013858353 0.0032361653 0.005771355 -0.001250179 -0.0015259096
-0.0058330074 0.006966619 0.0035957685 0.00758664 0.008692553 0.0019260363 -0.0012948593 -0.007977018
-0.002310381 -0.0074147154 -0.0033897937 -0.001161416 0.0008013568 0.0040201857 0.00032047663 0.0025417483
0.002071348 -0.001863244 0.00463443 -0.0020880618 0.0015822435 -0.0011439217 -0.0057140784 0.0026181154
-0.00047872312 -0.0020286343 0.0009361997 0.0093195075 0.0045250016 -0.0005191665 0.010330255 -0.0097262105

fc3.weight f4 [40, 80]
00000000: 462b 33bc f3b5 01bc 46e4 fc3d b7ca 71bc
00000010: 23c6 b73c ea95 ea3d 6854 11bd e27b c8bb
00000020: d4d7 7abc 9f71 843d c626 eabc 8f73 983d
00000030: 8594 06bd d4da d43d efa0 9bbb bf3b 243d
00000040: e0b9 da3c dddd ae3c b4e8 953d ff63 023d
00000050: e681 2cbc ca99 70bc 0851 65bc 2134 65ba
00000060: 5a34 af3b 0850 a5bc 88fa 133c ba7d 0cbd
00000070: a1be db3b 1919 b2bb c8e2 f43b c026 a83c
00000080: 5043 e13b c986 75bb 7b03 cc3d 70a5 d33d
00000090: 9786 66bc aca3 6ebd b13b d03d 4143 b7bb
000000a0: d621 0bbd afa1 ea3b 6901 95bc f7c8 84bc
000000b0: e467 cebc 2759 50bd 3d94 943a b699 77bc
000000c0: 4817 ba3a 552e 17bd 4022 05bc 19de 8cbc
000000d0: 7f8b a3bc 25a4 993a 0ada 05bd 0df7 343d
000000e0: ed9c f5bc 6e4a 49bd 1a68 b93c 41f1 a7bc
000000f0: 3395 a43d b7ad eebb 4b75 5d3d 7eee dc3b
00000100: 011e 84bc 7d86 943d 6526 c23d 4d5e 9a3d
00000110: 8188 c43d 1923 d43d 3a8c a03c 7b64 413d
00000120: 0c14 41bc 6004 653d 1ecd 9abc 9e23 87bb
00000130: b759 0dbc 79fe d0bc 0520 dd3d dd86 6b3d
00000140: 5a54 4cbb 5676 edbc 8dd3 b93c 5dd3 77bc
00000150: e454 23bd 8f39 ac3d 81f9 87bc f223 c8bc
00000160: a33a 07bc f4e8 c3bc 4c93 46bc 6180 f6bc
00000170: 694c e0bc 87eb 34bc f069 33bc d574 8cbc
00000180: 5045 433b 803f 8f3c 91f0 c13d 0a4c 06bc
00000190: c800 c0bc e3c4 11bd 356a b8bc 4a79 fcb7
000001a0: a0bd 9d3a 128d 1a3b 6cf3 9c3d 4586 303d
000001b0: 97ef 1abd bad5 dabc 836b 6fbc 2fd3 553d
000001c0: ad85 28bc 4c0f 9abc 68dc 08bc 2721 b83d
000001d0: 3f8f 123c 2aac 18bd facf 32bc 3312 4dbd
000001e0: 5a00 f23c c0c7 83bc 66c3 44bc c886 6fbc
000001f0: 73b8 b93d d45d 323d 8640 28bd c524 84bb
00000200: 8fd5 b8bc 24d0 47bc 1c56 1abc c8ce 273d
00000210: e7dc 40bc 06d5 5cbc 8aad 8ebc 2c12 6a3d
00000220: a0b4 6b3d 1c49 ac3d dd92 eebc c5f5 b63c
00000230: 2194 4e3d f543 573c d55c b03d 776d aeb9
00000240: b9e2 243d 7847 ce3d db35 0c3d 45b7 aebc
00000250: 8219 653d 0465 acbc af3c 803d 3532 8fbc
00000260: 373c a03d 7882 c13d 3bd9 303d 7a8c c6bb
00000270: 7aa1 86bb c19f 4d3d fefa 26bd 8cca b53d
00000280: 5a9d da3d 6396 40bb 60b1 193b 8a27 4a3b
00000290: 6f58 8c3d 8249 87bc a741 19bd 83ef 9a3d
000002a0: de91 c73d 3e6f 2e3d e3b2 1abc 5865 143d
000002b0: 3b62 e23c b8d2 65bc 68be 3e3c 8d4a a53c
000002c0: c2b4 9dbc 444c e639 023c 02bc 7d10 2c3b
000002d0: e794 55bc 32fd eebc f90a a03d 919b 8dbc
000002e0: faf4 c0bc 38e9 42bc a91d b2bc 926c 273a
000002f0: 0d0d 413d 43f0 e83d a93b ae3d 3195 123d
00000300: 0122 1cbc a5d8 a9bc 0363 78bc 77c1 433d
00000310: 59b0 b7ba d97a 313d 4b1f 5a3d 11b1 ee3c
00000320: 4a15 083d 1271 d0bb 044e cd3d a37f 18bd
00000330: c281 10bd 0c2d aebc 3ecf b43d 5ed2 18bd
00000340: 5b0d 843d ecc9 07bd 7e2b 24bc 08e8 c33d
00000350: 90fb 963d f56d 963d 921e 803d 4c8b ee3a
00000360: 2d36 5e3d 94a5 ba3b a45e 9fbc e509 03bd
00000370: 5f9a e7bc fc18 88bc be25 923d 1bc2 a6bb
00000380: 2100 793d d2d2 3d3a 7c2a 1abb b58e 823d
00000390: 7c26 8bbc b9a7 8cbc 527e 09bc 0050 0fbc
000003a0: 2a84 4b3d 1626 223c b883 4aba 61c2 cebc
000003b0: 1d43 133c f0a8 84bc 90f9 bf3d 9ea9 c0bc
000003c0: f1a5 a23a 38b8 32bb d04f f439 628f 99bc
000003d0: f384 9c3b 3d73 303c 4e83 ab3d 8d9a 26bd
000003e0: e4b8 31bc 07ba cfba dba6 de3d 6d87 2a3d
000003f0: f8ab 92bb b6b9 83bc db19 a7bc 35e1 ab3d
-0.01093561 -0.007916915 0.12348227 -0.014757804 0.022433346 0.11454375 -0.035480887 -0.0061182836
-0.0153102465 0.06466984 -0.028582942 0.07443916 -0.032856483 0.10393301 -0.0047494094 0.04009604
0.02669996 0.021346027 0.07319775 0.031833645 -0.010529017 -0.014685104 -0.01399637 -0.00087434246
0.005346817 -0.020179763 0.009031899 -0.03429959 0.0067060743 -0.005435121 0.0074733235 0.02052629
0.0068744794 -0.0037464371 0.09961601 0.10334289 -0.014070175 -0.05826156 0.10167635 -0.005592734
-0.033967815 0.0071603875 -0.018189149 -0.016209109 -0.025196023 -0.050866272 0.0011335682 -0.015112331
0.0014197612 -0.03690942 -0.008125842 -0.017195748 -0.019963978 0.0011721893 -0.03267864 0.04418092
-0.029982055 -0.049143247 0.022632647 -0.020500781 0.0803627 -0.007283892 0.054066937 0.0067422977
-0.016127588 0.07252214 0.094799794 0.07537518 0.095963486 0.10358257 0.019598115 0.047214966
-0.011784565 0.055912375 -0.018896636 -0.004124119 -0.008627347 -0.025511967 0.10797123 0.057501663
-0.0031178207 -0.028987091 0.022683883 -0.0151260765 -0.03987588 0.08409416 -0.016598465 -0.024431203
-0.008253726 -0.023914792 -0.012120079 -0.030090513 -0.027380185 -0.011042482 -0.01095055 -0.017145554
0.0029795952 0.017486334 0.094697125 -0.00819684 -0.023437873 -0.035588156 -0.022511581 -3.009722e-05
0.0012034662 0.002358262 0.076636165 0.0430968 -0.037826147 -0.02671324 -0.014613035 0.052203353
-0.010285777 -0.018806122 -0.00835333 0.08990698 0.008945285 -0.037273563 -0.010913843 -0.050066184
0.029541183 -0.01608646 -0.012009477 -0.014619537 0.09068384 0.043546513 -0.04107716 -0.0040327036
-0.02256277 -0.012195621 -0.009419944 0.040968686 -0.011771417 -0.013478523 -0.017416734 0.057146236
0.057545304 0.08412382 -0.029122764 0.022333989 0.050434235 0.013138761 0.08611456 -0.00033269424
0.040255282 0.10072225 0.034231048 -0.021327624 0.05593253 -0.021044262 0.062615745 -0.017479995
0.07823985 0.09448713 0.043175917 -0.0060592266 -0.004108605 0.05020118 -0.04076671 0.088765234
0.10674544 -0.0029386512 0.002345167 0.003084632 0.06852805 -0.016514543 -0.037416127 0.075652145
0.09744619 0.042586558 -0.009442064 0.03622946 0.02763473 -0.01402729 0.011642076 0.02017715
-0.019251231 0.0004392584 -0.007948877 0.0026254945 -0.013035989 -0.029173467 0.07814593 -0.017286094
-0.023554314 -0.011896424 -0.021742659 0.00063867227 0.047131587 0.11373951 0.08507473 0.03578681
-0.009529592 -0.020733187 -0.015160325 0.047791924 -0.0014014348 0.043330047 0.0532525 0.029137166
0.033223428 -0.0063611353 0.10024646 -0.0372311 -0.035279997 -0.021261714 0.08828591 -0.037309997
0.0644786 -0.033151552 -0.010020135 0.09565741 0.073722005 0.073451914 0.06255831 0.0018199473
0.054250885 0.005696008 -0.019454308 -0.031991858 -0.028271852 -0.016613476 0.07136105 -0.005089057
0.06079114 0.00072411925 -0.0023523858 0.063748755 -0.016986124 -0.01716982 -0.0083919335 -0.008747101
0.04968659 0.009896776 -0.0007725316 -0.025239171 0.008988169 -0.016193837 0.09373772 -0.02351838
0.0012409074 -0.0027270447 0.00046598772 -0.018745128 0.004776591 0.010769662 0.08374654 -0.040674735
-0.010847304 -0.0015848287 0.10871669 0.04163306 -0.0044760667 -0.016079765 -0.020398071 0.08392564

fc3.bias f4 [40]
00000000: f702 043c e598 49bb e6d8 443c c547 143c
00000010: 1494 55bb 2f99 cc3c 1782 2a3b ba61 963a
00000020: 7f87 a53a 9a44 05bc f7e5 573b 9a41 efba
00000030: b99a b33b 33eb bfbb 3f67 333c b189 c13a
00000040: 60e0 5c3c 67e6 23ba 5ab2 2e3b a284 9c3b
00000050: 21ec d63b 5e8f f7ba e201 953c 8674 813c
00000060: 5ad9 663b c1c5 203c dc16 db3b 0349 533b
00000070: 57e9 db3b eb4c d73b 74d7 2b3c 0893 973a
00000080: 29d3 803c cd57 d53b 3100 893a c3ce 88bb
00000090: e552 c6bb 3542 6c3b 0728 f53c f5b2 943b
0.0080573475 -0.0030761298 0.012014603 0.009050314 -0.0032589482 0.024975387 0.002601748 0.0011473217
0.0012628882 -0.008134032 0.0032943466 -0.0018253804 0.005481091 -0.0058568954 0.010949909 0.0014765767
0.01348123 -0.0006252289 0.0026656599 0.0047765533 0.0065589105 -0.0018887331 0.018189374 0.015802633
0.0035224766 0.009812773 0.0066860747 0.0032239563 0.006711166 0.0065704486 0.01048838 0.0011564204
0.015725689 0.006510711 0.0010452328 -0.0041750385 -0.0060523623 0.0036050205 0.029926313 0.004537935
