outfiles/cnn/ORL64_2Train_cnn.pth (torch, 613695 bytes, 10 tensors)

conv_layer1.weight f4 [16, 1, 5, 5]
00000000: 29b9 5a3e 133e 983e 5e52 743e 372d 853e
00000010: c872 333e d641 1c3d 2ba4 4b3e d03f e33d
00000020: f366 003e b03d 123e aa1e 37be 9781 9f3d
00000030: 4eef 263e a6eb 383e b2d1 123e 832c 85be
00000040: 31e8 92be d426 3cbe c38d c6bd ab31 153d
00000050: 2f73 42be 84ab a8be 8051 a6be d375 97be
00000060: 4ef9 7fbe ca0c ad3c b3d2 1d3c d4f5 573c
00000070: 5058 0fba 71d2 27bb d369 08bc 4920 fe3b
00000080: 48a8 1fbc e4b4 2abb ad79 e9bb 6bfd a73a
00000090: 5e3b 8ebc 8c8a 01bb 44e2 513c d065 813c
000000a0: 6a9d cabb 739d 72bc 6301 75bb 7c53 c93a
000000b0: d156 2c3c 7469 b0bc 011b a4bc 0c11 4a3c
000000c0: 01f4 e3bb f907 9a3b 6667 7ebd 4f25 d4bc
000000d0: 55ac c93b af8c 8b3c 293c 793d ba4f aebd
000000e0: 78f5 0bbe ae73 24be 7920 9dbd 48d9 8abd
000000f0: 963e 90bb faa0 d2bd deaa a0bd c905 3ebe
00000100: be52 41be 880b 84bc aed3 9a3d 7413 9a3d
00000110: 0778 723d 8e4e 9e3b 0fd7 e33d d891 2d3e
00000120: 42d4 5e3e 0374 553e d32d 023e b87f 23bd
00000130: 7a91 57bc ff45 62bd a788 343c 8449 2b3d
00000140: f785 89bd fa57 8bbd 7de5 37bd 252c eabc
00000150: 6650 dbbc f9ae fe3b b562 203b ec19 59bc
00000160: 5bd7 ce3c f99e 133d 86d3 4d3c 037a 653a
00000170: 5a0f 273d 72bc 383d 9e46 543d 43ce 0c3c
00000180: d416 b23c 676a ae3c 1f09 7a3c 1d24 243d
00000190: fd7b 833c 9a62 52bd d16a f2bc e59d d8bc
000001a0: 1c86 69bb e262 253c 9d03 c8bc 73a0 0b3d
000001b0: a2a4 1e3d f0b6 7c3d 5260 58bc e30b f2bc
000001c0: d6a3 c83c 25e2 7f3d 85c9 8a3d 2da1 5dbd
000001d0: 55e1 bcbd f0da 2fbd bd22 1d3d 577c a03d
000001e0: f307 61bd 83d9 6dbd 7b6d 81bc e3a2 8938
000001f0: 32a1 673d f056 6c3d 055c 953d 982d c53b
00000200: df5d b23d 5e77 553d f9b3 10bd 0c10 89ba
00000210: 029d 963c 60d3 e2bc e6b6 083d 7346 59bd
00000220: e7f8 f23c f489 c3bb 22bd 5dbd 7007 a6bc
00000230: 9283 8bbc 2554 8dbd 118a bebc 3b38 b83b
00000240: d23f 04bd 2e3a f4bc 9d2a c23c 947d a6bc
00000250: 41ad 36bd 51bf 4cbd 52c8 0e3c 5a90 b9bb
00000260: b644 1fbc 63d6 f2bb 5be2 193c 217c 243a
00000270: 9427 2dbc 4e54 3ebc a2fc f4bb 21dd 15bc
00000280: 5892 373b 4ffc 49bc a749 37bb 9972 fdbb
00000290: d5a7 ec3b 9457 083b 096c 50bb 69ea 4ebb
000002a0: 95ee 3abc 6120 093c be98 ccbb 0ca1 4cbc
000002b0: 2538 ab3b bae4 b23b fda0 a3bb 361b 9bbb
000002c0: d2ae 27bb 7572 2dbc 4327 d8bb 3587 28bc
000002d0: 8fd3 1c3c 0c01 b1bb c30b 813b c625 4abc
000002e0: 7c2f 33bc 4837 0d3c 67e4 2a3c a150 5e3c
000002f0: 15f9 2d3c 1c14 0c3c 93ee 18bc 4da7 c93b
00000300: a8a4 d8bb 2c54 c73b 0048 ddbb 0392 2d3b
00000310: c36f 1cbc 2335 1a3c c6cd c63b a12c 013c
00000320: 8437 dbba 4d14 733b e3c2 0cba 5ccd f6bb
00000330: c718 75bc 63d5 3c3c f326 103b 483b 953c
00000340: 09e8 6b3b c8f9 723c 9973 00bc 519b 4c3a
00000350: 36a6 7fbb 9b8b 263c 01e6 953b 107c da3a
00000360: 4b5e fdbb 55ac dc3b 9a25 9c3b 590b 3c3c
00000370: a3aa 00bc 1ec4 65bc 98fe 87bc c663 65bc
00000380: fe36 d4bb 8e99 093c d67c a9bb d892 28bc
00000390: 74fa 083c 0f53 4fbc 199a 65ba 2eb3 f9ba
000003a0: 2fb9 0e3c f396 11bc 7e6a 213c 6c83 24bc
000003b0: ca28 af3a dfdd 803c e027 18bb 7ad0 8239
000003c0: 1730 40bc af28 e33b cf6e a13b 8312 283c
000003d0: f683 983a 9ee8 4f3b 27f6 32bc d7f4 0c3c
000003e0: eaa8 013b 42fc 6fbb 79b2 a1bc 3bb7 85bb
000003f0: 4a84 e0bb 18af 34bc 7584 b4bc 68d9 c53b
0.21359695 0.2973486 0.23859546 0.2601106 0.17524254 0.038148724 0.19886844 0.11096156
0.12539272 0.14281344 -0.17882791 0.07788389 0.16302225 0.18058643 0.14337805 -0.26010522
-0.28692773 -0.18374187 -0.09695008 0.03642432 -0.18989252 -0.32943356 -0.32484055 -0.2958208
-0.24997446 0.021124262 0.009632754 0.013181169 -0.00054681767 -0.002560761 -0.008326012 0.0077553135
-0.009744711 -0.002604776 -0.0071251006 0.0012816613 -0.017362293 -0.0019766418 0.012810294 0.015795618
-0.006183316 -0.014808047 -0.003738486 0.0015359963 0.0105187455 -0.021534659 -0.020032408 0.012333166
-0.0069565778 0.0047006574 -0.062110327 -0.025896696 0.006154577 0.017034857 0.06084839 -0.085113004
-0.13667858 -0.16059753 -0.07672209 -0.06779724 -0.004401992 -0.1028461 -0.0784509 -0.18556894
-0.1887922 -0.01611878 0.07559906 0.07523242 0.0591965 0.004831142 0.111250035 0.16950166
0.21760657 0.20845036 0.12712793 -0.039916724 -0.013157243 -0.055242535 0.011018909 0.041818157
-0.06715005 -0.068038896 -0.04489659 -0.028585503 -0.026771735 0.007772323 0.0024472896 -0.013250809
0.025249174 0.03604028 0.012562638 0.0008753838 0.040786125 0.04510159 0.05182516 0.0085940985
0.0217394 0.021290971 0.015260964 0.040073503 0.016050333 -0.051363565 -0.02959195 -0.026442477
-0.0035632914 0.010094376 -0.024415785 0.034088563 0.038731225 0.0616979 -0.013206558 -0.029546684
0.024492186 0.062471528 0.06776718 -0.054108787 -0.09222666 -0.042933404 0.038363207 0.07836216
-0.05493922 -0.058068763 -0.015799275 6.563009e-05 0.056550212 0.057700098 0.07292942 0.006017398
0.08709311 0.05211579 -0.035327885 -0.0010457053 0.018385414 -0.027688682 0.03337755 -0.0530457
0.029659702 -0.005967373 -0.05413545 -0.020267218 -0.017030511 -0.06900815 -0.023259195 0.0056219376
-0.032287426 -0.029812898 0.02370196 -0.020323552 -0.04459882 -0.04998714 0.008714752 -0.00566296
-0.009720972 -0.007410811 0.009392346 0.00062746 -0.010568518 -0.0116167795 -0.0074764052 -0.0091469595
0.0028010812 -0.012328221 -0.0027967484 -0.0077346084 0.0072221556 0.0020804154 -0.0031802675 -0.0031572825
-0.011409421 0.008369536 -0.006243794 -0.012489568 0.005225199 0.0054593952 -0.0049935565 -0.0047334684
-0.0025586379 -0.010586371 -0.0065964772 -0.010286142 0.009571924 -0.005401736 0.0039381697 -0.012338107
-0.010936614 0.008619137 0.010430432 0.013569028 0.010618468 0.008549716 -0.009334224 0.006153977
-0.0066114254 0.006083032 -0.006752968 0.0026484735 -0.00954813 0.009412083 0.0060670106 0.0078841755
-0.0016724919 0.0037090958 -0.00053696166 -0.007531805 -0.014959521 0.011525485 0.0021995872 0.018216744
0.0035996458 0.01483006 -0.007840061 0.00078051264 -0.0039008982 0.0101651205 0.0045745377 0.0016669054
-0.007732188 0.0067344108 0.0047652246 0.011477315 -0.007853183 -0.014023809 -0.016600892 -0.014000839
-0.006476282 0.008398427 -0.0051723523 -0.0102889165 0.008360494 -0.01265408 -0.0008758619 -0.0019050592
0.008711143 -0.008886087 0.00985205 -0.010041099 0.0013363597 0.015730796 -0.0023217127 0.0002495086
-0.0117302155 0.00693234 0.0049265395 0.01025832 0.0011636007 0.0031724344 -0.010922945 0.008603296
0.0019784519 -0.0036618863 -0.019738423 -0.0040806807 -0.0068517076 -0.011028074 -0.022035817 0.0060378797

conv_layer1.bias f4 [16]
00000000: 1ba2 26bc 12bc 383c f7d2 01bc da24 54bc
00000010: 3c63 3cbc 9ae3 dc3b 4e50 17bc db25 35bc
00000020: cdbc edbb 10fe 4fba 4619 bd3b 6cb0 153a
00000030: 54d9 403c ddf2 64bb 7a50 8a3b d100 143c
-0.010170485 0.011275308 -0.007923833 -0.012948239 -0.011498269 0.0067409994 -0.009235455 -0.011056389
-0.007255173 -0.00079342816 0.005770835 0.0005710188 0.011770565 -0.0034934797 0.0042210193 0.009033398

conv_layer2.weight f4 [32, 1, 5, 5]
00000000: cc6e 92bb 7188 aa3c 15f5 b6bd e1d5 043d
00000010: 103b a1bd 67ac 2ebd 40a5 26be e4e5 34be
00000020: a461 09be 4670 c2bd 20ff 1bbd 8ebf c0bc
00000030: 6625 863d 7fe2 853b 71c7 ffbd 1a68 413d
00000040: a9df b73e d7c3 eb3e 1cd1 d23d b9d6 cdbd
00000050: 9ce9 efbd 8683 a83d 5939 7d3e b0a3 68bc
00000060: 7cfe d2bd 6289 97bd 70bc 82bd a6c1 383e
00000070: 154f 6f3e 8238 f1bd bc0d 0d3d 7827 c1bc
00000080: ade6 0a3e 4844 e53e 5ef8 b93e 9930 06be
00000090: 9a88 1cbe 1882 6ebe eb81 ff3c ed21 833e
000000a0: 16f6 723c 1d3b f43a c5d6 fbbd 547f efbd
000000b0: efc9 0bbe 41dd c63b cc88 b0bd 61d2 0fbe
000000c0: f7aa ffbd 01a1 25be 9224 8c3c c689 5d3b
000000d0: 9fa7 76bb 2124 913b 3f30 033c b2cd b6ba
000000e0: 8de0 c9bb dda9 a9ba 5c6b afba 48f9 25bc
000000f0: a2f1 c2bb cc94 4e3c 1bbc 1fbc 2a0e 07bc
00000100: 6860 34bc 847c 793a 7f57 edba 836d 893a
00000110: 32d1 8b3c 46a6 4e3c 8f82 39bc eb81 32bb
00000120: 408f 49bc d3d1 223b beeb 203c e3c4 8339
00000130: 64f1 663b 5121 c63b 9a16 8abb 64a8 2f3b
00000140: 52be 36bc 48d4 563c 7d2c 5bbc a381 b03c
00000150: 83d9 a03b 3328 b6bb 9dd7 cfbb f40d fbbb
00000160: 3ddd 123c ab09 2aba dd1a 1dbc 5747 9abb
00000170: 7ccb 273b 603a 103c 1280 7abc 55c4 833c
00000180: db6a 21ba ef17 7f3c 57e4 1dbc 1403 f7ba
00000190: 5a47 f6bc 8c2f fcbc d1a4 2cbd 8c42 ffbc
000001a0: 1462 5fbd 93cb 14bd 68d1 27bd 826f 3bbd
000001b0: 8eed 47bd 9c4c 2abd acf9 c1bc 1d26 21bd
000001c0: 4838 febb 6ee4 f23c 082f 703d 69c4 1b3d
000001d0: 87e6 853c c53d 16bb 10a0 953d 648a 763d
000001e0: 8ea6 b43d 17d6 c23d d069 d73c 7fac 163d
000001f0: 85a2 bc3c d533 653e 7dca a03e 38cb 6f3e
00000200: f652 1a3d c0ef 15bd 21b2 853d 55f4 043e
00000210: b972 d73d 4172 ce3c 91cc 783c ad3e 21bd
00000220: c8ff b1bd 991c 35bd ca42 e7bc 56db 44bd
00000230: 562f c7bc 0e3c 10bd 8bee a1bd 00b3 83bd
00000240: 03cc a1bd b2ab e9bb 6973 c0bc 1261 38bd
00000250: 3831 34bd c95d 90bd 90a7 dabc 007e cc3c
00000260: 201f d0bb 033a 1a3d ede8 833c 381f 59bc
00000270: 7005 90bc 5687 a93c 5f5f 103c 6905 58bd
00000280: e98f 343c 51ff 4cb9 1137 b93c 1379 0bbd
00000290: 7f6c 0abd 23ed 4a3c 0052 5b3b 1c03 56bb
000002a0: f33c debc f3f7 dfbc 567c c1bc 53ae 68bc
000002b0: d330 95bc 8402 1b3d 2f5d 693d e325 3b3d
000002c0: 4936 f03c 89da 533d 8981 2a3d 20b1 0cbb
000002d0: 087b 89bc b57e 50bd 83b0 31bd d7a8 f2bc
000002e0: 9917 25bd 4ec0 27bc 6dfb dfbc dd0c 68bc
000002f0: 8a56 903c 1029 303c bf74 6bbc cf95 943c
00000300: 07e8 123d 4017 bcbc 01b0 babc 85f6 d2bc
00000310: d658 393c 0215 1d3c 3652 01bd 9474 1a3c
00000320: 2589 423d ba01 febc df50 aabb 1db3 2fbd
00000330: 2430 f83b 2633 9b3d 3d06 603d f422 8d3b
00000340: aa47 6a3a 7a38 d0bc 6325 943c 4dfd 063d
00000350: f066 063d 8421 8c3c f51e 52bd 8642 dcbc
00000360: af78 3cbd 647e 82bc 7fe0 0b3d 3b36 5cbd
00000370: e3de bcbb 9b27 a1bc 274c f8bc 64b7 a6bb
00000380: 564f 1cbd 9578 f5bc ce73 a23d e5a8 d03d
00000390: 8cd0 9abb 9c3d a63c 13ad 0cbd 0179 cd3c
000003a0: 755c 8a3d 9829 c9bc afd8 653c 3b79 71ba
000003b0: f246 36bd c606 27bd 79d1 41bd 9197 633b
000003c0: 3cd5 113b fe0d 45bd 1af9 1bbd 31de 18bd
000003d0: 061d b3bc dfc4 5f3d 59e9 ce3c dc4f 38bd
000003e0: f8e5 42bc 82ac cd3c 964e 4cbc 28de aebc
000003f0: 7a41 bdbc 8cc8 17bc 8107 8bbc a291 b03a
-0.0044687744 0.020817013 -0.089334644 0.032430533 -0.078725934 -0.042644884 -0.16273975 -0.17665821
-0.13416153 -0.09494071 -0.038085103 -0.02352884 0.06550102 0.0040858383 -0.12489212 0.04721842
0.35912827 0.4604785 0.10293791 -0.10050721 -0.11714479 0.08228211 0.24728908 -0.014199182
-0.10302445 -0.073992506 -0.06383598 0.18042621 0.23370011 -0.11778356 0.034436926 -0.02357839
0.13564558 0.44778657 0.36322302 -0.13104476 -0.15286484 -0.23291814 0.03118988 0.2561182
0.014829179 0.001863334 -0.122968234 -0.11694208 -0.1365125 0.006068856 -0.08619842 -0.14045097
-0.12483781 -0.161747 0.017107282 0.0033804043 -0.003763653 0.0044293557 0.008007108 -0.00139468
-0.0061608017 -0.00129443 -0.0013383436 -0.010130234 -0.005949215 0.012608718 -0.009749438 -0.008243123
-0.011009313 0.00095171505 -0.0018107741 0.0010484908 0.017067526 0.012612885 -0.0113226315 -0.0027238082
-0.01230222 0.0024844303 0.00982183 0.0002513296 0.0035239095 0.006046452 -0.00421412 0.002680325
-0.011153774 0.013112135 -0.013377306 0.02154619 0.004908742 -0.0055589913 -0.006342842 -0.0076615755
0.00896388 -0.0006486426 -0.009588924 -0.0047082114 0.0025603464 0.00880298 -0.015289323 0.01608483
-0.00061575853 0.015569671 -0.00963696 -0.0018845522 -0.03006332 -0.03078439 -0.04214937 -0.031159662
-0.054536894 -0.036326956 -0.04097119 -0.04576064 -0.048810534 -0.041576967 -0.023678623 -0.03934299
-0.007758174 0.02964994 0.058638602 0.03802911 0.016345276 -0.0022925 0.0730592 0.060190573
0.0882083 0.09513491 0.026295573 0.0367856 0.023026714 0.22383054 0.31404486 0.23417366
0.037676774 -0.036605597 0.06528116 0.1298383 0.105199285 0.025200965 0.015185491 -0.039366413
-0.086913645 -0.044216726 -0.02823009 -0.048060738 -0.024314564 -0.035213523 -0.079068266 -0.06430626
-0.0790024 -0.0071310634 -0.023492532 -0.04501445 -0.04399225 -0.07049138 -0.026691228 0.024962425
-0.0063513666 0.03765298 0.016102279 -0.013252072 -0.017580718 0.020694416 0.008811801 -0.052739535
0.011020639 -0.00019550069 0.022609266 -0.034051012 -0.033794876 0.012385639 0.0033465624 -0.0032655662
-0.027128672 -0.027339911 -0.023618858 -0.014201718 -0.018211758 0.037844196 0.056973632 0.04569043
0.02932276 0.051722083 0.04162744 -0.002146788 -0.016782299 -0.050902087 -0.043381225 -0.029621525
-0.040305708 -0.01023872 -0.027341569 -0.014163223 0.01761939 0.010751978 -0.014371096 0.01813784
0.03586581 -0.022960305 -0.022789003 -0.025752315 0.011312684 0.009587528 -0.031572543 0.009427208
0.047494072 -0.031006683 -0.005197629 -0.042895425 0.007574098 0.07578115 0.05469345 0.0043071453
0.00089370704 -0.025417555 0.018084234 0.03295641 0.032813013 0.017105825 -0.051299054 -0.02688719
-0.04601353 -0.015929408 0.034149643 -0.053762656 -0.005763875 -0.019672206 -0.03030975 -0.00508778
-0.0381616 -0.029964725 0.07932244 0.10188464 -0.0047245678 0.02029305 -0.034344744 0.025082113
0.06755916 -0.024555966 0.014028712 -0.0009211485 -0.044501252 -0.040777944 -0.04731891 0.0034727792
0.0022252342 -0.048109047 -0.03807936 -0.037321273 -0.021864425 0.05463111 0.025257753 -0.044998035
-0.011895649 0.025106672 -0.012469908 -0.021346167 -0.02310251 -0.009264123 -0.016971352 0.0013471136

conv_layer2.bias f4 [32]
00000000: 8978 4abc ec75 8ebc 19a3 133c 84d8 6a3b
00000010: 615b 84bb d517 54bc db4c 76bc 121d 723b
00000020: 2372 b1bb 08e1 913b 1aa2 78bc 7ac6 d9b9
00000030: 13c2 cb3b 8b5e bdbb ff16 4c3c 5ccd 5a3c
00000040: d095 23bb 1d40 edb7 7e5f bc3a 1564 abbb
00000050: 63d6 0ebc ab83 70bb ce6b 8bbc 0065 4dbc
00000060: c49e a8bb 8712 ae3b ab15 36bc 683d 5ebc
00000070: 2ae0 d83a 68b2 c4bb 927d 913b 5f5b c53b
-0.012357839 -0.017390214 0.0090110535 0.003583462 -0.0040392135 -0.012945135 -0.015032972 0.0036943597
-0.0054152175 0.0044518746 -0.015175367 -0.00041537342 0.006218204 -0.0057790927 0.012456655 0.013354626
-0.0024961121 -2.8282457e-05 0.0014371721 -0.0052304366 -0.008718106 -0.0036699574 -0.017019179 -0.012536287
-0.0051458795 0.005312267 -0.0111135645 -0.013564445 0.0016546298 -0.006002713 0.004440018 0.006022855

fc1.weight f4 [120, 1152]
00000000: d467 b53c 33f6 32bb de70 82bc 5b53 b93c
00000010: 7269 c5bc 3306 88bb 1175 313c 53b9 77bb
00000020: 7798 213d e8a3 d23c f045 66bc 5c6e 75bc
00000030: 12a1 993c ba8a 403d 3763 a83c 1362 08bb
00000040: 653f 8f3c 55b9 abba c397 b43a edcc 29bc
00000050: 22ff b6bb 121d e8ba 10f3 823c 5e41 32bc
00000060: 9b9b 353c 25b8 b239 3bad 0839 e6d8 133c
00000070: c162 c4bc e145 f83c e800 f9bc a4ca f63b
00000080: 726d 1d3d 2a32 973c 7822 05bc 7b00 30bd
00000090: b084 153c fb61 0b3d e307 10bb 7618 90bc
000000a0: 210a 6f3c 0a60 a1bb 6df5 b0bc 5ed5 0dbc
000000b0: 2732 9bba 059e 28bc e2d1 55bc 5465 d93c
000000c0: f292 ccbc 92b1 f8bc afcb c6bc 4e9a 2dbd
000000d0: 790b 26bd 66a0 ff3c 2e51 de3c 53bd c53c
000000e0: 2e03 a1ba 069a 233b 6ff2 7ebc 0482 153c
000000f0: d499 f03b d4a2 393d f060 aa3c 8e96 ce3c
00000100: 3d9b 9a3c b42c 273c 75c2 8a3c 3090 8d3b
00000110: 2e28 af3c 0027 efba 231a 843c e55f 673c
00000120: 9839 74b9 2c64 9f39 87c2 cab9 b8cd 73ba
00000130: 547f e8ba db43 a8ba 6afe a73a adca d638
00000140: 504b 80b9 f812 b439 79c3 8137 35f1 2839
00000150: 2f51 a53a a3b5 ebba cea3 8ab9 f728 443b
00000160: e7ef d23a 9da9 4eba 0448 abb8 5464 e9ba
00000170: dc2c 0fba cdf7 b5b9 551e 16bb 5ce0 a1ba
00000180: 18d5 72b7 e789 d9ba 2a21 7339 bc5c 0c3a
00000190: f1ab 87ba 20e4 26ba 6e2a 3a3a 1d54 b8ba
000001a0: 98da dbb9 ffc6 b63a fb58 cf38 e76d 01bb
000001b0: a5c1 a5ba acae 513b df9a 8bba 5c42 f93a
000001c0: 9487 c5b9 b259 b5ba 3f5f b8ba a548 66ba
000001d0: bbdd 7838 ffff d03a 6dcc 8f39 9dc8 0a3b
000001e0: 9add a5ba edcd 2b3b 965a d8ba ecbd 45ba
000001f0: 9893 06bb eaed bf3a 8ddd fb38 635d 923a
00000200: 245b 2c3a 005a db3a 591d 4a39 fb50 2a3a
00000210: 6374 dc39 9e0e 8a39 b285 003b 49c5 e0b9
00000220: f306 3bb9 8d40 d1b8 cf57 813a b3e7 2dbb
00000230: 5855 bcba 5041 12ba d997 17bb dca2 a7ba
00000240: ca32 703b 3fe4 d53b f0ce 74b9 a83e 3ebb
00000250: 1c9e 34bc 6109 20bc bd07 7e3b 4dbd 2e3c
00000260: c20f 513c 6980 783c bcf0 963c 570d db3b
00000270: 238d de3b d89c 5e3c 7d23 903c 657c 8b3c
00000280: 3c6a 793c 4318 1e3c 087e a63b efa9 233c
00000290: 9714 943b f06a 6fbb ff59 8cbb 7306 7ebb
000002a0: 4116 9bbb fa51 cdbb d205 15bc ea32 89bb
000002b0: c264 58bb 7cf7 193b 6f69 03bc 1121 37ba
000002c0: 94e4 a23b 2731 983b be6b 1e3b 90a1 ccbb
000002d0: cc16 b1bc de29 3e3b faf5 933c 8fc7 9f3b
000002e0: af4c 90bb 83af 5f3b 23f8 823b a6ff 373a
000002f0: 1dd7 033c 93c2 ed3b 902c eebb 9c06 84bc
00000300: 5e84 853b 477a b73b cda0 f7bb d4bb 713b
00000310: 81d6 feba 1051 10bc 0792 c83b bdd6 da3b
00000320: 9201 a03b 67d4 123d e2c2 2d3d 8383 db3b
00000330: 8788 35ba ffb4 853c 2e71 b03c 56c5 cc3c
00000340: 4553 c33c e8e7 23bc a5c5 ed3b 9863 a63c
00000350: 9b7a 643c d199 9c3c c876 a83c eb73 d9bb
00000360: 37e2 56bc cb46 0c3b 4f59 d23a 27cc 7e3a
00000370: a806 2d3b d35e 713b 363a 75bb ff9e de3b
00000380: e01f 55ba b593 6dba c42d 37bb 4eb3 263b
00000390: 91da e73a 8e36 133b d5e5 ceba 8ffc baba
000003a0: 222f 6dbb c000 a2ba 3c8e d83b 18d6 21bb
000003b0: 4893 20b9 241e ebba 4a48 35bb 1347 8b3a
000003c0: 0022 95bb 72bd 98bb 0cd9 513b 0d63 ebba
000003d0: 316c 783b 8ed4 68bb 2e4c 8f3b 2693 e33a
000003e0: 5587 73bb 808e 663b 281e 15bb f1f8 95bb
000003f0: 7d80 c2bb 1c20 e8bb b65a 25bc 7888 143a
0.022144236 -0.002730739 -0.01592296 0.022622755 -0.024098132 -0.0041511296 0.010831133 -0.003779967
0.039452042 0.025712922 -0.01405476 -0.014979925 0.018753562 0.0470073 0.020555122 -0.002081041
0.017486284 -0.0013101498 0.0013778139 -0.0103637995 -0.0055846134 -0.0017708859 0.015985042 -0.010879843
0.0110844625 0.00034088004 0.00013034504 0.009023881 -0.02397287 0.030306758 -0.03039594 0.007531481
0.038434453 0.018456537 -0.008125894 -0.04296921 0.009125873 0.03402899 -0.0021977357 -0.017589789
0.014589817 -0.004924779 -0.021601403 -0.008656828 -0.0011840508 -0.010291581 -0.013050528 0.026537575
-0.024972413 -0.03035811 -0.024267046 -0.042383485 -0.040538285 0.031204414 0.027138319 0.024138128
-0.0012284273 0.0024963631 -0.01556073 0.009125236 0.0073425565 0.0453213 0.020798177 0.025218274
0.018872852 0.010203529 0.016938427 0.004320167 0.021381464 -0.0018245876 0.016125744 0.014121984
-0.00023291109 0.00030401477 -0.00038673377 -0.0009300369 -0.0017738142 -0.0012837605 0.001281691 0.000102420665
-0.00024470175 0.00034346408 1.5469022e-05 0.00016111585 0.0012612696 -0.0017983209 -0.00026443455 0.0029931644
0.0016093225 -0.0007883551 -8.167329e-05 -0.0017806389 -0.00054617017 -0.00034707636 -0.0022906263 -0.001235019
-1.4473939e-05 -0.0016596884 0.0002318664 0.00053543947 -0.0010350925 -0.0006366391 0.00071016594 -0.0014063154
-0.000419338 0.0013944804 9.887103e-05 -0.0019749345 -0.0012646212 0.0031994982 -0.0010651014 0.0019016969
-0.00037675782 -0.0013835935 -0.0014066471 -0.00087846286 5.933431e-05 0.0015945433 0.00027427395 0.0021176704
-0.0012654543 0.002621527 -0.0016506489 -0.0007543254 -0.002053475 0.0014643047 0.0001200988 0.0011166747
0.00065748603 0.0016735196 0.00019275154 0.00064970524 0.00042048385 0.00026332302 0.0019610939 -0.00042871598
-0.00017836299 -9.97792e-05 0.0009868088 -0.0026535809 -0.0014368696 -0.00055791903 -0.002313128 -0.0012789625
0.0036651366 0.006527453 -0.00023346744 -0.0029029045 -0.011024024 -0.009767861 0.0038761937 0.01066525
0.012760105 0.015167334 0.018425338 0.00668494 0.006791727 0.013587199 0.017595047 0.01702709
0.015223082 0.009649339 0.005080942 0.009989246 0.004519056 -0.0036532246 -0.0042831893 -0.0038761168
-0.0047328775 -0.006265876 -0.009095626 -0.0041869776 -0.003301904 0.002349346 -0.008020743 -0.0006985823
0.0049710963 0.0046445313 0.0024173106 -0.0062448457 -0.021617316 0.0029016654 0.018061627 0.004876084
-0.0044036726 0.0034131713 0.0039968654 0.00070189906 0.0080468925 0.007255861 -0.007268496 -0.016116433
0.0040746173 0.0055992934 -0.0075570107 0.0036885636 -0.0019442589 -0.008808389 0.0061209234 0.006678431
0.0048829997 0.035847094 0.042422183 0.006699027 -0.0006924946 0.016321657 0.021538343 0.02499644
0.023843417 -0.010004021 0.007256227 0.020311162 0.013945247 0.019116314 0.020564452 -0.006636133
-0.013115457 0.00214045 0.0016048345 0.0009719752 0.0026401673 0.0036830201 -0.003741873 0.006793856
-0.0008130055 -0.00090628426 -0.0027950862 0.0025436464 0.0017689039 0.0022462937 -0.0015785048 -0.0014265942
-0.0036191423 -0.0012359843 0.0066087525 -0.002469426 -0.00015313656 -0.001793806 -0.0027661496 0.001062604
-0.0045511723 -0.0046612555 0.003202024 -0.0017958597 0.0037906284 -0.0035527083 0.004373095 0.0017362579
-0.0037159522 0.0035180151 -0.002275357 -0.0045767953 -0.005935727 -0.007083906 -0.010092428 0.00056660874

fc1.bias f4 [120]
00000000: 3459 903a fe71 2dba 10b2 443a ce96 62ba
00000010: 50f3 2d39 4ff7 80bb 84a1 0abb df21 3c3a
00000020: 234b 03bb 474c 9938 19a8 7cba 7eef 143a
00000030: ef0b 34ba de82 2abb e2aa 02bb f766 ccb8
00000040: 8d79 153b e6f9 e339 be76 c8ba 1997 3cba
00000050: 02ed 703a f6e1 a7ba df7a 2f39 31d8 26ba
00000060: 2a0b 59bb 070c 1f3a 2c63 d03a 1997 b5ba
00000070: 6944 2cbb dfde 9c39 64a2 81ba 1aae 103a
00000080: 0ac2 c6b8 6b09 10b9 a23f e4ba 416b f2ba
00000090: 9801 4fba 49a3 2e3a 7556 96ba ae9d 8ab9
000000a0: 7f2a 1ebb 6ea6 14bb 234a a1b9 852c 17ba
000000b0: 2217 5fbb 7ce5 23bb 37ef b0ba ddb8 2bbb
000000c0: 1930 a2ba 62c0 d0ba 9490 a3ba e920 d5ba
000000d0: 09aa acb9 281d 18ba 490a a1ba 666f 03ba
000000e0: eecd 95ba 1736 daba 028b 3e3a 9cb4 f2ba
000000f0: d22a bbba 37f6 3cbb c76c 41bb 4c31 1339
00000100: ba34 37ba 1a5f d73a c0ab 1cbb 6c41 f1ba
00000110: cc77 38ba 95cf 28bb 87d6 dfba e6ab 323a
00000120: db09 9cb9 8c80 9f39 22ce 843a e28f d8ba
00000130: 70c6 02bb d6c4 9eb9 5261 12bb 58e6 55bb
00000140: 9cb1 a6b8 612c aab9 ce46 bbba 282e 5e3a
00000150: 5b20 0a39 8f32 08bb e1e9 2db9 889d 92ba
00000160: ee7e 9038 d248 a838 8a4a 8e39 d167 5eba
00000170: 04f5 9bba d76f d7ba b49f 9e39 5b64 a63a
00000180: 4509 6f3a 7b4c 1aba 17a0 623a 3852 70bb
00000190: 1037 a23a c2fb 84ba dcf6 edba 2a76 b1ba
000001a0: d78d f4ba 935a aeba bcb3 7dba 264f 32b9
000001b0: c951 153a 583f 5b3a 7041 f2ba 6810 78bb
000001c0: 21d7 15bb a741 79b9 dc7e 39ba 7367 a1ba
000001d0: 484c c7ba ced9 3db9 64d8 a63a af18 e4b8
0.0011012913 -0.00066164124 0.000750334 -0.00086436875 0.00016589207 -0.0039357315 -0.00211534 0.0007176678
-0.0020033799 7.309816e-05 -0.00096380856 0.0005681439 -0.00068682333 -0.0026017944 -0.001993828 -9.746657e-05
0.0022808046 0.00043483003 -0.0015294177 -0.0007194146 0.00091905904 -0.001280843 0.00016735074 -0.00063646125
-0.0033118227 0.0006067161 0.0015898696 -0.0013854235 -0.0026285893 0.0002992069 -0.0009890315 0.0005519107
-9.477518e-05 -0.00013736419 -0.0017413984 -0.0018495099 -0.0007896661 0.00066619046 -0.0011469858 -0.00026438892
-0.0024134216 -0.0022682208 -0.0003076355 -0.0005766827 -0.0034040888 -0.002500861 -0.0013499026 -0.0026202716
-0.0012373953 -0.0015926475 -0.0012479001 -0.0016260418 -0.00032933083 -0.00058026845 -0.001228639 -0.0005013853
-0.001142917 -0.00166482 0.00072686386 -0.001851696 -0.0014279729 -0.002883328 -0.00295143 0.00014037377
-0.0006988753 0.0016431541 -0.0023906082 -0.0018406338 -0.0007036894 -0.0025758494 -0.0017077484 0.0006815776
-0.00029761982 0.00030422618 0.0010132233 -0.0016522373 -0.0019954704 -0.00030282763 -0.002233584 -0.0032638516
-7.948579e-05 -0.00032457992 -0.0014288069 0.0008475506 0.00013172759 -0.0020782088 -0.00016585692 -0.0011185864
6.8900976e-05 8.024428e-05 0.00027139887 -0.0008484098 -0.0011898582 -0.0016436529 0.00030255096 0.0012694703
0.0009118508 -0.000588603 0.0008645071 -0.00366701 0.0012376029 -0.001014583 -0.0018155235 -0.0013539244
-0.0018657994 -0.001330214 -0.00096779666 -0.00017004888 0.0005696086 0.0008363626 -0.0018482637 -0.0037851576
-0.0022863823 -0.00023770948 -0.00070760935 -0.0012314155 -0.0015205229 -0.00018105583 0.0012729284 -0.00010876485

fc2.weight f4 [80, 120]
00000000: be89 31bd 1d23 adbc d52f 00bd 2165 023d
00000010: 58b6 07bd c87e 0ebd 1854 693b 8bdf dfbc
00000020: 8f7e c13c 152c 2e3a 6073 fe3c a09f 103c
00000030: d03a 81bc 5831 b9bc 4970 4c3c 2b76 093d
00000040: b03f 1abd 64b2 0bbc bc2f 2f3c 5fc2 b93c
00000050: d07e ffbb 3777 c33c 959f 2d3c 458d d43a
00000060: 3189 553d 8bc5 003d 53c5 0f3b 4161 003c
00000070: 7987 093a 34eb 10bb aa90 6fbb e1ee 883c
00000080: 5acc b5bc 2a4c acbc 7d74 b2bb 1e99 b7bb
00000090: 604a a0bc 7e34 28bb 0d6c e0bc a3ad 3bbd
000000a0: e533 3f3d fb82 5dbc 966e 1bbd 9525 823d
000000b0: bf54 353c 216d 9ebb 3972 7e3a 381f 233c
000000c0: 36bc 45bc 3365 403c a5cb 8e3c cbdd 82bb
000000d0: 5a4a 013d 6ae5 1cbc fa1d 3d3d 1360 f5bb
000000e0: 5877 3dbc d54b a83b f15d e8bb 258f c03c
000000f0: 0a67 e739 f682 1d3d a240 b23c 392a 333b
00000100: 765b 1a3c 6666 d63c 0bb2 03bc aa7b 963d
00000110: 78f2 d1ba f767 c13a 2838 633d bd1f 573b
00000120: 9eed 323d 1bce cd3c d081 bcbb 1460 5d3c
00000130: f582 bfbc 77ae 40bc 0577 5fbc fb6c 1cbc
00000140: 6898 babc 559d be3c c0fd d13c efaa 14bd
00000150: 7626 eb3c 0cdb 9cbc e649 be3c b81f 693c
00000160: 039a ed3b e348 0cbc 0a34 2e3d 152e 71bc
00000170: 30fe 98bb bc2f 25bc 18ad 1b3b dfa7 bbbb
00000180: 7992 dd3b 57eb 25bd e8fe 033d bb46 90bc
00000190: 37c0 9a3b 9232 a1bc 7679 813b 5911 133c
000001a0: cc0c f23c 15d6 f1bc 1724 a43d 9345 9f3d
000001b0: e21a c7bc 9dbc a1bb b9da ffbb 8daa b33c
000001c0: 57d7 a9bb bd4e 4f3d deb0 113c 6b08 a6bc
000001d0: 3059 e73b 1739 3d3b 78fa 21bb 95f0 b1bc
000001e0: b93f 803d 4c97 903c 0962 62bc a1e5 59bc
000001f0: 7158 adbc 8d96 0fba c84b 3f3b f85c 263d
00000200: 9853 c2bc e810 bdbc d05b 9fbc 6102 5e3c
00000210: 1195 2b3d 226a 4f3d 28d1 653d 0bd3 0abd
00000220: 93c5 c7bc 6576 c63c 6825 a63a bd6d 62bd
00000230: 923c c93a f977 d73c 351d d23c c043 a23d
00000240: e77f e33b bf7e c1bc f025 b1bb 0f52 0a3c
00000250: 79bb a9bb 408f 20bc 31af 32ba f128 e53b
00000260: 3de1 db3c d63b 133d 4f08 47bb 0a1b 2bbc
00000270: 1a3c 9bba 5d73 b53c e09a da3b 3640 a93c
00000280: b613 8d3c 6667 563d 03ac cbba 6259 ffbb
00000290: 3bd9 aa3b fe9d da3c 1cda 443b 418b 86bb
000002a0: fe74 dabc 4592 04bd a403 183d 91f9 e7bb
000002b0: a525 1ebc 93f7 62bc 51b4 4f3d 0bfd 903d
000002c0: b1e6 263c 1d0b 933b 6f69 4a3c a1f0 35bd
000002d0: 05b9 a4bb fac6 beb8 b6e0 7b3d 326a 793b
000002e0: c697 01bc 2331 ffbb 11d4 4f3d e26e a3bd
000002f0: 4b0f 0abc 628d 8c3c 5d65 adbc 7059 fd3c
00000300: 62e0 9cbc 1b5a 183b 5f1b 483b 0754 c5bc
00000310: cc0a 7fbc 1412 a33c 0c22 f8bc f8ac 83bd
00000320: a831 89bc bb2c 153d 8aba 21bd fd81 f1bb
00000330: e6b6 22bc 1498 3a3b 6a78 44bb 5de7 1c3c
00000340: 5665 d7bb b3ec 8f3b 9cce 2c3d 3b8f 87bb
00000350: 5a60 f53a 2be3 ca3b 5c69 143c 305b 113d
00000360: cdc3 3cbd debd d9bc 6373 6c3d 2a41 9a3c
00000370: 9290 5ebb e878 8eb8 bbb5 883b 91d2 07bd
00000380: 686e 60ba 7dce b43c 5dd4 133d 2b74 3e3d
00000390: ea14 a43c c1b7 8e3b f030 883c 24bb 51bd
000003a0: d017 a23c 021f 5c3c b842 6c3d 5225 aabb
000003b0: b07b 5d3c 3a42 29bc 4ed5 9ebc 1ee4 1a3c
000003c0: e979 0e3b 1c71 b3bb fc0a c8b9 bdd2 b4bb
000003d0: 00a7 43bb 5475 803b 9bc6 d839 09dd a83b
000003e0: 72f1 f53a 7a30 f93a 1dde 2aba 2d20 2a3b
000003f0: c3e2 66bb e176 36bb e1b8 6c3b 14f0 69bb
-0.04334425 -0.021134907 -0.031295616 0.031834725 -0.03313288 -0.034788877 0.0035603102 -0.027328273
0.023619918 0.0006644142 0.031060874 0.00882712 -0.015775114 -0.022606537 0.012477943 0.03355996
-0.037658393 -0.008526418 0.010692533 0.022675691 -0.0077970996 0.023860557 0.010597129 0.0016216418
0.05213279 0.03143839 0.0021937683 0.007835687 0.0005246322 -0.0022112848 -0.0036554732 0.016715469
-0.022192169 -0.021032412 -0.0054460154 -0.00560297 -0.019566715 -0.0025666053 -0.027395273 -0.04581989
0.04668035 -0.013519998 -0.03794726 0.063548245 0.011067568 -0.0048347865 0.00097063516 0.009956174
-0.012068799 0.011742878 0.01743109 -0.003993725 0.031565048 -0.009576181 0.046171166 -0.0074882596
-0.011564098 0.005135993 -0.007091277 0.023505757 0.00044136524 0.038454972 0.021759335 0.00273384
0.00942122 0.026171874 -0.008038054 0.07347806 -0.0016017696 0.0014755715 0.055473477 0.0032825314
0.04368364 0.025122693 -0.0057527795 0.013511676 -0.023377875 -0.011760346 -0.013639216 -0.009547467
-0.022777751 0.023268381 0.025633693 -0.036295827 0.028704863 -0.019147418 0.023228597 0.014228754
0.0072510256 -0.008562299 0.042530097 -0.0147204595 -0.0046689734 -0.010082182 0.0023754295 -0.005726799
0.0067618457 -0.04050764 0.03222552 -0.017611852 0.004722621 -0.019677434 0.003951247 0.008976304
0.029547118 -0.029521028 0.08014696 0.07776942 -0.02430481 -0.0049358145 -0.007808056 0.02193191
-0.005183141 0.0506122 0.008892266 -0.020267686 0.0070601925 0.002887314 -0.0024715941 -0.021721164
0.06262154 0.017650269 -0.013817319 -0.013299377 -0.021160336 -0.0005477451 0.0029189456 0.040616006
-0.023721501 -0.02307935 -0.01945296 0.013550372 0.041890208 0.050638326 0.05610767 -0.033892673
-0.024386203 0.024226377 0.0012675943 -0.055280436 0.0015353134 0.026302325 0.025648693 0.079230785
0.0069427374 -0.023620008 -0.005406134 0.008442416 -0.005179819 -0.009799778 -0.00068162667 0.006993406
0.0268408 0.035945736 -0.0030369943 -0.010443458 -0.0011843473 0.022149736 0.0066712946 0.020660501
0.017221313 0.052344702 -0.0015538934 -0.0077926377 0.005213884 0.026686665 0.003003723 -0.004105956
-0.026667114 -0.032366056 0.037112847 -0.007079311 -0.00965253 -0.013852972 0.050709073 0.07079514
0.010186837 0.004487409 0.012354239 -0.044418935 -0.005026939 -9.096968e-05 0.061493598 0.0038057682
-0.007909721 -0.00778784 0.05073935 -0.079801336 -0.008426498 0.01715726 -0.021166498 0.030926436
-0.019149963 0.0023247066 0.0030533893 -0.024087919 -0.015566539 0.019906081 -0.030289672 -0.064294755
-0.01674731 0.03641961 -0.03948454 -0.007370232 -0.009931302 0.0028471993 -0.0029979 0.009576646
-0.0065733595 0.0043922304 0.042189226 -0.0041369474 0.0018720732 0.0061916313 0.009058323 0.035487354
-0.046085168 -0.026579794 0.05772723 0.0188299 -0.0033960682 -6.793608e-05 0.0041720546 -0.033159796
-0.00085613737 0.022071118 0.036091197 0.046497505 0.020029504 0.0043554013 0.016624898 -0.05120386
0.019786745 0.013435127 0.057680815 -0.005192437 0.013518259 -0.010330731 -0.019388821 0.009453801
0.0021740145 -0.00547613 -0.00038155157 -0.005518286 -0.0029854178 0.0039202366 0.00041346703 0.0051533026
0.0018763973 0.001901164 -0.0006518083 0.002595912 -0.0035230375 -0.0027841853 0.0036120939 -0.0035696076

fc2.bias f4 [80]
00000000: 4022 c1bb b22a 063b 90b9 2f3a 8157 54bb
00000010: eb6c 3cbb eede b13a 2853 eb3b 4e67 003a
00000020: 0c72 c8bb 2353 dcbb 59f5 49bb 228e 91bb
00000030: 2fb5 9f3a 27f5 4bba a6ab aabb 633c 3a3b
00000040: 0469 04ba d9e2 9f3a 73af 903b f455 c8ba
00000050: fbe1 88bb 5c55 2ebb 390d e83b d752 8a39
00000060: d8ce a9bb c753 163b 15c2 243b eb7f b5bb
00000070: 5a14 c339 201f 1ab9 83d9 cabb 619f 283a
00000080: ad6f a23a ce0c 9f3b 38f2 35b9 2cb2 b43a
00000090: 15c5 b7bb 44e9 7dba 2216 a93b 4193 40bb
000000a0: db3e 19bb 7da1 63bb b534 7cba c35f 27bb
000000b0: 4096 023b b65e 4a3b cb47 193b 82b4 dcbb
000000c0: 810f 8fba 6c9b 6f3b 0736 08bb bfd8 633a
000000d0: c8d3 ecba 4f55 853a ab40 8bbb b01c eab8
000000e0: 2843 9b3a c442 8cb9 fa26 f53b fcbe 2fbb
000000f0: fa8c 50bb 7b8b 96bb 3c7b 873b b5e9 88bb
00000100: 73b8 4fbb cb19 033b 19ab 7d3b 306a d0ba
00000110: d8b5 73ba 14f9 6b3b 8690 c7bb 337f efba
00000120: d7e1 73ba ecbf 8e3a ca7d 67bb ca81 ab39
00000130: 1741 fc39 2351 f93a 2695 993b a1e9 893a
-0.0058939755 0.0020472226 0.0006703371 -0.003240079 -0.0028751444 0.0013570467 0.007181544 0.0004898206
-0.006117111 -0.006723778 -0.0030816405 -0.0044419924 0.0012184734 -0.0007780366 -0.0052084504 0.002841734
-0.0005051049 0.0012198343 0.0044154464 -0.0015284405 -0.0041773296 -0.002660117 0.0070816544 0.00026383132
-0.0051821284 0.0022938119 0.0025140096 -0.0055389307 0.0003720846 -0.0001469818 -0.00619048 0.0006432441
0.0012392901 0.0048538214 -0.00017351739 0.001378601 -0.005608211 -0.00096859434 0.005160109 -0.0029384645
-0.0023383412 -0.0034733706 -0.0009620891 -0.0025539256 0.0019925982 0.0030879206 0.002338874 -0.0067353854
-0.0010914655 0.0036561145 -0.0020784156 0.00086916605 -0.0018068487 0.0010172519 -0.0042496524 -0.00011163333
0.0011845576 -0.00026752625 0.007481453 -0.0026816716 -0.003182231 -0.004594264 0.0041345637 -0.0041782507
-0.0031695634 0.0020004387 0.0038706718 -0.0015900787 -0.0009296811 0.0036006616 -0.0060902266 -0.0018272161
-0.0009303367 0.0010890937 -0.003532278 0.00032712362 0.0004811368 0.0019021373 0.0046869693 0.0010521897

fc3.weight f4 [40, 80]
00000000: fd3c 0a3d f24f f9bc 2ed4 ecba 2eff 6c3c
00000010: 5450 72bc 82cd e4bc 9b31 a63c 4b80 873d
00000020: 39f3 64bd dab6 2d3d 3c07 7b3d 688d f13a
00000030: b9dd 05bc d99b 5dbb e7ff 5abc 32ba 88bc
00000040: 2ae1 28bd 447e 8e3c 370c 183d 52b6 353d
00000050: 0f74 283d a415 ef3c 818a b3bc ad9d 6fbb
00000060: 7cf4 7e3c f2b4 823d 9a02 25bd 5736 b0ba
00000070: 0e61 a7bc b0c0 313d fd58 80bc 6e29 9fbc
00000080: c710 8f3d 9a4c 573c 3f54 75bb 46b4 123d
00000090: 342e 813b f649 d3bc a3dc a73c 7023 09bd
000000a0: 5a81 aa3c 2b10 a33b 93f2 e8bc 7c57 633d
000000b0: 57b7 603d a728 5cbd a161 f7bc 23af 83bc
000000c0: 4a91 503c 665d 16bd b7b1 27bd db0a 433c
000000d0: 55c5 91bc 3da9 b33d 8667 713d c41a b33c
000000e0: 5828 343c 5229 2a3d bdcd e2bc 6182 d7bb
000000f0: 1385 223d 999a 413d 0f92 6abd 5f61 033d
00000100: 5e19 8a3d c62f 4b3d 55dc 8c3c cc13 ca3c
00000110: 2149 fbbc 7d7b b7bc 5b3d 963c bd7e 33bc
00000120: 7fc0 483d cd41 b9bc 253f 903d 9f76 5abd
00000130: b94c 673d 6076 f63c 2dc8 0ebd 6060 24bd
00000140: aaef 0fbd 6b26 5e3d 4d0f 6b3a 502a c4bc
00000150: 647c 9d3c acd1 3b3d 5141 54bc 1c2b 723d
00000160: 4971 273d 609f 2b3d ca3b 8a3d a1d2 9abb
00000170: 2029 9c3d 26b4 c4bc 530f 6ebc 7614 cc3b
00000180: f31d 2bbd 5c0d 33bc ef55 96bc 3547 bbbc
00000190: 2ebb 5fbc 6eaf 113d d475 6139 7a7d 7d3c
000001a0: 2b8b 103c a950 413d 76f4 cebc 4c31 aebc
000001b0: 743f 353b 9594 003d dc90 b0bc 192d 4ab9
000001c0: d8cd 1b3d 6068 c0bc da71 89bc c5d8 7e3d
000001d0: 6872 3639 5140 39bc 8dcb 8d3d 20bf ca39
000001e0: 2a1e 8b3d 0bd6 21bb 92fd 04bc 81eb d4bc
000001f0: 191c 2bbd c06f 85bc 1770 213d 525b f1bc
00000200: fad0 a13b 84c5 0bbd 62bb 96bc d907 92bc
00000210: d9ac 0bbc 0d51 093d 4679 58bc 06fa 083a
00000220: def6 8e3b 005f 6b39 142f 95bb 946f 103d
00000230: 4eb7 13bd db13 263d ebc8 153d ad6f 99bc
00000240: b2b5 303d d539 1f3c 4e1e 1fbd 8534 903d
00000250: f05d 3e3b 50ad 2fbc 8ad8 273b 8d6a f3bc
00000260: fad4 573d 774f babc 9526 423d 8f1c 183c
00000270: bc2b 0dbd 4385 0bbd 61f5 953d 5ed3 23bd
00000280: 1cef b63b e7c7 eebc dd81 bfbb 4bb0 0bbd
00000290: 126f 8bbc eb37 20bd 50a4 f2ba 764d 39bd
000002a0: a6b6 44bc 204b 39bc 5cc9 8c3d df4f 9837
000002b0: eafa dd3c 7e1b 03bd ab3d ac3d 4f55 dbbc
000002c0: 53fe bb3c be4c 09bd 488b 373d 8c08 783c
000002d0: 1c4b e13c 03ea c5bc 8556 013d 0881 403c
000002e0: f02a b3bc 1f20 8ebb f783 01bd 007a 8c3d
000002f0: 6dc2 943d fd70 10bd 090b 023d e575 aabc
00000300: 48b2 043d e8ab 20bd 4a91 173d aad7 723d
00000310: cf88 b4bc 78ad ad3d 85c5 443d 253a 07bc
00000320: 1071 b5bc 8c5d adbb fbd4 813d fb52 933d
00000330: 6fc5 743d 6f3f c63b d36c 523d ea7d 3e3c
00000340: a0da 193d 36b8 8b3d 99d4 e63b 61a9 1fbd
00000350: 492c 06bb 97ef 7fbc 28af 7cbd fd55 0d3b
00000360: 6015 e1bb 8024 883d adef 62bb 2916 053d
00000370: c95c 823d 84fa 953d 4ce4 70bc 0480 723c
00000380: 0fd1 493c 2afa 10bd 0109 80bc 70af 2abd
00000390: 1dd8 62bd f467 883d 09eb f73c 1118 09bc
000003a0: ba9c 1dbd ae5c fdbb ae2a efbc c3e1 0bbc
000003b0: 1e20 a73d bf6b 25bd c10f 913c 9281 56bd
000003c0: a85f c6bc cce5 d0bb 3973 ebbb 9a9f d23c
000003d0: 35f6 dd3c dbc4 d2bc a6ee 5c3d 080d 55bd
000003e0: 5517 28bc 1fe9 babb 00d9 eabc 28ad 733b
000003f0: 4541 fa3c e71f 1ebd 980f 44bc b376 723d
0.03374957 -0.030433629 -0.0018068606 0.014465136 -0.0147896595 -0.027930025 0.020287326 0.06616267
-0.055896018 0.04241071 0.061286196 0.0018428983 -0.008170539 -0.0033814816 -0.013366676 -0.016690347
-0.04123036 0.017394193 0.037121024 0.044363327 0.041126307 0.029185124 -0.02191663 -0.0036562488
0.015561219 0.06382169 -0.040285684 -0.0013443929 -0.020432021 0.04339665 -0.015667433 -0.019428935
0.06985622 0.013140822 -0.0037434248 0.035816453 0.0039422754 -0.025792103 0.02049095 -0.03348106
0.020813633 0.0049762926 -0.02843598 0.055503353 0.054862347 -0.053749707 -0.03019792 -0.016074723
0.012729952 -0.036710165 -0.040940966 0.011904444 -0.01779429 0.08772514 0.05893662 0.021863349
0.010995947 0.041543312 -0.027685994 -0.0065768217 0.03967769 0.047266576 -0.0572682 0.032075282
0.0674312 0.049606107 0.017194906 0.024667643 -0.030674519 -0.022397751 0.018339803 -0.01095551
0.049011704 -0.022614384 0.07043294 -0.053335782 0.056469653 0.030085742 -0.03485887 -0.040130973
-0.03514067 0.054235857 0.00089668186 -0.023945957 0.019224353 0.045854256 -0.012955026 0.059123144
0.04087952 0.04190004 0.06749685 -0.004724816 0.076250315 -0.024011683 -0.014530021 0.006228025
-0.04177661 -0.010928478 -0.018351523 -0.022861103 -0.013655467 0.035567693 0.00021501567 0.0154718105
0.008822243 0.047196064 -0.025263052 -0.021263741 0.002765623 0.0313917 -0.02155345 -0.00019281021
0.038038105 -0.02348727 -0.016777921 0.062218446 0.00017399492 -0.011306838 0.0692359 0.00038670842
0.06792863 -0.002469423 -0.0081170965 -0.025991203 -0.041774843 -0.016288638 0.039413538 -0.02946249
0.004938242 -0.034123912 -0.018399898 -0.017826008 -0.008525097 0.03352456 -0.013212508 0.00052252447
0.004362925 0.00022446737 -0.0045527313 0.03526266 -0.036063485 0.04054628 0.036568563 -0.018730009
0.04314203 0.009718378 -0.03884726 0.07041267 0.002904769 -0.010722473 0.0025611245 -0.029713893
0.052693345 -0.02274297 0.047400076 0.009284153 -0.034465536 -0.034062635 0.07322193 -0.039996497
0.0055827033 -0.029148055 -0.0058443383 -0.034103673 -0.017020736 -0.039115828 -0.0018512104 -0.045239888
-0.012006437 -0.011309415 0.06874344 1.8157005e-05 0.027097184 -0.03200864 0.084102 -0.026774077
0.02294842 -0.033520453 0.044810563 0.0151387565 0.027501635 -0.024159437 0.031576652 0.011749513
-0.02187106 -0.004337325 -0.031619992 0.06859207 0.07263646 -0.035264004 0.031748805 -0.02080817
0.032396585 -0.039226443 0.037003793 0.059287705 -0.022037892 0.08480352 0.04803993 -0.008253609
-0.022148639 -0.0052906927 0.06339451 0.07193562 0.0597586 0.0060500423 0.051373314 0.0116267
0.037562013 0.06822245 0.0070443866 -0.03897989 -0.0020473173 -0.0156210875 -0.06169048 0.0021566146
-0.006869003 0.06647587 -0.0034627721 0.032491837 0.063653536 0.07323173 -0.014702868 0.014801029
0.01231791 -0.035394825 -0.015629293 -0.041671216 -0.055381883 0.066604525 0.03026344 -0.008367554
-0.038479544 -0.0077319955 -0.029195156 -0.0085377125 0.08160423 -0.040385958 0.017707707 -0.05236966
-0.024215534 -0.00637505 -0.0071853665 0.02571087 0.02709494 -0.025728634 0.05393853 -0.05201438
-0.010259469 -0.0057040597 -0.028667927 0.0037182067 0.030548701 -0.038604643 -0.011966608 0.05919523

fc3.bias f4 [40]
00000000: fc2d e73b 0119 143c ef6a 78bb 11de 813c
00000010: 5633 ac3b 8b40 563c f4a1 cdba 7b51 273c
00000020: 0f04 a8bb 9d18 b339 aaed e4ba 1f79 993a
00000030: 3208 933b a132 333b 97cb d53b 466d 1f3c
00000040: 5507 033c 296c 0b3c 6a9b 283c 4a77 4e3c
00000050: 58ff 6a3c bef9 ad3b 496f 8e3b 47fd 983c
00000060: 1e40 023c eb71 933b 25df 7d3b 1278 913a
00000070: e141 f0b8 36e9 623b 5eea 713c 73fb 9b3b
00000080: aecb 143c 92cf f23a a035 b73b 53ca 063c
00000090: 0220 ce38 b0fb 0abc 91d1 8a3c 6dfa 0f3b
0.0070550423 0.0090391645 -0.0037905534 0.01585296 0.005255143 0.013076912 -0.0015688525 0.010212298
-0.005127437 0.0003415988 -0.0017465849 0.001170907 0.004487061 0.002734341 0.006524514 0.009730643
0.007997354 0.008509674 0.01029096 0.012601683 0.014343105 0.0053093126 0.0043467623 0.01867546
0.007949857 0.004499664 0.003873774 0.0011098406 -0.00011456363 0.0034623868 0.01476535 0.0047601997
0.009081764 0.0018524996 0.0055911094 0.008226949 9.8288074e-05 -0.008482859 0.016945632 0.0021969334
