outfiles/cnn/Ya32_40Train_cnn.pth (torch, 334015 bytes, 10 tensors)

conv_layer1.weight f4 [8, 1, 5, 5]
0	0xbe191272	-0.14948443
1	0x3cd90479	0.02649139
2	0x3c1cca13	0.009569663
3	0x3d5cad68	0.05387631
4	0x3ddbd4d2	0.10733952
5	0xbe9ff44b	-0.31241068
6	0xbe93eb2b	-0.28890356
7	0xbd69ff61	-0.057128314
8	0xbc1aa68a	-0.00943912
9	0x3e88f8b4	0.26752245
10	0xbe8e74b1	-0.27823403
11	0xbecc2a89	-0.39876202
12	0xbd8d5343	-0.069006465
13	0x3d5c373d	0.053763617
14	0x3e833637	0.256273
15	0xbdf2497c	-0.11830422
16	0xbe2d7f42	-0.16943076
17	0x3e35acd4	0.1774171
18	0x3e3e7466	0.1859909
19	0x3e82cc39	0.25546435
20	0x3d363182	0.044480808
21	0xbdc449d0	-0.09584391
22	0x3ec9e2d4	0.3943087
23	0x3eabfb3c	0.33590114
24	0x3ef1619a	0.47144777
25	0xbe9c8eb9	-0.3057764
26	0x3e359102	0.17731097
27	0x3e9151d5	0.28382745
28	0x3e9804d7	0.29691193
29	0x3e1ac5be	0.15114495
30	0xbe951ae2	-0.29122072
31	0x3dcf4ba1	0.10121847
32	0x3e82c453	0.25540408
33	0x3ed42567	0.41434786
34	0x3e0592a9	0.13044228
35	0xbe8458d8	-0.25849032
36	0x3dd561f9	0.104190774
37	0x3e5bebf6	0.2147673
38	0x3e8560c6	0.26050395
39	0x3e021439	0.12703027
40	0xbea7b426	-0.3275463
41	0x3d93843c	0.07202956
42	0x3dde19d3	0.10844769
43	0x3dbfa71d	0.09358046
44	0x3cd6f6ab	0.026240667
45	0xbebc3fba	-0.3676737
46	0xbcc10999	-0.023564147
47	0xbd14e63e	-0.03635239
48	0x3d2de52a	0.042454876
49	0xbd02fc5a	-0.031978942
50	0x3dc63880	0.09678745
51	0xbd12ccaf	-0.035839733
52	0xbe5e571e	-0.2171292
53	0xbe4dd91b	-0.2010235
54	0x3e2f14b3	0.1709774
55	0x3e0cf195	0.13764031
56	0xbdef5664	-0.116863996
57	0xbe4c6562	-0.1996055
58	0xbe3acba2	-0.18241742
59	0x3e9248d9	0.28571203
60	0x3db49b99	0.088187404
61	0xbe1a1f08	-0.150509
62	0xbe4058d4	-0.18783885
63	0xbd13905c	-0.036026344
64	0x3e74d0ac	0.23907727
65	0x3d4de8cb	0.050270837
66	0xbe1acb2e	-0.1511657
67	0xbe1eb696	-0.15499339
68	0xbbd8ca36	-0.0066159023
69	0x3dc52b06	0.09627347
70	0xbd287f75	-0.041137177
71	0xbe1873e1	-0.14887954
72	0xbe53477b	-0.20632736
73	0xbb64d387	-0.003491612
74	0x3e235c6a	0.15953222
75	0xbc180cb3	-0.0092803715
76	0xbba7f342	-0.005125434
77	0x3d52663f	0.05136704
78	0x3d5a64f5	0.053318936
79	0xbb1fce15	-0.002438431
80	0xbb3d5517	-0.0028889829
81	0xbcde89d4	-0.027165331
82	0xbcec5ec3	-0.02885378
83	0xbcd76a4a	-0.0262958
84	0xbbc0d549	-0.0058848006
85	0xbc77f624	-0.015134368
86	0xbcad65f1	-0.021166774
87	0xbc951e63	-0.018202966
88	0xbc893338	-0.016748056
89	0xb9b5e47e	-0.0003469325
90	0x3c43637b	0.011925573
91	0xbc8a24d3	-0.016863262
92	0x3c81527e	0.015786406
93	0xbc6203ce	-0.013794852
94	0xbc185cc3	-0.00929946
95	0xbc4aa28e	-0.012367858
96	0x3cfe485b	0.031040361
97	0x3bd19239	0.006395605
98	0x3ac84a6e	0.0015280971
99	0xbc1a59e9	-0.00942085
100	0x3dc63dc3	0.09679749
101	0xbe7f5f3a	-0.2493867
102	0xbe747df8	-0.23876178
103	0xbdd85541	-0.10563136
104	0x3e1abd8f	0.15111373
105	0x3cd53b5d	0.026029283
106	0xbe89d351	-0.26919034
107	0xbe498c99	-0.1968254
108	0xbd979f1b	-0.07403394
109	0x3d319365	0.043353457
110	0x3e0fdea0	0.14049768
111	0xbdad33b7	-0.084571294
112	0x3db51fcb	0.08843955
113	0xbc8cf594	-0.017206945
114	0x3e020ffb	0.12701409
115	0x3e6f7efc	0.23388284
116	0x3edfbc4c	0.43698347
117	0x3e5a5cd0	0.21324468
118	0xbe876c1a	-0.26449662
119	0xbde40c9b	-0.11135217
120	0x3e7bf24e	0.2460415
121	0x3f0396d7	0.5140204
122	0xbe43b3d9	-0.19111575
123	0xbea457b7	-0.3209817
124	0xbe5e0511	-0.2168162
125	0x3d60500c	0.05476384
126	0xbd2bfea7	-0.041990902
127	0xbd58f077	-0.0529637
128	0xbd2f3387	-0.04277375
129	0xbdc47702	-0.095930114
130	0x3e5b15d3	0.21395044
131	0x3d088f0a	0.033339538
132	0x3d1a1291	0.037615363
133	0x3d865097	0.0655834
134	0xbcb23804	-0.021755226
135	0x3ec8f9a5	0.39252964
136	0x3d006fa9	0.031356487
137	0xbe280cb4	-0.16411096
138	0x3e40304d	0.18768425
139	0x3d101f2b	0.035185974
140	0x3e90fd0b	0.28318056
141	0xbe7db77e	-0.24777028
142	0xbeac1842	-0.33612257
143	0x3df0508a	0.117341116
144	0x3e5118ad	0.2041957
145	0x3e0d7824	0.13815361
146	0xbe43a4a8	-0.1910578
147	0xbe7d774e	-0.24752542
148	0xbd63d299	-0.055620763
149	0x3d5e12e8	0.05421725
150	0xbdd25317	-0.102697544
151	0xbdcd9aa0	-0.10039258
152	0xbd9a6de5	-0.07540492
153	0x3e36880f	0.1782534
154	0x3e5f3b72	0.2180002
155	0xbdf31cc5	-0.11870722
156	0xbd8f9d77	-0.07012456
157	0xbe160c49	-0.14653124
158	0x3dba1c22	0.09087397
159	0x3d992b98	0.07479018
160	0xbd9e0ea5	-0.07717637
161	0xbd52141e	-0.051288716
162	0xbdbe5cd7	-0.092950515
163	0x3ac65c04	0.0015133624
164	0x3d874c73	0.066063784
165	0xbdccafc5	-0.09994463
166	0xbcd86f59	-0.026420282
167	0x3da0abb4	0.0784525
168	0xbc6a7af3	-0.01431154
169	0x3cfa6721	0.030566754
170	0xbd6b1eeb	-0.057402533
171	0x3dfa5187	0.12222581
172	0x3d234df4	0.039869264
173	0xbd74e34a	-0.059787072
174	0x3c4ebd6b	0.012618403
175	0xbd26db84	-0.04073669
176	0xbc1825e4	-0.009286378
177	0xbd2c22bb	-0.04202531
178	0xbd59009e	-0.052979104
179	0xbd0ee449	-0.03488568
180	0x3c6c8765	0.014436577
181	0xbc40aa0c	-0.011759292
182	0xbb6554e1	-0.0034993219
183	0xbd165999	-0.03670654
184	0x3d04b7a6	0.032401703
185	0xbcf9cb48	-0.03049244
186	0xbd63e846	-0.055641435
187	0xbd7a790c	-0.061150596
188	0xbc7c6fe7	-0.015407539
189	0x3dbedf0c	0.093198866
190	0xbd989e6b	-0.07452091
191	0xbd998993	-0.07496943
192	0xbd833fd2	-0.06408657
193	0x3dc275ae	0.09495102
194	0x3d396109	0.045258556
195	0xbd9a77ee	-0.07542406
196	0xbd50b419	-0.050953005
197	0x3d8398b9	0.06425614
198	0xbcacff3a	-0.021117795
199	0x3d9fa43e	0.077949986

conv_layer1.bias f4 [8]
0	0x3c92716b	0.017876348
1	0xba8148b6	-0.0009863588
2	0x3d0600e0	0.03271568
3	0xbb0f85b0	-0.0021899752
4	0x3cc3c520	0.023897707
5	0x3b99acd3	0.0046897917
6	0x3c221df0	0.009894833
7	0xba8a358a	-0.001054452

conv_layer2.weight f4 [16, 1, 5, 5]
0	0x3c918082	0.017761473
1	0x3dcc1114	0.09964195
2	0x3e7c6891	0.24649264
3	0xbe3cd91a	-0.18442193
4	0xbbe23c46	-0.006904158
5	0xbddde074	-0.10833827
6	0xbe2e4b0c	-0.17020816
7	0xbd893cb8	-0.06701034
8	0xbe4cd4cd	-0.20003052
9	0xbce7bcc3	-0.02828825
10	0xbe2c66ed	-0.16836138
11	0x3c1d7f49	0.009612867
12	0xbc33d488	-0.010975964
13	0xbd16a8d9	-0.03678212
14	0xbdec2261	-0.11529995
15	0xbd271640	-0.040792704
16	0x3e26515f	0.16241978
17	0x3d202a4e	0.039102845
18	0xbd618b1d	-0.05506431
19	0xbdd3a7f1	-0.10334767
20	0xbe36e6fa	-0.17861548
21	0x3e80e1f7	0.25172397
22	0x3e3b0393	0.18263082
23	0x3d8cf858	0.06883305
24	0xbdbe43be	-0.092902645
25	0xbd1d4626	-0.038396977
26	0xbd7103b2	-0.058841415
27	0x3d5b7603	0.05357934
28	0xbbd82541	-0.006596238
29	0xbe02a5e6	-0.12758598
30	0xbe037b29	-0.1283995
31	0xbd11f5f6	-0.035634957
32	0xbe1e2f37	-0.15447699
33	0x3da5a155	0.08087412
34	0xbd814447	-0.06311851
35	0x3c8ab216	0.016930621
36	0x3e44d225	0.19220789
37	0xbeba6c33	-0.36410674
38	0xbe016b87	-0.12638675
39	0x3e029822	0.12753347
40	0x3e915388	0.28384042
41	0x3ee31854	0.44354498
42	0xbe721dd7	-0.23644195
43	0x3d17ae23	0.037031304
44	0x3dfeda08	0.1244393
45	0xbe402e48	-0.18767655
46	0x3dbb31d6	0.09140365
47	0xbebb2de0	-0.36558437
48	0x3d734ab5	0.059397418
49	0x3d89d165	0.06729392
50	0x3e1893f5	0.14900191
51	0xbdb444b3	-0.08802166
52	0xbdc1d6c4	-0.094647914
53	0xbdf41805	-0.11918644
54	0xbe92d23a	-0.28676015
55	0xbdc8e694	-0.09809604
56	0x3d72f3a2	0.059314378
57	0xbe0dab8e	-0.13834974
58	0xbdff6553	-0.12470498
59	0xbe1d2f44	-0.15350062
60	0x3d02fa45	0.031976957
61	0x3e82827a	0.2549017
62	0x3e466289	0.19373526
63	0x3c3ea020	0.011634856
64	0xbdc7360e	-0.09727107
65	0xbd25155d	-0.040303577
66	0x3ec69251	0.38783506
67	0x3db94173	0.090456866
68	0xbe2ddf00	-0.16979599
69	0xbd268eb6	-0.040663444
70	0xbb83c0b1	-0.0040207733
71	0x3d8a4d4b	0.06753024
72	0x3df5ea1e	0.12007545
73	0xbea84f3d	-0.32872954
74	0xbe1eb77a	-0.15499678
75	0xbd37feab	-0.044920605
76	0x3e5af051	0.21380736
77	0x3d507295	0.050890524
78	0xbe6a8cda	-0.22905293
79	0xbd53df28	-0.05172649
80	0xbd9d13cf	-0.07669794
81	0x3e5cfec2	0.21581557
82	0x3ea33841	0.31878856
83	0x3e39a97a	0.18131056
84	0x3d937d89	0.07201678
85	0xbe0671bf	-0.13129328
86	0xbe1f5807	-0.15560924
87	0x3c8b4b43	0.017003661
88	0xbcd4902e	-0.025947656
89	0x3d9bd1de	0.07608388
90	0xbe1951e1	-0.1497264
91	0xbe567a8b	-0.20945184
92	0x3dd9ce64	0.10635069
93	0xbdbfe3c4	-0.09369615
94	0xbe5720a4	-0.21008545
95	0xbdc00495	-0.09375874
96	0xbe4635cb	-0.19356458
97	0x3dd08b95	0.10182873
98	0x3d11494e	0.0354703
99	0xbe516308	-0.20447934
100	0x3d53ba2e	0.051691227
101	0xbd480b42	-0.04883886
102	0xbbd2a592	-0.006428429
103	0xbc0609e4	-0.008181069
104	0xbcbd8157	-0.023132963
105	0x3dcdd377	0.10050099
106	0xbda39565	-0.07987479
107	0x3d281cb4	0.041043
108	0xbb96c82f	-0.0046015005
109	0xbc95e0d1	-0.018295677
110	0x3da19fc0	0.07891798
111	0xbdb27991	-0.08714593
112	0x3cf606e7	0.030032588
113	0xbbae097c	-0.005311189
114	0xbc8b7c2d	-0.017026985
115	0x3d9fb452	0.07798065
116	0xbd93c2cf	-0.07214891
117	0x3bc9e648	0.006161485
118	0xbc7bc591	-0.015366928
119	0xbb694dad	-0.0035599277
120	0x3cfe371c	0.031032138
121	0xbd1bee83	-0.03806926
122	0xbc5eeb99	-0.013605976
123	0xbc1fa832	-0.009744691
124	0xbbb70d85	-0.0055863285
125	0xbc361e83	-0.011115673
126	0xbd518cff	-0.051159855
127	0xbc6c5725	-0.014425074
128	0xbb30485f	-0.0026898605
129	0xbdc0c5e2	-0.09412743
130	0x3e87598e	0.26435512
131	0x3d5d5f05	0.054045696
132	0xbd575c22	-0.0525781
133	0xbc2da71e	-0.010598926
134	0xbdbbb2e1	-0.09164978
135	0x3ede7138	0.43445754
136	0x3d9b1d1e	0.07573913
137	0xbd0ca2df	-0.034335013
138	0x3c86e091	0.016464503
139	0xbddcf148	-0.10788208
140	0x3eedf928	0.46479154
141	0x3d844328	0.064581215
142	0xbd38d1f8	-0.045122117
143	0x3c5ced70	0.013484344
144	0xbd8796c4	-0.06620553
145	0x3dc51184	0.096224815
146	0xbdb72296	-0.089421436
147	0xbd9bff26	-0.07617025
148	0xbd48f2c8	-0.04905966
149	0xbd5d9e62	-0.054106124
150	0x3c0d8846	0.008638447
151	0x3cd6c38a	0.026216287
152	0x3d18bdc1	0.03729034
153	0x3ce51b43	0.027967101
154	0x3c0f8411	0.008759514
155	0xbc1e2399	-0.009652042
156	0xb881eb9e	-6.1950865e-05
157	0x3d168db0	0.036756217
158	0x3c6e1b02	0.014532806
159	0xbc21af5c	-0.009868469
160	0xbc06a4dc	-0.0082180165
161	0x3be68b93	0.0070356815
162	0x3c6f344f	0.014599874
163	0x3bc28999	0.005936813
164	0xbc01fa86	-0.007933265
165	0xbc018d24	-0.007907186
166	0x3cb38310	0.021913081
167	0x3d1b938a	0.0379825
168	0x3c856369	0.016282754
169	0xbc2a1c9c	-0.010382798
170	0x3b766dc2	0.0037602042
171	0x3cdda278	0.02705501
172	0x3ca82557	0.020525618
173	0xbbab9243	-0.0052359416
174	0xbbea9278	-0.0071585737
175	0xbbf42aec	-0.0074514057
176	0xbc199951	-0.009374932
177	0xba54cb26	-0.00081174297
178	0x3aedc969	0.001814169
179	0x3c839052	0.016060028
180	0xbb105c64	-0.0022027725
181	0x3bea9d61	0.0071598743
182	0xbbe561e7	-0.0070001963
183	0x3c19ca6a	0.009386638
184	0x3b9c8f71	0.0047778417
185	0xbabe1aa9	-0.0014503795
186	0x3c1d1e6e	0.0095897745
187	0x3b46f6d0	0.0030359514
188	0x3b174a44	0.0023085037
189	0xbc02661c	-0.007958915
190	0xbbf05b00	-0.007335067
191	0x3bb6bce5	0.005576717
192	0xb865a062	-5.4747223e-05
193	0x3b804723	0.00391473
194	0xbb72d65c	-0.0037054038
195	0x3b3487ca	0.0027546757
196	0x3c816502	0.015795235
197	0xbb9aa602	-0.0047194967
198	0xbbfa622c	-0.0076410975
199	0xbc0e7efb	-0.008697267
200	0x3e1f753e	0.15572068
201	0x3d3a9254	0.045549706
202	0xbdc949c8	-0.09828526
203	0xbe5227f3	-0.20523052
204	0xbc6d5274	-0.01448499
205	0x3c0e5aad	0.008688611
206	0x3dabb22f	0.08383595
207	0xbe19fe33	-0.15038376
208	0xbe6284d9	-0.2212099
209	0xbe3802b1	-0.17969777
210	0xbe3cc625	-0.18434961
211	0xbe2a6c11	-0.16642787
212	0x3e3b3a4a	0.18283954
213	0x3e878c5b	0.2647427
214	0xbd82c2fe	-0.06384848
215	0xbe49326d	-0.19648142
216	0x3dce018d	0.100588895
217	0x3ec32d90	0.381207
218	0x3e88beb2	0.2670799
219	0xbde8f91a	-0.11375637
220	0x3e4a9ce5	0.19786413
221	0x3d35bf36	0.044371806
222	0xbe766086	-0.24060258
223	0xbe87cb29	-0.26522186
224	0xbe2ef1ed	-0.17084475
225	0xbd97a82b	-0.07405122
226	0xbd99d430	-0.07511175
227	0xbe74df39	-0.23913278
228	0x3e43fdcb	0.19139783
229	0x3e8cbbb8	0.27486968
230	0xbd4ad837	-0.049522605
231	0x3d18c8a9	0.03730074
232	0xbe0bc3b5	-0.13648875
233	0x3cb1d137	0.021706207
234	0x3e42a6ec	0.19008988
235	0x3da3d1be	0.079989895
236	0xbd8fd51f	-0.070230715
237	0xbc8662c7	-0.016404523
238	0xbdb63ca0	-0.08898282
239	0x3d5e4e95	0.05427416
240	0x3c3a923c	0.011387404
241	0xbdc8567f	-0.09782123
242	0xbddaf7bf	-0.10691785
243	0xbe2aae68	-0.16668093
244	0x3e89a9c9	0.26887348
245	0xbe06c02f	-0.1315925
246	0xbe0f8865	-0.14016874
247	0xbe1040dd	-0.14087243
248	0xbd16917f	-0.03675985
249	0x3dcd197f	0.100146286
250	0xbd1b3675	-0.03789373
251	0xbc77f2a1	-0.015133531
252	0xbbcf0daa	-0.0063187676
253	0x3de3295b	0.11091872
254	0x3da92cba	0.08260484
255	0xbd6850a0	-0.056717515

conv_layer2.bias f4 [16]
0	0x3ab501a0	0.0013809688
1	0x3c756217	0.014977
2	0x3d02350c	0.03178887
3	0x3ca7e7ab	0.02049621
4	0xbb5f764b	-0.0034097608
5	0xbb1b9dcf	-0.0023745184
6	0xbc31dad0	-0.010855392
7	0xbb9dc8d6	-0.0048152013
8	0x3b930f23	0.0044878884
9	0x3c58524a	0.013203213
10	0xbc8b21ff	-0.016983984
11	0x3c5cba38	0.013472132
12	0xbcc4370e	-0.023952033
13	0xbcd3dcaf	-0.025862066
14	0x3aad715e	0.0013232639
15	0xbcc5442d	-0.02408036

fc1.weight f4 [120, 576]
0	0xbd39223b	-0.04519866
1	0xbc682e29	-0.014171162
2	0x3bbd073f	0.005768686
3	0x3b567275	0.003272203
4	0xbcf2e28a	-0.029649038
5	0x3b155d25	0.0022791114
6	0xbbfaafc6	-0.0076503484
7	0x393bdcce	0.00017915966
8	0xbc806d84	-0.015677221
9	0xbbf879a3	-0.0075828596
10	0x3bbe9bbb	0.0058169044
11	0xbcc0ba90	-0.02352646
12	0x3baf26a3	0.005345182
13	0x3cd38939	0.025822269
14	0x3c4f4137	0.012649826
15	0x3d29edf1	0.041486684
16	0xbc922682	-0.017840628
17	0xbcf7d5aa	-0.03025325
18	0xbc448cb3	-0.011996436
19	0x3b3b20cd	0.0028553486
20	0xbaaa966b	-0.0013014799
21	0x3cd61332	0.0261322
22	0xbc227802	-0.009916307
23	0xbd087e3b	-0.033323508
24	0xbd30d891	-0.043175284
25	0x395a2120	0.0002080244
26	0x3cf8ce70	0.030371875
27	0x3d860dd6	0.06545608
28	0xba3f2d57	-0.0007292828
29	0xbc94ebc9	-0.018178837
30	0xbd9966da	-0.074903205
31	0xbc2e64e2	-0.0106441695
32	0x3c76fe09	0.015075215
33	0x3c411311	0.011784331
34	0xbd11b7b3	-0.03557558
35	0xbc7ee397	-0.015557191
36	0xbd8cf10d	-0.06881914
37	0xbd459ae6	-0.048243426
38	0x3bf46788	0.007458631
39	0xbc1fc537	-0.0097516095
40	0xba854589	-0.0010167818
41	0x3bff5488	0.0077920593
42	0x3cb4fb81	0.022092583
43	0xbcc35564	-0.023844428
44	0x3d476610	0.04868132
45	0xb98102c4	-0.00024606858
46	0xbc5097a7	-0.012731469
47	0x3c4ad4a1	0.012379796
48	0x3ca508f5	0.020145873
49	0xbcc8f22e	-0.024529543
50	0xba92851e	-0.0011178588
51	0x3ce64757	0.02811019
52	0xbceceb19	-0.028920697
53	0x3d7e8ef4	0.06214805
54	0x3c25998c	0.010107409
55	0xbc51299b	-0.012766267
56	0xbb866d61	-0.0041023945
57	0x3c9c2a1f	0.019063054
58	0x3d3cdbc6	0.04610803
59	0x3d17b2c5	0.037035722
60	0xbc42c6a5	-0.011888181
61	0xbbcf99e3	-0.0063354834
62	0xbcf4ee73	-0.029898858
63	0xbd392981	-0.045205597
64	0x3d909a10	0.07060635
65	0xbb33aa41	-0.0027414712
66	0xbdc6785f	-0.09690928
67	0xbd219208	-0.039445907
68	0xbcffc027	-0.031219555
69	0x3d5a2ce5	0.05326547
70	0xbbcadebf	-0.006191104
71	0x3cb4d62e	0.022074785
72	0x3c317521	0.010831148
73	0xbd57e621	-0.052709702
74	0xbd44304e	-0.04789763
75	0x3cc4fde3	0.024046844
76	0x3d41ca9e	0.04731237
77	0x3d1ce404	0.03830339
78	0x3d1d0793	0.0383373
79	0xbc82d4da	-0.015970636
80	0xbd8d6502	-0.06904031
81	0x3d14328c	0.036181018
82	0xbcc625c4	-0.02418793
83	0xbdd11650	-0.10209334
84	0x3d024a1a	0.03180895
85	0xbbecb205	-0.00722337
86	0xbd4a858d	-0.04944377
87	0x3d05e9b8	0.032693595
88	0x3bd3e3fd	0.0064663873
89	0xbd443504	-0.047902122
90	0x3c30c608	0.010789402
91	0xbbc337ae	-0.0059575653
92	0xbcc9d131	-0.024635883
93	0x3d53af94	0.051681116
94	0x3bddde2b	0.0067708693
95	0xbd6eb774	-0.058280423
96	0xbbaa1ce8	-0.005191434
97	0xbd30f3e6	-0.04320135
98	0x3c633c62	0.013869377
99	0x3d85e1f8	0.06537241
100	0x3d2546bc	0.04035066
101	0xbd40dce5	-0.04708566
102	0xbd5b6c73	-0.053570222
103	0xbd0cf6f1	-0.03441519
104	0xbd3b328e	-0.04570251
105	0x3da9f127	0.08297949
106	0x3df7d3d9	0.121009536
107	0xbd4ca58c	-0.049962565
108	0xbc787742	-0.015165152
109	0x3d1f5b96	0.038905703
110	0x3c2bc44a	0.010483811
111	0xbba7765c	-0.005110545
112	0x3a535fbc	0.0008063277
113	0xbd2ab08a	-0.041672267
114	0xbc186726	-0.009301936
115	0x3d06ad16	0.03287991
116	0x3c240ae6	0.010012364
117	0x3c7f4bd0	0.01558204
118	0x3a56713b	0.0008180325
119	0x3caeee33	0.021353817
120	0xbc89fcea	-0.016844232
121	0xbb3daabc	-0.0028940877
122	0x3cb7b3ce	0.022424605
123	0x3c504f06	0.012714153
124	0xbd1d448d	-0.038395453
125	0xbceccf97	-0.02890758
126	0x3ca955e9	0.020670848
127	0xbca35a4c	-0.019940518
128	0x3ca1bc98	0.019743249
129	0x3d1817a5	0.037131924
130	0xbd2ceced	-0.042218138
131	0xbd6e2c14	-0.058147505
132	0xbbada086	-0.005298677
133	0x3d1dc7ef	0.03852075
134	0x3d1f4a1f	0.038889047
135	0x3cee3675	0.029078702
136	0xbac2b5aa	-0.0014855166
137	0xbca4eea8	-0.020133331
138	0x39c0e6ea	0.00036793138
139	0xbc8ceaf1	-0.017201873
140	0x3c11d75c	0.008901443
141	0xbdb0f86a	-0.08641131
142	0xbc488ef8	-0.012241118
143	0xbd1071e5	-0.03526487
144	0xbc7364dd	-0.014855591
145	0x3bf2e6ef	0.0074127833
146	0xbbae4ecc	-0.005319452
147	0x3b8ed40a	0.004358773
148	0x3b0abaf5	0.0021168564
149	0xbb910f3d	-0.0044268654
150	0xbc077b77	-0.008269182
151	0x3b40617d	0.0029354983
152	0x3b346f8e	0.0027532312
153	0x3bdef652	0.006804266
154	0xba84a74f	-0.0010120663
155	0xbb971c66	-0.0046115397
156	0xba791f88	-0.0009503295
157	0xbb094adc	-0.002094916
158	0x3bad9371	0.0052971174
159	0xbb7d9788	-0.0038695056
160	0xbc11b32d	-0.0088928165
161	0xbc2ca564	-0.010537479
162	0xbc00385a	-0.007825935
163	0xbbbfe7b6	-0.0058564795
164	0x39ae0cda	0.0003319744
165	0xbc872773	-0.016498303
166	0xbbe2b491	-0.006918498
167	0xbc6828a9	-0.01416985
168	0xbc32ab66	-0.010905122
169	0xba31e099	-0.0006785482
170	0xbb60b14a	-0.003428536
171	0xbc5ce048	-0.013481207
172	0xbb801115	-0.0039082863
173	0xbc2b8176	-0.010467878
174	0xbc901408	-0.017587677
175	0x3b54e618	0.003248578
176	0xbb9610af	-0.0045796256
177	0xb99633b8	-0.00028648763
178	0x3b788ec3	0.003792689
179	0xbb9666b5	-0.0045898804
180	0xbaed9ca1	-0.0018128344
181	0x3cbc15fa	0.022959698
182	0x3c815d2c	0.015791498
183	0x3cf62731	0.030047985
184	0x3c40c6e1	0.011766166
185	0xbac2a15b	-0.0014849113
186	0xbccfea5e	-0.02538031
187	0x3c0e4f88	0.008685954
188	0x3d4c09a2	0.049813874
189	0x3cf12546	0.029436719
190	0xbc504ccf	-0.012713625
191	0xbb645e87	-0.0034846382
192	0xbd0cf694	-0.034414843
193	0x3d0c357d	0.034230698
194	0xbb8de213	-0.0043299287
195	0xbad5699f	-0.0016282088
196	0xbd010f5a	-0.03150878
197	0xbc9a872d	-0.018863285
198	0xbd1139f9	-0.035455678
199	0x3ce2d97d	0.027691597
200	0xbc683013	-0.014171618
201	0xbcd97fd0	-0.026550204
202	0xbc9f9d94	-0.019484319
203	0xbca3d6c3	-0.019999867
204	0xbd5787f7	-0.0526199
205	0x3cba4652	0.02273861
206	0x3c3b119a	0.011417771
207	0xbca58128	-0.020203188
208	0xbaafc586	-0.0013410307
209	0xbc41a3a8	-0.011818804
210	0xbd25135a	-0.04030166
211	0x3d01a84c	0.03165464
212	0x3c7d4b84	0.015459899
213	0x3ccc49cf	0.024937538
214	0x3befc4aa	0.0073171454
215	0xbbb57e5a	-0.005538744
216	0xb910fde5	-0.00013827493
217	0xbb0da2c4	-0.0021611908
218	0xbb693a98	-0.0035587903
219	0xbaff164e	-0.0019461603
220	0x39db6992	0.0004184959
221	0xbb18e4cb	-0.002332973
222	0xbaac38c2	-0.0013139474
223	0xbb3dd46d	-0.0028965727
224	0xbb80852d	-0.003922126
225	0xbb0d9e9e	-0.0021609436
226	0xbbd3ffc3	-0.006469698
227	0xbb363492	-0.002780233
228	0xbb75f0a4	-0.0037527466
229	0xbb16a284	-0.002298505
230	0xbb4cdd7d	-0.0031259947
231	0xbbf32a2f	-0.0074208
232	0xbb8d9c6c	-0.0043216255
233	0xbb8eee50	-0.004361905
234	0xb80c49e9	-3.3447435e-05
235	0x3aac1b1f	0.0013130641
236	0xbbb9e809	-0.0056734127
237	0xbbd5f41e	-0.006529345
238	0xbbd4d064	-0.0064945687
239	0xbbc0d702	-0.005885006
240	0x3a7c72a4	0.000963012
241	0xba9a1bda	-0.0011757568
242	0xbb87591a	-0.004130495
243	0xbc248635	-0.010041763
244	0xbba7f9e5	-0.0051262253
245	0xbb9cedb4	-0.0047890786
246	0x3b8b52fc	0.004251836
247	0xba2c837e	-0.0006580873
248	0xbb96b191	-0.0045988043
249	0xbb0d48fa	-0.002155839
250	0xbabf72fa	-0.0014606409
251	0xb9c3cb1d	-0.0003734463
252	0x3adf9286	0.0017057217
253	0x3a3f0bbc	0.00072878203
254	0x3a8a8907	0.0010569402
255	0x3a8970b0	0.0010485854

fc1.bias f4 [120]
0	0x3ae9997c	0.0017822231
1	0x3bac5f6a	0.0052603977
2	0x3a4ee84f	0.0007892893
3	0x3bcdd480	0.0062814355
4	0x3a9797f4	0.0011565671
5	0x3c42749f	0.011868625
6	0xbaea968f	-0.0017897653
7	0xbb0b092f	-0.002121519
8	0xba782e70	-0.0009467369
9	0x3b936ae8	0.004498828
10	0xbb3ee439	-0.002912773
11	0xba3c5cc6	-0.0007185455
12	0xba935e7b	-0.0011243367
13	0xb92ed37f	-0.00016672722
14	0xb919099d	-0.00014594798
15	0x3ac3827a	0.0014916204
16	0x3908dff4	0.000130534
17	0xbb1fbe1b	-0.0024374786
18	0x39259bc8	0.00015793659
19	0xbaf97295	-0.001903134
20	0x3ac90c13	0.0015338681
21	0xba717714	-0.00092111644
22	0x3ba3ffe8	0.0050048716
23	0x3af8622c	0.0018950156
24	0x3c387774	0.011258949
25	0x3c4fbbaa	0.01267902
26	0x3a96b2c6	0.001149737
27	0x3a2f8515	0.0006695551
28	0x3bcb146f	0.0061975042
29	0xb8684062	-5.537307e-05
30	0x3b343264	0.0027495855
31	0xbb5c7a53	-0.0033642247
32	0xba2bf443	-0.000655953
33	0x3a9378c5	0.0011251202
34	0x3be1de02	0.0068929205
35	0xbb817d80	-0.0039517283
36	0x3bc3f917	0.0059806216
37	0xba44a0f9	-0.00075007934
38	0xbadc1032	-0.0016789495
39	0xbbd41fe8	-0.00647353
40	0x3bfebcaa	0.0077739554
41	0xbab0b2a5	-0.0013480975
42	0xbb9f1d43	-0.004855783
43	0x3ad4c065	0.0016231654
44	0xbac9c1fe	-0.0015392897
45	0x3b30d0e9	0.002697999
46	0x3c04cc2d	0.00810532
47	0x39f36acb	0.0004642814
48	0xbb35bce8	-0.0027731005
49	0x3adc75af	0.001681974
50	0x3b05daa8	0.0020424519
51	0xbad4cfd3	-0.0016236253
52	0x3aa79d49	0.0012787963
53	0xbbbe9ca0	-0.005817011
54	0x3b4a04e2	0.0030825664
55	0xb8620ec4	-5.389635e-05
56	0x3aba7c55	0.0014227728
57	0x3bac2183	0.0052530183
58	0xbbbe9c77	-0.005816992
59	0xba82d501	-0.0009981693
60	0xbac57512	-0.0015064797
61	0x39831c70	0.00025007455
62	0x3a557f17	0.0008144243
63	0x3c5c15f0	0.013432965
64	0xbab86898	-0.0014069257
65	0x3c9571d9	0.018242763
66	0x3c1558bb	0.009115393
67	0x39f12e99	0.0004600182
68	0x3a70df06	0.00091885065
69	0x3aa678f6	0.0012700844
70	0x3b353aa1	0.0027653354
71	0xbafef053	-0.0019450284
72	0x3b663069	0.003512407
73	0xbad2c68b	-0.0016080899
74	0xbb773abc	-0.0037724217
75	0x3af3bbc1	0.0018595384
76	0xb9abc71c	-0.0003276401
77	0x3a050df9	0.00050756295
78	0x3c27496d	0.010210377
79	0x3a4930ac	0.0007674794
80	0xba58224f	-0.00082448585
81	0x3bb2bf0e	0.0054549044
82	0x3aa6032e	0.0012665743
83	0xbb55af71	-0.0032605792
84	0xb8b7ff88	-8.7737164e-05
85	0x3b4945e8	0.0030711833
86	0x3aee8539	0.0018197662
87	0xba8e0b5d	-0.0010837127
88	0x39cf93e8	0.00039592315
89	0xbb0d5e0f	-0.0021570956
90	0x3bcdfd8d	0.006286329
91	0x3ba13417	0.0049195397
92	0x3b3348ac	0.0027356548
93	0x3aede3a8	0.0018149512
94	0x3b8ca9be	0.004292696
95	0x39919419	0.00027766897
96	0xb94813d3	-0.00019080871
97	0xbb22c205	-0.0024834883
98	0x3c8ff462	0.017572585
99	0xbb37abba	-0.002802594
100	0x3c16eb61	0.009211392
101	0x3b087ccf	0.0020826345
102	0x3b0c14b5	0.0021374647
103	0xbb4f96a9	-0.0031675494
104	0x3a86f998	0.0010297773
105	0xbacfd835	-0.0015857281
106	0x3aac8d49	0.0013164665
107	0x3c18c2c0	0.009323776
108	0xbab421bf	-0.0013742967
109	0x3c0435ae	0.008069439
110	0xbaa488c9	-0.0012552972
111	0xbb5cea1f	-0.0033708883
112	0xba8385a8	-0.001003434
113	0xbb168c53	-0.0022971823
114	0x3ad3b29f	0.0016151256
115	0x3bf67124	0.0075208116
116	0xbb913761	-0.0044316505
117	0xba4b93dc	-0.0007765868
118	0x38c89ad8	9.565585e-05
119	0x3a21a5bc	0.0006166359

fc2.weight f4 [80, 120]
0	0x3cebaa24	0.028767653
1	0x3cb677ad	0.022273863
2	0x3be26d63	0.0069100126
3	0xbccbc799	-0.024875449
4	0xbc46a0ce	-0.0121233
5	0x3d301bb7	0.04299518
6	0xbce3ee4c	-0.02782359
7	0xbd3e2fb6	-0.04643222
8	0xbbcc5ed0	-0.0062368885
9	0x3c9f8b6a	0.019475657
10	0xbbc6a613	-0.006062278
11	0x3c25e245	0.010124748
12	0xbccc18b6	-0.024914127
13	0x3945922a	0.00018841834
14	0xba5dd5dd	-0.0008462349
15	0xbce0ba60	-0.02743262
16	0xbd4aad4e	-0.049481682
17	0x3c42d5e2	0.011891814
18	0xbba58c5c	-0.0050521325
19	0xbcf1db3c	-0.029523484
20	0xbcb02434	-0.021501638
21	0x3bdc26c8	0.0067184903
22	0xbc304630	-0.0107589215
23	0x3b6c2a25	0.0036035862
24	0x3b98d924	0.004664557
25	0x3d9a9bbd	0.07549236
26	0xbc90779c	-0.01763516
27	0xbd1bba86	-0.03801968
28	0x3bd454aa	0.0064798193
29	0x3d544407	0.05182269
30	0xbca9d977	-0.020733578
31	0xbd4d375f	-0.050101634
32	0xbbbc0aee	-0.0057386076
33	0x3cc01e7b	0.023452034
34	0x3b4f1921	0.0031600671
35	0xbce60b8a	-0.028081674
36	0x3d619a31	0.05507869
37	0x3d2b017e	0.04174947
38	0xbca60374	-0.020265318
39	0xbd98b826	-0.074569985
40	0x3d278353	0.040896725
41	0xbd4371bc	-0.047715887
42	0xbd718fa9	-0.058974896
43	0x3c1bea29	0.009516277
44	0xbb90111e	-0.004396572
45	0x3cef05d6	0.029177587
46	0x3d7dd43d	0.061969984
47	0x3c5912d3	0.013249117
48	0xbc71be4a	-0.014754841
49	0xbccebac7	-0.025235547
50	0xbbed14d7	-0.0072351503
51	0xbd0d29a4	-0.03446354
52	0xbc5af542	-0.013364138
53	0xbd1ea852	-0.03873474
54	0xbcfaedba	-0.030630935
55	0xbd4395e7	-0.04775038
56	0xbd24bf9a	-0.040221788
57	0x3db2c725	0.0872939
58	0xbcf7205f	-0.030166803
59	0xbd1ede4f	-0.03878623
60	0xbcacac24	-0.021078177
61	0x3c0e565c	0.008687582
62	0xba52289e	-0.00080169167
63	0x3d8ad4ec	0.06778893
64	0xbc09aab6	-0.008402517
65	0x3de60394	0.11231151
66	0x3d6a9fcc	0.0572813
67	0xbd50e96b	-0.051003855
68	0xbbf4e6f4	-0.007473821
69	0x3ca7923d	0.020455474
70	0x3d85e41b	0.06537648
71	0xbd4d06dc	-0.05005537
72	0x3c81a2de	0.015824731
73	0x3b23bcc6	0.0024984344
74	0xbd802db6	-0.06258719
75	0xbb9d84ec	-0.0048071053
76	0xbc6d8c99	-0.014498853
77	0xbcef4055	-0.02920548
78	0x3de4d807	0.111740164
79	0x3ca7b929	0.020474033
80	0xbca261ed	-0.019822085
81	0x3d706163	0.058686625
82	0xbbf6fa6a	-0.007537176
83	0xb9f8d4b6	-0.00047460728
84	0x3d3062c9	0.04306296
85	0xbd1ef648	-0.03880909
86	0x3c3f32bb	0.01166981
87	0x3d0e1411	0.034687106
88	0xbb9819dd	-0.004641755
89	0xbd061f2e	-0.03274458
90	0x3d281365	0.04103412
91	0x3d0f0332	0.034915157
92	0x3c1ac609	0.009446629
93	0x3c93da77	0.018048508
94	0xba785841	-0.00094736
95	0xbca41c29	-0.020032959
96	0x3d01babd	0.031672228
97	0xbd7421f6	-0.0596027
98	0x3e1359d5	0.14389737
99	0x3c8d4f3c	0.017249696
100	0x3d7bfa77	0.06151816
101	0x3abd5329	0.0014444339
102	0xbd1026cc	-0.03519325
103	0xbd2122c0	-0.03933978
104	0x3d59e359	0.05319533
105	0x3cf2a926	0.029621672
106	0x3b6c562f	0.0036062112
107	0x3d3219d4	0.043481663
108	0xbc942614	-0.018084563
109	0x3c960c52	0.018316422
110	0xbb4a8eca	-0.0030907863
111	0xbd2c0c17	-0.042003717
112	0xbc754f28	-0.014972486
113	0xbd034773	-0.03205056
114	0xbd672d69	-0.05643979
115	0x3d4391f8	0.04774663
116	0xbc94aaa8	-0.018147781
117	0xbcf86224	-0.030320235
118	0x3d5b1be1	0.053493384
119	0x3cf81ee7	0.030288173
120	0xbd06946d	-0.032856394
121	0x3c1b7e2d	0.009490532
122	0xbd3398cf	-0.0438469
123	0x3ce16b38	0.027516946
124	0xbc33cd91	-0.010974304
125	0x3d3285ef	0.04358476
126	0x3a368961	0.000696322
127	0x3d5bdd27	0.053677704
128	0xbc91d226	-0.017800402
129	0x3c4b46ef	0.012407049
130	0xbc8cdaf0	-0.017194241
131	0xbb54eabf	-0.0032488552
132	0xbcb0f1fd	-0.021599764
133	0x3d47d73d	0.04878925
134	0x3c8d060e	0.017214801
135	0xbc88806e	-0.016662803
136	0xbc0b4b04	-0.008501772
137	0x3cf6ebc1	0.030141713
138	0xbbcbe8ae	-0.006222806
139	0x3c33f158	0.010982834
140	0xbd0194c7	-0.031636026
141	0xbbd7dd8a	-0.006587689
142	0x39db4dc2	0.0004182887
143	0x3d617f09	0.05505279
144	0x3d042b2d	0.032267738
145	0x3d5ab7ef	0.05339807
146	0x3cab938b	0.020944377
147	0x3d0e12e5	0.034685988
148	0xbcb4f117	-0.022087617
149	0x3d1e9b83	0.038722526
150	0xbd317758	-0.043326706
151	0xbcd9db88	-0.026593938
152	0xbca90bce	-0.020635512
153	0xbcaa4460	-0.020784557
154	0x3cd5ec2d	0.026113594
155	0xbcc662a2	-0.024216954
156	0xbbba4070	-0.005683951
157	0x3d1d0356	0.03833326
158	0xbc81fe10	-0.015868217
159	0x3dcadc51	0.09905303
160	0x3d716c07	0.058940914
161	0xbc849260	-0.016183078
162	0x3d06271b	0.032752138
163	0x3ba26751	0.004956164
164	0x3d930224	0.07178143
165	0x3d9a7609	0.07542045
166	0xbca47a24	-0.020077772
167	0xbc130915	-0.008974333
168	0x3d0fdeea	0.035124697
169	0xbc1fd813	-0.009756106
170	0x3c555dbd	0.013022837
171	0x3d809a62	0.06279446
172	0xbd2798c5	-0.040917177
173	0x3d94602b	0.07244905
174	0x3c2b58cb	0.010458182
175	0x3b9610b5	0.0045796284
176	0x3c2fa888	0.010721333
177	0x3cb587eb	0.022159537
178	0x3cf80a3e	0.030278321
179	0xbc4682fc	-0.01211619
180	0xbd35ae48	-0.04435566
181	0xbc07ab4f	-0.008280589
182	0x3cfd4dbc	0.030920856
183	0xbbb6cdaf	-0.0055787186
184	0xbbc9412b	-0.006141802
185	0x3d2b65eb	0.041845243
186	0xbbef60b8	-0.007305231
187	0x3d4888b2	0.048958488
188	0xbcab0966	-0.020878505
189	0x3b906d85	0.004407587
190	0xbc66e53e	-0.0140927415
191	0xbcda33d5	-0.026636044
192	0xbd357df0	-0.044309556
193	0x3c1d888f	0.009615078
194	0x3c1acc50	0.009448126
195	0xbcf0a2be	-0.029374477
196	0xbbd232b1	-0.0064147343
197	0x3d575cfb	0.052578907
198	0xbc19104d	-0.009342265
199	0xbcee5ab9	-0.029095994
200	0xbb2460c6	-0.0025082096
201	0xbcbd176b	-0.023082456
202	0xbb492a84	-0.0030695507
203	0x3b338bca	0.0027396553
204	0xbb0ba968	-0.002131069
205	0x3b997cb2	0.0046840543
206	0x3bec3fe6	0.0072097657
207	0x3a949a66	0.0011337518
208	0x3d21be09	0.039487872
209	0x3c6af8af	0.014341517
210	0x3d0aeec1	0.0339191
211	0x3d273af4	0.040827706
212	0x3c2c12b0	0.010502502
213	0x3cb5ff83	0.022216564
214	0x3c8c0207	0.01709081
215	0xbaf88688	-0.0018960992
216	0xbd7cb95e	-0.061700217
217	0xbd354518	-0.044255346
218	0x3d7fc197	0.06244048
219	0xbba40fdf	-0.005006775
220	0x3d4f0983	0.05054618
221	0x3ca0695f	0.019581495
222	0x3cc72f8f	0.02431467
223	0x3b66c605	0.0035213244
224	0xbb54fc7c	-0.0032499125
225	0xbd0c8bef	-0.03431314
226	0xbd0e510d	-0.034745265
227	0xbcd89139	-0.026436435
228	0xbc7aadb6	-0.015300205
229	0xbd54cd6f	-0.05195373
230	0x3d2e4b1e	0.042552106
231	0xbd0f5347	-0.03499153
232	0xbb1942c7	-0.002338575
233	0xba876e67	-0.0010332585
234	0xbca68d53	-0.02033106
235	0x3d140950	0.036141694
236	0x3d5857db	0.05281816
237	0x3bbf785b	0.005843205
238	0xbd546576	-0.051854573
239	0x3c0c3166	0.008556699
240	0xbd1161a5	-0.03549351
241	0x3b35aa10	0.0027719773
242	0xbd13cf85	-0.036086578
243	0x3bdc2f16	0.0067194803
244	0x3d148c33	0.036266517
245	0x3cf0faa2	0.029416386
246	0x3c89f34b	0.016839644
247	0xbc56fd91	-0.013121978
248	0x3d6b30e5	0.057419676
249	0x3cb1917a	0.021675814
250	0xbc816038	-0.015792951
251	0xbb918761	-0.0044411873
252	0x3c18f463	0.00933561
253	0x3d9833d7	0.07431763
254	0xbc6c835f	-0.014435618
255	0xbd2fc1c9	-0.042909417

fc2.bias f4 [80]
0	0x3d04131a	0.03224478
1	0x3bfe0ccd	0.007752991
2	0x3bb542e8	0.0055316575
3	0x3aa88420	0.0012856759
4	0x3bb1a87d	0.0054216967
5	0x3b95c925	0.0045710974
6	0x3ab6b447	0.0013939225
7	0xbb451a06	-0.0030075326
8	0x3cf27838	0.02959834
9	0x3c4731a9	0.012157836
10	0xbc355c3e	-0.0110693555
11	0x3bcbd199	0.0062200543
12	0xba01cc00	-0.0004951358
13	0x3bce810f	0.006302006
14	0xb909842f	-0.0001311458
15	0x3b2ce589	0.002638193
16	0x3c58de65	0.013236617
17	0x3a4e975e	0.0007880832
18	0x3bf0b9ae	0.0073463535
19	0x3b82d16b	0.0039922497
20	0x3c8ad2cd	0.01694622
21	0x3c14826b	0.009064297
22	0x3aa40284	0.0012512957
23	0x3af0cae7	0.0018371016
24	0x3bb2aa8f	0.005452461
25	0x3b82caf1	0.0039914777
26	0x3c05f865	0.008176898
27	0x3be3c149	0.0069505316
28	0x3aba146e	0.0014196762
29	0x3c443aea	0.011976937
30	0x3c0c45cf	0.008561566
31	0xbc3c8aaf	-0.011507674
32	0xbb5efa1e	-0.0034023593
33	0x3c28b8c6	0.01029796
34	0x3bcc152a	0.006228109
35	0x3b2dfa8b	0.002654704
36	0x3b8dea91	0.004330941
37	0xbb9af9d9	-0.004729491
38	0x3c9d75e2	0.01922125
39	0xbbcbc07a	-0.0062180134
40	0xbb20bf69	-0.0024528152
41	0x3a18c286	0.0005827326
42	0x3b7d11ae	0.0038615274
43	0x3b41f5f4	0.0029596062
44	0xbad82fb9	-0.0016493715
45	0x3c625de7	0.013816333
46	0x3c838afe	0.016057488
47	0x3aa47379	0.001254662
48	0xbb24f424	-0.0025169933
49	0x3abbf54a	0.001434007
50	0xbb3c3fa4	-0.0028724456
51	0xbbdf3348	-0.006811533
52	0x3bce72b3	0.0063002943
53	0xbad05d5b	-0.0015896963
54	0x3c67b7f6	0.014142981
55	0x39f4ace8	0.00046668132
56	0xbb96e1c6	-0.004604551
57	0x3c99f5bd	0.018793935
58	0x3b9d750f	0.0048052142
59	0xbc304495	-0.010758539
60	0x3c2aa24f	0.010414674
61	0x3c10589f	0.008810191
62	0xbb84f9c9	-0.004058097
63	0xbab9f186	-0.001418636
64	0x3b2658b2	0.0025382456
65	0x3b9cfdfb	0.004791019
66	0x3c05c8c0	0.008165538
67	0x3c996c47	0.018728388
68	0x3b83d801	0.0040235524
69	0x3b8b64bc	0.004253952
70	0x3c9660f8	0.018356785
71	0xbb8688fb	-0.004105685
72	0x3c5650fc	0.013080832
73	0x3cb66b2a	0.022267897
74	0xbaee85cc	-0.0018197834
75	0x3c790781	0.015199543
76	0xbb0d34cf	-0.002154637
77	0x3aae5c9c	0.0013302746
78	0xbbae613b	-0.0053216494
79	0x3c077d91	0.008269683

fc3.weight f4 [38, 80]
0	0xbcce7791	-0.025203498
1	0x3da9d626	0.08292799
2	0xbcc5b63a	-0.024134744
3	0x3d94f7ab	0.072738014
4	0x3c59594c	0.013265919
5	0x3bf5042a	0.007477303
6	0x3d93df06	0.07220273
7	0xbcc32f02	-0.023826126
8	0x3dc9a3cd	0.09845696
9	0x3d9bbc1c	0.076042384
10	0x3d99619a	0.07489319
11	0xbd137e6c	-0.036009237
12	0x3d9f13e9	0.077674694
13	0x3c7ed366	0.015553331
14	0xbcef6bae	-0.02922615
15	0xbc55e449	-0.013054916
16	0x3cc89c38	0.024488553
17	0xbd36bf9b	-0.044616323
18	0x3c2e3bdb	0.010634388
19	0x3df6fad8	0.120595634
20	0xbd591ca2	-0.053005822
21	0xbd3be6df	-0.045874473
22	0xbd610eac	-0.054945633
23	0x3e0388f8	0.12845218
24	0x3dec2624	0.11530712
25	0xbd2eab83	-0.042644035
26	0x3c9c5b66	0.01908655
27	0xbd5dd078	-0.05415389
28	0xbcbf7401	-0.023370745
29	0x3ca62679	0.020282017
30	0x3d0826cd	0.03324013
31	0x3ca03882	0.019558195
32	0x3e0158c6	0.1263152
33	0x3c6d1bf7	0.014471999
34	0x3e03ce01	0.12871553
35	0xbb15a2b6	-0.002283258
36	0x3d6fef0a	0.058577575
37	0x3c60101b	0.013675715
38	0x3da2c3fc	0.07947537
39	0x3b64423c	0.0034829518
40	0x3dbdcbaf	0.09267365
41	0xbd234dc3	-0.03986908
42	0xbd86e864	-0.06587294
43	0x3bf78b8e	0.007554478
44	0xbbc29412	-0.0059380615
45	0xbd839b9f	-0.06426167
46	0x3dc52857	0.09626835
47	0xbcbd2675	-0.023089627
48	0x3d713e3a	0.058897234
49	0xbc916ea7	-0.017752958
50	0x3da05b1e	0.07829879
51	0xbd214fd8	-0.039382786
52	0x3d4c577c	0.04988812
53	0x3de8cf43	0.11367657
54	0xbd6c092c	-0.057625934
55	0xba03a1d1	-0.0005021366
56	0x3dd0f303	0.10202601
57	0xbd1fbaff	-0.038996693
58	0xbd7d53c9	-0.061847482
59	0x3d870105	0.06591991
60	0x3cb8da9d	0.02256518
61	0x3cbddbe7	0.023176147
62	0xbc32407e	-0.010879634
63	0xbc702661	-0.014657588
64	0xbce42820	-0.027851164
65	0xbd28f451	-0.041248623
66	0xbcd993d2	-0.026559744
67	0x3c4fb81f	0.012678175
68	0xbd1ab5a8	-0.037770897
69	0xbc02be9c	-0.007980015
70	0x3d48edfe	0.049055092
71	0xbcf31015	-0.029670754
72	0xbd1a5303	-0.037676822
73	0xbd1a3ad9	-0.037653778
74	0x3df1c49c	0.118050784
75	0xbcbdfc37	-0.023191554
76	0x3cb3e8fb	0.02196168
77	0x3e0362ec	0.12830704
78	0x3e0c7e34	0.13720018
79	0x3dbccaaa	0.092183426
80	0x3d458f0e	0.04823213
81	0x3d9a6dc8	0.0754047
82	0xbc10396e	-0.008802755
83	0xbc41d998	-0.011831664
84	0xbc0a9f98	-0.008460902
85	0x3d70e9c2	0.05881668
86	0x3dbf8ee8	0.09353429
87	0xbbeb8317	-0.007187258
88	0x3be6700f	0.0070324014
89	0x3d841694	0.06449619
90	0x3d8a995c	0.06767532
91	0xbc4a1a4e	-0.012335373
92	0x3d4ef488	0.050526172
93	0x3d8f506f	0.06997763
94	0x3d8e576d	0.06950269
95	0x3d4eeda8	0.050519615
96	0x3d327f72	0.043578573
97	0xbc67d4cc	-0.014149856
98	0x3d6cb0ac	0.057785675
99	0x3d818db7	0.06325858
100	0x3bf2cd33	0.0074097156
101	0x3d30fd8a	0.043210544
102	0x3dd78577	0.10523503
103	0x3da095fa	0.07841106
104	0x3c6a9190	0.014316931
105	0xbca88cd7	-0.02057497
106	0x3da3383c	0.0796971
107	0x3d6c99c6	0.057763837
108	0x3cce4390	0.0251787
109	0x3d36c8cb	0.044625085
110	0x3d2aeb08	0.04172805
111	0x3d67d55d	0.056599963
112	0x3c2fbb7a	0.01072585
113	0x3cf7c4a9	0.030245142
114	0x3d8bdccf	0.06829225
115	0x3d96cfe4	0.07363871
116	0x3e07064e	0.13185999
117	0x3d635280	0.0554986
118	0xba29ef84	-0.0006482529
119	0x3d32cb9d	0.043651212
120	0x3beff970	0.0073234364
121	0x3cab09a1	0.020878615
122	0x3ab9b803	0.001416922
123	0xbc8ed229	-0.017434197
124	0x3d3f5c38	0.046718806
125	0xbc76dab5	-0.015066792
126	0x3d37096b	0.044686716
127	0xb9b05c05	-0.00033637896
128	0xbb5045a7	-0.0031779797
129	0x3dae661f	0.08515572
130	0x3ca1a5e6	0.019732427
131	0x3dab4c13	0.083641194
132	0x3d449c7d	0.0480008
133	0x3b9f798b	0.004866784
134	0x3dd5d157	0.10440319
135	0xbb2f24e3	-0.0026724867
136	0x3d07792d	0.033074547
137	0x3daeff38	0.08544773
138	0xbb9644ba	-0.0045858296
139	0x3c0daa48	0.008646555
140	0xbbe1fb6b	-0.0068964264
141	0x3d2c5312	0.04207141
142	0x3d26350a	0.040577926
143	0x3cfe039c	0.03100758
144	0xbc84023d	-0.016114349
145	0x3da1ca70	0.0789994
146	0x3c12a385	0.008950119
147	0x3d5a5228	0.053301007
148	0x3c744581	0.014909149
149	0x3bbb0965	0.005707907
150	0xbc18442e	-0.009293599
151	0xbc979e38	-0.018508062
152	0x3d7b8c74	0.061413243
153	0xbc690caa	-0.014224211
154	0xbb564928	-0.0032697413
155	0x3c4de067	0.012565709
156	0x3d512013	0.05105598
157	0x3d9d4d94	0.076808125
158	0x3d8ca09e	0.06866573
159	0xbc48af87	-0.01224888
160	0x3b24f372	0.0025169519
161	0x3c3a9c7d	0.011389849
162	0x3d9d282a	0.07673676
163	0x3d9402b8	0.07227081
164	0x3d653df0	0.05596727
165	0x3d8d27b5	0.06892339
166	0x3d0e40c9	0.034729753
167	0x3d0deb1e	0.034648053
168	0x3af86544	0.0018951078
169	0x3c98e008	0.018661514
170	0x3c3167a7	0.010827935
171	0x3d7cb90a	0.061699905
172	0x3e0f1047	0.13971053
173	0xbbb92cc4	-0.0056510884
174	0x3d0a4a41	0.03376222
175	0x3d0cd111	0.03437907
176	0x3c8fb6d2	0.01754323
177	0x3c661852	0.014043884
178	0x3d52385c	0.05132328
179	0x3cf5b5f7	0.029993994
180	0x3c308a2c	0.01077513
181	0x3c5be52e	0.01342134
182	0xba759c66	-0.00093693135
183	0x3ce89703	0.02839232
184	0x3e052c1b	0.13005106
185	0x3c6b5fec	0.014366131
186	0x3d5e6926	0.054299496
187	0x3bb54349	0.0055317027
188	0x3d021ada	0.03176389
189	0x3daf2f19	0.08553905
190	0x3c18c38d	0.009323967
191	0x3d66784a	0.05626706
192	0x3d886bcb	0.06661185
193	0x3bc22de8	0.0059258826
194	0x3d13b0b4	0.03605719
195	0x3c84289a	0.016132642
196	0x3db857ee	0.09001146
197	0x3af571af	0.0018725897
198	0x3b5c68f8	0.0033631902
199	0x3c604095	0.013687273
200	0x3d21dbec	0.039516374
201	0x3c03152a	0.008000651
202	0x3d70d684	0.058798328
203	0x3d804b80	0.062644005
204	0x3c4ce9ce	0.012506915
205	0x3c513195	0.012768169
206	0x3d8c89e3	0.06862237
207	0x3d2af9d8	0.041742176
208	0x3d5e6bdd	0.054302085
209	0xbb523e74	-0.0032080682
210	0x3c9cf165	0.019158075
211	0x3b810c12	0.0039382065
212	0x3d82f912	0.06395163
213	0x3d33cfde	0.04389941
214	0x3c6760e2	0.01412222
215	0x3d231743	0.039817106
216	0x3d6a1dab	0.0571572
217	0x3c08f89d	0.008360055
218	0x3bcf7da6	0.006332117
219	0x3ce69779	0.0281484
220	0x3d547895	0.05187281
221	0x3b0af1f7	0.0021201351
222	0x3c18cf80	0.009326816
223	0x3d4946fd	0.049139965
224	0x3d958085	0.07299904
225	0x3d9dc29b	0.07703134
226	0x3d41d360	0.047320724
227	0x3c1296b4	0.008947063
228	0x3ce8defe	0.028426643
229	0x3bb225bf	0.0054366286
230	0x392fdd80	0.00016771816
231	0x3c41ffda	0.011840785
232	0x3dc85399	0.0978157
233	0x3d075f9a	0.033050157
234	0x3e078388	0.13233769
235	0x3c9b7b4d	0.018979693
236	0x3ba7599d	0.0051071183
237	0x3c85d982	0.016339067
238	0x3d51160a	0.05104641
239	0x3c444d0c	0.01198126
240	0xbd064353	-0.03277905
241	0xbd86173f	-0.065474026
242	0xbd3d1dae	-0.046170883
243	0x3d6df06c	0.058090612
244	0x3e2d4f04	0.16924673
245	0xbd5544b6	-0.05206748
246	0xbcedc2cd	-0.029023552
247	0x3cc572a6	0.02410252
248	0x3dbfe0c9	0.09369046
249	0xbd867e46	-0.065670535
250	0x3d7a4eeb	0.06111042
251	0xbc4a4830	-0.012346312
252	0x3e186b58	0.14884698
253	0x3d7f728e	0.062365107
254	0xbd3174f0	-0.04332441
255	0xbcbed8b7	-0.023296697

fc3.bias f4 [38]
0	0xbc410c9a	-0.01178279
1	0x3d03490a	0.032052077
2	0x3c96d693	0.018412864
3	0x3ca1a613	0.01973251
4	0xbcaad282	-0.020852331
5	0xbc9e7c37	-0.01934634
6	0x3c538b39	0.012911611
7	0xbb8112b1	-0.003938996
8	0x3d30d289	0.043169532
9	0xbcb308b2	-0.021854732
10	0xbc06812b	-0.008209507
11	0xbc868da0	-0.016424954
12	0xbd09cf14	-0.03364475
13	0xbcdb0e71	-0.026740285
14	0xbb07e45c	-0.0020735478
15	0xbc64749e	-0.013943819
16	0xbb6c2372	-0.003603187
17	0xbc4ae03a	-0.012382561
18	0x3c08265a	0.008309925
19	0xbbdff96c	-0.0068351533
20	0x39ace136	0.00032974192
21	0xbc02b1d7	-0.007976971
22	0xbbaa7915	-0.0052024224
23	0xb9f97dc6	-0.0004758669
24	0xb862b476	-5.4050666e-05
25	0x3d4f7a42	0.050653704
26	0x3d2fd14b	0.042924207
27	0xbd0355f4	-0.032064393
28	0x3b8f39cb	0.004370903
29	0x3b44cf2a	0.0030030706
30	0x3dccaa14	0.09993377
31	0x3cba9b13	0.022779023
32	0x3d073b98	0.033015817
33	0x3cac7b91	0.021055015
34	0xba59428e	-0.00082878105
35	0x3cc74e6b	0.024329385
36	0x3cb9cff6	0.022682171
37	0xbb8ab74f	-0.004233278
