outfiles/cnn/Ya32_50Train_cnn.pth (torch, 334015 bytes, 10 tensors)

conv_layer1.weight f4 [8, 1, 5, 5]
0	0x3e0a7f80	0.135252
1	0xbdb15716	-0.086591884
2	0xbe2b8bbe	-0.16752526
3	0xbdf78f16	-0.12087838
4	0x3e9891e9	0.2979882
5	0x3dc54ff3	0.0963439
6	0xbd186bbf	-0.03721213
7	0xbe20b105	-0.15692528
8	0xbe95562a	-0.291673
9	0x3e47b9ea	0.19504514
10	0x3e3b1a03	0.18271641
11	0xbd131279	-0.03590629
12	0xbe7b3273	-0.24530964
13	0xbeb63866	-0.35589904
14	0xbbc1d02f	-0.00591471
15	0x3dd582e4	0.10425356
16	0x3e110dfd	0.14165492
17	0xbe05062b	-0.12990634
18	0xbe734c89	-0.23759665
19	0x3c671e18	0.014106296
20	0x3e026d7a	0.12737074
21	0x3e79d5d6	0.24397978
22	0x3e98dace	0.29854435
23	0xbcae975a	-0.021312404
24	0x3e03cf2b	0.12871997
25	0xbdd9cc8c	-0.10634717
26	0xbde72ea8	-0.11288196
27	0xbdb6d086	-0.089264914
28	0xbd950655	-0.07276598
29	0xbd64f64c	-0.05589895
30	0x3cd9198a	0.026501436
31	0x3d248cc4	0.040173307
32	0x3de76f68	0.11300546
33	0x3e350166	0.17676315
34	0x3df67c8c	0.12035474
35	0x3c6ada12	0.014334219
36	0x3e17abaf	0.14811586
37	0x3e6131b4	0.21991616
38	0x3e608a75	0.21927817
39	0x3d9fcd15	0.07802788
40	0x3d8dfd80	0.06933117
41	0x3e595799	0.21224822
42	0x3e2c47d6	0.16824278
43	0x3e29d0ac	0.16583508
44	0x3d57c003	0.05267335
45	0x3d7e7978	0.06212756
46	0x3e107594	0.14107352
47	0x3df4a3c7	0.119453005
48	0x3d97b51c	0.07407591
49	0x3bbcf487	0.0057664546
50	0x3e9cbefc	0.3061446
51	0x3e3396a9	0.17537941
52	0xbe6af9f4	-0.22946912
53	0xbe62e5af	-0.2215793
54	0x3b6b4dd4	0.0035904543
55	0x3ebfd127	0.37464258
56	0x3e03d70d	0.12875004
57	0xbe861ccb	-0.26193842
58	0xbe2e2db5	-0.17009623
59	0xbb52c6b7	-0.00321619
60	0x3ec3fb04	0.38277447
61	0x3e509e02	0.20372775
62	0xbdfc1d6c	-0.12310299
63	0xbdc1804d	-0.094482996
64	0x3dd9c42e	0.106331214
65	0x3eba14cf	0.36344
66	0x3e13264d	0.1437008
67	0xbe77f088	-0.24212849
68	0xbdd154c1	-0.10221244
69	0xbd1805eb	-0.03711502
70	0x3e6732ac	0.22577924
71	0x3e099dfd	0.13439174
72	0xbe57f0e8	-0.21087992
73	0xbe05d2f6	-0.13068756
74	0x3b8f9b2f	0.004382513
75	0xbd99a4cc	-0.07502136
76	0x3df4e8c5	0.1195846
77	0x3de7596c	0.11296353
78	0x3dd378a3	0.10325744
79	0x3d3940f5	0.045227963
80	0xbe320d4a	-0.17387882
81	0x3dba4c13	0.09096541
82	0x3e08af32	0.13348082
83	0x3dcc88b0	0.099870086
84	0x3c6c2742	0.014413657
85	0xbe573516	-0.21016344
86	0x3cfee61c	0.031115584
87	0x3d8544bf	0.06507253
88	0x3e046c74	0.12931997
89	0x3dafa5ea	0.085765675
90	0xbe0f0d35	-0.13969882
91	0x3e096fad	0.13421507
92	0x3df8765b	0.121319495
93	0x3e8a5e63	0.27025136
94	0x3e7f122c	0.24909276
95	0xbe4aed8b	-0.19817178
96	0x3e1ac056	0.15112433
97	0x3e5fa4ba	0.21840182
98	0x3eadc7b0	0.33941412
99	0x3e9bb7d7	0.30413696
100	0x3d1a2701	0.037634853
101	0x3e046ad8	0.12931383
102	0x3dbec066	0.09314041
103	0xbe5d0bd8	-0.2158655
104	0xbe95a446	-0.29226893
105	0x3dcaab97	0.098960094
106	0x3e8deec7	0.27721235
107	0x3e78eba1	0.24308635
108	0x3cfe0265	0.031007001
109	0xbd5e7dd4	-0.054319218
110	0x3e289614	0.164635
111	0x3ebe5b47	0.37179014
112	0x3eabddb3	0.3356758
113	0x3d4d3003	0.050094616
114	0x3d721675	0.059103448
115	0x3e0fb682	0.14034465
116	0x3e8846f5	0.26616636
117	0x3df0aef0	0.11752117
118	0xbe6d4f13	-0.23174696
119	0xbeccc740	-0.39995766
120	0x3dc272f1	0.094945796
121	0x3e2975f6	0.16548905
122	0x3be192f5	0.0068839737
123	0xbe2ac4bf	-0.16676615
124	0xbebc18e5	-0.36737743
125	0x3e040b05	0.12894829
126	0xbdadec37	-0.0849232
127	0xbe0b5a42	-0.1360865
128	0x3dd87eec	0.105710834
129	0x3c61ca9e	0.013781218
130	0x3e4aa44d	0.19789238
131	0xbe66490b	-0.22488801
132	0xbe38fdde	-0.18065593
133	0x3e4dbc52	0.2009137
134	0x3dbaeeb2	0.09127559
135	0x3e90adca	0.2825759
136	0xbe9455c8	-0.28971696
137	0xbe41ca74	-0.18924886
138	0x3e61726b	0.22016303
139	0x3da421c8	0.08014256
140	0x3e655c4c	0.2239849
141	0xbec11edd	-0.3771886
142	0xbe0dde83	-0.13854413
143	0x3e4848d3	0.1955903
144	0x3e05a32b	0.13050525
145	0x3e03fd85	0.12889679
146	0xbe9a509a	-0.3013962
147	0xbd438bc6	-0.04774072
148	0x3dd9f026	0.10641508
149	0x3cfcdc68	0.030866817
150	0xbc6abcfd	-0.014327285
151	0xbc970bda	-0.018438268
152	0x3d48035d	0.048831332
153	0x3d362c24	0.04447569
154	0xbce7140b	-0.0282078
155	0xbb090003	-0.0020904548
156	0xb9b13587	-0.00033799952
157	0xbc9b1491	-0.018930705
158	0x3c8b0be2	0.01697344
159	0xbc7d4c48	-0.015460081
160	0xbc5036ca	-0.012708375
161	0xbc079fcb	-0.008277844
162	0xbca14ea1	-0.019690813
163	0xbc43f987	-0.011961347
164	0xbc475f16	-0.012168666
165	0x3d0ca518	0.034337133
166	0xbca46fc3	-0.020072823
167	0xbcab8cda	-0.020941187
168	0xbc2c8c3f	-0.010531484
169	0x3b12498a	0.0022321665
170	0x3cd81b1d	0.026380116
171	0xbcc33e1d	-0.023833329
172	0xbc1f5f8c	-0.00972737
173	0x3d2a1a11	0.041528765
174	0xbc8867d2	-0.016651068
175	0xbc36c952	-0.011156397
176	0xbd0591fb	-0.03260992
177	0xbcf1acda	-0.029501367
178	0x3e659804	0.2242127
179	0x3e01b6b1	0.12667347
180	0xbd643ac3	-0.055720102
181	0xbd6a4ef0	-0.057204187
182	0xbd88760e	-0.06663142
183	0xbdfc9a54	-0.12334123
184	0x3bc90bb4	0.0061354283
185	0xbcbdaa67	-0.023152543
186	0xbd27f935	-0.041009147
187	0xbdbfeb5a	-0.093710616
188	0xbe0c053c	-0.13673872
189	0xbd9f1eb0	-0.07769525
190	0x3db60ef7	0.08889573
191	0x3c9425df	0.018084465
192	0xbd978757	-0.07398861
193	0xbcd51d98	-0.026015088
194	0xbda3815f	-0.0798366
195	0xbced175c	-0.028941803
196	0xbc53c3c8	-0.012925096
197	0x3e45ee56	0.19329199
198	0x3dd30ca5	0.10305146
199	0xbc7191ee	-0.014744265

conv_layer1.bias f4 [8]
0	0x3cc3410c	0.023834728
1	0x3a8c80bd	0.0010719519
2	0xbc32270b	-0.010873566
3	0xbb8aec35	-0.004239584
4	0x3c27bc4c	0.010237765
5	0x3bdbcfe4	0.006708132
6	0x3aeb5d58	0.0017956896
7	0xbc39ed61	-0.011348099

conv_layer2.weight f4 [16, 1, 5, 5]
0	0xbdc61d3a	-0.09673543
1	0x3d9c2a23	0.076252244
2	0xbe33ca52	-0.17557648
3	0x3d91d121	0.07119966
4	0xbc4052b3	-0.011738467
5	0xbdadd239	-0.084873624
6	0x3e3c3ab8	0.18381774
7	0xbe3366f7	-0.17519747
8	0x3e0d67df	0.13809155
9	0x3e267237	0.16254507
10	0xbe0e8b67	-0.13920365
11	0x3de2d621	0.11075998
12	0xbe029c6b	-0.12754981
13	0xbd490c1f	-0.049083825
14	0x3d23f755	0.040030796
15	0x3d29f0a1	0.041489247
16	0x3d97e6d1	0.074170716
17	0xbd8045ef	-0.06263339
18	0xbd282df7	-0.04105946
19	0xbca9b6df	-0.020717083
20	0x3d23e414	0.040012434
21	0x3cad82c9	0.021180527
22	0xbd6356ab	-0.055502575
23	0xbdad4f6f	-0.084624164
24	0x3c4ffd99	0.01269474
25	0x3d6cdd1c	0.057828054
26	0xbdc99830	-0.098434806
27	0xbe08b0d4	-0.13348705
28	0xbdb04281	-0.086064346
29	0xbcf8913d	-0.030342693
30	0xbd24a91f	-0.04020035
31	0xbe18c03d	-0.14917083
32	0xbe0261f4	-0.12732679
33	0x3e48ac83	0.19597058
34	0x3ec13232	0.37733608
35	0xbdb2cc00	-0.08730316
36	0xbe2fdc53	-0.17173891
37	0xbde7fcd0	-0.11327517
38	0x3b91e260	0.004452035
39	0x3eccddbe	0.40012926
40	0xbe0ee8d3	-0.13956003
41	0xbe544642	-0.20729926
42	0x3caf5432	0.021402452
43	0x3dcbff02	0.09960748
44	0x3e3f9e63	0.18712763
45	0xbdaebded	-0.08532319
46	0xbdce9b6b	-0.100882374
47	0x3cbfe79f	0.023425875
48	0xbd907114	-0.07052818
49	0x3d8b93d2	0.06815304
50	0x3d9f180b	0.07768258
51	0x3e5e89d1	0.2173226
52	0x3d2882cd	0.041140366
53	0x3e006e50	0.12542081
54	0xbdb618db	-0.088914596
55	0x3c93294b	0.017964026
56	0x3d8b28bc	0.06794879
57	0x3dd6dba8	0.10491115
58	0xbca58d84	-0.020209081
59	0xbcb9c1c3	-0.0226754
60	0xbde3ca7f	-0.111226074
61	0xbccc0875	-0.024906376
62	0xbe072a27	-0.13199674
63	0xbd2739b7	-0.040826526
64	0xbd86cc47	-0.065819316
65	0xbdec6252	-0.115421906
66	0xbba38fb0	-0.004991494
67	0xbd9002fd	-0.0703182
68	0x3a525d22	0.0008024742
69	0xbd462955	-0.04837926
70	0xbdaaa587	-0.08332353
71	0xbd9e33b6	-0.07724707
72	0xbce2d70d	-0.027690435
73	0xbdaa373d	-0.08311317
74	0xbdd3be00	-0.10338974
75	0xbdc5d271	-0.09659279
76	0xbdf14557	-0.11780804
77	0xbd7ab6d9	-0.061209533
78	0x3d827fc2	0.06372024
79	0x3d759003	0.059951793
80	0x3e8a3ef9	0.2700117
81	0x3e7bed43	0.24602227
82	0x3d0264ac	0.03183429
83	0xbd974e41	-0.073879726
84	0xbdfb94e9	-0.12284262
85	0x3d7485f1	0.05969805
86	0xbca8f6c6	-0.020625483
87	0xbda20e26	-0.07912855
88	0xbe29a900	-0.16568375
89	0x3c88a020	0.016677916
90	0x3ded80ab	0.11596807
91	0xbd99e2d4	-0.07513967
92	0xbc744728	-0.014909543
93	0xbdc43516	-0.09580438
94	0x3db9321c	0.09042761
95	0xbd5ee68e	-0.054419093
96	0xbdda3926	-0.106554314
97	0x3bb11901	0.005404592
98	0xbdad6d33	-0.08468094
99	0xbcefddcf	-0.029280571
100	0xbd604a9b	-0.05475865
101	0x3de27ff2	0.1105956
102	0xbe765030	-0.24054027
103	0xbda18c57	-0.07888096
104	0x3d2f2649	0.04276112
105	0x3e40e62b	0.18837802
106	0x3e820f88	0.25402474
107	0xbe9edbea	-0.31027156
108	0xbdf2a7cb	-0.1184841
109	0x3c5a77ff	0.013334273
110	0x3e0ef7c4	0.13961703
111	0x3e8373e9	0.2567437
112	0xbe9cc701	-0.30620578
113	0xbdd541aa	-0.10412915
114	0xbdfc410d	-0.12317095
115	0x3e38c41b	0.18043558
116	0x3e300574	0.1718958
117	0xbe694858	-0.22781503
118	0xbe0a3f29	-0.13500656
119	0xbd9ace25	-0.0755885
120	0xbc351f62	-0.0110548455
121	0xbd6b9f08	-0.05752471
122	0xbe2483a0	-0.16065836
123	0x3d96f922	0.07371737
124	0x3d0c5d56	0.0342687
125	0x3e15b5ec	0.14620179
126	0xbe82c4e4	-0.2554084
127	0x3d2f8fe4	0.042861834
128	0x3ddee499	0.10883445
129	0xbe05aa76	-0.13053307
130	0x3e13f2a6	0.14448032
131	0xbe2a7f71	-0.16650178
132	0x3e028eca	0.12749782
133	0x3d2d453f	0.042302366
134	0xbe131260	-0.14362478
135	0xbc94d547	-0.018168105
136	0xbe0f2658	-0.1397947
137	0x3e4d3dfd	0.20043178
138	0x3dbefac1	0.09325171
139	0xbe2c3586	-0.16817293
140	0xbdc35b6c	-0.09538922
141	0xbe522428	-0.20521605
142	0x3e112f51	0.14178206
143	0x3df5d75b	0.120039664
144	0xbde1aa08	-0.11018759
145	0x3d0a3100	0.033738136
146	0xbe79edc0	-0.244071
147	0x3cc6f598	0.02428703
148	0x3daf605d	0.08563302
149	0x3de0fbed	0.10985551
150	0xbd077be3	-0.033077132
151	0xbd87e16c	-0.06634793
152	0xbd82ba0b	-0.06383141
153	0xbda172a8	-0.07883197
154	0xbd1fc13e	-0.03900265
155	0xbd15db85	-0.036586303
156	0xbcf89475	-0.030344227
157	0xbd808c1d	-0.062767245
158	0xbd26107c	-0.040543064
159	0xbb8be79d	-0.004269554
160	0x3d28c1f7	0.041200604
161	0xbcc9d3b2	-0.024637077
162	0xbd126b4c	-0.035746858
163	0xbd79d359	-0.060992572
164	0xbdd002bf	-0.10156774
165	0x3caeb372	0.0213258
166	0xbd87ded8	-0.06634301
167	0xbe108279	-0.14112271
168	0xbda7e64a	-0.08198221
169	0xbe0503c8	-0.12989724
170	0x3d99fcae	0.07518898
171	0xbc9c6b93	-0.019094264
172	0x3dbaeb14	0.09126869
173	0x3e86903f	0.26281926
174	0x3e8a678b	0.27032122
175	0xbd354363	-0.044253718
176	0xbe56fa69	-0.20993961
177	0xbc6cc072	-0.014450179
178	0x3d575678	0.052572697
179	0x3b3360d1	0.002737094
180	0x3e1f9e35	0.15587695
181	0xbe0b7d55	-0.13622029
182	0xbd85f377	-0.06540578
183	0x3b3a3144	0.0028410712
184	0x3d4b4036	0.049621783
185	0x3dcbb3ec	0.09946427
186	0x3a72afb7	0.0009257751
187	0x3ce7553b	0.028238883
188	0xbdff5c00	-0.124687195
189	0xbde8770f	-0.113508336
190	0x3e92674c	0.28594434
191	0xbcc565d2	-0.024096403
192	0xbe566057	-0.20935188
193	0xbe391e0e	-0.18077871
194	0xbdd15243	-0.10220768
195	0x3eac8328	0.33693814
196	0x3e29e556	0.16591391
197	0xbcee47fc	-0.02908706
198	0xbda4c3cc	-0.08045158
199	0xbdd9a4ad	-0.106271125
200	0xbe0db885	-0.1383992
201	0xbda295ab	-0.07938703
202	0x3d95720d	0.07297144
203	0x3c2f28f8	0.01069092
204	0xbddd9cf5	-0.10820953
205	0x3db40f50	0.08791983
206	0x3b9c6b59	0.004773539
207	0xbd05a29f	-0.03262579
208	0x3e1e179c	0.15438694
209	0xbe40da3f	-0.18833254
210	0x3b96a814	0.004597673
211	0xbc742d43	-0.014903369
212	0x3e36527d	0.17804904
213	0x3e8c7b4e	0.27437824
214	0xbdc4847f	-0.09595584
215	0xbe20239f	-0.15638588
216	0xbe863f18	-0.26220012
217	0x3a764329	0.0009394163
218	0x3deb62bf	0.11493444
219	0xbe19eb8a	-0.15031257
220	0xbde95f9d	-0.1139519
221	0xbe16a4b5	-0.14711268
222	0x3ddd3191	0.1080047
223	0x3db195e0	0.086711645
224	0xbc229311	-0.009922759
225	0x3da18132	0.0788597
226	0xbd2e7801	-0.042594913
227	0xbe282355	-0.16419728
228	0xbddd871a	-0.10816784
229	0x3ded776c	0.115950435
230	0x3daefae1	0.08543945
231	0xbe57e912	-0.21085003
232	0xbc22a7da	-0.009927714
233	0xbc6818ca	-0.014166066
234	0xbd7e9028	-0.062149197
235	0xbba7e8b5	-0.0051241764
236	0xbe73914e	-0.23785898
237	0x3e8370a2	0.2567187
238	0x3e714368	0.2356087
239	0xbc0a2af5	-0.008433093
240	0x3d9bd7f7	0.076095514
241	0xbe9a5100	-0.30139923
242	0x3e95d910	0.29267168
243	0x3e755147	0.23956786
244	0xbe1f325b	-0.15546553
245	0x3e390803	0.18069462
246	0xbe562add	-0.20914789
247	0x3c1fda0e	0.009756578
248	0xbdb6b25b	-0.08920737
249	0xbe1e097a	-0.15433303
250	0xbde0ef6c	-0.10983166
251	0xbe59184a	-0.21200672
252	0x3dc27a57	0.09495991
253	0xbd0d54bc	-0.034504637
254	0xbd1a1edc	-0.037627086
255	0xbcb5cedd	-0.022193367

conv_layer2.bias f4 [16]
0	0xba58c45b	-0.00082690053
1	0x3d4e202f	0.05032366
2	0xbc3ad243	-0.011402669
3	0x3ca76186	0.020432245
4	0x3d1e5824	0.038658276
5	0x3d2e07d8	0.04248795
6	0xbc231a72	-0.0099550355
7	0x3c5e550e	0.013570083
8	0x3d2c39fb	0.042047482
9	0x3d834f61	0.06411625
10	0x3c07ac4c	0.008280825
11	0x3d1d8cec	0.03846447
12	0x3c4e62e9	0.012596824
13	0xbc3be992	-0.011469262
14	0xbcce7023	-0.025199955
15	0xbcf24f82	-0.029578928

fc1.weight f4 [120, 576]
0	0x3be67516	0.0070330007
1	0xbc9cd7d9	-0.019145893
2	0x3b5bce95	0.003353988
3	0x3bc7e196	0.00609989
4	0x3bacfebc	0.00527939
5	0xbc5a0704	-0.013307337
6	0x3d0536ec	0.03252308
7	0xb9832375	-0.00025012685
8	0xbbaa098b	-0.005189126
9	0xbc5808f5	-0.013185729
10	0x3bece262	0.0072291354
11	0xba8e412b	-0.0010853162
12	0x3c31e627	0.010858095
13	0xba184911	-0.00058092276
14	0x3bc8a9dc	0.0061237644
15	0x3b03b660	0.0020097718
16	0xbc681739	-0.014165693
17	0x3b08d126	0.0020876615
18	0x3bf8e884	0.0075960774
19	0xbc5e816c	-0.013580661
20	0xbb8b1a3e	-0.0042450717
21	0x3c42bacf	0.011885359
22	0xbd163309	-0.036669765
23	0xbc823d96	-0.015898507
24	0xbb9c6506	-0.004772785
25	0xbc49d1b3	-0.012318063
26	0xbcabc432	-0.020967577
27	0xb99738c0	-0.00028843246
28	0xbd0a7de9	-0.033811484
29	0xba7c50ac	-0.0009625058
30	0x3ca0e1bb	0.019638887
31	0x3c3272f0	0.010891661
32	0x3cb15e66	0.021651458
33	0xbbdf7543	-0.0068193986
34	0xbcd1583c	-0.025554769
35	0x3c4416b3	0.011968303
36	0xbce9fd4f	-0.02856317
37	0xb86fff28	-5.7219673e-05
38	0xbc08679c	-0.008325484
39	0x3bfdd4e3	0.0077463253
40	0x3c040dad	0.008059901
41	0xbb339512	-0.0027402085
42	0xbc06a60a	-0.008218298
43	0x3ba619c2	0.0050689885
44	0x3c8b519a	0.017006684
45	0x3b7acf36	0.003827048
46	0x3c0d600b	0.008628855
47	0x3bd3e61e	0.006466641
48	0xbcaf02a1	-0.021363558
49	0xbc98490e	-0.018589523
50	0x3b95217b	0.0045511103
51	0x3c1a35f3	0.009412277
52	0xbd152811	-0.036415163
53	0xbcd9dd02	-0.026594643
54	0xbc8dc4a2	-0.017305676
55	0xbb5c7d04	-0.003364385
56	0xba634784	-0.00086700195
57	0x3ce9ef22	0.02855641
58	0xbd3560f1	-0.044281904
59	0xbc4e1da1	-0.012580306
60	0xbd0d1256	-0.034441315
61	0x3c1587f3	0.009126651
62	0x3be528b2	0.0069933766
63	0x3c223ada	0.009901727
64	0xbd1bf76d	-0.03807776
65	0x3cbdb69b	0.023158362
66	0xbc5667a4	-0.013086233
67	0x3cdafa25	0.026730606
68	0x3d917de5	0.071040906
69	0x3d75819c	0.05993806
70	0x3cd8334a	0.026391644
71	0x3ca22d05	0.019796858
72	0x3ba259a5	0.004954534
73	0xbc1ad079	-0.009449118
74	0xbb8cc681	-0.0042961244
75	0x3cdbb2f8	0.026818737
76	0x3d035346	0.032061838
77	0x3cc1efb3	0.023673868
78	0x3b5e3e5e	0.0033911685
79	0xbb37535f	-0.0027973277
80	0xba747a89	-0.00093261205
81	0xbae04b64	-0.0017112312
82	0x3a82383b	0.0009934971
83	0xbc2c691f	-0.01052311
84	0xbb989502	-0.004656435
85	0xbc430c83	-0.0119048385
86	0xbd0ad65a	-0.033895828
87	0xbca30528	-0.01989992
88	0xbc9c8b3d	-0.019109363
89	0xbc1d579e	-0.009603409
90	0x3c793ce6	0.015212273
91	0xbbbd80a5	-0.005783158
92	0xbc417ea5	-0.01180998
93	0x3b8f915e	0.004381343
94	0x3b9c5846	0.004771265
95	0x3937bedf	0.00017523345
96	0x3cd97371	0.026544305
97	0x3cc4cf2b	0.024024567
98	0xbab7db6c	-0.0014027185
99	0x3be51ce1	0.006991968
100	0x3cfe0a4a	0.031010766
101	0x3c0b2b48	0.008494206
102	0x3a28ce64	0.0006439446
103	0xbc00048e	-0.007813586
104	0x3c7873a0	0.015164286
105	0xbb048d1f	-0.0020225716
106	0xbd063fae	-0.032775573
107	0xbcccf141	-0.025017383
108	0x3c141962	0.009039255
109	0xbc020168	-0.007934906
110	0xbcbb7637	-0.022883518
111	0x3c68bd04	0.014205221
112	0x3d00ff5a	0.031493522
113	0x3cbefeeb	0.023314914
114	0xba7e9c80	-0.00097126514
115	0xbb435d59	-0.0029810278
116	0xbb267496	-0.002539908
117	0xbc26b359	-0.010174596
118	0xbb911e87	-0.004428688
119	0xbc0adec4	-0.008475963
120	0xbb466b3b	-0.0030276317
121	0xbab4b51e	-0.0013786887
122	0xbc175287	-0.009235985
123	0xbc14f947	-0.0090926355
124	0xbbe262a4	-0.0069087315
125	0xbc7049ed	-0.014666063
126	0xbb20f134	-0.002455783
127	0x3c254ae1	0.010088653
128	0x3a901809	0.0010993491
129	0xbc93af46	-0.018027913
130	0xbbe4a241	-0.00697735
131	0xbb95bfd0	-0.004569985
132	0x3c8b35e6	0.016993474
133	0xbb8aff4f	-0.004241861
134	0x3bb4a9ed	0.005513421
135	0x3c979c9c	0.018507294
136	0x3bfbfd68	0.0076901205
137	0xbbb07db0	-0.005386077
138	0xbb3687da	-0.002785197
139	0x3aa88883	0.0012858066
140	0xbc4d8e00	-0.0125460625
141	0xbbe5e476	-0.00701576
142	0x3a22de35	0.0006212921
143	0x3b8b80f9	0.004257318
144	0x3d4e813b	0.050416213
145	0x3cbcbdb4	0.023039676
146	0x3bf46df0	0.0074593946
147	0xbcf72601	-0.030169489
148	0x3bded34b	0.0068000904
149	0xbcc53e3f	-0.024077533
150	0x3d44ab69	0.048015032
151	0x3bef6241	0.007305414
152	0x3c5620bf	0.013069331
153	0xbb3c29e3	-0.002871149
154	0x3aa82b18	0.0012830226
155	0xbd18a62c	-0.03726785
156	0x3d237a00	0.03991127
157	0x3c0ce483	0.008599403
158	0xbcbaea94	-0.022816934
159	0xbc3c1c62	-0.011481376
160	0x3b356c5c	0.0027682995
161	0xbc8907ae	-0.016727295
162	0x3cae6644	0.021288998
163	0xbb768bba	-0.0037619905
164	0xbcb24b00	-0.021764278
165	0xba256110	-0.0006308714
166	0x3c358978	0.011080138
167	0xbb9e366f	-0.0048282663
168	0x3c849309	0.016183393
169	0xbb19e8d5	-0.0023484726
170	0xbcabd105	-0.020973692
171	0x3b4027f4	0.002932069
172	0x3d1776a7	0.03697839
173	0x3ca882e5	0.020570228
174	0x3d89689f	0.06709408
175	0xbb29dd2b	-0.002591918
176	0xbc9e4c95	-0.019323627
177	0xbbd4262f	-0.0064742784
178	0x3ce28bd8	0.027654573
179	0x3d1ebe9b	0.038755994
180	0x3c158e9d	0.00912824
181	0xb9b16be3	-0.00033840453
182	0xbcaddd58	-0.021223709
183	0x3c8c3d63	0.017119115
184	0xbc421fec	-0.011848431
185	0x3ceb7266	0.028741073
186	0xbab8cae0	-0.0014098547
187	0x3c4db059	0.012554252
188	0xbaa5376b	-0.0012605017
189	0x3cb730f9	0.02236222
190	0xbcfb6fcd	-0.03069296
191	0x3c9f4f4f	0.019446997
192	0xbbf27fd8	-0.007400494
193	0xbbd024cb	-0.0063520423
194	0x3c983642	0.01858056
195	0x3c93cd13	0.018042123
196	0xbd00ec76	-0.031475507
197	0x3b8179df	0.0039512957
198	0x3b8da084	0.0043221135
199	0xbb506893	-0.0031800612
200	0xbb0c065e	-0.00213661
201	0xbc1842ce	-0.009293271
202	0xbc89dbe7	-0.01682849
203	0xbc40978e	-0.011754883
204	0xbbdcb8ee	-0.0067359125
205	0xbcae666f	-0.021289079
206	0x3be74d03	0.007058741
207	0x3cf2ddb2	0.029646728
208	0xbc817ae2	-0.015805665
209	0xbbb0cb92	-0.005395361
210	0x3a55302e	0.00081324845
211	0xbbfbae7c	-0.0076807123
212	0xbc495a4b	-0.012289594
213	0x3d3e09bc	0.046396002
214	0x3cf7b03d	0.030235404
215	0xbc0c953e	-0.008580504
216	0xbca232fa	-0.019799698
217	0xba852753	-0.0010158814
218	0xbc768550	-0.015046433
219	0xbc15dded	-0.0091471495
220	0x3c193a47	0.009352273
221	0xba7f03d8	-0.0009728051
222	0xbc931c88	-0.01795794
223	0xbc1d3a39	-0.009596401
224	0x3a8729cf	0.0010312143
225	0xbbf1bafd	-0.007377027
226	0xbbfcd665	-0.0077159875
227	0xbc8acfec	-0.016944848
228	0x3ce23591	0.027613433
229	0x3b9009a4	0.0043956805
230	0x3c2434a4	0.010022316
231	0xbc29d06e	-0.010364635
232	0xbc255450	-0.010090902
233	0xbcc6ab55	-0.02425162
234	0x3babb8ff	0.005240559
235	0x3d12d26a	0.035845198
236	0x3cd2ce5a	0.025733162
237	0x3cdabfb6	0.026702743
238	0x3c10a751	0.008828954
239	0xbb3ee392	-0.0029127342
240	0xbd3c26fe	-0.045935623
241	0xbc02f7e6	-0.007993674
242	0xbb835c54	-0.004008809
243	0x3b81d832	0.00396254
244	0x3c535ca7	0.012900508
245	0x3cc05c8e	0.023481634
246	0xbd1f0540	-0.038823366
247	0xbd07917b	-0.033097725
248	0xbc3508d5	-0.011049469
249	0x3cc700c2	0.024292354
250	0x3cf761a2	0.030197922
251	0x3c3db38c	0.011578452
252	0xbc870e43	-0.016486293
253	0xbb0e4526	-0.0021708696
254	0xbc88b17c	-0.016686194
255	0xbca373d6	-0.019952696

fc1.bias f4 [120]
0	0x3b427cf5	0.002967653
1	0xb9dfa26d	-0.0004265489
2	0xbbfeddd1	-0.0077779074
3	0xbb1bdb03	-0.0023781664
4	0x3b112598	0.0022147652
5	0xbb432c99	-0.002978122
6	0x39468a05	0.00018934168
7	0x3bb13304	0.005407693
8	0x3a767ba4	0.0009402579
9	0x3c8604bb	0.016359678
10	0x3abc8c0b	0.0014384998
11	0x3b80d85d	0.0039320425
12	0xbb1b2801	-0.0023674967
13	0x3b14156e	0.002259578
14	0xbb95107e	-0.004549085
15	0xb8c11c75	-9.208258e-05
16	0xbaee9231	-0.0018201527
17	0xb9861fda	-0.00025582203
18	0x3c681d75	0.014167179
19	0xba66acff	-0.0008799582
20	0x3c2ab30d	0.010418666
21	0x3b381df6	0.002809403
22	0x3bef2a14	0.0072987173
23	0x3c4eec78	0.012629621
24	0xbba11062	-0.004915283
25	0x386d58f4	5.6588047e-05
26	0x3c826d04	0.015921123
27	0x3bbd149e	0.00577028
28	0x3c1b1dfb	0.009467597
29	0xbbb29205	-0.005449536
30	0x3bdaecba	0.006681052
31	0x3b887643	0.0041644885
32	0x3a141118	0.0005648299
33	0xbb1574d6	-0.0022805235
34	0xb984e26a	-0.00025345694
35	0x3c9762ba	0.018479694
36	0x3c8a87d1	0.016910465
37	0x3b3fc841	0.0029263648
38	0x3bf1bdde	0.0073773703
39	0x3c58c738	0.013231091
40	0xb9a5e955	-0.00031645098
41	0x3ae5f3dd	0.001754399
42	0x3abac843	0.0014250356
43	0x3bb94bd1	0.00565479
44	0x3be31ee2	0.0069311718
45	0x3c83c3e5	0.01608462
46	0x3bed2738	0.0072373413
47	0xb94b034c	-0.00019360817
48	0x3a8cc746	0.001074054
49	0x3b961cc3	0.0045810654
50	0xbb2f0889	-0.0026707968
51	0x3a05d1cd	0.000510481
52	0x3bbdfdb3	0.0057980656
53	0x3b3c67da	0.0028748424
54	0xbb734ff9	-0.0037126525
55	0x3b362e80	0.0027798712
56	0x3c6eafaf	0.014568253
57	0x38878627	6.4622895e-05
58	0x3c0c8dcf	0.008578732
59	0x3b900ffd	0.004396437
60	0x3b501c65	0.0031755206
61	0xb7de4013	-2.64943e-05
62	0xbb148b28	-0.0022665951
63	0xb93392f1	-0.0001712551
64	0x3c0f4bdf	0.008746116
65	0x3c59c715	0.013292094
66	0x3bda85b1	0.0066687693
67	0x3bbf79da	0.0058433833
68	0x3afb995a	0.0019195483
69	0xbb7e99bd	-0.003884896
70	0x3ba01746	0.004885587
71	0x3b1d604d	0.0024013699
72	0x3c76cdba	0.0150636975
73	0x3c478efd	0.012180087
74	0xba18e7c1	-0.0005832874
75	0xbb02c013	-0.001995091
76	0xbaa39c94	-0.0012482577
77	0xbb15a412	-0.002283339
78	0x3997951c	0.0002891206
79	0x3b91fee2	0.004455433
80	0x3c557e26	0.013030564
81	0x3ba0de51	0.0049093147
82	0xb96b0e8a	-0.00022416763
83	0x3b4b6b43	0.0031039275
84	0x3aaba227	0.001309459
85	0x3c9c6a42	0.019093636
86	0xbb2205a8	-0.002472261
87	0xbab97fc8	-0.0014152462
88	0xbbbe70c7	-0.005811784
89	0x3a909f2a	0.0011033763
90	0x3bac9cf3	0.0052677332
91	0x3b17714b	0.00231083
92	0xbbaa8033	-0.005203271
93	0xbb2fd6dd	-0.002683095
94	0xba38322e	-0.00070265203
95	0x3c01e2c2	0.007927598
96	0x3c933363	0.017968839
97	0x3c1c932b	0.009556572
98	0x3b1c8bac	0.0023886962
99	0xbaa2aecc	-0.0012411713
100	0x3ac33ce6	0.0014895468
101	0xbad3f481	-0.001617089
102	0x3c0b9fcd	0.008521986
103	0x3c9bb08a	0.019005079
104	0xba982a75	-0.0011609333
105	0x3bba990a	0.005694513
106	0xbb2a5a1e	-0.0025993655
107	0x390d14fd	0.00013454627
108	0x3b6ff98f	0.0036617254
109	0x3ba01efe	0.004886507
110	0x3bdf7351	0.0068191667
111	0x3b016102	0.001974166
112	0xbadcf0b4	-0.0016856403
113	0x3c16e226	0.009209191
114	0x3c27923e	0.010227738
115	0xbb0c3492	-0.002139364
116	0x3b029cfb	0.0019929993
117	0xbb4ce19b	-0.00312624
118	0x3ca39421	0.019968094
119	0x3aef7bce	0.001827115

fc2.weight f4 [80, 120]
0	0xbc86e262	-0.01646537
1	0x3d42dc3e	0.04757332
2	0x3d03af53	0.032149624
3	0x3c522ab9	0.012827569
4	0x3b6382ea	0.0034715482
5	0x3cf1dedd	0.029525215
6	0x3d0c2a4c	0.034220025
7	0xbc02d0c2	-0.007984342
8	0x3cc66151	0.024216326
9	0xbd7dcd38	-0.06196329
10	0x3b2277e4	0.0024790699
11	0x3daf78e6	0.085679814
12	0x3da86d1b	0.08223935
13	0xbcceaf91	-0.025230201
14	0xbcdeff90	-0.027221471
15	0x3d203cfe	0.039120667
16	0xbb463f86	-0.0030250265
17	0xbca40cd7	-0.020025654
18	0x3cc85b1f	0.024457512
19	0x3ce5a618	0.028033301
20	0xbceda133	-0.02900753
21	0x3c9df36b	0.01928111
22	0xbcaa6caa	-0.020803768
23	0xbca67472	-0.020319197
24	0xbc9ee899	-0.01939802
25	0x3ad7994f	0.0016448888
26	0x3c8a3aa0	0.016873658
27	0x3c202cfe	0.009776352
28	0x3bcee9ea	0.006314506
29	0x3b31f7a9	0.0027155674
30	0xbc14f5f4	-0.009091843
31	0xbd510e1f	-0.051038858
32	0x3d75414a	0.059876718
33	0x3bb7de8f	0.005611248
34	0x3b8c5af0	0.0042833015
35	0xbc52cff2	-0.012866961
36	0x3b2f480e	0.0026745829
37	0x3b805001	0.003915787
38	0xbd7fd845	-0.06246211
39	0xbbd1834b	-0.006393825
40	0x3b5ddce9	0.0033853597
41	0x3c2b02c2	0.010437669
42	0xbbd2d38d	-0.00643391
43	0x3cc8cfdc	0.024513178
44	0x3c8ca92c	0.017170511
45	0xbd3d323a	-0.046190478
46	0xbce623bb	-0.02809321
47	0xbcae9307	-0.021310342
48	0x3c5ecf83	0.013599279
49	0xbd29a9a8	-0.041421562
50	0xbd166abe	-0.03672289
51	0xbbe032ed	-0.0068420083
52	0x3db012ac	0.085973114
53	0x3bd4343b	0.006475953
54	0x3d415b7b	0.047206383
55	0x3d3cfb1f	0.046137925
56	0xbcbcf56a	-0.023066241
57	0x3d92b951	0.071642525
58	0xbd07a193	-0.033113074
59	0x3c6e4956	0.014543852
60	0xbc702b4e	-0.014658762
61	0x3b49a01f	0.0030765606
62	0x3c68183d	0.014165935
63	0x3cb06372	0.021531794
64	0xbd37022d	-0.04467981
65	0xbd1269cc	-0.035745427
66	0xbbde70d3	-0.006788352
67	0x3ca4ee7b	0.020133248
68	0xbc6366e9	-0.013879516
69	0xbc7d477c	-0.015458938
70	0x3d71ff50	0.059081376
71	0xbd0d91e7	-0.03456297
72	0xbd56ed59	-0.052472446
73	0xbcafba6f	-0.021451203
74	0x3d109e78	0.035307378
75	0x3cbfb042	0.023399476
76	0xbb4ad461	-0.0030949342
77	0x3ce7adc2	0.028281096
78	0x3cf9a45b	0.030473879
79	0x3cc150b7	0.023598058
80	0x3d255d20	0.040372014
81	0x3ccf6a71	0.02531931
82	0x3da67654	0.08128038
83	0x3b96a698	0.0045974962
84	0xbd1dc310	-0.038516104
85	0xbd13705e	-0.035995834
86	0x3b8008e0	0.003907308
87	0x3d4323e5	0.047641654
88	0x3d3cf37a	0.046130635
89	0x3a912079	0.00110723
90	0x3b4e638d	0.0031492442
91	0x3d86d644	0.06583837
92	0xbd4bd91b	-0.049767595
93	0xbd27db0f	-0.040980395
94	0x3ba3b1c6	0.0049955575
95	0xbc9b1ddf	-0.018935142
96	0x3d48596a	0.048913397
97	0x3c95c3c1	0.01828182
98	0xbc2bb69b	-0.010480548
99	0x3d78480a	0.060615577
100	0xbcbd46f7	-0.023105128
101	0x3cba4684	0.022738703
102	0xbd38bd8b	-0.045102637
103	0xbc8d7cd0	-0.01727143
104	0xbcd9f31b	-0.02660518
105	0xbc997439	-0.018732177
106	0x3c5cdab3	0.013479876
107	0x3d7a0f69	0.061049853
108	0xbcebeabf	-0.02879846
109	0x3cbea7d5	0.023273388
110	0xbc9ab0c5	-0.018883118
111	0x3ad348fd	0.0016119775
112	0xbc869f08	-0.016433254
113	0x3c624acc	0.013811778
114	0xbd3a2595	-0.045445997
115	0x3cac02a3	0.020997351
116	0x3d02d50e	0.031941466
117	0x3c902f75	0.017600754
118	0xbd02ef71	-0.03196663
119	0x3ba299ef	0.004962198
120	0xbc38c52c	-0.011277478
121	0xbc98e11d	-0.01866203
122	0xbc5e7f62	-0.013580175
123	0xbcc2468b	-0.023715278
124	0xbbacc574	-0.0052725617
125	0xbc4b5783	-0.012411001
126	0xbc3cc39c	-0.011521246
127	0x3c69ee78	0.014278047
128	0xbc523e5d	-0.012832251
129	0xbd202784	-0.039100185
130	0xbc30ae07	-0.010783679
131	0xbbafeb45	-0.0053686225
132	0xbb9666f4	-0.0045899097
133	0xbc5bda22	-0.013418706
134	0xbc890f39	-0.016730892
135	0xbba0712c	-0.0048963036
136	0x3a4c517a	0.00077941234
137	0xbc42648e	-0.011864794
138	0x3dbaafec	0.09115586
139	0xbc5f1ac0	-0.013617218
140	0xbc1734e6	-0.009228921
141	0xbcfeb3a5	-0.03109152
142	0x3af401fc	0.0018616314
143	0x3b678994	0.0035329806
144	0xbc253689	-0.010083803
145	0xbc25d53c	-0.01012164
146	0x3d826c4a	0.06368311
147	0x3c618f73	0.013767111
148	0x3d89dfa9	0.06732113
149	0xbc93ce3b	-0.018042674
150	0xbc9d5d40	-0.019209504
151	0xbc685947	-0.014181442
152	0xbb748fdf	-0.00373172
153	0xbca6181f	-0.020275174
154	0xbc22bd00	-0.009932756
155	0x3d3417f9	0.043968175
156	0x3c1cbde1	0.009566755
157	0x3b2abcb1	0.002605241
158	0x3c826a27	0.015919758
159	0x3cca49b1	0.024693342
160	0xbc6b651b	-0.014367367
161	0xbc86fa19	-0.016476678
162	0xbafa0593	-0.0019075148
163	0x3d227896	0.03966578
164	0xba068570	-0.0005131578
165	0x3c970837	0.018436534
166	0x3d134094	0.03595026
167	0xbc75c248	-0.014999934
168	0xbca2c4a2	-0.019869152
169	0xbce9e53d	-0.028551692
170	0xbd090fee	-0.033462457
171	0x3c959ccd	0.018263245
172	0x3cd20895	0.025638858
173	0xbbf3614c	-0.00742737
174	0xbb814f78	-0.003946241
175	0xbb944b8c	-0.0045256075
176	0x3bb807b8	0.0056161545
177	0xbb821167	-0.0039693597
178	0x3cfb540f	0.03067973
179	0xbcc6a40d	-0.024248147
180	0x3c3a2a0b	0.011362563
181	0x3b5e09cc	0.003388035
182	0xbb58c0f3	-0.003307399
183	0xbbbb7747	-0.005721006
184	0x3cb8888e	0.022526052
185	0x3ca3db26	0.020001959
186	0xbb8ebca1	-0.0043559824
187	0x3d245a03	0.040124904
188	0xbc5b31ba	-0.013378555
189	0xbb824c5e	-0.003976389
190	0x3d0e126d	0.03468554
191	0xbc079d08	-0.008277185
192	0x3c3bb25d	0.011456099
193	0xba71b947	-0.0009221029
194	0xbcf29376	-0.02961133
195	0xbcf7333e	-0.030175801
196	0x3b4dd156	0.0031405292
197	0xba7141f4	-0.0009203248
198	0x3c0834eb	0.008313398
199	0xbc2fa138	-0.01071959
200	0xba1ae6cf	-0.0005909027
201	0x3b356bc5	0.0027682644
202	0xbcc120d5	-0.023575226
203	0x3bdd718f	0.006757922
204	0xb986de90	-0.00025724294
205	0x3d72fb1b	0.059321504
206	0xbd0b827b	-0.034059983
207	0xbc13842f	-0.009003683
208	0xbcf3399a	-0.029690553
209	0xbc860336	-0.016358953
210	0xbb1c2130	-0.0023823492
211	0x3d05252a	0.032506146
212	0xbcef1dae	-0.029188957
213	0xbcbcd7d2	-0.02305213
214	0xbaeeab30	-0.0018208977
215	0x3d077763	0.03307284
216	0x3cd097a9	0.025462942
217	0xbb5bc484	-0.003353388
218	0xbad7913a	-0.0016446479
219	0xba1aea42	-0.0005909541
220	0xbd04ef29	-0.032454643
221	0x3b33ee23	0.0027455173
222	0xbcc9bceb	-0.024626216
223	0x3c5d7b65	0.013518189
224	0xbc6880b5	-0.014190842
225	0x3a15b7da	0.0005711295
226	0xbcc6d97b	-0.024273625
227	0xbc73f612	-0.014890211
228	0xbbf9f340	-0.0076278746
229	0xbad84ff7	-0.0016503324
230	0xb9f80f0a	-0.0004731345
231	0x3b942cee	0.0045219576
232	0xbcfb2393	-0.030656612
233	0xbba3196b	-0.0049773953
234	0xbd939603	-0.07206347
235	0xbc4952ab	-0.012287776
236	0x3c7341fb	0.014847274
237	0x3a6d6e12	0.0009057234
238	0x3d80eb10	0.062948346
239	0xbba30303	-0.0049747243
240	0xbcc68203	-0.024231916
241	0x3b953eae	0.004554591
242	0xbd003d23	-0.031308305
243	0xbbb3ae8c	-0.005483454
244	0x3c85ca03	0.016331678
245	0x3d7e7a2e	0.06212824
246	0xbd15a9f3	-0.03653903
247	0x3d949231	0.07254446
248	0xbc3b5a2f	-0.011435076
249	0x3c7f4676	0.015580764
250	0x3b85ae13	0.004079589
251	0xbc52fac8	-0.012877174
252	0xbb07d730	-0.0020727627
253	0xbcb5c4af	-0.022188513
254	0xbcea8de0	-0.028632104
255	0xbd266cb4	-0.04063101

fc2.bias f4 [80]
0	0xbc4746ff	-0.012162923
1	0x3cbf1a7a	0.023328055
2	0x3be36804	0.00693989
3	0x3b9932fc	0.0046752673
4	0x3a8ff664	0.0010983464
5	0x3b4eb535	0.0031541113
6	0x3c2a030c	0.010376703
7	0x3bf37b14	0.0074304435
8	0xbbe610be	-0.007021039
9	0xbab97937	-0.0014150505
10	0x3be2c7eb	0.0069208047
11	0x3b5a0878	0.0033269208
12	0x3c82ad71	0.015951844
13	0x3bcfa9f3	0.006337398
14	0x3b93435b	0.0044941134
15	0x3c1866e5	0.009301876
16	0xbbf1c155	-0.0073777833
17	0x3ba3a277	0.0049937326
18	0x3bd73bd0	0.0065684095
19	0x3c9213a2	0.017831627
20	0x3cb32f4a	0.021873135
21	0x3d15ed4a	0.03660325
22	0x3c172fe6	0.0092277285
23	0x3bddc811	0.0067682345
24	0x3c8bcf84	0.017066725
25	0x3c877075	0.016533116
26	0xbb895b3b	-0.0041917837
27	0x3ce5f247	0.028069628
28	0x3ca12b61	0.019674005
29	0x3c56f0f4	0.013118971
30	0x3cb9c5ad	0.022677267
31	0x3b0c382a	0.002139578
32	0x3cb278b2	0.021786068
33	0xbb11c116	-0.0022240332
34	0xbc2b5c67	-0.010459042
35	0x3c8816ca	0.01661243
36	0x3c77895f	0.015108435
37	0x3b1e9d7f	0.0024202762
38	0x3c2ec0e6	0.010666108
39	0x3b6a6079	0.0035763069
40	0x3c52b239	0.012859874
41	0x39965a25	0.00028677392
42	0x3c1502c4	0.009094898
43	0xbbe5549c	-0.0069986116
44	0x3ca06c2d	0.019582832
45	0x3cb16c72	0.021658156
46	0xba6a9d8d	-0.00089498685
47	0x3b7e07e0	0.0038762018
48	0x3bb1033d	0.0054019974
49	0x3ba1ce07	0.0049378905
50	0x3c90ed73	0.01769135
51	0x3c86049d	0.016359622
52	0xbbbbe81c	-0.0057344567
53	0x3b319101	0.0027094486
54	0x3bb4a3b5	0.0055126795
55	0x3c651d81	0.013984085
56	0x3c67c7a3	0.014146718
57	0x3c83c1f4	0.016083695
58	0xbb7e3b31	-0.0038792605
59	0xba4ade0c	-0.0007738776
60	0x3c46df0f	0.012138142
61	0x3c63c8e0	0.013902873
62	0x3c75a903	0.014993909
63	0x3cd9ffff	0.026611326
64	0xb9dcad33	-0.00042090713
65	0xbba5b540	-0.005057007
66	0x3b82b2a0	0.003988579
67	0x3c3578ad	0.011076135
68	0x3bf21eb7	0.0073889154
69	0x3b64d1d4	0.0034915106
70	0x3ccd1f8d	0.025039459
71	0x3cb591dc	0.022164278
72	0xbc0d4e92	-0.00862469
73	0xbbd0f36e	-0.0063766753
74	0x3ba88703	0.005143048
75	0x3b6d2c20	0.003618963
76	0x3bc4b03f	0.0060024555
77	0x3cd56e06	0.02605344
78	0xbb19f55f	-0.00234922
79	0x3cac5f49	0.02104153

fc3.weight f4 [38, 80]
0	0x3d733912	0.0593806
1	0x3baa256a	0.0051924484
2	0x3ddff5e7	0.10935574
3	0xbc0b878c	-0.008516204
4	0x3d1923dc	0.037387714
5	0xbcd2e79f	-0.025745211
6	0xbc88f1bd	-0.016716832
7	0x3e173d8e	0.14769575
8	0x3db7573f	0.08952188
9	0xbce03309	-0.027368085
10	0x3dcf437c	0.101202935
11	0x3dc914d6	0.09818427
12	0xbc7d0063	-0.015441987
13	0x3d0db1c7	0.03459337
14	0xbba3cd28	-0.0049988218
15	0xbd2a0927	-0.041512635
16	0x3deec9aa	0.11659558
17	0x3e0990e0	0.13434172
18	0x3d9e05b7	0.07715934
19	0x3d5299f6	0.05141636
20	0xbd30920b	-0.043108027
21	0x3db6aae8	0.089193165
22	0x3c253e2a	0.010085622
23	0xbb87d524	-0.0041452814
24	0xbcadbbe6	-0.021207761
25	0xbd819580	-0.06327343
26	0xbcc6374f	-0.024196295
27	0xbcfc6c51	-0.030813368
28	0x3dade2cc	0.08490524
29	0xb944bd67	-0.00018762574
30	0xbd163067	-0.036667254
31	0x3d932bd0	0.07186091
32	0xbcf82787	-0.030292286
33	0xbd2a845f	-0.041630145
34	0x3df09d83	0.11748793
35	0xbd244693	-0.040106367
36	0x3db1e956	0.086870834
37	0xbc627610	-0.013822094
38	0x3ddfeb7d	0.10933588
39	0xb8001b8d	-3.0543237e-05
40	0xbcb0633c	-0.021531694
41	0x3d34fcda	0.04418645
42	0x3cc503ae	0.024049606
43	0x3de1510f	0.11001789
44	0x3c846c6f	0.016164986
45	0x3d7371b7	0.05943462
46	0x3d923531	0.07139052
47	0x3e12bc20	0.14329576
48	0x3dd63a98	0.104603946
49	0x3ca9f846	0.020748269
50	0xbd0cef86	-0.034408115
51	0x3d1c2250	0.03811866
52	0x3d68dd13	0.056851458
53	0xbc244993	-0.010027307
54	0xbc9a8c44	-0.018865712
55	0xbd7ba366	-0.061435126
56	0xbb792fbd	-0.003802284
57	0xbce1417e	-0.02749705
58	0x3dadc639	0.084850736
59	0x3e09cba8	0.13456595
60	0xba926b97	-0.001117098
61	0x3d19f996	0.03759154
62	0xbc308388	-0.010773547
63	0xbc653bca	-0.013991306
64	0x3d79b675	0.06096502
65	0xbc8f5ecb	-0.017501255
66	0xbc7a4584	-0.015275363
67	0x3cfe0b14	0.031011142
68	0xbcbf5e37	-0.023360355
69	0x3d25056e	0.04028838
70	0xbd4cb0fa	-0.049973466
71	0xbc120b20	-0.008913785
72	0x3c29807d	0.010345575
73	0x3d3c69ee	0.04599946
74	0x3ca30822	0.019901339
75	0xbc99703c	-0.018730275
76	0xbd037776	-0.03209635
77	0xbcacf9be	-0.02111518
78	0x3ccf74f4	0.025324322
79	0xbd0a9fad	-0.033843685
80	0xbc8e883d	-0.017398948
81	0xbcd4d4c7	-0.025980366
82	0xbcefc647	-0.02926935
83	0xbd5b40df	-0.053528663
84	0x3c79cbe4	0.015246365
85	0x3cda4df9	0.026648508
86	0x3cfa1992	0.030529771
87	0x3e10ff6f	0.1415994
88	0x3d9def45	0.07711653
89	0xbc236593	-0.009972948
90	0x3c8c33c7	0.017114533
91	0xbcf52c85	-0.029928455
92	0x3d81fd91	0.06347192
93	0xbdc092d9	-0.09403009
94	0xbd293eed	-0.041319776
95	0xbd2a4332	-0.04156799
96	0xbd55742f	-0.052112754
97	0xbd46e503	-0.048558246
98	0xbd1eb748	-0.03874901
99	0xbc37f6e2	-0.011228295
100	0xbd0bedaa	-0.0341622
101	0x3e289842	0.16464332
102	0x3d3141b0	0.043275535
103	0xbcb95fcf	-0.022628693
104	0xbda03813	-0.07823195
105	0x3dd81c9d	0.105523326
106	0xbc805017	-0.01566319
107	0xbccfe99d	-0.02537995
108	0x3e28c301	0.16480638
109	0x3dbc25c5	0.091868915
110	0x3d754348	0.059878618
111	0xbd8bacfa	-0.06820102
112	0xbd090ffb	-0.033462506
113	0x3d75f2ab	0.06004588
114	0xbd4c3d8a	-0.049863376
115	0x3c8d8062	0.017273132
116	0xbd36c5d8	-0.044622272
117	0x3d05f330	0.032702625
118	0xbaf6e0c5	-0.0018835297
119	0x3d6614cd	0.05617218
120	0x3e0da97c	0.13834184
121	0xbcc4e3fa	-0.024034489
122	0x3dfe5bed	0.12419877
123	0xbc48c012	-0.012252824
124	0x3de99c71	0.11406792
125	0x3d80639a	0.062689975
126	0xbd41e90b	-0.047341388
127	0x3dba1aba	0.09087129
128	0xbd17109e	-0.03688108
129	0xbb47ad86	-0.0030468418
130	0x3e053ea5	0.13012178
131	0xbbe58522	-0.007004396
132	0xb91408ba	-0.00014117631
133	0xbc2e4a89	-0.010637888
134	0x3de1f6e4	0.11033419
135	0xbd4f6341	-0.050631765
136	0xbc832f03	-0.016013628
137	0xbd1b9438	-0.03798315
138	0x3d3ff9d9	0.046869133
139	0x3c97d1b3	0.01853261
140	0x3da2843c	0.07935378
141	0x3d94bda6	0.07262735
142	0x3df62223	0.1201823
143	0x3de5235e	0.111883864
144	0xbcef1ecc	-0.02918949
145	0xbcf251e5	-0.029580066
146	0x3e00aa87	0.12565051
147	0xbd559af8	-0.052149743
148	0x3da7c5c7	0.0819202
149	0x3dc5c2e7	0.09656315
150	0xbcc379f3	-0.02386186
151	0x3a8ccc95	0.0010742123
152	0xbd68b740	-0.056815386
153	0x3b8d343d	0.004309206
154	0x3cd90f74	0.026496626
155	0xbc9a16c8	-0.018809691
156	0x3b65bb37	0.0035054216
157	0x3e1c06de	0.15236995
158	0x3c08b908	0.008344896
159	0xbd3ff960	-0.046868682
160	0xbcf942bb	-0.030427327
161	0xbc41f16a	-0.011837343
162	0x3d59ca42	0.053171404
163	0xbcfe0fe9	-0.031013446
164	0x3c05e848	0.008173056
165	0x3ddb0480	0.10694218
166	0x3ca4011e	0.020020064
167	0xbd0818ee	-0.0332269
168	0xbd066ef3	-0.032820653
169	0x3dc87c37	0.09789317
170	0xbc1b1f51	-0.009467916
171	0x3d49ffe3	0.0493163
172	0x3df28f34	0.1184372
173	0xbd561988	-0.052270442
174	0xbceee5a5	-0.029162237
175	0xbca6c6af	-0.020358412
176	0xbd5978eb	-0.053093832
177	0xbc989997	-0.018627925
178	0x3dbe30e2	0.092866674
179	0x3d635d9b	0.05550919
180	0xbd06196f	-0.0327391
181	0x3c5da550	0.013528183
182	0x3db09bc3	0.08623459
183	0x3c98979d	0.018626982
184	0xbcfb8db0	-0.03070721
185	0x3d5614b2	0.05226583
186	0x3be3dc41	0.0069537465
187	0xbd1d3e30	-0.038389385
188	0x3d4c9878	0.049950093
189	0x3d8ca583	0.06867506
190	0x3dc8f106	0.098115966
191	0xbd900b99	-0.07033462
192	0xbd2d5291	-0.04231507
193	0xbd42410a	-0.047425307
194	0x3de8761d	0.11350653
195	0x3dc5c10e	0.09655963
196	0xbd8f470d	-0.06995974
197	0x3c0fb567	0.008771277
198	0xbb64aa77	-0.0034891644
199	0x3d8f7e94	0.07006565
200	0x3decd5a9	0.1156419
201	0x3d62c90d	0.05536752
202	0x3cac7d3f	0.021055816
203	0x3d8c9dea	0.06866057
204	0x3d8258a9	0.06364567
205	0x3dfd5ffa	0.12371822
206	0xbd7298e5	-0.059227843
207	0x3d2d90e8	0.04237452
208	0x3bb276b1	0.005446278
209	0xbcb25e3c	-0.02177345
210	0xbcf9fcb1	-0.030516
211	0x3e0acf8d	0.13555737
212	0x3bf78c54	0.00755457
213	0xbd0ae2d1	-0.033907715
214	0xbd345929	-0.044030342
215	0x3d299791	0.04140431
216	0x3e1c6f44	0.1527682
217	0x3cc7c4a7	0.024385763
218	0x3db17724	0.086653024
219	0x3dd62406	0.1045609
220	0x3a0e5031	0.00054288196
221	0xbd4f619c	-0.050630197
222	0xbc9d8311	-0.019227536
223	0xbca7824c	-0.020447873
224	0x3de6c6fc	0.11268422
225	0x3b95d7a8	0.0045728274
226	0xbcf4afe1	-0.029869022
227	0x3e0d3677	0.13790308
228	0x3d36d65c	0.044638023
229	0xbd088bfe	-0.033336632
230	0x3d5610b4	0.052262023
231	0xbab3ba06	-0.0013712056
232	0xbd4753b7	-0.04866382
233	0x3dd396cd	0.10331497
234	0xbc6617f3	-0.014043796
235	0x3ce7229a	0.028214741
236	0xbcf086b2	-0.029361103
237	0x3be312bf	0.006929725
238	0x3d7d906b	0.061905306
239	0x3c09e496	0.008416316
240	0x3d987f74	0.07446185
241	0x3d0e8267	0.03479233
242	0xbc8fbf4d	-0.017547274
243	0xbd0e69e4	-0.034768954
244	0xba0c64f2	-0.0005355618
245	0x3babadb1	0.0052392115
246	0xbccb64a6	-0.024828266
247	0xbd14f7ae	-0.03636902
248	0x3c672c2b	0.014109652
249	0xbb12d813	-0.0022406622
250	0x3ab6275c	0.0013897228
251	0x3da9a522	0.0828345
252	0x3d4c15ab	0.04982535
253	0x3db7eff3	0.089813136
254	0xbcfc7d73	-0.030821538
255	0xbd8750d9	-0.06607217

fc3.bias f4 [38]
0	0xbc1b6867	-0.009485341
1	0x3d9345e0	0.07191062
2	0xbc8e31bd	-0.017357701
3	0xbbbf9cc0	-0.0058475435
4	0xbc96dddc	-0.018416338
5	0xbcae3d9a	-0.021269608
6	0x3b75d5c1	0.003751144
7	0x3c8d4782	0.017246012
8	0x3d69b1bb	0.057054263
9	0x3c2676ea	0.010160187
10	0xbcb27f7c	-0.021789305
11	0xbc198f33	-0.00937252
12	0x3ca96a4f	0.020680575
13	0xbbb61545	-0.0055567347
14	0xbbd265d9	-0.0064208326
15	0xbbfc2274	-0.007694537
16	0xbcde0392	-0.027101312
17	0xbc374ad9	-0.011187279
18	0xbc21fcfe	-0.009886978
19	0xbbb75d8b	-0.005595868
20	0xbd08bf87	-0.03338578
21	0x3d276b0b	0.04087357
22	0xbccde4dc	-0.025133543
23	0x3bf36ca0	0.0074287206
24	0xbc86ef61	-0.016471567
25	0x3cd98dd1	0.026556881
26	0x3d6ffd12	0.058590956
27	0xbcd977e2	-0.026546422
28	0xbb360e5e	-0.002777956
29	0xbaa729b4	-0.0012753517
30	0x3db43910	0.08799946
31	0x3bd1b305	0.0063995146
32	0x3c1b02c6	0.00946111
33	0x3d11e222	0.035616048
34	0xbbbe5d6d	-0.005809477
35	0x3c88f317	0.016717477
36	0x3c96ba95	0.018399516
37	0xbca013a7	-0.019540621
