outfiles/cnn/Ya32_20Train_cnn.pth (torch, 334015 bytes, 10 tensors)

conv_layer1.weight f4 [8, 1, 5, 5]
000000 d1 72 b7 bb f9 05 9a bb a1 b8 0e bb a3 b2 5e bc
       -0.005598404 -0.004700419 -0.0021777528 -0.013592395
000010 dd 50 22 bc aa 80 3f 3c d2 62 09 3d 1c 7d b0 3b
       -0.009906975 0.011688391 0.033541508 0.005386008
000020 fd f8 b6 39 20 8a 2e bc 44 40 16 3b 68 f2 a4 bb
       0.00034899256 -0.010653049 0.002292649 -0.00503378
000030 d0 d1 54 bb 80 d5 21 bc 5b 99 18 bc cb 9f ff ba
       -0.003247369 -0.0098775625 -0.009313907 -0.0019502578
000040 78 7c f2 bb 26 a6 a9 bb 50 c2 de ba 35 16 5e 3b
       -0.0074000917 -0.005177277 -0.0016995165 0.0033887748
000050 3b 18 86 bb 23 ff 5a bc 70 94 9d 3b 62 84 8e 3a
       -0.004092244 -0.013366493 0.004808955 0.0010873193
000060 56 10 6e bb e3 bd a5 3c f4 7c 37 be 92 78 e2 bd
       -0.0036325655 0.020232147 -0.1791876 -0.11058153
000070 ff 98 00 bd c4 3e 48 3e e0 f6 15 3e 41 7b 8a bd
       -0.03139591 0.19555193 0.14644957 -0.0676179
000080 44 55 fd bc f5 9a 9c bd db a0 a7 3e 95 93 6f 3d
       -0.030924447 -0.07646743 0.3273991 0.058490355
000090 6d 64 de bd d2 93 cc bd f2 01 16 be 8b 8e b1 3e
       -0.108589984 -0.09989132 -0.1464918 0.34679064
0000a0 7f 9c 17 3e bf 1f 37 be fd 30 0b be 32 4a a4 bd
       0.14805792 -0.17883204 -0.13592906 -0.08021964
0000b0 56 67 90 3e e9 f2 1d 3e 02 7b 6c be b0 63 35 be
       0.2820384 0.15424694 -0.23093799 -0.17713809
0000c0 67 07 d1 bd ab bd 5a 3e 67 cf 19 be 33 e7 9e be
       -0.1020649 0.21361415 -0.15020524 -0.31035766
0000d0 57 20 fd 3d 88 25 b6 bb 22 ce d0 3d 47 1d 97 3d
       0.12359684 -0.0055586733 0.10195567 0.07378631
0000e0 13 54 53 be 5a 42 00 3e 1c 5d a7 bc 3a ae f0 3d
       -0.2063754 0.12525311 -0.02043014 0.11751981
0000f0 27 52 a3 3e 00 31 8a be f2 5e f6 3d 79 ee 30 3d
       0.31898615 -0.2699051 0.12029828 0.043196175
000100 b4 c4 a4 3d 68 45 58 3e 3f 03 c6 be 07 94 50 3d
       0.08045331 0.21120226 -0.38674352 0.05092242
000110 ab 9c 2f 3d 1a 4b 8d 3d ed 7e 07 3e 4f 19 9f be
       0.04287402 0.0689909 0.13232012 -0.31073996
000120 34 11 52 3d 65 28 f7 bb 49 42 e9 3c 07 da 67 bc
       0.051285937 -0.007542657 0.02847399 -0.014151103
000130 cb c1 ac bc 57 9f 19 bd d9 e7 54 bd 0e 10 0a bc
       -0.021088501 -0.037505474 -0.05197892 -0.008426679
000140 b4 09 29 bd 79 19 27 bd 38 df 6e bd 35 12 40 bd
       -0.04126902 -0.040795777 -0.058318347 -0.046892364
000150 14 73 cb 3d b1 1a 13 bd 87 72 2e bd 69 7c 9a bc
       0.09934059 -0.035914127 -0.04258969 -0.018858152
000160 64 2d b3 3c 5e 1c ed 3d a0 76 2a bc 4f 38 93 bc
       0.02187223 0.11577676 -0.010404259 -0.017971186
000170 52 39 d2 bc ce 92 37 3d 8c b8 51 3d 91 ab f1 bc
       -0.025662098 0.04481774 0.05120139 -0.029500755
000180 55 ea 4c bc 6f 40 a0 ba b7 06 30 bc f1 50 1a 3d
       -0.012507041 -0.0012226234 -0.010743788 0.037674848
000190 8c fa b2 bd c6 62 a8 3d 37 41 4f 3e f6 10 2f 3e
       -0.08739194 0.082219645 0.20239721 0.17096314
0001a0 11 6c 0d 3c 7c 9d 17 be 8c f5 f1 3d c6 ff 38 3e
       0.008631722 -0.1480617 0.118144125 0.1806632
0001b0 8d 4f 04 3e b9 7d 17 3d 6d 03 20 bd 85 d5 39 3e
       0.12920971 0.036985133 -0.039065767 0.18147857
0001c0 db 34 3f 3e fa 65 6b 3e d8 62 42 3b 4d 9e 81 bd
       0.18672507 0.2298812 0.0029660966 -0.063290216
0001d0 ba 4a 63 3e 34 55 a9 3e 82 10 67 3e 81 fb 4f 3d
       0.22196475 0.33072817 0.22564891 0.050776962
0001e0 6b f6 c5 3d 2d 01 6e 3e 0a 19 6f 3e 62 98 4f 3e
       0.09666141 0.23242636 0.23349395 0.20272973
0001f0 43 26 2b 3c 85 0d ee bc b5 83 0c be bd 96 26 bd
       0.010446134 -0.029059181 -0.13722117 -0.0406711
000200 6c d9 93 3c 40 7e 03 bd d0 36 81 3e e1 6d ca 3d
       0.01804801 -0.032102823 0.2523713 0.09884239
000210 3d 19 81 be 80 43 4f be 04 8e 9a bd 21 2f f5 3b
       -0.25214568 -0.20240593 -0.075466186 0.007482425
000220 1b 43 da 3d ac 71 32 be 85 a2 50 bd ba 3c 1a bd
       0.106573306 -0.17426175 -0.05093624 -0.03765557
000230 b9 65 4b be 8c 4a 74 3e bf 1e b9 3e e9 d7 80 3e
       -0.19863023 0.23856562 0.3615627 0.25164726
000240 c5 86 07 3e ea 1d e8 bd 6a 5a 6f bd 18 e9 41 be
       0.13235004 -0.11333831 -0.058435835 -0.18936574
000250 e2 0d 01 be a2 21 5b 3c c6 aa 93 3c 58 44 63 be
       -0.12602952 0.013374718 0.018025767 -0.2219404
000260 73 12 68 3e b1 97 c7 3d 1b 32 f7 bd 05 29 04 3d
       0.22663288 0.0974573 -0.12070104 0.03226568
000270 74 d5 8d be 38 48 2d 3e db 72 62 3e 78 1b d1 bd
       -0.27701914 0.1692208 0.22114126 -0.102103174
000280 7b 16 06 bc 20 b3 85 be b0 bf 99 3d f2 7b 9a 3e
       -0.008184071 -0.26113224 0.075072646 0.30172688
000290 a7 30 90 3d 4e 0e 2f 3e 30 89 ae be 82 50 12 be
       0.0704053 0.170953 -0.3408904 -0.14288524
0002a0 7c be 55 3e 50 d5 0a 3e 85 63 bd 3d 15 5b 19 be
       0.20873445 0.13557935 0.092474975 -0.14976151
0002b0 bb 73 82 be 66 ff 87 3e 3a 8a 2f 3e 82 5e 2f 3e
       -0.2547892 0.2656204 0.17142573 0.17125896
0002c0 c3 2e c4 3d 75 a4 0f be c6 25 72 3e 2c b0 bf 3e
       0.095792316 -0.14027579 0.23647222 0.37439096
0002d0 2a 14 5d 3e 91 85 2a bd af 10 9a be 29 78 8b 3e
       0.21589723 -0.041631285 -0.30090854 0.27240112
0002e0 05 d8 8b 3e 6d 06 7d 3e 7a 7f 2a bd ff df af bd
       0.27313247 0.24709482 -0.041625477 -0.08587646
0002f0 04 db b2 3c 07 49 7a bc 60 f7 05 3e 88 bf 90 bd
       0.02183295 -0.0152762 0.13082647 -0.07067782
000300 ef d4 c8 be cb 77 45 bd bc 1e b7 bd 4c 6e 95 3e
       -0.39224955 -0.048209947 -0.08941409 0.29185712
000310 a2 d3 68 be 0f f2 fe be 81 74 13 be e9 30 33 be
       -0.22736982 -0.4979405 -0.14399911 -0.17499126

conv_layer1.bias f4 [8]
000000 de b1 ca 3b af 29 f0 3b dc 67 90 3c b7 36 50 bb
       0.006185754 0.007329188 0.017627649 -0.0031770894
000010 8e 8f 2b 3a df 65 1a 3d 09 22 c0 3b 12 b2 26 3d
       0.00065445236 0.037694808 0.0058634323 0.040697165

conv_layer2.weight f4 [16, 1, 5, 5]
000000 0a 11 a0 39 05 e8 e8 3a d1 8b 32 bc 7e 85 87 3a
       0.00030530273 0.0017769343 -0.010897593 0.0010339466
000010 8f 17 dd 3b 5f d8 8b 3c d1 46 df 3b e5 cb 07 bc
       0.006747193 0.017070947 0.006813862 -0.008288358
000020 e4 12 46 3c 9e 74 01 3b 74 60 3a 3c 42 85 20 3c
       0.012089465 0.0019753347 0.011375535 0.009797396
000030 b8 6d 2a 3c d6 24 46 b9 ad 80 a5 bb 6c ab 9d 3b
       0.010402136 -0.00018896474 -0.0050507397 0.004811695
000040 29 da 1a bc 87 b4 3e 3c 08 b6 96 3a b5 0b 54 3b
       -0.0094514275 0.011639721 0.0011498341 0.003235561
000050 c9 fa ee 3b 75 4a 0e bc 3a 09 1d 3b ce 37 ec 3b
       0.0072930795 -0.008684744 0.0023961798 0.007208801
000060 97 16 11 3c 7c ce cb bb f0 45 55 bb 7a e9 09 3c
       0.0088554835 -0.006219683 -0.0032542907 0.008417482
000070 bf 2c 60 3c 69 0b 08 3c ba 90 f2 bb 45 95 1c 3a
       0.013682543 0.008303502 -0.0074025067 0.00059731706
000080 40 76 c1 b9 54 c6 5e 3b e8 2d 37 bb 2c dc 5e 3b
       -0.00036899932 0.0033992724 -0.0027950946 0.0034005744
000090 64 c1 09 bc 44 0d 4b 3b 9c 25 4b 3b c2 c7 e1 3b
       -0.008407924 0.0030983249 0.0030997759 0.006890268
0000a0 33 46 29 3c e9 5e da 3b 56 d3 31 bc a2 f2 2f 3b
       0.010331678 0.006664146 -0.010853609 0.0026847501
0000b0 18 c7 49 3c d2 ab ff 39 8e 84 b4 3a e3 d0 d7 3b
       0.012315534 0.00048765406 0.0013772415 0.0065861805
0000c0 fc 29 89 3b bd 1a ea bb cc e1 03 be 2c f6 7e bd
       0.004185913 -0.0071443007 -0.12879103 -0.062246487
0000d0 9e 90 bc bc 15 15 5d 3e 14 85 89 bd 47 9e 24 be
       -0.023018178 0.21590073 -0.06714836 -0.16076003
0000e0 6b 9f cc bd b1 bc 9d bd 0d f5 81 3e 4a 96 0a bd
       -0.09991344 -0.07702006 0.2538227 -0.033834733
0000f0 d9 f2 e2 bd 35 d3 a8 bd d9 80 0a be 4f 3b 87 3e
       -0.11081476 -0.082434095 -0.13525714 0.26412436
000100 0c e0 0f bc a0 16 fb bb 1a 69 39 bd c3 2e 51 bd
       -0.008781444 -0.007662609 -0.04526625 -0.051069986
000110 af f4 5e 3e 72 90 bf bc ab 2e 1a bd 20 d3 08 3d
       0.21773027 -0.023384307 -0.037642162 0.03340447
000120 31 2c 82 bd 0b 41 de 3d 28 fa e0 bd b2 5b fc 3c
       -0.06356085 0.1085225 -0.109852135 0.030805442
000130 6f cb c9 3d f5 7d 93 bd cd d6 8d 3d 8c 67 b6 bc
       0.09853255 -0.07201759 0.069257356 -0.022266172
000140 42 05 7b bd 93 12 d6 3d 4a ee 1e be 8f 8b 0d bc
       -0.06128431 0.104527615 -0.15520588 -0.00863923
000150 61 77 f1 bd e4 3a 97 bd 53 71 02 3e f6 b9 97 be
       -0.11790348 -0.07384279 0.12738542 -0.29634064
000160 ef 02 1c 3e 38 76 8a 3d e2 0b 99 bd 54 a2 91 3d
       0.15235494 0.0676083 -0.074729696 0.0711104
000170 f1 e0 7d be 9d 65 77 3e 27 b0 db 3d 74 a9 f7 bc
       -0.2479284 0.24159856 0.10726958 -0.030232169
000180 e0 5d 56 3d d5 26 12 be aa ef 7e 3d f4 c9 3f 3c
       0.05233562 -0.14272626 0.06224028 0.011705864
000190 de dc 12 bd 9f cc 8d bc 93 22 7c bc a2 a9 80 3d
       -0.035855167 -0.017309485 -0.0153891025 0.06282355
0001a0 2a 67 56 3c d3 7f 83 bd 37 a0 95 bd 81 cb 16 3d
       0.01308612 -0.06420865 -0.07305949 0.03681517
0001b0 3e 60 88 3d 3c 3f c7 3c a1 6c 8f bd f7 2f 17 bd
       0.06658982 0.024322145 -0.07003141 -0.036910977
0001c0 b6 42 50 bd a9 b9 65 bd 60 8b 6b bd 02 cf ab bd
       -0.05084487 -0.056085262 -0.057505965 -0.08389093
0001d0 ef fa 24 3e a8 ca 0a 3c 7a e3 8f bd a1 6f 9d bd
       0.16111349 0.008471169 -0.070258096 -0.07687307
0001e0 bc cc 64 bd 16 5a 70 3e 30 65 cc 3d c5 79 c9 bb
       -0.055859312 0.23471865 0.099802375 -0.0061485493
0001f0 fd 63 7e bd f3 fb 6d bd 96 05 e4 bd a9 41 c1 3c
       -0.062107075 -0.058101606 -0.11133878 0.02359088
000200 22 c2 4f 3e b5 b9 98 bc 7d 3f 3e bd dd a6 a4 bd
       0.202889 -0.01864324 -0.046447266 -0.08039639
000210 a0 da b1 bd d7 a0 3b 3e 00 0b 0b be f2 5f bd 3c
       -0.086842775 0.18323074 -0.13578415 0.02311704
000220 32 02 04 be 31 33 26 be 72 c4 25 3e db eb c3 bc
       -0.12891462 -0.16230465 0.16188219 -0.023916176
000230 db e7 0a 3e 5c 60 1d be 23 37 83 be 55 62 78 3e
       0.13565008 -0.1536879 -0.25628003 0.2425626
000240 9e a9 b4 3d 3b 6d 2b bb db 51 13 be ad 81 87 be
       0.088214144 -0.0026157636 -0.14386694 -0.26466122
000250 f6 01 8e 3e 5e e4 4b 3e 9a 00 52 3d 32 71 b1 3c
       0.2773587 0.19911334 0.051270105 0.021660421
000260 e7 b8 66 3d 2c 52 6a 3d ff 88 b2 bc 46 62 64 bc
       0.05632868 0.05720727 -0.02179384 -0.013939446
000270 cb cb 28 bb ad 68 cc bb b3 0f 73 ba 27 47 1d bc
       -0.0025756236 -0.0062380643 -0.0009272054 -0.009599484
000280 cc 24 40 bc 46 77 a3 bc 94 9a af bc f9 eb 2a bb
       -0.011727523 -0.019954335 -0.021436013 -0.0026080592
000290 20 f7 c7 bb 13 d3 da 3b 55 87 01 3c d4 96 33 bc
       -0.0061024576 0.006677994 0.007905801 -0.010961253
0002a0 f0 33 bc 3b 8e b2 31 bc 9d 1f f9 3b d6 96 bc ba
       0.005743496 -0.010845793 0.0076026455 -0.0014388214
0002b0 96 b0 a6 bc a0 1f 33 bc 75 9b be 39 f4 97 3c bc
       -0.020347875 -0.010932833 0.00036355449 -0.011510838
0002c0 72 3a a4 bc 3f 7c 25 bc 5a 15 4f 3d 73 c8 42 3c
       -0.0200474 -0.010100423 0.05055747 0.011888611
0002d0 6b 69 d8 bc 6b f6 db bc 9d ad 19 bb f7 d3 de 3c
       -0.026417455 -0.0268509 -0.002344943 0.027200682
0002e0 a9 1e 71 bc 03 7d af bc 43 11 e8 bc 02 8e 72 bc
       -0.014716783 -0.021421915 -0.028328544 -0.014804365
0002f0 be 37 0d bb d9 d1 a3 bc b1 d0 a2 bc 81 6e 37 bd
       -0.0021548118 -0.019997524 -0.019874902 -0.04478312
000300 a1 86 40 3d 7c ec 49 3d 6e cd fb bb 17 81 5b bc
       0.047003392 0.049297795 -0.0076844012 -0.013397477
000310 93 f5 62 bd 4c 38 b5 3d 59 93 d2 3d c5 96 b0 bc
       -0.05540998 0.088486284 0.102820106 -0.021556268
000320 48 fd a8 bd 1f 65 97 3d fe e5 87 bd 39 16 b4 bd
       -0.082514346 0.07392334 -0.066356644 -0.08793301
000330 c5 94 03 bd 7b 54 77 3e ea bc 8c 3e ee ef 28 be
       -0.0321243 0.2415332 0.2748788 -0.16497776
000340 bc f1 17 bd 02 68 25 ba d5 e9 e9 3d 94 cf 7f 3e
       -0.03709577 -0.0006309749 0.11421553 0.24981529
000350 cb 08 4d be ef 48 b3 bc 1a ba 0a be a5 b6 f1 bd
       -0.20022886 -0.021885363 -0.13547555 -0.11802415
000360 40 0b 8f 3d af c4 ef bd ea 5d d1 bd 64 50 b8 3c
       0.06984568 -0.11707436 -0.10222991 0.02249927
000370 83 a3 ea bd ab e8 07 3d b4 83 8e bc a8 76 22 3d
       -0.11456969 0.033180874 -0.017396785 0.03966394
000380 0f ee 06 3c 06 82 6d 3c f0 99 27 3d 6f ad ea 3c
       0.0082354685 0.014496332 0.04091829 0.028647153
000390 c2 9e a3 bd d3 92 28 be e6 91 3b bd aa 72 fe bd
       -0.07989265 -0.16462259 -0.045793436 -0.12424214
0003a0 98 05 06 be a4 c7 2d bd 04 24 5d be 05 83 a0 bd
       -0.13088071 -0.04242672 -0.2159577 -0.0783749
0003b0 8c 5a 12 3c 26 8f 60 bd c3 aa 59 bb e1 eb cc bd
       0.008932721 -0.054824017 -0.0033213354 -0.10005928
0003c0 52 2f 4d be 86 81 46 3d ea 06 11 bc d1 c1 a9 3d
       -0.20037583 0.048463367 -0.008851746 0.08288921
0003d0 0a e8 5b bd b6 0f ac bd 8d 33 6d 3e 5a e4 aa 3e
       -0.053688087 -0.08401434 0.23164196 0.33377343
0003e0 88 8a 2f 3d a0 e5 cf 3d 81 e2 2f bd f9 fd 4b bd
       0.042856723 0.10151219 -0.04294062 -0.049802754
0003f0 c9 fc 0f bc 23 e3 01 bd a9 0b 29 bc 54 d0 5d bc
       -0.008788296 -0.031710755 -0.010317721 -0.013538439

conv_layer2.bias f4 [16]
000000 dc 84 9f 3c d9 75 80 3c 77 d5 1e 3c f7 a3 b2 3b
       0.019472532 0.015681194 0.009694449 0.005451675
000010 c7 d2 7f bc b3 b6 ac 3d bc c5 8f bc 4a ae 93 bc
       -0.015614218 0.084332846 -0.017550342 -0.018027443
000020 ca 4c a5 3c f7 99 9c ba 8c 9d 9d 38 4d 92 aa bc
       0.020178217 -0.001194774 7.515689e-05 -0.020821715
000030 68 8c 5e 3d d8 e9 ad bb f7 e4 a9 3d f2 74 5b 3c
       0.05433312 -0.0053074174 0.08295625 0.013394581

fc1.weight f4 [120, 576]
000000 4e 0a 3f ba 4e f8 16 3a f6 81 39 3a 3b 80 77 3a
       -0.00072876073 0.0005759046 0.00070765556 0.000944141
000010 4f d6 e2 ba 60 ff 01 ba 84 8b d3 3a c2 4a b5 3a
       -0.00173063 -0.00049590133 0.0016139601 0.0013831484
000020 c3 12 1c bb 22 77 bb 3a cf 81 58 3a 7b 77 23 b9
       -0.0023814894 0.0014302472 0.0008259089 -0.00015589401
000030 e4 cd 0f ba 75 cd a0 3a e3 e1 b9 b9 55 4c f3 ba
       -0.0005485697 0.0012268262 -0.00035454248 -0.0018562177
000040 9e 96 f0 ba 92 8f 44 ba 8a 5a 03 3a ec 1c d0 ba
       -0.0018355434 -0.00074982 0.0005010745 -0.001587776
000050 a3 60 ed 3a 47 8d 1c bb 83 11 77 b8 3b 32 c5 3a
       0.0018110465 -0.0023887919 -5.8905698e-05 0.0015044877
000060 aa da 93 3a 2f ff e2 3a 9b eb a5 3a b9 15 36 b9
       0.0011280377 0.0017318482 0.0012658717 -0.00017364965
000070 6a 41 27 b7 65 d6 fb ba 5e 94 c2 ba a8 7b 8f b8
       -9.969206e-06 -0.0019213675 -0.0014845242 -6.841804e-05
000080 70 a2 4e ba 36 4a 81 3a 7e 24 09 bb 93 59 96 b9
       -0.00078824814 0.0009864036 -0.0020926292 -0.00028676967
000090 9d 7c 19 bb 43 dc 9e ba 73 f6 1a 3a 0a 95 a0 3a
       -0.0023420223 -0.0012120086 0.00059113576 0.0012251448
0000a0 a7 df a3 ba af d9 6a ba 72 88 a9 ba 81 0f cf ba
       -0.0012502567 -0.0008958829 -0.0012934341 -0.0015797467
0000b0 22 1a 22 3a 63 32 c8 3a bd a5 cc 39 2d a6 a9 ba
       0.00061837037 0.0015273805 0.00039033397 -0.0012943201
0000c0 49 ac df 3a 2c 3c f7 ba fd 39 51 3a 9a 94 3c 39
       0.0017064895 -0.0018862537 0.0007981358 0.00017984436
0000d0 39 6f 69 3a 6c ec ae ba 23 18 cb b9 75 d0 71 3a
       0.0008904818 -0.0013345606 -0.0003873716 0.0009224483
0000e0 16 62 5c ba b3 25 18 38 fe 63 47 3a b2 13 7a b8
       -0.000840695 3.6274734e-05 0.00076061476 -5.9622987e-05
0000f0 77 92 ca 39 7c c0 34 bb 12 b0 34 bb c7 46 0c 3a
       0.00038637567 -0.002758055 -0.0027570766 0.0005351123
000100 c3 f1 3e ba 43 8a 57 ba 8a 3d 78 b9 ca 26 4b 39
       -0.000728395 -0.0008222202 -0.00023674048 0.00019374039
000110 2c ea a4 ba da 73 ae 3a 57 9f 5c ba 73 a2 92 b9
       -0.0012581996 0.0013309673 -0.00084160775 -0.00027968324
000120 a4 73 a7 3c 67 a1 ed bb cf 62 99 bb d8 68 fa b9
       0.020440884 -0.0072519067 -0.0046809684 -0.0004776183
000130 a6 84 32 3b fa 6d aa 3a 4d 9e 8e 3c 89 f8 8c 3b
       0.002723971 0.0013002746 0.017409468 0.0043020886
000140 52 e2 5a 3a 53 6d 2a 3b 6e e2 9d 3c d5 f9 0f 3b
       0.00083497644 0.0026005104 0.01927301 0.002196898
000150 41 ad fc 3a 82 4a a2 3b 1b 8f 7b 3c 66 15 5d 3b
       0.0019277708 0.0049527297 0.015353943 0.0033734678
000160 fc 1d 75 3c cc 12 81 bb 4f 92 7c 3b b1 ba c2 3b
       0.014960762 -0.0039390083 0.0038539355 0.0059426655
000170 2c 47 57 3c e9 ec 8f bb 5a db 09 3c 39 b5 6e bc
       0.013139527 -0.0043922556 0.008414114 -0.014569574
000180 30 aa b6 3b d8 57 8e bb 8c 24 aa bb 8b 64 eb bb
       0.005574487 -0.004343968 -0.005192345 -0.0071836165
000190 04 34 a0 3c 69 23 0b bc 40 59 cf 3b ff 4f 44 3a
       0.019556053 -0.008492329 0.006327778 0.0007488727
0001a0 fd e0 d5 bb a9 b5 27 bc 71 b3 62 3c e5 79 1a bc
       -0.006527065 -0.010236182 0.0138367275 -0.009428476
0001b0 c6 3c 9f 3c 95 d1 20 3c d3 2d 3a 3b ab 74 c5 bb
       0.019438159 0.009815593 0.002840866 -0.006025871
0001c0 ee 84 16 3c bc 9f f3 bb ed ab 02 3c af 0a a7 3b
       0.009186966 -0.0074348133 0.007975561 0.005097709
0001d0 2a 56 81 bb 52 6c 81 3b 1e b2 80 3c c0 af 38 bc
       -0.003947039 0.0039496804 0.015709933 -0.011272371
0001e0 52 16 72 bc cc f1 ff b9 ee fa 54 bc d1 8c 39 bb
       -0.014775829 -0.00048817543 -0.012999279 -0.0028312693
0001f0 bb ad 2b 3c 49 c0 87 bb c6 64 e7 bb c5 e7 a3 bc
       0.010478432 -0.004142795 -0.0070615737 -0.020007977
000200 67 04 a0 bb 27 55 53 bc 05 52 c5 3b 44 e4 f1 ba
       -0.0048833373 -0.01289872 0.0060217404 -0.0018454869
000210 db f2 6e bc 94 46 51 ba c2 5a 15 bc 97 99 35 bc
       -0.014584268 -0.0007983234 -0.009115877 -0.011083982
000220 51 31 9b 3b cc c6 55 bc 21 7f d4 bc 8e ae 11 3c
       0.0047361036 -0.013047885 -0.025939526 0.008891715
000230 e3 06 f1 3b 3e c0 e4 bb 52 48 17 bc a1 b7 3b bc
       0.0073555573 -0.006980925 -0.009233551 -0.011457355
000240 32 19 58 bc 74 75 4a 3c 95 ea dd bb 65 26 e1 bb
       -0.013189601 0.012357105 -0.006772349 -0.006871032
000250 da d0 14 bc b6 be ac 3b fe 5e 42 bc 63 23 21 bc
       -0.009082997 0.005271758 -0.011863468 -0.009835097
000260 b3 9f 4b 3a b1 24 ad bc ad 85 14 3b 99 0c b0 bb
       0.00077676325 -0.02113566 0.0022662685 -0.0053725955
000270 3f 0b ba bb 93 4b 20 bc f5 d2 16 bc 18 b6 51 bb
       -0.00567761 -0.009783643 -0.0092055695 -0.0031999405
000280 7f f1 3f 3b ad c4 06 bb f7 4f 17 3c 43 91 fe 3c
       0.002928823 -0.0020564005 0.009235374 0.031075126
000290 52 ca 34 3c d2 fc 54 3c d2 5b 73 bb fc 9d 57 ba
       0.011034565 0.01299973 -0.0037133587 -0.00082251406
0002a0 7e f9 87 bc 6e 46 27 bc c9 ab 8b bb 21 f8 33 bb
       -0.01659846 -0.010209663 -0.0042624217 -0.0027461129
0002b0 9b d2 c7 ba 96 7e 0e bc 9d 7d 05 ba b1 20 42 bc
       -0.001524526 -0.008697173 -0.0005092265 -0.011848615
0002c0 80 6f a0 bb bb de de bb d6 04 2e bb 41 e5 e6 bb
       -0.0048961043 -0.006801454 -0.0026553175 -0.007046372
0002d0 94 45 cf 3c 72 9e bb ba a0 3d f1 bb a4 8a 8c bc
       0.025301732 -0.0014314188 -0.0073620826 -0.017155953
0002e0 70 39 f3 3c 5f b5 29 3c 3c 20 08 bb 4a d3 ad 3c
       0.029690474 0.010358184 -0.0020771166 0.021218915
0002f0 4e 06 a0 bc 62 55 93 3c 95 70 66 3b 46 64 c4 3c
       -0.019534256 0.01798505 0.003516232 0.023973595
000300 1e 40 4f 3b 9c 3f fb 3b 9d 5e b6 bb 73 08 6a 3c
       0.003162391 0.007667495 -0.005565478 0.014284241
000310 58 8a e5 3b 07 ca c9 3c 90 e8 bb 3c 38 4c 93 bc
       0.0070050173 0.024632467 0.022938043 -0.01798068
000320 5d 74 9d 3a b0 af 77 bc 3b 8b 00 3c 17 9e 46 3b
       0.0012012828 -0.015117571 0.007845695 0.0030306631
000330 51 8c 72 bb 4d d4 69 ba 25 c9 92 bb c9 57 5d bc
       -0.0037009905 -0.000891988 -0.0044795447 -0.013509699
000340 57 8d 8d 38 39 82 b0 bb dd c2 d5 3a 76 c5 2c 3c
       6.7497305e-05 -0.0053866175 0.0016308684 0.010545125
000350 a2 b7 f3 b9 b9 a2 91 bc 86 54 3a 3c c8 ea 86 bb
       -0.0004648539 -0.017777788 0.011372691 -0.0041173436
000360 07 83 1f bb 46 7e b6 bb 40 3d 8d ba 65 46 0a 3a
       -0.0024339573 -0.005569252 -0.00107757 0.0005274772
000370 f6 b3 13 3a 15 73 e2 3a 5a 35 de ba a4 c4 59 3b
       0.0005634421 0.0017276729 -0.0016953156 0.003322878
000380 70 db c6 b8 de 01 93 3a a2 2d 2e b9 18 20 13 ba
       -9.482249e-05 0.0011215766 -0.00016610933 -0.00056123873
000390 b9 e9 10 bc ff 48 d9 38 de a2 e1 3a 85 ab 3d ba
       -0.008844786 0.00010360963 0.0017214676 -0.0007235336
0003a0 59 ed 7d 3a de a2 4b 39 72 cc 06 bb f6 53 b7 bb
       0.00096865516 0.00019420261 -0.0020568636 -0.0055947257
0003b0 5a 72 fc 3a 7e 09 ba 39 b1 32 50 bb ee e0 cb b8
       0.0019260154 0.00035483757 -0.0031768496 -9.721691e-05
0003c0 e2 91 00 bc db 08 01 bc 56 e0 6a bb 3a e8 9d ba
       -0.007847281 -0.007875646 -0.003583928 -0.0012047358
0003d0 5e 40 a4 3a 3b b7 24 bb 0b 5f e6 39 48 5c 67 ba
       0.001253139 -0.0025133628 0.0004393983 -0.00088257017
0003e0 40 19 6b ba ec 01 50 bb 78 7d bf ba f9 ae 4e 3a
       -0.0008968301 -0.0031739427 -0.0014609536 0.00078843493
0003f0 98 73 de bb 11 a1 03 3c ad e2 27 3b a9 31 d8 3a
       -0.006788682 0.008034007 0.0025617287 0.0016494292

fc1.bias f4 [120]
000000 95 9e 0b bb 59 73 c5 b8 73 d3 ff 3b a2 d4 4d b9
       -0.002130424 -9.415177e-05 0.007807189 -0.00019629535
000010 44 62 53 3c 82 0e 3b 3b 00 60 31 3b 5a c0 fd 3c
       0.012901846 0.0028542583 0.0027065277 0.03097551
000020 58 aa da 3b f7 89 10 3c 48 31 79 3c 6e 4d 2b 3b
       0.0066731386 0.008821956 0.0152095035 0.002613868
000030 0c f2 b7 bb ba b9 c2 3a dd 0d 0d 3d 7c 9e 38 3b
       -0.005613571 0.0014856376 0.03443705 0.0028170636
000040 71 80 8b 3c d3 9e b4 3a 7c 81 29 bb 4e 09 84 3c
       0.01702902 0.0013780243 -0.0025864532 0.016117718
000050 c5 57 03 3b f8 74 9a 3b 7b fd ec 3b b4 4d 31 3a
       0.0020041328 0.004713651 0.0072323657 0.0006763593
000060 10 ce 87 bb 5a 88 56 3a cd 1f 17 3c 0d bf df bb
       -0.0041444376 0.000818377 0.0092238905 -0.006828195
000070 de a8 ca ba 43 53 30 3b 24 c7 96 3b 32 a3 80 bb
       -0.0015461703 0.0026905097 0.004601376 -0.0039257044
000080 f4 bc 96 b7 b7 8d 06 39 c1 0d 8a 3c 84 78 52 3a
       -1.7969382e-05 0.00012832029 0.016852261 0.00080288225
000090 1d de be ba f8 6e 9d 3b 7e 39 85 3b ee a2 89 3b
       -0.0014562045 0.0048044883 0.0040656915 0.004200331
0000a0 39 ca b2 3b 3f d4 91 ba 02 c5 33 3b c7 f3 41 3c
       0.0054562357 -0.0011125876 0.0027430658 0.011837906
0000b0 0e 4c b5 ba e1 e4 22 3b 14 78 dc 39 ec 52 c6 ba
       -0.001383187 0.002485566 0.00042051135 -0.0015130914
0000c0 af 42 81 bb 63 06 90 3a 6e bb 28 3a b3 13 44 3a
       -0.003944717 0.0010988232 0.00064366206 0.0007479742
0000d0 bd e7 f5 3a e6 80 03 3d 9b 52 30 b9 cb bd 05 3c
       0.001876108 0.03210535 -0.00016815441 0.008162926
0000e0 91 11 64 3b e3 3a 2e 3c 66 83 50 ba 3c ca 17 3c
       0.003480051 0.010634157 -0.000795415 0.009264525
0000f0 af 30 3c 3b a1 d6 cb bb f3 02 2c bb 3f 60 fc b9
       0.002871554 -0.006220654 -0.0026246875 -0.00048136894
000100 ab e8 10 3b 7c 75 96 ba 4a 57 14 3b d4 aa 87 3c
       0.0022111337 -0.0011479105 0.0022635036 0.01656095
000110 4c 8b 20 ba 35 0a 48 ba 79 d4 3e 3c 95 f8 48 bb
       -0.00061242725 -0.00076309155 0.011647337 -0.0030665745
000120 0e c7 a1 3c 8b 2c 36 3c 05 81 ea 3a 15 7f 8f ba
       0.019748237 0.011119018 0.0017891234 -0.0010947908
000130 48 4c 91 b9 d3 e3 a5 bb de 9c e2 3a 96 6a 10 ba
       -0.0002771339 -0.005062559 0.0017289182 -0.00055090466
000140 42 5d 8f 3c 90 54 03 3b db 3a 1a bb d7 b9 fd 3b
       0.017500523 0.0020039417 -0.0023533616 0.007743101
000150 e9 93 ae ba 00 f3 75 3b 78 28 99 3b 68 a2 85 3c
       -0.0013319227 0.0037528872 0.0046740137 0.016312793
000160 46 bc 84 3b ff e7 a2 3a a0 12 f2 ba b4 01 1d 3c
       0.0040507643 0.0012428759 -0.0018468685 0.009582926
000170 2b 60 1b b8 f5 37 b1 3a 25 f2 0a 3b 7a c7 fa 3b
       -3.7044443e-05 0.0013520705 0.0021201458 0.007653174
000180 15 e5 33 bb cd 3b bd 39 d2 50 a3 3b 6a 6b bd 3b
       -0.0027449776 0.00036093444 0.0049839998 0.005780627
000190 14 56 ac ba 18 a8 61 3a 9a 10 50 bb 84 1b c9 bb
       -0.0013148212 0.0008608117 -0.0031748177 -0.0061373133
0001a0 ce 63 9a 39 2a 00 ed 39 04 ce 8b ba 2a 44 03 3a
       0.0002944753 0.00045204285 -0.0010666256 0.00050074107
0001b0 a1 7b 26 bb d9 0d 11 3b 86 0a 7d 3b 40 3d 87 bb
       -0.0025403278 0.0022133498 0.0038611009 -0.0041271746
0001c0 4a 88 30 3c e4 3d 94 3b 29 aa 0b 3c 48 4c 97 3b
       0.010774681 0.0045239795 0.008524456 0.0046172477
0001d0 70 e4 5a 3c df 3a 0d 39 0e e1 a1 3b 68 04 b4 3a
       0.013360128 0.00013468739 0.0049401587 0.0013734223

fc2.weight f4 [80, 120]
000000 f3 9e 1f 3c ab 61 00 3d fc 7e 2c 3c d6 e0 68 3c
       0.009742486 0.031343143 0.010528322 0.014213761
000010 36 25 44 3c 2c d9 1b 3d 6a 20 7c 3b 70 15 47 3d
       0.011971762 0.038048908 0.0038471469 0.04860443
000020 c0 70 7f 3d 21 19 af 3c 0a 2e 03 3b 97 e0 84 3c
       0.062363386 0.021374287 0.0020016455 0.016220374
000030 eb 09 6d bb b4 46 28 3b d3 1c d2 3c 1e f8 da 3b
       -0.0036169242 0.0025676908 0.02564851 0.00668241
000040 cd 99 92 3d 99 de 2b bc 72 ad ca 3c 81 f3 28 3d
       0.071582414 -0.010490083 0.024740908 0.04124785
000050 fb 3b 1b bc 50 c1 a6 3c 11 bd 63 3d d7 5a fe 3a
       -0.00947475 0.02035585 0.05560023 0.0019405734
000060 ca ed ca bb 50 eb 10 bd 5d 5f 96 bc 55 09 40 3d
       -0.0061928974 -0.03538066 -0.01835602 0.0468839
000070 74 fb 7a 3a b0 76 cf 3c 40 70 67 3c 45 a8 e7 3c
       0.00095742126 0.02532515 0.014125884 0.02827848
000080 2e 32 aa bb bf b3 3b 3d 61 e3 ba 3c f5 65 c2 3c
       -0.00519397 0.045825716 0.0228135 0.023730258
000090 a2 4e ab bb 0c 5d 4d 3d 3d 37 20 3d 44 ad 0b 3d
       -0.0052278796 0.050137565 0.03911518 0.034100786
0000a0 6a 81 dc bc aa 06 d3 3c 5f 9d b6 bc 0c b2 8a bc
       -0.026917178 0.025760014 -0.022291837 -0.016930602
0000b0 25 21 a8 3d 09 ea 06 3d 17 c1 23 3d 2c 89 89 3c
       0.08209447 0.032938037 0.039979067 0.016789041
0000c0 68 3c fd bc 83 bd 34 3d 50 9d 2a bd e6 8b a5 3c
       -0.030912593 0.044126045 -0.04165393 0.02020831
0000d0 72 da 99 3b 82 2d 38 3d 4f 98 05 3d 85 89 b9 3c
       0.00469523 0.044965275 0.032615956 0.022648582
0000e0 13 5e 09 3d 40 bb cf bc 1b e5 44 bd 63 8c 72 3c
       0.03353698 -0.025357842 -0.048070055 0.014803979
0000f0 ba b7 eb bc 90 b4 46 bd 61 c4 95 bb cc fe 9b bc
       -0.028774131 -0.04851204 -0.0045705293 -0.019042395
000100 45 87 22 bb 8d 2e b1 3c 4d 7a 4e 3c 6c ac 58 bc
       -0.0024799865 0.021628642 0.012602401 -0.013224702
000110 5b 28 9e bb 97 22 b4 bc b0 61 85 3d f1 31 21 3c
       -0.004826588 -0.02198915 0.06512773 0.009838567
000120 7d 5a 05 3d 54 4c 07 bd c3 5a ba 3a 88 e2 36 bc
       0.032557 -0.033031777 0.0014217723 -0.011162408
000130 8c 3b 69 3c 5f 6d 75 bd bf a1 01 3d 9f e6 e4 3a
       0.0142353885 -0.059918758 0.031648394 0.001746375
000140 3a dc 63 bc 6b 00 41 bc ae 6a d3 3c f3 c3 6f bc
       -0.013907487 -0.011779885 0.025807705 -0.01463412
000150 03 b2 00 bc 85 65 fd bc 64 9d bb bc 6e 73 d4 3c
       -0.007854941 -0.030932197 -0.022902198 0.025933947
000160 31 fb cb bb a9 a0 66 bc 98 8e 8e 3c 66 58 12 3c
       -0.0062250127 -0.01407639 0.017401978 0.008932209
000170 30 a2 db bc cf 69 85 ba 1d 93 c9 3c be eb 89 39
       -0.026810735 -0.0010178628 0.024606282 0.00026306318
000180 8d 37 9c bc e4 93 76 3c c0 45 3d bc 21 9f 4c bc
       -0.019069457 0.015049908 -0.011552274 -0.012489111
000190 0f c0 36 bd 41 cc 21 bd 1e eb 86 3c 81 c5 13 bd
       -0.044616755 -0.039501432 0.016469534 -0.036077026
0001a0 ba f2 fd 3c 76 21 d9 3b 74 22 8a 3c db 45 5f ba
       0.03099953 0.0066263033 0.016862132 -0.0008517184
0001b0 c4 db af bc b4 57 67 3d 96 2e 9b 3c 10 5d a7 bc
       -0.021467097 0.056480125 0.018943112 -0.020430118
0001c0 71 b4 a6 bd e5 58 2a 3c 5e f5 55 bb 03 c0 2c 3d
       -0.08139885 0.010397171 -0.003264747 0.042175304
0001d0 ad e2 a0 bb f0 ea d4 bb 81 46 7c 3c b4 fd 6f 3c
       -0.0049098344 -0.0064977333 0.015397669 0.01464789
0001e0 b3 0e 52 bc 94 74 38 bd 66 8e a1 3b 6c fe 8b 39
       -0.012820887 -0.045033053 0.0049303053 0.00026701705
0001f0 53 cf 2e bb 2c 2e 86 3c e0 c6 2e bc 46 dd 5b 3c
       -0.0026673868 0.016379438 -0.010667533 0.013419455
000200 f7 fe 2b bd 81 75 88 bc 2f 1d d8 3c b1 b6 a2 bc
       -0.0419912 -0.016657593 0.026381103 -0.019862505
000210 66 4e 69 3a c7 22 2b 3c 59 87 2d bd 4c f5 b5 bc
       0.0008899927 0.010445303 -0.042365406 -0.022211693
000220 a5 a1 7c 3d 7e 87 18 3c 77 e5 53 3c d9 bc b9 bc
       0.061677594 0.009309648 0.012933127 -0.022673057
000230 19 b7 ec bb 5d fa 00 3c 71 07 68 bd b0 de 12 3d
       -0.0072239754 0.007872191 -0.05664772 0.035856903
000240 4c a5 ef 3c 18 12 2e bc d7 dd b0 3c 05 41 7a bc
       0.029253624 -0.010624431 0.021590156 -0.015274291
000250 e0 16 f8 3a e1 08 bb 39 c0 59 a5 bc e6 c3 c4 3c
       0.0018927716 0.00035674035 -0.020184398 0.024019193
000260 bd d6 1c bc 87 50 8c 3c 75 29 0c 3d cc 53 1c 3d
       -0.009572682 0.017128242 0.034219224 0.038165852
000270 1e 71 8b bc ed 0a 1f bc 7b f4 b1 3d e5 1c 3f bc
       -0.017021712 -0.009707195 0.08689209 -0.011664604
000280 f0 17 72 3d f3 59 b6 3c 6f 2c 1a bd d6 86 0f bd
       0.05910486 0.022259688 -0.03764003 -0.0350407
000290 8f 21 9e bc 81 1c 06 3d 73 b0 31 3d e6 b3 1e bd
       -0.019303111 0.032742027 0.043381166 -0.038745783
0002a0 c7 6b f8 bc 9b b7 a0 3d 1b fb b2 3c cd d9 1c bd
       -0.03032483 0.0784752 0.021848252 -0.03829365
0002b0 f9 41 13 3c 9b 71 5d bd 13 1d a6 bc 06 07 85 bc
       0.008987897 -0.05406342 -0.020277536 -0.0162387
0002c0 9b e7 cb bc ea 0b 25 3d c2 a4 16 3d 3a 8d 15 3d
       -0.024890712 0.040294565 0.03677822 0.036511637
0002d0 88 02 8a 3c e1 97 48 3d cc fb 8f bb 19 29 10 bc
       0.01684691 0.048972968 -0.00439403 -0.008798861
0002e0 12 2b 6a 3c 84 87 3d 3d db 1a db 3c 1b 03 82 bd
       0.014292495 0.046271816 0.026746204 -0.063482486
0002f0 99 08 cf bb 13 60 a6 bb cc 77 9c 3c a0 cd 97 bc
       -0.0063181636 -0.005077371 0.019100092 -0.018530667
000300 5b 24 2e bc a5 3e 1b bd 51 0a 2a 3c 80 e0 cf 3c
       -0.010628785 -0.03790154 0.010378436 0.025375605
000310 e7 f3 30 3c f8 fc 82 3d b9 a3 16 3d d2 73 28 bc
       0.010800338 0.06395906 0.03677723 -0.01028152
000320 13 13 b0 3d 1d 57 bc 3c 21 07 02 3b 79 e5 06 3c
       0.08597388 0.022990758 0.0019840675 0.0082334215
000330 24 4f 45 3c e5 8a 17 bd 5e 01 0f 3d 48 7c d4 3d
       0.012042794 -0.036997695 0.034913413 0.10375267
000340 70 94 49 bd 26 f7 52 3c af d2 cc 3b c5 95 3e bd
       -0.049213827 0.012876308 0.0062507014 -0.04652955
000350 b7 fb 09 bb c3 3d 33 3c 15 72 ce bc 2b 66 89 3a
       -0.0021054575 0.010940018 -0.025200883 0.0010482719
000360 da 9c 5d bc c0 94 93 bb 04 74 34 3c a9 1a 7f 3d
       -0.013526166 -0.0045038164 0.011013988 0.062281284
000370 47 dd da 3c 28 4b 1c 3a 19 72 1a bb 7c a4 e2 3c
       0.026716841 0.0005962127 -0.0023566543 0.027666323
000380 16 65 bf bb 2d 9a e4 3c 0a b3 83 bc 47 06 43 3a
       -0.005840908 0.027905548 -0.016076583 0.0007439595
000390 e1 24 99 bb 8d 2d 1c bd 65 3b 65 3d 13 a8 c1 3c
       -0.0046735858 -0.038129378 0.055964846 0.023639714
0003a0 06 a6 f0 3c 53 81 b9 3b 67 08 1d bd a0 84 9f 3c
       0.029376041 0.0056611686 -0.03833809 0.01947242
0003b0 34 11 58 3d 58 5a 68 bc 5a fd e0 bc c4 c5 f6 b9
       0.05275078 -0.014181696 -0.027464557 -0.00047068123
0003c0 95 5d b0 bc 86 00 88 bc b7 f7 bf bc a2 88 85 ba
       -0.021528998 -0.016601812 -0.02343355 -0.0010187814
0003d0 93 8c 1c 3d ba 17 95 bc 15 d8 46 bc eb 4f 1b 3d
       0.03822 -0.01819979 -0.012136479 0.037918013
0003e0 b7 ef 8b bd bb b1 d0 3a 12 5e 3d 3d 67 7b 52 bc
       -0.06832831 0.0015922108 0.04623229 -0.012846804
0003f0 8b 3a 02 3c 83 4e 9f ba 50 03 81 3d 42 1a 36 bc
       0.007948528 -0.0012154136 0.0629946 -0.011114659

fc2.bias f4 [80]
000000 2e fe 93 3c 78 5b dc 3a 79 25 fc 3c a3 a1 0e 3c
       0.018065538 0.0016811928 0.030779587 0.008705529
000010 a9 63 75 bb 3c e0 c6 3c 50 69 a0 bb af ac 21 3c
       -0.0037443435 0.024276845 -0.0048953667 0.009867831
000020 89 01 2a 3a 71 fb 23 3b 20 98 23 3c dd ee 6f 3b
       0.0006485214 0.0025021697 0.009985 0.003661088
000030 6e ca db bb f1 03 bf 3c 8e 4d 9b 3b 0d be f1 bb
       -0.006707481 0.02331731 0.00473947 -0.007377392
000040 4c f6 d8 3c 58 f0 a0 bb ad c0 4e bb 8a 8e 28 3c
       0.026484631 -0.0049114637 -0.003154795 0.01028789
000050 6a ad 01 3c b1 b1 23 bc d0 e5 1c bc c7 a4 b4 3a
       0.00791488 -0.009991095 -0.009576276 0.0013782018
000060 8b 88 66 3c 7f df 23 3c f5 2b aa bb 89 ab 87 3c
       0.01407064 0.010002016 -0.0051932284 0.016561287
000070 0d a7 11 bb 94 57 dc ba 4b f6 a0 3c 51 11 6d 3c
       -0.0022224814 -0.0016810768 0.019648692 0.014469461
000080 ac 0b a0 3c b1 6d 57 3a 79 1b 54 bc 82 89 a4 3c
       0.019536816 0.00082179444 -0.012946003 0.0200851
000090 88 1a ea bb 2c ca 13 3c fe 74 23 3a 95 dc 57 3a
       -0.007144276 0.0090203695 0.000623539 0.00082344684
0000a0 95 bf 86 3b 63 43 b9 3c ae 97 36 3b 45 f7 d5 3b
       0.004112194 0.02261514 0.0027861404 0.006529721
0000b0 38 f4 a2 ba 1d ac a5 3a 74 ae 37 3c 59 3b 2f 3c
       -0.0012432402 0.0012639795 0.011211026 0.010695302
0000c0 9a 89 e5 3b 45 4a 3e bc 78 69 c5 3c 9e 33 03 bc
       0.007004929 -0.011614387 0.024098143 -0.008007912
0000d0 54 71 df ba c7 ac 41 3c 71 63 1b 3c e5 6a b6 3c
       -0.0017047324 0.0118209785 0.009484158 0.022267768
0000e0 71 69 05 bc 86 a3 3d 3b 64 72 f6 bb a3 93 ec 3c
       -0.008142815 0.002893658 -0.0075209606 0.028878992
0000f0 96 ff 8e 3b 64 7e b7 3b 0c 7f 76 bb d2 a9 ca bb
       0.0043639643 0.0055997837 -0.0037612347 -0.006184795
000100 92 e1 5e 3c 56 73 1f bb 8b f6 bf 3a 68 00 9e bb
       0.013603585 -0.002433022 0.0014645619 -0.004821826
000110 1d e1 39 39 bc ff 1f 3c 4a 56 03 3d c1 0e 75 3b
       0.00017726836 0.009765562 0.032064714 0.0037392827
000120 2e 31 c6 3b 1e c0 85 bb aa 77 18 3d a0 9d 2c bc
       0.006048343 -0.00408174 0.037223496 -0.010535628
000130 d4 85 82 bb 82 1a c1 3c 67 d9 3f bb ac b8 e6 3b
       -0.0039832387 0.02357221 -0.002927387 0.0070410576

fc3.weight f4 [38, 80]
000000 ca ee 5e bd a2 d1 8c bc bb ef 80 3d 38 d9 25 bb
       -0.054426946 -0.017189804 0.06295725 -0.0025306474
000010 20 0b b2 bc 6d 9e e8 3b e7 e0 9e 3d 2b 33 33 3d
       -0.02173382 0.007098964 0.077577405 0.04374997
000020 86 df b9 3d 20 ef ae 3d 87 92 76 3d 02 cb 10 3e
       0.09075837 0.08541703 0.060198333 0.14139941
000030 a9 3d b8 3c d5 0e ec 3d ad 8a c8 bb d1 3b 31 3d
       0.02249034 0.115262665 -0.006120047 0.043269936
000040 93 10 bf bc a4 08 89 3c 96 94 c3 3d dc dd 18 bd
       -0.023323333 0.016727753 0.09549825 -0.037320957
000050 15 f9 4e 3d b0 b3 14 3c 7b 2b c3 bc 2e 0b 92 3b
       0.050530512 0.009076044 -0.023824444 0.004456899
000060 d1 bf 26 bd ae d9 6b 3d bb 3c 15 bc 70 2a 2e bd
       -0.040710274 0.057580642 -0.009108718 -0.04252094
000070 81 77 fc ba b3 18 60 bd a1 a7 21 bd 15 6a 26 bd
       -0.0019261689 -0.054711055 -0.039466504 -0.04062851
000080 de e9 3a bd 07 ef 8c 3d 96 6e a6 3d a0 e4 4e bc
       -0.04563319 0.06881528 0.08126561 -0.012627751
000090 48 c5 1f 3d 62 ed 1c bd ef 24 63 3d a8 45 67 3d
       0.0390065 -0.038312323 0.055455144 0.056462914
0000a0 30 da f2 3d 4c c1 9b bc 44 1c 1b bd 22 8e 07 bd
       0.11858022 -0.01901307 -0.037868753 -0.033094533
0000b0 60 2a 3e 3d 3a 23 dc 3c 94 29 d9 bc b3 ef eb 3d
       0.04642713 0.026872266 -0.026509084 0.115203284
0000c0 7a 87 4b bc 2d 61 e5 3c fa 24 bb 3c ce f4 d5 3c
       -0.012422437 0.028000439 0.02284478 0.026117709
0000d0 b4 62 b6 bc 62 90 ba 3d ab d4 65 bb a8 b5 21 3d
       -0.022263862 0.0910957 -0.0035069387 0.03947988
0000e0 b7 b1 71 3d c2 13 c1 3d 17 8c 03 3e bf e2 0b 3c
       0.059007373 0.09427597 0.12846409 0.008537947
0000f0 a1 6f 82 bc 3e 73 0a bd 48 14 0a 3e 35 e2 8f 3d
       -0.01592237 -0.03380131 0.13484299 0.070255674
000100 a9 01 21 bd 33 7f 64 bc 2e 98 75 3d 65 ff 62 bc
       -0.039308224 -0.013946342 0.059959583 -0.013854836
000110 68 b6 a2 3d 68 46 0d bd 7e c4 3e bd 38 b6 5a 3a
       0.079449475 -0.034490973 -0.04657411 0.0008343193
000120 12 8f 8b 3d 2d af b3 3d ca 8c ba bb 25 92 ef bc
       0.06814398 0.087736465 -0.005693053 -0.029244492
000130 ed c6 a5 3d 45 c4 06 3e 13 0c 83 bb 00 35 8a 3c
       0.08094583 0.13160808 -0.003999242 0.016870975
000140 3f 1d 94 bd bd 18 45 bd c8 69 3c 3e 65 19 3e bd
       -0.07232141 -0.048119295 0.18399727 -0.046410937
000150 fd 4c 50 bd cf a5 00 3e 77 b7 ae bc 6d 48 e1 bc
       -0.05085467 0.12563251 -0.021327717 -0.027500356
000160 cc 90 69 bb 31 bf 0a bd 0e e4 67 3d ed 75 af 3d
       -0.0035639284 -0.03387374 0.056613974 0.085674144
000170 bd 9c 7a bd f9 ab 5d 3d 06 d0 b3 bc 07 89 8b bd
       -0.061184634 0.054119084 -0.02194978 -0.06813245
000180 9e 07 0e 3e c9 16 45 bd 36 1a 80 bd 5d b0 5e bd
       0.13870093 -0.048117433 -0.06254999 -0.054367412
000190 0b cf 90 bd b2 13 8c 3c a8 7f 63 bd 5f 11 a7 3b
       -0.0707074 0.017099235 -0.055541664 0.0050985063
0001a0 96 f2 02 3e 77 87 85 3d 46 0a d4 bc d7 ae 21 bd
       0.12787852 0.065199785 -0.025883805 -0.03947338
0001b0 e2 7d 3f bd 64 53 3d 3d 6b 9f e5 3d 42 85 db bc
       -0.04675091 0.046222106 0.11212047 -0.02679694
0001c0 a4 e6 e5 3d 94 5b 94 3d 7f 58 69 bd 5d 43 cd 3d
       0.11225632 0.0724403 -0.056969162 0.10022614
0001d0 ee f8 38 bd a6 10 5d 3c 27 4f a8 bd 2a b5 59 bd
       -0.045159273 0.013492739 -0.08218222 -0.053151287
0001e0 5a ad 80 bd 1f 6a 2f 3d 14 b5 4f bd a7 5e 3d bd
       -0.06283064 0.042825814 -0.0507098 -0.046232846
0001f0 a4 10 90 3d 87 ba 76 3d e2 cf f6 3d c5 d5 ed 3d
       0.07034424 0.06023648 0.12051369 0.11613039
000200 e2 d1 d0 bc 02 2e 01 bd 5f 24 9c 3d 82 08 56 bd
       -0.025490705 -0.031538017 0.07624125 -0.052254207
000210 50 6f 2a bd f2 b5 dd 3d 8d 0f 27 bd cf 5e ea 3d
       -0.041610062 0.10825719 -0.040786315 0.114438646
000220 8b a3 58 3b d4 0c cd bc 5e 7b d3 bc e0 1a 39 3e
       0.0033056464 -0.025030531 -0.025815662 0.18076658
000230 22 35 d2 bb db 05 ca bc 16 17 00 3d b3 3b 49 bc
       -0.0064150253 -0.024660995 0.031272016 -0.0122823
000240 b2 a8 b3 3d d9 a0 16 bd de 45 12 bd 0b d9 43 bd
       0.087724105 -0.03677449 -0.03571116 -0.04781441
000250 d5 e3 e4 bc 9f ac 84 3d 4e c2 a0 3d be a3 b8 bc
       -0.02794067 0.06478237 0.07849561 -0.022539016
000260 80 7d ae bc a2 6d 34 bd 53 c4 6f 3e 22 6f b0 bd
       -0.021300077 -0.044049866 0.23414735 -0.08614947
000270 dc c9 d7 bc a0 bf 07 3e 5d 96 92 bd 16 d6 c6 bc
       -0.026341371 0.13256693 -0.07157586 -0.024272006
000280 21 5b a5 3a 15 76 27 bb cc 00 87 3a a1 85 a4 bb
       0.001261566 -0.002555256 0.001029992 -0.0050208126
000290 64 8b 4f 3b 23 3b 03 ba 28 26 23 3b e3 a0 91 bb
       0.0031668777 -0.00050060655 0.002489457 -0.004444228
0002a0 cc 01 70 3b f9 03 b1 3a 42 f6 e2 bb 63 6a 7f 3b
       0.0036622165 0.0013505212 -0.006926329 0.0038973324
0002b0 e0 eb 53 bb 86 98 76 bb eb 4b 16 bb e0 bd ef b9
       -0.0032336637 -0.0037627532 -0.0022933434 -0.000457271
0002c0 8b 14 05 bc ed 31 c6 ba fb b3 10 bb a6 14 31 bb
       -0.008122574 -0.001512108 -0.0022079933 -0.0027020364
0002d0 1e fd 3b bb 5d 40 a7 bb af 1a 34 3b 70 93 ae ba
       -0.0028684805 -0.0051041082 0.0027481725 -0.0013319086
0002e0 76 af a2 39 a5 9e 28 3a 15 95 28 bb c9 07 83 b9
       0.00031029776 0.0006432331 -0.0025723625 -0.00024992067
0002f0 b0 d6 76 3b 3a 76 23 3b cb 31 0e bc 3c 6b 9b 3a
       0.0037664585 0.0024942295 -0.008678864 0.001185752
000300 7e b8 4c bb b5 91 64 3b 67 fe d5 bb f2 4f 27 bb
       -0.0031237896 0.0034876887 -0.0065305713 -0.002552983
000310 5c 24 85 bb bb a6 d1 bb bf 0a b6 3b a2 ef ad 3b
       -0.0040631723 -0.0063980496 0.0055554803 0.0053081075
000320 a6 4a d3 3a ed b6 d3 ba 3c c9 94 3b b1 31 52 bb
       0.001612027 -0.0016152539 0.0045405906 -0.0032073075
000330 c3 6f b8 3a af 0c c0 bb 9e 11 a7 bb 67 e3 a7 3a
       0.0014071394 -0.005860887 -0.0050985357 0.001280886
000340 7e 5a e8 bb 74 5d a3 bb 16 cc 85 3b cb 0d 83 3b
       -0.0070908656 -0.0049855057 0.004083167 0.003999447
000350 64 0c 59 bb 3a c2 9a 3b 09 6e e5 ba 2b 59 9c bb
       -0.0033118958 0.0047228606 -0.0017504107 -0.004771372
000360 c1 07 2a ba dd a7 d4 bb ed 60 ce 3b ef 8d c7 bb
       -0.0006486141 -0.0064897374 0.0062981755 -0.006089918
000370 ff f7 13 ba 2f 8b 84 3b cb 55 2f bb 17 d8 c7 bb
       -0.0005644559 0.0040449123 -0.0026754017 -0.006098758
000380 11 53 0c bc 38 4a c9 3b 7c 61 bf 3b ec 22 26 3b
       -0.008564726 0.006142881 0.0058404785 0.0025350405
000390 24 62 9a bb af bd b0 bb 04 42 04 bc de b4 b2 bb
       -0.0047114063 -0.005393706 -0.00807238 -0.00545369
0003a0 d6 ab 9b bb 75 2e 7f bb 31 64 90 ba 9d 7b 90 bb
       -0.004750709 -0.0038937603 -0.0011016187 -0.004409267
0003b0 35 2d 3a bb 9a 3d 63 b9 24 f5 2e bb 14 cf a7 3b
       -0.0028408293 -0.00021671355 -0.0026696408 0.005121121
0003c0 5f fb e9 3d 7c 3b 9f 3d 6c 4d 4c bb 38 41 48 bd
       0.11424898 0.077750176 -0.0031174077 -0.048890322
0003d0 e0 3d 9d bb c4 69 20 bd 9d a1 d0 3d 4e db 00 3e
       -0.004798636 -0.039163366 0.10187075 0.12583658
0003e0 9c 97 c0 bc 98 01 05 bd 31 44 49 bd 18 71 95 3c
       -0.023509793 -0.032472223 -0.049137298 0.018242404
0003f0 e4 a7 3c bd 33 3c dd bc 66 5c cc bc 0e 9d 99 bc
       -0.04605855 -0.027006244 -0.024946403 -0.018751647

fc3.bias f4 [38]
000000 19 bc fd bb cb 5b 16 3e c5 6d c8 bb 83 d7 89 bb
       -0.0077433703 0.14683454 -0.006116601 -0.004206599
000010 be 8e e6 bc 32 93 6c bc 69 d2 87 bb fb 0b 0c bc
       -0.028144237 -0.014439391 -0.004144956 -0.008547778
000020 9e 6e 59 bc 68 3a e3 bb 9f 65 c2 bc 30 34 a4 bc
       -0.013271002 -0.006934453 -0.023730097 -0.020044416
000030 5d 7b 4a 3d 14 12 b0 bc ec 96 a3 bb 27 d7 8f bc
       0.049434055 -0.021492995 -0.0049923565 -0.017558647
000040 c5 fd 92 bc 7e 03 d6 bb cd 43 c3 bb 2d 38 9d bc
       -0.017943272 -0.006531178 -0.00595901 -0.019191826
000050 74 e0 de bc e1 88 05 3c 57 32 d8 bc d8 72 d5 3c
       -0.027206637 0.00815031 -0.026391191 0.026055738
000060 96 f8 ab bc 21 63 16 bc 60 96 06 bc f3 a6 86 bb
       -0.020992558 -0.009178908 -0.008214563 -0.0041092574
000070 52 98 b5 bb 25 d2 17 3b d3 09 f4 3d 7b 29 17 bb
       -0.0055418396 0.0023166027 0.11915936 -0.0023065496
000080 34 6d b5 3c d2 20 66 3d 1c b5 a0 3c 92 20 dd 3b
       0.022146799 0.056183644 0.01961761 0.0067482674
000090 f3 94 e9 3c 4b a9 39 3d
       0.028513407 0.045327466
