outfiles/cnn/Ya32_10Train_cnn.pth (torch, 334015 bytes, 10 tensors)

conv_layer1.weight f4 [8, 1, 5, 5]
0	0xbde8f050	-0.11373961
1	0xbe0e1ae8	-0.13877451
2	0xbe0ce70c	-0.13760012
3	0xbd97d1fd	-0.07413099
4	0x3d81bbd3	0.06334653
5	0xbb81d2fa	-0.003961918
6	0xbde8c9ad	-0.113665916
7	0xbe2b0aab	-0.16703288
8	0xbdb78243	-0.08960392
9	0x3cb6ad7d	0.022299523
10	0x3c9e9513	0.019358194
11	0x3cd3e4bd	0.025865907
12	0xbda267d2	-0.079299584
13	0x3d33959f	0.04384386
14	0x3dadbcfa	0.0848331
15	0x3d907d1f	0.07055115
16	0x3dc2a366	0.09503822
17	0x3c5e36c8	0.013562866
18	0x3d206bc9	0.039165292
19	0x3e0404cf	0.1289246
20	0x3e58bb16	0.21165118
21	0x3e32af10	0.17449594
22	0x3e2a5b6e	0.1663644
23	0x3e3319d9	0.17490329
24	0x3dba5899	0.0909893
25	0x3c862c7a	0.01637863
26	0xbb296c65	-0.0025851962
27	0x3db05542	0.08610012
28	0x3d2c096d	0.042001177
29	0x3c60fcb7	0.013732127
30	0x3a9c0869	0.0011904362
31	0xbc13c619	-0.009019398
32	0xbd60ad48	-0.054852754
33	0xbdcbaf63	-0.09945562
34	0x3c12dcd4	0.008963782
35	0x3c7cd604	0.015431885
36	0xbdb21f3f	-0.08697366
37	0xbe0ec607	-0.13942729
38	0xbe0fde22	-0.1404958
39	0x3cc41d03	0.023939615
40	0x3dfa7f1f	0.12231278
41	0xbd84e6c7	-0.0648933
42	0xbde3d866	-0.11125259
43	0xbd857299	-0.065159984
44	0xbc6c2353	-0.014412719
45	0x3e0cd53e	0.1375322
46	0x3d878d5b	0.06618758
47	0x3dfcef0b	0.12350281
48	0x3dceaeee	0.10091959
49	0x3cece872	0.028919432
50	0x3d108815	0.035286028
51	0xbd8413a8	-0.06449062
52	0xbd20e6a7	-0.039282467
53	0xbd5f3782	-0.054496296
54	0xbcfc17a7	-0.030772997
55	0xb9cd1e51	-0.00039123234
56	0x3dbf3469	0.09336168
57	0xbbded9db	-0.0068008727
58	0x3c9d87e8	0.019229844
59	0x3d6d1bca	0.05788783
60	0x3cf94cd6	0.030432146
61	0x3e2384f3	0.15968685
62	0x3dd7b510	0.10532582
63	0x3c4ab5e7	0.01237247
64	0x3d6e1b20	0.058131337
65	0xbcb935dd	-0.022608692
66	0xbd98cedd	-0.07461331
67	0xbdac1e13	-0.08404174
68	0xbd02d627	-0.031942513
69	0xbccf7a80	-0.025326967
70	0xbdafe838	-0.08589214
71	0xbdb30059	-0.08740301
72	0xbd9b3b97	-0.07579725
73	0xbc2eeb98	-0.010676287
74	0xbd00570f	-0.031333026
75	0x3e0197e9	0.12655605
76	0x3eccda86	0.4001047
77	0x3ea06cb8	0.31332946
78	0x3e9f36fa	0.3109663
79	0xbd8b0a57	-0.067890815
80	0x3d4fb605	0.050710697
81	0x3e0f8458	0.14015329
82	0x3e2e93f6	0.1704863
83	0x3e1421d0	0.14466023
84	0xbe22aea8	-0.15886939
85	0xbdbfb172	-0.09360017
86	0x3c129379	0.008946293
87	0x3d5c7243	0.053819906
88	0xbd61689e	-0.05503141
89	0xbdc05401	-0.093910225
90	0xbe376c5d	-0.17912431
91	0xbe3ba03e	-0.18322846
92	0xbdd9e1e7	-0.106387906
93	0xbd0a45a3	-0.033757817
94	0xbcc1fcf5	-0.02368019
95	0xbe9b42d5	-0.30324426
96	0xbe7ee559	-0.24892177
97	0x3dbe2e64	0.09286192
98	0x3dff4db4	0.124659926
99	0x3db5b26a	0.088719204
100	0x3c8fe260	0.017563999
101	0xbc5a9009	-0.013340005
102	0xbc4c15ae	-0.012456341
103	0xbba08a31	-0.004899286
104	0xbc73336c	-0.014843803
105	0x3afb785f	0.0019185654
106	0xbb28bec8	-0.002574848
107	0xbb86910e	-0.0041066473
108	0x3c14e7ec	0.009088498
109	0xbc1f059c	-0.009705927
110	0x3bb6a77d	0.0055741654
111	0x3b36a973	0.0027871996
112	0x3c699383	0.014256361
113	0x3a393bce	0.00070661015
114	0xbc427029	-0.011867561
115	0x3bcbded1	0.00622163
116	0xbc625c54	-0.013815958
117	0xbc745f0a	-0.014915237
118	0xb9d008f9	-0.00039679537
119	0x3c0a9c2e	0.008460088
120	0x3c7fd7d9	0.015615427
121	0xbc7e235f	-0.015511363
122	0x3b925e91	0.0044668396
123	0x3c9b218f	0.0189369
124	0x3cbcbf03	0.0230403
125	0xbe490832	-0.19632033
126	0xbea11988	-0.3146479
127	0xbe4076ef	-0.1879537
128	0x3e3f0921	0.18655826
129	0x3e53fbb5	0.20701487
130	0x3c4e258e	0.012582196
131	0xbe80bc88	-0.25143838
132	0xbe5a6dcf	-0.21330951
133	0x3e76127c	0.24030489
134	0x3f04e1b8	0.5190692
135	0xbd28af56	-0.04118284
136	0xbe81ff84	-0.25390255
137	0xbe3e86b6	-0.18606076
138	0x3e47b3e1	0.19502212
139	0x3f013184	0.5046618
140	0xbd0df709	-0.03465942
141	0xbe506bfe	-0.20353696
142	0xbe05be11	-0.13060786
143	0x3c01186f	0.007879361
144	0x3e3c5116	0.18390307
145	0xbd8f47b2	-0.06996097
146	0xbe48ebae	-0.19621155
147	0x3c8f71e2	0.017510358
148	0x3d8ec023	0.06970241
149	0xbaedefa0	-0.0018153079
150	0x3de2eba3	0.110801004
151	0xbd580500	-0.052739143
152	0x3ddb217e	0.106997475
153	0x3db6c266	0.08923797
154	0xbb849d48	-0.0040470697
155	0x3ddf03d5	0.10889403
156	0xbd323584	-0.043508068
157	0xbcba8b3f	-0.022771476
158	0x3d1ca34a	0.038241662
159	0x3d95b96f	0.07310759
160	0x3e2baf9a	0.16766205
161	0x3d7ad409	0.06123737
162	0x3d140423	0.036136758
163	0x3d46f7b7	0.048576083
164	0xbde1f463	-0.11032941
165	0xbcf30c0a	-0.029668827
166	0xbd743d9f	-0.05962908
167	0xbd7c7da9	-0.061643276
168	0xbe053668	-0.13009036
169	0xbe0fe0c0	-0.14050579
170	0xbdd0f67b	-0.102032624
171	0xbdad919f	-0.08475041
172	0xbdcb289b	-0.09919854
173	0xbde846e3	-0.113416456
174	0xbe0308f5	-0.12796386
175	0xbca6e5f4	-0.020373322
176	0x3e6a2cbd	0.22868629
177	0x3ec1749f	0.37784287
178	0x3e01a2ca	0.12659755
179	0xbe2b7580	-0.16744041
180	0xbcbdde8c	-0.023177408
181	0x3d642f5b	0.055709224
182	0x3e66652c	0.22499532
183	0xbcd3215b	-0.025772741
184	0xbeb115d1	-0.34586957
185	0x3debc447	0.11512046
186	0x3e079a69	0.13242497
187	0x3d9cb6bf	0.076520436
188	0xbe48b534	-0.19600374
189	0xbe6cd5b0	-0.2312839
190	0x3f0007f7	0.50012153
191	0x3e306690	0.17226624
192	0x3e4bfda6	0.19920978
193	0xbeb46ccd	-0.35239258
194	0xbebf0467	-0.37308046
195	0x3ed33f22	0.41259104
196	0x3ea8b613	0.32951412
197	0x3e108983	0.14114957
198	0xbe89d2d8	-0.26918674
199	0xbed77871	-0.42084077

conv_layer1.bias f4 [8]
0	0x3c78c016	0.015182516
1	0xbb89be71	-0.0042036106
2	0xbbaae68f	-0.005215473
3	0xbb617ae9	-0.0034405536
4	0xbc200041	-0.009765686
5	0xbc6a0c0c	-0.014285099
6	0xbbb3dedf	-0.005489215
7	0xbc2219a2	-0.009893807

conv_layer2.weight f4 [16, 1, 5, 5]
0	0xbd8c01ca	-0.06836279
1	0xbe175109	-0.14777006
2	0xbd70f200	-0.05882454
3	0xbcded3b9	-0.027200567
4	0x3d1607b4	0.03662844
5	0xbe24dc02	-0.16099551
6	0xbe460b9e	-0.19340369
7	0xbd5c7f80	-0.05383253
8	0xbdaee368	-0.08539468
9	0xbb215996	-0.0024620048
10	0xbba906ac	-0.005158266
11	0xbb290a28	-0.0025793407
12	0xbd38da64	-0.04513015
13	0x3cfba128	0.030716494
14	0x3c9e3606	0.01931287
15	0x3d6916b6	0.056906424
16	0x3e16b651	0.14717986
17	0x3dd2b768	0.10288888
18	0x3c416626	0.011804139
19	0xbd8a7ea0	-0.06762433
20	0x3c164c54	0.0091734715
21	0x3e60d02a	0.21954408
22	0x3e44194d	0.19150276
23	0x3c85c2d2	0.01632825
24	0xbda8032f	-0.08203732
25	0x3c314c12	0.010821359
26	0xbcdb282e	-0.026752558
27	0xbd80028b	-0.06250485
28	0xbd9f95cd	-0.07792244
29	0xbcbdcc7e	-0.023168799
30	0xbd025002	-0.031814583
31	0xbd863554	-0.0655314
32	0xbd863a58	-0.06554097
33	0xbc986cec	-0.018606625
34	0x3c4e9d84	0.012610797
35	0xbc8bf9af	-0.017086832
36	0xbd648506	-0.055790924
37	0xbd2d3083	-0.042282593
38	0xbda06bf1	-0.07833088
39	0xbdaab7fa	-0.08335872
40	0xbcde7356	-0.027154606
41	0xbd2f4e18	-0.042799085
42	0xbd53d82e	-0.051719837
43	0x3d6ce954	0.057839707
44	0x3dedde5a	0.11614676
45	0xbd107a02	-0.035272606
46	0x3c0dc6da	0.008653367
47	0x3d9c1daa	0.076228455
48	0x3da12c45	0.07869772
49	0x3e38b3b2	0.18037298
50	0xbac9da3f	-0.0015400125
51	0xbd0c07cd	-0.034187127
52	0xbbc7eb35	-0.006101037
53	0xbb586b05	-0.0033022773
54	0xbceddb3e	-0.029035207
55	0xbacf6bca	-0.001582497
56	0xbd76e14b	-0.06027345
57	0xbd282000	-0.041046143
58	0xbce94e5d	-0.02847975
59	0xbd1bcf5c	-0.03803955
60	0xbd2b0fad	-0.041762996
61	0xbd7c2833	-0.061561774
62	0x3d13b45e	0.036060683
63	0x3da9406d	0.08264241
64	0x3cf1a0f7	0.0294957
65	0xbd606444	-0.05478312
66	0xbd9932a4	-0.07480362
67	0x3dc16075	0.09442226
68	0x3e1b5db0	0.15172458
69	0x3d9ffe04	0.078121215
70	0xbd0e5612	-0.03475005
71	0xbcc422f2	-0.023942444
72	0x3cabcab1	0.020970674
73	0x3bdfba7f	0.006827652
74	0xbc16467a	-0.009172076
75	0xbce2b95a	-0.027676273
76	0x3c62d409	0.013844498
77	0xbc5b5129	-0.013386049
78	0xbda02d96	-0.07821195
79	0xbd1d411f	-0.038392182
80	0x3c4a4130	0.0123446435
81	0x3e27ca68	0.16385806
82	0x3dd471f4	0.10373297
83	0xbd63c864	-0.05561103
84	0xbcc1e99b	-0.023670962
85	0xbdd2ec4f	-0.102989785
86	0x3ddf4fd5	0.109038986
87	0x3d535afb	0.051600438
88	0xbd24ad58	-0.040204376
89	0xbccc7fa1	-0.024963202
90	0xbccd8816	-0.025089305
91	0xbbae3531	-0.0053163995
92	0x3c8b86d8	0.017032072
93	0x3d189708	0.03725341
94	0xba94646c	-0.0011321432
95	0xba698bd0	-0.00089090783
96	0x3bfb9ba9	0.0076784682
97	0xbd318202	-0.043336876
98	0xbd4d7375	-0.050158937
99	0xbd1c5446	-0.038166307
100	0xbc980e06	-0.018561374
101	0xbcc82f83	-0.024436718
102	0xbc65d8d6	-0.0140287485
103	0x3cff4948	0.031162873
104	0x391cd976	0.0001495833
105	0xbcb38bc5	-0.021917233
106	0x3b3c0729	0.0028690791
107	0xb9f8139e	-0.00047316862
108	0x3da6e83e	0.081497654
109	0x3d9a3f0e	0.07531558
110	0xbc3742b4	-0.011185337
111	0x3c64d65c	0.013967123
112	0xbab5807c	-0.0013847495
113	0xbc3f49b5	-0.011675288
114	0xbca4f5b9	-0.020136701
115	0x3c361025	0.011112248
116	0x3d77cd84	0.06049873
117	0xbcaa05f1	-0.020754786
118	0xbcd42dae	-0.025900688
119	0xbb998910	-0.0046855286
120	0x3d465c66	0.04842796
121	0x3da46596	0.080271885
122	0xbd021360	-0.03175676
123	0x3c3810ab	0.011234443
124	0xbca8ca6d	-0.020604337
125	0x3e2d10dc	0.16900963
126	0x3e1fd505	0.15608604
127	0x3b3ddd13	0.0028970882
128	0x3b11f99d	0.0022274025
129	0x3bb49dd4	0.0055119786
130	0x3d37163f	0.04469895
131	0x3ccc8417	0.02496533
132	0xbcf2bf5a	-0.02963226
133	0xbd0b1776	-0.03395792
134	0xbd2277a3	-0.039664876
135	0xbd29f957	-0.041497555
136	0xbc197b03	-0.009367707
137	0xbb85875f	-0.0040749754
138	0x3a73bed6	0.0009298151
139	0xbc369c46	-0.011145657
140	0xbc8c7783	-0.017146831
141	0xbc8041ae	-0.015656319
142	0xbcd72819	-0.026264237
143	0xbcaa6b07	-0.020802988
144	0x3ccf5192	0.02530745
145	0xb9958523	-0.0002851869
146	0xbc35998f	-0.0110839745
147	0xbc9530e7	-0.018211795
148	0xbc1bb8c8	-0.0095045045
149	0x3c4f89ba	0.012667114
150	0xbdae2820	-0.08503747
151	0x3dffcaa4	0.124898225
152	0x3e626748	0.22109711
153	0x3d5727c5	0.05252816
154	0xbe36e16d	-0.1785943
155	0xbe1c2a56	-0.15250525
156	0x3e63d085	0.22247513
157	0x3e7638d7	0.2404512
158	0xbcc8c542	-0.024508122
159	0xbc285bec	-0.010275822
160	0xbe20a84e	-0.15689203
161	0xbe0eb09e	-0.13934562
162	0xbdbd00ca	-0.09228666
163	0xbded1f62	-0.115782514
164	0xbdec5777	-0.1154012
165	0xb9a2bdb8	-0.000310404
166	0xbe2fef51	-0.17181136
167	0x3d1b2f7b	0.037887078
168	0x3ded8604	0.11597827
169	0xbce5cd17	-0.028051896
170	0xbb33993a	-0.0027404563
171	0xbde31c03	-0.11089327
172	0xbcc327c7	-0.023822678
173	0x3dd97924	0.10618809
174	0x3dc6f852	0.09715332
175	0x3d513646	0.05107715
176	0x3d5a014e	0.0532239
177	0xbde6dcb2	-0.11272563
178	0xbda05fde	-0.07830785
179	0xbd1ea0c8	-0.03872755
180	0x3d0fe807	0.035133388
181	0x3cef8c77	0.029241784
182	0xbe4833c9	-0.19551004
183	0xbce646e2	-0.028109971
184	0xbe00910b	-0.1255533
185	0xbdcac66b	-0.099011265
186	0xbcb0c43a	-0.021577943
187	0xbe3d0470	-0.18458724
188	0xbd773732	-0.060355373
189	0xbc6588be	-0.014009653
190	0xbe444572	-0.19167116
191	0xbd8d7a60	-0.06908107
192	0x3dc3450d	0.09534655
193	0x3e6df686	0.23238572
194	0x3e401245	0.1875697
195	0xbe007f75	-0.12548621
196	0xbd530ffd	-0.05152892
197	0x3e480fad	0.1953723
198	0x3e6beed9	0.23040332
199	0x3e588c67	0.21147309
200	0x3bbf5004	0.005838396
201	0x3c181fb5	0.009284903
202	0x3c997072	0.018730376
203	0xbb87d507	-0.004145268
204	0xbbf90e93	-0.0076006143
205	0xbc46067d	-0.012086508
206	0xbc0d279a	-0.008615399
207	0x3ca87625	0.020564148
208	0x3bb8c6a9	0.0056389165
209	0xbc2ad131	-0.010425852
210	0x3b0c6a3e	0.002142563
211	0x3ac65921	0.0015132764
212	0xbc06b1a2	-0.008221062
213	0xbb811e4b	-0.003940379
214	0x3b6d844f	0.0036242192
215	0xbc3e4f3e	-0.0116155725
216	0xbc262468	-0.010140516
217	0xbc639424	-0.0138903
218	0xbc9b8845	-0.018985877
219	0x3c8959a6	0.01676638
220	0x3b20f71d	0.0024561353
221	0xbc168472	-0.009186851
222	0x3c8fb635	0.017542938
223	0xbc00ee11	-0.007869259
224	0x3c384d8c	0.011248957
225	0xbc0e3717	-0.008680127
226	0xbc0408d1	-0.008058743
227	0x3b5f382b	0.0034060578
228	0xbc5e4ac4	-0.01356763
229	0x3acc2a4e	0.0015576573
230	0xba21676c	-0.00061570737
231	0xbb48b389	-0.003062459
232	0xbbae9fed	-0.005329123
233	0xb95d5d5c	-0.00021110981
234	0xbc3f907e	-0.0116921645
235	0xbc14b9a1	-0.0090774605
236	0x39d6ba53	0.00040956083
237	0xbc2a5f4b	-0.010398696
238	0x3b7b6b62	0.0038363566
239	0x3bfc00ed	0.00769054
240	0xbaeb7102	-0.0017962756
241	0x3bbeccc7	0.005822751
242	0xbc38da47	-0.01128251
243	0x3bb26a7d	0.0054448233
244	0x3ab43fd3	0.0013751931
245	0x3c0a7b29	0.008452215
246	0xbb949d9a	-0.004535389
247	0xbc121acc	-0.008917522
248	0xb978372c	-0.00023671676
249	0xbc4a8e67	-0.012363053
250	0x3daece6a	0.08535464
251	0xbe8e9fbd	-0.27856246
252	0x3e2a7cae	0.16649124
253	0x3e877982	0.2645989
254	0x39d8cb35	0.00041350132
255	0xbc72c7bc	-0.014818128

conv_layer2.bias f4 [16]
0	0xbd1540e7	-0.03643885
1	0xbca55996	-0.02018432
2	0xbce9b972	-0.02853081
3	0xbcd12945	-0.025532374
4	0xbcd93e5a	-0.02651899
5	0xbc1ec58d	-0.009690654
6	0xbd1f18e0	-0.038842082
7	0xbc94319a	-0.018090058
8	0x3bac5893	0.0052595823
9	0x3c06ded7	0.00823184
10	0xbc607b02	-0.013701202
11	0x3c61148a	0.013737807
12	0xbcba6ec1	-0.02275789
13	0xbcafb0f5	-0.021446684
14	0x3d90a24c	0.07062206
15	0x3dac0f38	0.0840134

fc1.weight f4 [120, 576]
0	0x3d5c9106	0.053849243
1	0x3ca42c80	0.02004075
2	0xbc950e91	-0.018195422
3	0xbbff8914	-0.0077983234
4	0xbb87b8c2	-0.004141898
5	0x3a4301fd	0.0007438956
6	0x3cc5baa1	0.024136843
7	0x3c0288db	0.007967199
8	0xbcb8586b	-0.022503098
9	0xbc8baa2f	-0.017048923
10	0xbc701e72	-0.014655696
11	0xbca23db4	-0.019804813
12	0xbc26f22c	-0.010189574
13	0xbc224400	-0.009903908
14	0xbca7f74d	-0.020503664
15	0xbd14bfe0	-0.0363158
16	0xbd1813b8	-0.03712818
17	0xbc8eb7a1	-0.017421545
18	0x3c0ad42e	0.008473439
19	0x3cdc11ac	0.026863895
20	0x3cd2c490	0.025728494
21	0x3d0065df	0.03134715
22	0x3bbbed15	0.0057350495
23	0x3bbb2875	0.00571161
24	0x3ba23c38	0.0049510263
25	0xbb884c2c	-0.004159471
26	0xbb3e100d	-0.0029001266
27	0xba0c5c4b	-0.0005354329
28	0xbc35f6b4	-0.011106182
29	0xbcd9bec2	-0.026580218
30	0xbc8d5f4d	-0.017257357
31	0xbce27a80	-0.027646303
32	0xbba50890	-0.005036421
33	0xbb49c871	-0.0030789638
34	0xbb9675a4	-0.0045916606
35	0xbbdd11dc	-0.006746514
36	0x3b8d711d	0.0043164627
37	0xbc301bb1	-0.01074879
38	0xbc2123c5	-0.009835188
39	0xbb9970f5	-0.004682655
40	0x3b24d708	0.0025152583
41	0x3ab01314	0.001343342
42	0xbc6c407f	-0.014419674
43	0xbc961a43	-0.01832307
44	0xbc438ae2	-0.011934968
45	0xbbe90b37	-0.0071119326
46	0xbaaf2a77	-0.0013364096
47	0xb9d93b39	-0.0004143359
48	0xbbf41fcb	-0.007450079
49	0xbb92256c	-0.0044600274
50	0xbc56d2ef	-0.013111814
51	0xbba71be4	-0.0050997604
52	0xbb2059d2	-0.00244676
53	0xbae11a62	-0.0017174
54	0x3c0f6e7d	0.00875437
55	0x3be2f796	0.006926487
56	0x3b690b4b	0.003555971
57	0x381ec282	3.7851285e-05
58	0xb81cafcb	-3.735702e-05
59	0xbb5cd09e	-0.0033693681
60	0xbc05022b	-0.008118193
61	0x3bac2a52	0.0052540684
62	0xbb42e37f	-0.002973765
63	0xbb6962bd	-0.003561183
64	0xbbc77e4c	-0.006088054
65	0xbb200afc	-0.002442061
66	0xbc4bb276	-0.012432685
67	0x3853b764	5.0477116e-05
68	0x3b272c68	0.0025508646
69	0xb9b973b3	-0.00035372152
70	0x3addadb7	0.0016912733
71	0xbb040b36	-0.0020148284
72	0x3c1ee730	0.009698674
73	0xbb24d9a2	-0.0025154133
74	0xbc0ae309	-0.008476981
75	0xbb0d223f	-0.0021535305
76	0xbc140220	-0.00903371
77	0xbbc98731	-0.0061501493
78	0x3c3c01c3	0.011475029
79	0xbba5ccbe	-0.0050598076
80	0x3b925c60	0.0044665784
81	0xbb15d7c2	-0.0022864197
82	0xbb3dbdac	-0.0028952165
83	0xba81ee5f	-0.0009912959
84	0xbc8e3336	-0.017358404
85	0xbbb98863	-0.0056620105
86	0xbc260e34	-0.010135222
87	0xbbc049ec	-0.005868187
88	0x3ab973dc	0.0014148909
89	0x3b195c1d	0.002340085
90	0xbafd59c0	-0.0019329116
91	0x3b89664b	0.0041931025
92	0x3c5e78d7	0.013578615
93	0x3b50c57f	0.0031855998
94	0x3b7856f8	0.0037893634
95	0x3b15bc99	0.0022848009
96	0xbc3472d3	-0.011013704
97	0xbb97ea1a	-0.0046360614
98	0xbc0309a7	-0.007997907
99	0xba6c56f8	-0.0009015645
100	0xba0c0237	-0.0005340906
101	0xba4818ad	-0.00076330715
102	0xbcad252a	-0.021135885
103	0x3abc0176	0.0014343697
104	0xbb122b49	-0.0022303632
105	0x3a829f17	0.0009965625
106	0xbb00b0f5	-0.0019636725
107	0x3a2c6956	0.00065769756
108	0x3aee794d	0.001819411
109	0xbcaa2b34	-0.020772554
110	0x3ae141d4	0.0017185756
111	0xba598d4b	-0.00082989474
112	0xbb825500	-0.003977418
113	0xbadbe82c	-0.0016777567
114	0x3cca5d4f	0.024702696
115	0xba9c4052	-0.0011921024
116	0xbb793b9e	-0.003802992
117	0xbc01ffad	-0.007934493
118	0xbaafc3ab	-0.0013409754
119	0xbc1929ec	-0.009348374
120	0x3c0ab2ca	0.008465478
121	0x3c177320	0.0092437565
122	0xba5bcc60	-0.0008384641
123	0xb945b2e8	-0.00018854032
124	0xbc0aa2d2	-0.008461671
125	0xbc0c53c8	-0.008564897
126	0x3b26337b	0.0025360275
127	0xbc2e23c8	-0.010628648
128	0xba74dcd2	-0.0009340766
129	0xbbb39584	-0.00548047
130	0xbc0f9075	-0.008762469
131	0xbb1a0d75	-0.0023506556
132	0x3bf260b9	0.007396784
133	0xbbd72952	-0.006566205
134	0xbbac6271	-0.0052607586
135	0x3c428c13	0.011874217
136	0x38eb7855	0.00011228087
137	0x3bc4becd	0.0060041905
138	0xbb1b2310	-0.0023672022
139	0xbcd03507	-0.02541591
140	0xbc231007	-0.009952552
141	0xbbc718d1	-0.0060759564
142	0xbc208387	-0.009796984
143	0xbbf817e8	-0.007571209
144	0xbbbfa734	-0.0058487896
145	0xbbda86db	-0.006668908
146	0xbbabba52	-0.005240717
147	0xbb1914c7	-0.0023358332
148	0xbb004112	-0.0019570035
149	0xba9786d5	-0.0011560569
150	0xbc3c44a1	-0.011490972
151	0x3b42eae8	0.0029742066
152	0x3b46179b	0.0030226472
153	0xbae9c46a	-0.0017835025
154	0xbab58c28	-0.0013850974
155	0xbb0e8f4d	-0.0021752894
156	0x3b80310f	0.0039120982
157	0xbbfd7a0e	-0.0077354973
158	0xbbfa9f95	-0.007648418
159	0xb931d15a	-0.00016958025
160	0x3a2dcb49	0.0006629718
161	0x3acf7cb3	0.001583001
162	0x39e162be	0.00042988913
163	0xbbb0a51f	-0.0053907777
164	0xbb3b81b7	-0.0028611252
165	0x3ba32292	0.0049784863
166	0x3b2dd342	0.0026523625
167	0x3a85e4e5	0.0010215311
168	0xbad4f5bc	-0.0016247551
169	0xbb701af7	-0.0036637166
170	0xbb9a7648	-0.0047138073
171	0xbb1b311f	-0.0023680402
172	0xbacea0cf	-0.0015764477
173	0xb9ea1122	-0.00044644723
174	0xbad5765c	-0.0016285884
175	0xbb99df73	-0.0046958267
176	0x3a009054	0.0004904319
177	0x3a06ffb5	0.00051497977
178	0x3b63365d	0.0034669854
179	0x3a31735e	0.0006769205
180	0x3bbbc36b	0.0057300827
181	0x3bd28ea2	0.0064256946
182	0xbbb5590d	-0.0055342973
183	0xbba47250	-0.00501851
184	0xbbce2c55	-0.006291906
185	0xb89b5166	-7.4061376e-05
186	0xbba56caa	-0.005048354
187	0xbc266e40	-0.010158122
188	0xbc94b60e	-0.018153217
189	0x3b0ac8ae	0.0021176743
190	0xba962313	-0.0011454545
191	0xbbb509ac	-0.0055248346
192	0xbacef12a	-0.0015788425
193	0x3b3301c0	0.0027314276
194	0x3b3582fb	0.0027696479
195	0xbb5e4563	-0.003391587
196	0xbbdf7bf0	-0.0068201944
197	0xbb138029	-0.002250681
198	0x3b84cf96	0.0040530665
199	0x3b7e9c79	0.003885059
200	0xba9c0c9c	-0.0011905613
201	0xb927886f	-0.00015977187
202	0x3b5cc50b	0.0033686783
203	0xbba47f49	-0.0050200564
204	0xbb2bdebd	-0.0026225292
205	0xbb8c9a4d	-0.004290855
206	0xbc2697f9	-0.010168069
207	0x38cccc4a	9.76553e-05
208	0x3c1d1956	0.00958856
209	0x3be5f52d	0.0070177526
210	0x3bdc2bfc	0.0067191105
211	0x3ba1c8e1	0.0049372767
212	0xbc243a43	-0.010023656
213	0x3b9c9417	0.004778396
214	0x3a77ce2f	0.0009453026
215	0x3b97429d	0.004616095
216	0xbb409934	-0.0029388191
217	0x3b0b018a	0.0021210634
218	0xbcbb47e9	-0.022861438
219	0xbca5bc7b	-0.020231476
220	0xba6b43e3	-0.00089746545
221	0xbae1221b	-0.0017176302
222	0xbc8c8f78	-0.017158255
223	0x3c37991b	0.011205937
224	0xbd17abd8	-0.037029117
225	0xbc26e8b3	-0.010187316
226	0xbc0e5447	-0.0086870855
227	0xbbf3ea09	-0.0074436706
228	0xbd444bdb	-0.047923904
229	0xbbeda9bd	-0.0072529004
230	0xbb0b3574	-0.0021241577
231	0xbd141772	-0.03615517
232	0xbba35cc7	-0.004985425
233	0xbc9cf859	-0.01916139
234	0x3cb66a7f	0.022267578
235	0x3b627530	0.0034554712
236	0xbc8ca202	-0.017167095
237	0xbb4dac18	-0.0031383093
238	0xbc241e1d	-0.010016945
239	0x3cb594c3	0.022165662
240	0x3cc2b9c8	0.023770228
241	0xbc4b2eb2	-0.01240127
242	0x3d175657	0.036947574
243	0x3cc9b7b8	0.024623737
244	0x3d4052a5	0.046953816
245	0x3c3197ec	0.010839444
246	0x3c403303	0.011730912
247	0xbbe59bc1	-0.0070070927
248	0xbc0f181c	-0.0087337755
249	0xbc7a2240	-0.015266955
250	0xbba773e5	-0.0051102513
251	0xbc57cc14	-0.013171215
252	0xbb4b2295	-0.0030995954
253	0xbc9a59ff	-0.018841742
254	0xbbefe19c	-0.007320596
255	0x3c2da56e	0.010598524

fc1.bias f4 [120]
0	0xbb80b962	-0.0039283494
1	0xba9b925b	-0.0011869179
2	0x3c2029cf	0.009775593
3	0x3c8ac62e	0.016940203
4	0x3c8895e3	0.016673034
5	0x3b0c025f	0.0021363718
6	0x3bcceb02	0.006253601
7	0x3c928b1f	0.017888604
8	0x3a30b132	0.00067402713
9	0x3bb14ac4	0.005410524
10	0x3bdeedd1	0.0068032523
11	0x3af34c04	0.0018562083
12	0x3b54634c	0.0032407818
13	0x3b0ac545	0.002117471
14	0x3af12666	0.0018398284
15	0xb9f619f0	-0.000469401
16	0x3ba4c25c	0.0050280523
17	0x3a9aab31	0.0011800287
18	0x3c30b13d	0.010784444
19	0x39c1cd4f	0.00036964795
20	0x3bf6e3bb	0.007534472
21	0x3b91e259	0.0044520316
22	0xbb23cf60	-0.0024995431
23	0x3c1004e3	0.008790228
24	0x3bcfcddc	0.006341679
25	0xbb9876e8	-0.0046528466
26	0x3af0a20e	0.0018358843
27	0x39c113c0	0.00036826544
28	0x393e4f44	0.00018149341
29	0x3cb2173c	0.021739595
30	0x3b2d61e4	0.0026456052
31	0xb98bbeb5	-0.00026654234
32	0x3c8c4206	0.017121326
33	0x3c8ed6de	0.017436441
34	0x3a9d6d93	0.0012010805
35	0x3964eb1b	0.00021831358
36	0x3cc72ecd	0.024314309
37	0xbb2d8714	-0.0026478218
38	0x3c22a406	0.009926802
39	0x3c8588f0	0.016300648
40	0xbb014522	-0.0019725044
41	0xbb2f09c4	-0.0026708702
42	0x3c4eaf6e	0.012615068
43	0x3b8c2c50	0.0042777434
44	0x3a9ffe62	0.0012206549
45	0xbb4bd707	-0.0031103508
46	0xb9e68df9	-0.00043974796
47	0x39dbfb0e	0.00041957985
48	0xb8576695	-5.135553e-05
49	0x3bdba252	0.0067026997
50	0x3c0cdd7c	0.008597728
51	0x3bb9b07a	0.0056667896
52	0x3be619e2	0.0070221284
53	0x3bb8441f	0.005623355
54	0x3b60315a	0.0034209103
55	0x3b427376	0.002967087
56	0x3c169ac4	0.009192172
57	0xbab4840d	-0.0013772264
58	0x3bead15d	0.0071660713
59	0xb9cbe8ff	-0.00038892773
60	0xb849c352	-4.810404e-05
61	0x3ba16a82	0.004926027
62	0x3c1b26c7	0.009469694
63	0x3ae99cdc	0.0017823237
64	0x3b04a16a	0.0020237812
65	0x399a1e01	0.00029395524
66	0x3be1186f	0.006869368
67	0xbb1f5859	-0.0024314134
68	0x3ad11df4	0.0015954361
69	0x3b462cc2	0.003023908
70	0xbb9d9db1	-0.004810058
71	0xbb34148f	-0.0027478074
72	0x3a90749f	0.0011021084
73	0x3c69091f	0.014223366
74	0x3c452a15	0.012033959
75	0xba583d58	-0.0008248887
76	0xba9413b4	-0.0011297376
77	0xbb6ee75f	-0.0036453826
78	0xbb37cda5	-0.0028046158
79	0xba869e18	-0.0010270504
80	0xb9255d3b	-0.00015770357
81	0x38c6250b	9.4482755e-05
82	0x3b38275a	0.0028099627
83	0xbb9cd10a	-0.0047856616
84	0x3af87394	0.0018955343
85	0x3c8e9292	0.017403875
86	0x3b1ce6e6	0.0023941337
87	0x3b5ca79f	0.0033669246
88	0x3b2e8b33	0.0026633262
89	0xbb37d045	-0.0028047722
90	0x3a32283c	0.00067961565
91	0xbac2be4a	-0.0014857736
92	0x3ca01fe2	0.019546453
93	0xbadf70f2	-0.001704721
94	0x3c04e6ff	0.008111714
95	0xbb49f493	-0.0030815944
96	0x399efc2f	0.00030324
97	0xba0ebaf2	-0.0005444727
98	0x3b241f75	0.0025043164
99	0x3af9d4b4	0.0019060583
100	0x3a05483f	0.0005084313
101	0x3b4203e5	0.0029604372
102	0xb9e5f051	-0.00043857333
103	0xbb8b0571	-0.004242592
104	0xbb5e0156	-0.0033875308
105	0x3c5cf076	0.013485065
106	0xb9f68d20	-0.00047025923
107	0xb9beef56	-0.00036417943
108	0x39c7aefb	0.00038086608
109	0x3bada332	0.0052989954
110	0x3acc7047	0.0015597426
111	0xbaa8e32f	-0.0012885089
112	0x3ad3e946	0.0016167543
113	0xbb47b1cc	-0.0030470965
114	0x3b1736fd	0.0023073547
115	0x3c5ed172	0.01359974
116	0xbb7e9abc	-0.0038849553
117	0x3c5e2011	0.01355745
118	0x3ac5f86b	0.0015103942
119	0x3bc48147	0.0059968564

fc2.weight f4 [80, 120]
0	0x3ceff35d	0.02929085
1	0x3a6e38d0	0.0009087445
2	0x3c9658e7	0.018352939
3	0xbb8f8b13	-0.0043805926
4	0x3acec9b9	0.0015776671
5	0xbd0ede57	-0.03488001
6	0xbd05c22c	-0.03265588
7	0xbcb7e722	-0.02244908
8	0x3cf6cdbf	0.030127404
9	0xbcb7b0bb	-0.022423139
10	0x3c939974	0.018017508
11	0xba83d495	-0.0010057861
12	0x3ce0aa78	0.027425036
13	0x3c8d3141	0.0172354
14	0x3d0882d0	0.033327878
15	0x3a84f4f2	0.00101438
16	0xbc8193ed	-0.015817607
17	0xbb7c4c5d	-0.0038497665
18	0x3d57308f	0.052536543
19	0x3b00a428	0.0019629095
20	0xbd1b1849	-0.037864957
21	0x3af6004c	0.0018768399
22	0x3cb72737	0.022357566
23	0xbce338b0	-0.027736992
24	0xbc81c077	-0.015838845
25	0xbc0f6087	-0.008751041
26	0x3bce66df	0.0062988843
27	0xbd408eee	-0.04701131
28	0xbd15a7a7	-0.03653684
29	0x3cfc4d2c	0.030798517
30	0x3c772967	0.015085555
31	0xbcc22f99	-0.023704337
32	0x3cf7fea7	0.030272795
33	0x3d832795	0.06404034
34	0xbc9ad538	-0.018900499
35	0xbca808f8	-0.02051209
36	0x3cdb6385	0.026780853
37	0x3bba3777	0.0056828815
38	0x3ccf6246	0.025315415
39	0x3b8ab38f	0.004232831
40	0xb9f5b721	-0.00046866483
41	0xbcae0986	-0.021244776
42	0xbd4182d0	-0.047243893
43	0x3cd9962d	0.026560867
44	0xbc983ce8	-0.01858373
45	0xbd2005a4	-0.03906788
46	0xbc8e65ce	-0.017382529
47	0xbc4002cc	-0.011719417
48	0x3d21b06f	0.0394749
49	0x3c68cfab	0.014209668
50	0x3b639ce5	0.0034730968
51	0x3d6c3eee	0.057677202
52	0xbd33e4a9	-0.04391924
53	0xbc6600a5	-0.01403824
54	0x3cf719a4	0.030163594
55	0xbcfbd540	-0.030741334
56	0x3d079940	0.033105135
57	0x3c6c2cec	0.014415007
58	0x3d3fa838	0.046791285
59	0x3ce7ff12	0.02831987
60	0xbcc30352	-0.023805294
61	0xbd20749a	-0.0391737
62	0x3d89fd1f	0.06737732
63	0x3c06a430	0.008217856
64	0x3cc81b99	0.024427222
65	0x3c9b4f3b	0.018958678
66	0xbce27044	-0.027641423
67	0xbd070136	-0.03296014
68	0x3cbb254a	0.02284493
69	0xbba837a0	-0.005133584
70	0x3c9a3db3	0.018828249
71	0xbcb67a8b	-0.02227523
72	0xbb848c28	-0.0040450282
73	0x3da5adf2	0.08089818
74	0x3cb43920	0.021999896
75	0xbc660a56	-0.01404055
76	0x3c76e8b4	0.015070129
77	0x3d37e481	0.044895653
78	0xbd14d4a2	-0.036335595
79	0xbc971d25	-0.018446514
80	0x39867ba7	0.000256506
81	0xbc22ce35	-0.009936859
82	0xbcaff73b	-0.021480193
83	0x3cffc5b6	0.031222206
84	0x3ce4148d	0.02784183
85	0x3d4fc019	0.050720308
86	0x3c927e37	0.01788245
87	0xbb76e4d6	-0.0037673018
88	0x3a91fdf1	0.0011138303
89	0xbb8274dd	-0.0039812163
90	0x3d8e703a	0.06954999
91	0xbc908cb2	-0.017645214
92	0x3c861a1c	0.016369872
93	0xbc8db1c3	-0.017296677
94	0x3d15d539	0.036580298
95	0xbca49351	-0.020089777
96	0x3c92fb82	0.017942194
97	0xbd78394d	-0.06060152
98	0x390bca3d	0.00013331413
99	0x3b09a543	0.0021003045
100	0x3c953bf1	0.018217059
101	0x3b7bf7bc	0.0038447222
102	0xbd09062a	-0.033453144
103	0x3c1bd1c3	0.00951046
104	0xbd02cb33	-0.031932067
105	0x3bc4595e	0.0059920987
106	0xbcad95d4	-0.021189608
107	0xbd398259	-0.045290325
108	0x3d6fe277	0.058565583
109	0xbb4c577e	-0.003118008
110	0x3abfe8ff	0.0014641582
111	0x3ca32619	0.019915627
112	0x3d19660a	0.037450828
113	0xbc9b8ae9	-0.018987136
114	0x3cff01e0	0.031128824
115	0x3cdd0c10	0.02698329
116	0xbc855040	-0.016273618
117	0x3d307ec1	0.043089632
118	0xbb8cac0e	-0.0042929715
119	0x3c41f5dc	0.011838403
120	0x3b1b1701	0.0023664834
121	0xbc3d4121	-0.0115511725
122	0x3cb692c7	0.022286786
123	0x3d067978	0.032830685
124	0x3c3e9cd6	0.011634072
125	0xbc252601	-0.010079862
126	0xbc023859	-0.007948005
127	0xbb7c1e3f	-0.0038470177
128	0xbcdbfbdc	-0.026853494
129	0x3cf2beeb	0.029632052
130	0xbc1aea3d	-0.009455261
131	0xbc02d134	-0.007984448
132	0xbb5f318e	-0.0034056637
133	0xbbe18d82	-0.006883324
134	0x3d10c850	0.035347283
135	0x39c428f4	0.00037414546
136	0xbd487b67	-0.04894581
137	0x3d531be6	0.051540278
138	0xbc69d307	-0.014271504
139	0xbd1cf4a0	-0.03831923
140	0x3d3b58de	0.045739047
141	0x3cb71e25	0.022353241
142	0x3d575a54	0.052576378
143	0xbd20e661	-0.039282206
144	0xbcc0e1c0	-0.023545146
145	0xbd6c1a49	-0.057642255
146	0xbc95f0f4	-0.018303372
147	0x3d11cd7c	0.035596356
148	0xbd2c7177	-0.042100396
149	0xbc48651c	-0.012231138
150	0x3cc2abde	0.023763593
151	0x3c92b0a3	0.017906493
152	0xbce0ce1b	-0.027442029
153	0xbd536cd4	-0.05161746
154	0xbc7c3780	-0.015394092
155	0xbd811172	-0.063021556
156	0x3c9e79c7	0.019345177
157	0xbcdec834	-0.027195074
158	0x3d1b0627	0.037847664
159	0xbc8ea6e9	-0.017413573
160	0x3d5b3984	0.053521648
161	0x3c326b41	0.010889829
162	0xbbd097d3	-0.006365755
163	0x3ccf061c	0.025271468
164	0xbc2c15c8	-0.01050324
165	0x3d166bc0	0.036723852
166	0xbccb4f2d	-0.024818027
167	0xbc857649	-0.016291754
168	0xbbdfe41a	-0.0068326117
169	0xbcc2497b	-0.023716679
170	0x3b15f1c9	0.002287971
171	0xbd3cbb51	-0.046077076
172	0xbd0e12df	-0.034685966
173	0x3c725ac6	0.01479215
174	0xbd2c243a	-0.042026736
175	0x3d091ce7	0.03347483
176	0x3ca97140	0.020683885
177	0xbb3baf09	-0.0028638265
178	0xbb0b6855	-0.0021271904
179	0x3c217490	0.009854451
180	0x3b9c3afe	0.0047677746
181	0xbd035905	-0.032067318
182	0xbd2e3fa6	-0.04254117
183	0xbd14baee	-0.036311083
184	0x3c92a2d3	0.017899906
185	0x3d3004b6	0.042973243
186	0xbc0c9311	-0.008579985
187	0xbaae9c32	-0.0013321696
188	0x3c4a185a	0.012334907
189	0xbc93d486	-0.018045675
190	0x3dc87c9c	0.09789392
191	0x3ccd82a9	0.025086718
192	0xbc9a908e	-0.018867757
193	0xbd02c924	-0.031930104
194	0x3acaf72f	0.0015485043
195	0x3b3b5c04	0.002858878
196	0x3d6ce0ea	0.057831682
197	0x3d678fb3	0.056533527
198	0x3d642a28	0.055704266
199	0x398b3413	0.00026550944
200	0x3c797ef4	0.015228022
201	0x3c81c82f	0.015842525
202	0x3b4419e2	0.0029922654
203	0x3b1da7e8	0.0024056379
204	0xbd7438a8	-0.059624344
205	0xbc9a8fce	-0.0188674
206	0xbc5b4e4d	-0.013385368
207	0xbbd2417a	-0.006416497
208	0x3bfff9fb	0.0078117824
209	0xba33f989	-0.0006865492
210	0xbbac54f9	-0.005259153
211	0xbc5a0004	-0.013305668
212	0x3cec0595	0.028811255
213	0xbc23255f	-0.00995764
214	0x3c367fd2	0.011138873
215	0x3d2aa2aa	0.041659035
216	0x3c752497	0.014962337
217	0xbd3abc74	-0.04558988
218	0x39d1f400	0.0004004538
219	0xba574196	-0.0008211372
220	0x3d0d8125	0.03454699
221	0xbba225da	-0.00494836
222	0x3ca7375a	0.020412136
223	0x3cfba0ca	0.030716319
224	0xbc79d66b	-0.015248875
225	0x3d9b041f	0.075691454
226	0x3d652ecf	0.055952843
227	0x3c90d142	0.017677907
228	0xbc13ad43	-0.009013477
229	0x3d25f2eb	0.040514868
230	0x3d36f36c	0.04466574
231	0x3d495b71	0.04915947
232	0x3bb0f8fd	0.0054007755
233	0x3c811579	0.01575731
234	0xbc08d883	-0.008352402
235	0x3cc8baa6	0.024503063
236	0x3d95b36b	0.07309612
237	0x3bae1251	0.005312242
238	0x3da50375	0.080573
239	0x3d12eb7f	0.035869118
240	0xbd0600dd	-0.032715667
241	0x3c89e180	0.01683116
242	0x3d2ea600	0.04263878
243	0xbc8ec516	-0.017427962
244	0xbc35f9e9	-0.0111069465
245	0xbd383e1b	-0.044981103
246	0x3cc29678	0.02375339
247	0xbc9c38d1	-0.01907006
248	0x3bd1d0dc	0.006403072
249	0xbcdc338f	-0.026880054
250	0x3d5eeba4	0.054423943
251	0x3d222f3f	0.03959584
252	0x3cdcd005	0.02695466
253	0xbc9bf047	-0.019035472
254	0x3be76453	0.00706152
255	0xb99d31eb	-0.00029982565

fc2.bias f4 [80]
0	0x3c939596	0.018015664
1	0xbc143421	-0.009045632
2	0x3bcbcca8	0.0062194653
3	0x3c07f6ff	0.008298635
4	0x3bae3fb4	0.0053176526
5	0x3c3e1275	0.01160108
6	0x3b7c1bae	0.0038468647
7	0x3b4edbcf	0.0031564122
8	0x3c9de4f5	0.019274214
9	0x3c83e820	0.016101897
10	0x3c8c5cdf	0.017134128
11	0xbbd53c8d	-0.0065074624
12	0x3ba57810	0.005049713
13	0x3c5ea8cf	0.013590052
14	0xbb0b4660	-0.0021251664
15	0x3b45ec85	0.003020079
16	0x3c69bc5c	0.0142661
17	0x3ccee20e	0.025254276
18	0xbbdd8149	-0.0067597968
19	0x3c3bcda9	0.011462607
20	0x3c399670	0.011327371
21	0x3bc0cd5f	0.005883857
22	0x3bc0bd9a	0.0058819773
23	0x3c110107	0.008850343
24	0x3c727cad	0.014800233
25	0x3c9deab9	0.019276964
26	0x3ca27aea	0.019834
27	0xbba32365	-0.0049785846
28	0xbb56ae4f	-0.0032757705
29	0xbc026395	-0.0079583125
30	0xbb875f5a	-0.00413124
31	0x3c5579e1	0.0130295465
32	0x3cfc403e	0.030792352
33	0x3bb527d0	0.0055284277
34	0x3c97a1f3	0.01850984
35	0x3be44a82	0.00696689
36	0xbbec5d6a	-0.0072132843
37	0x3c477641	0.01217419
38	0x3c2b98f4	0.010473479
39	0x3bc9d49e	0.006159379
40	0x3c153d03	0.009108785
41	0x3b9af296	0.0047286255
42	0x3bff330c	0.0077880677
43	0xbbfed7be	-0.0077771833
44	0x3b10026b	0.0021974097
45	0x3c7caff9	0.0154228145
46	0x3c452a37	0.012033991
47	0xbbf31c87	-0.007419172
48	0x3b6df729	0.003631065
49	0x3b82f252	0.003996172
50	0xbbd853f3	-0.0066018044
51	0x3c6f9708	0.014623411
52	0x3c704c06	0.014666563
53	0x3b6be72a	0.0035995939
54	0xbc30a709	-0.010782012
55	0xbc67530d	-0.014118922
56	0x3a903095	0.0011000807
57	0x3c17573b	0.009237106
58	0x3cef433f	0.02920687
59	0xba85e3d8	-0.0010214997
60	0x3c0bd646	0.0085349735
61	0xbc4ab4c9	-0.012372204
62	0x3c2b9917	0.010473511
63	0x3b6c0f4b	0.0036019858
64	0x3c84ce8c	0.01621177
65	0x3c8a1b32	0.01685867
66	0xbaed2b7e	-0.0018094627
67	0xba3aeb23	-0.0007130375
68	0x3d000586	0.031255268
69	0x3b698607	0.0035632865
70	0x3cbbdfdb	0.022933891
71	0x3c410289	0.01178039
72	0x3c40bcbb	0.011763747
73	0x3a1a6510	0.0005889693
74	0x3c80b01b	0.015708974
75	0x3a83908e	0.0010037587
76	0x3bb56896	0.0055361493
77	0x3c82ebbf	0.015981553
78	0xba799677	-0.0009521017
79	0x3aacea6e	0.0013192424

fc3.weight f4 [38, 80]
0	0x3cd77b7f	0.026304005
1	0x3dfe7647	0.12424903
2	0x3d94c92d	0.07264934
3	0x3d38dba9	0.04513136
4	0x3ce1101e	0.027473506
5	0xbcce558e	-0.02518728
6	0x3d358894	0.044319704
7	0xbc53b627	-0.0129218465
8	0x3bd6e9d5	0.0065586367
9	0x3d0eb2c1	0.03483844
10	0x3d2115e2	0.03932751
11	0xbc691042	-0.014225068
12	0xbcbe7c22	-0.02325255
13	0xbc8024d3	-0.01564256
14	0x3d0b5019	0.034011934
15	0xbd0de9d0	-0.03464681
16	0xbd24bf61	-0.040221576
17	0xbc62f53c	-0.013852414
18	0x3c98702a	0.018608171
19	0x3db94ec1	0.09048224
20	0x3d8fa284	0.07013419
21	0x3dd44786	0.103652045
22	0xbb188c13	-0.002327685
23	0x3d88f11f	0.06686615
24	0xbd23ac3d	-0.03995918
25	0xbd199198	-0.037492365
26	0xbd227e79	-0.039671395
27	0xbbb52e44	-0.005529197
28	0x3d336826	0.043800496
29	0xbaeb4de7	-0.0017952294
30	0x3c973269	0.018456655
31	0xbd345d8f	-0.044034537
32	0xbccb9f92	-0.024856362
33	0x3d50b11c	0.050950155
34	0x3ca296b1	0.019847246
35	0x3d90ee78	0.07076734
36	0xbc2ba1d3	-0.010475594
37	0x3d99365f	0.074810736
38	0xbab7a950	-0.0014012251
39	0x3d014420	0.03155911
40	0xbd4f142e	-0.050556354
41	0x3d87ff88	0.066405356
42	0xbd550c18	-0.052013487
43	0x3cc2737a	0.023736704
44	0x3db661fc	0.08905408
45	0xbce7991c	-0.02827125
46	0x3d8b5099	0.06802482
47	0xbc9045df	-0.017611442
48	0x3d0f2937	0.034951415
49	0xbd23bf07	-0.0399771
50	0xbb0b8303	-0.0021287806
51	0xbc66222c	-0.014046233
52	0xbd0f27f9	-0.03495023
53	0x3c8b9e30	0.017043203
54	0x3dc7d5fb	0.097576104
55	0x3d6ff0b0	0.058579147
56	0x3d698dc2	0.057019956
57	0xbcd3bfd8	-0.025848314
58	0xbce5e158	-0.028061554
59	0x3c4f6285	0.012657766
60	0x3d6c7778	0.05773112
61	0xbb803573	-0.0039126216
62	0x3d772e59	0.060346935
63	0xbcdb17b9	-0.02674471
64	0x3de021ad	0.10943923
65	0x3d8ff432	0.070289984
66	0x3c5c0438	0.01342874
67	0xbd2bbb26	-0.041926526
68	0xbc912c26	-0.017721247
69	0xbc8d92f9	-0.017281996
70	0xbc9d27e1	-0.019184055
71	0xba9f8d68	-0.001217288
72	0x3de9c60c	0.114147276
73	0x3d2efd86	0.042722248
74	0xbd581ec6	-0.052763723
75	0x3d4256ea	0.04744617
76	0xbcdcd054	-0.026954807
77	0xbd1081e8	-0.03528014
78	0xbbf9d22d	-0.007623932
79	0x3da16948	0.07881409
80	0x3da8e4e3	0.08246782
81	0xbd2fc40d	-0.042911578
82	0x3d06c16f	0.032899316
83	0x3dca1130	0.098665595
84	0xbd0a5de1	-0.033780936
85	0xbc918314	-0.017762698
86	0xbd2994cf	-0.04140168
87	0x3dac8c8f	0.08425247
88	0x3dbc04a1	0.091805704
89	0x3d9b7631	0.075909026
90	0x3d99b2ae	0.075047836
91	0xbcf18a41	-0.02948487
92	0x3dd482dc	0.10376522
93	0x3ddff01b	0.10934468
94	0xbd94b631	-0.07261313
95	0xbd0334be	-0.03203272
96	0x3e0c7890	0.13717866
97	0xbcb91184	-0.02259136
98	0xbd9cb8fa	-0.07652469
99	0x3d54cfef	0.051956113
100	0x3dab527f	0.08365344
101	0xbd009dea	-0.0314006
102	0xbd2a8cfe	-0.041638367
103	0x3d4afbff	0.04955673
104	0x3e0d4a6a	0.13797918
105	0x3da25b63	0.07927587
106	0xbd6fc47d	-0.058536995
107	0xbd63adb6	-0.055585586
108	0x3af04b00	0.0018332899
109	0xbd46e6b3	-0.048559856
110	0xbbf8460c	-0.0075767096
111	0xbcc16174	-0.02360604
112	0x3df214c4	0.11820367
113	0xbb01993f	-0.001977518
114	0xbcfb5682	-0.030680899
115	0xbd0ab8fe	-0.03386783
116	0xbd793513	-0.06084163
117	0x3c9080f7	0.01763962
118	0xbc7137d5	-0.014722784
119	0xbd6a5e59	-0.057218883
120	0x3ddab39e	0.106787905
121	0xbdabcba5	-0.083884515
122	0xbd757c75	-0.059933145
123	0x3bb57488	0.0055375732
124	0xbd287693	-0.041128706
125	0xbb81d46e	-0.003962091
126	0xbcddec63	-0.027090257
127	0x3d73f004	0.05955507
128	0x3d75ee9e	0.060042016
129	0xbd43cc19	-0.047802065
130	0xbd152409	-0.03641132
131	0x3daeacc5	0.08529047
132	0x3e0f589b	0.13998644
133	0xbd882b31	-0.06648863
134	0xbcbf5622	-0.023356501
135	0xbd6089c9	-0.054818902
136	0xbd7643f6	-0.060123406
137	0xbd16521c	-0.0366994
138	0xbd818ca0	-0.0632565
139	0xbdaaf870	-0.08348167
140	0xbd31ed59	-0.043439243
141	0xbd486fc9	-0.04893473
142	0xbd830977	-0.0639829
143	0xbd1cc05b	-0.038269382
144	0x3e08323d	0.13300414
145	0x3da6c60a	0.08143242
146	0xbbccc448	-0.0062489845
147	0x3dbe1cbe	0.09282826
148	0x3d247d59	0.040158603
149	0x3e15e710	0.14638925
150	0x3dd76dcd	0.1051899
151	0x3e099896	0.13437113
152	0xbd81d0a5	-0.06338624
153	0xbd4552a3	-0.04817451
154	0x3d389253	0.04506142
155	0xbca1268f	-0.019671706
156	0xbcdb0ab4	-0.026738502
157	0xbd308d8d	-0.043103743
158	0xbcf20998	-0.02954559
159	0xbd88f8de	-0.06688093
160	0x3a46c117	0.0007581873
161	0x3b647202	0.0034857993
162	0xbc1d87c2	-0.009614887
163	0xbae158a2	-0.0017192552
164	0xbc1e6c00	-0.009669304
165	0x3bb9d9d2	0.005671718
166	0xbbc5e795	-0.0060395696
167	0x3b5eef25	0.0034017053
168	0xbbc715d6	-0.006075601
169	0xbc2a4255	-0.010391791
170	0xbbab805b	-0.005233807
171	0x3b499603	0.003075958
172	0xbb962d7b	-0.0045830584
173	0xbb63921b	-0.0034724537
174	0xbabe9a33	-0.0014541805
175	0xbbec9edf	-0.0072210873
176	0xbc34fa3c	-0.011045989
177	0xbc14646c	-0.009057146
178	0x3984e3a9	0.00025346622
179	0x3a49dbf3	0.00077003165
180	0xbb96e980	-0.004605472
181	0x3b7800cf	0.0037842279
182	0xbbab3491	-0.0052247723
183	0xbb579da9	-0.003290037
184	0xbb86a1c8	-0.0041086413
185	0xbc204056	-0.009780964
186	0xbbfd8844	-0.0077371914
187	0xba3b026c	-0.0007133845
188	0xba0e2be4	-0.00054234103
189	0xbc0a5c18	-0.008444808
190	0xbb3624fa	-0.0027793036
191	0xbc15d17c	-0.009144183
192	0xbbada55e	-0.0052992543
193	0x3b5da9ac	0.0033823056
194	0xbc363440	-0.011120856
195	0xb9afa486	-0.0003350118
196	0x3b02d5c3	0.0019963838
197	0x39cab37d	0.00038662172
198	0xb9fc7d17	-0.00048158385
199	0x3a8c6899	0.0010712325
200	0xbc075a0d	-0.008261216
201	0xbab1a734	-0.0013553859
202	0x3b69f906	0.0035701408
203	0x3b3c1ebd	0.0028704845
204	0xbab46d14	-0.0013765418
205	0xbc1ad2c4	-0.0094496645
206	0xbc2a09aa	-0.010378281
207	0x3b204fc0	0.0024461597
208	0x3ad1b8d7	0.0016000521
209	0x3a7b7eb7	0.0009593772
210	0xbb92e894	-0.004483292
211	0xbc1e54f9	-0.009663814
212	0xbbbdabb6	-0.005788292
213	0xbbfcdb25	-0.0077165538
214	0x373d3dc7	1.12796615e-05
215	0xb9e19c94	-0.00043032004
216	0x3acdeaa9	0.0015710193
217	0xbc09d35b	-0.0084122075
218	0xbbbbcf59	-0.005731505
219	0xbacc8fe4	-0.0015606848
220	0xbc3dac5b	-0.011576737
221	0xbc09ff30	-0.008422658
222	0xba337e70	-0.0006847149
223	0xbb9dfc8a	-0.004821365
224	0x3a87af29	0.0010351884
225	0xba22988e	-0.0006202542
226	0xbbe15cfb	-0.006877539
227	0xbc185f68	-0.00930009
228	0xbc250807	-0.010072715
229	0xbb59c1c1	-0.0033227059
230	0xbb75895b	-0.0037465903
231	0xba7c775b	-0.00096308225
232	0xbc0f7b83	-0.008757475
233	0xba4e5534	-0.00078709726
234	0xbc24ab94	-0.010050673
235	0xbaaacd88	-0.0013031224
236	0xbc11a971	-0.008890496
237	0xbbf3a528	-0.0074354596
238	0x3b4c60e1	0.0031185674
239	0xbbd3433d	-0.0064472244
240	0xbd1060d2	-0.035248585
241	0xbc9f025a	-0.019410301
242	0x3dcbbe29	0.099483795
243	0x3daa348f	0.08310806
244	0x3d91691a	0.07100125
245	0x3bdd7cc2	0.006759257
246	0xbd20d7d5	-0.039268333
247	0x3ded948b	0.11600598
248	0xbd1ee6ae	-0.038794212
249	0x3dbbcb42	0.09169628
250	0x3c8d2dd6	0.01723377
251	0x3b90e253	0.004421511
252	0xbd08cf6a	-0.03340093
253	0xbc0e739c	-0.008694556
254	0x3ddc9df8	0.10772318
255	0xbd062f9f	-0.03276026

fc3.bias f4 [38]
0	0xbc0bd1fd	-0.008533952
1	0x3d9509b8	0.07277244
2	0xbb9b0f6c	-0.004732063
3	0xbc26afdb	-0.010173763
4	0xba8d6089	-0.0010786216
5	0xbd3094d8	-0.0431107
6	0xbbbb0e4b	-0.005708491
7	0xbb80f8e1	-0.0039359187
8	0xbb464bcd	-0.0030257583
9	0x3e15f154	0.1464284
10	0xbcad2fd7	-0.021140976
11	0xba2a3293	-0.00064925215
12	0x3da83cc7	0.08214717
13	0xbcdad1a4	-0.026711293
14	0xbbd60918	-0.006531846
15	0xbc639182	-0.013889672
16	0xbbdf7f8d	-0.006820625
17	0xbc220e32	-0.00989108
18	0xbcae73eb	-0.021295508
19	0xbbec43b0	-0.0072102174
20	0xbca5aca5	-0.020223925
21	0xbc316e1a	-0.010829473
22	0xbc4e865b	-0.012605275
23	0xbc731e35	-0.014838745
24	0xb2dfe680	-2.6065436e-08
25	0xbbf0e99b	-0.0073520667
26	0x3d8685e5	0.06568507
27	0xbcad3b7d	-0.02114653
28	0xbc5a1b6c	-0.013312202
29	0xbb775600	-0.003774047
30	0x393432cd	0.00017185062
31	0x3c17b3c0	0.009259164
32	0xbca3f8f9	-0.02001618
33	0xbac67f01	-0.0015144051
34	0x3d734281	0.059389595
35	0xbc03f3d9	-0.008053743
36	0x3be063ee	0.00684785
37	0xbabb4d89	-0.0014290075
