outfiles/cnn/Ya32_5Train_cnn.pth (torch, 334015 bytes, 10 tensors)

conv_layer1.weight f4 [8, 1, 5, 5]
000000 db dd 8e 3d f8 90 73 3c dd aa ef 3c f6 a3 b3 3c
       0.06975909 0.014866106 0.029256279 0.021928769
000010 aa 41 29 bc 31 49 25 3d 4f a9 35 bd 56 38 65 bc
       -0.010330597 0.040353004 -0.04435092 -0.013990482
000020 67 3e 52 bc 8c 49 92 bb 5a 06 51 bc 1e ac 98 bd
       -0.012832261 -0.004464334 -0.012757862 -0.07454704
000030 7d 52 05 bc f8 eb 1e bc c2 1b 3c bc a2 71 d2 3c
       -0.0081373425 -0.009699814 -0.011481227 0.02568895
000040 b1 3d 82 bd 0b b5 ad bb 46 ff a9 3b 54 3a 07 3d
       -0.06359423 -0.005301123 0.0051879017 0.03301461
000050 b1 4a 81 3d cb 87 d1 bc b8 de 57 bd 62 6a 9d b7
       0.063130744 -0.025577446 -0.052702636 -1.8765397e-05
000060 6d 22 62 3d 28 7b 44 3e 79 35 a0 3b f9 4b b9 bd
       0.055208612 0.19187605 0.004889187 -0.09047694
000070 42 f0 0b be d4 46 00 bd 34 8c 71 3e a0 19 4b bd
       -0.1366587 -0.031317547 0.2358864 -0.049584985
000080 67 9a e3 bd 5b 75 2d be a5 0a 96 3d 05 91 e3 3d
       -0.11113434 -0.16939299 0.07326249 0.11111645
000090 6e 41 0a be 92 4b 0a be e4 d7 0b be 7a 4a c6 3d
       -0.13501522 -0.1350539 -0.13656574 0.09682174
0000a0 ab e9 a5 3d 0d 5c 04 be 5a 0f 81 bc a9 34 00 3d
       0.08101209 -0.1292574 -0.01575439 0.03130022
0000b0 4c 59 a4 bd ca 1e 27 3d c8 0b 9c bd 4b c9 1c bc
       -0.080248445 0.040800847 -0.076194346 -0.009569476
0000c0 51 a8 0c be f4 82 89 3c c9 a4 7f 3d 47 dc 09 be
       -0.13736083 0.016786076 0.06241301 -0.13462935
0000d0 ee 6a 56 be a6 ce 76 be 2f 30 9e be 11 c6 4e 3e
       -0.20939228 -0.24102268 -0.30896136 0.20192744
0000e0 ba b6 84 bc 49 e7 cb bd 09 fb 9b be 6f 81 96 be
       -0.016200412 -0.099562235 -0.30464962 -0.29395625
0000f0 19 c4 db 3e 48 63 10 3e 9e 5b a4 bc 29 fa 23 be
       0.42923048 0.14100373 -0.020063218 -0.16013397
000100 d2 b4 83 bd 8a c6 e9 3e 69 ea ec 3e 29 f6 b6 3d
       -0.06430973 0.45659286 0.4627259 0.0893367
000110 1e 7d 95 be 78 d2 ac bd 34 ef eb 3e b6 63 17 3f
       -0.2919702 -0.08438581 0.46080935 0.5913652
000120 a5 05 ab 3e a4 53 e7 bc 09 45 b4 bd 1a d4 9d bd
       0.33402744 -0.028238125 -0.0880223 -0.07706471
000130 95 51 6f bd 27 2c 17 3d 80 34 f1 bc f4 62 09 3d
       -0.058427412 0.03690734 -0.02944398 0.033541635
000140 f8 0f 16 bd 0f c6 15 bc c0 1b 98 3d 82 ba 19 bd
       -0.036636323 -0.009141459 0.07427168 -0.037531383
000150 85 a7 d5 3c de 03 4b bd 69 08 d4 3d 83 99 27 3e
       0.026080856 -0.049564235 0.103531666 0.16367154
000160 11 9b f5 b9 45 7e 5d 3d 32 28 3e bd 6e 9e f0 3d
       -0.00046845575 0.054075498 -0.046425052 0.11748968
000170 e8 e7 8c 3d fa be ba bd 8d f2 1f bd 2a 1b ec bc
       0.0688017 -0.09118457 -0.039049674 -0.028821547
000180 10 30 65 3d 15 d9 08 3d 75 90 cd bd e3 6b d3 bd
       0.05595404 0.03341015 -0.100373186 -0.10323312
000190 16 0f 87 3e d7 a1 69 3e 98 67 c5 3b 65 c6 b8 bd
       0.26378697 0.22815643 0.006024312 -0.09022216
0001a0 ac 7f 1f 3e 55 9a 13 3e e0 8e 4d 3c b6 48 c7 bc
       0.15576047 0.14414342 0.012546271 -0.024326663
0001b0 3b c2 29 be 42 c1 b6 3b 84 ab 32 3e ff ea 97 3d
       -0.16578 0.0055772373 0.1744824 0.07417869
0001c0 9a 91 4e be 70 df 8b be 57 ba d8 bc c0 d4 64 3e
       -0.2017273 -0.27318907 -0.026456041 0.22346783
0001d0 33 78 08 3d 8d ef 6b be 65 46 83 be 8b b8 31 3c
       0.033317756 -0.230406 -0.25639644 0.010847221
0001e0 be da 47 3e 3b d6 5b bd cb be 29 be e4 69 80 be
       0.19517037 -0.053671103 -0.16576688 -0.25080788
0001f0 3e 91 23 bd cf 93 8a bb 2f bf c8 ba 56 20 ab bc
       -0.039933436 -0.004229046 -0.0015315766 -0.020889442
000200 c4 d7 1b 3d 3c 31 ad bb 47 fc b7 bb 23 e2 81 ba
       0.038047567 -0.00528541 -0.0056147906 -0.0009909313
000210 ed a7 d3 3c 75 58 8e ba 59 ba b1 bc 7e 5b 53 bc
       0.02583691 -0.0010860102 -0.021695303 -0.012900231
000220 33 9e 78 bc 01 24 a9 bc 6d 09 1d 3d 95 3b 9c bc
       -0.015174436 -0.02064705 0.038339067 -0.01907138
000230 cf 47 44 bc b1 60 38 bc aa d6 30 ba 14 93 23 3c
       -0.011980011 -0.011253522 -0.00067458546 0.009983797
000240 b6 e2 5e bc e3 5f 07 3d c1 9e 3c bb c3 ed d2 bc
       -0.013603857 0.03305043 -0.0028781148 -0.02574814
000250 0b 4f 64 3c 6f 13 a5 bb 6b c4 3f bd 7b ac a5 bd
       0.013934861 -0.005037717 -0.04681818 -0.08089539
000260 67 b9 71 bd d7 38 4e bd 62 d8 54 bd bb 4f 12 3d
       -0.059014704 -0.050347175 -0.05196417 0.03572057
000270 f7 53 25 bd 1f bd 4b bd c6 f5 bd bb 84 f6 0b 3d
       -0.04036328 -0.049740907 -0.0057971207 0.034170642
000280 91 cd 87 3d 85 d3 6c 3d d6 ad 0d 3d a8 a5 e3 3d
       0.066310056 0.05781891 0.03458961 0.11115581
000290 c1 f7 fb 3d d5 99 5d 3d ad 47 96 3d 43 06 84 3d
       0.12303115 0.054101784 0.0733789 0.06446507
0002a0 25 74 22 3e 00 3e 08 3e 35 c2 8f 3d f2 06 80 3d
       0.15864618 0.13304901 0.07019464 0.06251325
0002b0 49 28 ce 3d 1d 11 13 3e 41 f9 0d 3e 98 42 0f 3e
       0.100662775 0.14361997 0.13864614 0.13990247
0002c0 73 1f 11 3e 93 54 1f 3e 65 6b b9 3c d0 d9 d8 bc
       0.14172153 0.15559606 0.022634218 -0.026471049
0002d0 9c d6 92 3e 21 69 84 3e 3b 30 3a 3e e3 be 80 3d
       0.2867936 0.25861457 0.18182461 0.06286409
0002e0 1d 07 52 bd 91 fd 77 3e ba 09 78 3e 99 24 87 3d
       -0.051276315 0.24217822 0.2422246 0.06598777
0002f0 10 4e e1 bc 91 df b6 bd 5f 2a fb 3c 6a 1f 34 3d
       -0.027503043 -0.08929361 0.030659853 0.04397527
000300 7e 8a ac bd 22 26 89 bd 3e b8 ae bd fe 18 19 bd
       -0.08424853 -0.066967264 -0.08531235 -0.03737735
000310 ff 83 9c bc 93 23 24 be 41 92 17 be 8f 32 ef bd
       -0.01910591 -0.16029195 -0.14801885 -0.11679565

conv_layer1.bias f4 [8]
000000 40 db 91 bb 86 6d b9 3c f4 4c 13 bb 87 68 3c 3c
       -0.0044511855 0.022635233 -0.0022476288 0.011499531
000010 2d dc f9 3c e4 fa 2e bb 1a 19 4a bb c9 f1 e6 3b
       0.030500496 -0.0026699835 -0.0030837716 0.007047866

conv_layer2.weight f4 [16, 1, 5, 5]
000000 c9 60 f6 3b 02 6a 2b bc ea 6b 33 bc 4d 19 23 3a
       0.007518862 -0.010462286 -0.010951022 0.00062217267
000010 94 b6 4e bc 89 dd f7 bb b9 19 10 3c 18 13 1e bd
       -0.012616772 -0.007564251 0.008795195 -0.038592428
000020 ae 71 99 ba ec f8 09 bc f7 0f 2a bc 8d 5b a7 bc
       -0.0011706853 -0.008421164 -0.010379783 -0.020429397
000030 78 6a 21 bc ac 61 f7 bc 36 fc be 3b c7 2b 14 3d
       -0.009852044 -0.03019794 0.0058284057 0.03617456
000040 da 07 4b 3d 15 c3 d7 3c 5e d7 ae bc d9 a2 b3 3c
       0.049568035 0.02633814 -0.02134293 0.021928238
000050 b2 67 1c 3d 46 9e b8 3c 6f 55 70 3c d8 f7 c2 bc
       0.03818483 0.022536408 0.014668806 -0.023799822
000060 65 81 1a b9 33 81 8f 3c 44 df b1 bc a6 da 7d 3b
       -0.00014734788 0.017517662 -0.021712907 0.003873506
000070 d8 98 8c 3b d1 fd 17 bd aa 6e 09 3d 54 22 45 bd
       0.0042906813 -0.037107293 0.033552803 -0.04812844
000080 6d 6b a6 3b e2 f9 8a 3c b0 90 07 3c 60 05 58 3b
       0.005078724 0.016964857 0.008274242 0.0032962188
000090 ea 6e 36 bd b9 0d a1 bc 3a 3d 46 3d 7b a2 6e 3d
       -0.04453937 -0.019659864 0.048398234 0.058260422
0000a0 80 ac 01 bd 11 b5 5b bd de 36 ad 3c 25 a2 c3 3c
       -0.03165865 -0.053639475 0.021144327 0.023881027
0000b0 ce b0 4d 3d 3d 37 f1 ba 4c df 01 bd 7a 58 52 3c
       0.050217442 -0.0018403303 -0.031707093 0.012838477
0000c0 81 e1 ea 3c 07 08 3b 3b 6a 8b ba 3d 3a a1 a0 3d
       0.028671982 0.002853872 0.09108622 0.078432515
0000d0 99 37 16 bc bb 4a a8 bc 7b e9 84 bc 2a 8a 55 3e
       -0.009168529 -0.020543447 -0.016224613 0.20853487
0000e0 ff 6b ab 3d 04 13 e2 bb d2 6a 33 3c 88 a8 4f bb
       0.08370208 -0.0068992395 0.010950761 -0.0031686146
0000f0 bd 0d 63 3e 7c d4 c1 3d bf 5e 02 bd 67 a3 fd 3c
       0.2217321 0.09464356 -0.03182864 0.030961705
000100 06 48 ae bb a3 e9 a7 3d 1f 59 02 3d e4 4d 9c bc
       -0.0053186445 0.081988595 0.031823274 -0.01908011
000110 0d a7 b3 3c 04 07 76 bb b3 ab de 3b 0b 56 80 39
       0.021930242 -0.0037540803 0.0067953705 0.0002447817
000120 19 94 eb bc f4 3b ca bc 73 85 d9 bc 03 2d c4 bc
       -0.028757142 -0.024686791 -0.026552891 -0.023947245
000130 bc 49 0b bd 50 f4 28 3d f9 06 0f 3e c7 b4 e0 3d
       -0.034005865 0.04124862 0.13967504 0.109719805
000140 99 b2 38 3b 4c 13 e5 bc cf 8a ce 3d c1 d2 42 3e
       0.0028182624 -0.027963303 0.100850694 0.19025709
000150 df 59 06 3e 0a 04 cf bc 42 1b 90 3c d6 f1 0d 3e
       0.1312022 -0.02527048 0.017591123 0.13861784
000160 44 54 ee 3d f2 76 9e 3d e1 ad 06 bd be 50 22 3d
       0.11637166 0.07737531 -0.032880668 0.039627783
000170 92 3e dc 3d 32 4c eb 3b a3 c5 e9 b9 85 7d 82 bc
       0.10754122 0.007180714 -0.00044588474 -0.015928993
000180 f8 78 9f bc c1 bb a9 bb 6d e4 c4 bc 05 3a 47 bb
       -0.019466862 -0.0051798527 -0.024034703 -0.0030399573
000190 f4 11 16 3e 4d 92 49 be 76 25 2f be 38 9b 50 3d
       0.14655286 -0.19684716 -0.17104134 0.050929278
0001a0 64 85 f5 bd 18 f2 66 3e 26 35 2b bd 01 6f 36 be
       -0.11988333 0.22553289 -0.041798733 -0.17815782
0001b0 c4 60 05 be d0 98 16 be 61 9d 10 3e 20 39 9f bd
       -0.13025194 -0.14706731 0.14122535 -0.077745676
0001c0 43 a0 86 3e 59 a0 42 3e 1e a2 9d be 37 1d 63 be
       0.26294145 0.1900648 -0.30787748 -0.22179113
0001d0 81 c7 65 be 57 78 a3 3e 41 b8 93 3e 7f cd 1d be
       -0.22439386 0.3192775 0.28851512 -0.15410422
0001e0 a5 b6 69 be fd cf 9a be c4 b6 49 3e 7b 1d b4 3e
       -0.2282358 -0.30236807 0.19698626 0.35178742
0001f0 84 3e 80 3d 2d 97 49 bd ea 98 5e be c6 0e c8 bd
       0.06261924 -0.049216438 -0.2173802 -0.09768443
000200 95 7f 78 3e a3 22 57 3e bc 25 f1 bd 71 4d 1a be
       0.24267419 0.21009307 -0.117747754 -0.15068604
000210 c9 69 55 be b3 50 7b bd ac c8 83 bd 21 8c 4c 3e
       -0.20841135 -0.061356258 -0.064347595 0.1997533
000220 3d 24 8f 3d 6e b9 83 be 29 65 29 be df cb 1e bd
       0.06989334 -0.2572741 -0.16542496 -0.038768645
000230 aa 07 b0 3e 78 3d b2 3e 9f a9 1a be 86 00 28 be
       0.34380847 0.34812522 -0.15103768 -0.1640645
000240 41 99 b0 bd 85 8f 9f 3d 6b 43 17 3e f1 26 85 be
       -0.08622981 0.07791046 0.14771812 -0.26006272
000250 d9 eb 07 bd 01 34 9b bd c0 c0 66 bd 79 ff 9c bc
       -0.033183906 -0.07578278 -0.056336164 -0.019164788
000260 02 98 e8 bc 60 f2 1f bd 8a 0c d3 bc f5 e9 6b bd
       -0.028392795 -0.039049506 -0.025762815 -0.057596166
000270 0c ee 80 bd 78 19 a3 3c cd d1 13 bd 70 48 85 bd
       -0.06295404 0.019909605 -0.036088753 -0.06507957
000280 6d 30 62 3b 08 e9 8f 3d 83 a2 80 3d 42 18 a2 bd
       0.0034513727 0.07026869 0.06280997 -0.07914783
000290 e7 c3 56 bd 2b 8a 57 3d 76 11 ee 3d 1c 69 b3 3d
       -0.05243292 0.052622 0.11624424 0.087602824
0002a0 ec b3 92 bd 68 85 2c bd 44 3b 58 3d e7 53 de 3d
       -0.071632236 -0.042119414 0.052790895 0.10855847
0002b0 b0 da 21 3d 36 3a a3 bd 68 3b 4d bd 8e 30 40 bd
       0.039515197 -0.07970087 -0.050105482 -0.046921305
0002c0 f1 3c ef bc c6 80 97 3d 41 bf 81 3d e0 bb fa 3a
       -0.029203864 0.073976085 0.06335307 0.0019129477
0002d0 e2 73 87 bc fc 00 89 bc 1a 68 75 3b 95 2e 92 bc
       -0.01653475 -0.016724102 0.0037446083 -0.017844478
0002e0 4c fa e1 bc 51 59 cb ba bb 30 3f bc 75 63 c3 bc
       -0.027585171 -0.0015514289 -0.011669333 -0.023851136
0002f0 2e cc 51 bd ff e7 0c bd 63 f2 ac 3d 24 69 90 bc
       -0.05122011 -0.034400936 0.08444669 -0.01762826
000300 30 78 8f bc 99 68 04 bd 8f 7e 61 bd c4 92 c1 3d
       -0.017513365 -0.032326315 -0.055052336 0.094518214
000310 25 a5 ab 3b cc 0f 06 bc 83 fc a2 3a 7f 4a d1 b8
       0.0052381926 -0.008182477 0.0012434873 -9.9797726e-05
000320 fe 47 89 bd 80 d8 c5 3c 37 96 0b be a9 92 88 bb
       -0.067031845 0.024151087 -0.13631521 -0.004167874
000330 d9 d3 08 3e f6 51 cd bd 0c c9 87 3c 37 ad ff bd
       0.13362063 -0.100253984 0.016575359 -0.1248421
000340 77 87 33 3e 3e 05 a0 3e 06 1a 54 bd 2d 50 db 3d
       0.17532144 0.31254 -0.05178263 0.10708652
000350 4e d6 13 be af 15 0a 3e 9d b8 95 3e d1 7f 87 bd
       -0.1443722 0.13484834 0.2924241 -0.06616176
000360 04 13 ae 3d b1 d4 f6 bd b3 db be 3c 65 fe fd 3d
       0.08499721 -0.120522864 0.02329812 0.124020375
000370 30 ff 91 bd 38 b8 25 bd ac 53 9e bd a5 de be bd
       -0.07128751 -0.040458888 -0.07730803 -0.0931981
000380 a9 c7 a4 bd 20 31 1b 3d 7b 23 83 bd 39 bb b0 bd
       -0.08045895 0.037888646 -0.06403252 -0.0862946
000390 b7 f5 65 bd ef 82 11 bd f8 94 ca 3b 32 88 e4 bb
       -0.056142535 -0.03552526 0.0061823092 -0.0069742436
0003a0 0c 5f d6 bd 44 22 6f bd 14 7c 38 bd a9 18 be 3d
       -0.104673475 -0.058382288 -0.045040205 0.09282047
0003b0 2c ce 4c 3d 77 11 ec bd d0 33 8f bd 13 50 98 bd
       0.05000131 -0.11526769 -0.06992304 -0.07437148
0003c0 bc 84 7c 3e 3a 39 0a 3e fd 07 f4 bd a6 53 c2 3c
       0.24660009 0.13498393 -0.11915586 0.023721527
0003d0 40 4d 8d bd 8b 1e 88 3e cf 1e 03 3e 61 9b 23 be
       -0.068995 0.26585802 0.12804721 -0.15977241
0003e0 78 84 d8 3c 82 b6 8c bd 94 58 d5 3b 72 27 bf 3b
       0.026430354 -0.06870748 0.0065108035 0.0058335597
0003f0 1c 68 d3 3b 8e 43 b5 bb dc 8d 24 3b 9c 6b 5c bc
       0.00645162 -0.005531735 0.002510897 -0.01345339

conv_layer2.bias f4 [16]
000000 fc ba 4f bc 04 9e 8b bc b6 84 23 bc f0 1d 58 bc
       -0.012678858 -0.017043121 -0.009980371 -0.013190731
000010 ba e3 5b 3c ff 9e ab 3b 08 53 81 bb 63 05 ff bb
       0.013420993 0.0052374597 -0.0039466657 -0.0077826246
000020 33 8d 19 3c a4 fd d7 bb b9 96 46 3c 20 bf 2d bc
       0.009372043 -0.0065915156 0.012120896 -0.01060465
000030 c6 65 25 bc 77 e8 5a bc 1e 42 54 3c 13 56 08 3a
       -0.010095065 -0.013361088 0.012955217 0.00052008143

fc1.weight f4 [120, 576]
000000 d9 95 9e bb 7d 92 c8 bb 88 bf c2 ba 76 7c dc ba
       -0.0048396406 -0.0061209784 -0.0014858106 -0.001682176
000010 30 e8 aa 39 d9 7a 03 bb b8 63 1e 3b 1c bd 81 ba
       0.0003259792 -0.0020062237 0.0024168324 -0.0009898278
000020 a3 29 c2 ba 0b 05 d4 ba b8 ae d2 ba 8b 48 4e bb
       -0.0014813434 -0.0016175819 -0.0016073799 -0.0031476344
000030 38 6f 08 3b 24 25 24 bb da 0c c7 ba c3 d3 e7 ba
       0.0020818245 -0.0025046552 -0.0015186325 -0.0017687011
000040 bb 5e 54 3b 9c 2a 41 bb bf 21 cb bb dd 87 a7 bb
       0.0032405097 -0.002947486 -0.006199091 -0.0051126317
000050 a4 06 cb ba 30 a0 5e bb 7a e6 c3 ba dc 95 43 bb
       -0.001548965 -0.003396999 -0.0014946007 -0.0029843962
000060 33 af b6 bb 99 d6 09 bc 95 35 8f bb 4f 75 96 bb
       -0.0055750846 -0.0084129805 -0.004370401 -0.004591621
000070 b0 e9 08 bb 85 a3 ad bb 47 3a 1f bb ef ba 4a bb
       -0.0020891242 -0.005299034 -0.002429621 -0.0030934175
000080 a3 9a 08 3b 72 c4 a4 39 3d 17 5c bb 07 bc 4c bb
       0.0020844124 0.0003142688 -0.0033583187 -0.0031240003
000090 70 82 80 3b a9 8c 57 ba 75 3c aa ba 9e 1b fb 37
       0.0039217994 -0.0008222559 -0.0012987988 2.9934392e-05
0000a0 80 db 12 bb bc d4 dc 39 83 77 6e bb c7 9f a6 bb
       -0.0022408664 0.0004212017 -0.0036387153 -0.005084965
0000b0 9d 83 c1 bb a0 e5 a6 ba e5 9c 36 bb a8 0e da ba
       -0.005905582 -0.0012733229 -0.0027864513 -0.0016636448
0000c0 04 8d b5 ba 60 15 51 bb 92 81 f3 bb 9a 01 5c 3b
       -0.001385123 -0.003190361 -0.0074312175 0.003357029
0000d0 ea 0b 65 bb 0a 84 d1 3b 3f ec 41 bb a5 1c 94 ba
       -0.0034949728 0.006393914 -0.0029590277 -0.0011300041
0000e0 5d 94 e1 3a d2 e2 01 bb db 0a d3 38 64 cd 8d 3b
       0.0017210353 -0.0019819033 0.00010063286 0.004327463
0000f0 5a 85 4b bb 60 c1 80 bb 21 72 a0 bb 25 d8 ba ba
       -0.0031054826 -0.003929302 -0.0048964177 -0.001425509
000100 4e 55 17 3b 07 1b 2b 3b 3e 23 fc ba da 62 01 bb
       0.0023091617 0.002610864 -0.0019236577 -0.0019742758
000110 81 ce 82 bb eb 3b 6f bb b7 e8 2c bb c2 19 e5 b8
       -0.0039919023 -0.003650422 -0.0026383826 -0.00010924369
000120 9c 23 7f bc 42 06 8d bc 9c 46 0b 3b 94 c4 b5 3b
       -0.015572455 -0.017214898 0.0021251803 0.0055471156
000130 ed 76 1d 3b 14 ff 23 b9 88 28 8d bc c9 aa 38 bc
       0.0024027184 -0.00015639915 -0.01723124 -0.011271187
000140 75 2b 37 bb b4 3f 14 bb bd 32 8e 3b d3 a2 04 39
       -0.0027949486 -0.0022620978 0.0043395446 0.00012649158
000150 1b fb 51 bc d4 e3 47 bc 9a 43 71 bc 5c d0 09 bc
       -0.012816216 -0.012200315 -0.01472559 -0.008411493
000160 b5 8a 65 bb 19 96 5c 3c 7f b2 0f bc 8a c2 22 bc
       -0.0035025303 0.01346352 -0.008770584 -0.009934077
000170 e8 a7 4c bb 8a c0 03 bc 80 e3 4c bb b9 12 e9 3c
       -0.003122801 -0.00804151 -0.003126353 0.02845131
000180 cf fc d3 bc 1f 6c a8 bc 2c 04 90 ba d6 5e 10 bc
       -0.025877384 -0.020559369 -0.0010987571 -0.008811673
000190 4d 7b 06 bb 16 a4 a6 3c 89 a1 ed bc b1 b8 bb bc
       -0.002052027 0.020341914 -0.02900769 -0.022915216
0001a0 6d 56 4b bc f2 61 b4 bb a9 0e 15 bc ed 59 25 3a
       -0.012410742 -0.00550484 -0.009097734 0.00063076505
0001b0 d9 ae 25 bc d3 ce 68 3b 1d c2 0e 3b be 68 bb 3b
       -0.010112488 0.0035523667 0.002178318 0.0057192734
0001c0 10 2a 5f ba 79 d5 ce ba 77 31 16 bc f7 c0 0a bb
       -0.00085130427 -0.0015780173 -0.009167067 -0.0021172145
0001d0 64 aa 6e ba c3 0f 1e 3a ff d1 21 39 fb c4 48 bb
       -0.00091043697 0.00060295704 0.00015432386 -0.0030634988
0001e0 94 a8 60 bc e4 2e 6d bc da 41 1d bc 32 b9 15 3b
       -0.013712067 -0.014476512 -0.00959822 0.002284598
0001f0 8c f2 27 3c b5 e9 0f 3b 09 7e 56 bc 04 a2 21 bb
       0.010250699 0.0021959369 -0.013091573 -0.002466322
000200 ac d8 95 bc 78 20 8e 3b c6 25 fc 3c 01 0a 90 3c
       -0.018291794 0.0043373667 0.03077973 0.017582895
000210 19 19 83 bc ac 6c 0a bc 8b cc 44 bc 7c 27 30 3c
       -0.016003178 -0.008448761 -0.0120116575 0.010751601
000220 c7 50 b4 3c 84 53 a8 3c 8b dd a3 bc 10 98 91 bc
       0.022011174 0.020547636 -0.0200031 -0.017772704
000230 14 93 1a bc 99 78 72 bb 5a 7e 53 3b 6e 64 81 bb
       -0.00943448 -0.0036998151 0.0032271356 -0.0039487397
000240 e4 64 19 3d 68 59 ed bc ef 5e 5b bd c6 b9 ad 3c
       0.037449732 -0.028973296 -0.053557333 0.021206748
000250 76 e8 5f 3c 79 a7 f4 bc 31 a9 4b 3b a2 23 5e 3c
       0.013666263 -0.029865013 0.0031076188 0.0135583
000260 61 2f d2 bb a8 32 fd 3c 28 f6 08 3c fe 6f 1f bd
       -0.0064143394 0.030907944 0.0083594695 -0.038925163
000270 e6 18 3c 3c 62 72 25 3c d7 4b 52 bc 56 9a 91 3d
       0.011480546 0.010098072 -0.012835464 0.07109515
000280 97 d2 f9 3c f1 9a 17 bc 72 5a 31 bb 03 3a 58 bc
       0.030495925 -0.0092532495 -0.0027061966 -0.013197425
000290 3f 3c 40 bd a6 f4 13 3d b9 52 70 3c ef 82 cc bc
       -0.046932455 0.036121987 0.01466816 -0.024964778
0002a0 e9 8c 5f 3c 46 a6 c6 bc d0 e9 74 3a bf a2 79 bc
       0.013644435 -0.024249207 0.0009342702 -0.015236556
0002b0 c4 74 03 bd 13 f4 a0 bc 4a a0 91 3d 9f a7 b3 3c
       -0.03209378 -0.019647634 0.07110651 0.021930514
0002c0 ce c6 66 bb 8a 78 37 3c 86 bc b7 bc 80 37 a5 bc
       -0.0035213712 0.011198172 -0.022428762 -0.020168066
0002d0 e3 24 8c bc f7 cd 7f bc a0 05 82 bb 6a 2c 44 bc
       -0.017107433 -0.015613071 -0.0039679557 -0.01197348
0002e0 84 76 91 bb 81 b8 a9 b8 98 4e 45 3b 0a c3 89 bc
       -0.004439177 -8.0929145e-05 0.003010666 -0.016816635
0002f0 60 a9 22 bc 8c 21 ad bc 66 54 49 3c 55 1d 12 3d
       -0.009928077 -0.02113416 0.012288189 0.035672504
000300 a2 6c ce bb 90 d3 78 3c 3d eb fb 3c bb bc 8f bc
       -0.006299571 0.015187159 0.030751819 -0.017546048
000310 e4 84 ec 3c 82 22 d0 bb 7a a0 55 3b 01 4d 56 3c
       0.028871961 -0.00635177 0.0032596872 0.013079883
000320 1a c2 f2 3c 35 5b 81 bc 24 23 05 bd de c8 00 3c
       0.02963357 -0.015790561 -0.032504216 0.0078603905
000330 44 28 21 3c 75 63 77 bc a6 95 2c 3c 86 31 86 3c
       0.00983626 -0.015099396 0.010533726 0.016381036
000340 f1 06 64 bc 10 6f 87 bb 83 62 2b 3c 7f dc 62 3d
       -0.013917671 -0.0041331127 0.010460499 0.055386063
000350 99 fe 89 bc ef 36 6b 3c 9b 86 cb 3c ac 67 2a bc
       -0.016845034 0.014356359 0.024844458 -0.010400694
000360 ba 79 3a bc f6 78 54 bb 23 f5 a9 3b 16 0c cc bb
       -0.011381561 -0.003242073 0.0051866933 -0.0062270267
000370 0f 3b 92 bb 1e b4 17 bb 60 cf da bb 1b 3c f9 bb
       -0.0044626067 -0.002314813 -0.006677553 -0.007606042
000380 b3 33 31 bb fd d2 4d bc 07 6a cd 3b a0 8b a9 b9
       -0.0027038872 -0.012562511 0.006268743 -0.0003233822
000390 f6 51 a3 ba 8b 91 47 3c 63 18 3e bc e2 d5 b1 b9
       -0.0012460339 0.012180696 -0.011602494 -0.00033919426
0003a0 e6 f9 83 38 72 bd 84 3b a0 bb 1d bb e3 eb 1c 3b
       6.293114e-05 0.004050904 -0.0024068132 0.002394431
0003b0 e8 af 95 bb a5 50 03 bc ad f9 0d bc a1 7f b3 ba
       -0.004568089 -0.008014833 -0.008665484 -0.0013694653
0003c0 a6 bd 75 bc aa e4 08 bc 2a 68 6a 3b df b4 bd bb
       -0.014998829 -0.008355299 0.0035767653 -0.005789384
0003d0 d8 3a 21 bb 15 a3 d5 bb b2 0c d5 bb ab ad 5c ba
       -0.0024601724 -0.006519685 -0.0065017575 -0.00084182125
0003e0 d6 f1 40 36 c3 62 33 bb 97 4f 60 ba 81 04 57 bb
       2.8750997e-06 -0.00273721 -0.00085567817 -0.003280908
0003f0 87 6e 9f b9 68 cb 72 3b 7b e2 f6 3a d2 b0 b9 3a
       -0.00030409193 0.003704751 0.0018835807 0.0014167076

fc1.bias f4 [120]
000000 1f 76 2f bb 81 ec be b9 53 c2 40 3b 58 6b 8f 3b
       -0.0026773287 -0.00036415833 0.0029412701 0.00437681
000010 d8 a4 7d 3b 98 01 31 b9 c0 55 16 3b ce 98 b0 3b
       0.003870299 -0.00016880629 0.0022939295 0.0053893095
000020 b8 66 68 3b 7c c6 da b9 c5 08 97 ba de 15 13 bb
       0.0035461616 -0.00041728083 -0.0011522999 -0.0022443454
000030 88 c9 7d bb 8f 65 de 3b ba 23 f0 3a 40 1a 05 bb
       -0.0038724858 0.006787009 0.0018321194 -0.0020309836
000040 34 01 9f ba b3 69 10 bb e1 81 de 39 7a 29 34 bb
       -0.0012131096 -0.0022035658 0.00042439907 -0.0027490542
000050 69 06 88 bb ae 3f 81 ba 5c 7b bf ba 52 4c 41 3a
       -0.004151155 -0.0009860897 -0.0014608908 0.00073737383
000060 6e 6e 8d ba 1e 2e 37 bb 33 be eb 3a 2a 82 05 3b
       -0.0010790357 -0.0027951072 0.0017985761 0.0020371773
000070 b9 bc 60 3b be 86 33 ba c7 83 27 b9 72 e7 19 ba
       0.0034292175 -0.0006848386 -0.00015975452 -0.0005870975
000080 26 3f 07 bb ae a6 94 3c 2e 48 47 3b a5 5f 20 ba
       -0.0020637005 0.018145885 0.0030408013 -0.0006117768
000090 01 aa a4 3a 75 b2 66 3a ee 2f 05 b8 8b 77 a1 bb
       0.0012562872 0.0008800396 -3.175431e-05 -0.0049275807
0000a0 73 90 cb 3a e8 97 40 3c 69 51 e9 ba 9d bc c8 b9
       0.001553072 0.011754967 -0.0017800751 -0.000382875
0000b0 8a 75 54 bb d9 f6 6a 3b a3 91 97 b9 c1 71 f8 bb
       -0.0032418692 0.00358527 -0.00028909472 -0.00758192
0000c0 44 e9 40 ba 34 74 38 39 ff 0d cc 3a a4 cc b0 3b
       -0.0007358978 0.00017590896 0.0015568136 0.005395489
0000d0 30 20 06 3b 35 ad 8d 3b e7 83 f4 3a fb ba d0 bb
       0.0020465963 0.0043236264 0.0018655033 -0.006369946
0000e0 98 20 d2 ba bd 7e 92 ba 59 70 89 3a 2a 3c 9a 3a
       -0.0016031442 -0.0011176687 0.0010485753 0.0011767198
0000f0 92 04 b1 3b 4a 95 53 3b 1c b1 0a 3c 48 62 48 bb
       0.005402156 0.0032285028 0.008465078 -0.0030576158
000100 e8 fc 52 38 9e 12 43 3a f7 e6 96 ba 6a 87 cb ba
       5.030344e-05 0.0007441434 -0.0011512925 -0.0015528027
000110 81 b7 39 bb c1 d3 df 3a 9d dd 4e bb 2e 32 0c 3b
       -0.0028338137 0.0017076657 -0.0031565197 0.0021392214
000120 2a 0f 44 3c 5a c1 28 bb 7c 14 d3 3b 9c 52 84 bb
       0.011966506 -0.0025750012 0.006441651 -0.004038168
000130 eb 8a 15 3c 64 13 e8 3b a6 e3 97 ba cc da 02 3c
       0.009127359 0.0070823897 -0.001158823 0.007986736
000140 e1 21 29 3a f5 24 ba ba bc e3 7a 3b f5 fc 04 3c
       0.0006451887 -0.0014201688 0.0038282713 0.00811695
000150 a7 d3 e5 ba 6e 7d 22 bb e6 c1 e5 ba 72 44 69 bb
       -0.0017534391 -0.0024794 -0.00175291 -0.0035593775
000160 4b 6c 95 3b 71 24 61 3c a7 a6 17 bb 6d c3 ce 3a
       0.0045600287 0.013741598 -0.0023140104 0.0015774794
000170 fc ba c3 ba 86 ab c3 ba 94 ef f4 b9 27 6c c9 ba
       -0.0014933045 -0.0014928437 -0.00046717806 -0.0015367315
000180 74 41 92 bb 58 82 18 bb 81 c1 a6 ba 52 6a 0d bc
       -0.004463369 -0.002327105 -0.0012722464 -0.008631306
000190 75 92 28 ba 0b 88 ec 3a 55 6e 9c 3b ae cd 94 3b
       -0.0006430515 0.0018045915 0.004773895 0.0045411205
0001a0 55 b5 48 ba 19 5a a1 bb 82 3d a8 3a e0 cb c4 ba
       -0.0007656415 -0.0049240706 0.0012835714 -0.0015014373
0001b0 5e e7 de 3b 7e e2 af 3a 7f 0a b1 3a 6b 39 27 39
       0.0068024835 0.001341894 0.0013507156 0.00015947751
0001c0 d0 d8 cc b9 46 55 dd ba 10 e9 04 bb 78 60 84 bb
       -0.0003907145 -0.0016886375 -0.0020280518 -0.0040398203
0001d0 1c f1 23 3c e3 00 bf 3a 3c e7 cf 3b a1 a9 da 3b
       0.010006215 0.0014572408 0.006344704 0.0066730534

fc2.weight f4 [80, 120]
000000 91 6b 1c bb 52 43 46 3c 36 3d cd bc 4d 8f 42 3c
       -0.0023867826 0.012101011 -0.025053602 0.011874986
000010 60 5c fb bc c6 d3 4a 3a ba 3d 8b 3c d0 fe d8 ba
       -0.030683696 0.0007737245 0.016997207 -0.0016555432
000020 2c 2a 0d 3d 6b cc 78 3b cd 19 93 bc 2a e3 a2 bc
       0.034464046 0.003796364 -0.017956639 -0.01988371
000030 e3 2c 16 3c ca e1 fd 3b c0 fe 63 3b 94 f1 21 3d
       0.009165975 0.0077478634 0.0034789294 0.039537027
000040 90 60 64 bb 93 34 90 3c f6 ea 94 3c 6d de 84 bc
       -0.0034847595 0.017603194 0.018178444 -0.016219342
000050 8d e4 ac bc e7 0d a1 3c a2 e0 ec 3a 7f cf f8 bb
       -0.021105075 0.01965995 0.0018072317 -0.007593095
000060 54 77 51 3c 13 ca c9 3c 39 34 bd bb 8e 2a a9 ba
       0.012784798 0.02463249 -0.0057740477 -0.0012906359
000070 87 6d 58 bc 5b a6 90 bc b1 8b 8d bc 7f 66 29 3d
       -0.013209707 -0.01765745 -0.017278524 0.041357514
000080 e7 d8 b0 bc d2 c3 6f bb ab 42 ab 3c 33 6b 30 bd
       -0.021587802 -0.0036585224 0.020905813 -0.043070983
000090 71 80 bc 3c 3c 61 99 bc 7f 8c 3b bc 6b f3 27 bd
       0.023010464 -0.018723123 -0.011447071 -0.041003626
0000a0 07 ed 50 bd 37 c1 6f 3d 27 f6 74 3b 29 42 98 3c
       -0.051007297 0.058533873 0.0037378164 0.018586235
0000b0 b4 3f 01 3c b9 ef 3a 3c d4 bb a0 bb ca 75 29 3d
       0.007888723 0.011409693 -0.0049052034 0.041372098
0000c0 56 f9 87 3d 04 f1 10 3d d6 b6 09 bc 46 62 2c 3d
       0.06639354 0.0353861 -0.008405408 0.04208591
0000d0 ab 08 93 3c 90 f2 9d bc 0d bd 67 3c 5d d9 26 3c
       0.01794847 -0.019280702 0.014144194 0.010183659
0000e0 77 d4 b6 bb c2 37 17 bd ea ab 04 3b db 06 e1 bc
       -0.005579527 -0.03691841 0.002024407 -0.02746909
0000f0 39 7f 49 3b 50 18 27 bc fc 9c 8c 3d be 38 02 bb
       0.0030745997 -0.010198668 0.0686588 -0.0019870247
000100 e1 13 3b bb 42 13 15 3c 6d 2b 5d bc 52 4c 82 bc
       -0.0028545784 0.00909883 -0.013499123 -0.015905533
000110 dd d1 27 bd 7a 61 10 3d 49 71 8a bc 0f 15 68 3d
       -0.040971626 0.03524921 -0.016899722 0.056660708
000120 58 75 ec 3b b2 6e a1 3c 32 c1 4c 3b 16 ed 7f 3c
       0.007216137 0.019706104 0.0031243083 0.015620491
000130 cf e5 aa bc af 4e 35 3c fb 9a db 3c 0d 8d 3b bd
       -0.020861534 0.011066123 0.026807299 -0.045788813
000140 45 ca 32 3d f9 93 d6 3c 91 40 7e ba 44 76 9d 3b
       0.04364993 0.026193606 -0.0009698952 0.004805358
000150 91 3f c1 bb b6 8e 8e bc d4 56 03 bc 59 a5 d4 3c
       -0.0058974703 -0.017402034 -0.008016307 0.02595775
000160 8f 29 89 3c d7 a9 07 3d c3 26 97 3b e3 f3 d0 3c
       0.01674345 0.033120956 0.004612775 0.02550692
000170 29 04 30 3d f0 26 97 3d 9c cf 2c bc 3f 36 8f 3a
       0.042972717 0.073804736 -0.010547545 0.0010926201
000180 0e be 95 3b 2d 56 8e bb af 10 cd 3c b1 28 40 bc
       0.0045697754 -0.004343769 0.02503237 -0.011728452
000190 9f 2f fa bb 73 93 f9 ba af cc 83 bc eb d9 a2 3d
       -0.0076350714 -0.0019041136 -0.016088812 0.07951721
0001a0 85 dc 01 3c 4d d6 1c bd 81 6f 19 bc 31 af a7 3b
       0.007926111 -0.03829031 -0.0093649635 0.00511732
0001b0 b9 08 03 bd 55 cd d6 ba 95 df a7 3b 0b f9 91 bd
       -0.03199074 -0.0016388098 0.0051230886 -0.07127579
0001c0 eb 83 41 3d 24 a9 45 bc 55 54 f3 3c b2 c3 d3 bb
       0.047244947 -0.012064252 0.029703299 -0.0064625377
0001d0 b3 0e b1 3c b3 e4 0e bc 53 48 cc bc a1 08 43 3c
       0.021613454 -0.008721518 -0.02493683 0.011903913
0001e0 10 f0 fd bc a9 f5 e8 bc 82 01 0d bb 7f 8e 73 3b
       -0.03099826 -0.028437452 -0.0021515791 0.0037163792
0001f0 a3 ab b4 3b b7 c9 97 3c e1 b1 a2 3a 0d f2 c0 bc
       0.0055136248 0.018528802 0.0012412631 -0.023552919
000200 8a 8f 02 3d 06 2f ab bb df 0c 22 bd 81 3e fb 3c
       0.03187517 -0.0052241115 -0.039563056 0.030669453
000210 f5 0f 61 3c 54 74 8f bc e2 86 92 bb 40 6d 4e 3d
       0.013736715 -0.017511524 -0.0044716457 0.050397158
000220 f0 07 f1 3c c1 6f ee 3c 21 d4 de 3b ba 12 62 bc
       0.02942273 0.029106023 0.00680019 -0.01379841
000230 93 0d 3c bd 46 8e c8 bc 98 41 2d bb d3 b6 50 3d
       -0.045911383 -0.024481904 -0.0026436802 0.050955605
000240 e0 3f 38 3b 6e af 72 3c ad ff 49 3c c9 12 a8 3b
       0.0028114244 0.0148123335 0.012329024 0.0051291925
000250 b8 85 f7 bc db 56 c1 3c ef e2 64 bb b5 a5 81 3d
       -0.03021513 0.023600986 -0.0034925302 0.06330434
000260 58 c1 47 3d 61 ac 88 bc a5 81 b4 bc 69 bc b4 3b
       0.04876837 -0.01668376 -0.022034476 0.0055156243
000270 26 62 4b 3d 39 8c 88 bc 42 b8 a5 3b 5a f1 1e bb
       0.04965415 -0.016668426 0.0050573656 -0.0024252743
000280 ac 5a 80 3d 96 46 0a 3d a0 33 07 3c 07 a5 95 3c
       0.06267294 0.033758722 0.008252054 0.018267168
000290 43 c1 d6 bc 02 0c 97 3c c9 b5 17 bb 8d b2 19 bd
       -0.026215201 0.018438343 -0.0023149124 -0.037523795
0002a0 3e ac 62 3c 18 08 59 3c d0 8b 64 bc 42 42 7a bb
       0.013835011 0.013246559 -0.0139493495 -0.0038186465
0002b0 6c 54 06 bd 5d 9c 2c 3b a9 fb 47 3c 09 d3 d6 3c
       -0.032795355 0.0026338317 0.012205997 0.026223676
0002c0 77 2a ae bc 76 22 a3 bb da ae 61 3b 26 58 39 3d
       -0.021260483 -0.0049784733 0.0034436495 0.04525008
0002d0 ba 96 01 bc 4c 27 de bc fa f6 00 bd c7 aa cd bc
       -0.007909471 -0.027118348 -0.031485535 -0.025105847
0002e0 01 ad ec 3c 39 24 2f bb 6e 58 96 3c ec 57 ce 3c
       0.028891088 -0.0026724471 0.018352713 0.025188409
0002f0 5b 3e 11 bd 24 64 07 bc 2b e7 3f 3d e0 a2 fc 3c
       -0.035459857 -0.0082636215 0.04685132 0.030839384
000300 73 f3 ce 3a c7 4e ed bc 7e 8f 0d 3d 88 e4 1a 3c
       0.0015789106 -0.028968228 0.034560673 0.0094539
000310 70 98 03 3d 47 44 e7 bc 1b 25 a2 bc cf e6 84 bd
       0.032127798 -0.0282308 -0.019793084 -0.06489336
000320 d5 a4 cf bc b3 de e1 bc 68 ec 68 bc 06 3b 87 bc
       -0.025347153 -0.027572012 -0.01421652 -0.016507637
000330 89 1a 7e bb 59 2a d2 3b 7b 2c 9c bb 82 8f e1 3b
       -0.003877314 0.0064137396 -0.0047660447 0.0068835625
000340 72 82 23 bd c4 93 01 bd 93 7c b3 ba 42 44 71 3c
       -0.039919324 -0.03163506 -0.0013693742 0.014725747
000350 6a 9b 7e bb 5d 2d 04 bd c7 12 1b 3c fa 42 82 bc
       -0.0038849958 -0.032269824 0.009464926 -0.015901078
000360 95 b1 42 bd 4f ab 24 3d 2b 4f ad 39 02 42 fb 3b
       -0.047532637 0.040202435 0.00033056116 0.007667781
000370 c8 d6 34 3d 96 d0 4f bb 0e e9 06 bd bb 1d 70 3c
       0.044150144 -0.003171002 -0.032937102 0.014655526
000380 e6 8a 3d 3d 79 07 e1 3b ec 2a b0 3c 5a 8e 21 bb
       0.046275042 0.006867346 0.021504842 -0.0024651499
000390 05 e5 0a 3d 0d 3f 83 bb cd af dc 3a e2 a2 b2 3d
       0.033909816 -0.004005319 0.0016837061 0.08722474
0003a0 e9 c3 8d 3c 38 26 cc 3d 35 1d 98 bc f8 a7 67 3d
       0.017305331 0.09968227 -0.018568614 0.05655667
0003b0 bc 3d 0b 3c a6 54 4e 3d 00 07 36 bd 23 e9 23 bd
       0.008498605 0.050373696 -0.04444027 -0.04001726
0003c0 1d 7d 02 bd 3f 39 f5 3b 5f 35 02 3b ac 85 eb 3c
       -0.0318576 0.007483631 0.0019868237 0.028750263
0003d0 85 98 5f bc 65 3d 10 bd 80 92 84 bc ea e4 c6 3d
       -0.013647203 -0.0352148 -0.016183138 0.09711631
0003e0 8b fc 02 bc 57 06 19 3b 77 a4 c0 bb ac 06 90 bb
       -0.007994781 0.0023349726 -0.0058789807 -0.0043953266
0003f0 b5 99 1f 3b 67 3a 09 bd b9 89 ac 3a 8b db 07 bc
       0.002435309 -0.033502962 0.0013163603 -0.008292089

fc2.bias f4 [80]
000000 68 0e f3 3a fa 80 47 ba e7 f0 83 3c be df 51 bb
       0.0018543722 -0.00076104666 0.016106082 -0.003202423
000010 9a cb e1 3c c8 37 7d bb 49 40 8c ba 8e 8f 55 39
       0.027562905 -0.0038637985 -0.0010700311 0.00020366741
000020 c9 11 1d 3c b4 be 01 3c 5e 8a 7f bc 48 5a 77 38
       0.00958676 0.007919002 -0.015596954 5.897347e-05
000030 64 d9 8d bb 40 d4 a8 ba 4c a2 6f ba b1 67 bb 3c
       -0.0043288935 -0.0012880638 -0.00091413106 0.022876592
000040 73 1c ad 3c 5c f2 a0 3b da f7 a9 3a ad 99 0b 3c
       0.02113173 0.004911704 0.0012967542 0.008520526
000050 23 a0 0b bc a4 ad 80 3c 32 7e a7 bb 93 67 85 3a
       -0.008522066 0.015707798 -0.005111479 0.0010177962
000060 27 93 88 ba 24 0d 5f 3b f3 15 fa bb dc dc c1 39
       -0.0010419831 0.0034034932 -0.007632011 0.00036976382
000070 97 9c 02 3c f3 27 2e 3b a3 17 49 bc c6 af ea 3c
       0.007971904 0.0026574105 -0.012273702 0.028648268
000080 aa 58 09 bc 1e cf d9 3a 34 b4 28 3b d1 ee 88 3c
       -0.008382956 0.0016617512 0.0025742175 0.016715439
000090 e2 05 12 bc 46 ee 46 3b a1 8f 9a bb f7 49 6e 3c
       -0.008912535 0.0030354424 -0.004716829 0.014544002
0000a0 73 d4 0f 3c a3 01 98 3b 8d 1e 5f 3c b3 25 81 bc
       0.008778679 0.004638867 0.013618124 -0.015765047
0000b0 9a 8d 37 bb 98 03 cf bb 9f 6e 8f 3b 0a 86 30 3b
       -0.0028007985 -0.006317567 0.0043772007 0.0026935362
0000c0 f3 3a b5 3c 01 86 f7 bb 75 5d 26 bc ca 6d 23 3b
       0.022122836 -0.0075538163 -0.010154118 0.0024937266
0000d0 38 4d ba 39 49 72 5e 3c 43 08 b4 3b 15 ea 14 3c
       0.00035534217 0.013577052 0.005494149 0.009089013
0000e0 21 68 13 3c 3e 1d 23 3b 68 06 57 3c dc 3a d5 3b
       0.008996994 0.0024889256 0.013124086 0.0065072607
0000f0 ba 06 29 3b ad f9 05 bc 7d 00 98 3c 7c f1 92 3a
       0.0025791363 -0.008177203 0.01855492 0.0011210884
000100 20 e3 4b bb b9 1c 1d 3c db b5 89 3c 70 bc 25 bc
       -0.003111072 0.009589368 0.016810348 -0.010115728
000110 bc db bc 3b 6f 80 a2 3c 58 f4 5b 3c 7e 23 c8 3b
       0.005763499 0.019836633 0.013424955 0.0061077466
000120 74 8c c2 3b b4 a6 86 bc 4f 11 44 3c 36 58 0a bc
       0.0059371535 -0.016436912 0.011967017 -0.008443883
000130 05 f9 4c ba c5 d8 56 3b 10 f9 62 bb 8b 3b af 3b
       -0.0007819089 0.0032783013 -0.0034633316 0.0053476742

fc3.weight f4 [38, 80]
000000 b8 47 e7 bc 96 2b 48 3d 82 47 c1 bb f8 98 94 bb
       -0.02823244 0.04886969 -0.005898417 -0.004534837
000010 bd b4 04 bd 36 02 30 bd 6d 17 39 3d 7f 40 7e 3d
       -0.032398928 -0.04297086 0.045188356 0.062073227
000020 64 50 84 bc 5d 66 09 bd a1 81 81 3d dd a6 bc bc
       -0.016151614 -0.033544887 0.06323553 -0.023028785
000030 66 93 ee 3d 46 94 0c 3d e8 97 c3 bc 6c 1d 87 b9
       0.11649208 0.034321092 -0.023876145 -0.00025771128
000040 b6 68 4a 3c d8 db be 3d e0 ba 83 3d b8 ea d3 bc
       0.012354067 0.093192756 0.06432128 -0.025868759
000050 5c 80 43 bc 3a 23 d9 bc df a1 75 3d 92 41 a0 3d
       -0.011932459 -0.026506055 0.059968825 0.078250065
000060 b8 aa a6 3d f5 ff 44 3d 8d 11 05 bd 51 53 ec bc
       0.08138031 0.048095662 -0.03248744 -0.028848322
000070 b2 93 56 bd fa e7 25 3d 7e 4c dc 3c 23 3f 8e 3d
       -0.052386947 0.040504433 0.026891943 0.06945636
000080 89 fe 46 bd c6 01 a1 3c d3 ec 0c 3c 57 6f 4b bd
       -0.048582587 0.019654166 0.008601385 -0.04966673
000090 85 4b 87 3d ac 07 19 3c d9 14 a3 3d 6d c3 8f 3c
       0.06606201 0.009340208 0.07962961 0.017549241
0000a0 98 3c 0e 3d 4d 38 58 bb 88 b0 9b 3c f3 bb b6 3d
       0.034725755 -0.0032992542 0.019005075 0.08922567
0000b0 df c6 ad 3d ed 84 d0 ba a3 d0 19 3d 18 88 6f 3d
       0.08485197 -0.0015908756 0.037552487 0.0584794
0000c0 34 d4 a7 3d 9f 26 d3 3d be 0f 3b bd 81 f9 f2 ba
       0.081947714 0.10310101 -0.04566931 -0.0018537493
0000d0 85 ae 6a bd 3f 55 df bc 82 49 8a bb d0 c9 7b bd
       -0.05729534 -0.027262328 -0.0042201886 -0.06147176
0000e0 8f 79 80 3c 5c 93 10 bd 2a a2 aa bb a2 26 31 3d
       0.015682964 -0.035296783 -0.0052073197 0.043249734
0000f0 f4 e4 3e bc ac 0f 7f 3d f6 98 e4 bc bc f2 5f 3d
       -0.011651266 0.062270805 -0.027904969 0.05467485
000100 2c 01 d7 3c 74 6e 56 bc 63 b5 25 bb 27 d9 f9 bc
       0.026245676 -0.0130878575 -0.0025285117 -0.030499054
000110 b0 7a 61 bd 0d 85 1a 3c 0d b8 59 bc 2d f8 35 bd
       -0.055048645 0.009431136 -0.01328851 -0.044426132
000120 32 8c a0 bd 52 dd 63 3d f4 e0 7c bd a1 91 2c 3d
       -0.0783924 0.05563099 -0.06173797 0.04213107
000130 26 5f 01 bd 53 c7 e5 bc 94 8c 1d 3d fe 8c 20 bd
       -0.03158488 -0.028049147 0.038464144 -0.03919696
000140 73 2c b0 bc 74 ea 3d bb a8 e2 c2 bc d7 8a 83 3d
       -0.02150557 -0.0028978856 -0.023789719 0.06422966
000150 c4 3c 60 bb d0 ba 01 3d 23 27 94 3d 70 be 66 bc
       -0.0034215907 0.0316723 0.07234027 -0.01408349
000160 61 c5 c4 bc 51 25 97 3d 98 3b bc 3c 87 01 d7 bc
       -0.024019899 0.073801644 0.022977635 -0.026245845
000170 11 0c 01 bc 76 94 f5 bc 93 bc 28 3d 69 9d 95 3d
       -0.007876412 -0.029978018 0.041195463 0.07305414
000180 ac 7e e6 bc 61 99 ad 3c 7f 2c 13 bd ff 0f 03 3d
       -0.028136574 0.0211913 -0.035931107 0.031997677
000190 2c 9b 21 bd 54 c8 09 bd a1 85 b9 3d af de a2 3d
       -0.039454624 -0.033638313 0.09058691 0.0795263
0001a0 62 e7 1a bd 8b c2 2b bd d2 61 8c 3d 1f 76 cc bc
       -0.03781832 -0.041933578 0.06854595 -0.024958668
0001b0 4c 02 08 bd a6 b2 8b bc 66 5a c6 bb 5e 05 55 bc
       -0.033205315 -0.01705296 -0.006053257 -0.013001768
0001c0 b2 6a 83 bb e6 51 be bc 60 63 36 bd 96 54 cd 3c
       -0.004010522 -0.023232412 -0.044528365 0.025064748
0001d0 e6 8f 74 bc 74 94 7e 3b c7 f0 71 3d c2 5f 33 bd
       -0.014926886 0.003884581 0.059067514 -0.043792494
0001e0 61 fd 22 bd e8 20 c1 bb 07 52 4c bd ee 21 3f 3b
       -0.039792422 -0.0058938153 -0.049882915 0.002916451
0001f0 c8 d6 49 bc 06 ef 04 bd de 11 66 3d ff 15 e2 3c
       -0.012319274 -0.032454513 0.056169383 0.02759838
000200 e8 f5 2c bd 35 ed cf bc 28 7d a7 3d 38 80 39 bc
       -0.042226702 -0.025381664 0.081781685 -0.011322074
000210 af 2e be 3d 6e e1 69 bc 71 b3 a1 3d 59 7e 0b bd
       0.09286248 -0.014274938 0.07895554 -0.03405604
000220 20 52 65 bd 02 01 cd 3c ec 8d 4b 3d a4 59 cb bc
       -0.055986524 0.025024895 0.049695894 -0.024823017
000230 20 4b f0 3c fc c1 d2 3b 1d dd e3 3c 51 66 29 3d
       0.029332697 0.006431816 0.027815396 0.041357342
000240 0d c5 b3 3d b6 55 85 3d 9c fd 77 bc 89 c6 0b bb
       0.08777819 0.06510489 -0.015136149 -0.0021328053
000250 f4 dd 80 3d 4f 9f 21 bd c9 88 e1 bc b7 f7 fa bc
       0.06292334 -0.03945857 -0.027531045 -0.030635698
000260 c9 0a 2a 3d b8 86 04 3d 32 75 d3 b9 75 55 06 3d
       0.04151419 0.03235504 -0.00040332373 0.032796342
000270 26 db 2d 3a 84 09 05 bc c3 93 55 bc c7 19 90 3d
       0.0006632082 -0.0081199445 -0.013035717 0.07036167
000280 fd 85 8c 3d d0 cb 3b 3d 8b 3a a0 bc 21 fc 20 bd
       0.06861494 0.045848668 -0.019559165 -0.03930295
000290 e7 5c 03 3d 87 a8 31 bd 71 24 8d bc ae a9 87 bc
       0.03207102 -0.04337361 -0.01722929 -0.016560402
0002a0 c8 59 c9 bb 19 47 46 bd 40 04 73 bb 7e d7 a2 3d
       -0.006144736 -0.048407648 -0.003708139 0.07951258
0002b0 19 82 80 bc 63 b4 c2 bb 71 2b 75 3d d1 9a 48 bd
       -0.015687035 -0.005941914 0.059855882 -0.04897577
0002c0 98 8a 0d bd e7 60 df bc 70 d3 f1 3d 11 fd 2d bd
       -0.034556 -0.027267886 0.11807907 -0.04247767
0002d0 e5 f8 16 bc 9b 68 7a 3c e8 89 2a 3d 19 b0 9c bd
       -0.0092146145 0.015283729 0.041635424 -0.076507755
0002e0 c6 ee 62 3c e8 06 13 3d a1 02 27 bd 61 78 a9 bc
       0.013850873 0.03589526 -0.04077399 -0.020687284
0002f0 16 d8 c5 3c da 9f ec bc 58 0e c5 ba 32 ee 19 bd
       0.02415089 -0.028884817 -0.0015034182 -0.037580676
000300 cd 68 22 bd ea 41 a3 3c 0f 8b 8e 3d 5e 19 e2 3c
       -0.039650727 0.019928891 0.06960117 0.027599987
000310 00 59 bd 3d f5 1b 46 bc 8a 27 9f 3d 30 66 81 bc
       0.09245491 -0.012091626 0.07771213 -0.015795797
000320 7b 15 90 bd 0e fb 42 bd 9b 8f 3b 3d ed 8a 36 bc
       -0.07035347 -0.047602706 0.04579125 -0.011141521
000330 27 f3 b7 3b 04 19 85 3d 63 97 1d 3d 45 38 af 3d
       0.005613703 0.06498912 0.03847445 0.085556544
000340 41 51 a7 3d c7 98 93 3c ef 0d f2 3c de a8 3b 3d
       0.08169795 0.018017186 0.02954766 0.04581534
000350 dd 85 db bc 36 50 9d bc db e4 75 3d 5d f5 be 3d
       -0.02679723 -0.019203287 0.060032707 0.09324143
000360 30 71 25 3d cf a9 00 bd 65 8b bb 3c 0f f5 93 bd
       0.040391147 -0.031411942 0.022893617 -0.072244756
000370 f3 8e 67 bc 7b 64 08 bd 20 de 84 bd 04 74 cb 3d
       -0.014133203 -0.03329895 -0.064876795 0.099342376
000380 c3 54 2a bd e8 d8 3a bd 12 5c 40 bc 26 be af 3d
       -0.04158474 -0.045617014 -0.011740701 0.0858119
000390 b0 f0 7a 3d 24 bb 3d bc 66 01 2f ba 9c 4e 88 3d
       0.061264694 -0.011580262 -0.00066759286 0.066556185
0003a0 c0 0e 0c 3c 09 9c 75 bd 53 de d5 3d 9c 2a 93 bd
       0.008548439 -0.05996326 0.104427956 -0.071858615
0003b0 0e ab e6 bc 5f 13 15 bc 2b 97 94 3d 84 c0 db 3d
       -0.028157737 -0.009098857 0.072553955 0.10730079
0003c0 c1 b7 bc bc 7e d7 47 3c a3 86 de bb c2 d5 41 bd
       -0.02303684 0.012197373 -0.0067909523 -0.047322996
0003d0 d6 f7 ad bb cc 87 3b bc 16 9e d4 bc 13 8c a9 3d
       -0.0053090854 -0.011445951 -0.025954287 0.0827867
0003e0 d8 50 0a 3d 2c 77 7d 3d f1 a7 94 3d 43 44 9d bc
       0.033768505 0.06188123 0.07258595 -0.019197589
0003f0 b3 0e 9a 3d f6 b1 1c bc 8a f1 83 3d 8e d1 bc bc
       0.07522335 -0.009563914 0.06442554 -0.023049142

fc3.bias f4 [38]
000000 0d 3d 67 3b 1e 23 2b bc 80 8d 64 3b 5a 17 1b 3c
       0.0035284192 -0.010445384 0.003487438 0.009466017
000010 60 d3 aa 3a f0 f6 27 bc ad bf c8 bb a2 fc b1 3c
       0.0013032965 -0.010251746 -0.006126365 0.02172691
000020 64 36 47 bc 42 0e 02 bc ea ea f1 bb 7b 83 c7 bb
       -0.012158964 -0.00793797 -0.0073827403 -0.0060886717
000030 6a 0b 53 bc f0 11 96 bc c9 7e fa bb 73 e0 ff bb
       -0.012881139 -0.0183191 -0.0076445085 -0.007808739
000040 6e 19 09 bb 38 4c 0b bb 13 39 c8 39 48 c6 b3 bc
       -0.0020919698 -0.0021255147 0.00038189496 -0.021945134
000050 1a 3e 53 bc bb cc 00 bb 1c 0e e8 ba c7 4c 89 bb
       -0.012893224 -0.001965328 -0.00177044 -0.004190061
000060 6f 0f 0d bb 10 ac 95 bb d3 a0 59 ba 66 65 9c bb
       -0.0021524092 -0.0045676306 -0.0008301858 -0.00477283
000070 1c 98 80 3c f0 7a 91 3b 22 35 ae 3c 0d 3a aa 3c
       0.015697531 0.004439704 0.02126557 0.020779634
000080 b0 9f 4a 3c 16 40 2f 3e 17 94 1f ba bb 32 ad 3d
       0.012367174 0.1711429 -0.0006087436 0.08456942
000090 f3 3a 29 3c a3 83 bf bb
       0.010328996 -0.0058445497
