outfiles/cnn/Ya32_30Train_cnn.pth (torch, 334015 bytes, 10 tensors)

conv_layer1.weight f4 [8, 1, 5, 5]
00000000: 5ea3 3ebd 00b1 963d cbbd 423e 72b2 3c3d
00000010: 89ef bebd a876 73bc 8895 0f3e e000 e33d
00000020: 57ce c83b 0ad0 8fbd a394 1ebd 93da 043e
00000030: 56a1 1b3e 4a02 253d 6c08 1b3d 3bcb 533d
00000040: 7e91 c73d 8719 4e3e 0067 993e 8964 963e
00000050: e9fd 253e 6feb ae3d 4afd 9f3d 6bf4 c73d
00000060: d6c8 b63e 4d2c a33d 60a2 013c 3aae 8ebd
00000070: 234a 88bd aa91 abbd 4b0b 5f3e e5b0 203d
00000080: 6439 67bd 4dc0 8abd ab0f 95bd af78 8c3d
00000090: e4fa 25bd fdee 27bd 9044 61bd 35c2 99bd
000000a0: 0c5a 813c 1f4d 38bd 758c 6ebd e774 81bd
000000b0: f382 8bbd a3c9 8c3d 3a10 b0bc 86b7 40bd
000000c0: e1fe 55bd b959 7ebd 29ee 683e 32df bf3c
000000d0: 6ec2 a03d d737 a6be 7bfa 48be 3600 053e
000000e0: 46fa 4e3e 166c 0e3e b5eb dbbe d287 73be
000000f0: 086a d03c 242b 3a3e 785b 193e 7dd1 80be
00000100: 1e4d 09be eb93 89bc 2d46 133d 5a3a 133e
00000110: 5747 073e ec41 e7bd dfe4 65bc bfb4 29bd
00000120: f369 113e 5200 c6bb 2f21 59bd 670a b1bd
00000130: 6597 27be d0aa b9bd 2567 783d 2ae7 82bc
00000140: 6084 c93d b1e1 51be 45af c0bd 8fd6 8b3e
00000150: 4747 433e 2a76 853e 2d89 8bbd d236 ddbd
00000160: be9c d03e 99db a13e 0f9a a8bb 9c18 61be
00000170: 7fe1 8abe 1268 b93e 01d7 ac3e e768 88bd
00000180: df22 bbbe 8e11 a0be 9ca1 693e 1e24 243e
00000190: 5aef b73d 60eb a23e 5751 803e 0106 633d
000001a0: d0a2 bf3b 4b64 753e 8855 39bc 477c f83c
000001b0: 0265 153e de4f 3f3d 1fbd 4dbd e44f 1abe
000001c0: 6537 40be c628 0ebe b35d 30bd 9f75 24be
000001d0: 39ce 0cbe a32f 31be 1afe 6ebd 408e 6f3c
000001e0: 6e85 adbd 0802 edbd ba3d a13d e301 90bd
000001f0: ce21 18bc 0fc8 3e3e 2e39 223e 47ae 9cbe
00000200: 40c2 dbbd d070 693d 189c 823e d976 c0bd
00000210: 2449 cabe 435b 92bd c2ab 383e dd9a 7b3e
00000220: efab 9fbd 8d80 cebe ef56 113e 4a42 563e
00000230: ae79 2a3e aab0 383d f32b 84be fa5d 423d
00000240: 0586 3f3e d892 0b3e 7e05 69bc d7f8 72be
00000250: ded3 dabd f2e8 4f3d 2eef 22bd 7b63 eb3a
00000260: d243 4cbd 2f3b f6bd 867f fcbd 63bb 01bd
00000270: 5d53 4dbd fc3e 773e c86d 7e3e cadb 1c3e
00000280: de6e ecbc a56e 99bd 6813 debd b314 273d
00000290: 1e3c 9a3c 53f1 9d3b b387 80bd a1b7 b1bd
000002a0: 8d3c 6fbd 8905 f03b dc68 d43b f3f3 3fbd
000002b0: a560 61bd 0819 b8bc 7bdd 9c3c 821e 293d
000002c0: 6dc1 643c cf74 a2bc 0280 bcbc 918c 1bbd
000002d0: 1547 2cbd 81e3 483c 017a 89bd 64f7 8cbd
000002e0: 8cfd 69bd b1fb 38bd e6fa 083c 3657 053c
000002f0: 9139 fbbc 1f90 b7bc 1918 f5bc 5569 903d
00000300: d245 6e3d 2c00 143e a82b fe3d 96db c6bc
00000310: d1d1 0e3d b842 acbd a69c d3bd c345 07bd
-0.046542518 0.07357979 0.19017713 0.046068616 -0.093230315 -0.014859833 0.14021885 0.11084151
0.0061281133 -0.07022102 -0.03871597 0.12974004 0.15198264 0.040285386 0.03784983 0.051707488
0.09744547 0.20126925 0.29961395 0.29373577 0.1621014 0.08540999 0.07811983 0.09763416
0.357001 0.07967434 0.007912248 -0.06966825 -0.066547655 -0.083773926 0.21781652 0.0392312
-0.056451216 -0.0677496 -0.07278379 0.06858956 -0.04052247 -0.0409994 -0.054997027 -0.07507745
0.015790008 -0.044995423 -0.05823942 -0.063211255 -0.06812086 0.06874397 -0.021492112 -0.04705002
-0.052245025 -0.062097285 0.22747101 0.023421858 0.078495845 -0.32464477 -0.196268 0.12988362
0.20212659 0.13908419 -0.42953268 -0.2378228 0.025441185 0.1818052 0.14976299 -0.25159827
-0.13408324 -0.016794166 0.035955597 0.14377728 0.13210808 -0.112918705 -0.014031618 -0.04143214
0.14200573 -0.0060425187 -0.053010162 -0.08644562 -0.16366346 -0.09065783 0.06064524 -0.015979368
0.09839702 -0.2049625 -0.0940843 0.27312133 0.19070159 0.26066715 -0.068132736 -0.10801472
0.40744585 0.31612852 -0.0051453183 -0.21982044 -0.27125165 0.36212212 0.33757785 -0.066606335
-0.36550042 -0.31263393 0.22815555 0.16029403 0.089811996 0.31820202 0.25062057 0.055425648
0.005848266 0.2396404 -0.011311896 0.030332698 0.14589313 0.046707027 -0.050229188 -0.15069538
-0.18771131 -0.13882741 -0.04305811 -0.16060494 -0.13750543 -0.17303328 -0.0583478 0.014621317
-0.08472715 -0.11572653 0.078731015 -0.0703161 -0.009285403 0.18631004 0.15842125 -0.30601713
-0.107304096 0.056992352 0.25509715 -0.093976684 -0.39508927 -0.07146313 0.1803427 0.24570794
-0.077964656 -0.4033245 0.14193319 0.20923725 0.1664798 0.045090355 -0.2581478 0.047452904
0.18703468 0.13630235 -0.014222501 -0.23727737 -0.10684942 0.050759263 -0.03977888 0.0017958725
-0.049869366 -0.12023007 -0.12329011 -0.031672847 -0.05012833 0.2414512 0.24846566 0.15318218
-0.02886146 -0.07491807 -0.10843545 0.040791225 0.018827494 0.004820028 -0.062758826 -0.086776026
-0.058407355 0.0073248786 0.006482227 -0.046863507 -0.055023808 -0.022472873 0.019148579 0.04128886
0.013962132 -0.01983109 -0.023010258 -0.03797585 -0.042059977 0.012261272 -0.067127235 -0.068831235
-0.057126567 -0.045161907 0.0083606 0.0081384685 -0.030667098 -0.02240759 -0.029918717 0.070513405
0.058172055 0.1445319 0.124106705 -0.024274629 0.034868065 -0.08411163 -0.10332613 -0.033025514

conv_layer1.bias f4 [8]
00000000: 77e4 473a a79e d6b9 df89 3c3c 155d 2bbc
00000010: bbea 7bbb 668e 963c 9615 0a3c 3fe2 22bc
0.00076252915 -0.00040935466 0.01150748 -0.010459204 -0.003843947 0.018378448 0.008427998 -0.009941637

conv_layer2.weight f4 [16, 1, 5, 5]
00000000: 16de adbd 147c b7bd 1873 e6bc 565e 1a3d
00000010: 6fd1 923b 8bb1 b0bd 1103 14be a746 5cbd
00000020: 6df9 81bc c2cf 333d f3ae d1bd 4455 febd
00000030: 9b60 d7bd f3c5 213c 577d c93d 3ff1 32be
00000040: 62fc 34be 3e66 2cbe 7c48 e8bc 3f1f b23b
00000050: b783 2d3c f165 473e 8ff0 c33d a313 d83d
00000060: d1fb 5a3e 20f4 3ebc 3ec5 9e3d 32de d93d
00000070: e525 b8bd 438c 47be 351b e7bd a516 37be
00000080: 8b11 533e 9ed9 5d3e e3c7 91bd 90dc 5fbd
00000090: cfce 69be edda 313e 6d34 ec3d 86ac d43d
000000a0: 146d 5cbc 0d9e 25be 9060 61b8 8043 b63c
000000b0: d698 7b3d fc99 d23c fade 1dbe e416 07be
000000c0: 23d4 033e 5bbc ee3c 5898 99bc e4a1 8db8
000000d0: 7fca ee3d f13d 7f3d 19aa 2f3d f96b fb3c
000000e0: 80b0 783d 8168 e43d ce16 f53c 295c b23c
000000f0: f532 b83c e01b e73c 521a 593d 7333 a5bc
00000100: 8aeb 3dbc a722 82bc 3d7f d8bc 0ab2 1dbb
00000110: 5a46 13bc 5e8b 15bc 160c f2bb d628 95bc
00000120: 712d 29bb 48ea 58bc 7ce6 f839 52f7 a7bb
00000130: 61ca 8abc 895b 673d 3473 e83c d044 24bd
00000140: 514c 55bb ff6e 0f3c ba7b 023e ba1f 923d
00000150: 8870 43bd 82ba 9cbc d477 613c d83d 243e
00000160: 69ad 693d cc06 3cbd 7b2f 883a 432a a43c
00000170: f80a ed3d 7340 5a3c cb2d f0bb 58d6 5bbc
00000180: 05eb d9bc 76b6 e83c 44b9 51bc 7b00 323b
00000190: bcb7 b7bd a5a5 b0bd 9462 613e d8af bb3e
000001a0: eaca 02bd 1962 a2bd 0a08 6bbe 79c5 af3d
000001b0: 9f4c aa3e e0a8 173d 77a8 63bd 90ae e9bd
000001c0: 3157 0fbe 98ed b8bd 01ef 8fbd f8b2 67bc
000001d0: bcf2 1e3e 59e7 99bd d339 56be 9182 b2bd
000001e0: 5813 103d efb2 503e 25dd a7bc 77e5 c6bd
000001f0: 885e 8abd 3f19 263e 1a3f b73c 376f 36be
00000200: 5660 1abe 087c c2bc 2623 323e 2931 d43d
00000210: b032 3dbe dd1e 31bd 4f58 51bb c470 b43b
00000220: 99a4 d83d 50a0 e9bd 001f 9a3d 0818 883b
00000230: cd56 323d b0d9 b03a 07ce 3bbe 9904 e73d
00000240: 5696 113d 08e2 b63d 3ab0 0e3e bf64 0bbe
00000250: 5030 40bd 5b72 81bd 10f0 2d3d f0dc ce3e
00000260: 3508 663e 9c6b 14bd f11d c0bd d1ad 05be
00000270: aa62 883e 7ddc 0d3c 6ce0 3dbe f967 383c
00000280: b69b e2bd b987 dabc e997 1dbe 0ab3 54be
00000290: 4728 083b af92 bbbd 9d43 5f3c 6220 a7bd
000002a0: 05b2 08be 19ff 04bd 9cf3 9bbc a37b 98bd
000002b0: 3205 65bd 9ca7 82bd e2fb 2a3e d9d6 0ebd
000002c0: 2c82 56bd 372d d7bd bb38 d8bd 2845 85bd
000002d0: 0e3d aa3d 6f7b b4be fffd c6bd 448f 89bd
000002e0: f7db 10be 39ec 993e a753 84bd 9f25 443e
000002f0: 32d1 593e f5b3 10be cd5e 8c3e 06b2 c7bd
00000300: 474a 9d3e b921 4f3e e64a 2dbe ce08 0a3e
00000310: f5ee 75be c26b 10be 94e0 83bd 6525 6dbe
00000320: 9d70 abbc adec ab3c 5401 a43c 6611 583b
00000330: fea6 3d3c 7239 43bd 937d 8bbd b509 3abd
00000340: f59e f03c 37d3 873c c4a5 1dbd f26b 7f3c
00000350: 2327 87bc 9884 b9bd 21ce bbbd b911 8dba
00000360: b065 4b3e 9536 313e f77d 553d f7b4 66bd
00000370: 7046 c9bd e5e4 2d3d d102 843d ed44 30bc
00000380: d5d6 03be a388 10bd 36cd b4bb 689f f8bc
00000390: 270d 74bd 25fd 4fbd 9f1d 12be d794 c83b
000003a0: 1871 d53d de18 35bd 15fd 09be 9128 39be
000003b0: 2591 2a3e 9b20 913e 6859 b63d cea8 10be
000003c0: f869 bcbc fdc2 4f3e 08cc 813e a83e 5c3d
000003d0: 15eb e9bd 7db2 14bd 89b6 babd aaff 14be
000003e0: 0be5 eebd 0582 b4bd 7d5b f9bc a0f0 38bd
000003f0: c71e fbbd fbbd a9bc 3d5e 32be 7162 13bd
-0.08489625 -0.08959213 -0.028131053 0.037687622 0.004480533 -0.08627614 -0.14454295 -0.053778317
-0.015866006 0.043899305 -0.10238447 -0.12418607 -0.10516473 0.009873855 0.0983836 -0.1747484
-0.17674401 -0.16835877 -0.028354876 0.0054358537 0.010590485 0.19472481 0.09567367 0.105506204
0.21385123 -0.011654884 0.07752465 0.106380835 -0.08991603 -0.194871 -0.11284486 -0.17879732
0.20612161 0.21665046 -0.071182035 -0.054653704 -0.22832797 0.1736867 0.11533437 0.10384469
-0.013453741 -0.16173573 -5.373411e-05 0.022248983 0.061425053 0.025708191 -0.1541709 -0.13192326
0.12873892 0.02914255 -0.018749401 -6.7535584e-05 0.11659717 0.06231493 0.042886827 0.030691134
0.0607152 0.11152745 0.0299181 0.021772461 0.022485236 0.028211534 0.053003617 -0.020166134
-0.011591801 -0.015885664 -0.02642786 -0.0024062418 -0.008988941 -0.009127466 -0.0073866947 -0.018207949
-0.0025814439 -0.013239451 0.0004747397 -0.0051259184 -0.016942205 0.05648378 0.028375246 -0.040104687
-0.0032546709 0.008754491 0.1274251 0.071349576 -0.04771474 -0.019131903 0.013761479 0.16039217
0.057050142 -0.04590492 0.0010390127 0.020039683 0.11574358 0.01332103 -0.0073296777 -0.013417803
-0.026601324 0.028407317 -0.012800518 0.002716093 -0.089705914 -0.08625344 0.22010261 0.36657596
-0.031931795 -0.07928867 -0.22952285 0.08582587 0.33261582 0.037026286 -0.055580582 -0.11410248
-0.13998105 -0.090296924 -0.07028008 -0.014141791 0.15522283 -0.07514829 -0.20920496 -0.0871631
0.035174698 0.20380758 -0.020491192 -0.09711736 -0.06756312 0.16220568 0.022368956 -0.17815863
-0.15075812 -0.023740783 0.1739622 0.10360939 -0.18476367 -0.043242324 -0.0031943505 0.005506607
0.105782695 -0.1140753 0.07525444 0.0041532554 0.04353981 0.001349261 -0.18340312 0.11280174
0.035543762 0.08929831 0.13934413 -0.1361265 -0.046921074 -0.0632064 0.04246527 0.40402937
0.22464068 -0.036235437 -0.09380711 -0.13054587 0.26637775 0.0086585255 -0.18542641 0.011255258
-0.11064856 -0.026676046 -0.1538998 -0.20771423 0.002077596 -0.09158837 0.01362696 -0.081604734
-0.13349159 -0.032469843 -0.01903706 -0.07445457 -0.055913158 -0.06379625 0.16697648 -0.034872863
-0.052370235 -0.10506671 -0.105576955 -0.06507331 0.083124265 -0.35250422 -0.09716415 -0.06716779
-0.1414641 0.30063036 -0.06461268 0.19154976 0.21271208 -0.14131148 0.27416077 -0.09750752
0.30720732 0.20227708 -0.16923103 0.13479921 -0.24016936 -0.14103606 -0.06439319 -0.23158796
-0.020927722 0.02098688 0.020020165 0.0032969355 0.011575459 -0.047662206 -0.06811061 -0.045419414
0.029372672 0.016580207 -0.038488165 0.015589701 -0.016498154 -0.090584934 -0.09170175 -0.0010762728
0.1986301 0.17305978 0.052122083 -0.056324925 -0.09827888 0.04245462 0.0644585 -0.010758621
-0.1287492 -0.035286557 -0.005517627 -0.030349448 -0.059582856 -0.050778527 -0.14269112 0.0061212587
0.104219615 -0.04421317 -0.1347545 -0.18081881 0.1665693 0.28345188 0.08903772 -0.14126894
-0.022999749 0.20289226 0.25350976 0.05377069 -0.114217915 -0.036303032 -0.09116847 -0.14550653
-0.1166478 -0.08813862 -0.030439133 -0.045151353 -0.1226173 -0.020720473 -0.17418762 -0.035982553

conv_layer2.bias f4 [16]
00000000: 0375 9bbb 6b5d 563c 723a 5bbc 1397 a3bc
00000010: f6bc fdbb 10b2 27bd edb6 19bc 0554 a73c
00000020: 4e5d b5bc 281e 19bd 951c 06bc 0ca6 e0bb
00000030: e4d9 a4bc d962 09bb 1dbb 86bc e787 80bc
-0.0047441735 0.013083796 -0.013380634 -0.019969499 -0.007743473 -0.040941298 -0.009381992 0.020425806
-0.022139218 -0.037382275 -0.008185525 -0.006855732 -0.02012343 -0.0020963459 -0.016446644 -0.015689803

fc1.weight f4 [120, 576]
00000000: 9551 38bb d49b bcbc aafe c1bc 16f1 72bc
00000010: ebea 993b 4a2b 9f3b 3f11 8f3c ace4 013b
00000020: 130f 5bbb a7c8 c13b a4cc 0a3c 4531 463b
00000030: 2c3a e0bb 95b2 08bd 8221 bbbc 87ac 8dbc
00000040: 7d51 483c d3e0 a1bb 4b1f 173a f8a7 fc3b
00000050: ae03 febb 6ff1 cb39 c316 4d3c cd98 573b
00000060: f071 493d 1144 033d d3d7 3d3c 907e 793a
00000070: 5e15 a6bc 71a9 a2bc 9d90 643c e0fc 48bc
00000080: b64b a4bb da17 4dbc 9571 033c 1899 2e3c
00000090: c9b8 ecbb d387 bcbc 83d0 e9bc cdd1 1dba
000000a0: 9abd d2ba 1edb d2bb 9b47 2e3c e722 9fbc
000000b0: de9c a1bc 30e4 2dbc e5c8 3dbb d3a6 c8bb
000000c0: 6c90 613c 9ead 7c3c b6ae f8bb 9372 123a
000000d0: 9222 143b 11f9 d43b 5e39 f838 cff9 803c
000000e0: 4866 d5bb 270e d5bb 4431 93ba e034 7d3a
000000f0: 8447 bfbc 6777 efbb 9b65 c3bc 5898 a93c
00000100: 2c66 dd3c 4e67 9bbb abcc b4bc e17e d2bc
00000110: 6840 3dbd 3677 bbbc 4b20 273b 4631 96bb
00000120: f61b 3cbc 8b25 f6bb f167 c6b9 be52 94ba
00000130: 6442 dfba e7fb c638 282b 68bc 6b68 e1bb
00000140: 9ebb 45bb 4f43 7038 660d 67bb 3a30 30bb
00000150: 847f 4fbc df87 f0bb 09b0 9439 4a08 83bb
00000160: fc41 16bc f791 b5bb b0a3 e9bb 1e8c 6ebb
00000170: 1515 00bc bb25 3fbc 49e6 fdbb 2591 04ba
00000180: 5b6f 01bb f2ba 043b a448 a93b 640b a4b9
00000190: c962 153c cea3 9b3b 7d44 4ebc 0372 ee3a
000001a0: a224 d5b9 1dbc 033b 5d49 913a ef95 fbb9
000001b0: 84f5 b6bc 2590 6ebb 43a3 69ba 8202 73bb
000001c0: 8865 27bb be59 24bb fe4e 80bc d7e8 babb
000001d0: 17af aa3a 1b3f 0abc 6a17 13bc ba7c 66bb
000001e0: d364 73bc 4dbf 8cbb 850a a73b d956 a0bc
000001f0: 237d eebb 38d9 60bb 3558 1ebc b6ba e33a
00000200: e84d a83b 2180 1fbc fb8f a83b c46b 873a
00000210: 335a 24bc f708 13ba bc67 7b3a be4c 42bb
00000220: d6b8 cd3a 662d 513a a284 2fbc f4a6 523c
00000230: 1806 6a3b ddf1 26bb a899 93bb 0caf a338
00000240: edd1 ddbc 96bc 00bc 1efe 03bb 7781 6ebc
00000250: 076b 8bbb eea2 c8bc c2c8 e1bb 67a6 55bb
00000260: 8be1 463a 684a 723c 3d5b eabb f04f 9ebc
00000270: 4908 abbc dde2 1e3b eddf 7fbc 2946 133d
00000280: 66ee 85bc 8693 8ab7 caa0 523c 8160 eb3c
00000290: 1963 803c 1106 25bc f195 a4ba c758 b53c
000002a0: e348 af3b d075 4cbb e3f3 063d 7e31 2e3b
000002b0: 22ca bd3c 2414 ae3c 581e 913c cf72 283c
000002c0: 3d37 0fbb e969 57bb 2eaf 033d d0fc 1e3b
000002d0: 136e d1ba 132d 18bc 7415 a1bb 62da 14bb
000002e0: 377c 80bb a540 ddbb 5245 10bc ac7c e0bb
000002f0: 6a5d 753a f91e 103a 227f 19bc 3af3 23bc
00000300: 6f17 1e3b dc19 abba b0a4 4d3b 6996 8dbb
00000310: bb63 8c3b b8b4 f83a 550b 9a3b e298 0fbc
00000320: 08f7 ca3c 9d23 313c d6ef 333c 8754 1b3c
00000330: 12de 8c3c 7d9b 923c ae3d 073c 92c2 e23b
00000340: ee22 1c3c b33f 20bc 7704 c93c ed49 193d
00000350: 58d3 603c b10a 86bc 2cc2 3bbc a034 34bc
00000360: 590f 44bc a576 f1bb 1526 58ba 3d02 dabb
00000370: 6514 40bb 00a7 a4bb 874b 23bc be13 14bb
00000380: 7fc4 eabb 265b f6ba 9ff6 57bc 4eb1 60bb
00000390: 3fb7 99bc b059 81bc 0ade afbb b211 72bb
000003a0: db0b e9bc 3a74 bc3b 32e5 f938 e234 063d
000003b0: 744c 0c3b b7f8 0abc 32ff 96bc fd7a c139
000003c0: 5e09 bb3b f9ec cebc f360 0d3d 580c 86bc
000003d0: 5146 5b3c e6e8 dd3c 027f b2bc b2e6 b0bc
000003e0: cca4 a13b 24ef c2bb 0adf 703c f56b 073d
000003f0: 0e16 3dbc 61e5 afbc 3f31 bebc 039d a1ba
-0.0028124799 -0.023023523 -0.023681004 -0.014827987 0.004697194 0.0048574554 0.017464278 0.0019820137
-0.0033425733 0.005913812 0.008471642 0.003024177 -0.006842872 -0.033373434 -0.022843126 -0.017294182
0.01222646 -0.004940131 0.0005764856 0.007710453 -0.0077519035 0.0003889906 0.012517634 0.0032897473
0.049180925 0.032047335 0.011587101 0.00095174555 -0.02027386 -0.019856187 0.013950494 -0.012267321
-0.0050139083 -0.012517894 0.008022686 0.010656618 -0.0072241765 -0.023013985 -0.028541809 -0.00060203375
-0.0016078234 -0.006434812 0.010637189 -0.019425822 -0.01972812 -0.010613486 -0.0028958854 -0.0061234026
0.013767343 0.015422253 -0.0075891865 0.0005586531 0.0022603613 0.0064994176 0.00011836247 0.015744118
-0.006512437 -0.006501931 -0.0011229892 0.0009659063 -0.023349531 -0.007307935 -0.02385216 0.020702526
0.027026258 -0.0047425395 -0.02207025 -0.025695266 -0.046204 -0.022883993 0.0025501426 -0.0045835106
-0.011481276 -0.0075117997 -0.00037842945 -0.0011316163 -0.0017033336 9.488296e-05 -0.0141704455 -0.0068789027
-0.0030171643 5.7283145e-05 -0.0035255789 -0.0026884214 -0.012664679 -0.007340416 0.00028359916 -0.003998791
-0.009171005 -0.005541082 -0.007130109 -0.0036399434 -0.007817526 -0.0116667105 -0.0077483994 -0.00050570286
-0.001975021 0.002025303 0.00516613 -0.00031289004 0.0091177905 0.0047497516 -0.012589571 0.0018191937
-0.0004065382 0.0020101138 0.0011084486 -0.0004798616 -0.022333868 -0.0036401835 -0.00089125725 -0.0037080352
-0.0025542695 -0.0025077905 -0.015662666 -0.005704026 0.0013022152 -0.008437897 -0.00897775 -0.0035169558
-0.014855581 -0.004295266 0.0050976896 -0.019572662 -0.007278101 -0.003430916 -0.009664585 0.001737437
0.0051362403 -0.009735138 0.005144117 0.0010331799 -0.010031271 -0.0005608941 0.0009590348 -0.0029647793
0.0015695344 0.0007979482 -0.0107127745 0.012857188 0.0035709199 -0.0025473752 -0.0045044012 7.805051e-05
-0.02707764 -0.007857462 -0.002014048 -0.014557234 -0.004254702 -0.024491753 -0.0068903873 -0.0032600404
0.0007586709 0.014788248 -0.0071519897 -0.019325227 -0.020877974 0.0024244108 -0.015617353 0.03595558
-0.016349029 -1.6519578e-05 0.012855718 0.02873254 0.015672253 -0.010072247 -0.0012556893 0.022137059
0.005349265 -0.0031198151 0.032947432 0.0026579793 0.023167673 0.021249838 0.017714664 0.010281279
-0.0021852993 -0.0032869524 0.032149486 0.0024259575 -0.0015978239 -0.00928809 -0.0049158875 -0.0022713174
-0.0039210576 -0.006752091 -0.00880559 -0.0068507995 0.0009359928 0.00054977793 -0.00936869 -0.01000672
0.0024122854 -0.0013053971 0.003137868 -0.004320909 0.0042843497 0.0018974757 0.004701058 -0.008764477
0.024775997 0.0108117135 0.010982474 0.009480602 0.017195735 0.017896408 0.008254452 0.0069201672
0.009529812 -0.009780812 0.024538262 0.037424017 0.013722263 -0.01636252 -0.011459868 -0.010998875
-0.01196655 -0.00736888 -0.0008245421 -0.006653099 -0.002930903 -0.0050247908 -0.009966738 -0.0022594775
-0.0071645374 -0.0018795475 -0.013181358 -0.003428537 -0.018764136 -0.015789837 -0.0053670453 -0.0036936817
-0.028448036 0.00575116 0.00011915936 0.032765277 0.0021407874 -0.00848215 -0.018432233 0.00036903462
0.0057079038 -0.025259482 0.034516286 -0.016363308 0.013383464 0.027088594 -0.021789078 -0.02159438
0.0049329754 -0.005948918 0.014701614 0.03306194 -0.011540903 -0.021471681 -0.023216842 -0.0012330118

fc1.bias f4 [120]
00000000: f27a a2bb e3fb 36ba b268 033b cfbb 843b
00000010: b1b5 fe3b a6a7 4ebb d975 443c dea5 3a3b
00000020: 7c84 99ba 1cf0 f9ba 93cd 8f39 7b77 1b3b
00000030: da77 94b9 5a45 e93b 7f52 a43b 81f1 e73a
00000040: 7b11 0f3b 7b44 df3b f1d4 1239 6dd5 70ba
00000050: 9c11 8bba 9460 83bb 426c f0b9 a0ea eabb
00000060: 68ac 7d39 54ea d639 67c2 2fbb b84c 45ba
00000070: 7057 3b3b 5a07 1b3b 80f0 2d3b 2626 073b
00000080: 3aab d9bb bcc5 e1ba 5b66 34bb 173d 9f3b
00000090: db4f 903c 789c 6cbb 7c1d d838 021d a8ba
000000a0: 0d48 f93a 50bb 0d3b 7dd9 1d3c 90c9 aebb
000000b0: adbd c438 e2fb d03a b7ad 983b 270c 4039
000000c0: 01fe d83a f81c 363b ddee ffba 953a bbba
000000d0: 979f 0c3b add5 bcba 655c 083b 5407 9f3b
000000e0: 49df 98ba fa60 c53a 62f6 d639 130f 8dbb
000000f0: bad2 a1ba 095b 003c 0d37 ac3b f1b5 b7b8
00000100: 64a8 663c 1221 30ba 110b 30bb d8b8 e0ba
00000110: 12aa f23b 86ae 38bb 4bf3 b23b 881c 993b
00000120: 5e88 143a b41f 123c 9a1b 6339 07eb 143a
00000130: 0f66 be3b 9142 613b ecda 89b9 2d47 5c3c
00000140: 1535 0abc 7f4e 4e3b 3fd3 b73a 82c7 c33a
00000150: 6449 ef3a b343 26bb 9ce2 82b9 53a1 c53a
00000160: c905 183b 82e9 933b 0de5 23b9 0b88 85ba
00000170: 329c f6b9 37d6 9fbb c023 533b 59cb dab9
00000180: f679 eeba b28a 0c3b 9d9d ceba c82a f5ba
00000190: e1be 4abb f8c0 07bb 3e3d 62bb 87e6 5a3b
000001a0: 0993 1cbb a26d c9ba a0f7 a0b9 b6aa f53b
000001b0: 0603 b03b ceb8 943a bb43 1fbb 79ac 04bb
000001c0: b740 a43b 1bc7 d23a e0c3 773b cc9e 483a
000001d0: dd92 8639 c5b2 5f3a 9303 c7bb d571 483b
-0.004958504 -0.0006980283 0.0020051417 0.004050709 0.007773124 -0.0031533032 0.011990988 0.0028480212
-0.0011712457 -0.001906875 0.0002742825 0.002372234 -0.00028318056 0.007118863 0.005014717 0.0017695875
0.0021830488 0.0068135834 0.00014002972 -0.00091870764 -0.0010610106 -0.0040093157 -0.00045857026 -0.0071690828
0.00024192187 0.0004099185 -0.0026818754 -0.00075263856 0.0028586052 0.0023655505 0.0026541054 0.0020622103
-0.0066427262 -0.0017225067 -0.002752683 0.0048595774 0.017616203 -0.0036104005 0.000103051745 -0.0012826028
0.0019018665 0.002162654 0.009634373 -0.0053340867 9.381338e-05 0.0015944208 0.0046593803 0.00018315074
0.0016555191 0.0027788263 -0.0019526143 -0.0014284427 0.0021457428 -0.0014406942 0.0020807025 0.0048531685
-0.0011663224 0.0015058808 0.0004100083 -0.0043047755 -0.0012346127 0.0078342045 0.005255586 -8.760009e-05
0.014078233 -0.0006718795 -0.0026862065 -0.0017144931 0.007405528 -0.0028180196 0.0054611317 0.0046725906
0.0005666072 0.008918691 0.0002165869 0.0005680774 0.005810506 0.0034371952 -0.00026293786 0.013444704
-0.008435507 0.0031479893 0.0014024748 0.0014936777 0.0018256125 -0.0025369942 -0.0002496437 0.0015077986
0.0023196808 0.0045139203 -0.0001563022 -0.0010187639 -0.0004703715 -0.0048778313 0.0032217354 -0.00041731706
-0.0018194306 0.0021444974 -0.0015763525 -0.0018704766 -0.0030936527 -0.0020714384 -0.0034521366 0.0033401565
-0.002389135 -0.0015367756 -0.00030702073 0.007497157 0.005371454 0.001134658 -0.0024301845 -0.0020244403
0.0050125974 0.0016081067 0.003780596 0.0007653057 0.00025667893 0.00085334136 -0.006073424 0.0030585427

fc2.weight f4 [80, 120]
00000000: e846 af3a 856b 23bb 0e40 e6bc 2c15 3d3d
00000010: b36f 8b3c 64f3 713d 1360 adbb ceeb 04b8
00000020: 4d29 843c 7d9e bcba 6b77 913c aedd 9c3a
00000030: 2cd4 603d 148a d53c bea0 ae3d 0549 0d3d
00000040: 1b2a f73c 9e2c 57bd 4af0 303d 5183 73bc
00000050: 52f7 6c3c 2b47 8a3c e29f 82bd 9098 813c
00000060: 7c56 9ebc f1dc 753d 4fb2 d4bb 8494 a4bc
00000070: 3250 823b 0a84 53bd 2179 99bc 0695 98bc
00000080: 4534 75bc 2a52 02bc 8d8b 0b3d 3018 78bc
00000090: 3405 9fbd 9978 3abc 15b8 293d 6ebe 9fbb
000000a0: 367c 503b 017b dd3c 90af f2bb 3a02 75bc
000000b0: ec03 c83c 04d3 27bd 2059 053d b6c4 d839
000000c0: f029 a53d da27 f7ba f48a 22bd 2e2e 0bbd
000000d0: 3ae0 763c a860 b63c fc2d 82bc b3fb 503b
000000e0: 0713 e63c 1b13 31bc 66cb c8bc b916 553d
000000f0: 543a 9e3c cb28 fdbc 3254 3a3d 3185 f1bc
00000100: 4b56 63bd 8d29 923c 9196 c63c b324 30bd
00000110: 1b77 49bd adc3 16bd 6103 acbc 4662 77bb
00000120: 3ed1 bf3b 0a4d 25bd f959 203d 1ac8 4e3c
00000130: 37c2 163c ccf5 1e3d a8a0 8e3b 7f0d 0e3c
00000140: 3ec1 283d 12d3 c2bc 2b01 2cbc 1a8a 5c3d
00000150: e007 aa3c 7461 e0bc e79e 61bb c311 e13c
00000160: 3d3a 9fbc 9358 563d 14b0 353b da8b 423d
00000170: bf62 ae3d 8114 063d 6e47 d9b9 3ead 883b
00000180: e11f cc3b fe00 0ebd 9427 8d3c c28c dbbc
00000190: 7596 efbb 8516 523d 90e9 133d 6c6d 423d
000001a0: ba64 e03b c6c1 d03c b451 a43a 7dca 40ba
000001b0: af99 adbc 56f1 8fbc a773 3b3d 4acc a6bc
000001c0: 4713 1abd f03f 9f3c 97d7 81ba 1e70 943d
000001d0: 2c29 66bb b314 2dbc 23a1 2d3c 2ed2 eabb
000001e0: c917 acbc b93f 74bc ccae b1ba b3eb 1c3d
000001f0: b6f3 ac3c d7df 17bc 318d 78bd a98d 4abd
00000200: d261 ddbc 8cf7 c13c 43a1 3ebc b00d d33c
00000210: 5967 c6bc e6a9 9a3d d7c0 daba 0791 153d
00000220: 9583 fb3c 982d c739 fa8a 423d 94b5 c1bc
00000230: fc1a 3f3d fe45 b0bc a03a 3a3b 9191 b93d
00000240: e92d cd3d 2676 993d bc67 ddbb 309b de3c
00000250: 7022 e6bc d322 063d db35 33bd bdc9 1c3c
00000260: 5418 b53c d2f9 5f3c 2a0e 9e3c 188b ce3c
00000270: a7bd 8bbd 82cc 94bc 29c8 cfba f60a 0e3d
00000280: a6a3 eebc 389c 88bb 145a 9b3b 1380 8b3c
00000290: 9252 d3b7 458e 323c 5e85 b43c f0a7 00bd
000002a0: ffc3 ddbc 2053 f63b feb2 c33c 447b c9bc
000002b0: 7558 15bd 9f9a 333c 8119 e5bc 684c a0bc
000002c0: 220b 313d cbe5 24bd 1d88 bfbc 3055 2bbd
000002d0: 1c3d 0c3d 6cc6 fabc 9921 42bd 50bd 80bc
000002e0: 5f4e 053d 36a9 983d 9368 4dbd 9234 a1bc
000002f0: faf7 dc3c 0808 f7bc 2814 1f3d 7bc1 493d
00000300: 907e c0bb d2b9 773c d694 8e3d ea53 45bc
00000310: 5e67 ae3d 5f59 96bc f94c b4bc ecae 0b3d
00000320: d2de f23b 4009 013d a45f ba3c f180 cfbc
00000330: f2a6 04bd 2b62 a8bc 858a 033c 7c82 413c
00000340: 9db3 36bd 7223 b3bb 42ad f1bb ec9b 683c
00000350: 0da1 c23c 85f1 a43c df28 70bd b276 cb3b
00000360: af60 1c3c 85ce 25bd ab0c 093d d03c 91bc
00000370: a2e4 d8bc fcf6 0f3d ada3 043c 8287 ed3c
00000380: f9ec 3aba 88f0 4abc 1b63 163d 5283 6a3c
00000390: fd1f d2bc 6e12 913d e583 3dbc 4527 e8ba
000003a0: 5ded f4bc a537 51bc daec 1dbd 0fd2 80bc
000003b0: 6d12 e33b 6a45 58bd 4ed5 cb3c 08af d63c
000003c0: 8402 073d 7060 8ebc 9d1f 74bc 21ad 003c
000003d0: 15ec 4a3c 0935 38bd f71d 10bc 6079 27bd
000003e0: 092f 76bc d895 823d b15f 863a 16a4 ee3b
000003f0: 873a cdba 38cf 06bd 49ea e9bc 4b9c 013d
0.0013372572 -0.0024935913 -0.028106716 0.04616277 0.017021036 0.059070006 -0.005290994 -3.1690863e-05
0.016132975 -0.0014390495 0.017757138 0.0011967921 0.054889843 0.026066817 0.08526753 0.034493465
0.030171445 -0.052532785 0.043197908 -0.014862851 0.014463263 0.016879639 -0.063781515 0.015819818
-0.019328348 0.06002516 -0.0064909826 -0.020090349 0.003976845 -0.051639594 -0.018734517 -0.018625747
-0.014966075 -0.00795416 0.034068633 -0.0151424855 -0.07764664 -0.011381292 0.04143532 -0.004874996
0.0031812317 0.027036192 -0.0074061826 -0.014954144 0.024415933 -0.040972725 0.0325557 0.00041345292
0.080646396 -0.0018856481 -0.039683297 -0.033979587 0.015068108 0.022262886 -0.015891068 0.0031888306
0.028085245 -0.010807778 -0.02451105 0.052023623 0.019314922 -0.03090324 0.04549045 -0.029482456
-0.055502217 0.017842079 0.024241718 -0.04300375 -0.049185853 -0.036807705 -0.020997705 -0.0037747785
0.005853801 -0.040356673 0.039148305 0.01262095 0.009201578 0.03880863 0.004352648 0.00867021
0.041199915 -0.023782287 -0.010498325 0.05384264 0.020755708 -0.02739022 -0.0034426989 0.02747429
-0.01943695 0.052330565 0.002772336 0.047496654 0.08514928 0.032734398 -0.00041442685 0.0041710427
0.006229386 -0.034668915 0.017230786 -0.026800517 -0.007311637 0.051291008 0.036111414 0.047467634
0.006847945 0.025483023 0.0012536556 -0.0007354392 -0.021191446 -0.017571133 0.04576459 -0.020361084
-0.03761604 0.019439667 -0.000990617 0.07247947 -0.0035119755 -0.010564017 0.0105975 -0.0071661687
-0.021007435 -0.014907771 -0.0013556122 0.038310718 0.021112304 -0.009269676 -0.060681526 -0.049451504
-0.027024183 0.02367761 -0.0116351275 0.025763363 -0.024219202 0.07551937 -0.0016689551 0.036515262
0.030702392 0.00037990208 0.04749582 -0.023646154 0.046656594 -0.02151775 0.002841629 0.09060968
0.10018522 0.07493238 -0.006756751 0.027173609 -0.028092593 0.032748055 -0.043752532 0.0095695825
0.022106327 0.013670402 0.019293863 0.02521281 -0.06823283 -0.018163923 -0.0015852499 0.034678422
-0.029130768 -0.0041690134 0.0047409628 0.017028844 -2.519161e-05 0.0108981775 0.02203625 -0.031410158
-0.027070997 0.0075172335 0.023889061 -0.02459491 -0.036461312 0.0109621575 -0.027966263 -0.019567683
0.043223508 -0.04025821 -0.023380334 -0.041829288 0.034237966 -0.030612193 -0.047395322 -0.015715271
0.032545444 0.074541494 -0.050148558 -0.019678388 0.026973713 -0.030155197 0.038837582 0.049256783
-0.0058744624 0.015119987 0.06961982 -0.012043932 0.085158095 -0.018353162 -0.02200936 0.034102365
0.007411816 0.031502962 0.022750683 -0.025330039 -0.032385774 -0.020554623 0.008028631 0.011810895
-0.044604886 -0.005466872 -0.0073753903 0.014197331 0.023758436 0.020134697 -0.058632728 0.006209218
0.009544536 -0.040480155 0.033459347 -0.017729193 -0.026476208 0.035147652 0.008095664 0.02899528
-0.00071306486 -0.012386449 0.036715608 0.014313536 -0.025650019 0.07083593 -0.011567091 -0.0017711899
-0.02989834 -0.012769614 -0.038555957 -0.015725164 0.0069296868 -0.052800573 0.024881985 0.026206508
0.032961383 -0.01737997 -0.014900115 0.007853777 0.012385388 -0.044972453 -0.008796207 -0.040887237
-0.0150258625 0.06376237 0.0010251907 0.007282744 -0.0015657701 -0.032912463 -0.028554099 0.031643193

fc2.bias f4 [80]
00000000: 7698 b5bb 88a9 47ba 7ec9 b9bb c56f ba3b
00000010: 9d41 413a cd8f a3bb d156 8bbb 8182 9a3c
00000020: 69c8 f13b 987b e53b 03c5 b63b de1d b83b
00000030: fb47 c13b 4fed 913c 914b eabb 502f 993c
00000040: ad18 26bb 1daa 983a b868 85bb 4118 bf3b
00000050: 4f29 193c 575a 7f3b 27c8 c3ba 59a6 003c
00000060: df4c ad3b 0092 5e3c b45f 5539 5b22 663a
00000070: 3813 f6ba 67f0 be3b 72d9 053c 23aa 083c
00000080: 3dcd 833b dd9b d839 3503 edba 4987 d838
00000090: bd54 d1bb 5941 703c 5cdf bb38 fece 33b8
000000a0: 90b3 6ab7 1844 1d3c 8ece 213c 93ca e8bb
000000b0: f6ba ffbb 0f8b f23b 919c 083b f2b0 1b39
000000c0: da01 b13c ba83 99bb 7c98 a63a e4a2 863c
000000d0: 48ac 9f3c 7dd1 733a ef63 ea3a d6f5 66bb
000000e0: 7dbb 473c cea4 643c 3b64 243b 9073 62bc
000000f0: 177c 5b3a b354 573c a00c 9d3a 885c cc3c
00000100: 0f71 2e3c 2868 5a3c d170 17bb 9b9c b33c
00000110: fd60 ed3b 8859 523a 06d3 233c 2b85 7a3b
00000120: bb83 2fbc 811e 44b9 5a64 783b 880b 0f3b
00000130: 6615 4a3b a900 803b 80f9 e2ba 9638 7fba
-0.0055418564 -0.00076165097 -0.0056697717 0.0056895935 0.0007372143 -0.0049915076 -0.0042522927 0.018861057
0.007378627 0.007003259 0.005577685 0.005618795 0.0058984733 0.017813353 -0.0071501215 0.018699318
-0.0025344298 0.0011647377 -0.0040713213 0.0058317487 0.009348228 0.003896376 -0.0014936969 0.00785216
0.0052887048 0.013584614 0.00020348915 0.0008778923 -0.0018774038 0.005826998 0.008169519 0.008341345
0.004022269 0.00041314858 -0.0018082621 0.000103248814 -0.0063882754 0.014664018 8.958459e-05 -4.2869702e-05
-1.39892945e-05 0.009598754 0.009875907 -0.007104227 -0.00780427 0.007401831 0.0020845274 0.00014847869
0.021607328 -0.0046848925 0.0012710239 0.016435094 0.01949133 0.00093009305 0.0017882566 -0.0035241744
0.012190697 0.013955308 0.0025084156 -0.013821498 0.0008372678 0.013142752 0.0011981912 0.024946466
0.010647072 0.013330497 -0.0023108015 0.021925261 0.007244228 0.00080242055 0.009999042 0.0038226347
-0.010712559 -0.0001870338 0.003790161 0.0021826942 0.0030835508 0.0039063287 -0.0017316788 -0.000973591

fc3.weight f4 [38, 80]
00000000: e9e5 4fbd a210 a63d 222c a13d dd7e a73d
00000010: 070e 903d 63c7 cfba 302d 033e 4454 18bd
00000020: 0c4f 63bd 2ed3 a53d 3c8c 663c 38d5 333d
00000030: ba47 ca3d 7a35 25bd 07b2 5dbd a956 2c3c
00000040: 84ea c43d 073b 013d 29fc f33b e840 d83c
00000050: 8a3c 883d e2c0 bbbc e332 3bbd 5520 35bd
00000060: d901 dcbc 8a5a b73d 6028 cd3b 7a9a 8e3d
00000070: bb1b e33c 45f5 983d 3594 863d 5e88 ae3c
00000080: f2c0 b0bd 8749 ae3d 0cd0 813d 68a2 a13d
00000090: 22f2 923a 4c27 81bc f673 de3d 679e 903d
000000a0: 8bfe f23d a84c 0e3c 18de ed3c 435a d43d
000000b0: 5bf3 923d c134 83bb 1254 bbbc 36e6 093d
000000c0: 01d1 a7ba 9aff 803b a071 9e3d 57d3 563c
000000d0: 7d2e d73c ae78 743d 2426 e73b 1905 a43d
000000e0: 09a3 f93c 7af4 d23a 1f90 4bbd 8957 30bd
000000f0: 9d55 4d3d c0de 02bd 0aa2 1cbc ace1 413d
00000100: 7d85 633b 628f 1dbd eec9 f53b 2fef 99bd
00000110: 703d f13c dc67 aa3d 9006 b53d 8a3f 7e3d
00000120: 446c cc3d a36f e13c 3cea 81bd 2391 ca3d
00000130: 9279 ee3c 7fdd f83c 70ad 40bd 1a79 c13d
00000140: e88b 703c 9f1b 4b3d 5ba9 03bd 63c4 8f3d
00000150: 39d7 a23d cddc b03d 74a3 413c 4280 ce3c
00000160: e142 adbc a07e 263d 747b 953b 92b9 5e3c
00000170: a199 de3d 54df 983d b46d 63bc 9200 863d
00000180: 4ec9 d33c b16f ea3d 177a c03d 3938 273d
00000190: d12b 393c 7b3c ecbc f1cd aabc cb96 113c
000001a0: 5ea9 c53c 9b92 873d 6458 e7bc 68ec b63c
000001b0: 4724 b13d 2e0b c93d 8972 283b 27ee d43d
000001c0: 5c1c aabc 642e 09bd 3940 e3bc e0a7 763d
000001d0: ad8b 1c3d 7849 ccbc 9741 eebc c463 3f3d
000001e0: c5e9 803d cadc 9abc 5858 dd3c a2cf 15bd
000001f0: 37a1 343d 4a71 e3bb 2d9a 273b 1a24 37bc
00000200: 13b4 223d fa50 c13d 3d72 c73d 023f 2f3c
00000210: 0d59 f33b ce13 913d 1afd c33c 4e75 9cbc
00000220: 3e40 0c3e 8aba 68bc b7cb 43bd 2ce6 1c3a
00000230: 9e7f 083d ce71 b73d fe29 bbbc e0c0 bb3d
00000240: adc4 e43c c815 a73d cc6e 003d 78f3 aa3c
00000250: e6a3 073d 7ecb dbb9 049e dcbc f6aa 7c3d
00000260: ddde c7bc a797 c03d 664c e6bc fe41 343d
00000270: b3b0 763d c71c 583d 3ed2 15bd 44e2 24bc
00000280: 8447 8abd ef67 37bd 7211 923c dc89 d7bc
00000290: 6722 183e e164 3cbd e7c3 c63c 12de c33d
000002a0: 68b0 f33d de2b 603d 00d1 f5bb 199d e9bc
000002b0: fcf3 4d3c 3643 bc3c 246e 5f3d ed17 b73d
000002c0: 2bf7 823b 2068 a63d d03b 6fbd 398b b5bc
000002d0: 78ff 023e 71d8 5dbd 9759 eabc 45da fdbc
000002e0: 1b88 ca3c 2f18 633d 68e7 493d f702 043e
000002f0: ede2 93bc 90ac 883d 01fc 303d 1dfd 4dbc
00000300: 43a7 aabc 266c b5bc 9de1 ebbb 2324 e63d
00000310: c085 c0bc bcc3 4abd f181 47bd 24f9 f7bb
00000320: 3eeb e03d 1541 7fbd f5c7 6fbc 5d2f e1bb
00000330: 87b2 873c 0cf2 beba 0c3e e33d a7e7 9c3d
00000340: 71bb c53c 2b54 15bd d52e 0ebd 0e5b 35bd
00000350: 5111 dd3d 1d02 813d e5e1 cabc a9b8 1dbc
00000360: 4346 dabc c10c 06bd 609c c43d 2875 06bd
00000370: 4d2f babb 7045 86bc 4eb3 633d 4f11 7abc
00000380: b8a8 6c3d 4d9f 38bd 6686 f8bc 84a0 b6bb
00000390: fa8f d73d 7ea3 6b3d 0ca1 613d 0310 d43c
000003a0: ae14 48bd 8ee8 51bc 3063 d93d de6b f2bc
000003b0: 9d41 b43d 0e51 023e dfc7 1bbd 9ed2 c93d
000003c0: bc51 79bc 0d21 b8bb 4475 36bd ccab 1ebd
000003d0: 3cf7 3b3d 4610 efbc 7c13 693c 5ed1 16bd
000003e0: 2f48 76bc bd02 953d 227f 9f3d 8c60 cd3d
000003f0: b00c 73bd 28c6 47bd cbdf b03a 49d6 8cbc
-0.05075637 0.08108641 0.07869746 0.08178494 0.070339255 -0.0015852269 0.12810206 -0.037189737
-0.055495307 0.0809692 0.01407152 0.043904513 0.09876962 -0.040334202 -0.05412486 0.010518708
0.09615043 0.031550433 0.0074458313 0.026398137 0.06652172 -0.022919122 -0.045702826 -0.044220287
-0.02685635 0.08952816 0.0062609166 0.06963058 0.027723184 0.074686565 0.06571237 0.02130526
-0.086305514 0.08510118 0.0633851 0.07892305 0.0011211077 -0.015765809 0.108619615 0.07061463
0.118649565 0.008685268 0.029036567 0.103687786 0.071753226 -0.0040040915 -0.022867236 0.033666812
-0.0012803377 0.00393672 0.07736516 0.013111911 0.026267285 0.0596854 0.0070541073 0.08008785
0.030473249 0.0016094588 -0.04969799 -0.04305223 0.050130475 -0.031950712 -0.0095601175 0.047334358
0.0034717016 -0.03846682 0.0075008785 -0.07516324 0.029448241 0.08320591 0.08839142 0.062072314
0.099815875 0.027519053 -0.06343505 0.09890964 0.029110704 0.030379055 -0.047040403 0.094469264
0.014681794 0.04958689 -0.03214393 0.0701988 0.07951207 0.086358644 0.011818755 0.025207642
-0.021150054 0.040648103 0.004561836 0.013594048 0.10869146 0.074644715 -0.013881136 0.065430775
0.025852825 0.11447085 0.09398287 0.040825102 0.011301951 -0.028837433 -0.020850154 0.0088860495
0.024128612 0.0661976 -0.02824039 0.022329524 0.086494975 0.098165855 0.0025703034 0.103969865
-0.020765476 -0.033491507 -0.027740585 0.06021869 0.038219143 -0.024937376 -0.02908401 0.046726003
0.06294588 -0.018904109 0.027019665 -0.036574967 0.04409906 -0.0069409953 0.0025574074 -0.011178041
0.039722513 0.09439273 0.09738586 0.010696175 0.007426387 0.070838556 0.0239244 -0.019098904
0.13696381 -0.014204631 -0.0478017 0.0005985226 0.03332483 0.089572534 -0.022847172 0.09167647
0.027925814 0.08158451 0.031355664 0.020868048 0.03311529 -0.0004192255 -0.026930816 0.06168648
-0.024398262 0.094039254 -0.028112601 0.044008248 0.060227107 0.05276182 -0.036577456 -0.010063712
-0.06751922 -0.044776853 0.017830584 -0.026310854 0.14856873 -0.045994643 0.024263335 0.09563841
0.11898881 0.054729335 -0.0075017214 -0.028517293 0.012570377 0.022981267 0.054548398 0.0894011
0.00399675 0.08125329 -0.05840665 -0.022161113 0.12792766 -0.054161493 -0.028607173 -0.030987868
0.024723103 0.055442985 0.04929295 0.12891756 -0.018052543 0.06673539 0.04320908 -0.012572554
-0.02083171 -0.022146296 -0.007198526 0.11237361 -0.023501277 -0.049503073 -0.048707906 -0.0075675417
0.10982369 -0.062317926 -0.014635076 -0.006872101 0.01656462 -0.0014567985 0.11095819 0.07661372
0.02413723 -0.036457222 -0.03471263 -0.04427629 0.107943185 0.06299231 -0.024765918 -0.009626546
-0.026644832 -0.032727007 0.09600139 -0.032826573 -0.005681908 -0.016390532 0.05559092 -0.015262916
0.05777809 -0.045073796 -0.030337524 -0.005573334 0.10525508 0.057528965 0.055085227 0.025886541
-0.048847847 -0.012811793 0.10614622 -0.02959245 0.08801577 0.12726232 -0.03803241 0.09854625
-0.015217241 -0.0056191743 -0.044545427 -0.038738057 0.045890078 -0.029182564 0.014225837 -0.03682076
-0.015031858 0.07275913 0.077879205 0.100281805 -0.05933827 -0.04877296 0.001349443 -0.017192023

fc3.bias f4 [38]
00000000: bc1a bebb 0919 2c3d fc01 353b c372 1b3c
00000010: b737 cb3b a6d4 6dbc 2301 553c 4173 ee3c
00000020: 1dc0 193d 3a70 f239 e0ee 65bb 465a 33bc
00000030: ac81 46bb 1f68 30bc e07d 9eba 491d 1cba
00000040: 095e c53b f4eb 0d3b 21c4 c7bb 3019 9abc
00000050: 049d 01bb b7ed d0b8 7e5b ee39 c2b9 a73c
00000060: 353d 56bc 27ec 50bc f15b f6bb be8f 84bc
00000070: 386b b33b 86c6 04bc aa28 9d39 0cce 393c
00000080: 67b1 edbb 1e38 563d ee5b 0e3a e514 c23d
00000090: b175 4c3d 55fd 91bc
-0.005801527 0.042016063 0.002761959 0.009487811 0.00620171 -0.014516031 0.013000759 0.029107692
0.03753673 0.00046241452 -0.0035085008 -0.010946816 -0.0030289693 -0.010767012 -0.0012091957 -0.00059552916
0.0060231728 0.0021655532 -0.0060963784 -0.018810838 -0.0019777426 -9.962491e-05 0.00045463064 0.020474318
-0.013076116 -0.012751616 -0.0075182845 -0.016181823 0.005475428 -0.008103972 0.0002997567 0.011340629
-0.007253814 0.05229961 0.00054305687 0.094766416 0.049916927 -0.017820993
