outfiles/cnn/Ya64_8Train_cnn.pth (torch, 605631 bytes, 10 tensors)

conv_layer1.weight f4 [16, 1, 5, 5]
000000 36 dd 89 bd 4d 72 b5 bd 4a 32 e7 3b cc 4d a9 3d
       -0.06731646 -0.08859692 0.0070555555 0.08266792
000010 62 a0 9d bd e3 5b 61 3d 29 a9 97 bc 9e 98 da bd
       -0.07696606 0.05501927 -0.018513279 -0.10673641
000020 8b a7 7a 3c ed 0d 06 be 7b b4 48 3e 4e 89 ac bd
       0.015298734 -0.1309125 0.19600098 -0.08424626
000030 6f 72 f7 bd 7b 14 b2 3b 84 e1 82 bb 0c c3 30 3e
       -0.12082373 0.0054345704 -0.0039941687 0.17261904
000040 de b8 cb 3d ba 62 71 3d ce 05 ba bb 9c b5 9c bd
       0.0994737 0.058932044 -0.0056769615 -0.07651827
000050 bd 23 10 3e 58 db 08 bb 8c f6 91 bd 5c de ee bd
       0.14076133 -0.0020882692 -0.07127103 -0.116635054
000060 7b ce 02 3e 9b c4 df 3d 50 b5 39 bd 17 cd 8a 3c
       0.12774079 0.109261714 -0.04533893 0.016943498
000070 98 0b dc bd 15 f1 72 bd 70 04 75 bd f5 33 15 3d
       -0.10744399 -0.059311945 -0.059818685 0.036426503
000080 fb ad c4 3d e2 f3 e8 bd af 21 b6 bc 11 9a 20 3e
       0.09603497 -0.11374642 -0.022232858 0.15683772
000090 94 91 98 3c 53 5c c4 bd 03 39 38 3c 13 68 df bd
       0.018624105 -0.09587922 0.011244061 -0.109085225
0000a0 8c 52 2d 3e 40 55 3e 3e 6d c9 85 3d 2a 68 e0 bd
       0.1692602 0.18587208 0.065325595 -0.10957368
0000b0 52 8e 89 3c 4e ad 33 3e de 31 49 3e 2c 0e 3d 3d
       0.016791496 0.17546579 0.19647929 0.046156093
0000c0 5c 4b 95 3d ee 7e 3c 3c 5c 35 6e bd 01 40 b4 3d
       0.07289764 0.011504872 -0.058156356 0.0880127
0000d0 6e c2 7c 3d d0 d1 e2 3d 63 42 22 bd 97 67 1b be
       0.06170886 0.11075175 -0.039614093 -0.15176235
0000e0 d0 11 be bd 80 ef f5 3d d3 4f 2a bd 92 b0 27 3d
       -0.09280741 0.120085716 -0.041580033 0.040939875
0000f0 f8 a2 d0 3d b0 9e df bd 62 77 b8 bc 56 67 ae bd
       0.10187334 -0.10918939 -0.022517864 -0.085158035
000100 a9 c0 0a bc c9 8c 5b bb 42 dd 8c 3d 2d eb 08 be
       -0.008468785 -0.0033500663 0.06878139 -0.13370962
000110 98 0f 10 be 8b f2 6c bd 1b 64 e8 3d 1e 4c 44 bc
       -0.14068449 -0.057848494 0.113472186 -0.011981038
000120 ef f6 e6 bd c2 0f 25 3a 4b 21 e3 3d 44 16 10 bd
       -0.112775676 0.00062965986 0.110903345 -0.035177484
000130 92 6c c0 bd 87 68 fa bd 1f 6f f9 bd 60 7b 99 bd
       -0.09395708 -0.12226968 -0.12179398 -0.07494235
000140 f6 62 20 be 8a 2c 26 be d4 0b 90 bd 90 44 21 bd
       -0.1566275 -0.16227928 -0.07033506 -0.039372027
000150 47 3b a9 3c 94 e4 be bd d2 c3 fa bd 0f d5 58 3d
       0.020658148 -0.093209416 -0.12244381 0.052937564
000160 25 9d 47 3c c6 09 01 3a e5 f0 27 3e a3 d3 e5 3c
       0.012183462 0.0004922416 0.16400488 0.028055018
000170 31 40 04 bd c1 7d af 3d 05 07 28 bd 78 24 79 3e
       -0.03228778 0.085689075 -0.04102232 0.24330318
000180 94 85 33 3e 42 cc 53 3e a7 ee e3 3c 2f ca 00 3e
       0.17531425 0.20683387 0.02782376 0.12577127
000190 69 30 8c bd 78 9e fe 3d b3 29 9a 3c f5 db 23 3d
       -0.06845171 0.12432569 0.018818712 0.04000469
0001a0 bf 45 c2 3d 46 ee a4 3d 0a 1d 5a 3e 61 ca 0d 3e
       0.09485959 0.080532596 0.2130014 0.13846733
0001b0 40 53 3f 3e 75 29 97 bd d2 ad 4f 3e 35 42 4b 3e
       0.18684101 -0.07380954 0.20281151 0.19849475
0001c0 d7 75 23 3e c6 d6 38 3e 69 51 9e 3d c8 19 3e 3e
       0.15962921 0.1805068 0.077303715 0.18564522
0001d0 21 92 ec 3d 03 43 ce 3d 4e 54 84 bd 24 f6 95 3d
       0.115513094 0.10071375 -0.06461392 0.07322338
0001e0 da 13 94 3d 34 23 1a 3e 79 61 0a bc bf 7f 01 3e
       0.07230349 0.15052491 -0.008446091 0.12646388
0001f0 0c e5 fe 3d 0e 8c ec 3d 5b d9 b6 3d 2c e5 df bd
       0.12446031 0.11550151 0.08928176 -0.10932383
000200 cc 37 80 be 78 2a 7e be 0c 82 d1 3d 00 9e 1a 3d
       -0.2504257 -0.24820888 0.102298826 0.037748337
000210 d0 bd 66 bd 9f 5a 4b be eb fd 16 be fa 99 49 3e
       -0.056333363 -0.19858788 -0.147453 0.19687644
000220 51 6e bd 3d 0c 68 31 be 5c 8f 33 be f6 af c2 bc
       0.09249557 -0.17324847 -0.17535156 -0.023765545
000230 d9 3b 35 3e 0b 21 af 3b 13 5f 42 3c 4f 5b 83 bd
       0.17698611 0.005344515 0.011863488 -0.064139
000240 8d 96 c0 bb 48 01 3f 3e 21 86 98 3d d4 28 63 bd
       -0.005877322 0.18652833 0.07447458 -0.05545886
000250 eb ef 2e be 19 7c 4a be 4d 3a 16 ba ac 17 6b bc
       -0.17083709 -0.19773902 -0.00057307334 -0.0143489055
000260 19 ed b4 bd c9 a0 f3 bc 21 c2 a7 bd d2 23 59 bd
       -0.08834285 -0.029739754 -0.08191324 -0.053012677
000270 3d 56 d8 3c 98 ae 7f bd 6b 8d 65 bd a1 41 aa bd
       0.02640831 -0.062422365 -0.05604307 -0.08313299
000280 44 b7 06 bd 13 cf 2c 3c 8a c0 b9 3c 11 b8 86 bc
       -0.03288962 0.010547417 0.022674818 -0.016445192
000290 b9 2e d9 bc eb da 95 bd 09 88 47 bd 02 18 15 bd
       -0.026511537 -0.07317146 -0.048713718 -0.03639985
0002a0 ee a5 1d 3d 28 f1 8e bd 9e 11 03 bd a7 64 39 3d
       0.03848832 -0.06979591 -0.031999223 0.045262005
0002b0 9f 63 7b 3d e3 06 d2 3b 8b aa 0e 3b ea c2 92 3d
       0.061374303 0.0064095124 0.0021769132 0.07166083
0002c0 97 4b 11 3e 87 5c e1 3d bb 42 09 3c e3 28 01 3d
       0.14188991 0.11003976 0.008377726 0.031533133
0002d0 47 b8 c5 bc ea a1 15 3e 06 16 d6 3d df 76 96 bd
       -0.024135722 0.14612547 0.104534194 -0.073468916
0002e0 3e 34 80 bc c7 4c 0c 3e 92 ad d0 3c 29 12 11 3e
       -0.015649911 0.13701163 0.02547339 0.14167084
0002f0 94 de b2 bb c4 f6 98 3d c9 08 a6 3d 49 a4 a1 3d
       -0.0054586623 0.07468942 0.081071444 0.07892663
000300 5d fb 92 3d cd 66 a5 3d 33 6f 4e 3b b2 ab 82 bd
       0.0717685 0.08076248 0.0031499385 -0.063804045
000310 84 5e e7 bd 9b 3e c1 3d 32 48 0f 3e de ad af 3d
       -0.11297324 0.09435769 0.13992384 0.085780844
000320 39 d4 26 bd fb 44 d6 bb 21 0c 67 3d 27 4c 33 be
       -0.040729735 -0.006538985 0.05640805 -0.17509519
000330 37 6f c8 bd 2a 34 6a bd 97 53 bb 3c c1 52 59 bd
       -0.097868375 -0.057178654 0.022867007 -0.053057436
000340 e2 b6 98 3d 77 fa 99 bd e6 08 93 3d 8f 2d 3b 3d
       0.07456757 -0.075184755 0.071794316 0.045697745
000350 a7 62 0e be 6e b7 b6 3d 2d 8f 19 be 0f 5d 1a be
       -0.1390482 0.08921705 -0.14996023 -0.15074562
000360 8b 36 06 bd 93 21 8a bd de de b9 3d 38 fe e1 3d
       -0.03276686 -0.06744685 0.09075712 0.110348165
000370 04 6b 48 bd 62 2a c9 3d c0 4c e3 3b 43 84 6c 3d
       -0.048930183 0.09822537 0.0069366395 0.057743322
000380 3f 84 12 3e 4c 31 f2 bd fb 29 3d bd 58 e0 ae 3d
       0.1430826 -0.11825809 -0.046182614 0.08538884
000390 a4 8c 00 be f3 d9 17 be 0a d3 10 3d 94 f4 21 3e
       -0.1255365 -0.14829235 0.035357513 0.15815955
0003a0 ee 43 22 3e ce ec 90 3d ef c1 fe 3c 12 b0 f7 3d
       0.15846226 0.07076417 0.031098334 0.120941296
0003b0 0a a0 d5 3d 2a 15 29 3e f1 08 0a 3e b2 c0 d1 bc
       0.10430916 0.1651198 0.13479973 -0.02560458
0003c0 62 a1 2b bc b8 fa 09 3e 5f a9 1a 3e ce 27 31 3c
       -0.010475488 0.13474548 0.15103672 0.010812713
0003d0 21 6e 05 3d d5 e2 e5 bd 83 4d 9f 3d 43 96 01 3e
       0.03257573 -0.112249054 0.07778456 0.12654977
0003e0 dd 43 85 3c e1 a5 70 3d a5 b8 19 3b 1c 62 b8 bd
       0.016267711 0.058751944 0.0023456004 -0.09003088
0003f0 60 48 93 bd 95 f8 15 be b7 6a 90 3d f3 4c c7 bc
       -0.07191539 -0.14645608 0.07051604 -0.024328684

conv_layer1.bias f4 [16]
000000 05 d7 1e bd 10 08 71 3d b7 1e 9b 3d 92 7f 99 bd
       -0.038779277 0.05884558 0.07574218 -0.07495035
000010 8f 7f 24 bc c2 bd a5 bd d5 e6 ae bd 4a d1 bd 3d
       -0.010040178 -0.08092834 -0.085401215 0.09268434
000020 d0 80 ae 3d 6e d1 3e 3d df a6 10 bd d0 c2 b5 bd
       0.08520663 0.046586446 -0.03531539 -0.08875048
000030 e4 82 3c bd 58 2b 98 3d 1c 53 9d 3d aa 10 56 3c
       -0.046023265 0.07430142 0.076818675 0.013065496

conv_layer2.weight f4 [32, 1, 5, 5]
000000 ed 4a 92 bd f0 1b e2 bd aa 07 7c bc 07 66 5c 3d
       -0.07143197 -0.11040485 -0.015382687 0.05380824
000010 92 82 f4 3d 4a 32 b2 bc 6d 7e cc bd fe db fd 3c
       0.11938967 -0.021752495 -0.09985051 0.03098869
000020 32 14 ba bd 15 f3 66 bc e0 a8 8a 3d 12 83 51 3b
       -0.09085883 -0.014096041 0.067704916 0.0031968993
000030 2b ad 0a 3d 46 26 22 3e c6 4a ff bd 01 52 3e 3c
       0.033856552 0.15834913 -0.12465434 0.011616231
000040 45 18 88 bd b7 0b 19 3e 71 13 07 3e 96 8a 25 3d
       -0.06645254 0.14945875 0.1319101 0.04041537
000050 30 6a ac bc 20 5d 8f bd 06 73 ad bd 71 5d 68 bd
       -0.021046728 -0.07000184 -0.084692046 -0.056729738
000060 a2 22 4e bd 0d cc a6 bd 27 25 68 bd c3 2e ae bd
       -0.050325997 -0.08144388 -0.056676056 -0.08505013
000070 19 e1 7e bd 9b 1d bb bd 08 9e de 3b ad 31 b3 3d
       -0.06222639 -0.09136506 0.006793741 0.08749709
000080 d0 91 b2 bd 62 0d b3 bc 3b 1b 05 3d 06 cd bc bd
       -0.08719218 -0.021856967 0.032496672 -0.092187926
000090 e6 42 24 bd 5d 84 50 bd fc a4 2c bd c0 bc bc bd
       -0.04010286 -0.05090748 -0.04214953 -0.09215689
0000a0 79 7b 23 3d 76 00 02 3e 63 78 4a bd e9 f2 b4 3d
       0.039912675 0.12695488 -0.049431216 0.08835394
0000b0 16 fb 84 bd d5 9b 8d bd 8f 2f d9 3d 4a 16 83 3d
       -0.06493203 -0.06914488 0.10604774 0.06400736
0000c0 f4 ac 11 3e f2 42 4b bd bf 27 4c 3e 05 33 06 be
       0.14226133 -0.04962439 0.19937037 -0.131054
0000d0 b5 0d be bd e7 0d 49 bd 55 09 d9 3d f5 d9 37 3e
       -0.09279958 -0.049085524 0.10597483 0.17954238
0000e0 94 a7 04 3e cd be 21 be f5 e1 0b 3d cc e7 03 bc
       0.12954551 -0.15795441 0.034151036 -0.00805087
0000f0 b5 5f 4d 3d 66 e9 78 bd 3f 16 5a bc 97 b3 9e bd
       0.0501401 -0.06076946 -0.013310968 -0.07749098
000100 5f 0d d0 bc 16 3a c2 3c 15 1d 00 3e f3 28 05 be
       -0.025397 0.023709338 0.12511094 -0.13003902
000110 06 6c 91 3c 7f 3a b4 bd ca 22 a1 bd 52 2e 04 3c
       0.017751705 -0.0880022 -0.078679636 0.008067684
000120 f6 1f ef bc 67 07 04 bd 0f 52 04 bc 0b 93 b5 bd
       -0.029190045 -0.032233622 -0.008076205 -0.08865937
000130 2c c6 56 3b d4 69 aa bc 69 fe 04 be 53 f5 75 bd
       0.0032771928 -0.020802416 -0.12987675 -0.060048413
000140 a8 6f 04 bd da 1f fd bd 66 51 4e bc 97 e1 fd bd
       -0.032333046 -0.12359591 -0.012592649 -0.123965435
000150 97 65 45 bc 44 75 ac bc 22 aa 0f bd cb 61 21 3b
       -0.012048147 -0.02105201 -0.03507436 0.002462494
000160 de 45 96 bc 7e 03 b5 bd 61 e9 95 3b 86 82 d6 3c
       -0.018343862 -0.08838557 0.00457494 0.026185285
000170 4d 6c 1c 3d 45 df 39 3e db e8 f1 bd 8d 9e 90 3d
       0.03818922 0.18151577 -0.11811992 0.07061491
000180 90 1b 19 3d 69 a8 15 3e b1 66 c6 3d ef 2f c6 3c
       0.0373798 0.14615025 0.096875556 0.024192778
000190 07 fe c4 3c b2 96 3f bd 9b 29 c7 3d fc 9c 87 3d
       0.02404691 -0.046774574 0.097247325 0.06621739
0001a0 fe 8a 78 3d 5c 69 d4 bd 02 8a 57 3d f1 4f e0 3d
       0.06067943 -0.10371658 0.05262185 0.109527476
0001b0 45 a8 88 3d 94 c0 b1 3b a9 4c b1 bd a0 19 c1 bd
       0.0667272 0.0054245684 -0.086572 -0.09428716
0001c0 79 b7 dd 3d 98 df 0b 3d b0 e6 01 bb 1c 27 7c bc
       0.1082601 0.034148782 -0.0019821338 -0.015390184
0001d0 22 ab be 3d a4 cd c1 bd c2 aa ed 3d e1 26 12 3e
       0.09309985 -0.09463051 0.11604835 0.14272644
0001e0 b7 10 81 bd a1 54 32 3c 81 ee bb 3c 1c b2 d2 3d
       -0.06302016 0.010884435 0.022940876 0.10287878
0001f0 9a 20 ab 3d 84 69 cf bd ba 22 68 3d 21 73 55 3c
       0.08355828 -0.101275474 0.056673743 0.013027937
000200 64 89 99 bd 41 a6 a9 3d 85 a3 05 3d 13 f3 7f 3d
       -0.07496908 0.082836635 0.032626648 0.062487673
000210 b7 07 83 3c 10 d0 8a 3c b6 98 9b bc 66 57 ab bd
       0.01599489 0.016944915 -0.018993717 -0.08366279
000220 af 1d b0 3d 5e d3 ce bd 25 13 b2 3d 86 28 8a 3d
       0.08599412 -0.10098909 0.08695058 0.067460105
000230 86 00 8d bd cd b0 ac 3d fb 73 a2 3d f3 b8 a6 bd
       -0.068848655 0.084321596 0.07932278 -0.08140745
000240 80 1b e7 3d 1f 4a 5b bd 30 21 e8 bd b2 e2 17 3d
       0.11284542 -0.053537484 -0.11334455 0.037081428
000250 1b e6 5e 3c 80 da a9 bb 02 cd e4 3d 6d 7e 98 bd
       0.013604666 -0.005183518 0.11171915 -0.07445989
000260 33 eb 4f bd 5a 01 66 bd 08 ec c9 bc d2 10 0e 3e
       -0.050761413 -0.056153633 -0.024648681 0.13873604
000270 c7 e5 f8 3d ed 33 b6 bb 31 5f 4c 3d 26 da 93 bd
       0.121532016 -0.0055603893 0.04989547 -0.07219343
000280 1a eb fc 3d cf b0 3d bd e2 13 f2 bd ec 12 93 3d
       0.123495296 -0.046311196 -0.118201986 0.071813434
000290 66 f4 84 3c 90 10 12 be fd 92 17 3d 58 29 08 be
       0.01622982 -0.1426413 0.037005413 -0.13297021
0002a0 34 19 e1 bc c2 8b 9b bd e8 77 38 3c f9 36 53 3d
       -0.027477838 -0.07595016 0.011259057 0.051566098
0002b0 5d b3 87 bd 76 e1 bc 3c 94 1c b0 bd 90 d5 81 3b
       -0.06626008 0.023056727 -0.08599201 0.003962226
0002c0 e6 98 af bd 5a 6d 19 bc 4c f3 66 bd 86 32 b9 bd
       -0.08574085 -0.00936445 -0.05638437 -0.0904284
0002d0 d8 06 26 bb 53 a8 c8 bd 3e 79 20 be 09 ad 7a bb
       -0.002533367 -0.0979773 -0.1567125 -0.003825011
0002e0 46 35 9f bd 69 4b 26 be df 59 5c 3b de 32 20 be
       -0.07773833 -0.16239704 0.0033622903 -0.15644404
0002f0 9c fe 1d bc a1 c6 e4 bd 9f e7 f5 3d ee 35 3f 3e
       -0.009643223 -0.11170698 0.12007069 0.18672916
000300 19 64 3b bb ed 0f f5 bd 3a dc b8 bd 5b 03 e1 3c
       -0.0028593598 -0.11965928 -0.0902638 0.02746742
000310 02 06 d2 3b 91 92 78 3e 39 81 18 3e e1 a2 fc 3d
       0.0064094076 0.2427466 0.14893045 0.12335754
000320 44 f0 97 3d 57 0f fd bd ae a7 03 be 34 88 96 3c
       0.07418874 -0.123564415 -0.12856933 0.018375494
000330 9b 67 c5 3d e0 15 5b be 4e da 5e be 95 d0 10 3e
       0.09638902 -0.21395063 -0.21762964 0.14142068
000340 e1 4d 7d 3e 63 26 8d 3e 70 03 75 bd d3 48 13 be
       0.2473674 0.2756835 -0.05981773 -0.14383249
000350 f4 22 bd bd cf 3a c3 3d 3d 50 46 3e f4 89 78 be
       -0.092351824 0.09532701 0.19366546 -0.24271375
000360 07 54 48 be c6 e8 e7 3c e4 a1 17 be b2 14 f0 bc
       -0.19563304 0.028309237 -0.1480785 -0.029306743
000370 2e 49 a5 3c 2e 25 22 be cf 5f bb bd a5 6f 36 3c
       0.020176496 -0.15834495 -0.091491334 0.011135017
000380 33 ea ba 3d a2 8e 58 bd a2 46 eb 3d e3 9b ad 3b
       0.09126701 -0.0528704 0.114880815 0.005298124
000390 76 ff d8 bd 19 6e fa bd b6 d3 dd 3d f3 e9 d5 3d
       -0.105956 -0.12228031 0.10831396 0.10445013
0003a0 df ee 41 bb 6d 4e f0 bc f7 b3 f8 bd 78 0b 56 3d
       -0.002959184 -0.029334271 -0.121437006 0.05225703
0003b0 e6 28 01 be 49 c2 ee bd df e8 1e 3a 13 e9 cb bc
       -0.12613258 -0.11658151 0.0006061922 -0.024891412
0003c0 01 f1 18 bd 67 6b dd bd 69 97 c8 bd 7e 01 bd 3c
       -0.037339214 -0.10811501 -0.09794504 0.023072
0003d0 a1 43 0d bd 58 76 83 3d 8b 39 29 3e 34 cb 67 bd
       -0.034488324 0.06419057 0.16525857 -0.056590274
0003e0 c2 7d 4e 3e a9 33 b4 3c 64 72 8a 3b 5e 56 2c 3c
       0.2016516 0.02199729 0.004225062 0.010518638
0003f0 19 6c e8 bd 14 59 53 3e f0 99 d3 3e 40 84 ee bd
       -0.11348743 0.2063945 0.41328382 -0.116463184

conv_layer2.bias f4 [32]
000000 94 e1 62 bd bb 2c 13 bd b3 43 23 3d f3 70 50 bc
       -0.05539091 -0.03593133 0.039859485 -0.012722242
000010 62 83 7f 3c e3 4e 97 3d 15 33 8e bc a6 f0 85 3d
       0.015595289 0.07388093 -0.017358342 0.06540041
000020 f3 ce 58 bd a9 64 c9 bd 02 1a 04 bd be fd df bc
       -0.052931737 -0.098336525 -0.032251365 -0.027342673
000030 28 e4 54 bd fa 1b c8 bd dc bf 22 3c ca 8e 77 3b
       -0.0519754 -0.09770961 0.009933438 0.0037774318
000040 cb 6d 73 bd 74 64 76 3d e1 89 f1 3c cc 08 44 bd
       -0.05943088 0.060154393 0.029484691 -0.04785995
000050 d6 8e 2a bd 5f 60 b8 3d 7d dc 72 3d b9 5a 99 3d
       -0.041640125 0.09002756 0.059292305 0.07488007
000060 d5 89 20 bd 17 be 94 bd 78 9c 5a 3c e9 40 cf 3d
       -0.039193947 -0.07262819 0.013342969 0.101198025
000070 75 ab ae 3d 2f d2 69 3d 4a 8f 00 bb b0 5c b8 bb
       0.085287966 0.057085212 -0.0019616657 -0.0056262836

fc1.weight f4 [120, 1152]
000000 34 e4 8b 3c 39 66 80 3c fa 5a 13 3c 9a c1 60 bc
       0.01707659 0.015673744 0.0089938585 -0.013718033
000010 b1 7b 92 bb 1d fe 30 bc 7f 3a b9 3a 33 67 d1 bb
       -0.0044703116 -0.010802773 0.0014131813 -0.006390476
000020 1e 45 0f 3c 02 97 bf bb 6c de 67 3c 45 61 50 3c
       0.008744506 -0.005846859 0.014152151 0.012718503
000030 85 4b f4 ba 6e 76 55 3c 6f 9c df bb f1 eb 1c 3c
       -0.0018638229 0.013028724 -0.0068240683 0.009577737
000040 b6 02 89 bc 3e 6c d8 bb 52 e9 16 3c 59 66 db 3b
       -0.016724925 -0.0066047003 0.009210901 0.0066955504
000050 31 8a 67 3c 90 5e 50 3c 7b 0f 86 bc 39 28 4c ba
       0.0141320685 0.012717858 -0.016364804 -0.0007787976
000060 6f 1d 97 bb 6e 96 d5 bb 4d 37 c6 bb 9c c8 35 3c
       -0.004611663 -0.0065181768 -0.006049073 0.011095192
000070 ff 29 6d 3a b1 69 45 ba a9 a1 ef bb 60 ed 4b bc
       0.00090470904 -0.0007530703 -0.0073129726 -0.012446731
000080 93 49 6d 3c 14 61 24 39 29 f4 00 bc 70 9c 52 bc
       0.0144828735 0.00015676423 -0.007870712 -0.01285468
000090 dc 95 40 3c 33 e5 f7 3b 5c d2 97 bb 1f d5 80 bc
       0.011754479 0.0075651645 -0.004633231 -0.015726624
0000a0 9b fc df 3b 5e 2f ee 3b 90 b2 ca 3b dd 07 29 bc
       0.006835533 0.00726883 0.006185837 -0.010316816
0000b0 78 4b 2e 3c 1a 58 6a bc 6b 32 81 bc 49 af 3c bb
       0.01063811 -0.014303232 -0.015771111 -0.0028791002
0000c0 00 7a 35 bc 60 1f ec 3b bd 97 6c bc 5a c1 1e ba
       -0.01107645 0.0072058886 -0.014440474 -0.00060560333
0000d0 20 6b 44 3c 38 ba 29 bc f5 8e 00 bc 79 db 77 bc
       0.011988431 -0.010359339 -0.007846584 -0.01512801
0000e0 29 e6 4b 3c 99 11 39 3c 7c 77 4f 3c d4 05 a5 3b
       0.012445011 0.0112956995 0.012662765 0.005036095
0000f0 4a 6d 74 bc 0a 33 39 bc 9d 76 d3 bb 48 bd 46 3a
       -0.014918635 -0.011303673 -0.006453349 0.00075813057
000100 d1 04 48 3c 26 71 92 3b e6 2b 22 b8 b0 ae 45 3b
       0.01220818 0.0044690548 -3.8664693e-05 0.0030163936
000110 f1 a0 c2 3b d5 9e fb bb f8 23 29 3c 2d 31 86 ba
       0.005939596 -0.0076788464 0.010323517 -0.0010238044
000120 10 40 28 bb fc 2d 3a ba d7 5a 42 bc 70 15 06 3b
       -0.002567295 -0.0007102189 -0.011862478 0.0020459555
000130 61 33 c7 bb 37 3b a9 bc 97 39 6e bc 42 04 78 bc
       -0.006079123 -0.020658119 -0.014540098 -0.015137734
000140 bb 0f c9 3b dd 3e 8c 3b 6c e7 ed 3b a6 14 04 bc
       0.0061359084 0.004279955 0.0072602537 -0.008061564
000150 35 5f 70 bc 03 df f1 bb b1 b5 2e 3c 11 4a ad ba
       -0.014671137 -0.0073813214 0.010663436 -0.0013220926
000160 17 d6 03 3c 31 e1 ad bb ba 19 86 3b 4b a9 cd 3a
       0.008046648 -0.005306386 0.0040924223 0.0015690712
000170 6b c3 35 bc dc 6c 9f 3c eb 83 b9 3c d1 b0 2c bc
       -0.011093955 0.019461088 0.022645911 -0.010540203
000180 7c 3d 38 3a 6d 46 88 bc dc 07 ce bb 3c 28 23 b9
       0.0007028205 -0.016635144 -0.006287558 -0.0001555988
000190 c1 cd c9 3c 94 51 52 3b 2d df 2f 3c 5c d0 3d bc
       0.024634244 0.0032092081 0.010734362 -0.011585321
0001a0 7c 41 b1 3a d1 30 a0 bc fc d6 47 bc 3a 9e ac bc
       0.0013523544 -0.019554527 -0.012197252 -0.021071542
0001b0 4d 1f 10 3c 46 6c da 3b aa 21 ac bc dc a1 63 bc
       0.008796525 0.006665739 -0.021012146 -0.013893571
0001c0 46 69 1d bc 8c c6 ea ba b8 7b 27 bc 72 5e 1f bc
       -0.009607619 -0.0017911955 -0.010222368 -0.009727107
0001d0 84 ca 7c 3b a1 b6 af 3c f8 70 0b bc 7b 44 81 b9
       0.0038572857 0.021449389 -0.008510821 -0.0002465582
0001e0 91 8a 4d bc 2b cb 0d 3c 47 df d1 3c 74 0f 21 bc
       -0.012545244 0.008654396 0.025619162 -0.0098303445
0001f0 37 e7 fc ba d9 51 cc 3b 9b 50 8d 3a d5 2a 86 3b
       -0.0019294982 0.006235343 0.0010781469 0.0040944614
000200 2c 12 29 3c 1b 72 81 bc 29 d6 35 3c 2b 5a 3c bb
       0.010319274 -0.01580148 0.011098423 -0.0028740268
000210 05 65 73 bc 3f 66 46 bb 3e f5 5d ba 01 ef ac bb
       -0.014855628 -0.0030273346 -0.0008467025 -0.005277515
000220 9a 5d 20 3c 1b a6 1a bc 90 b0 36 3c c9 03 60 38
       0.009787941 -0.009439017 0.011150494 5.3409287e-05
000230 62 65 f8 3a ae 6e 83 3c da 08 51 3c 2a 0b b5 3c
       0.0018951113 0.016043987 0.012758458 0.02210005
000240 62 0c 1d bb 0b bb 31 3c a5 1f b3 bb 81 00 34 bc
       -0.002396368 0.010847817 -0.005466419 -0.010986448
000250 f7 92 e3 3a 60 28 f5 3b eb fd f0 bb e2 c4 5a bc
       0.0017362525 0.0074816197 -0.007354488 -0.013352605
000260 41 b8 2e 3c a5 d9 86 bc a2 78 bf bb bb b7 36 bc
       0.010664047 -0.016461203 -0.005843238 -0.011152203
000270 57 61 68 bb 85 92 08 bc a4 a6 48 3c d3 9f 23 bc
       -0.003545841 -0.008335714 0.0122467615 -0.0099868355
000280 29 4b 2b bb a6 fc 1e 3c e1 2f a7 bb 0c 9c 82 3c
       -0.0026137328 0.009703791 -0.005102143 0.01594355
000290 6b 7d 09 ba 0e 8d c9 3b cd 46 af bb 81 46 ef bb
       -0.0005244824 0.006150848 -0.0053490163 -0.007302106
0002a0 e2 1d 51 bc c2 f7 5a bc cf 7f 08 bc 52 0a 0c 3c
       -0.012763472 -0.013364734 -0.008331253 0.008547382
0002b0 9a 8f 4a bc 26 41 30 bc 29 bb 1a 3b 6c 27 c3 b9
       -0.012363339 -0.01075772 0.0023610091 -0.0003722267
0002c0 a2 38 66 3c 03 e5 3c bc 0c 0d 6b bc 59 8f ff 3a
       0.014051588 -0.01152921 -0.014346372 0.0019497677
0002d0 52 80 c1 bb a4 89 37 bc e5 78 79 3a 68 87 49 3c
       -0.0059051896 -0.01120225 0.0009516611 0.01230035
0002e0 70 bc f1 bb 0c 73 1c bc 4d 79 01 bc 13 2b 7d bc
       -0.0073772 -0.009548914 -0.0079024555 -0.015452164
0002f0 13 ea b7 3a 93 b8 6c bc a1 2c da bb f0 3c 3b 3c
       0.0014031552 -0.014448303 -0.006658152 0.011428103
000300 40 88 fe bb d0 31 0b bc 71 93 58 bc 91 07 2a 3c
       -0.007767707 -0.008495763 -0.0132187465 0.0103777805
000310 f6 d0 5b bc 51 60 42 bb d5 20 11 bc d0 73 78 3c
       -0.013416519 -0.002965946 -0.008857925 0.015164331
000320 c1 96 40 bb 8e 86 2f bc 18 70 30 3b 4c ad 0f bc
       -0.0029386731 -0.010713233 0.0026922282 -0.008769345
000330 f5 95 4e bc e3 23 38 bc 13 8c 2b 3c d7 59 80 3c
       -0.012608995 -0.011239025 0.010470408 0.015667839
000340 8b 4c 0a 3c 77 67 f6 bb f8 74 34 bb 2b 7d 78 3c
       0.008441101 -0.007519658 -0.002753554 0.015166561
000350 92 0e 11 bc fc 57 30 3c 8e 3a 13 bc a1 b1 a6 bb
       -0.0088535715 0.010763165 -0.0089861285 -0.005087093
000360 91 cd ca bb a4 b6 92 3b f6 00 8a bb a3 5f be 3b
       -0.006189056 0.004477339 -0.0042115403 0.0058097406
000370 11 8b 6c bb a3 da 12 3c e7 c2 40 bc ca 44 0b 3c
       -0.0036093632 0.00896326 -0.011765218 0.008500287
000380 b5 4e d3 bb 52 f9 76 bc ce 71 f1 bb f3 c5 74 ba
       -0.0064485916 -0.015074091 -0.007368303 -0.0009337358
000390 0a 61 2c 3a a6 20 1a bc ec df 3e 3b b9 05 cb bb
       0.0006575739 -0.009407198 0.0029125167 -0.0061957506
0003a0 96 33 b5 bb 6e b9 2c bb 9d 47 52 3c 81 a5 3d bb
       -0.005529831 -0.0026355642 0.012834457 -0.002893776
0003b0 c7 20 73 bc ea 8d 7a 3b 8c c3 5f 3b cf 06 58 bc
       -0.014839358 0.003823156 0.0034143655 -0.013185217
0003c0 4f 89 92 bb da 96 23 bc c3 ec 26 bc 37 bc 39 bc
       -0.004471935 -0.009984696 -0.010188284 -0.011336378
0003d0 2f 92 4e bc da f0 84 bc 0d ee 00 3c 50 9f 42 3a
       -0.012608095 -0.016228128 0.007869256 0.0007424252
0003e0 b0 e1 90 bc 8d 9b b7 bb c4 53 36 bb cf 01 53 bb
       -0.017685741 -0.00560326 -0.0027820924 -0.0032197123
0003f0 ba fb 17 3b 4e 3d 74 bc 82 f8 c4 3a 44 d8 ea bb
       0.0023190812 -0.014907194 0.0015027674 -0.007166894

fc1.bias f4 [120]
000000 20 44 89 3b 05 66 21 ba ed 0b 3e bc e6 16 6a 3c
       0.0041890293 -0.00061568647 -0.011599523 0.014287686
000010 aa ab ee 3b 1b 53 6b bb ee 69 23 38 af 6f 28 3c
       0.0072836475 -0.003590769 3.8960883e-05 0.010280534
000020 bf d8 ff bb 06 5d 35 bc 9b d0 5b bc 7a 70 34 3c
       -0.0078078206 -0.011069542 -0.013416435 0.011013145
000030 5c 1f 17 bc 47 8b 56 3c 2d ac 3a bc cd d5 2c bc
       -0.009223785 0.01309473 -0.011393589 -0.010549021
000040 0e 30 40 bc b5 ff 5d 3c 09 f9 61 3b 23 57 c0 bb
       -0.011730207 0.013549735 0.0034480712 -0.0058697625
000050 2a e5 ce 3b b3 0c d2 3b d7 57 57 bb 44 8e 74 bb
       0.0063139396 0.0064102053 -0.0032858753 -0.0037316242
000060 46 65 1d 3b b2 0c cc bb f7 8f 0a bb e1 f9 e8 3b
       0.0024016663 -0.0062270993 -0.0021142939 0.007109866
000070 74 05 22 39 cf 27 41 bb 2b 3e 8e bc b5 1d 5b 3b
       0.00015451555 -0.002947319 -0.017363628 0.0033434455
000080 f9 8d a2 bb b6 e6 a6 bb c0 1f 12 3c 56 ed 88 bc
       -0.004960772 -0.005093421 0.008918703 -0.016714733
000090 e0 bf 0f bc c3 38 2a bc 4e 7a 9c ba 9c b0 81 3b
       -0.008773774 -0.01038951 -0.0011938305 0.003957821
0000a0 ec 99 63 3c 8d 71 2f bc eb 05 04 3b d6 55 a7 3a
       0.013891678 -0.010708225 0.002014513 0.001276667
0000b0 3a c3 34 bc b6 a5 3d 3c d6 d8 6f bc 7a e8 4b bc
       -0.011032874 0.011575153 -0.0146391 -0.012445563
0000c0 10 de 31 3c 7e 15 78 bc 7d a5 dc 3b 62 42 4a bc
       0.0108561665 -0.015141843 0.006733595 -0.012344928
0000d0 25 bd 95 3b 37 99 21 3c 8c a4 62 bc 51 8a 4a bc
       0.004569667 0.009863189 -0.013833176 -0.012362079
0000e0 11 6b 19 bc 71 a2 69 3c 71 6a 38 3c ec 10 26 bc
       -0.0093639055 0.01425992 0.011255846 -0.01013587
0000f0 11 af 9e 39 9a 70 c9 3b 73 5e ac bb 47 56 04 bc
       0.00030266543 0.0061474564 -0.0052602827 -0.008077211
000100 4b ff 5d 3c da 09 a6 bb b8 b5 b4 bb a1 de 34 3b
       0.013549636 -0.0050670924 -0.0055148266 0.0027598517
000110 53 ae b3 3a 5e c2 12 3c d9 f6 50 ba 11 1d df 3b
       0.0013708569 0.008957474 -0.00079713535 0.006808885
000120 dc ae 4c 3c 99 e6 b5 3b ab 3d 52 ba 79 e9 a7 bb
       0.012492862 0.005551171 -0.00080200535 -0.0051242677
000130 6d 89 35 bc 3d 48 9c 3a 7f bd e0 3a 51 20 80 3a
       -0.011080128 0.0011923384 0.0017146318 0.0009775256
000140 ba 30 07 3c ce f3 8b bc fe a0 4a 3c b3 2c d7 bb
       0.008251363 -0.017084029 0.012367485 -0.006566608
000150 f7 54 f2 3b 3b 9a 0e bc d2 71 ec 3b a7 1a 8a bc
       0.0073953825 -0.008703764 0.007215717 -0.016858412
000160 4d d0 e4 3b 1f ae 77 3c 4a 8c 91 3b e8 39 33 bc
       0.006982839 0.015117197 0.0044417726 -0.010939099
000170 5f 1d 46 3c a9 9e 4f bb ea ee ff b9 d3 46 52 bb
       0.012091964 -0.0031680262 -0.00048815395 -0.0032085672
000180 a5 35 30 3c 95 70 3b bc 15 f5 cf 3b ae b8 58 3b
       0.010754977 -0.011440416 0.0063463547 0.0033069062
000190 c2 64 45 3c d5 1a b2 bb 00 45 04 bc 20 a8 84 ba
       0.012047948 -0.0054353275 -0.0080730915 -0.0010120906
0001a0 ca 05 d9 3b 02 16 d5 3b f9 5e 9e b9 2b bc 38 bb
       0.0066230046 0.0065028677 -0.00030206869 -0.0028188329
0001b0 6a 99 6e 3c 4c 74 66 3c d0 52 5f 3c 49 5c 13 bb
       0.014562944 0.014065813 0.013630584 -0.0022485426
0001c0 b6 f7 bf bb 0d 70 6a 3c 08 a0 7b bb 04 e1 1d bc
       -0.005858387 0.014308942 -0.0038394947 -0.009636167
0001d0 79 fd 66 bb 02 f6 8d bb 6a 09 53 3c 07 d3 30 bc
       -0.0035246296 -0.004332305 0.012880662 -0.0107925

fc2.weight f4 [80, 120]
000000 73 f2 e6 3c e4 d0 ed 3c c5 94 0a bd 38 af 03 bd
       0.02819178 0.02903027 -0.033833284 -0.032149523
000010 b9 30 04 bd c0 c6 6a bd 55 d8 5b 3d b4 00 9c bc
       -0.032273028 -0.05731845 0.053673107 -0.019043304
000020 9b 94 ae ba 86 12 23 bd 52 bf 11 bd d5 ba 36 bd
       -0.0013319434 -0.039812587 -0.035582848 -0.04461177
000030 56 b7 3c 3d 0d c1 0c 3b 92 6a 84 3c 26 61 99 3c
       0.04607328 0.0021477372 0.016164098 0.018723082
000040 36 28 92 3c 12 9d 17 bb fd c1 08 bd c3 b2 f9 3b
       0.01784144 -0.0023134393 -0.033388127 0.007620187
000050 14 2a 20 b9 d2 cb 9a 3d f9 53 2c 3d c0 db 7f bc
       -0.00015274464 0.07558407 0.04207227 -0.015616357
000060 ca 58 1e bd 15 07 46 bd 88 a9 6d bd f0 73 50 bd
       -0.038658895 -0.048346598 -0.058023006 -0.050891817
000070 2e 77 36 3c e2 78 4d bd 02 9e 88 3b 2d 2f 81 3d
       0.011136813 -0.05016411 0.0041692266 0.06307826
000080 ad 22 99 3b 57 0e c7 3b 51 41 4e bc b5 1a 41 3d
       0.004673323 0.0060747075 -0.012588815 0.04714461
000090 7e df dc bb bc 21 5b bd da 44 83 3d 25 eb 85 3d
       -0.0067405095 -0.05349897 0.06409617 0.06538991
0000a0 67 b6 d4 3c 6c 01 65 bc a3 65 75 3c 94 be 7e 3d
       0.025965882 -0.01397739 0.014977845 0.06219347
0000b0 65 bf 8c 3d ca 61 b5 3b 54 c2 66 ba 6b b3 8c 39
       0.06872443 0.005535339 -0.0008802761 0.00026836558
0000c0 f4 d2 80 3d 6a ab 48 bc c7 45 59 3d 15 b3 78 3c
       0.06290236 -0.0122479 0.05304506 0.015179415
0000d0 67 f4 bb 3d 39 b0 56 bd a9 ae 75 bb 05 a8 a0 3c
       0.091774754 -0.052414153 -0.0037488139 0.019611368
0000e0 d8 aa 2d bd 62 01 c3 bc 40 92 77 bb a9 87 42 bd
       -0.042399257 -0.02380437 -0.003777638 -0.047492657
0000f0 c9 74 74 3c b1 0b 6b bd 64 d7 02 bd bd f0 17 3d
       0.014920422 -0.057384197 -0.031943694 0.03709482
000100 fd fd e7 bc 4f 60 fc bc b6 2b 14 bc e9 a5 5d 3d
       -0.028319353 -0.030807642 -0.009043625 0.054113302
000110 45 a2 fe 3c f4 99 46 3c 46 34 c2 bc e1 cb d5 ba
       0.031083236 0.012121666 -0.023706567 -0.0016311371
000120 e9 e2 6b bd 4a 10 84 3d c2 45 bc 3c 73 ab 80 3c
       -0.057589445 0.064484194 0.022982482 0.015706753
000130 99 9f 8d bd 9a ff 74 bc bd fa 9e bc 31 31 93 3b
       -0.069152065 -0.014953518 -0.01940667 0.004491948
000140 49 b8 98 bb 4a 0f 57 bd 93 b9 82 3c 8d ff 48 bc
       -0.0046606404 -0.052504815 0.01595763 -0.012267959
000150 5e de 29 3d 22 81 65 3d f0 a5 b5 3c 79 bf 43 3c
       0.04147183 0.056031354 0.022173852 0.011947506
000160 3b 58 00 3d a2 51 a2 3c 78 d7 91 3c 49 eb dd bc
       0.031334143 0.019814316 0.017802939 -0.027089732
000170 f6 34 07 bd bd 09 08 3d 69 07 83 3b d1 c0 0e bb
       -0.03300949 0.033212412 0.003998686 -0.0021782408
000180 a9 da 79 3d bd 7a 63 3d 14 17 36 bd 87 2d cc 3c
       0.060999546 0.055536974 -0.044455603 0.024924053
000190 98 b0 d3 3a 2a 8a af ba 22 92 c8 3c de 99 41 bc
       0.0016150651 -0.0013392617 0.024483744 -0.01181647
0001a0 1f d5 44 3c 54 ed 7d 3d 2e 52 ca 3c b3 b8 9e 3c
       0.012013703 0.06199391 0.02469739 0.01937518
0001b0 df 6e 2b 3d 4b f8 9f bb 39 8a 54 bd e7 ad 83 3c
       0.04185378 -0.0048818938 -0.051889632 0.016074134
0001c0 3d 4e 0a bc 83 a8 73 bd e0 4e 59 bd 69 f8 39 3b
       -0.008441505 -0.059486877 -0.053053737 0.0028376824
0001d0 c9 5b 24 bd ce fc 98 3b c6 da 05 3d 23 4e af bb
       -0.040126596 0.0046688085 0.03267934 -0.005349891
0001e0 ef e9 0d 3d 06 ff 38 3d c5 4c 03 3c c7 c8 81 ba
       0.034646925 0.045165084 0.008013909 -0.0009901755
0001f0 d3 98 98 bc 51 33 99 3d 96 84 16 3d 5b 96 e2 bc
       -0.01862756 0.07480491 0.036747538 -0.027659586
000200 f5 c3 ed bc fb 19 a7 bc 41 29 8c ba e5 77 4c 3d
       -0.029024104 -0.02039813 -0.0010693447 0.049919028
000210 eb a7 4e 3c 97 fe 3a bd 1f 87 5e 3c ec dd af bd
       0.012613277 -0.045652952 0.01358202 -0.0858725
000220 74 39 14 bd 8a 83 43 3d a1 0c 99 3d fb 31 08 3b
       -0.036187604 0.047732867 0.07473112 0.0020781744
000230 28 2e 15 bd 03 6c 69 bd 3e 22 d9 b8 87 96 da 3a
       -0.03642097 -0.056987774 -0.000103537444 0.0016676941
000240 87 78 6d 3d df 9d 65 bd f7 0a 42 3c 80 3c 39 3d
       0.057976272 -0.05605876 0.011843435 0.045223713
000250 2e 19 e6 bc d2 ac 17 bd de 0d 38 bd 6f 66 1b 3d
       -0.028088178 -0.03703005 -0.0449351 0.037939485
000260 9d 8f 37 3d 6f 06 fc bc 0d 0f 7c bc e3 0b 03 3d
       0.044814695 -0.030764787 -0.015384448 0.031993758
000270 44 d3 28 3b f7 04 0b bd b6 ff 1e 3d b8 e4 43 3d
       0.002576069 -0.03394028 0.038818084 0.047825545
000280 59 d6 33 3d cf 35 07 bd 0c 34 14 bc 15 e2 86 3b
       0.04390559 -0.0330103 -0.009045612 0.0041163065
000290 80 69 ee bb 03 92 31 3c 94 48 2c 3d e6 36 db bc
       -0.00727576 0.010838035 0.042061403 -0.026759576
0002a0 cd f3 95 bd 06 52 f9 b9 b1 e0 02 3d f9 3b f8 bc
       -0.07321892 -0.00047554093 0.031952564 -0.030302035
0002b0 bd 6c 4d 3d 10 ac 44 bd d3 41 c1 3b 86 27 36 bd
       0.05015253 -0.048015654 0.0058977394 -0.044471286
0002c0 8a 66 9d 3d a2 23 39 3d 62 1c 62 3c 55 b4 d2 bc
       0.076855734 0.045199998 0.013800712 -0.025720755
0002d0 1e 48 6c 3c 80 1d 73 3d 7c 3d 0f 3d 9f 20 1e bc
       0.014421491 0.059354305 0.034970745 -0.009651332
0002e0 3f 88 a4 ba ad 2c 8b bc 15 79 06 bd 3e bd 2e 3b
       -0.0012552812 -0.016989077 -0.032830317 0.002666309
0002f0 db 3e 66 bd 5b 05 2a 3d 56 73 a8 bb 95 7d 42 bd
       -0.056212287 0.041509014 -0.0051407022 -0.047483046
000300 e1 67 81 3c fd f7 b2 3c d2 d4 8f bc 58 9b a3 bc
       0.015796604 0.021846766 -0.017557535 -0.019971535
000310 dc d1 c2 3d 20 cb d5 bb d1 a8 5e 3c 26 74 e2 bc
       0.09512684 -0.0065244585 0.013590054 -0.027643275
000320 c9 84 1e bd 5e 85 58 bd e8 3e 28 3b a2 e0 70 bc
       -0.038700853 -0.052861564 0.002567226 -0.014701994
000330 b0 29 08 bc 8e 96 34 3b 2f 18 79 3d d2 bc 24 3d
       -0.00831072 0.0027555558 0.06081408 0.040219136
000340 86 a5 3d 3d bf fb 2c bd 32 34 1d 3d 9b be a2 bd
       0.046300434 -0.04223227 0.038379855 -0.07946511
000350 b6 b9 5c bd 98 43 a4 3c 57 50 1b bc ff 9f 1d 3d
       -0.053888045 0.020051762 -0.009479604 0.038482662
000360 28 c0 3b bd 8f c1 a9 3c 63 8d 34 bc 83 75 02 bd
       -0.04583755 0.020722179 -0.011020037 -0.03185035
000370 42 e8 1b 3d bf 94 f9 3c 31 cc 9d bc 43 f4 ea 3c
       0.038063295 0.030466435 -0.019262405 0.028680926
000380 34 02 ad bc 99 09 44 bd 52 af 4c bd 9b b0 2e 3d
       -0.021119215 -0.047860716 -0.049971886 0.042648893
000390 6c a5 6e bc 75 ac 7f 3c ca 7f 36 3d e5 91 1e bc
       -0.014565807 0.015605082 0.044555463 -0.009678339
0003a0 84 0f dd bc da 0e c0 3d 3f 93 a3 bc 15 45 70 bd
       -0.026984937 0.09377833 -0.019967673 -0.05865963
0003b0 63 af 04 bd 66 b8 a0 3d 40 8f 82 3d 7b 17 13 bd
       -0.032393824 0.07847671 0.06374979 -0.035911065
0003c0 70 43 aa bc cc 8f 17 bd c9 79 fd bb 74 71 d4 bc
       -0.02078411 -0.03700237 -0.007735465 -0.025933005
0003d0 d8 5c 39 3d 20 9d 12 bd 82 1a 9d 3c 5b 31 96 bc
       0.04525456 -0.035794377 0.019177679 -0.018334081
0003e0 dc 25 0c bb d3 67 30 bc b4 c4 7b bd ee 28 94 bc
       -0.002138487 -0.010766941 -0.061466888 -0.018085923
0003f0 a1 48 9f 39 af 2b c1 3b 94 55 33 3b cc 0e 7b bc
       0.00030380956 0.0058951 0.002736424 -0.015323352

fc2.bias f4 [80]
000000 2c 12 0c bd a3 64 56 3c ad 46 80 3c 92 6b 21 bd
       -0.034197018 0.013085517 0.0156587 -0.039409228
000010 e4 f3 12 3d e1 90 08 bc 70 55 0a 3b da 71 2a 3c
       0.035877123 -0.008335323 0.0021108054 0.010403121
000020 10 78 de 3b a8 5a 2a 3c f3 68 14 bd c7 d3 11 3d
       0.006789215 0.010397591 -0.0362329 0.035602357
000030 45 53 07 bd aa c0 17 3d da 96 16 3c 1e fc 45 3d
       -0.033038396 0.037048973 0.009191239 0.04833614
000040 b4 a5 d1 bb e4 44 85 3c ca 5a 1d 3d b5 53 d8 bc
       -0.006397927 0.016268201 0.03841666 -0.026407102
000050 8b 0f 21 bd 5c 74 aa bc 3c de 13 3c 9a b9 f1 3c
       -0.039321464 -0.020807438 0.009025153 0.029507447
000060 32 7e 4d bc 46 bd 10 3d a0 02 24 bd cf d7 2c 3d
       -0.012542294 0.035336755 -0.040041566 0.042198
000070 b9 8f 3a 3d ea 48 82 3c 6d da 4a 3d 4e 57 d3 3c
       0.04554722 0.015903909 0.049524713 0.025798466
000080 51 28 26 3d 46 bd d9 bb fb 5c 82 bb f9 bc 0c 3d
       0.040565792 -0.0066448776 -0.0039783693 0.034359906
000090 6a 76 e6 bc 5c c2 ff bc a9 52 ad 3c 18 ef b2 bc
       -0.028132636 -0.031220607 0.02115758 -0.021842524
0000a0 04 ad fe ba b5 fc 71 3a 21 0f 47 3d 00 9f 19 bd
       -0.0019430225 0.00092310767 0.048598412 -0.03750515
0000b0 9b e2 c8 bc e1 f4 17 3c 15 79 8b bc 24 1b 57 3a
       -0.024522116 0.009274692 -0.01702551 0.00082056434
0000c0 98 95 e0 3c 94 9e 95 3c b5 cb f2 bb 9b 8a 46 3d
       0.027415082 0.018264093 -0.0074095377 0.04847203
0000d0 01 87 66 3c 37 e3 16 3d c3 26 54 bb 12 47 9b 3c
       0.014070273 0.036837783 -0.0032371737 0.018954787
0000e0 90 2d 19 3d 35 81 1f bd 10 20 12 bd 9a ae af 3c
       0.037396967 -0.03894158 -0.03567511 0.021445561
0000f0 74 ba 98 3b 84 e7 42 bd 19 5f f5 3c ec 02 4a bc
       0.004660899 -0.04758407 0.029952573 -0.012329798
000100 3a 9e f9 bc c8 27 81 3b 02 22 4a 3d 66 50 9c bc
       -0.030470956 0.00394151 0.04934884 -0.019081306
000110 17 fc 28 bd 47 e6 1b bd c9 4f 33 3d 49 3d 94 bb
       -0.041256037 -0.038061406 0.04377726 -0.0045239073
000120 6d 55 1f bd 67 1f f1 bc 82 f8 f7 bb 40 c6 32 3c
       -0.038899828 -0.02943392 -0.0075674662 0.010911524
000130 c0 52 ac 3a db 2b db 3c 86 2f db bc 9f 6c a7 3c
       0.001314722 0.02675431 -0.02675606 0.020437537

fc3.weight f4 [15, 80]
000000 8e 4d 7c bc 19 75 35 bd aa 34 91 bd 1d a0 38 bc
       -0.01539935 -0.044301126 -0.07090123 -0.011268643
000010 8f 28 20 bc e9 a7 ff 3c 04 12 b4 3d 38 b4 32 bd
       -0.009775295 0.031207995 0.08792499 -0.0436289
000020 55 c5 24 3c 68 01 a1 3c 68 9b 8f bd 3d e2 9b 39
       0.010056813 0.01965399 -0.07012063 0.00029732464
000030 81 d2 c2 3d d9 d8 24 3c 90 f9 93 bd f3 25 1b 3c
       0.09512807 0.010061466 -0.07225335 0.009469497
000040 a0 c1 5a 3d f3 32 7e bd 7a 3e 04 3c fb 53 04 3e
       0.05340731 -0.062060308 0.008071536 0.12922661
000050 af 0f 0c 3d d9 40 97 bc ba ea f5 3d d5 09 e4 3d
       0.034194645 -0.018463539 0.12007661 0.11134688
000060 63 75 6b 3d fe d8 1e bd 4d 94 ad 3d e3 5e 6b bd
       0.057484996 -0.03878116 0.08475552 -0.057463538
000070 38 7e 8f bc cf 27 c1 bc ee 62 eb 3c df 26 80 bd
       -0.01751624 -0.023578553 0.028733697 -0.06257414
000080 ef 3b 43 bd f1 4f 29 3d 72 69 e9 3a 9a 8f 6f 3d
       -0.04766458 0.041336004 0.0017807914 0.05848656
000090 7f a3 6e 3b 62 23 ad bd 68 31 30 bc f0 3e 5c bd
       0.003641337 -0.08454014 -0.010753967 -0.05377096
0000a0 5d 99 86 bd f7 0f 85 bd 91 af 1d bd 2b 64 75 bc
       -0.065722205 -0.06497186 -0.03849751 -0.014977495
0000b0 a4 4a d1 bd d1 9c 1e bd ab d4 25 ba 3a ca 5b bd
       -0.10219315 -0.03872377 -0.00063259405 -0.053659655
0000c0 2e c6 77 3d 1c f4 4b 3b da 56 05 3e 9f a5 0c 3e
       0.060491733 0.0031120842 0.13021412 0.13735054
0000d0 00 57 33 bd 59 15 92 bc 6b 06 0b 3e a5 b4 85 bd
       -0.04378414 -0.017832445 0.13576667 -0.06528596
0000e0 ba 70 d1 bc 76 0a da 3d e9 52 68 bd aa de da bd
       -0.025566448 0.106465265 -0.056719694 -0.10687001
0000f0 aa c6 2a 3c 34 91 7e bb 5b 8f c4 3c d1 92 6e bd
       0.010423342 -0.0038843872 0.023994138 -0.058245484
000100 09 c3 f6 3d c0 f6 19 bd 3a 40 33 3d 68 17 a8 3d
       0.12048919 -0.037588835 0.043762423 0.082075894
000110 62 78 83 bd c2 86 a3 3d 19 b9 cf bb a3 b6 3c 3d
       -0.064194456 0.079846874 -0.006339204 0.046072613
000120 6a 46 19 bb 7e f0 98 bd 8e 1c 36 3d cd 48 e4 bc
       -0.0023387917 -0.07467745 0.044460826 -0.027866745
000130 26 bd 2a 3d 36 ce e2 bc 71 bf 75 3d 7b d3 fd bc
       0.041684292 -0.02768622 0.059997026 -0.03098463
000140 13 78 91 bd fa 44 84 bd b5 67 44 bd 7c 7a 3b bd
       -0.071029805 -0.06458469 -0.047950465 -0.045771107
000150 40 26 21 bd cf 8a 76 bd 4b d8 93 bd f1 07 99 bd
       -0.03934312 -0.060190972 -0.07218989 -0.07472218
000160 f1 4c eb 3c d0 d3 b0 bc f4 9b 03 bd 22 c6 21 3d
       0.028723212 -0.021585375 -0.03213115 0.039495595
000170 a5 5c ad 3d 77 7f 84 3d 53 91 29 3d ce b7 97 bd
       0.08464936 0.064696245 0.041398358 -0.07408105
000180 18 1c 70 3d c6 ee 04 3c 5b ba d2 bc c0 ed 56 3c
       0.058620542 0.008113569 -0.025723627 0.013118207
000190 8b e5 cc 3c 34 97 24 bd ce 73 aa bd 21 01 80 bd
       0.025011798 -0.04018326 -0.08322869 -0.06250215
0001a0 53 10 f5 3d a0 18 2f 3e a0 f4 5f 3d fc bf a9 bc
       0.11966004 0.17099237 0.054676652 -0.020721428
0001b0 4b c2 a5 bc 8b 12 28 bd 69 ed c3 3c 08 71 ac bb
       -0.020234248 -0.04103331 0.023916917 -0.005262498
0001c0 00 49 8b bd 8e a6 4c 3b d7 7f 2c bd d9 27 03 3d
       -0.06801033 0.0031227204 -0.042114105 0.032020424
0001d0 f2 78 f2 bb ba 1d ed bc ea 45 9e bc a2 7c 02 bd
       -0.0073996717 -0.028944839 -0.019320447 -0.03185714
0001e0 a3 72 ab ba 6b da 5f bc a8 49 8e bd 98 b4 b3 3c
       -0.0013080429 -0.013662915 -0.069476426 0.0219367
0001f0 65 f3 5b bd 61 7f 7f bd 35 19 82 3d 5c 43 c0 3d
       -0.053698916 -0.062377337 0.06352464 0.09387848
000200 3e c0 01 bc 8d a1 8a 3d 75 87 39 3d 0e 44 43 3c
       -0.007919369 0.067690946 0.045295198 0.011918081
000210 7e e9 90 bd e8 21 c9 bc 5a 2b 50 b9 2f ec ba 3d
       -0.07075785 -0.0245523 -0.00019852575 0.0912708
000220 12 4f ae bc 43 2d fe bc 7c 1a dd 3b 38 72 0d bd
       -0.021277938 -0.031027442 0.006747542 -0.034532756
000230 a6 b9 b8 bc 2d ef 37 3c 64 3e b6 3c ff ec 66 bd
       -0.022549462 0.011226458 0.022246547 -0.05637836
000240 3f b3 14 3e 96 25 95 bd 99 4a b3 3d 3c aa d2 3d
       0.14521502 -0.072825596 0.08754463 0.10286376
000250 a8 14 9d bd 1d 76 9d bc fc 0c 8a bd 98 f4 5b 3d
       -0.076699555 -0.01922136 -0.06740758 0.05370006
000260 c3 73 46 3d 71 56 27 3e f1 fd 36 3d 4d f3 fb 3c
       0.048450243 0.16341569 0.04467577 0.030755663
000270 3f 11 8b bd 2e 6d 62 bc 0a 68 4f 3d b2 88 8b bd
       -0.06790399 -0.013819976 0.05063633 -0.06813182
000280 48 15 af bd 7b c8 66 bc 68 16 c7 bc 5a b6 62 bd
       -0.08548981 -0.014085884 -0.024302676 -0.055349685
000290 60 b5 d0 3d 4b 6a c3 3d 2f 64 a8 3b 07 f7 fc bc
       0.101908445 0.09541758 0.005138896 -0.03087951
0002a0 04 0d be 3d 1d 98 ab bc 13 ff 41 bc 0d 91 81 3d
       0.09279826 -0.020946557 -0.0118406 0.06326494
0002b0 00 9b 26 bd 32 f7 36 bd 95 87 0b bd 3a 52 ca 3d
       -0.040675163 -0.044669338 -0.034064848 0.09878965
0002c0 b2 43 66 3d c5 80 2f 3c 95 d4 1c 3d c8 c2 03 ba
       0.056216903 0.010711853 0.03828867 -0.0005026278
0002d0 92 34 46 3d 61 ec ad 3d 7d a7 a4 bd 6f 87 ca bd
       0.04838998 0.08492351 -0.08039758 -0.09889113
0002e0 53 25 49 bd 18 e5 01 3e f7 e0 eb bc 37 11 0d bd
       -0.04910786 0.12685049 -0.028793795 -0.034440245
0002f0 b0 ea 9a 3c fb 3c b5 bd 8b cd 95 3a 31 96 54 3d
       0.018910736 -0.08849522 0.0011429054 0.051901046
000300 48 de d0 bc cf 3b 1b bd 03 c3 b3 3c 8b 25 00 ba
       -0.025496617 -0.037898835 0.021943575 -0.0004888407
000310 7a f6 6e bd 86 1f 69 bd 3e 3f e9 3d 24 fe 09 bc
       -0.058340527 -0.05691483 0.113890156 -0.008422408
000320 12 fc 2d 3d 63 dc 70 bc 68 54 7d bc c3 f6 ec 3b
       0.04247672 -0.014700982 -0.015462019 0.0072315647
000330 14 6a 2a bd 89 90 91 3d b3 b5 df 3d 2a eb 8f 3d
       -0.04160507 0.07107646 0.10923328 0.07027276
000340 cd 08 67 3d 88 d5 21 bc 22 74 d7 3d 36 5c cb bd
       0.056404877 -0.00987757 0.105201975 -0.09929697
000350 60 2f 17 bd 20 ed 8b bd 61 40 44 3d 54 2b cf 3c
       -0.036910415 -0.068323374 0.04791296 0.025289215
000360 5d de 63 bc be 63 34 3c 9d 3a a9 3d 9c 63 fb 3d
       -0.013907996 0.0110101085 0.08263133 0.12274858
000370 2d f0 05 bc 9f e4 11 bd 4c 5f 2d 3d 7f 4b 8a bd
       -0.008174938 -0.03561842 0.04232721 -0.06752681
000380 bd 63 ca 3d ec 49 e7 3d af d9 21 3d d3 e6 5a bc
       0.09882305 0.11293396 0.03951424 -0.013360697
000390 c8 80 fa 3d 22 f1 ab bd 0c 61 a2 3d ca 04 09 bd
       0.12231594 -0.08395602 0.079286665 -0.033451833
0003a0 31 0b ed bc 81 1c c5 bd 91 ce 95 3c 75 95 7f 3c
       -0.028936 -0.09624577 0.018286975 0.015599598
0003b0 e2 a9 c2 3b 49 1f 16 3e 69 20 a5 3d 83 64 bb bc
       0.0059406618 0.14660372 0.08062822 -0.022875076
0003c0 92 e6 9e 3d eb b2 3d bc c2 24 b7 3c b6 2b 1d 3d
       0.077588215 -0.011578302 0.022356395 0.038371764
0003d0 12 76 ab bd 07 bf 7a 3d c7 11 11 bd 80 70 a7 3c
       -0.083721295 0.061217334 -0.035417344 0.020439386
0003e0 57 c8 12 bc dd f3 d7 bc 01 63 d4 3d cc 68 d0 3d
       -0.008958898 -0.0263614 0.10370446 0.101762384
0003f0 7c 24 06 be e5 90 7a bd 47 c0 9f 3d b9 c2 9c bd
       -0.13099855 -0.06117334 0.07800346 -0.07654328

fc3.bias f4 [15]
000000 07 e6 26 3d 18 18 b3 ba b9 9d 83 3d 76 c0 0f bd
       0.040746715 -0.0013663797 0.064265676 -0.035095654
000010 02 ba 3c 3d 90 05 98 3c 6a 4d a9 3c fe ce eb bc
       0.04607583 0.01855734 0.020666797 -0.028785225
000020 8a 71 2d 3c 5e d5 2f 3c e8 25 c4 3c 08 cb a9 3d
       0.010586152 0.010732023 0.023943856 0.08290678
000030 02 73 b7 3c 60 90 8b 3d 9c 5e 9e 3c
       0.022393707 0.06814647 0.019332223
