outfiles/cnn/Ya64_7Train_cnn.pth (torch, 605631 bytes, 10 tensors)

conv_layer1.weight f4 [16, 1, 5, 5]
000000 78 15 f4 bd 94 ae 2e bd c5 34 75 3b 09 ed 21 be
       -0.11918157 -0.04264696 0.0037415486 -0.15813078
000010 b2 1e 70 3d af 09 2c 3e 61 c0 27 3e 0f 6c 6b bd
       0.058623023 0.16800569 0.1638198 -0.0574761
000020 f7 10 2f 3d 28 75 12 bd b5 4b 15 3e 9e 9b 02 bd
       0.04274079 -0.03575626 0.14579661 -0.03188669
000030 24 be d6 bd 10 02 7f bd f8 85 e0 bd c7 3c c4 3d
       -0.10485485 -0.062257826 -0.109630525 0.09581905
000040 92 0b 93 3d 41 d9 e6 bd c3 c6 26 be fe 90 44 be
       0.07179941 -0.11271907 -0.16286759 -0.19195935
000050 c8 7b e7 3d c3 78 63 bd ed 1e 54 3d 9b a7 99 bd
       0.11302906 -0.05553509 0.051787306 -0.07502671
000060 19 36 4b bd 5e cc e7 3d 97 0c eb bd a0 98 ba 3d
       -0.04961214 0.11318277 -0.11477011 0.09111142
000070 bb eb 91 bd 79 97 6a bd ea b3 b7 bd 6b 62 97 bd
       -0.0712504 -0.05727336 -0.08969863 -0.073918186
000080 6a f0 44 3d 45 ac d6 bd 16 18 5b bc 64 81 0c 3d
       0.04808084 -0.104820766 -0.013372442 0.034303084
000090 fc ac 4b 3d e2 f8 59 bd 07 33 82 b9 8d f5 dd 3c
       0.049725518 -0.05321587 -0.0002483355 0.027094627
0000a0 2b 67 b6 bd 94 1d 59 bc 4a 21 96 bd 08 cf 76 3d
       -0.089063965 -0.013251681 -0.07330568 0.060256034
0000b0 28 55 02 3c b0 ae 0c bd eb ba 39 3d 51 3c aa bd
       0.007954873 -0.034346282 0.045344274 -0.08312286
0000c0 e7 63 35 bb 73 29 73 3c 3a 5c 22 3e 15 66 35 3e
       -0.0027677955 0.014841425 0.15855494 0.17714722
0000d0 f6 1e 06 3e 61 c8 67 3e b9 9f 99 bc 5c 53 f4 3d
       0.13097748 0.22635032 -0.01875292 0.11929962
0000e0 c7 f5 8e bd fb d4 b2 3d 38 63 b2 bd c2 d1 b7 bd
       -0.06980472 0.08732029 -0.08710331 -0.08975555
0000f0 47 20 25 3e 03 90 06 bd f2 16 14 3e 08 c9 f4 bc
       0.16125594 -0.032852184 0.14461878 -0.029881015
000100 24 c1 57 3d 18 38 d7 3c 16 5a 13 be d9 18 0d be
       0.052674428 0.026271865 -0.14389834 -0.1377901
000110 f9 d6 1c bd d0 f1 94 be 25 bb 50 3e 6c 5f 19 3c
       -0.03829095 -0.29090738 0.2038389 0.009361129
000120 c2 93 42 3d 52 72 1d be b1 0d 87 be df e8 f0 3d
       0.047504194 -0.15375641 -0.26377633 0.11763167
000130 a2 b9 c9 3c 8e 82 30 3d 08 2c bd bd 04 fc be bd
       0.02462465 0.043093257 -0.09236914 -0.09325412
000140 90 83 87 bd db 85 db bc ce 4f 15 bd 4d 90 8b bd
       -0.066168904 -0.026797226 -0.03645306 -0.068146326
000150 23 38 02 3d c4 f5 ba 3d 84 d1 e9 bc 1d 44 19 3d
       0.031791817 0.09128907 -0.028542288 0.037418474
000160 6c e7 74 bd 1c 5f 70 bd 97 87 65 bd 33 e9 6e bd
       -0.059791014 -0.058684453 -0.05603751 -0.058327865
000170 60 90 a1 bd 6c d0 8b bc f4 b3 0b bc 83 11 3c 3d
       -0.078888655 -0.017067157 -0.008526791 0.045915138
000180 14 f0 55 bd f3 07 fd bc 7d 96 2b 3c 82 f1 89 3a
       -0.05223091 -0.03088758 0.010472891 0.0010524245
000190 cd f7 5d bc c5 81 ca 3d b8 64 53 3e 94 5d 03 bd
       -0.01354785 0.09888033 0.2064389 -0.032071665
0001a0 c2 56 21 be cc 35 1b 3e ae 8e 9f 3e 1e 88 32 3e
       -0.15755752 0.1515724 0.31163543 0.17434737
0001b0 9f 40 21 3d d3 d3 c6 3d cc ca 8f 3e c4 16 d5 3d
       0.039368268 0.09708371 0.2808441 0.10404733
0001c0 c8 75 70 3e 4c 22 e5 3d 88 6a 37 3e f5 1e fc 3d
       0.2348243 0.11188182 0.17911732 0.12310592
0001d0 15 31 01 bd 1a 03 f8 bd a8 96 bd b9 5b f7 9e bd
       -0.03154095 -0.121099666 -0.00036161137 -0.07762023
0001e0 d3 1f b8 3d 1d a0 e2 bd c5 bf 19 be 04 64 54 bd
       0.08990445 -0.110656954 -0.1501456 -0.051853195
0001f0 c5 9e 1a be 64 aa cc bd 1f 85 96 3b 0c 3e 73 bd
       -0.15099628 -0.09993437 0.004593506 -0.059385344
000200 4a df b7 3a e0 89 1c bd 71 91 99 bd d7 c1 c8 bd
       0.0014028337 -0.038217425 -0.07498444 -0.09802597
000210 76 e6 af bd 0e 1a 57 3c 66 2b eb bd 02 73 2f bd
       -0.08588879 0.0131287705 -0.11482887 -0.04283429
000220 30 59 e6 bd 84 32 37 3c 14 ae fd bc c1 07 6c 3d
       -0.1124748 0.011181477 -0.030966796 0.057624582
000230 17 44 cd 3d 99 b4 f7 bc 1f c9 a4 bd b9 1f 82 bd
       0.10022753 -0.030237483 -0.08046173 -0.06353707
000240 9d 3a d7 bd bb e4 ac bd 23 56 3f 3d c8 1c 73 3d
       -0.105092265 -0.084420644 0.046713006 0.05935362
000250 69 33 c1 bd c0 7b 97 bd 49 9e 47 3d 71 25 04 be
       -0.09433634 -0.0739665 0.048734937 -0.12904908
000260 12 b3 34 3e e1 77 0e 3e 17 65 9b bd b2 ae b5 bc
       0.17646435 0.13912918 -0.07587641 -0.022178028
000270 25 5a 1e 3e 7e f7 4e 3e ed 59 01 be 85 1e f4 3d
       0.15464075 0.20211598 -0.1263196 0.11919884
000280 43 2e 21 be da 86 ea bd 22 d5 4c 3c 4e 77 2f be
       -0.15740304 -0.11451502 0.012501987 -0.17135355
000290 1b 18 18 be 17 0d 52 3e 6c 35 dd 3d 7b 97 6c 3d
       -0.14852946 0.20512806 0.10801205 0.05776165
0002a0 41 ca c3 bb ff 67 3c 3d 85 1e ea 3d 62 7e 23 bd
       -0.0059750383 0.045997616 0.114316024 -0.03991545
0002b0 aa 97 42 be 0c 66 2c be ca 00 24 be e4 20 da bc
       -0.19003168 -0.16835803 -0.16015926 -0.026627012
0002c0 03 7a 6f bc 81 4a da 3c 7f cb a5 bd 91 89 1a be
       -0.014616492 0.026646854 -0.080954544 -0.1509154
0002d0 53 0c 7d 3d 2e 02 ab ba d2 95 c5 3b f4 c5 99 3d
       0.06177933 -0.0013046914 0.006029823 0.0750846
0002e0 f8 15 11 bd 63 92 2d 3d c3 1e d9 bb 8f a8 fe 3d
       -0.03542134 0.042375933 -0.0066259815 0.12434494
0002f0 58 2a d0 3d 94 66 3b 3e fb cb 9c bd e1 01 09 be
       0.101643264 0.18300849 -0.07656094 -0.13379623
000300 31 c3 ca bd 57 04 82 3d bf 04 28 3d 4b 0f 52 bd
       -0.09900511 0.06348484 0.04102015 -0.051284116
000310 fe d9 73 bc 28 1e 7a bc a7 d9 e6 bb 55 16 81 bd
       -0.014883516 -0.015265979 -0.007044989 -0.063030876
000320 00 e5 35 3d 73 8f cc 3d b6 33 05 bd dc 8d fd 3d
       0.044407845 0.09988298 -0.03252002 0.12380573
000330 cb 4d 12 3e 1f b5 02 be 7a b6 a4 bd be 21 a5 3d
       0.14287488 -0.12764405 -0.08042617 0.080630764
000340 07 73 a1 bd 66 12 99 bd 9b f8 7a 3c 4b 9b af bd
       -0.07883268 -0.07474212 0.015318061 -0.08574542
000350 2b e4 fe bc 7b 3b 79 bd 17 3b 92 3d 4d e2 bf 3d
       -0.031114658 -0.06084774 0.07140177 0.09369335
000360 a3 3b 7e bd e0 56 7f 3d 8d c6 e6 3d ea 78 ca bd
       -0.062068593 0.06233871 0.11268339 -0.09886344
000370 99 5a eb 3d 03 13 fd 3d 48 61 b8 3d d4 c4 98 3d
       0.114918895 0.12357142 0.0900293 0.07459417
000380 9d d9 0e 3e 3e d9 ad 3d b9 43 54 3e 06 be bd 3d
       0.139502 0.08488701 0.20728959 0.0926476
000390 bc cc 3a bc 32 48 bd bd 7c 41 fd 3d 89 89 1a 3e
       -0.011401352 -0.09242286 0.12366006 0.15091528
0003a0 32 00 e2 3d e9 f7 d6 bd 54 f1 6b be 05 1f db bd
       0.110351935 -0.10496504 -0.23041278 -0.10699276
0003b0 7b 5e a3 3d 00 fe e9 bb 50 2a ac bd 47 5b bd bd
       0.07977005 -0.007140875 -0.08406508 -0.092459254
0003c0 4e 2f a8 3d b0 a1 99 3d a1 a9 93 bc 1e db 2f be
       0.08212148 0.075015426 -0.018025221 -0.1717343
0003d0 ec e1 65 be 6f 00 13 3e 7c eb 80 bd 97 a7 b2 3d
       -0.22449464 0.14355634 -0.06294915 0.087233715
0003e0 89 1d 4f be 3e 55 e7 bc 13 0d 0a be d7 50 9c 3d
       -0.2022611 -0.028238889 -0.1348155 0.076326065
0003f0 70 c5 4c 3e bf 12 03 3e b9 65 78 bd 40 38 91 3d
       0.19997191 0.1280012 -0.060643885 0.07090807

conv_layer1.bias f4 [16]
000000 e6 fd d5 bc 80 93 85 bd 6e eb 6a bd 7e d5 6b 3d
       -0.026122045 -0.06522274 -0.05735343 0.05757665
000010 e1 65 af 3d 04 db 78 bb dd 39 87 3d c7 0f b7 3c
       0.08564354 -0.003797234 0.066028334 0.02234639
000020 39 76 ab 3d 77 7e b1 3d ef 80 86 3d 74 c2 87 bd
       0.083721586 0.086666994 0.06567561 -0.06628886
000030 c4 d2 5a bd 55 9e 27 bd d4 f4 62 bb 4e e5 72 3d
       -0.053423658 -0.04092248 -0.0034630792 0.059300713

conv_layer2.weight f4 [32, 1, 5, 5]
000000 4b 5e 33 3d 23 4c e6 3d 37 19 b4 3d af 9c 8b bd
       0.043791097 0.11244991 0.08793872 -0.068169944
000010 03 70 62 3e 31 da c7 3d b8 91 07 bd ec c1 43 3e
       0.22113042 0.097584136 -0.033097953 0.19116944
000020 dc d4 ab bc aa 21 84 3e 34 9a 9e bd ca 6f 90 bd
       -0.020975523 0.25806934 -0.07744256 -0.07052572
000030 53 5a 01 bd 7a f1 23 3a fd d5 b7 bd b4 4b 6c bd
       -0.03158028 0.00062539394 -0.08976362 -0.057689384
000040 9a a5 a7 3c c0 57 d0 bb bb 19 bc bc ff 6c fa bd
       0.020464707 -0.006358117 -0.022961488 -0.122278206
000050 b6 62 26 bd 3c 59 a8 3d fb 72 bb 3b 02 ad 86 bc
       -0.04062148 0.08220145 0.005720494 -0.016439918
000060 9c 87 0c bd 16 b4 91 3d 42 48 01 be 24 8a 2c 3e
       -0.034309015 0.07114427 -0.1262522 0.16849571
000070 f2 49 11 3d d1 50 da bd 19 46 03 be c0 a9 61 bd
       0.03547091 -0.10659946 -0.12819709 -0.055093527
000080 71 33 93 bc 6f b1 27 3c 19 d0 0e bd 36 cc cf 3d
       -0.017968865 0.010235175 -0.034866426 0.10146372
000090 56 b5 e5 bc 6b 74 c2 3c 33 e2 66 bd 22 88 bc bd
       -0.02804057 0.023737153 -0.056368064 -0.09205653
0000a0 e5 16 58 bd ad 59 f2 bb 4c 7f db bd 8d 1c 54 bd
       -0.05275621 -0.007395944 -0.10717639 -0.05178504
0000b0 78 21 04 bc 06 8b 10 bd 09 fa ac 3d 5f 5b d9 3d
       -0.00806462 -0.035288833 0.08446128 0.10613131
0000c0 46 47 c1 3d 67 47 95 bd e2 84 58 3c 5b bb 22 3d
       0.094374225 -0.072890095 0.0132152755 0.039729457
0000d0 e7 44 c7 bc 60 b3 bc bd ac 3a ac bd 32 ab 1f 3d
       -0.024324847 -0.092139006 -0.08409628 0.038981624
0000e0 59 06 39 bd 5d 96 77 bc 3f d1 e4 3b 01 aa 88 3d
       -0.04517207 -0.015111533 0.006982952 0.06673051
0000f0 6c 78 b7 3d da 7c b4 bd a0 fe b0 3d 9b 5f 9c 3d
       0.089585155 -0.08812876 0.08642316 0.07635423
000100 03 50 1a bb b1 61 a6 bd 18 c8 ae 3c 4a 96 e6 bd
       -0.0023546226 -0.08124102 0.021335647 -0.11259134
000110 5f ed 99 bd 42 ef ea bc 32 72 b5 3a 17 f4 c5 bc
       -0.07515978 -0.02867854 0.0013843237 -0.024164243
000120 ab c6 b7 3d 23 78 eb bd b3 3e b8 3d b3 f4 0e 3d
       0.0897344 -0.11497524 0.08996334 0.034901332
000130 5e 07 e8 3d 36 98 8f bc ba 33 ab bb 11 61 4b 3d
       0.1132953 -0.017528635 -0.005224672 0.049653117
000140 8a 96 07 3d b2 bf a3 bd c8 bd 46 3d f2 8d 3a bd
       0.03310255 -0.07995547 0.048520833 -0.045545526
000150 3b 3b 93 bd aa e5 ab bd 98 05 d4 3d 9a 24 8c 3d
       -0.07189032 -0.08393414 0.103526294 0.06842919
000160 ce 45 a8 3c 0f 6f fc bb 7e 28 16 bd 44 55 78 bd
       0.020541098 -0.007703669 -0.03665971 -0.06062819
000170 3f ab 58 bd be bc d0 bd 0d 67 a1 bd c5 49 a1 3d
       -0.052897688 -0.1019225 -0.078809835 0.078753985
000180 70 9b c6 bb ce a4 8a 3d f3 7b 15 3c 4f 60 67 3d
       -0.00606101 0.06769715 0.00912379 0.05648833
000190 81 58 e1 3d 43 aa 46 3e c9 d5 2e 3d 6a e5 30 3e
       0.11003209 0.19400887 0.04268435 0.17275015
0001a0 c3 ea 54 be 36 90 0b be 50 57 60 bd a3 fa 2f 3d
       -0.2079268 -0.13629231 -0.054770768 0.042963635
0001b0 8d f3 80 3d af 84 a2 bc 5d 65 f2 bd f6 21 62 be
       0.062964536 -0.01983866 -0.1183574 -0.22083268
0001c0 d2 a0 86 3d f4 35 90 bb 3b 3f a2 3d e2 35 16 be
       0.06573643 -0.004400963 0.079222165 -0.14668992
0001d0 0a bf f7 bd d3 50 81 bd 42 6d 44 3e 8a cc 21 be
       -0.12096985 -0.06314244 0.19182304 -0.15800682
0001e0 d7 ea 8f 3d ae 61 3b be f2 c9 58 bd 52 9a 0a 3e
       0.07027214 -0.1829898 -0.052926965 0.13535431
0001f0 36 23 14 3e a0 eb fe bd 8a 29 22 3c 0b ff 22 be
       0.14466557 -0.12447286 0.009897599 -0.15917604
000200 f2 c3 05 be 17 07 40 3e 2e 2d fd bd 8b 26 fb 3c
       -0.13063028 0.18752705 -0.12362133 0.030658027
000210 32 1e a4 bd b3 9f 02 3d 73 64 9e 3c e4 b1 49 be
       -0.08013572 0.031890582 0.019335007 -0.19696766
000220 63 4f 26 be db 49 02 3c c6 77 16 bd 59 b8 6a bd
       -0.16241221 0.007952179 -0.03673532 -0.057304714
000230 17 c4 94 3d 13 b1 1c 3e 31 00 39 3e e7 b6 86 3d
       0.07263964 0.15301923 0.1806648 0.065778546
000240 f2 f6 31 be 9d db 13 3e 0a e3 17 3c 8c 72 20 3d
       -0.17379358 0.14439245 0.009270439 0.03917174
000250 31 70 c3 bd ce 0b 98 3d 55 23 0f bc 9d 6e 66 bd
       -0.09542883 0.074241266 -0.008736451 -0.056257833
000260 b3 28 ec bc f0 71 cc bc 73 dc ac 3d 77 ff 77 3d
       -0.028828 -0.024956673 0.08440485 0.060546365
000270 0b c8 c5 3b a0 e2 8c bd 0e ee 87 3a 65 11 2a bd
       0.00603581 -0.06879163 0.0010370628 -0.041520495
000280 b0 7c 9e bc bc 7f e9 bc 05 23 c8 bd 47 84 9e bd
       -0.019346565 -0.028503291 -0.097723044 -0.07740074
000290 d0 a6 f9 bb b8 b6 6d bd 12 27 01 3d 9e a0 3d bd
       -0.0076187626 -0.058035582 0.0315314 -0.046295755
0002a0 92 13 96 3d c0 bb 21 3d 14 0a c9 bd 8b 9d 83 bd
       0.073279515 0.039485693 -0.098163754 -0.06426533
0002b0 1a 66 b2 bd 62 ea 9e bd 19 fe 8c bc 7f 4e 9d 3d
       -0.087108806 -0.07759549 -0.017211007 0.076809876
0002c0 b5 e5 06 bd 2a d4 b0 bd 28 bf b7 3d 81 99 dc bd
       -0.03293391 -0.08634217 0.08972007 -0.10771466
0002d0 40 8f a6 3d c6 46 de ba 16 44 18 3d 82 ec 1b bd
       0.081327915 -0.0016958348 0.037174307 -0.03806735
0002e0 e6 b2 b2 bc b3 39 7d 3d d8 90 9d bc 75 89 ab bd
       -0.021813821 0.061822604 -0.019234106 -0.08375827
0002f0 d9 58 82 bd 46 15 83 bd d6 6d d7 bc e8 7f 35 3d
       -0.063646026 -0.06400542 -0.026297491 0.044311434
000300 8f 3e 3d bd c2 d8 09 bc 9f af da 3c d3 bf 67 3d
       -0.04620224 -0.0084134955 0.02669507 0.056579422
000310 47 5c c5 3d fc 49 cf bd 04 b8 bb bd 37 95 1b bc
       0.09636741 -0.10121533 -0.091659576 -0.009496025
000320 6a 26 df 3d bf e3 be bb 44 59 37 be 34 5d 1e 3e
       0.10895999 -0.0058254893 -0.17905146 0.15465242
000330 73 a1 1f 3e dd f0 dd bc fd b3 5b be cd 1a d2 bd
       0.15588932 -0.027092392 -0.21455379 -0.10259018
000340 9f ea be bd 43 71 78 3d ee f9 a4 bc 80 70 77 bc
       -0.09322094 0.06065489 -0.020138707 -0.015102506
000350 4f 1f 1c 3e 1a 61 3c 3e 7f 75 40 3e ac 56 2e be
       0.15246318 0.18396416 0.18794821 -0.1702525
000360 f1 24 8e 3c 2a fe 1e be ca 97 c0 bd cc ff 51 3d
       0.0173516 -0.15526643 -0.094039515 0.051269338
000370 31 ee 71 3d 9f 59 31 bd a9 78 22 be 4c 9c 68 bc
       0.059065048 -0.04329836 -0.1586634 -0.01419742
000380 39 49 b9 bd 07 2a 15 3e 16 db 39 be 7a c0 05 3e
       -0.09047169 0.14566813 -0.18149981 0.13061705
000390 bc fe 4c bd 9f bb 22 be df 28 0d bd 79 74 36 be
       -0.05004762 -0.15891884 -0.034462806 -0.17817868
0003a0 d6 59 3e be 64 65 2c 3d 76 54 4e be be 9f c9 bc
       -0.18588957 0.04208888 -0.20149407 -0.024612304
0003b0 a1 63 36 3e 2d 9b cf bd b7 ea 38 be 41 56 28 3e
       0.17811443 -0.10137019 -0.18058287 0.16439153
0003c0 b1 ac 20 be cb 3c 04 3e 09 45 c1 3c d4 a5 7d bd
       -0.15690877 0.12913816 0.023592489 -0.061925724
0003d0 94 61 b4 bc 79 4f b5 3d 28 82 6f 3e f5 9e 1b 3e
       -0.022019185 0.08853049 0.23389494 0.15197356
0003e0 fa 27 ed 3c 56 bd 8d 3d 71 2a 68 3d ba da c0 bd
       0.028949726 0.069208786 0.0566811 -0.09416719
0003f0 c9 f7 02 bc 78 28 40 3c 8a ff ce bd c4 4d ad 3c
       -0.007993647 0.0117283985 -0.10107334 0.021155246

conv_layer2.bias f4 [32]
000000 ab 56 aa bc 95 6c b2 3c 0f 91 76 3d df 87 ad 3d
       -0.02079328 0.021780292 0.060196932 0.08473181
000010 78 c6 70 bd 1c 46 d5 3d fd 7a 68 3d 8f c2 c9 3d
       -0.058783025 0.10413763 0.056757916 0.09851562
000020 f2 04 b0 3d cf 7b dc 3b 76 88 08 3d 3b 3f 9d ba
       0.08594693 0.0067286263 0.033333264 -0.0011996994
000030 94 8d 87 bd 3c 53 58 bd c0 a2 fd ba ba 38 79 bd
       -0.06618801 -0.052813753 -0.0019350871 -0.060845114
000040 83 8f 91 3d 00 8f aa 3c 3a 6b d4 bd c9 46 83 3d
       0.07107451 0.02082014 -0.10372014 0.064099856
000050 12 e2 eb 3b 0b e9 c8 ba 0d a4 bc 3d f8 5e 89 3d
       0.0071985805 -0.0015328241 0.09210978 0.06707567
000060 0c 05 c6 3d 89 4f ec 39 e2 3c bd bd 06 61 dd bd
       0.09668931 0.00045072686 -0.09240128 -0.108095214
000070 d7 3a 53 bc 5b fe 04 3d e4 ad 9c 3d 49 b8 ab 3c
       -0.0128924465 0.032469135 0.076503545 0.020961897

fc1.weight f4 [120, 1152]
000000 7a 45 11 3c f0 53 e6 bb 0c 14 94 3b d9 09 d6 3b
       0.008866662 -0.007029049 0.0045189913 0.0065319357
000010 b0 f8 12 3d 9a a1 9a 3d 81 99 55 bc b3 6b c4 bc
       0.035881698 0.07550354 -0.013037086 -0.023977136
000020 58 f6 14 bc 31 d1 8b b8 54 a1 05 bc ef d7 b5 3c
       -0.009091936 -6.6670014e-05 -0.008156139 0.022197692
000030 c8 6b 48 bc 10 48 78 bc 04 80 97 bc bb e0 24 3c
       -0.012232728 -0.0151539 -0.01849366 0.010063346
000040 08 88 8a bc 87 43 cf 3c f8 b8 47 bd d1 d1 44 bb
       -0.016910568 0.025300754 -0.048760384 -0.0030032287
000050 42 20 c9 ba a6 04 e5 bb cf 97 3c bb 1d ab 5d 3b
       -0.0015344697 -0.0069890795 -0.0028777008 0.0033823915
000060 51 ea 50 bc 80 0b fd 3b 05 f2 21 3c 08 61 a5 3c
       -0.012751178 0.007722318 0.009884362 0.02018787
000070 5e 7d 94 3c 2a ef 2a 3c 80 f4 d9 bc 1d 0d 12 bc
       0.018126186 0.010432998 -0.026605844 -0.008914259
000080 b4 e3 a7 3c d8 de 85 bc 8c ff 83 bc 1a a3 21 bb
       0.02049432 -0.016341612 -0.016113065 -0.0024663866
000090 c7 33 d0 bc a0 eb 57 bc 39 4f 3a bb 08 df 11 bc
       -0.025415314 -0.013178736 -0.0028428568 -0.008903272
0000a0 88 76 08 3c 15 79 d5 3c f1 3a d2 39 7e 4c 50 3b
       0.008329041 0.026058713 0.00040098236 0.0031783874
0000b0 f6 62 d5 bc d3 fb ac 3a f7 11 28 3c ee ec f7 bb
       -0.026048165 0.0013197608 0.010258189 -0.007566086
0000c0 57 60 83 bb 64 8b d3 bb f5 6b b4 ba 01 e9 df bb
       -0.0040092873 -0.0064558256 -0.0013765084 -0.006833196
0000d0 06 87 a0 bc fb 10 07 3c b9 bc a1 3b a3 7c 7b 3c
       -0.019595634 0.008243795 0.0049358276 0.01534954
0000e0 f9 2f a0 bc 2a 38 c5 3b dd ec a7 bb a0 9a f9 3b
       -0.019554125 0.006018658 -0.005124672 0.0076173097
0000f0 30 4c 94 bc 60 1b b5 bc 3c a7 7c bc 9d 60 b2 bb
       -0.018102735 -0.02210778 -0.015420731 -0.005443646
000100 85 5c c1 3c d9 3d 84 bc 18 05 6c 3c 41 d2 6a bc
       0.023603687 -0.016142773 0.014405511 -0.014332355
000110 c8 35 99 bc 31 ab d3 bb 5f 0d 4c bc 67 3d d4 bb
       -0.018702403 -0.0064596166 -0.01245436 -0.0064770463
000120 6b ab df bb 4d 55 54 3b 57 2f ff 3a 2a 7e 57 3b
       -0.0068258545 0.0032399476 0.0019469064 0.0032881596
000130 67 bf 76 bc 91 cd 8f 3b 03 53 3b 3b b3 e0 3d bc
       -0.015060282 0.004388519 0.0028583414 -0.011589217
000140 ab 44 57 3c 01 31 6d bc 9f e3 e8 bb 47 95 55 3b
       0.01313893 -0.0144770155 -0.0071072127 0.0032590197
000150 f2 52 d1 bb b0 87 23 bc 7a 95 51 bc ac 0a 77 b9
       -0.0063880617 -0.009981081 -0.012791986 -0.00023559731
000160 51 c3 24 3c 02 6c 63 bc 0a 4a 56 bc 15 c2 54 bc
       0.010056333 -0.013880732 -0.013079176 -0.012985726
000170 c5 de 85 b9 47 0b 0b 3b 65 5c 35 3c f5 aa 16 bc
       -0.00025533713 0.0021216439 0.011069392 -0.009196033
000180 08 41 23 3c 43 45 73 bc 7f 78 04 bc 02 ef 89 3c
       0.009964235 -0.014848056 -0.008085369 0.0168376
000190 7f e7 48 bc 17 aa 13 3c c5 7c 66 3b e6 67 58 3c
       -0.012262224 0.009012721 0.0035169583 0.013208365
0001a0 c5 50 cf 3b d5 83 89 bc f0 3b 87 bc f6 ad 5f bc
       0.006326767 -0.016786495 -0.016508073 -0.013652315
0001b0 8c e5 f2 bb 67 c0 4b bc d7 f8 0d bc ea e9 17 3c
       -0.007412618 -0.012436009 -0.008665285 0.009272078
0001c0 f7 b1 4c bc 42 75 06 bc 58 27 05 3c c4 9f 46 3c
       -0.012493602 -0.008206667 0.008127056 0.012123052
0001d0 50 7f bf bb b3 f9 c7 3b 0e f1 20 bc 77 eb 10 3c
       -0.0058440343 0.0061027645 -0.009823097 0.008845202
0001e0 ce 64 ef 3b 33 78 28 bc 63 3e bb bb 9c b1 64 3c
       0.007305718 -0.010282564 -0.005714224 0.013958361
0001f0 e5 23 81 3c cb 0e d5 bb 07 1e b9 bb 86 05 24 3c
       0.015764186 -0.0065020076 -0.0056493315 0.0100110825
000200 15 df 4d 3c ee a3 45 bc 8d e1 48 3b df 3d 85 3c
       0.012565394 -0.01206301 0.0030652017 0.016264854
000210 52 ea 0b bc 9e 06 7f 3c 62 21 47 3c bd f6 31 3b
       -0.008539753 0.0155655425 0.012153955 0.0027155124
000220 7a 59 30 bc 94 17 76 3b 0a f2 7e 3b bd 65 24 3c
       -0.01076352 0.0037550675 0.003890159 0.010034022
000230 91 99 58 bc 29 2b f8 bb 22 5e b6 bb 6d 5c 87 3c
       -0.013220207 -0.0075735045 -0.0055654207 0.016523564
000240 1f 7b 1d 3d 3f d9 23 3c 02 6d 3d bc 1a 86 b0 bc
       0.038447496 0.010000526 -0.011561634 -0.02154832
000250 7e 6b c5 3b 1f 29 16 bc 1c a0 28 bc 5e 7b 89 3c
       0.006024777 -0.0091650775 -0.010292079 0.016782459
000260 44 ea 85 3b 89 e9 f9 ba 77 e1 df bb b8 23 93 bc
       0.0040867645 -0.0019066791 -0.0068322974 -0.017961368
000270 9b b3 3a 3d c0 92 0b bd a4 d3 5f 3c 72 3f 50 3c
       0.04558144 -0.0340755 0.013661299 0.012710439
000280 8b a3 a0 bb 8b c9 02 bd e1 76 e7 3b 51 8a 3c 3b
       -0.0049023083 -0.031930488 0.007063732 0.0028768966
000290 de 52 0f bc 07 f7 cf ba 88 8c 14 3d 36 8b 01 bd
       -0.008747784 -0.0015866467 0.036266834 -0.031626903
0002a0 2b 9b 29 bc de 0d db bb 73 61 70 bc 00 32 06 bb
       -0.010351936 -0.0066850027 -0.014671671 -0.002047658
0002b0 46 36 41 3c 11 40 39 bc d5 c3 09 3d e0 d8 21 bb
       0.011792725 -0.0113067785 0.033634026 -0.0024695918
0002c0 73 99 0f 3c 75 fb 60 bc 02 cf ce 3a fc 37 9a 3b
       0.0087646125 -0.013731827 0.0015778246 0.004706381
0002d0 16 74 34 3d da 61 c3 3c 8e 7c 3c 3a 71 70 04 bd
       0.04405602 0.02385037 0.0007190191 -0.032333795
0002e0 9e 0d 99 bb 8e d3 08 3d 4f 26 a0 3c ee 1a 99 3c
       -0.0046708127 0.03340488 0.019549517 0.018689599
0002f0 ae 55 f8 bb ee 15 62 3b e4 fe 8c 3c 01 66 be 3c
       -0.007578573 0.0034497934 0.017211385 0.023241999
000300 ba 5d 87 bc 1f 44 d3 bc d1 e5 2b bc e9 13 d6 bc
       -0.016524184 -0.025789319 -0.010491804 -0.02613254
000310 6c 14 a8 bc 10 e0 5e 3b 2d f8 4c 3b 51 59 05 3d
       -0.02051755 0.0034008063 0.0031275854 0.032555882
000320 3d 9a a6 bc 0b 79 81 bc 22 9a 24 bc e1 66 b7 3b
       -0.020337218 -0.015804788 -0.010046514 0.005596981
000330 91 b8 0a 3c 43 5c 0d 3c 5a 12 2b 3b 45 dd f0 3b
       0.008466856 0.008627954 0.0026103468 0.007350596
000340 93 4e 9e 3c f5 4a be 3a 60 44 99 bc cb cc 42 3c
       0.019324576 0.0014518189 -0.018709362 0.011889647
000350 1b cd 14 3b ea 35 87 bb 72 8e 5f 3c f7 24 a7 bc
       0.002270526 -0.0041263 0.013644801 -0.020403368
000360 b0 9e 55 bc 25 ae ea bb 76 ce bf 3a 21 45 8a bc
       -0.013038322 -0.007161873 0.0014633674 -0.016878666
000370 df a1 82 3c 6c 5c 27 bc ca 5b e0 bb 08 fb 0d bc
       0.015946327 -0.010214906 -0.0068468796 -0.008665808
000380 f6 9a 85 3c b3 0a 89 bc 22 91 a7 3a 38 f7 30 3c
       0.016309243 -0.016728735 0.0012784342 0.010801129
000390 99 92 31 bc 4b 56 33 bc 58 58 68 bc 08 4d 7b bc
       -0.010838174 -0.010945867 -0.014181219 -0.01533819
0003a0 2a fc 64 bc 1b a1 2f bc 88 62 d5 3b 41 54 1e 3c
       -0.013976136 -0.010719563 0.00651199 0.009663642
0003b0 98 36 6b bc 46 4d 08 3c 42 c9 f1 ba ab 77 a9 3b
       -0.014356278 0.008319205 -0.001844682 0.0051717362
0003c0 76 71 30 3c f2 ea 92 3a 5b b4 22 3c 68 c1 81 3c
       0.010769239 0.0011208935 0.009930695 0.015839294
0003d0 4e d7 a7 3b e7 54 0f bb 82 95 78 3c 09 22 31 3b
       0.005122102 -0.0021870674 0.015172364 0.0027028343
0003e0 17 88 b9 3b 31 d5 1b bc 9b a6 9a ba fd b4 2c 3c
       0.005661975 -0.009511278 -0.001179892 0.010541198
0003f0 fb 2f 43 bc 9e ee f5 ba d6 c5 7e 3b ec b0 4d 3c
       -0.011913295 -0.001876313 0.0038875244 0.0125543885

fc1.bias f4 [120]
000000 dc 5a 31 3c 04 98 76 3c bd b6 86 bc cc f7 23 3a
       0.010824885 0.015050892 -0.016444558 0.0006254881
000010 45 a2 e9 3b 43 ae 42 bc c0 ff 84 3c f3 2f dd 3b
       0.0071299397 -0.011882368 0.016235232 0.0067501008
000020 d8 5c 2d bc 9f 31 da bb 52 92 29 3c 81 f0 07 bb
       -0.010581218 -0.0066587473 0.010349827 -0.0020742717
000030 4b 48 30 3c b6 2f 5b bc 3f 92 ed bb cc 18 8d bb
       0.0107594235 -0.013378074 -0.0072501 -0.0043059345
000040 c7 95 35 bc 84 ef 81 bb 2e a1 70 3b 04 42 5e 3b
       -0.011083073 -0.00396532 0.0036717164 0.003391386
000050 83 1b 2f ba 63 44 55 3c 0e fa 82 3c ec 5e 6c 3c
       -0.000667982 0.013016793 0.015988376 0.014426928
000060 28 35 23 3c e6 42 39 3b 8e 9a 8d bb 0b f6 7e bc
       0.009961404 0.0028268634 -0.004321403 -0.015561591
000070 a2 4d 3d bc a5 75 5e bc ad c1 aa bb 2d 77 9f 3c
       -0.011554154 -0.013577853 -0.0052110762 0.019466007
000080 33 4d 4b 3c 1d ea 60 3b 99 bb 64 3b 24 90 87 3c
       0.012408542 0.003431923 0.0034901856 0.016548224
000090 45 f3 09 bc 66 2b d4 bb ef fc 86 bc 2e 44 54 bb
       -0.008419816 -0.0064749 -0.01647803 -0.003238927
0000a0 4a f7 15 3b 45 c1 05 bc bd 59 30 3b 5b 5b 22 bc
       0.0022882991 -0.008163755 0.0026908957 -0.009909476
0000b0 60 97 85 3c ce 2b 6f 3c c4 df b3 bb 16 10 4d bc
       0.016307533 0.014597846 -0.0054893214 -0.012516042
0000c0 36 11 f3 3a 19 3f fc bb 78 0e 22 bc 36 65 0b 3c
       0.0018544558 -0.0076979515 -0.009891145 0.008508017
0000d0 cd 2e 5f bc 85 c6 f2 bb 1b 85 77 bc 00 ea 38 3c
       -0.013621998 -0.0074089193 -0.015107418 0.011286259
0000e0 33 38 70 3c 38 69 67 3c 35 f5 56 3c 09 a3 b0 bb
       0.014661836 0.014124207 0.013119985 -0.005390529
0000f0 3a a8 93 bc 6d de 9a bc c6 ba 4e 3c 64 6c 1c bc
       -0.018024553 -0.018904889 0.012617772 -0.009547327
000100 71 72 81 bc 97 ba a0 ba 87 a6 02 3c a2 96 3a 3b
       -0.01580164 -0.0012262639 0.0079742735 0.0028471132
000110 c9 cf 73 bc 3c 0d f5 bb 4c 8b 6f bb cb 4e 02 3a
       -0.014881083 -0.0074783843 -0.0036551533 0.00049708475
000120 54 10 10 3c 32 4a 9a bb f4 f2 6d 3b 1b 27 91 3a
       0.008792955 -0.004708552 0.0036308141 0.0011074276
000130 e1 c8 4b 3b 46 b8 26 3c 02 98 88 bc 7a c3 4a ba
       0.0031095075 0.01017577 -0.016674045 -0.0007734817
000140 cc 0d 58 3c 9e 25 44 3c 44 0b fb 3b 3b e9 e6 ba
       0.013186883 0.011971859 0.007661255 -0.0017617116
000150 e2 39 41 3c 63 b8 ab 3c 53 ea 40 bb 53 6f c3 bb
       0.0117935855 0.020961946 -0.0029436543 -0.0059641986
000160 51 3a 80 3c 62 00 e4 ba a5 b5 eb bb ae 5a 42 3c
       0.015652807 -0.0017395134 -0.0071932846 0.01186244
000170 ae be a9 3b cd dc 86 3c e4 f5 24 bc 9d 3f 83 bb
       0.0051802015 0.016462708 -0.0100683905 -0.004005386
000180 1d 59 6d bc 68 05 4f ba 2b 80 72 bc 1e 9c 53 3b
       -0.014486578 -0.0007897229 -0.014801065 0.0032289098
000190 17 9c 6d 3a b2 60 bc bb d3 fb 80 ba 19 7a 91 3a
       0.0009064092 -0.0057488317 -0.0009840674 0.001109901
0001a0 69 fb 1f 3c 15 a5 d3 3a 8b 83 77 bc 73 21 08 3b
       0.009764531 0.0016147221 -0.015107046 0.002077189
0001b0 38 26 1b ba 67 3b ef bb 2d 61 22 3c 3f 6e 21 bc
       -0.0005918476 -0.0073007825 0.009910864 -0.009852945
0001c0 18 73 21 3c 2b 19 98 3b dc 32 9b 3c 8b 9e 05 bc
       0.009854101 0.004641672 0.01894515 -0.008155475
0001d0 c9 43 5a bc 2f ce 1e bb 2c 55 be 3b dd 5a 8c 3c
       -0.013321825 -0.0024231782 0.005808493 0.01713317

fc2.weight f4 [80, 120]
000000 22 3e bc bc 25 93 17 3c 79 cd 38 bc 7c f1 3a 3d
       -0.022978846 0.009251391 -0.011279457 0.045640454
000010 57 41 39 bc 99 1d 6b 3d 06 8e 3d 3d b1 23 e4 3c
       -0.011307082 0.057401273 0.046278022 0.02784905
000020 e5 c7 75 bd f9 01 c3 bc 10 7f c5 3c a4 64 61 bd
       -0.060005087 -0.023804652 0.02410844 -0.05502762
000030 45 94 0b bd b1 2b 18 3d 60 27 02 3c 65 f5 3a 3d
       -0.034076948 0.037151042 0.007943958 0.045644183
000040 0b ae 50 bd b3 48 31 bc ae a3 df 3c 56 b0 7b bc
       -0.05094723 -0.0108205555 0.027299728 -0.015361866
000050 93 22 0d bd 59 cf f9 3c 97 aa 04 bd 4e 0d 63 3d
       -0.0344568 0.030494379 -0.03238925 0.05543261
000060 a6 45 dc bc d8 c0 6c bd a3 64 05 bb 34 1b 0f 3d
       -0.02688868 -0.057801098 -0.0020354174 0.034938052
000070 7a b0 20 3d 57 ae 95 3d 20 37 1a 3b 0e 7c 59 bc
       0.0392308 0.07308643 0.0023531392 -0.013274206
000080 75 1e 17 bd c4 ec 10 bb f9 a9 2e 3d 5e a9 9d 3c
       -0.03689428 -0.002211378 0.042642567 0.0192458
000090 a7 18 8e bc fc 35 32 bd cd aa 90 3d 3e d9 b3 3d
       -0.01734574 -0.043508515 0.07063828 0.0878167
0000a0 72 06 14 3d 00 04 4d 3c 19 ca ef 3c 49 00 96 3d
       0.03613896 0.012513161 0.029271172 0.07324273
0000b0 97 24 0b bc cd 8f 21 3d dd e1 bb bc cd 75 39 3c
       -0.00849261 0.03944378 -0.022934848 0.01131959
0000c0 c0 50 c7 bc ce 46 26 3c c2 75 36 bc 9a cc 84 bd
       -0.024330497 0.010148717 -0.011136474 -0.06484337
0000d0 05 85 6c bd 5f a0 4c bd 6f a0 ae bc 43 e3 2d 3d
       -0.057744045 -0.04995763 -0.021316735 0.04245306
0000e0 24 83 38 3b 28 28 7b bc c5 70 d0 3a c1 74 58 ba
       0.0028154338 -0.015329398 0.0015902749 -0.0008257144
0000f0 7d c5 fe bc 43 de 88 bc 13 f9 1e bd 97 32 8a 3c
       -0.03110003 -0.016707545 -0.038811754 0.016869826
000100 58 e5 b0 3c 20 a7 5a bd 03 69 d1 3b e6 4a 44 3d
       0.021593735 -0.05338204 0.006390692 0.04792299
000110 8c ea 86 3d bf 88 32 bc 48 d3 04 bd dc 57 b9 bc
       0.06587705 -0.010896861 -0.032428056 -0.022624902
000120 19 da 82 3d a7 59 35 3d 0c f9 ce 3b eb dd ec bc
       0.06389255 0.044274952 0.00631631 -0.028914412
000130 9c 72 dd bc a2 33 2a 3c ca ab 53 bd 30 be ba 3b
       -0.02703219 0.010388287 -0.051677503 0.0056989416
000140 97 9b 36 bd 11 85 10 bc 8d 66 82 bd 0b 6b 60 bc
       -0.044581976 -0.008820788 -0.06367216 -0.013697396
000150 8b 03 d5 3c a7 34 05 bd 2c c2 a2 bc 91 e7 0a bd
       0.026002666 -0.032520916 -0.019867979 -0.033912245
000160 34 40 07 3d af a0 3d bd 9c df c5 b9 c0 e9 d7 ba
       0.033020213 -0.046295818 -0.0003774137 -0.0016472861
000170 97 5f f2 3c a1 7a 24 bd 54 a6 19 3d b0 80 96 3d
       0.029586596 -0.04015601 0.03751214 0.07348764
000180 4b 37 8d 3d 86 93 28 bb fe e7 40 3d a3 81 2a bc
       0.06895312 -0.0025722696 0.047096245 -0.010406884
000190 0b 1e 38 3d f9 9e 12 bd c7 52 2c bd 39 77 d5 3c
       0.044950526 -0.03579614 -0.04207113 0.026057826
0001a0 36 8f b8 bc 8b 81 40 3d 47 b7 35 bd 60 aa da 3c
       -0.022529226 0.04699854 -0.04436424 0.02669257
0001b0 ee 6b 19 3d 3f 19 21 3d aa 98 22 3d 3c 71 25 3d
       0.037456445 0.039330717 0.039696373 0.04039119
0001c0 e5 1e f8 bc f8 ce 48 bb 8c f2 49 bc c5 a8 2a 3d
       -0.03028817 -0.003064094 -0.012325894 0.041664857
0001d0 61 1d 28 3d 12 15 55 3b fb 52 8e bd ac 70 48 3d
       0.041043643 0.003251378 -0.06949421 0.048935577
0001e0 87 db ea 3c d2 ce 8a 3d 76 2b 2c bd 52 f0 c1 3b
       0.028669132 0.06777729 -0.042033635 0.005918541
0001f0 00 17 4f 3d 4b ad 08 3d fc 0a 54 3d e3 14 43 bd
       0.050559044 0.03336839 0.051768288 -0.04762734
000200 4f b9 db bb 77 2c a9 bc 3e d7 37 3d 28 b3 be 3c
       -0.00670544 -0.020651085 0.044883005 0.023278788
000210 b3 53 7d 3d 71 22 20 3c 00 8d 09 bc 3d 87 35 bd
       0.0618474 0.0097738365 -0.008395433 -0.044318426
000220 4b bc fe bc a9 cd 64 3d 14 82 e8 bc 58 1b d7 3c
       -0.031095644 0.055860195 -0.028382339 0.026258156
000230 56 f1 02 3d 78 1f c8 3d be 3f 0f 3d 87 a0 a5 3d
       0.031968437 0.09771627 0.0349729 0.08087259
000240 32 ce 08 3c fc 4a 1d bd 2d f5 b8 3b 00 64 73 bc
       0.008349942 -0.03840159 0.0056444616 -0.014855385
000250 51 e4 5e 3c dc a7 c6 3d c4 6b 7e bc 08 fb 2b bb
       0.01360424 0.096999854 -0.015528623 -0.0026242156
000260 56 9f 82 bd d8 25 9b bc 4c 8f 94 bd 4f d1 7d 3d
       -0.06378047 -0.018938944 -0.07253894 0.06196719
000270 84 e1 81 bd 91 39 53 3c df 89 dd 3d 1a 80 06 3d
       -0.06341842 0.012892143 0.108173124 0.03283701
000280 a8 20 ab bc 3f a5 f7 3c a8 e1 59 3c 7e 86 0d 3e
       -0.020889595 0.030230163 0.01329843 0.13820836
000290 2c 94 3b bd df 38 b7 3c ce 7c 7c 3d ec 38 b3 bc
       -0.045795605 0.022365985 0.06164246 -0.021877728
0002a0 99 e8 a1 3c 6f 55 88 bd ab 45 91 bc 05 6d 17 bd
       0.019764232 -0.0665692 -0.017733416 -0.036969204
0002b0 4d ba 80 bd 7e 1e 2f 3d 0a 98 5c 3d 77 a8 31 3c
       -0.06285534 0.04275369 0.053855933 0.010843388
0002c0 84 3f 83 bd cb 92 45 3d b2 7d 94 3d 83 96 e1 bc
       -0.06408599 0.048235696 0.07250537 -0.02753759
0002d0 4d ea c0 bc 13 7e 1f 3d 70 a4 c5 bd 1e 80 b5 bc
       -0.023549223 0.038938593 -0.096505046 -0.022155818
0002e0 33 08 4d 3d f9 4f e9 3c 6c 2c 69 bb c6 6a 37 bc
       0.050056648 0.028480517 -0.0035579456 -0.01119489
0002f0 0a 8e 6a 3d 40 63 30 bd 1d 90 09 bd 7d d9 2a bd
       0.057264365 -0.043063402 -0.033584703 -0.04171132
000300 55 2f 78 3d 7c 9a 2d 3d 54 d7 cd 3b be 0c 73 3d
       0.060592014 0.042383656 0.0062817726 0.059338324
000310 ea 33 05 bc bc b1 da 3c bf aa 23 bb 52 7b 7b bd
       -0.008130053 0.026696078 -0.0024973599 -0.061396904
000320 2f 57 ef bc 96 0d 2e bd 46 23 ec 3c ed b0 52 bd
       -0.029216377 -0.042493425 0.028825413 -0.05143826
000330 70 6f 77 bc 2b 77 51 3d 16 54 19 3d c9 81 78 ba
       -0.015102252 0.051139038 0.037433706 -0.0009479789
000340 5e 79 f6 3c 35 8b 5b bd 21 f5 5a bc 1d 18 06 3c
       0.03008717 -0.053599555 -0.013364107 0.00818446
000350 6c 9d f7 3b 7d 20 32 bd 0f b1 24 bd 96 f2 bf 3d
       0.007556608 -0.043488014 -0.04020792 0.093724415
000360 14 de 3b bd d7 29 95 bd 4e 12 58 3d f4 a9 72 3b
       -0.045866087 -0.07283371 0.05275183 0.003702757
000370 66 ac 97 bd 97 73 63 bd a3 9b 1e 3d 22 44 7b 3d
       -0.07405929 -0.055530157 0.038722645 0.061344273
000380 0a 8b c5 3c 2d c6 88 bc bb 83 1f bd 37 05 8f 3d
       0.02411415 -0.01669606 -0.038943987 0.069834165
000390 ab 34 d1 3d c4 32 1f ba ad 50 37 bd 71 48 fb b8
       0.10215124 -0.00060729333 -0.044754673 -0.00011982106
0003a0 6a 30 2f 3c b7 41 19 bd 6c 5c 95 3d 5e 79 19 bd
       0.010692695 -0.037416186 0.07293019 -0.03746926
0003b0 55 b6 35 3d e3 69 17 3d dc e9 95 bd b1 9d a4 3c
       0.04436334 0.036966216 -0.07319996 0.020094724
0003c0 25 78 26 3d a7 95 2a 3d 3f 1c fb 3c 17 66 a7 3d
       0.040641923 0.041646626 0.030653117 0.08173769
0003d0 92 d4 dd 3a b1 f1 cb 3c 2f 88 b8 bc 56 6d 1d bd
       0.0016924313 0.02489552 -0.022525875 -0.03843435
0003e0 65 2e 50 bb b8 e9 1c 3b 9f 33 26 bd fb 86 b0 3d
       -0.0031765935 0.0023943018 -0.040576573 0.086194955
0003f0 74 64 9e bd f9 8f 43 3d e4 97 97 bc ac 04 13 3d
       -0.07734004 0.047744725 -0.018505044 0.035893127

fc2.bias f4 [80]
000000 7c a8 46 3d 6f 71 62 38 06 c5 f1 bc 48 4c cd 3c
       0.048500523 5.3988242e-05 -0.029512893 0.025060788
000010 56 c0 cb 3b a3 c0 dc 3a 5c c3 d1 ba b8 06 b5 3c
       0.0062179966 0.0016842078 -0.0016003656 0.02209793
000020 d7 9d ab 3c c2 45 e9 3c 34 50 3c 3d 94 4e b4 bb
       0.020949287 0.028475646 0.045974925 -0.0055025313
000030 c5 4e 2d 3d b2 54 ad 3b e6 c8 26 3d 4d 4c 09 3d
       0.04231145 0.0052896375 0.040718935 0.03352003
000040 c1 f3 0f 3d db 51 3d 3d ea d2 07 bd 51 78 5e bc
       0.03514457 0.04622064 -0.033160128 -0.01357849
000050 d3 e7 73 3c b6 48 92 bb d0 ee ff 3c 03 14 5b bd
       0.014886814 -0.004464234 0.031241804 -0.05348588
000060 08 64 c7 ba ee 80 1e bd 1d 60 fe bc 51 6f 54 bd
       -0.0015212307 -0.038697176 -0.03105169 -0.051863972
000070 dc 63 a3 3c b9 0b 34 bd de b6 2b bd 15 87 82 3c
       0.019945078 -0.043956492 -0.041922443 0.015933553
000080 c7 bd 2a bb 0f d2 38 3d 6f cd 22 bc 80 b8 e7 3b
       -0.0026053058 0.045122202 -0.0099366745 0.0070715547
000090 f2 5c 51 3d ac 72 a7 3c 7c b2 cb 3b f9 31 9a 3c
       0.05111403 0.020440422 0.0062163454 0.018822657
0000a0 78 ee 59 bd 62 49 f9 bc 2d ca 1f 3d 50 3f 42 3d
       -0.053205937 -0.0304305 0.03901117 0.04742366
0000b0 d6 29 ce bb 0e 78 32 3d e3 14 50 3d 6f 08 46 3d
       -0.0062916083 0.043571524 0.05080117 0.048347887
0000c0 4f 30 08 3d 61 9c 0a 3d ac 0a 0e bb d7 22 3b bc
       0.033249196 0.03384054 -0.0021673841 -0.011421881
0000d0 89 4e fd bc 55 2d 11 bd 91 84 01 3c ce 08 09 bd
       -0.030921238 -0.035443623 0.007905141 -0.033455662
0000e0 b7 9f 35 bc f9 62 8e bc e4 24 72 3c 63 b6 c0 3c
       -0.011085442 -0.017381178 0.014779303 0.023524469
0000f0 22 31 01 bd 1c ad 0a 3d 93 18 1f 3d 80 90 94 bc
       -0.031540997 0.033856496 0.038841795 -0.01813531
000100 56 b4 37 3d 1d 07 35 bc 59 ca 05 3d 9d 37 e1 3c
       0.044849716 -0.011049059 0.032663677 0.027492339
000110 79 44 e1 bc 69 08 4d bb cf 1c b4 bb 6a 7a c7 3c
       -0.02749847 -0.003128553 -0.0054965983 0.024350364
000120 0a 2e 3a bd 78 0b 40 bd d7 d5 32 3a 8d 87 6c 3d
       -0.045454063 -0.046885937 0.0006822026 0.05774646
000130 a8 95 f2 bc a1 73 46 bd 0f e4 e0 bc b5 db 48 3d
       -0.029612377 -0.048450116 -0.027452497 0.049037654

fc3.weight f4 [15, 80]
000000 e0 18 82 3b e8 cc 9c bd 22 cd cf 3c d9 be 93 3d
       0.0039702505 -0.0765627 0.02536637 0.07214136
000010 5c 55 31 3c 28 d2 34 3d fd b5 aa 3d 89 3e a9 bd
       0.010823574 0.044145733 0.08335493 -0.08263881
000020 d5 ff 08 3b 8a 63 29 bd 41 2e 0f 3d 08 91 25 bc
       0.002090444 -0.041354693 0.03495622 -0.010105379
000030 ac a5 2d bd 2f 87 4c 3d 53 be 92 bd c2 e4 40 3d
       -0.042394325 0.04993361 -0.07165208 0.04709316
000040 85 77 01 3c e7 c1 19 bd a7 47 1c 3d f4 68 6e bc
       0.007902031 -0.037538435 0.03815427 -0.01455139
000050 ae 8a cc 3c 69 0e cc 3d da 7b 41 3d 63 2a 61 bc
       0.024968471 0.09963686 0.047237255 -0.013743016
000060 ba f7 04 bd 88 dd 43 bd 73 ef 4f 3d 82 e4 31 bd
       -0.032462813 -0.04781869 0.050765466 -0.043430813
000070 dc fe 1b bb 26 f8 b1 3c 62 44 f0 bd ba 46 4f 3d
       -0.002380303 0.021724772 -0.11731793 0.05060456
000080 58 cb 11 3e 6c c4 9e ba 3b b6 db bd 09 e9 ab bc
       0.14237726 -0.0012112982 -0.10728117 -0.020985143
000090 9f d6 94 3c 67 90 98 3d 4c c8 02 3e 26 bf 3b 3d
       0.018168746 0.074494176 0.1277172 0.04583659
0000a0 8a 61 d4 3b a4 d1 fb bc 0c 75 6f 3d f7 57 c1 bd
       0.006481354 -0.030739613 0.058461234 -0.09440606
0000b0 36 d5 16 3d 1f c2 19 bd 41 c0 d7 ba 48 f3 b4 bb
       0.036824428 -0.037538644 -0.0016460494 -0.0055221654
0000c0 9a ea 6e bd 9d fe b0 3d a9 9f 41 bd 05 70 a0 3d
       -0.058329202 0.08642314 -0.047271404 0.07833866
0000d0 ee b8 6f 3d 73 90 80 bd 5b 0f 3d 3d e4 7f 9b 3c
       0.058525972 -0.062775515 0.046157222 0.018981881
0000e0 4b fc 1f bc 50 86 86 3d b6 87 8b bd a4 ad 00 bd
       -0.009764741 0.06568587 -0.06812994 -0.031415597
0000f0 e5 c5 37 bc 86 93 13 3d c3 56 a5 bc ee be 14 b8
       -0.011216615 0.03602936 -0.020182973 -3.5463767e-05
000100 ef 5a 8c bb 44 1b 3b 3d 97 ea 36 3d 02 cb 84 3d
       -0.004283301 0.0456803 0.044657316 0.06484033
000110 5e 51 4a bd e7 a5 e7 3d a6 4c 59 3a 5d d4 07 3d
       -0.049394004 0.1131094 0.00082893146 0.03316151
000120 ef 00 98 bd 99 17 8d bd af e9 e2 3d 8d 0f ca 3d
       -0.07422053 -0.068892665 0.11079728 0.09866247
000130 49 04 15 bd a5 10 9c bc 6b b3 01 3e 6e 69 ef 3d
       -0.03638104 -0.019050905 0.12666099 0.11690031
000140 77 6b 27 3d 4f 73 24 bd 07 fa c7 3d e0 4f 63 3d
       0.04087397 -0.04014903 0.09764486 0.055496097
000150 99 7a d9 bc d0 b2 f9 bd 2c fd 3b 3d 80 93 10 bd
       -0.026547717 -0.12192309 0.04589574 -0.035296917
000160 29 04 34 3d 0b 72 e9 3d 4f 7b d1 bd ce 9d e6 bd
       0.04394928 0.11398705 -0.102285974 -0.112605676
000170 58 84 f0 3c c8 98 a6 3a 75 aa da 3d 49 ac 85 bd
       0.029359981 0.0012710327 0.10677043 -0.065270014
000180 1e d9 5c 3d 24 ad 8c bd 91 f0 22 ba f9 57 8d 3c
       0.053917997 -0.068689615 -0.0006215657 0.017253863
000190 9d a7 26 bd 96 19 1d 3d 73 68 27 bd d7 ed 89 3c
       -0.040687192 0.03835448 -0.040871095 0.016837044
0001a0 ad 75 b2 bb 2d 2d 1c 3c 42 f8 91 bd 07 cf d1 3b
       -0.005446157 0.009532255 -0.071274295 0.0064028534
0001b0 75 f8 0c bd 63 57 21 3c 9d ad 28 3d 8c 06 06 3e
       -0.034416635 0.009847495 0.041181196 0.13088435
0001c0 cb eb 66 3d d8 d4 4b 3d f6 d0 e2 3d f2 cc a4 bd
       0.056377213 0.04976353 0.110750124 -0.08046903
0001d0 19 69 c1 3c 77 cf bb 3d 35 64 11 3d b3 98 12 bd
       0.023609685 0.0917043 0.035495955 -0.035790157
0001e0 a4 f2 4e bd b6 5e 41 bd 79 45 dd bd 6d b0 82 bd
       -0.05052437 -0.047209464 -0.108042665 -0.06381307
0001f0 f6 b2 c1 3b b1 4b 66 bd 22 77 aa bd 7d 6d e4 3c
       0.0059112264 -0.05622453 -0.08323504 0.02788424
000200 d2 8a 03 bd cc 43 64 bd f5 a3 0d bd 6a 81 59 bb
       -0.03211481 -0.05572872 -0.03458019 -0.003318871
000210 da 47 ae bd dd 59 5a 3d ec da 67 3d 0d 77 5e bd
       -0.08509798 0.053308357 0.056605265 -0.054312754
000220 62 bf 02 3e fb 8e d7 bc 27 24 98 bd d0 7b 7d ba
       0.12768319 -0.026313296 -0.074287705 -0.00096696336
000230 54 34 13 3e e4 25 92 bd cb 2a 16 3d 15 eb 04 3d
       0.1437543 -0.07136133 0.036661904 0.032450754
000240 8b da 0f 3d 92 4e c7 3d 37 e1 c9 bd cf c5 83 3d
       0.03512053 0.09731783 -0.098574094 0.06434213
000250 20 24 32 bd 86 3d d5 3d d7 20 3b 3b aa eb 47 3d
       -0.043491483 0.10412125 0.002855351 0.04880873
000260 be 96 61 bd 60 28 bf 3c cc 3b 08 3e 51 91 4e bc
       -0.0550754 0.023334682 0.1330406 -0.012607888
000270 36 d3 b1 bd d5 b2 4d 3d 37 7b ad bc fd 8c 9b 3b
       -0.086828634 0.050219376 -0.021176917 0.0047470317
000280 ee 22 64 3d 86 ca 40 bb 74 11 4e bc d9 f2 ae 3c
       0.055697374 -0.0029417588 -0.012577403 0.021356033
000290 97 00 c3 3d 5e a4 62 bc 68 c7 5f bd 0d a3 9b bd
       0.09521597 -0.0138331335 -0.054633528 -0.07599459
0002a0 0d 94 71 3d 43 58 94 bd d9 75 ac 3d 9e 49 b9 3c
       0.058979083 -0.07243397 0.08420915 0.022618111
0002b0 ea 93 a1 bc c9 95 0b bd 16 18 84 3d 18 e9 24 bd
       -0.019723851 -0.034078393 0.064499065 -0.040261358
0002c0 2f 05 6d 3d 00 80 3f bd 6f 7c 18 bd d1 08 22 3e
       0.05786627 -0.04675293 -0.037228044 0.15823676
0002d0 89 a3 46 bd 48 7a 56 bd b8 8b 41 3d 1a 01 74 bd
       -0.048495803 -0.05236271 0.047252387 -0.059571363
0002e0 ec 36 b8 b9 74 ce f7 bc 97 00 9c bd 52 1e 6f bd
       -0.00035136135 -0.030249812 -0.076173 -0.058378525
0002f0 0d 26 8e bd fa 19 fd 3d de 53 c9 3d 65 32 8d bd
       -0.06940851 0.1235847 0.098304495 -0.068943776
000300 68 35 18 3d 74 ec a5 3b 3b dc 9d 3d 0b d1 0e bc
       0.037160307 0.005063588 0.07708021 -0.008716832
000310 b5 9f 89 3c 7a c5 d0 3d bc b0 22 3d 92 10 d8 3d
       0.016799787 0.10193916 0.03971933 0.105500355
000320 16 f5 3f bd a8 a6 88 bd e0 8e 8f bd 9d 72 4e bd
       -0.04686459 -0.06672412 -0.07009673 -0.050402272
000330 bb 80 90 3b 8d 59 7d 3d 7b cc 97 3c 14 8d 74 bd
       0.004409877 0.06185298 0.018530121 -0.059704855
000340 80 36 0d 3e ea d1 8d 3d 5c 12 55 ba de 78 bd 3c
       0.13790321 0.069248036 -0.0008128041 0.023128923
000350 ba 6f d9 bd 54 91 c6 3c 29 9d d1 bc 43 52 74 3d
       -0.10617013 0.02423922 -0.025587635 0.059648763
000360 3e 3d 54 bd 89 5a 05 3e 73 16 4f 3d 17 d0 b9 bc
       -0.051816218 0.13022818 0.05055852 -0.022682233
000370 1b 08 80 bd e1 8d 22 3e 95 2c 8c bc c5 05 09 bd
       -0.06251546 0.15874435 -0.017111102 -0.033452768
000380 df 6d 18 3b 9a d7 3c 3c 2a 47 86 3d b0 bc b6 bd
       0.0023258848 0.011526013 0.06556542 -0.08922708
000390 63 e3 04 bd af e4 fe 3d b0 0e 48 bd ac b1 1b 3d
       -0.032443415 0.12445962 -0.048842132 0.038011238
0003a0 86 a3 2a 3d 26 59 8b 3d 13 cb a3 3d 1c 17 5f bd
       0.041659854 0.06804113 0.07997718 -0.0544654
0003b0 48 df 84 bd fe 66 55 3d e9 f1 f4 3d bf 19 1c ba
       -0.064879 0.052100174 0.11960203 -0.0005954764
0003c0 16 9c 8a bd 4f 23 98 bd ce 9d 0f bd 6b 3f 7c bd
       -0.06768052 -0.074286096 -0.035062604 -0.061583918
0003d0 5b 63 80 bb 09 86 c4 bd 62 ba 8b 3d 0f 3c 9b bd
       -0.003918094 -0.09595878 0.06822659 -0.07579815
0003e0 78 23 00 bc c0 51 2a 3c a4 19 75 3c bb 1b fe 3d
       -0.007820956 0.010395467 0.0149597265 0.12407633
0003f0 33 9c 61 3c 16 7f 58 3d fa a0 e4 bd fb ff 33 bd
       0.013770151 0.052855574 -0.11163516 -0.043945294

fc3.bias f4 [15]
000000 83 14 63 bc 0e 98 29 bc b9 55 ed bc e2 6f 36 3d
       -0.013859871 -0.010351194 -0.02897154 0.044540294
000010 d1 03 c1 3c 56 81 8e 3d 7e 14 61 bb 3a bd 32 bd
       0.02356139 0.069582626 -0.003434449 -0.04363749
000020 34 0b 66 bc c0 b1 06 3d b0 93 3b 3d d5 b9 49 3d
       -0.014040757 0.03288436 0.045795143 0.04924949
000030 99 f8 7d bd 25 c4 af 3d b2 b0 a2 3d
       -0.06200466 0.085823335 0.07943858
