outfiles/cnn/Ya64_2Train_cnn.pth (torch, 605631 bytes, 10 tensors)

conv_layer1.weight f4 [16, 1, 5, 5]
0.035648935 0.05299757 0.12783122 0.027121158 0.101044156 -0.058706403 -0.09833606 -0.120468855
0.11084726 -0.13512532 0.069413766 -0.037741967 -0.10440977 0.0066430504 -0.15234013 -0.004215778
0.08618251 -0.07471428 0.08494089 0.10784486 0.06690819 -0.14770305 -0.04665183 0.04612924
-0.086871766 0.09662731 0.123864405 -0.13622805 0.12907366 0.18491544 0.02547468 -0.13722028
-0.11085864 0.1480948 0.014560915 0.091982216 0.057089526 -0.11269839 -0.064314954 -0.03729881
-0.07896321 -0.03985034 -0.14889334 -0.107098855 -0.002640501 -0.10876753 -0.035087086 -0.08434995
-0.015284806 -0.15523906 -0.0049842508 0.04851755 -0.06206658 -0.0046348614 -0.000744024 -0.17007732
-0.050706223 0.061249483 0.15777493 0.092856415 -0.026760565 -0.10937647 -0.009291738 -0.0037051223
-0.03761909 0.055489253 -0.0020725278 -0.069565974 0.1321483 0.1321639 -0.050478704 -0.09647933
-0.053373992 0.11454831 0.017205942 0.109497294 -0.13041298 -0.17079625 -0.2253475 -0.17016052
-0.07638242 0.1682162 0.030970508 -0.26293853 -0.23068802 0.1586903 0.04673691 -0.08958893
0.012759332 0.016356511 0.20412995 0.20649691 0.13113746 0.08462572 -0.07709771 0.21765281
0.18020506 0.112112924 0.10830966 -0.09146094 0.03368413 0.15093121 0.13600713 0.052410584
0.17642252 0.1481519 -0.0027414253 0.16653483 -0.023321692 0.15105997 -0.10276999 0.14997047
0.016882097 -0.089115 0.10530403 0.04894797 0.11771008 -0.07589838 0.09092439 0.113834105
-0.011528691 0.06854819 -0.082181215 0.0695517 -0.017989071 0.0020245907 0.19051906 0.16009347
-0.0070269224 0.03906919 0.02065841 0.11769132 0.1965824 0.103534915 -0.13254307 -0.03276657
-0.054296736 0.070785314 -0.08410388 0.02763512 -0.12175919 -0.11083821 0.024200434 0.07894676
0.043603517 0.041423295 0.0040288516 -0.12723237 0.018969158 -0.19663326 0.1191753 -0.14181648
-0.013685175 -0.04910599 0.08139888 -0.021310022 -0.09501065 0.017887048 -0.12535606 0.12544528
-0.15227716 -0.08705305 0.037058074 -0.1413118 0.1495321 -0.022825062 0.10658227 -0.10689711
0.042500615 0.0942653 -0.04397913 -0.09396716 0.054783378 -0.05338946 -0.057682265 0.078162335
-0.08941972 -0.056259524 -0.036442757 -0.07945574 -0.038679916 0.06707124 -0.03110404 0.03357526
-0.04873383 -0.07268285 -0.07300489 -0.05128855 0.0050928276 0.05232783 -0.02289417 0.034135822
0.025558772 -0.07300548 -0.0019966376 0.027937686 -0.081562705 -0.015607725 -0.089074105 -0.09827096
0.06801973 -0.047547877 0.12532711 0.013647667 0.030792559 0.05609939 -0.057965577 0.03500015
-0.090709984 0.05275556 0.12748705 0.02746586 0.0060312147 0.057506822 -0.13242753 0.017501803
-0.09931465 -0.08175868 0.04949594 0.10038471 0.029738724 0.017910656 -0.044253007 -0.0671896
-0.019990265 -0.19520241 -0.19186018 -0.12136269 0.05678845 0.10706072 -0.14102897 -0.16005696
0.027630152 0.081534244 -0.013430376 -0.17466867 0.00457908 0.060149685 -0.061882596 0.18070692
-0.16020378 -0.1687186 0.10162663 0.15976138 0.10988159 -0.23034163 0.016568966 0.18801405
0.10975849 0.081092104 0.08836937 -0.0035681634 -0.02362626 0.16153257 0.08061594 0.11507207
00000000: 9e04 123d fb13 593d 30e6 023e 312d de3c
00000010: 3df0 ce3d 2076 70bd 6b64 c9bd 60b8 f6bd
00000020: e303 e33d 4b5e 0abe ce28 8e3d 5297 1abd
00000030: cad4 d5bd f2ad d93b 0dff 1bbe 8224 8abb
00000040: 7580 b03d cd03 99bd 7df5 ad3d c4dd dc3d
00000050: 2907 893d 783f 17be fd15 3fbd 04f2 3c3d
00000060: d3e9 b1bd 8ae4 c53d 9fac fd3d 5e7f 0bbe
00000070: e32b 043e 795a 3d3e 47b0 d03c 7983 0cbe
00000080: db09 e3bd 2aa6 173e e790 6e3c 2c61 bc3d
00000090: b5d6 693d 6ace e6bd 8fb7 83bd a3c6 18bd
000000a0: 77b7 a1bd 1c3a 23bd 7f77 18be a556 dbbd
000000b0: 410c 2dbb 83c1 debd 7ab7 0fbd abbf acbd
000000c0: 1f6d 7abc fdf6 1ebe ed52 a3bb 57ba 463d
000000d0: 8739 7ebd 09e0 97bb 9b0a 43ba c028 2ebe
000000e0: 54b1 4fbd bde0 7a3d c08f 213e 812b be3d
000000f0: f938 dbbc c500 e0bd 603c 18bc a3d1 72bb
00000100: 7a16 1abd b348 633d 3fd3 07bb 9b78 8ebd
00000110: e251 073e f955 073e c2c2 4ebd f496 c5bd
00000120: b09e 5abd 4e98 ea3d 7af3 8c3c 1e40 e03d
00000130: fb8a 05be 36e5 2ebe 7fc1 66be 8f3e 2ebe
00000140: 636e 9cbd de40 2c3e ddb5 fd3c e19f 86be
00000150: 7b39 6cbe b67f 223e 346f 3f3d 677a b7bd
00000160: 840c 513c 17fe 853c 7107 513e ed73 533e
00000170: e648 063e 4050 ad3d 67e5 9dbd 61e0 5e3e
00000180: ad87 383e 769b e53d 74d1 dd3d e04f bbbd
00000190: 5ff8 093d b68d 1a3e 7445 0b3e 7bac 563d
000001a0: 1ba8 343e 22b5 173e 7ca9 33bb 1b88 2a3e
000001b0: 220d bfbc 77af 1a3e 1379 d2bd dc91 193e
000001c0: 534c 8a3c ed81 b6bd a4a9 d73d ab7d 483d
000001d0: fc11 f13d 9c70 9bbd 9136 ba3d db21 e93d
000001e0: d6e2 3cbc fe62 8c3d a04e a8bd 1f71 8e3d
000001f0: d15d 93bc ffae 043b 6e17 433e 8bef 233e
00000200: 1942 e6bb 0407 203d d33b a93c 2608 f13d
00000210: e64c 493e 1d0a d43d 5fb9 07be 3d36 06bd
00000220: 4166 5ebd e4f7 903d a83e acbd 0c63 e23c
00000230: e25c f9bd 25ff e2bd fd3f c63c d7ae a13d
00000240: 9a99 323d 79ab 293d 7504 843b 3449 02be
00000250: 3565 9b3c 3b5a 49be 2e12 f43d 5738 11be
00000260: c937 60bc 5d23 49bd 75b4 a63d 5b92 aebc
00000270: f294 c2bd dc87 923c 575d 00be ba74 003e
00000280: 8bee 1bbe df48 b2bd 35ca 173d 0ab4 10be
00000290: f11e 193e a0fb babc ce47 da3d dfec dabd
000002a0: 2015 2e3d 2a0e c13d 7623 34bd db71 c0bd
000002b0: 8964 603d e8ae 5abd 3d44 6cbd 9313 a03d
000002c0: b021 b7bd 6370 66bd 0045 15bd b1b9 a2bd
000002d0: d56e 1ebd a55c 893d e6cd febc 3686 093d
000002e0: 209d 47bd bfda 94bd 9683 95bd f113 52bd
000002f0: bce1 a63b b555 563d 8e8c bbbc 01d2 0b3d
00000300: a160 d13c e683 95bd 05da 02bb 93dd e43c
00000310: 590a a7bd 8bb7 7fbc 7c6c b6bd 4942 c9bd
00000320: ee4d 8b3d 90c1 42bd c055 003e 779a 5f3c
00000330: ad40 fc3c 79c8 653d 506d 6dbd 515c 0f3d
00000340: 28c6 b9bd 3716 583d f78b 023e 1500 e13c
00000350: 7fa1 c53b 468c 6b3d 159b 07be f15f 8f3c
00000360: 7b65 cbbd 1871 a7bd 41bc 4a3d 8096 cd3d
00000370: a09e f33c 5eb9 923c a442 35bd b39a 89bd
00000380: a0c2 a3bc 24e3 47be ff76 44be 018d f8bd
00000390: 019b 683d a742 db3d e669 10be f9e5 23be
000003a0: a158 e23c 6dfb a63d 140b 5cbc 58dc 32be
000003b0: 1b0c 963b 845f 763d 9b78 7dbd 3c0b 393e
000003c0: 760c 24be 92c4 2cbe 9f21 d03d 7d98 233e
000003d0: 9909 e13d adde 6bbe a4bb 873c c186 403e
000003e0: 0fc9 e03d 9e13 a63d 00fb b43d d9d7 69bb
000003f0: dc8b c1bc cb68 253e f819 a53d e8aa eb3d

conv_layer1.bias f4 [16]
0.0077956957 0.07024664 0.049698185 -0.085681766 -0.05815993 0.106430106 0.019675342 -0.022453811
0.087746516 0.10562378 -0.06511796 -0.05452635 0.10370306 0.028547427 0.06705544 -0.0567361
00000000: 0973 ff3b 78dd 8f3d 5390 4b3d ec79 afbd
00000010: 1b39 6ebd 07f8 d93d 2f2e a13c 0ef1 b7bc
00000020: 72b4 b33d 4851 d83d 915c 85bd 0657 5fbd
00000030: 4562 d43d 4bdc e93c 5d54 893d 1d64 68bd

conv_layer2.weight f4 [32, 1, 5, 5]
0.034006987 -0.09380705 -0.097106524 -0.11125588 -0.03872072 -0.019723993 0.056351643 0.12550251
-0.067622595 0.0055192052 0.025581572 0.13132529 -0.010844994 -0.019578356 -0.07995247 0.06417866
-0.09052379 -0.022849169 0.061780415 0.04516649 -0.11661492 0.108110905 0.084773354 0.07791918
0.06798958 0.08040345 -0.061497983 0.040638037 0.12432199 0.101523966 0.073247015 -0.09767001
0.10813976 0.10085633 -0.08037191 0.048682746 0.09461358 0.060086172 -0.093802646 0.012661794
-0.020535614 -0.11135363 -0.08072806 -0.06484482 -0.0010834974 0.00018892233 -0.06936635 0.072709434
-0.08405462 0.03814818 -0.05290747 0.07100415 0.14914009 0.07169373 -0.101969086 -0.08144406
0.100360356 0.16276331 0.056808203 -0.0019444575 -0.10609349 0.10985607 -0.035567265 0.03923592
0.060707945 0.09657706 -0.035700064 0.12544517 0.12798423 -0.01796946 -0.065255046 0.053855248
0.032514647 0.06805529 0.10029038 0.13493802 0.12755929 -0.06614714 -0.062272105 -0.08554094
0.15542386 0.043709584 -0.08903491 -0.074329324 0.010633266 0.028126283 -0.10224242 0.03316101
-0.023254644 0.020043077 -0.07822293 0.07177871 -0.020118088 -0.06631939 0.10520845 -0.070337035
-0.09323861 -0.026819972 -0.066501625 -0.012607698 0.070147984 -0.02960734 -0.12813523 -0.10032126
0.009597715 -0.05586323 -0.11933599 0.023336664 0.043038666 0.11829611 -0.08260287 0.046822567
0.041395508 0.10314178 -0.105588816 -0.04809721 -0.018388275 0.02193992 0.17002124 0.04210296
0.035575077 -0.011932867 -0.10858551 -0.05281015 -0.017132903 -0.06818376 0.09178193 -0.09819167
-0.021422086 -0.0064428644 -0.09780882 -0.07209472 0.062285233 -0.088358834 0.010732979 -0.09943253
0.08104819 -0.0124165565 -0.0842998 0.02668138 -0.10892709 -0.035166405 -0.10962487 0.10758892
0.02084808 -0.03674382 -0.048550908 -0.0016803852 0.13083407 -0.05450926 -0.18786675 0.04175639
-0.13366194 0.024980111 -0.18998426 -0.051643055 -0.22536357 -0.072635576 -0.20566009 0.004714255
0.09730346 0.15586263 -0.22112484 -0.09907231 0.16359022 0.15299208 0.083138995 -0.0005882627
0.11465822 0.21096621 -0.019139834 0.07556287 0.120937906 -0.097858354 0.11121711 0.012272876
-0.17134237 0.19398119 0.110152796 0.15607819 -0.045235477 -0.022514665 -0.06960227 0.16524337
0.0762002 -0.1081026 -0.12548254 0.04360885 0.095754266 0.11368446 -0.16069895 -0.19163463
-0.18773307 -0.15944304 0.02943446 0.023410685 0.14958327 0.07019218 -0.14061816 -0.07772058
-0.039559156 -0.025223028 -0.03219161 -0.036576487 -0.06940814 -0.20066345 -0.20513514 -0.13819908
0.0581878 0.09025982 -0.06747496 -0.05464579 -0.15152337 0.05690765 0.04700486 0.10166677
0.10390721 0.060936175 0.1429729 0.11140699 -0.021488663 0.084433936 -0.05935062 0.0018160142
0.001965768 0.0070545506 0.00069664797 -0.010903673 0.069694646 -0.024513284 -0.054708116 0.04551536
0.02633408 -0.07023998 -0.09637047 -0.033726312 -0.0729862 -0.018454727 0.06484412 0.05992511
-0.10266489 -0.07535175 0.062109962 -0.07797246 -0.11077545 0.055071156 -0.005117159 -0.019283075
-0.015277849 0.0026736113 -0.08824886 0.03839696 -0.07064322 -0.08252616 0.024409788 -0.14719096
00000000: e94a 0b3d e91d c0bd c9df c6bd 1fda e3bd
00000010: 9e99 1ebd 3694 a1bc fbd0 663d bb83 003e
00000020: b77d 8abd 73da b43b 7290 d13c 237a 063e
00000030: 34af 31bc ca62 a0bc 1fbe a3bd 1a70 833d
00000040: 8964 b9bd 2e2e bbbc 760d 7d3d 7f00 393d
00000050: ced3 eebd 4069 dd3d a79d ad3d 1794 9f3d
00000060: 1f3e 8b3d 90aa a43d 4fe5 7bbd 1274 263d
00000070: 879c fe3d cceb cf3d 8802 963d 3707 c8bd
00000080: 6178 dd3d c38d ce3d 079a a4bd 8f67 473d
00000090: c4c4 c13d eb1c 763d 9a1b c0bd 6a73 4f3c
000000a0: 4e3a a8bc 5f0d e4bd c154 a5bd 5ccd 84bd
000000b0: 2404 8eba 7419 4639 f20f 8ebd afe8 943d
000000c0: d424 acbd 4441 1c3d 81b5 58bd a06a 913d
000000d0: 2eb8 183e 2ad4 923d 2bd5 d0bd 25cc a6bd
000000e0: bb89 cd3d 6dab 263e b8af 683d 2bdd feba
000000f0: 8b47 d9bd 38fc e03d fbae 11bd d8b5 203d
00000100: e5a8 783d 32ca c53d 3b3a 12bd b374 003e
00000110: 4c0e 033e b034 93bc 70a4 85bd 5297 5c3d
00000120: 142e 053d 9260 8b3d 0b65 cd3d 312d 0a3e
00000130: e79e 023e 2778 87bd 0911 7fbd 1730 afbd
00000140: 6f27 1f3e d208 333d ef57 b6bd f939 98bd
00000150: 2637 2e3c 1769 e63c 7964 d1bd d7d3 073d
00000160: 8680 bebc 6131 a43c 5833 a0bd b700 933d
00000170: b0ce a4bc 76d2 87bd 8777 d73d dd0c 90bd
00000180: e2f3 bebd 8fb5 dbbc 0132 88bd 8590 4ebc
00000190: bfa9 8f3d 188b f2bc e235 03be 3c75 cdbd
000001a0: bc3f 1d3c d8d0 64bd 6d66 f4bd 882c bf3c
000001b0: 5049 303d 3b45 f23d b22b a9bd 05c9 3f3d
000001c0: 568e 293d ff3b d33d f33e d8bd 9401 45bd
000001d0: 02a3 96bc 59bb b33c 0c1a 2e3e 2774 2c3d
000001e0: 2cb7 113d 1282 43bc 1462 debd 754f 58bd
000001f0: 4d5a 8cbc eda3 8bbd 2af8 bb3d b718 c9bd
00000200: 5f7d afbc aa1e d3bb fe4f c8bd 66a6 93bd
00000210: cd1e 7f3d 7af5 b4bd 60d9 2f3c 48a3 cbbd
00000220: 98fc a53d d06e 4bbc 60a5 acbd e992 da3c
00000230: 2b15 dfbd a60a 10bd 0183 e0bd 9457 dc3d
00000240: 98c9 aa3c b080 16bd 51dd 46bd 5f40 dcba
00000250: 5ef9 053e 1a45 5fbd 2460 40be c008 2b3d
00000260: adde 08be 17a3 cc3c 3c8b 42be ab87 53bd
00000270: b5c5 66be f6c1 94bd 8f98 52be 0a7a 9a3b
00000280: 0947 c73d 749a 1f3e 8d6e 62be 6ce6 cabd
00000290: 3284 273e f5a9 1c3e c744 aa3d a435 1aba
000002a0: eed1 ea3d 8707 583e 24cb 9cbc b5c0 9a3d
000002b0: 4bae f73d f669 c8bd ccc5 e33d 2c14 493c
000002c0: 6074 2fbe 01a3 463e ca97 e13d f6d2 1f3e
000002d0: d648 39bd ad70 b8bc a38b 8ebd 8f35 293e
000002e0: da0e 9c3d e564 ddbd 7f7e 00be 329f 323d
000002f0: d01a c43d 66d3 e83d 448e 24be de3b 44be
00000300: 193d 40be 0945 23be 8920 f13c c4c7 bf3c
00000310: 5b2c 193e ebc0 8f3d 35fe 0fbe f82b 9fbd
00000320: c808 22bd 86a0 cebc 5adb 03bd 3ad1 15bd
00000330: db25 8ebd b87a 4dbe f20e 52be 0f84 0dbe
00000340: 5556 6e3d 24da b83d 5030 8abd 44d4 5fbd
00000350: f128 1bbe ff17 693d 2b88 403d ab36 d03d
00000360: 4ecd d43d 3698 793d 7d67 123e 5929 e43d
00000370: fe08 b0bc b3eb ac3d a319 73bd 5307 ee3a
00000380: 1dd4 003b dc29 e73b 419f 363a 52a5 32bc
00000390: 11bc 8e3d 15d0 c8bc 9e15 60bd 506e 3a3d
000003a0: 92ba d73c fbd9 8fbd e25d c5bd 9a24 0abd
000003b0: ca79 95bd 5e2e 97bc fecc 843d 0874 753d
000003c0: f841 d2bd 0552 9abd 0467 7e3d 06b0 9fbd
000003d0: 3dde e2bd 4b92 613d d7ad a7bb 8af7 9dbc
000003e0: f14f 7abc c137 2f3b d1bb b4bd 2146 1d3d
000003f0: 64ad 90bd 7a03 a9bd 09f7 c73c 3ab9 16be

conv_layer2.bias f4 [32]
0.00096849486 0.04794555 0.027019413 -0.10290933 0.06721278 -0.037874505 0.11281179 0.0198095
0.030032149 0.00797348 -0.0780135 -0.0155291315 -0.10030888 0.03242817 0.03630504 0.011845338
0.101465285 -0.065210484 -0.060156636 0.05289189 -0.06779922 0.029678995 0.049343538 0.020293338
0.023467535 -0.043969456 0.00068096403 -0.09761797 -0.020281749 -0.07629057 0.056866787 -0.05535162
00000000: 97e2 7d3a 8e62 443d d157 dd3c 20c2 d2bd
00000010: dba6 893d 4c22 1bbd de09 e73d 8847 a23c
00000020: fb05 f63c 33a3 023c 8bc5 9fbd e66d 7ebc
00000030: be6e cdbd 67d3 043d 98b4 143d f312 423c
00000040: 08cd cf3d 138d 85bd ce66 76bd 2ba5 583d
00000050: 51da 8abd 5d21 f33c 731c 4a3d 373e a63c
00000060: fd3e c03c 5119 34bd b982 323a eeeb c7bd
00000070: e925 a6bc 3b3e 9cbd 26ed 683d 61b8 62bd

fc1.weight f4 [120, 1152]
-0.0013959187 0.0011172618 -0.016266521 -0.004403702 0.008874235 0.021615773 0.011751477 0.0037243844
0.01845345 -0.010879222 -0.015317626 0.0120763425 -0.018466214 -0.011608911 -0.005114968 0.0073147337
-0.0049248836 0.0089430045 0.0034082166 -0.015869938 0.012604873 -0.0039579603 0.0045063174 0.008793874
0.008778814 -0.01507153 -0.020526066 -0.013401384 -0.015343809 -0.010553168 -0.0041184607 -0.004395498
0.00057568675 -0.0018368908 -0.0109942695 0.0077261105 0.013875899 0.003730841 0.01192118 0.014644669
0.0063843764 0.00030348162 0.007319704 -0.017353317 0.008260157 0.0046225386 0.01775802 0.013810777
-0.015596564 -0.008213662 -0.010876977 0.006506839 0.009769807 0.004267606 0.0011485739 -0.01792423
-0.004557758 0.0011899214 -0.014106952 -0.013082694 0.009758919 -0.011576974 0.00088011124 -0.009892419
-0.0035555675 -0.014426116 -0.00055614515 -0.013388995 0.00032375412 -0.010599245 0.015331869 0.014432393
-0.004628571 -0.0070765894 -0.0055796155 -0.0054039704 0.013286913 0.030873947 -0.015263742 -0.009058746
-0.0010554442 0.008790851 0.016201228 -0.008004731 -0.007884426 -0.0011900715 0.009375412 0.004093986
0.016018113 0.009256233 -0.0032106107 -0.004974085 0.010639793 0.0037912277 -0.009650948 -0.0024582762
-0.01696887 0.0038815825 -0.0054598153 -0.017320283 -0.011753237 -0.01108276 2.6273106e-05 -0.004494198
-0.008799683 -0.012490827 0.013495819 0.009935893 -0.016168576 -0.0064817965 0.016048493 0.013796109
-0.00501516 0.00065294554 -0.012704416 -0.019298555 0.0007479897 0.015883535 -0.002980316 -0.012876329
-0.0054453015 -0.006958284 -0.013963473 0.009602295 -0.0009567702 -0.016642386 0.008714498 -0.011708717
0.0077876565 0.0049802437 -0.0126430895 -0.010117734 -0.010845519 0.0036070875 -0.001674673 -0.0120537095
-0.011775809 -0.009828477 0.0075299265 0.0033512963 0.011304354 0.0013879186 -0.014130664 0.010267202
-0.0021860825 -0.005203925 -0.0067831064 0.015909791 0.0188765 0.005516154 -0.00015041178 0.0067225387
0.0072945203 -0.016873155 0.0057981075 -0.011494652 -0.0063188504 -0.00057776296 -0.013948845 0.0110635795
-0.0020755008 -0.0099233575 0.0059345663 -0.019114034 0.0017388001 0.013079965 -0.019789381 -0.01246107
-0.009410606 0.011655553 0.00957411 -0.0018634278 0.009244945 0.007249021 0.014954656 0.020350404
-0.0042123804 -0.006143037 0.01714808 0.008310865 0.0048698243 -8.361531e-05 0.0108266175 -0.0010707168
-0.01161696 -0.0023855353 -0.0047791884 -0.00021434117 -0.0002978654 -0.00097491 0.008249737 -0.007528827
0.018095696 0.011894981 0.015814904 -0.0066688573 0.01281004 -0.009666568 0.005533874 -0.0015467579
-0.0066141644 0.0031234147 -0.013799788 0.004551076 0.012376857 0.002968658 -0.009265614 0.014230589
0.001699599 -0.0037556717 0.014390939 -0.0102041345 0.004627894 -0.017702512 -0.007566995 -0.0003239738
0.012272899 -0.004630691 0.015208239 -0.008731907 -0.018776359 -0.024928715 0.046425704 -0.018316302
-0.0107438965 -0.004159389 -0.020402292 -0.01494753 -0.022028103 0.0036203337 0.0077006845 0.04710441
-0.017059721 0.011982532 0.0038604157 0.015232468 0.028005308 0.043291345 0.04126818 0.022554701
-0.000859316 -0.021580754 -0.011787654 0.0047442815 0.01707285 0.007084093 0.009570756 -0.024746476
0.012015493 -0.027156722 -0.04319667 -0.011831351 0.0024139269 -0.017973796 -0.025858207 0.021539414
00000000: 42f7 b6ba 1671 923a 5e41 85bc ee4c 90bb
00000010: 3d65 113c 9013 b13c 4489 403c cd14 743b
00000020: b12b 973c c43e 32bc c8f6 7abc dadb 453c
00000030: 7546 97bc 4d33 3ebc 769b a7bb 6fb0 ef3b
00000040: eb60 a1bb ae85 123c 635c 5f3b ac01 82bc
00000050: ab84 4e3c c7b1 81bb bba9 933b 2e14 103c
00000060: 04d5 0f3c 94ee 76bc 4826 a8bc 7b91 5bbc
00000070: 9964 7bbc 32e7 2cbc 27f4 86bb 1c08 90bb
00000080: afe9 163a d4c3 f0ba 4f21 34bc 502b fd3b
00000090: bd57 633c 2081 743b 0e51 433c 32f0 6f3c
000000a0: 0834 d13b 9d1c 9f39 21da ef3b 8b28 8ebc
000000b0: 9c55 073c aa78 973b 4479 913c 9946 623c
000000c0: bb88 7fbc 9892 06bc 5935 32bc 5237 d53b
000000d0: 8a11 203c 46d7 8b3b bf8b 963a d6d5 92bc
000000e0: 3f59 95bb 23f7 9b3a d820 67bc cc58 56bc
000000f0: dfe3 1f3c 59ad 3dbc 44b7 663a d013 22bc
00000100: 8604 69bb 845b 6cbc 45ca 11ba 845d 5bbc
00000110: 8bbd a939 75a8 2dbc 8532 7b3c d875 6c3c
00000120: 45ab 97bb bce2 e7bb 35d5 b6bb ca13 b1bb
00000130: 5ab1 593c 5ceb fc3c c614 7abc 226b 14bc
00000140: d556 8aba 8007 103c 70b8 843c 4626 03bc
00000150: ae2d 01bc 2cfc 9bba 549b 193c d826 863b
00000160: 6b38 833c 75a7 173c 1c69 52bb a6fd a2bb
00000170: 8752 2e3c 3f76 783b 031f 1ebc 081b 21bb
00000180: 4d02 8bbc 2662 7e3b 40e8 b2bb 44e3 8dbc
00000190: a690 40bc 7794 35bc 1165 dc37 1144 93bb
000001a0: 8c2c 10bc 53a6 4cbc 911d 5d3c 28ca 223c
000001b0: f673 84bc 4065 d4bb 2178 833c 1309 623c
000001c0: 3656 a4bb 6f2a 2b3a 2f26 50bc 0118 9ebc
000001d0: bd14 443a 301e 823c 6851 43bb 3df7 52bc
000001e0: 806e b2bb 5102 e4bb 0dc7 64bc f252 1d3c
000001f0: c3cf 7aba 9d55 88bc 41c7 0e3c ebd5 3fbc
00000200: 992f ff3b 5031 a33b f624 4fbc dac4 25bc
00000210: 67b1 31bc e364 6c3b b480 dbba ec7c 45bc
00000220: 53ef 40bc 9f07 21bc 9abd f63b 6ca1 5b3b
00000230: e635 393c d2ea b53a 4d84 67bc c437 283c
00000240: 6144 0fbb b085 aabb d244 debb 4055 823c
00000250: e4a2 9a3c dbc0 b43b dbb7 1db9 be48 dc3b
00000260: df06 ef3b 9239 8abc 0dfe bd3b 1154 3cbc
00000270: 5c0e cfbb 0475 17ba b289 64bc 0444 353c
00000280: 2005 08bb 9495 22bc c076 c23b 0995 9cbc
00000290: 73e8 e33a 594d 563c 571d a2bc 8429 4cbc
000002a0: f12e 1abc eff6 3e3c badc 1c3c 433e f4ba
000002b0: 1c78 173c 3289 ed3b 6004 753c e4b5 a63c
000002c0: 0208 8abb 884b c9bb 217a 8c3c 4b2a 083c
000002d0: 0c93 9f3b a15a afb8 2062 313c 4b57 8cba
000002e0: 1055 3ebc a456 1cbb bd9a 9cbb c5c0 60b9
000002f0: d12a 9cb9 1a91 7fba e829 073c 61b4 f6bb
00000300: 6d3d 943c 2be3 423c 428e 813c 6e86 dabb
00000310: 34e1 513c 8660 1ebc 8055 b53b 95bc caba
00000320: a2bb d8bb 34b2 4c3b 8218 62bc 3121 953b
00000330: 4dc8 4a3c d18d 423b cdce 17bc 6b27 693c
00000340: 14c5 de3a b721 76bb f9c7 6b3c 3e2f 27bc
00000350: 97a5 973b dc04 91bc 8ef4 f7bb 07db a9b9
00000360: 4514 493c 0dbd 97bb fa2b 793c 4610 0fbc
00000370: e1d0 99bc 4e37 ccbc e128 3e3d 120c 96bc
00000380: 2b07 30bc 7c4b 88bb b522 a7bc 7ce6 74bc
00000390: 4874 b4bc 1f43 6d3b 0656 fc3b 8ef0 403d
000003a0: d4c0 8bbc 6252 443c 07ff 7c3b 9a91 793c
000003b0: 636b e53c 4452 313d d308 293d a3c4 b83c
000003c0: b843 61ba 1fca b0bc 0121 41bc eb75 9b3b
000003d0: 5ddc 8b3c ae21 e83b a9ce 1c3c 1fb9 cabc
000003e0: a1dc 443c c677 debc feee 30bd 48d8 41bc
000003f0: f932 1e3b c83d 93bc 97d4 d3bc 6d73 b03c

fc1.bias f4 [120]
-0.008250495 0.0032415956 -0.0026962978 0.005828514 0.005662385 -0.0011872908 0.010833059 0.0151836
0.009138228 0.009801416 -0.01197525 -0.008801593 0.016719565 -0.0073753595 0.011660265 0.0039338996
-0.007602254 -0.004309013 -0.0013575518 -0.008640039 0.006706634 -0.00243162 0.013150893 -0.0008084247
0.004215312 -0.010074668 0.01188126 0.002331681 -0.017304428 0.0049101436 0.013576246 -0.0010169824
-0.007577728 -0.009012262 -0.009108455 0.005236842 -0.0052462597 -0.013645185 -0.01693183 0.013863237
-0.006500507 -0.015050456 0.011858057 -0.00627241 0.01026326 0.0008594081 0.016663352 -0.011537606
0.009934358 -0.0049285702 0.00877078 -0.008928371 0.0036778906 0.011775637 0.006532041 0.0068662018
0.00079332036 -0.009789656 0.010425063 -0.0049249223 -0.00598338 0.00931758 0.009343047 0.008894998
-0.007986478 -0.0052053686 0.007719714 0.009264958 0.0034641842 -0.012696735 0.0010583642 -0.0070831985
0.0028800932 -0.0071605565 0.004765478 -0.014773097 0.01266433 0.0073698107 0.0111830495 -0.012630536
0.00012842809 0.014594405 0.010837408 0.0057681147 -0.004674602 -0.003817021 0.00014837607 -0.013748065
-0.012355422 -0.011934597 0.0049474905 0.012717225 0.0023073922 -0.012345837 0.003308276 0.0011409835
-0.003956241 -0.008004579 0.013678005 0.0005887896 0.006734581 0.014662904 -0.003723763 -0.0036855026
-0.009844045 -0.0074346215 0.008307911 -0.0043701865 -0.007827515 0.0016605022 -0.009966043 -0.0051216497
0.0075724074 -0.006011716 0.00047836156 0.012702483 0.01304143 -0.002753638 0.0013241315 -0.01304096
00000000: 162d 07bc f370 543b 5fb4 30bb 1ffd be3b
00000010: 878b b93b de9e 9bba 257d 313c a2c4 783c
00000020: 82b8 153c 1e96 203c d733 44bc 8f34 10bc
00000030: 78f7 883c 00ad f1bb b20a 3f3c f1e7 803b
00000040: 541c f9bb 9f32 8dbb e1ef b1ba f38e 0dbc
00000050: 53c3 db3b d05b 1fbb d876 573c 77ec 53ba
00000060: 9a20 8a3b 3810 25bc 9ea9 423c 1ecf 183b
00000070: 04c2 8dbc 45e5 a03b e76e 5e3c 444c 85ba
00000080: 974e f8bb 2ba8 13bc a13b 15bc d199 ab3b
00000090: d1e8 abbb 0e90 5fbc 9fb4 8abc a122 633c
000000a0: 3402 d5bb 3096 76bc 4c48 423c ca88 cdbb
000000b0: 3c27 283c e749 613a 9581 883c 3a08 3dbc
000000c0: b8c3 223c d87f a1bb 51b3 0f3c 4d48 12bc
000000d0: c408 713b 9aee 403c bb0a d63b e0fd e03b
000000e0: d4f6 4f3a cb64 20bc e2cd 2a3c 3e61 a1bb
000000f0: 3b10 c4bb c3a8 183c 9413 193c 53bc 113c
00000100: b7d9 02bc cc91 aabb a8f5 fc3b 0dcc 173c
00000110: 5e07 633b f705 50bc cfb8 8a3a 2d1a e8bb
00000120: f2bf 3c3b 1aa3 eabb ba27 9c3b dc0a 72bc
00000130: 0d7e 4f3c 747e f13b 1c39 373c 4ff0 4ebc
00000140: a7aa 0639 5f1d 6f3c 628f 313c 7402 bd3b
00000150: 672d 99bb fc26 7abb 6695 1b39 903f 61bc
00000160: 656e 4abc 5489 43bc 8f1e a23b e85b 503c
00000170: 9e37 173b 3246 4abc a9cf 583b 0e8d 953a
00000180: 5ba3 81bb a325 03bc b619 603c 0059 1a3a
00000190: c3ad dc3b ad3c 703c 600a 74bb 7988 71bb
000001a0: eb48 21bc 209e f3bb e81d 083c c833 8fbb
000001b0: fa3e 00bc 35a5 d93a 9d48 23bc 83d3 a7bb
000001c0: f521 f83b eefd c4bb 9acc fa39 131e 503c
000001d0: b9ab 553c 6176 34bb 7b8e ad3a c0a9 55bc

fc2.weight f4 [80, 120]
-0.00085915835 -0.025952531 -0.012696419 -0.04469415 -0.028604472 0.026671262 0.040652767 0.0070693553
-0.038636368 0.058188822 0.019350845 -0.030607468 0.066695966 -0.034430515 -0.027396146 0.020773446
0.036489557 -0.015467444 0.039572205 0.007967253 -0.057824403 -0.017413957 0.03497375 -0.050424904
0.044121053 0.018310193 0.02348325 -0.04292895 -0.013386514 0.0046664258 -0.018851802 -0.02594703
-0.009346891 -0.018488053 -0.015074983 -0.04093864 0.02361754 -0.050247997 -0.008704373 0.022759723
-0.047645707 0.016298128 0.03095755 -0.0054877778 0.0035725157 -0.044945348 -0.0031341708 -0.022957204
-0.031803638 -0.04792396 0.009442361 -0.038537413 -0.011422718 -0.026318608 0.06046282 0.00805009
0.0045449897 0.002863595 -0.052300528 0.023872113 -0.041690897 0.015534365 0.04850658 -0.010221802
-0.0112306485 -0.024774473 0.028836573 0.006881553 0.0712682 0.053579602 -0.04478428 0.061710253
0.011317893 0.059523292 0.027803048 0.025037486 0.0631256 0.05021325 0.044812173 0.027792625
-0.04661659 0.034119554 -0.007932113 -0.01576164 0.0049284846 -0.022268454 -0.023684563 0.026062755
0.05996777 -0.032551624 -0.005262365 0.043548755 -0.014849001 -0.04418046 0.053597018 0.023782989
0.078627184 0.054589424 0.002929392 0.013035198 -0.012707075 0.0857447 0.025226528 0.07551299
0.04593391 0.052451815 0.0700998 -0.0061569666 -0.026666814 0.016605634 -0.049859393 0.007137555
-0.041542865 0.02846404 -0.002929752 0.013076983 -0.016023617 -0.017394744 -0.0037730657 -0.024694316
0.061795343 -0.032093197 0.043346323 0.055338293 0.05033796 -0.011870412 0.03624955 0.0046960064
0.020963753 0.015493818 0.04508402 0.033714473 0.028291909 0.013309362 -0.04379123 0.044341717
-0.043350574 0.029107042 -0.01755285 0.024116954 -0.012948655 -0.021503955 0.015259043 0.03948612
0.017094016 0.04512062 0.02012518 -0.045904275 0.058308035 0.042308778 -0.031781554 -0.022829594
0.030377656 -0.04630872 -0.003625581 0.026944071 -0.02206187 -0.034004137 -0.015474863 0.03521539
0.02649826 0.040806673 -0.0018893149 0.019636864 -0.057978973 0.016381118 -0.012275444 0.016442142
-0.052124456 -0.025223333 0.0028876867 -0.013975034 -0.027405456 -0.036078162 -0.040154256 0.012096777
-0.024593217 -0.032727323 -0.04238153 0.0637332 0.0017515537 -0.042678677 -0.020516109 -0.014846226
0.050348833 -0.04092391 0.048728816 0.019316893 0.0002507473 -0.040482532 0.046605498 0.028821709
0.042647403 -0.01723786 0.018906306 0.04799581 0.030922024 -0.012884818 -0.0025326884 -0.00068316003
0.0065013776 0.0118985195 0.019118866 -0.035443526 -0.027498966 -0.020398438 -0.024639022 0.026248042
-0.010260802 0.030066766 0.046278592 -0.050981823 -0.024828384 0.05451338 -0.018861283 -0.0063993363
0.0424308 -0.032832697 0.012957116 -0.029858144 -0.031838987 0.061621573 0.012570946 -0.00084891584
-0.022002138 -0.01775003 0.059088398 -0.0035455178 -0.03859716 -0.05162116 0.04087814 -0.00016270629
0.0054711895 0.022189721 -0.02881166 -0.028965198 0.040487427 -0.015365123 -0.038939197 -0.017417382
0.0454301 -0.01567646 0.05456872 -0.04349545 0.0129298875 0.08264208 -0.020108692 -0.055812046
-0.04074022 -0.07418995 0.020115463 0.047590192 0.045134004 0.009442774 -0.04112487 -0.039043725
00000000: 2439 61ba 679a d4bc a404 50bc 3711 37bd
00000010: ed53 eabc b17d da3c 8483 263d 0da6 e73b
00000020: 2b41 1ebd 6757 6e3d aa85 9e3c 83bc fabc
00000030: e597 883d 0307 0dbd e26d e0bc 132d aa3c
00000040: 1376 153d 2a6b 7dbc 7716 223d 1589 023c
00000050: 48d9 6cbd b7a7 8ebc a340 0f3d 588a 4ebd
00000060: 47b8 343d 42ff 953c f25f c03c 44d6 2fbd
00000070: 1c53 5bbc d1e8 983b 186f 9abc de8e d4bc
00000080: b423 19bc 4274 97bc 10fd 76bc 46af 27bd
00000090: 9279 c13c d8d0 4dbd c99c 0ebc 9972 ba3c
000000a0: 2528 43bd a783 853c b09a fd3c d1d2 b3bb
000000b0: de20 6a3b 9d18 38bd a966 4dbb bf10 bcbc
000000c0: 8844 02bd ea4b 44bd 22b4 1a3c 68d9 1dbd
000000d0: 5a26 3bbc 1f9a d7bc dda7 773d 86e4 033c
000000e0: 23ee 943b 27ab 3b3b 1439 56bd 738f c33c
000000f0: 13c4 2abd d983 7e3c d6ae 463d 5879 27bc
00000100: c100 38bc d6f3 cabc ad3a ec3c a77e e13b
00000110: 10f5 913d 4976 5b3d b96f 37bd e4c3 7c3d
00000120: af6e 393c b2ce 733d 38c3 e33c 6a1b cd3c
00000130: ff47 813d 69ac 4d3d f88c 373d 5cad e33c
00000140: 0af1 3ebd f2c0 0b3d b1f5 01bc 8e1e 81bc
00000150: 207f a13b 556c b6bc 2106 c2bc 8f81 d53c
00000160: c4a0 753d da54 05bd eb6f acbb 2e60 323d
00000170: 3949 73bc 92f6 34bd 8c88 5b3d 8bd4 c23c
00000180: 4a07 a13d 2999 5f3d 0bfb 3f3b 9591 553c
00000190: 5631 50bc eb9a af3d dda7 ce3c 8ea6 9a3d
000001a0: 3225 3c3d b7d7 563d 7c90 8f3d 61c0 c9bb
000001b0: 5d74 dabc 8a08 883c 5d39 4cbd 27e2 e93b
000001c0: da28 2abd 6b2d e93c 1501 40bb d840 563c
000001d0: f643 83bc 6c7f 8ebc 8a45 77bb bc4b cabc
000001e0: 1d1d 7d3d 2874 03bd ea8b 313d 68aa 623d
000001f0: 2d2f 4e3d 1e7c 42bc 687a 143d f5e0 993b
00000200: 2dbc ab3c c8d9 7d3c 05aa 383d 3018 0a3d
00000210: 6fc4 e73c 830f 5a3c 6f5e 33bd a99f 353d
00000220: 5f90 31bd e471 ee3c ffca 8fbc eb90 c53c
00000230: 9826 54bc 1029 b0bc 1101 7a3c 33bc 213d
00000240: c008 8c3c 66d0 383d 90dd a43c 1f06 3cbd
00000250: 68d4 6e3d f84b 2d3d 602d 02bd 2105 bbbc
00000260: 90da f83c 36ae 3dbd 289b 6dbb d0b9 dc3c
00000270: 18bb b4bc ec47 0bbd 488a 7dbc 033e 103d
00000280: e112 d93c e624 273d e3a2 f7ba 7ddd a03c
00000290: 5c7b 6dbd b231 863c f21e 49bc acb1 863c
000002a0: 7480 55bd 2aa1 cebc 583f 3d3b 8af7 64bc
000002b0: 6881 e0bc b2c6 13bd ca78 24bd 8f31 463c
000002c0: b777 c9bc 160d 06bd 4198 2dbd 8d86 823d
000002d0: 6494 e53a d6cf 2ebd 6611 a8bc 963d 73bc
000002e0: 943a 4e3d d49f 27bd de97 473d 763e 9e3c
000002f0: bc76 8339 03d1 25bd 68e5 3e3d 811b ec3c
00000300: 0baf 2e3d 6a36 8dbc 66e1 9a3c 4197 443d
00000310: 2f50 fd3c d81a 53bc 76fb 25bb 1816 33ba
00000320: 8209 d53b 02f2 423c 2b9f 9c3c 3b2d 11bd
00000330: 8345 e1bc a01a a7bc c6d7 c9bc 2206 d73c
00000340: ec1c 28bc 944e f63c 9f8e 3d3d 51d2 50bd
00000350: e564 cbbc 6c49 5f3d fa82 9abc 86b1 d1bb
00000360: ebcb 2d3d 947b 06bd 154a 543c 1199 f4bc
00000370: 9969 02bd e766 7c3d 5ef6 4d3c c789 5eba
00000380: d43d b4bc 8368 91bc ad06 723d eb5b 68bb
00000390: 0e18 1ebd b670 53bd d66f 273d 239c 2ab9
000003a0: aa47 b33b 38c7 b53c 6e06 ecbc 6c48 edbc
000003b0: 25d6 253d ffbd 7bbc b57e 1fbd e6ae 8ebc
000003c0: ea14 3a3d eb6b 80bc 7383 5f3d 4928 32bd
000003d0: e1d7 533c 4040 a93d fcba a4bc 2c9b 64bd
000003e0: 38df 26bd e7f0 97bd 2fc9 a43c efed 423d
000003f0: 6fde 383d ddb5 1a3c 8d72 28bd 50ec 1fbd

fc2.bias f4 [80]
0.035269648 0.02841943 0.038879443 0.0020720516 0.035898957 0.021439834 -0.013197537 0.026652971
0.0053476207 0.008153007 -0.04175603 -0.0302398 -0.0003465629 0.030993018 0.026573 -0.015389001
-0.02279692 0.03278594 -0.039108142 -0.025538433 0.027140904 0.045231592 -0.037177105 -0.013442584
-0.014591139 0.056854542 0.008267448 -0.004337088 0.0032690081 -0.0115827685 0.013552919 -0.037779246
-0.0143963555 -0.016818684 -0.00833449 0.026888864 -0.032086052 -0.01381444 -0.030391242 0.017694617
0.01930757 0.00916419 -0.0010081201 -0.0010012116 0.035494294 0.03931369 0.034131438 -0.008229139
-0.039420173 -0.03654311 0.022599611 0.050449334 -0.035949223 -0.022805784 -0.029629987 0.022678163
0.043273084 -0.05007165 -0.03389484 0.005957227 -0.042759616 0.01989414 -0.0058249505 0.049123343
-0.03677133 0.049868137 -0.029503085 -0.04768149 0.02836723 0.021498475 -0.046531446 -0.0028950032
-0.008353545 0.032066967 -0.025532786 -0.009464196 0.04579299 0.016098777 -0.042280953 -0.028266769
00000000: e876 103d ddcf e83c 0d40 1f3d 42cb 073b
00000010: c90a 133d 97a2 af3c 7b3a 58bc 5557 da3c
00000020: 183b af3b 3194 053c 5f08 2bbd 75b9 f7bc
00000030: e3b2 b5b9 12e5 fd3c 9faf d93c 2622 7cbc
00000040: 9bc0 babc 8d4a 063d dc2f 20bd fa35 d1bc
00000050: 9a56 de3c c344 393d 0547 18bd 493e 5cbc
00000060: ac0f 6fbc 4fe0 683d 3174 073c 221e 8ebb
00000070: db3c 563b a7c5 3dbc 100d 5e3c 69be 1abd
00000080: b1de 6bbc 56c7 89bc 628d 08bc 0946 dc3c
00000090: aa6c 03bd f655 62bc 0ef7 f8bc 4df4 903c
000000a0: e92a 9e3c 6625 163c e622 84ba 163b 83ba
000000b0: 7762 113d 6407 213d 68cd 0b3d 83d3 06bc
000000c0: 0c77 21bd 3aae 15bd d222 b93c f6a3 4e3d
000000d0: 7e3f 13bd 32d3 babc 96ba f2bc 8ec7 b93c
000000e0: 1e3f 313d ee17 4dbd 51d5 0abd d834 c33b
000000f0: b524 2fbd 09f9 a23c 3adf bebb 8f35 493d
00000100: 899d 16bd 8842 4c3d 74b0 f1bc ab4d 43bd
00000110: 6562 e83c 921d b03c c297 3ebd 18ba 3dbb
00000120: 4fdd 08bc a758 033d 222a d1bc b70f 1bbc
00000130: 6e91 3b3d 95e1 833c cb2e 2dbd b68f e7bc

fc3.weight f4 [15, 80]
-0.074798875 0.029780837 -0.036837388 0.087264664 -0.005684642 -0.07644725 -0.048545573 -0.018133355
0.095131926 -0.012931392 -0.04537099 -0.065043576 -0.038618516 0.116334744 -0.07548118 0.009949393
0.063425064 -0.037245218 -0.08113997 0.14390203 0.07018893 0.050200745 -0.0113320965 -0.04517423
0.017701812 0.076249436 -0.06351954 -0.0781597 -0.0396174 -0.08635555 -0.037913114 0.018707978
0.03657664 -0.036748283 0.028967306 -0.0046497695 -0.07409409 0.11293401 0.033648044 0.047199048
0.002678052 0.100569196 0.0744324 -0.053633053 0.07206472 -0.048640836 0.002343083 -0.038774498
-0.03572576 -0.0114204185 0.0008900003 -0.023513053 0.021943277 0.050102036 0.056790385 -0.025107654
-0.03711508 -0.052059803 0.0035189847 -0.0051919026 0.14117135 -0.049217522 0.11549514 0.11181233
-0.037039947 -0.028864238 0.05077101 -0.048168354 -0.016926445 -0.027853297 0.03982034 0.04584681
-0.083116144 0.017663117 -0.0607984 -0.029176084 0.08696952 -0.02122889 -0.063284434 -0.00093662855
-0.0037808975 0.02548639 0.09372994 -0.02523643 0.02106664 0.032143053 0.084154785 0.042158455
0.10653628 0.0756631 -0.06383786 0.013899473 -0.073504284 -0.02862008 -0.092967734 -0.022257427
-0.07131003 -0.080912314 -0.02977536 0.068930596 0.032178767 -0.060088344 0.057237152 -0.07555896
0.055757776 0.06248485 0.0911423 0.034600955 -0.054654423 0.05813349 -0.025559539 0.018217338
-0.009414274 -0.110327825 -0.09338238 -0.017637683 0.008331704 0.05679808 0.028476182 0.08365126
-0.06667747 -0.002979626 0.022741653 0.038874704 -0.00056430825 -0.012750629 0.043283366 0.09808355
0.0100652315 0.05971795 0.020584159 0.019830119 0.06863867 -0.08156819 -0.073874734 -0.020063775
0.10801962 0.117858306 0.070712216 0.064890504 -0.035579458 0.025487212 0.043118495 -0.10242889
0.061047766 -0.052957576 -0.028541088 0.05225255 -0.014713225 -0.091688745 -0.030260347 0.054916106
0.042500503 -0.047798075 -0.051484536 0.015199833 0.025256975 -0.012927233 -0.018873297 0.024179539
0.06116017 0.052996915 0.03765164 -0.047954928 -0.04755135 0.10018717 -0.056241006 -0.007572744
0.012309552 -0.01644042 0.073350854 -0.053185713 -0.005120204 0.07763462 0.0019244388 0.051871408
0.12505189 -0.0017919682 -0.02433119 0.0029103633 -0.06994638 -0.034683622 -0.02561714 -0.06249969
0.113041446 -0.05520627 -0.022241252 -0.015664063 -0.04556152 0.06941999 0.0036003143 0.08890501
-0.043502897 -0.026395874 0.06986381 0.05196911 0.0030838163 0.08145547 0.030565929 0.105662234
-0.029906726 0.019610902 -0.0700552 -0.04988446 -0.075398274 -0.03944845 0.03571353 -0.016231079
-0.06458193 0.14677195 -0.061479636 -0.06700114 -0.047243714 -0.00078433874 0.10475661 -0.048533227
-0.003961031 0.0132041685 -0.042307228 -0.058034066 -0.07064569 0.13411042 -0.07431965 0.031140603
-0.04757786 -0.047650915 0.007402272 -0.054164037 0.055433773 -0.06060184 -0.01828718 0.045600668
0.08490441 -0.02564597 0.00853137 0.04571817 -0.030596767 0.001576764 0.003299967 0.04591497
0.0043194415 0.041942302 0.033319775 -0.0051589645 0.05710738 -0.0021035895 0.061629653 0.02392733
0.0001841173 -0.016496737 0.08340495 0.015330454 0.008934063 0.08232999 0.093145825 0.046592034
00000000: 2730 99bd f1f6 f33c cde2 16bd d1b7 b23d
00000010: 3c46 babb 6090 9cbd b9d7 46bd 678c 94bc
00000020: 87d4 c23d 30de 53bc eed6 39bd 9135 85bd
00000030: 732e 1ebd e940 ee3d e095 9abd c702 233c
00000040: 00e5 813d 718e 18bd b62c a6bd 0e5b 133e
00000050: 37bf 8f3d 4c9f 4d3d 42aa 39bc 9d08 39bd
00000060: 6403 913c aa28 9c3d 8816 82bd 3112 a0bd
00000070: db45 22bd 2edb b0bd c84a 1bbd 7941 993c
00000080: 63d1 153d 5e85 16bd d84c ed3c 185d 98bb
00000090: a4be 97bd f249 e73d 88d2 093d ca53 413d
000000a0: 4282 2f3b 39f7 cd3d 0470 983d 55ae 5bbd
000000b0: ab96 933d 9d3b 47bd 698e 193b 02d2 1ebd
000000c0: 2d55 12bd b51c 3bbc e94e 693a 729e c0bc
000000d0: 63c2 b33c cb37 4d3d 099d 683d 91ae cdbc
000000e0: fb05 18bd a93c 55bd c49e 663b d620 aabb
000000f0: 398f 103e 5098 49bd b788 ec3d ddfd e43d
00000100: 33b7 17bd b274 ecbc 43f5 4f3d 2e4c 45bd
00000110: 54a9 8abc 992c e4bc a71a 233d ddc9 3b3d
00000120: cc38 aabd 3eb2 903c be07 79bd af02 efbc
00000130: 131d b23d 36e8 adbc 459b 81bd 1488 75ba
00000140: efc8 77bb d5c8 d03c 7cf5 bf3d a1bc cebc
00000150: f293 ac3c 6fa8 033d 5859 ac3d 58ae 2c3d
00000160: b12f da3d 41f5 9a3d 6dbd 82bd 9dba 633c
00000170: 6a89 96bd a874 eabc de65 bebd 3555 b6bc
00000180: fe0a 92bd 5bb5 a5bd 75eb f3bc 7c2b 8d3d
00000190: e2cd 033d 321f 76bd 8171 6a3d a8be 9abd
000001a0: 4462 643d 1df0 7f3d d0a8 ba3d bbb9 0d3d
000001b0: 51dd 5fbd 621d 6e3d 3d62 d1bc 873c 953c
000001c0: 543e 1abc 8ef3 e1bd 433f bfbd e77c 90bc
000001d0: b381 083c 1ba5 683d e246 e93c 5a51 ab3d
000001e0: 338e 88bd d445 43bb b44c ba3c 153b 1f3d
000001f0: 16ee 13ba 04e8 50bc e649 313d 07e0 c83d
00000200: a4e8 243c cf9a 743d 1ca0 a83c c672 a23c
00000210: 6e92 8c3d 390d a7bd a34b 97bd c95c a4bc
00000220: 6439 dd3d b25f f13d 91d1 903d 50e5 843d
00000230: c4bb 11bd 8fca d03c 059d 303d 3dc6 d1bd
00000240: 390d 7a3d 0bea 58bd 00cf e9bc c506 563d
00000250: bd0f 71bc 4fc7 bbbd 8ce4 f7bc b6ef 603d
00000260: 0215 2e3d eac7 43bd 73e1 52bd b808 793c
00000270: b7e7 ce3c bfcc 53bc 2c9c 9abc 2b14 c63c
00000280: 1683 7a3d 4b13 593d 9b38 1a3d 636c 44bd
00000290: 34c5 42bd ee2e cd3d f85c 66bd c824 f8bb
000002a0: 01ae 493c 0fae 86bc f938 963d 43d9 59bd
000002b0: 62c7 a7bb e6fe 9e3d 733d fc3a 1d77 543d
000002c0: 9a0d 003e 7ae0 eaba 3452 c7bc cbbb 3e3b
000002d0: 0c40 8fbd 6a10 0ebd 09db d1bc adff 7fbd
000002e0: 4682 e73d f81f 62bd 4933 b6bc ec51 80bc
000002f0: b79e 3abd 112c 8e3d 40f3 6b3b d413 b63d
00000300: 1830 32bd 293c d8bc c214 8f3d 90dd 543d
00000310: da19 4a3b 20d2 a63d 6665 fa3c 7165 d83d
00000320: f3fe f4bc 0ba7 a03c 1a79 8fbd a653 4cbd
00000330: 696a 9abd b394 21bd 5a48 123d 0af7 84bc
00000340: 8843 84bd 634b 163e 12d2 7bbd e537 89bd
00000350: a082 41bd 159c 4dba a28a d63d c7ca 46bd
00000360: 89cb 81bb 4c56 583c 584a 2dbd 21b5 6dbd
00000370: b0ae 90bd 3e54 093e e734 98bd 941a ff3c
00000380: 01e1 42bd 9b2d 43bd c28e f23b 1cdb 5dbd
00000390: 860e 633d a339 78bd ffce 95bc c4c7 3a3d
000003a0: 5de2 ad3d 7f17 d2bc 29c7 0b3c fa42 3b3d
000003b0: 12a6 fabc 6cab ce3a 4244 583b 5611 3c3d
000003c0: 1a8a 8d3b b1cb 2b3d 517a 083d 880c a9bb
000003d0: 6ee9 693d 60dc 09bb 606f 7c3d 3f03 c43c
000003e0: 9d0f 4139 2a24 87bc 37d0 aa3d 962c 7b3c
000003f0: 2d60 123c a09c a83d 3dc3 be3d 4ad7 3e3d

fc3.bias f4 [15]
0.03339499 -0.04109185 0.0029785282 0.038962763 0.045092005 -0.028247587 -0.00064763223 0.034291066
0.014764445 0.059184466 0.018162634 0.04936604 0.007848472 -0.054833926 0.01729688
00000000: 2fc9 083d ed4f 28bd 6933 433b 6b97 1f3d
00000010: 65b2 383d 7c67 e7bc ddc5 29ba ca74 0c3d
00000020: 92e6 713c 696b 723d cec9 943c 0b34 4a3d
00000030: e196 003c 8a99 60bd 30b2 8d3c
