outfiles/cnn/Ya64_6Train_cnn.pth (torch, 605631 bytes, 10 tensors)

conv_layer1.weight f4 [16, 1, 5, 5]
00000000: 779c ad3d f31e 2bba ad7a c5bc dc86 89bb
00000010: 2eae d43d 5446 0b3e 326a e3bd 8abb 2cbe
00000020: f73a afbd 4240 b43d 9800 06be 553b 1fbe
00000030: 6837 adbd 25d7 b43d 92f6 2d3e 74c0 9c3d
00000040: d3d3 29bd 493d a9bd a348 ec3d 6c9e 013e
00000050: 9caa 863d 4e35 bcbc 57af 14bb cac7 0abe
00000060: 2496 4fbd b014 2cbe c7dc 093d 4c49 75bc
00000070: 5fef 213e c475 6d3d fda5 aabd f54c 2fbe
00000080: d57c c1bd 7f5c 30bd 1914 053c 07b1 c8bd
00000090: 3eb2 a2bd 6590 273e 25c3 333d 8ae7 4a3e
000000a0: 309f 0bbd d8a0 41be c26b b83d 101a 4b3e
000000b0: de1e d93d 15a3 a2bd 1496 5ebe 6ca5 28be
000000c0: 265c 4e3e fb4e b93d 5ed3 5a3d b4c0 ad3d
000000d0: 4672 d6bd 5d4a 353e d838 4d3e a2ee 013d
000000e0: abc9 573b 6ba0 1cbe ef18 d1bd 127c debd
000000f0: 3055 a339 05d9 27be 92e5 42be 0659 90bd
00000100: 2fa1 e2bd b105 febd bf75 f1bc ff0b 1abe
00000110: 24e3 913d 8f68 2c3d 5c76 9dbd c455 dd3d
00000120: acf3 353e f140 253e 6a04 c53c c8d8 d1bd
00000130: adb9 013d 4784 3d3e 2652 3d3e 08c0 113e
00000140: 4059 04be bec3 eb3c 0ad6 513e 0f7d d93d
00000150: f5c6 483e eb21 0fbe 9325 43be de92 d3bc
00000160: d14d 333e 6466 613e fcd1 9ebd 3c64 a1bd
00000170: 9dd8 98bc 1ea4 443e bbd9 553e 5ba5 63be
00000180: c234 6ebd 8c97 5f3d af76 383d c892 91bd
00000190: 4751 ccbd 0067 efbc f0d3 96bc 9be0 8abd
000001a0: 22d0 203d 9371 b03d c8df 813d 8448 97bd
000001b0: 5c86 bd3d b09b 183e e482 cfbd 8fe0 c8bd
000001c0: 1529 743d da73 273d f8fb ea3d b598 e03d
000001d0: 0850 4ebd fee2 b03d 2e86 983d c4f1 01bc
000001e0: 5c0d 0cbe 6ffd 143d b589 d9bd 7bce 3bbe
000001f0: cf50 1dbe 4073 a5bc a90e afbc 10df 5bbd
00000200: a738 52bd c142 7a3d 5a33 7bbd 9c78 813d
00000210: 491b 8fbd 8e86 43bd 5e5b b2bc 45f0 bfbd
00000220: 2231 463d a824 423d 3642 7dbd e977 e73c
00000230: 1dda d23c fa38 093d 3e87 c0bd 3c05 e63c
00000240: 9fd9 863d d877 8ebc 3d7a e3bd 84c2 583d
00000250: 90a5 9ebb 5bcc ccbd 66e6 1abe b692 2bbd
00000260: 9fc5 35be 49c5 e2bd f42a 483d 7b6c ab3c
00000270: 454f 273e 590f 5bbd 1161 0a3e 8ab7 f83d
00000280: 3bda e53a a9c2 2f3e eb41 2b3d 2f9e 263e
00000290: ef11 403d 276a aebd 78d5 283e f5fa 293e
000002a0: eb5a 613d 6770 2639 2eca d73d 8fc2 143e
000002b0: 3713 f23d 38b7 e93d e7e5 113e ebae 053e
000002c0: 4e4d f9bd 7361 213c 70b9 a5bd cd3b f7ba
000002d0: 6baa aebd b176 8a3d 7c19 bc3d 1d6f 09be
000002e0: 0d7f 243e 8b47 b7bd d4ab c0bd 6259 77bd
000002f0: 401b 023e f3ba eb3d ad24 8938 0bd0 70bd
00000300: fd0f d6bd 889a 23be ab2e 3c3d f282 293e
00000310: fdb1 433d e77e f63d 5b8f 9dbc 56be 2fbe
00000320: b9d2 80bd 5d75 023e 467a 9ebd 332b f73d
00000330: d706 5c3d a1dd d93d 8bc7 03be 33e2 a73d
00000340: d7ad 4e3d 2ce9 183e c2fb 3bbd d0ad 4b3d
00000350: f3b0 1e3e 6a4b 5c3d fdfb fc3b 80f7 073e
00000360: c09d 103e d941 f43c 8ced 333d 53f4 3f3e
00000370: b8e3 3b3e d606 2e3e 74ce cf3c 7797 b33d
00000380: d1b3 753d 1228 883d c826 d23d 1b2d 823d
00000390: a95a dcbc e08a a93d 3cc4 dd3d 0114 833d
000003a0: 62b1 383c 6d3c 403d ca50 c2bd 10cf 2d3e
000003b0: 5baf 2c3e 1cdb 283c 5d13 00bd 6c58 163e
000003c0: 0fe2 a83d f2c7 69bd d17a b53c 8ed9 b0bd
000003d0: 0978 ed3d f9a3 d8bd e98b 1dbe 646e 1abe
000003e0: 493f bd3d 2ab3 12bc 0ed2 8c3d a5e4 633d
000003f0: 2ebe 773d eb6b fbbd eaea 88bd 868d 87bb
0.08477109 -0.0006527744 -0.024106348 -0.0041969847 0.10384785 0.13601047 -0.111042395 -0.16868415
-0.085561685 0.08801319 -0.13086164 -0.15549977 -0.084578335 0.08830098 0.1698859 0.07653895
-0.041461777 -0.08263642 0.11537292 0.1265809 0.0657551 -0.022974636 -0.0022687519 -0.13552776
-0.050680295 -0.16804767 0.033657815 -0.014971089 0.15813969 0.05797364 -0.08332441 -0.171192
-0.09447638 -0.04305696 0.008122467 -0.0979939 -0.07944153 0.16363676 0.043887276 0.19814888
-0.03408736 -0.18909013 0.09004928 0.19834161 0.106015906 -0.07941262 -0.21736938 -0.16469353
0.2015234 0.090482675 0.05342423 0.08484021 -0.10471015 0.17704149 0.20041215 0.03172172
0.00329266 -0.1529557 -0.10209834 -0.10863508 0.00031153252 -0.1639138 -0.19032887 -0.0704823
-0.110658996 -0.12403429 -0.029475091 -0.15043639 0.07123402 0.042091902 -0.07688591 0.10807374
0.17768735 0.16138054 0.024049956 -0.10246426 0.031671215 0.18507491 0.18488368 0.1423341
-0.12924671 0.02877986 0.20491806 0.10619556 0.19607146 -0.13977782 -0.19057302 -0.025826868
0.17510153 0.22011715 -0.07754895 -0.07880446 -0.018657977 0.1920323 0.20883839 -0.22231047
-0.058155783 0.054587886 0.04503506 -0.071080744 -0.0997644 -0.029223919 -0.018411607 -0.06781121
0.03926099 0.086154126 0.06341511 -0.07386878 0.09254143 0.1490314 -0.10132387 -0.09808456
0.05960949 0.04088197 0.114738405 0.109666266 -0.050369292 0.08637045 0.07447468 -0.007931177
-0.13676971 0.036374506 -0.10621969 -0.18340485 -0.15362857 -0.020196557 -0.021369295 -0.053679526
-0.05132356 0.061098818 -0.06132827 0.063218325 -0.06987626 -0.047735743 -0.021772083 -0.09372
0.0483867 0.04739824 -0.06183072 0.02825542 0.02573877 0.033501603 -0.094007954 0.028078668
0.06584477 -0.01739113 -0.111072995 0.05291988 -0.004841514 -0.09999915 -0.15126953 -0.04188796
-0.17751168 -0.110727854 0.04886909 0.020925751 0.16338833 -0.053481434 0.1351359 0.12144382
0.0017536351 0.171641 0.04181091 0.1627128 0.046892103 -0.08516341 0.16487682 0.16599639
0.055018347 0.00015872867 0.105366096 0.14527343 0.11820071 0.11411899 0.14247857 0.13055007
-0.12172948 0.009849894 -0.0809201 -0.0018862427 -0.085285984 0.0676092 0.09184548 -0.13421293
0.16064091 -0.089491926 -0.094077736 -0.060387976 0.12705708 0.11510267 6.5395005e-05 -0.058792155
-0.10452268 -0.15976918 0.045942944 0.16553858 0.047777165 0.120359235 -0.019233396 -0.17162451
-0.06290192 0.12740083 -0.077381656 0.120687865 0.05371746 0.106379755 -0.12869088 0.08197441
0.050458755 0.14932698 -0.04589439 0.049726307 0.15497188 0.053782858 0.007720469 0.13278008
0.14122677 0.029816555 0.043927714 0.18745546 0.18348587 0.16994795 0.025367 0.08769124
0.05998594 0.06648268 0.10261303 0.063562594 -0.026898699 0.082784414 0.10828444 0.064003
0.01127276 0.046932627 -0.094880655 0.1697352 0.16863768 0.010306146 -0.031268466 0.14682168
0.08246242 -0.05707545 0.02215329 -0.08635245 0.115951605 -0.1057815 -0.15385403 -0.15081173
0.09240586 -0.008953849 0.06876002 0.055637974 0.060484104 -0.12276443 -0.06685431 -0.004136744

conv_layer1.bias f4 [16]
00000000: b6cd 773d edf9 193d 8fb4 ba3d 3ce7 d03d
00000010: ef56 e33d 7992 e53c 0b8e dcbd f89a e03d
00000020: bf6b 6f3d 4df6 a13c b215 2c3d 2755 c6bd
00000030: 7a5c 73bd 2271 99bd b22f df3d afa6 8bbd
0.060498916 0.037591863 0.0911647 0.102003545 0.11100566 0.028023945 -0.1076928 0.10967058
0.058452364 0.019770766 0.042012878 -0.0968421 -0.059414364 -0.074922815 0.10897769 -0.06818902

conv_layer2.weight f4 [32, 1, 5, 5]
00000000: 3993 133d 79bf 943d 835f c5bc bcfc 19bd
00000010: e8e6 8fbd d66a a4bd 392f 1d3e 6ef8 8e3d
00000020: ff61 cfbc 4bde 97bd 9f19 a33d 1bc9 d0bd
00000030: 17a5 b73d 8ac0 1a3d 57af c6bc 5cea 23bd
00000040: e8e8 f6bd 2b6d 50bc 6b43 183e bde4 d5bd
00000050: f8af 953d 9a6a b2bd b55f a93c e767 3d3c
00000060: e4fa f7bc 7b90 24bd 19d5 043d b793 1bbe
00000070: 5baf 123d 272f 373e 694b a73d 08d9 ab3d
00000080: ad14 16bd a1fa 03be 73b8 153e 0e57 e4bd
00000090: 8fcc 63bd 077e a03c ff7b 6fbc 0cd9 da3d
000000a0: 4c13 a5bc eedc 1dbd 5bb3 9abc 295a 7f3b
000000b0: c92d 54bd 811f d1bb ff84 34bd 3fc2 53bd
000000c0: 31e7 2bbd 86e6 a53d 0835 013e f8a0 72bd
000000d0: f7ff e53d 72b6 8bbc 4832 ce3c 5e7e 803e
000000e0: e912 0abe 716b 07be 8e62 afbc a099 e0bd
000000f0: 1885 733b df6d f7bd 7faf a43d 915e a33b
00000100: 6f87 ebbd 41bb 003e b4ed 0bbe 0cb7 c2bd
00000110: b4c6 ed3d 5359 fdbd 357a 493e 5f8c a4bd
00000120: 5b57 673d 1b42 a8bd b4a8 853d 9043 f8bc
00000130: 08fd c9bd d171 adbb a78e 963c 0d34 023d
00000140: f37a 633c 0c6a dd3d f3d6 24bd d69c 14bd
00000150: 4fac 1ebe 7bf8 2cbe 0094 d33d 17b9 193e
00000160: 6735 963d 71d2 5fbd 6faf 6fbd f44a debd
00000170: 38cd bd3d 3e36 863d ce9e 21bd 3341 11be
00000180: ec8b bbbd c3fd 423e 2f77 083e 04c3 bebd
00000190: 3ba4 98bb f55b 99bd 0f58 52bd 5236 c4bd
000001a0: 5a11 30bd b014 9ebd 4eeb d7bc f3a3 1d3d
000001b0: 771e de3d 136d 9c3d 727f d6bd c2ca c3bb
000001c0: 8eae 413d e5c1 c53c 136f 103d 6ef2 0cbd
000001d0: 04a2 053e d481 9abb c847 a0bc 075b 6a3e
000001e0: ef68 eb3c 1801 253e 551c a2bb 7a1d f13d
000001f0: 4c33 643e a932 f6bc 64b0 253e fe10 a23d
00000200: d38c 053e 28a4 2d3e 7966 2d3d e16e 513e
00000210: 9b13 543e cbf4 013e 9c6c 8a3b 25f6 9ebd
00000220: bb61 f03d b550 023e bd80 453e af05 853d
00000230: 1a80 983b 5ff1 d8ba 8f68 8fbc 0f30 f83d
00000240: bc8a 7bbc b4d6 9dbc b786 e3bb 6294 493d
00000250: e8a9 84bd bd38 44ba d91e 543e 8031 703e
00000260: 067b 833d 9a82 013e 6697 2dbe 7bde 74bd
00000270: 7ca8 933e 09eb 18be 78ff 31be 6c69 b2bd
00000280: a8f0 8ebc 87ab 5c3e fac8 d4bd a3a6 93bc
00000290: 3497 f4bd 7ad3 b93d dd5b 4a3e ce06 3dbe
000002a0: 495d 0ebe c4ec 61bd f8fc 913d 441a c4bd
000002b0: b051 d6bd af01 67be b698 01be d865 f8bd
000002c0: 0b8a b8bd d593 28bd 5f82 bb3d 0703 523b
000002d0: 20aa ba3d dccf febd 7c06 06be 0e28 32be
000002e0: a41c 003e ea65 3cbe 1006 893d c2a8 38bd
000002f0: 29f7 a13d 05b0 8a3d 0b80 a8bd 5635 6bbd
00000300: cbe8 8e3d 7fc3 be3d e85b 073e ddf4 983d
00000310: 8131 e53a cb49 34bd 4a5c 2ebe 05e0 033e
00000320: 7bdb 0bbe 15a4 b03d 53f1 003e 9938 a0bc
00000330: 1dbf 203c 54be 10be f79a cd3d ee21 473e
00000340: 61f1 df3d b78a 713d 02da 99bd 1381 d13c
00000350: 7c93 223c eb84 2ebd 8ed3 abbd 0c9b 953d
00000360: 2b36 1abd 61d4 cabd 4746 b63d a2b9 0dbd
00000370: 3d26 6cbd d2c4 233d 761c d5bd 9f1a 843d
00000380: aa51 8b3d 26d9 07bd 11b2 c63d 0f82 40bb
00000390: b073 92bd 18e4 57bc 6984 223d 6d7a 613d
000003a0: 554a 88bb f7de 9a3d 79fb f1bd 5141 c23d
000003b0: 0c8d 243d d5cb 76bd d15f b63d a35e edbd
000003c0: 5c33 a3bc 39a2 a0bd d9e8 003e bcf6 9ebd
000003d0: 684b debd af9d 253d 0dcf 4dbd 48c7 613d
000003e0: d886 9dbd 3b29 67bc 394b 323d 2437 49bd
000003f0: bf06 963d 697c b7bd 5dc0 39bd bb55 e6bd
0.036029074 0.07263083 -0.024093395 -0.037594542 -0.07026464 -0.0802819 0.15350045 0.06980978
-0.025315283 -0.07415446 0.07963871 -0.10194608 0.08967035 0.037781276 -0.02425353 -0.040018424
-0.12056142 -0.01272134 0.14869468 -0.10444019 0.07308954 -0.08711739 0.02067552 0.011560417
-0.030271001 -0.04017685 0.03242979 -0.15193067 0.035811763 0.17889081 0.0816868 0.08391005
-0.03664081 -0.12888576 0.14621143 -0.11149417 -0.055615004 0.019591345 -0.014616965 0.1068593
-0.020150803 -0.038540773 -0.018884351 0.0038963652 -0.051801477 -0.0063819294 -0.044072147 -0.05169892
-0.04196853 0.081006095 0.12617886 -0.059235543 0.11230462 -0.01705477 0.02517046 0.2509641
-0.13483776 -0.1322458 -0.0214093 -0.10966802 0.0037158187 -0.12081503 0.08041286 0.0049856384
-0.11500441 0.12571432 -0.13664895 -0.0950757 0.11610165 -0.12370553 0.19675525 -0.08034586
0.056479793 -0.082157336 0.06526318 -0.030305654 -0.09862715 -0.005293109 0.018378569 0.03178792
0.013884294 0.108112425 -0.040244054 -0.036282383 -0.15495418 -0.16891663 0.10330963 0.15012012
0.073344044 -0.054644052 -0.058516916 -0.1085414 0.09267658 0.065533146 -0.03945809 -0.14185028
-0.09157547 0.19042115 0.13326715 -0.0931454 -0.0046582497 -0.074882425 -0.05135351 -0.09580673
-0.042985298 -0.077187896 -0.02635732 0.038486432 0.108456545 0.07637992 -0.10473527 -0.0059750983
0.04728561 0.024140308 0.03526218 -0.034410886 0.13050085 -0.0047151837 -0.019565478 0.22886287
0.02873656 0.16113698 -0.004947225 0.117732 0.22285193 -0.030053454 0.16180569 0.07913397
0.13042001 0.16957152 0.042334054 0.20452453 0.20710604 0.12691037 0.004224373 -0.07761792
0.117373906 0.127261 0.19287391 0.06495225 0.004653943 -0.0016551426 -0.017505912 0.121185414
-0.015352901 -0.019267417 -0.0069435495 0.049213775 -0.064777195 -0.00074852613 0.20714892 0.23456383
0.06419949 0.12647477 -0.16952285 -0.059782486 0.2883948 -0.14933409 -0.1738261 -0.08711514
-0.017448738 0.21549807 -0.10389896 -0.018023795 -0.11942902 0.09073539 0.19761606 -0.18459627
-0.13902773 -0.055157438 0.07128328 -0.09575322 -0.104647994 -0.22559236 -0.12655911 -0.121288
-0.090107046 -0.04115661 0.09155726 0.0032045261 0.0911448 -0.1244199 -0.13088411 -0.17398092
0.12510926 -0.18398252 0.066906095 -0.045082815 0.0790847 0.06771854 -0.08227547 -0.057423912
0.069779955 0.09314632 0.13218653 0.07468579 0.0017486067 -0.044015687 -0.17027393 0.12878425
-0.13657944 0.08625046 0.12592058 -0.019558238 0.00981119 -0.14135104 0.10039323 0.19446537
0.10934711 0.05897018 -0.07512285 0.025574243 0.009922858 -0.04260723 -0.0838996 0.073049635
-0.037649315 -0.09903789 0.08900123 -0.03460086 -0.057653654 0.039982624 -0.10405819 0.0645039
0.068026856 -0.033166073 0.09701932 -0.0029374396 -0.07150972 -0.01317694 0.039677057 0.055048395
-0.0041592517 0.075620584 -0.11815543 0.09485114 0.040173575 -0.060252983 0.08904994 -0.11590316
-0.019921951 -0.078434415 0.12588824 -0.077619046 -0.10854226 0.040433582 -0.050246287 0.05512169
-0.07691735 -0.014108951 0.04352877 -0.04912485 0.073255055 -0.08959276 -0.045349468 -0.112468205

conv_layer2.bias f4 [32]
00000000: 86a9 12bd 5c74 cf3d f63d a13d d6cb b83c
00000010: b42e e1bc 3662 c4bc 8000 c33d b955 613d
00000020: aac8 433d da49 26bd ded5 a5bc c5b6 a53c
00000030: d26f 463d 67df bfbd 2e7b 0d3d 6b36 053d
00000040: 25ea bbbd 6ae1 8d3d 78a9 5d3d 5110 bf3d
00000050: 407d 28bd 4859 b63d e5d2 45bd a61e 76bd
00000060: 4e4b 303d eb83 d83d 4439 9cbd ec68 5b3c
00000070: 476c 17bc 1ee2 843d 87ff 543d a6a0 eb3c
-0.0358062 0.10129616 0.07873146 0.022558134 -0.02748809 -0.023972612 0.0952158 0.055013392
0.04779879 -0.040597774 -0.020243581 0.020228753 0.048446484 -0.093687825 0.0345413 0.0325226
-0.09175519 0.0692776 0.054116696 0.09329284 -0.041135073 0.08903748 -0.048296828 -0.060087822
0.043040566 0.10572036 -0.0762811 0.013391715 -0.009242124 0.06488441 0.052001502 0.028763127

fc1.weight f4 [120, 1152]
00000000: bce8 a33c e875 363b 772c 353b c665 363c
00000010: 327c f6bc 8442 7e3c 6624 5c3c 86d1 2dbc
00000020: 03bd 5eb9 6157 57bc 077c 593b ebd4 22bc
00000030: 4ab3 54bb c292 e93b fd8c 363c ddbe 8ebc
00000040: 5542 ecbb 4c18 1ebd f6b7 0abc bc37 353b
00000050: d316 4bbc 3dcc 0f3b ab24 cb3c a852 053b
00000060: 830f 82bc 7b30 183c 1ae0 253c 8f30 eebb
00000070: 92b5 09bc c637 61bc 3330 c9bb 4f43 723b
00000080: 502e 55bc ff79 023c 74a8 e13b caad 10b9
00000090: 7022 14bc ed32 66bc 79a9 dcbc 6831 9ebc
000000a0: 03d2 a23b 1019 1ebb 3d10 82bc b578 61bc
000000b0: 17ad 64b9 fecc b63b 1555 bc3c 66d8 cd3c
000000c0: 6322 53bc 4754 73bc 6bb6 4abc 86a0 02bd
000000d0: f315 e73a ac1a f33a 4ade 8cbb b2ca 143c
000000e0: 2d46 4abb e895 6d3b beb5 6f3a 1ebf 253c
000000f0: 9407 f0bb 05c4 38bc ed8c 7d3c ce57 84bc
00000100: 8c4e 053d d646 293c 8d97 b3bc e540 54bc
00000110: dd4b 8b3c 3409 a2bc 0485 0d3c f7c4 ca3b
00000120: a306 01ba 7d1b b23c ec94 30bc c2f6 473d
00000130: ee0c cabc b51c 8fbc 9535 3a3c dfe0 713c
00000140: a69e d4bc af07 fc3c 03bf 2cbc 7e2e c53c
00000150: 9419 fdbc 6397 ca3c 69b1 debb bb47 ca3c
00000160: ad11 a6bc e96f 893c 3836 503c d9fa 7f3c
00000170: 2e6e d43c b215 733b 9b27 093c 0596 833a
00000180: 177a 813c c698 06bd b48a 1cbd fbdc 013a
00000190: 6238 713c f2dc 373c 7ae5 27bc 01b2 19bd
000001a0: fce4 8cbd 2454 e03b 3029 a7b9 aff3 1c3c
000001b0: a820 973c 44f7 0dbc a93f 013d 65aa acbc
000001c0: 794f 92bb 1642 07bd dbc9 413d 5ca7 10bc
000001d0: 3295 053c cb13 a138 a56d 153c e3c9 1fbd
000001e0: a6d9 85ba 1609 893c 965b 913b ccf5 8c3a
000001f0: 1bd7 343d 60f3 b5bc 6bcf a9bb 7f75 ebba
00000200: d849 b73b e3f4 e23b 0cc1 82bb 5536 953b
00000210: 5c1b 68bc cb5c 92bb f4b4 a53c b1e6 ca3b
00000220: 2118 683c 8941 ffbc 4138 3cbb 7238 1cbc
00000230: 0164 a73c c4de ab37 65c6 7e3c a632 2b3b
00000240: 4f82 223d 8123 d83b 7b67 4d3c e4b8 bebb
00000250: 305b b13b bd74 7abc f524 8dbc 07ee 5bbc
00000260: 7832 d63b b7c7 2ebc c7c0 2abc 7442 103c
00000270: 82d3 ecbc 4772 27bc 1972 95bc 4b8d 01bc
00000280: d143 193c 8624 3abc b1a9 3ebc 47f4 b0ba
00000290: 028e deba 243b 183a 2b25 1e3c 1a6c 873c
000002a0: 96d0 d93b 9710 ba3b 107a a03c 3319 39bc
000002b0: 3f81 c83c 4cf5 093d daf7 75bc b9ad f83b
000002c0: ac40 e5ba 44db 163b 6934 153c 5a13 3d3d
000002d0: 2816 b63c 3eb6 fa3b 0395 a1bb d984 84bc
000002e0: c825 90bc 4d03 74bc 1d8d a53c b719 333c
000002f0: 65ee b13b 8ed1 e33b fa1a 77bc b1cf bdbc
00000300: c063 94bc 9378 b53b 82c4 543c ffcf 853c
00000310: 0bd1 7c3b d6ab 0e3c 32e5 21bd 58f0 48bd
00000320: 2a43 3bbc 29a0 babb 659e e73b 1255 04ba
00000330: 04e8 35bc f667 bbbc 8a6b c93a bcb6 a03b
00000340: 05d6 eabb 89bb aa3c 3248 9a3b 894b 5f3c
00000350: 47f0 ec3b 43fd 7b3c e6b9 673b 2682 0a3d
00000360: 05d6 fd3b 9181 2d3c 735c 8abc 5998 92ba
00000370: fdfb f7bc 9a01 7ebd 3648 0e3d b4bd 0e3d
00000380: 668f 5bbb 95a5 df3c cb0a cc3b 574d 7dbd
00000390: b1da 4dbc c8de d73b 3ad7 efbc 3e17 ecbc
000003a0: 699c 48bd f175 043d 8bfe 1fbd 5b34 7e3c
000003b0: 7075 4bbd 3417 6dbc 164f 54bc df04 a83d
000003c0: a3c7 c63c 9260 e13c 1c39 303d f46c 003d
000003d0: 5f5c 0a3d c60b 723d 6e14 80bd 2a0d 7a3c
000003e0: 765c a83b 674c 103d c2bc 973c 4fbb e3bb
000003f0: d13f 86bc a1e1 023a 4a08 c9bc c5cb e33b
0.020008437 0.0027841274 0.0027644911 0.011132663 -0.030088518 0.015518788 0.013436412 -0.010609036
-0.00021241982 -0.013143391 0.0033185498 -0.009938459 -0.0032455497 0.0071280906 0.011142013 -0.017424995
-0.007210056 -0.03859739 -0.008466711 0.0027651628 -0.012395578 0.0021941804 0.024797758 0.0020343456
-0.015876537 0.009288902 0.010124231 -0.007268972 -0.008405106 -0.013746208 -0.006139779 0.0036966389
-0.01301153 0.007963656 0.0068865363 -0.00013797652 -0.009041414 -0.014050228 -0.02693628 -0.019310668
0.004968883 -0.0024123825 -0.015876884 -0.013761689 -0.00021808255 0.005578636 0.022989789 0.0251276
-0.012886616 -0.014851636 -0.012372593 -0.03189137 0.0017630443 0.0018547378 -0.00429896 0.009081529
-0.0030864582 0.0036252681 0.0009144208 0.010116367 -0.007325122 -0.011277203 0.015475494 -0.01615515
0.03254561 0.01033183 -0.021922851 -0.012954925 0.017003948 -0.019779779 0.00863767 0.006188031
-0.00049219484 0.021741623 -0.010777693 0.04881931 -0.024664368 -0.017469743 0.011365314 0.014763086
-0.025954556 0.030765383 -0.010543588 0.02407002 -0.030895986 0.02473039 -0.0067960513 0.024692407
-0.0202721 0.016776996 0.012708239 0.015623772 0.025931444 0.0037091789 0.008371259 0.0010039216
0.015805287 -0.03286054 -0.038218215 0.0004953888 0.014722915 0.011222111 -0.010247583 -0.037523273
-0.06879613 0.006845968 -0.0003188341 0.009579583 0.018448189 -0.00866491 0.03155485 -0.021077344
-0.0044650403 -0.03302201 0.047311645 -0.008828964 0.008153247 7.680765e-05 0.00912038 -0.039010894
-0.0010211959 0.016727965 0.0044359667 0.0010754406 0.044150453 -0.022210777 -0.005182197 -0.0017964094
0.0055935197 0.0069261654 -0.003990298 0.004553596 -0.014166679 -0.004466628 0.020227887 0.0061920513
0.014165909 -0.03115918 -0.0028720053 -0.009534942 0.020433428 2.0488522e-05 0.015550231 0.0026122718
0.039675053 0.0065960293 0.012536879 -0.0058203805 0.0054124817 -0.015286622 -0.017229537 -0.013423449
0.006536778 -0.010667733 -0.010421938 0.008804906 -0.028909449 -0.010220117 -0.018242883 -0.007907222
0.009354548 -0.011361247 -0.011637137 -0.0013500535 -0.0016979577 0.00058071525 0.009652416 0.016531039
0.00664718 0.005678247 0.019589454 -0.011297512 0.024475692 0.0336812 -0.015012706 0.0075890687
-0.0017490587 0.0023018876 0.009106734 0.046161033 0.022227362 0.0076511195 -0.0049310937 -0.016176628
-0.01759614 -0.014893365 0.02020889 0.010931424 0.00543003 0.006952471 -0.015082115 -0.023170324
-0.01811397 0.005538055 0.012986304 0.016334532 0.0038576748 0.008707961 -0.03952522 -0.049057335
-0.011429587 -0.005695362 0.0070684426 -0.0005048077 -0.01110268 -0.02287672 0.0015367132 0.004904596
-0.0071666264 0.020841377 0.0047083134 0.013628849 0.0072307917 0.0153802065 0.0035358607 0.033815525
0.0077464604 0.010589973 -0.016889786 -0.0011184319 -0.030271525 -0.062013246 0.034736834 0.034848884
-0.003350222 0.027300635 0.0062268726 -0.061841335 -0.012564347 0.006587837 -0.029277433 -0.028819676
-0.04897729 0.03233904 -0.03906111 0.015515412 -0.049672544 -0.014470864 -0.012958309 0.08204054
0.024265116 0.027511869 0.043023214 0.031353906 0.0337795 0.05909326 -0.06253897 0.015261928
0.0051379753 0.035229113 0.018522624 -0.006949819 -0.016387852 0.0004992728 -0.024540085 0.0069517815

fc1.bias f4 [120]
00000000: 0ecf 95bc 3215 df3b a444 6d3c fbaf 43bb
00000010: 13a3 36bc f97b 8e3c e636 bf3b 0743 4bbc
00000020: 96ef 0fbc 97ab a53b f1a0 8a39 9134 bb3a
00000030: 71e1 e13b 0743 723c afaa 123c 5dae 51bc
00000040: 689f 03bc 3767 743c 278a 4abc 780c 853a
00000050: 2d5a 6dbc 640c 6bbc d555 37bb 684b 44bc
00000060: 4024 003b 12c2 4ebc d923 2b3c e1e8 75bb
00000070: 96c6 3a3c a1bd 31bc 70f3 88bb f8b4 583c
00000080: c081 f8bb 66b1 8a3b 767e 87bb 662e ff3b
00000090: 0c0b 5b3c 6823 a43b 79c2 3a3c 012c 2b39
000000a0: 0532 46bc 60a7 59bc 599a aa3b 2d52 c0bb
000000b0: 76d2 403c 0f83 36bc 37dc d2bb 4533 783b
000000c0: f19f 9dbc ab65 243c 091b 773c a0b5 4b3c
000000d0: 32eb 15bb fa6e 1b3c d404 e2bb 559e d73b
000000e0: 7fd8 2fbc d0df 5bbc 8e40 0e3c b40d 1abc
000000f0: 2c21 0dbc ef48 b6bb 2150 413b 66e6 1cbb
00000100: e978 e7bb cd54 9dbb bdd1 babb c335 08bc
00000110: fd80 1ebc 47fe c43b 4cfb 4c3c c065 3dbc
00000120: a1a9 23ba e13b 7e3c 223b 8ebb 54cb 06bc
00000130: a158 c93b 954d 003c 4de5 7cbc 0e5c b3bb
00000140: c518 67bb f386 edbb 9426 213c 49e6 0abc
00000150: 8682 823c 5953 11bc 1094 73bb c0e4 70bc
00000160: 462e 773c 70ab 8bbc 2b80 1cbb c2b1 f93b
00000170: 7f4b 99bb 40ec 1d3c af01 37bc 4176 473c
00000180: 153c 04bc de88 1c3c 9d30 29bc 78b9 eb3b
00000190: 81e1 59bc e3f5 26bc ddf1 dbbb 12f4 773c
000001a0: 1081 f9ba d13b 3fba 3a03 6aba e1f9 cdba
000001b0: f064 2e3c 916d f03b ace0 61bb 34f6 a539
000001c0: 19a6 38bc 2986 82bc 1777 263c 50c7 da3b
000001d0: 05fe b3bb 2332 2e3b 74bb f8bb 243c 2abc
-0.018287208 0.0068079466 0.014481697 -0.0029859531 -0.011147278 0.0173931 0.005835402 -0.012406117
-0.008785149 0.0050558555 0.00026441322 0.0014282634 0.00689333 0.014786488 0.008951827 -0.012797919
-0.008033611 0.014917186 -0.01236204 0.0010150811 -0.014486832 -0.014346216 -0.0027974744 -0.011980869
0.0019552857 -0.012619512 0.0104455585 -0.003752284 0.011399886 -0.010848434 -0.0041794106 0.01322674
-0.007583827 0.0042325733 -0.0041349484 0.0077875135 0.013369333 0.0050091036 0.011398905 0.00016324224
-0.0120968865 -0.013284534 0.005206388 -0.005869171 0.011768928 -0.011139645 -0.006434943 0.0037872356
-0.019241305 0.010034005 0.015082129 0.0124334395 -0.0022875783 0.009486908 -0.006897548 0.006580154
-0.010732769 -0.01342006 0.008682383 -0.009402681 -0.008613866 -0.0055628936 0.0029497223 -0.002394104
-0.007063974 -0.004801369 -0.0057012723 -0.008313599 -0.009674308 0.0060117575 0.012511086 -0.011559904
-0.0006243233 0.015517206 -0.0043405453 -0.008227188 0.0061445986 0.007830997 -0.015435529 -0.0054736203
-0.0035262567 -0.007248753 0.009835858 -0.008477756 0.015931379 -0.008869969 -0.003716711 -0.014702976
0.015086716 -0.017049521 -0.0023880105 0.0076200673 -0.0046781893 0.009638846 -0.011169835 0.01217419
-0.008070965 0.009554116 -0.010326532 0.0071937405 -0.013298393 -0.01019046 -0.006712182 0.0151338745
-0.0019035656 -0.0007294985 -0.00089268724 -0.0015714729 0.010644183 0.00733728 -0.003446619 0.00031654688
-0.0112700695 -0.015933113 0.010160229 0.006676592 -0.005492928 0.0026580177 -0.0075907055 -0.010390315

fc2.weight f4 [80, 120]
00000000: d0d8 1a3d 5e3b c5bc 11f6 22bd 6a60 a93c
00000010: 9f30 31bd c78e 533d cb66 5ebd 3855 063d
00000020: 8661 343d d1f2 2fbd 9b02 4abd 7e8e 223d
00000030: 2f44 663d a82a 8abd c71b 2e3d d755 653d
00000040: ce77 f23b 5c21 6b3d cd70 883c e712 c3bc
00000050: 48ec 533d 3cbe 2dbd 1787 803d 16eb 46bd
00000060: 87c7 3a3c f987 133c b006 3cbc 3f8e 04bd
00000070: 7fb5 5e3c ad2b 8b3d 5390 94bc 017f 743d
00000080: 466e 263b 0ff1 763c 93e6 3b3d fcaf fe3c
00000090: 223e bbbc b8cb 803b 331b 863d 3527 00bc
000000a0: 8711 02bd fb1f c23c 4a08 3bbd 34b4 ba3d
000000b0: 8515 23bd 873e f53c 5406 073d 5882 03ba
000000c0: 8922 ed3a d403 c4bc d002 2abd 3356 92bc
000000d0: e80a 5b3c c413 d43c 2c26 45bc b048 c33b
000000e0: b68d 303d 6917 4c3d 6fba 773c be99 6fbd
000000f0: e961 84bd 6089 fa3c c4ba 773c ff84 cd3c
00000100: deb2 7bbd 8180 ecbb 458e 203d f105 09bc
00000110: 2097 22bd af19 ff3a 8ee8 02bd 6ba7 053d
00000120: 6f07 0b3d b2ec 06bd 2de6 153d 2901 233d
00000130: 0572 abbb 6852 f0bc d98b 57bd 4bbe 25bd
00000140: 277c bb3c 0988 ed3c 2ecc 3d3d dd42 8e3d
00000150: e0d7 583c 333b 94bc 3e23 533c f135 20bd
00000160: 2781 793d ca2f 42bd 9f66 033c 41b9 63bd
00000170: df53 a23c 8a7e 34bd d688 9c3d 469c 6d3d
00000180: 974d 80bc 9ec2 91bc 2229 b8bc c945 d73c
00000190: cce7 86bd 5793 dc3c 94f7 69bc 0c42 523d
000001a0: 0eb9 a63c 60c6 5d3d 4e59 9e38 0c43 a9bb
000001b0: f2d5 13bd e93d 033d 3b53 703c 0b20 b2bc
000001c0: b1cb 95bd a9f9 233c 5fe1 dabc 4dae 453d
000001d0: a6c3 4cbc 24dc 01bd c9d1 10bd 0844 7a3c
000001e0: eaf4 0bbd 4a34 41bd bbdf 853b e424 16bc
000001f0: 07d3 8f3c 028e 4d3c 3c77 35bd fdf8 06bd
00000200: dcfe 413c adcd 21bc f29f 16bd 7323 51bc
00000210: dc33 14bc 6409 023d 3624 a93c bbef 0abd
00000220: d056 04bd e50c 5cbd 563b c43c aa62 1fbd
00000230: 8d61 113d 1269 10bc 83b0 06bd aa98 9f3c
00000240: 99ec a83c 68c7 acba 9068 afbb 600c 5cbd
00000250: 2344 073c a2f0 56bd e7cb 54bd e67c efbc
00000260: c628 53bd e10a 283d fe3d 2dbc 8e28 433d
00000270: 46d1 a5bc 417a 3dbd 6e2a 8fbc c32e 00bd
00000280: 6569 f23c bd39 8ebc 1ed8 3fbd 8e41 3fbd
00000290: 47f2 9b3c ac2e 283d 98ff 183d 412f 113d
000002a0: 476b f5ba 1c84 993c f9b7 0f3d 3d96 153c
000002b0: bf78 eabc 3ee2 e0bc c35b 093d a41c 1f3d
000002c0: ce48 d4bc 0569 64bd 0662 55bd 87b2 aabc
000002d0: b9f0 8ebc 48e5 cebc eba7 49bb 9878 ee3c
000002e0: 9993 0cbd 6fd5 4bbd 19d0 54bd 97ab b4bb
000002f0: 3f53 0abc 3a5b 01bd 2173 633c ad10 2fbd
00000300: 00f9 30bd d44c 9cbc 2260 733b a901 673c
00000310: 4d7a 733c 3f49 2fbd fd73 1d3d ac34 033a
00000320: 2108 e3bc 9512 9f3c c8e3 ccbc 7cc7 9dbc
00000330: 600b 19bd dc86 06bd 7519 303d 4d1e 33bd
00000340: db9a bcbb 2c73 8dbb 4a63 23bd 5b22 b7bc
00000350: 836b 0f3d ee07 a4bc 6f01 d53a f2b1 5c3c
00000360: 31ee 59bd 154c e13c 4475 22bd 60db 233d
00000370: 6366 aa3a 19ae 8f3c d1d8 acbc 41f9 4fbd
00000380: f82e 23bd acaf bfbc 1158 3f3d 1084 05bd
00000390: e2dd 26bd 6364 1cbd e45b b13c f010 20bd
000003a0: dc6c 15bd 4f9d 593c a092 8c3c 8446 50bc
000003b0: 09f0 4dbd bbd7 423d 08c2 29bd f0af c2bb
000003c0: de43 193d 4718 57bd f9b1 083c 3833 67bd
000003d0: a8c4 373d 19b8 cabc 87ba 953c 6987 e43c
000003e0: 69c6 043c a94b 42bd 8e48 533c 7a92 103d
000003f0: 121e ea3c 96a3 1d3d 0e30 033d 1fd6 053c
0.037804425 -0.02407616 -0.03978545 0.020675857 -0.04325926 0.051649835 -0.05429725 0.032796115
0.044038318 -0.042956177 -0.04931889 0.039686672 0.05621737 -0.06746417 0.04250696 0.055990066
0.0073995357 0.05740486 0.01665535 -0.023812724 0.051739007 -0.04241775 0.06275766 -0.04856404
0.01140011 0.009004586 -0.011476204 -0.03236222 0.013593077 0.0679544 -0.018135225 0.059691433
0.0025395318 0.015072121 0.04587419 0.031089775 -0.022856776 0.003930535 0.065481566 -0.007821848
-0.031754997 0.02369689 -0.045662202 0.09116402 -0.039815444 0.029937042 0.03296502 -0.0005016676
0.0018091957 -0.023927607 -0.04150659 -0.017863369 0.0133692995 0.025888331 -0.012033027 0.0059595928
0.043103896 0.049827013 0.015120133 -0.05849623 -0.064639874 0.030583084 0.015120212 0.025087832
-0.061449878 -0.0072174673 0.03919818 -0.008363233 -0.039694905 0.001946261 -0.031960063 0.032630365
0.033942636 -0.032940574 0.036596466 0.03979603 -0.005232098 -0.02933617 -0.052623603 -0.04046468
0.022886349 0.02899553 0.0463373 0.06946347 0.013235062 -0.018094635 0.01288682 -0.039113943
0.060914185 -0.047408856 0.008020072 -0.055596594 0.019815383 -0.04406599 0.07643287 0.058010362
-0.015661998 -0.017792996 -0.022480551 0.026278393 -0.065871805 0.026925726 -0.014280219 0.05133252
0.020351913 0.054144263 7.5506614e-05 -0.0051654633 -0.036092706 0.032041464 0.014668281 -0.021743795
-0.07314242 0.010008254 -0.026718793 0.04826193 -0.012497818 -0.031704083 -0.035356317 0.015275009
-0.034169115 -0.047169007 0.0040855086 -0.009164069 0.01755668 0.012546064 -0.044303164 -0.032952297
0.011840548 -0.009875697 -0.03677363 -0.012764799 -0.009045567 0.031747237 0.02064715 -0.03392003
-0.032309353 -0.053723235 0.023954075 -0.038912453 0.035493422 -0.008814113 -0.03288318 0.019481976
0.020620631 -0.0013181986 -0.005353041 -0.05372274 0.008255991 -0.05247558 -0.05195227 -0.02923436
-0.051552556 0.041026 -0.010573862 0.047646098 -0.02024139 -0.04625917 -0.017476287 -0.031294595
0.029591272 -0.017361516 -0.046836965 -0.046693377 0.019036425 0.041060135 0.03735313 0.035445455
-0.0018723988 0.018739752 0.03508756 0.009130058 -0.02862203 -0.02745163 0.033534776 0.038845673
-0.025913622 -0.055764217 -0.052095436 -0.020837082 -0.01744877 -0.025255814 -0.0030770253 0.029110238
-0.034320448 -0.049764093 -0.05195627 -0.005513619 -0.008442699 -0.03158114 0.013882429 -0.042740513
-0.043206215 -0.019079603 0.0037136157 0.014099517 0.014860702 -0.042794462 0.038440693 0.0005005102
-0.027713837 0.01941804 -0.025010958 -0.01926016 -0.037364364 -0.032843456 0.042993028 -0.04373007
-0.005755765 -0.004316708 -0.03988961 -0.02235525 0.03501464 -0.020023312 0.0016251038 0.01347016
-0.053205673 0.027502099 -0.039662614 0.040004134 0.0013000484 0.01753907 -0.02109948 -0.050774816
-0.039839715 -0.023399197 0.046714846 -0.032596648 -0.040738948 -0.038181674 0.021650262 -0.039078653
-0.03648077 0.013282134 0.01715976 -0.012712125 -0.050277743 0.047569018 -0.04144481 -0.0059413835
0.03741824 -0.052513387 0.008343213 -0.05644533 0.04486528 -0.024745988 0.01827742 0.0278966
0.008103945 -0.047435436 0.012895716 0.03529594 0.028578792 0.038486086 0.03202825 0.008168726

fc2.bias f4 [80]
00000000: b7cb 623d 3348 1bbd ac7d 623b b62f eabc
00000010: 63d5 163d c0a8 673d e500 3ebd 9e00 1e3d
00000020: 7b0d 26bd c748 063d 2350 003d 023b 2bbc
00000030: d7fb abbc 21b8 babc 4fcd 023d f61c 633d
00000040: a49d f8bc c72a 08bd ed00 da3b 449c f5bc
00000050: 9659 53bc 028d 083c 95fd 30bd aeea 303d
00000060: 5124 003d 93b8 68bb 67c4 f83b 5b88 e23c
00000070: b11f 1c3d 8798 af3c 934a 7abc f34f 313c
00000080: f7d6 22bd 7e41 99bc b67e d8bc cc9c 653d
00000090: d905 05bd 4e01 de3c 2018 803c 3081 4abc
000000a0: 6111 a23c 1956 b63b a072 b03c 3aa6 923c
000000b0: 20eb fcbc 90c2 28bd 960a bb3c d03b 393c
000000c0: adcf 6b3c 8a80 ca3c df4d 20bb 1bbe 46bd
000000d0: 1e37 19bd f38f 103d faa3 2c3b f414 5fbc
000000e0: c456 a03c 539a 84bc 317d 32bd c485 0cbd
000000f0: 3336 b73c c936 84bc 01bf db3c b3d5 87bb
00000100: 52fc a93c ce70 023d 85ee 96bc e953 9c3c
00000110: 67e3 2cbd 323c 393d 38cf cd3c 4e53 9a3c
00000120: 925c 173b 5920 52bd 15aa 303c b793 ddba
00000130: 72fa 30bd ff47 49bd 1b0c 513d 0434 dcbc
0.05537006 -0.03791065 0.003455977 -0.028587203 0.036824595 0.056557417 -0.04638757 0.038574807
-0.0405402 0.03278425 0.031326424 -0.01045108 -0.02099411 -0.022792878 0.03193408 0.05544754
-0.030348606 -0.03324392 0.0066529424 -0.02998174 -0.012899777 0.0083344 -0.043210585 0.043192558
0.031284634 -0.0035510405 0.0075917724 0.02765291 0.03811616 0.021435035 -0.015276569 0.010822284
-0.039755788 -0.018707987 -0.026427608 0.056057736 -0.03247628 0.027100231 0.015636504 -0.012359902
0.019783678 0.005564463 0.021539032 0.017901529 -0.030873835 -0.041201174 0.022832196 0.011305764
0.0143927755 0.024719495 -0.0024460477 -0.048521142 -0.03740608 0.03529353 0.0026342855 -0.013615835
0.019572623 -0.016186869 -0.043576423 -0.034307256 0.022364711 -0.016139405 0.026824476 -0.004145348
0.020750199 0.03184586 -0.018424282 0.01908298 -0.042209055 0.045223422 0.025123224 0.01883855
0.0023095948 -0.05130038 0.010782738 -0.0016904984 -0.043207593 -0.049140926 0.051036935 -0.026880272

fc3.weight f4 [15, 80]
00000000: 2731 07bd e3b1 683d 68ac 773b a55d 903a
00000010: 20d9 ddbc de7f 863d 7d71 c4bd df93 2b3d
00000020: 6d57 b6bd e9f5 ae3d f24e 093d 3ed0 87bd
00000030: bf2a 903d 9a63 ecbc f5a0 b73d 5a83 2e3c
00000040: 18e8 80bd 4801 4fbd 0806 a23d 59a4 9ebb
00000050: e26b 2c3c 4610 43bd 4fd4 9cbc 5773 403d
00000060: 39fe 01bd e07c 48bd f877 3dbc f866 153d
00000070: 3b56 1ebd c0ff 533d 37c2 763d defb cd3b
00000080: 324f e5bb aa5d 88bd a4fb 0d3d 26be 14bd
00000090: 99bd 42bd 3761 b73c b7dc 8cbb 5168 8cbd
000000a0: 5cc1 903d 83ac e6bc 345a 9e3d 793c e43d
000000b0: 136b 4f3d 1725 dc3b 1927 373c 81aa 9cbd
000000c0: 2eee 43bd 77ab ef3b aec6 573c 56b4 9d3d
000000d0: 2884 1cbd 308d 723d dd6b c8bd 4cf2 f23d
000000e0: 4025 803c 2b8c d13d 0f95 9d3d b655 ae3d
000000f0: bc2a 55bd 6a00 79bd a866 f0bc ae36 da3d
00000100: 9c28 44bc a7d9 8b3c 710b 2bbc d1fd 4bbd
00000110: 6fe2 83bd d08d 463c b27a edba 8aa8 bebc
00000120: d819 423c 811d 9bbd 793e a33d 061f 363d
00000130: c29a 993d 53a1 233d 633e 19bc 4ed6 553d
00000140: 6d4b 743d 9013 33ba b42a b73c 8ed9 2dbd
00000150: 7d93 4d3c 9129 37bd d349 5d3d 4fd3 83bd
00000160: f20b abbd 9730 88bd af60 2dbd 7af8 a33d
00000170: d802 433d bd49 f5bc 9618 a1bc c6e8 23bd
00000180: 3376 3cbd 7a3a 2c3d 0b7e 8c3d 9de2 043e
00000190: b127 5cbd cabe a6bd 8882 ec3c e0ad a13c
000001a0: 39b8 7d3d a468 59bc 0ecd d8bc 3fb7 60bd
000001b0: a657 913d 6bd7 843d 4231 b1bc ea07 0ebd
000001c0: fd5b 503d 800a 0bbd bdc6 b7bc df9f 1c3d
000001d0: ff40 593d 0533 1cbd 2713 7e3d 6e1b 89bd
000001e0: 06df e53d 4f71 c1bd 1d8d 25bb c034 a93c
000001f0: d64d 2f3d 4eb6 853d 9252 03bd a179 5dbc
00000200: f1a2 53bc 2afd b7bc 3393 8abc 797b ae3d
00000210: d1e6 90bd 75a6 aebd 14cc d1bd 93f6 843d
00000220: b4ed 3d3d e9c3 913d dc14 e93c b2a7 7abd
00000230: 2ed9 243d 0b19 85bc d914 933d dbd0 a73d
00000240: 596f e03c 92f0 953c 7cd1 f9bc 784a f93d
00000250: 006b 803d 5631 cdbc 9fec b93c b030 3cbd
00000260: 34f8 7cbd 89b8 e63b d918 ac3d 0b11 c83c
00000270: d75c 8ebd a0d4 c83d 9405 c03c 67a9 883a
00000280: b551 10bd 1b63 d4bb aa56 363d dd60 3ebd
00000290: 4e00 a83c df0f bd3d 9d58 223e 2120 683d
000002a0: dc15 8e3d 17c7 11bd 6066 a33d 2f64 a4bd
000002b0: e750 feba 057e 2f3d 9a6e 743d 6997 90bb
000002c0: 4579 753d b33b 233d 4df7 d33d 9100 80bd
000002d0: b8a6 dbbc f552 ac3d 601d 683d 25b3 e0bd
000002e0: 2c8e feb9 4b58 8cbd 97f6 b13d 5cf9 b43d
000002f0: bf49 293e e595 4cbd 85e4 6c3c 2eb2 3039
00000300: ceed 83bd e435 f0bc 0aa2 c9bc d4a9 c4bd
00000310: ddfc 16bc fb89 a9bd a3ad 19bc 8c3e 5e3d
00000320: 6a01 723d 1c06 a9bd ed32 6b3d 7dd6 d0bc
00000330: d181 00bc b244 22bc 8401 6d3d b09b d83a
00000340: bad9 743d 2921 5e3c 8aa8 7fbd 20eb dcbc
00000350: 7e59 623d ebb2 e13d bd8e 6ebd ac4d 24bd
00000360: 13c9 9cbd ab18 2dbd a1f1 af3b 323c 3ebd
00000370: 5c91 2d3d a59e 523d d7b5 a0bc b2cf 02bd
00000380: 27af 2f3d 581a 12bd 78e3 ad3c e2e3 43bd
00000390: fa40 41bd 6283 a6bd e913 c9bc bdd9 d6bd
000003a0: 5247 363d 759f 41bc de95 283c 3c6f 1dbd
000003b0: 6c92 d9bc 733e 41bd f0af 37bd b1b8 133b
000003c0: 504b 7abd 5765 74bd 7c9f 58bd ba44 a7bd
000003d0: 375b 46bd c903 e73c b0c1 6fbd 8433 b3bd
000003e0: eca4 023d a3f0 b53c 63d0 8ebd e2f3 e3bd
000003f0: dcc3 10bd 9250 253d 151f 9fbd 5f94 e8bc
-0.03300586 0.05681027 0.003779197 0.0011014236 -0.027081072 0.065673575 -0.09591959 0.041889068
-0.08903394 0.085429974 0.033522554 -0.06631516 0.07039403 -0.028856087 0.08966247 0.010651434
-0.06294268 -0.05053833 0.079113066 -0.004841369 0.010523768 -0.04762294 -0.019144205 0.046984997
-0.031736586 -0.048947215 -0.011564247 0.03647515 -0.038656455 0.051757574 0.06024381 0.0062861284
-0.006997966 -0.0665849 0.03466381 -0.036314152 -0.047544096 0.022385223 -0.004298772 -0.06855834
0.070681304 -0.028158432 0.07732049 0.11144347 0.050639223 0.0067182886 0.011178755 -0.076497085
-0.047834568 0.0073141414 0.0131699275 0.07700412 -0.03821197 0.05921668 -0.09786198 0.11862621
0.015642762 0.10231813 0.07694446 0.08512442 -0.052042708 -0.06079141 -0.029345825 0.106549606
-0.011972573 0.017071558 -0.01043974 -0.049802605 -0.06439673 0.012118772 -0.0018118231 -0.023273725
0.011846982 -0.07573987 0.079709 0.04446318 0.07500221 0.039948773 -0.009353253 0.05220633
0.059642244 -0.0006831223 0.02235923 -0.042443804 0.012547371 -0.044717375 0.054025482 -0.06436788
-0.08351888 -0.06649893 -0.042328533 0.080063775 0.047610134 -0.029942388 -0.019665044 -0.040016912
-0.04601116 0.042047955 0.06859978 0.12977071 -0.05374879 -0.08141859 0.028870836 0.01973623
0.061943267 -0.013269577 -0.026464965 -0.054862257 0.07096796 0.064864 -0.021629933 -0.034675516
0.050868977 -0.03394556 -0.022433633 0.038238402 0.0530405 -0.038134594 0.062029984 -0.06694685
0.11224179 -0.0944544 -0.0025261112 0.020655036 0.04279884 0.065289125 -0.032061167 -0.013517768
-0.012917266 -0.022459585 -0.016915893 0.08519644 -0.07075275 -0.08527843 -0.10244003 0.06492343
0.04636927 0.07117445 0.02845233 -0.061195083 0.04024618 -0.016247293 0.07181711 0.08194133
0.027396845 0.01830319 -0.030495398 0.12172407 0.06270409 -0.02504794 0.022695838 -0.04594487
-0.061760142 0.0070410413 0.08403177 0.02442219 -0.069513015 0.0980618 0.02344016 0.0010426462
-0.035234172 -0.006481541 0.044516243 -0.046479095 0.020507958 0.09231543 0.15854116 0.056671266
0.06937763 -0.035590257 0.07978511 -0.08026921 -0.0019402773 0.04284479 0.05967579 -0.0044125807
0.059930105 0.039851855 0.10349903 -0.06250108 -0.026812896 0.0841426 0.05666864 -0.10971669
-0.00048552582 -0.06852778 0.086896114 0.08836624 0.16532038 -0.049947638 0.01445878 0.00016851045
-0.06441842 -0.029322572 -0.024613399 -0.09602705 -0.009215561 -0.08278271 -0.009379777 0.054258868
0.05908338 -0.082531184 0.057421613 -0.025492901 -0.007843451 -0.009904074 0.057862774 0.0016525891
0.059777953 0.013557711 -0.06241659 -0.026967585 0.055261128 0.11020454 -0.058241595 -0.040113136
-0.07655539 -0.042259853 0.0053693806 -0.046444125 0.042374954 0.051420826 -0.019617958 -0.031936355
0.042891648 -0.035669655 0.02122663 -0.047824748 -0.047181107 -0.08130528 -0.024545627 -0.10490749
0.04450161 -0.011817803 0.010289637 -0.03843616 -0.026559077 -0.047178697 -0.04484552 0.0022540505
-0.06110698 -0.059666958 -0.05288647 -0.081674054 -0.048426833 0.028200047 -0.058534324 -0.0875006
0.031895563 0.022209471 -0.0697334 -0.11130501 -0.035343036 0.04036004 -0.077696 -0.028391061

fc3.bias f4 [15]
00000000: 15eb 98bc cdca ee3c 4fd5 cbbc 3ed5 263d
00000010: c790 c33d 4d8d d53c eebc d3bc 7e8c 5fbc
00000020: 7029 023d aedd 9cbd 4636 31bd 2c6e d13c
00000030: 2748 1e3d 3642 3d3a 7008 69bd
-0.018666783 0.029149437 -0.024881987 0.040730707 0.095490985 0.026068354 -0.025846925 -0.013644336
0.0317778 -0.076594695 -0.04326465 0.02556523 0.03864303 0.0007219644 -0.056892812
