outfiles/cnn/Ya64_4Train_cnn.pth (torch, 605567 bytes, 10 tensors)

conv_layer1.weight f4 [16, 1, 5, 5]
0.13957547 -0.005226567 -0.20800957 0.11331149 -0.19794303 -0.057534724 -0.117495306 -0.16159675
-0.1725603 -0.18133856 0.09234722 -0.06179048 -0.033330843 -0.21908644 0.061027385 0.1833089
0.1865924 0.1429426 0.13024177 0.14701396 0.23238982 0.0976229 0.09508684 -0.06857059
-0.107119 0.15520166 -0.05938271 0.13048568 -0.051371735 -0.07680814 0.20514464 0.1160581
-0.087546654 -0.0655804 -0.14851004 -0.07364379 0.09536022 0.009309086 -0.116867594 0.009697705
-0.010376192 -0.18721005 -0.16575952 -0.05806765 0.17374909 0.13407332 -0.005135866 -0.10279479
-0.16729501 0.13416678 -0.16164288 -0.16743529 0.09798423 -0.20112999 0.14796959 0.038605317
0.19458191 0.057337012 -0.08192728 -0.022294601 0.067130156 0.19632372 0.007802994 0.13844572
-0.12980254 -0.0076501057 -0.12400746 0.16132888 -0.04918175 -0.16978648 0.091121726 -0.09432532
0.05290735 -0.08942435 -0.21532418 -0.15016839 0.03669261 0.022458816 0.06681214 -0.10368153
-0.09805842 0.06504197 -0.19540556 -0.1636887 -0.16522181 0.003752794 -0.063227035 -0.012143819
-0.06203669 -0.20585433 -0.14831698 -0.09246857 -0.0163415 -0.104231626 -0.056880184 0.22038928
0.2422199 0.22996381 0.19760258 -0.07098545 0.15087883 0.23091474 0.20061715 0.17508586
-0.14866148 0.06662945 0.10417902 -0.10442558 0.11076319 0.15532905 -0.049141534 -0.12905174
0.1727343 -0.08278988 -0.026834894 -0.027375383 0.18163155 0.041194864 0.17104614 -0.18319711
0.14423266 -0.022762813 0.12234915 0.004441824 -0.1370179 0.15131015 0.24674965 0.05185677
0.24553229 0.08154541 0.062025987 -0.07309177 -0.062055234 0.036084153 0.0801635 0.18235204
0.11565733 0.07435038 -0.1346163 -0.14549641 0.187728 -0.08867421 -0.20790364 -0.06525735
-0.21343182 -0.1353418 -0.17197067 -0.103963345 -0.027496394 0.11121092 -0.0009196043 0.006174069
-0.08955834 0.07433257 -0.06309811 -0.082956135 -0.14064123 -0.12173588 -0.119072765 -0.023147857
-0.17512769 0.14364347 0.019422745 0.0471005 0.055782977 0.012296883 0.2019153 -0.06445909
0.1715861 -0.07441803 -0.00076356943 -0.009883357 0.025606878 0.065861546 0.046063222 0.18489745
-0.06014331 0.16728851 -0.0510122 -0.20245475 0.030443646 0.15522172 0.09559204 0.09664362
-0.1901782 0.16224307 -0.015761007 -0.051164728 0.026817007 0.05164648 -0.08767773 0.06902081
-0.115290925 0.03784708 -0.20808423 -0.19286114 0.0021640896 0.058015615 -0.18343207 0.14635772
0.007983976 0.037518244 -0.023049137 -0.09100881 -0.13970259 0.18416041 0.059261914 -0.105613604
-0.0831356 0.071579695 0.17913742 0.0144388275 -0.15946352 -0.14002338 0.05503292 0.010315567
0.03422901 -0.14914082 -0.19887225 -0.00162156 -0.15707506 0.1862904 -0.01876866 0.12217239
-0.15478343 0.047507823 -0.07790447 0.18855064 0.03266461 -0.19753927 0.06426069 0.04851801
0.049274005 -0.15296741 -0.051777236 0.24020314 0.18702917 -0.072693706 0.08977259 -0.1780125
-0.020707589 0.07677844 0.0067518675 -0.08571725 0.12390169 0.27687934 0.23608492 0.033189893
-0.1173623 0.059763465 -0.058548886 -0.2113034 -0.15385778 -0.06474257 0.11971735 -0.11517564
00000000: dfec 0e3e 9f43 abbb 7600 55be db0f e83d
00000010: 94b1 4abe 88a9 6bbd 61a1 f0bd 9e79 25be
00000020: a6b3 30be d1b0 39be 8a20 bd3d 0418 7dbd
00000030: ec85 08bd 3258 60be daf7 793d 54b5 3b3e
00000040: 1412 3f3e 8c5f 123e 195e 053e d48a 163e
00000050: 99f7 6d3e 84ee c73d e4bc c23d bd6e 8cbd
00000060: 3561 dbbd 2fed 1e3e 493b 73bd 0a9e 053e
00000070: 2b6b 52bd 964d 9dbd 7011 523e deaf ed3d
00000080: a94b b3bd 044f 86bd 0413 18be 8ed2 96bd
00000090: 384c c33d 2385 183c 4758 efbd 1fe3 1e3c
000000a0: e700 2abc feb3 3fbe ddbc 29be 58d8 6dbd
000000b0: 48eb 313e 844a 093e c44a a8bb 1386 d2bd
000000c0: 624f 2bbe 0463 093e b685 25be 2874 2bbe
000000d0: f5ab c83d 05f5 4dbe 5785 173e 9c20 1e3d
000000e0: 7b40 473e 37da 6a3d 7dc9 a7bd 2ba3 b6bc
000000f0: 897b 893d 1609 493e 42b0 ff3b b7c4 0d3e
00000100: f5ea 04be bdad fabb a0f7 fdbd 6633 253e
00000110: cd72 49bd 82dc 2dbe 079e ba3d a22d c1bd
00000120: 61b5 583d 1d24 b7bd f17d 5cbe bec5 19be
00000130: fd4a 163d 8dfb b73c ced4 883d fb56 d4bd
00000140: dad2 c8bd b934 853d 6518 48be 039e 27be
00000150: e82f 29be 6ff1 753b 2d7d 81bd def6 46bc
00000160: 2f1a 7ebd 7acb 52be 68e0 17be 2960 bdbd
00000170: 9cde 85bc 6477 d5bd 32fb 68bd baad 613e
00000180: 7e08 783e a27b 6b3e 5558 4a3e d260 91bd
00000190: fb7f 1a3e ea74 6c3e 956e 4d3e b549 333e
000001a0: b73a 18be 0575 883d cf5b d53d 14dd d5bd
000001b0: d0d7 e23d 940e 1f3e a248 49bd 2426 04be
000001c0: 43e1 303e be8d a9bd dad4 dbbc 5742 e0bc
000001d0: 9ffd 393e f2bb 283d b826 2f3e 0698 3bbe
000001e0: bab1 133e 1479 babc 3192 fa3d b88c 913b
000001f0: 6c4e 0cbe 0cf1 1a3e f1ab 7c3e c467 543d
00000200: d16c 7b3e 4801 a73d f60e 7e3d 23b1 95bd
00000210: a12d 7ebd facc 133d c32c a43d 7eba 3a3e
00000220: c0dd ec3d 0345 983d dbd8 09be 03fd 14be
00000230: c53b 403e d39a b5bd b1e4 54be a5a5 85bd
00000240: df8d 5abe 0a97 0abe 1419 30be bcea d4bd
00000250: 1e40 e1bc 8dc2 e33d 9a11 71ba d84f ca3b
00000260: 5d6a b7bd ad3b 983d 9539 81bd e8e4 a9bd
00000270: 4104 10be a950 f9bd 6cdc f3bd 93a0 bdbc
00000280: ac54 33be 4617 133e 731c 9f3c 74ec 403d
00000290: b17c 643d de78 493c e2c2 4e3e 2103 84bd
000002a0: 44b4 2f3e 7b68 98bd 472a 48ba ceed 21bc
000002b0: 84c5 d13c 6be2 863d caac 3c3d c255 3d3e
000002c0: d558 76bd ae4d 2b3e 2bf2 50bd 4c50 4fbe
000002d0: f464 f93c 71f2 1e3e c2c5 c33d 17ed c53d
000002e0: 13be 42be 0c23 263e 3a1d 81bc 1b92 51bd
000002f0: 57af db3c 428b 533d 6290 b3bd c85a 8d3d
00000300: a61d ecbd 8a05 1b3d 0814 55be 647d 45be
00000310: 66d3 0d3b c8a1 6d3d 9ed5 3bbe ccde 153e
00000320: 39cf 023c bbac 193d 8bd1 bcbc d462 babd
00000330: 320e 0fbe 8c94 3c3e 9fbc 723d f24b d8bd
00000340: ff42 aabd 6098 923d cd6f 373e d590 6c3c
00000350: 684a 23be 4a62 0fbe 336a 613d a002 293c
00000360: b833 0c3d 5fb8 18be 2ba5 4bbe 868a d4ba
00000370: 49d8 20be e9c2 3e3e bcc0 99bc 8535 fa3d
00000380: 8c7f 1ebe 9097 423d 618c 9fbd 6b13 413e
00000390: 53cb 053d bc47 4abe 1c9b 833d d2ba 463d
000003a0: 8ad3 493d 7da3 1cbe 5e14 54bd d0f7 753e
000003b0: 9384 3f3e 70e0 94bd b1da b73d e948 36be
000003c0: f6a2 a9bc 043e 9d3d c53e dd3b 878c afbd
000003d0: 2bc0 fd3d 21c3 8d3e 3fc0 713e 20f2 073d
000003e0: a55b f0bd 89ca 743d f5d0 6fbd eb5f 58be
000003f0: e58c 1dbe c197 84bd 5f2e f53d 35e1 ebbd

conv_layer1.bias f4 [16]
0.0056378823 -0.10046535 -0.10767078 0.1158773 -0.10179587 -0.0784795 0.0996715 0.030704023
-0.13921303 0.117957115 0.0573541 -0.13484411 -0.1140145 0.026711287 -0.0919999 -0.099292524
00000000: fcbd b83b c7c0 cdbd 7f82 dcbd 1451 ed3d
00000010: 5a7a d0bd dcb9 a0bd 9220 cc3d 0187 fb3c
00000020: dc8d 0ebe 8093 f13d 22ec 6a3d 9314 0abe
00000030: 6f80 e9bd a1d1 da3c 726a bcbd e159 cbbd

conv_layer2.weight f4 [32, 1, 5, 5]
-0.10023805 0.18943903 0.07964393 -0.03686122 -0.14542368 -0.19087395 -0.020280618 0.07989352
0.011626621 -0.17909575 0.062368326 -0.17300087 0.013809194 0.13659666 0.085664645 0.0025318628
-0.10181911 0.066133805 0.0153486645 0.17413293 -0.15709773 -0.03628925 -0.23464483 0.14226809
0.069290705 0.21601133 -0.011215189 0.06291989 -0.020800557 -0.11426775 -0.14575332 -0.18131697
0.18487598 0.16826536 -0.10523355 0.052949525 -0.14449728 -0.109993026 0.020030802 0.018298414
-0.08578387 -0.16413866 0.06985681 -0.059072133 -0.12321609 0.098018445 0.2216669 -0.012745001
0.036581885 -0.033454936 0.06284634 -0.10838763 0.0700045 0.0819784 -0.1147997 -0.0262518
0.0016394396 0.012728213 0.104352795 0.05141314 0.035770137 -0.026391927 -0.0053579635 -0.17018352
-0.17623837 0.17246169 0.21223629 -0.15636444 -0.17803146 -0.12236588 0.037141364 0.17955701
-0.15025438 -0.033401962 -0.073178 -0.118044056 0.13951582 0.073858455 0.11321494 0.22173154
-0.016005524 0.018657336 -0.00525776 0.08648916 0.19763625 0.113507286 -0.029887747 -0.09195596
0.12958926 -0.102094665 -0.107642315 -0.19442065 -0.071348555 -0.121920645 0.0031300227 -0.16811326
0.019412043 -0.06582882 -0.164279 -0.08708528 -0.086286254 -0.027309194 -0.045061678 -0.012444978
0.023601586 0.22065078 0.07154911 -0.13656881 -0.0008930091 -0.1464232 0.15147907 0.1672444
-0.14777297 -0.0916143 0.04097183 0.010893774 -0.08294711 0.05357122 -0.074063286 0.15816848
-0.02188632 -0.0922318 -0.05628482 0.06297161 0.13492812 0.06637607 -0.106301665 0.070774145
0.17768985 0.26815286 0.08582745 -0.016481834 0.06403557 0.09198434 -0.07667278 0.1636799
0.10129789 -0.10828113 0.09278679 -0.16856335 0.0691474 0.14696485 -0.07768321 -0.013585953
0.08983575 -0.08872539 0.019975161 -0.08410036 -0.07230771 0.05706259 0.067234494 0.083629996
0.1329922 -0.026505135 0.2425774 0.103573695 -0.050604444 0.24932666 0.20084704 -0.051358804
0.08916031 -0.07881122 0.0051992307 -0.052908197 -0.12164305 -0.04921568 0.042011373 0.06693802
0.04292137 0.17807618 0.08499782 0.04218647 0.056931853 -0.040521875 -0.00954241 -0.016084027
-0.11757846 0.20296043 0.17122726 0.029402334 0.1349232 0.010155642 0.12437641 -0.11128021
-0.11216597 -0.09799494 -0.06580678 0.054933086 -0.023174532 -0.028277613 0.10069945 0.18697728
0.17910264 0.10746434 0.13296081 0.17706485 0.15551202 0.10666388 -0.08141072 -0.15578634
0.035413 0.16184624 0.16661091 -0.069996305 0.046027556 0.19957371 -0.0493135 0.04277574
-0.13877903 -0.096229784 -0.020682652 0.09432427 -0.00016931549 -0.22933947 -0.04036345 -0.19630434
0.112851486 -0.01375293 -0.07074965 -0.119515926 -0.032696296 0.030500466 0.12695564 -0.16859716
0.034185942 -0.010947764 -0.24869077 -0.10057862 0.13534126 0.09966122 -0.112289265 -0.08839572
-0.04419595 -0.07740386 -0.14523919 0.030706944 -0.1922237 0.024377832 -0.19429098 0.16757931
-0.15125445 0.06858181 0.14924759 0.056270238 0.064389415 0.13948946 0.10136667 0.10387005
-0.0721251 0.12127293 0.021219842 0.22321999 0.2081592 -0.011727182 -0.08494035 -0.020787748
00000000: 9b49 cdbd 4efc 413e 5b1c a33d cafb 16bd
00000010: f2e9 14be 7674 43be 8a23 a6bc 379f a33d
00000020: 957d 3e3c e064 37be ee75 7f3d 2427 31be
00000030: f53f 623c ffdf 0b3e f270 af3d 9ced 253b
00000040: 8a86 d0bd 2971 873d f778 7b3c e74f 323e
00000050: 3ade 20be 09a4 14bd bc46 70be baae 113e
00000060: 49e8 8d3d 1332 5d3e e9bf 37bc 25dc 803d
00000070: ee65 aabc 3605 eabd 5c40 15be 28ab 39be
00000080: 2150 3d3e c14d 2c3e b084 d7bd 9ae1 583d
00000090: 18f7 13be 0644 e1bd a317 a43c 8ee6 953c
000000a0: 74af afbd f713 28be 1611 8f3d 9ff5 71bd
000000b0: b858 fcbd e5bd c83d a6fc 623e 69d0 50bc
000000c0: e3d6 153d 0b08 09bd 95b5 803d 55fa ddbd
000000d0: 855e 8f3d 4be4 a73d 1b1c ebbd 040e d7bc
000000e0: 77e2 d63a ff89 503c ebb6 d53d 9696 523d
000000f0: b583 123d e233 d8bc db91 afbb 9744 2ebe
00000100: d577 34be cc99 303e 7854 593e 001e 20be
00000110: e14d 36be f69a fabd 8b21 183d cbdd 373e
00000120: 49dc 19be 7fd0 08bd 59de 95bd 15c1 f1bd
00000130: 3cdd 0e3e 1a43 973d 3cdd e73d 980d 633e
00000140: 041e 83bc 45d7 983c 4a49 acbb 3b21 b13d
00000150: 2861 4a3e 8276 e83d 26d7 f4bc 6853 bcbd
00000160: 0cb3 043e 0217 d1bd 9373 dcbd 3516 47be
00000170: 311f 92bd 88b1 f9bd 1121 4d3b e225 2cbe
00000180: 0106 9f3c 43d1 86bd c138 28be c459 b2bd
00000190: d9b6 b0bd 88b7 dfbc 9892 38bd 05e6 4bbc
000001a0: 1d58 c13c 47f2 613e 5788 923d b2d8 0bbe
000001b0: d418 6aba f7ef 15be 541d 1b3e 1e42 2b3e
000001c0: cc51 17be 47a0 bbbd 14d2 273d cd7b 323c
000001d0: 2de0 a9bd 7f6d 5b3d 7eae 97bd ebf6 213e
000001e0: f14a b3bc 07e4 bcbd e98a 66bd 42f7 803d
000001f0: 992a 0a3e 2df0 873d b0b4 d9bd 09f2 903d
00000200: 54f4 353e 554b 893e 4dc6 af3d e904 87bc
00000210: 1525 833d 4962 bc3d 9e06 9dbd b49b 273e
00000220: 4575 cf3d 7fc2 ddbd 0007 be3d df9b 2cbe
00000230: 279d 8d3d f47d 163e 6018 9fbd 9e97 5ebc
00000240: cefb b73d a8b5 b5bd f3a2 a33c cf3c acbd
00000250: 1116 94bd 76ba 693d 3db2 893d 3446 ab3d
00000260: 1b2f 083e 4c21 d9bc 3666 783e 721e d43d
00000270: 9b46 4fbd 7d4f 7f3e d9aa 4d3e 9c5d 52bd
00000280: ae99 b63d c767 a1bd 4f5e aa3b 44b6 58bd
00000290: fe1f f9bd 6296 49bd 1e14 2c3d cd16 893d
000002a0: 52ce 2f3d 9a59 363e 5613 ae3d b8cb 2c3d
000002b0: 6031 693d 44fa 25bd c557 1cbc a6c2 83bc
000002c0: facc f0bd dcd4 4f3e 3356 2f3e 2add f03c
000002d0: 4f29 0a3e da63 263c 0fb9 fe3d e1e6 e3bd
000002e0: 46b7 e5bd 92b1 c8bd b4c5 86bd 8401 613d
000002f0: 84d8 bdbc 74a6 e7bc 833b ce3d f976 3f3e
00000300: af66 373e 4416 dc3d e126 083e 7d50 353e
00000310: 8b3e 1f3e 9872 da3d aaba a6bd 7486 1fbe
00000320: 390d 113d 05bb 253e 0d9c 2a3e 395a 8fbd
00000330: 6487 3c3d 0d5d 4c3e f4fc 49bd 9d35 2f3d
00000340: 171c 0ebe 1f14 c5bd aa6e a9bc 152d c13d
00000350: 488a 31b9 f7d7 6abe 2554 25bd 0104 49be
00000360: ae1e e73d f853 61bc 31e5 90bd c4c4 f4bd
00000370: 8dec 05bd 1ddc f93c a900 023e bca4 2cbe
00000380: 8f06 0c3d 405e 33bc cba8 7ebe 2afc cdbd
00000390: e696 0a3e 2f1b cc3d eaf7 e5bd d108 b5bd
000003a0: d006 35bd ea85 9ebd 95b9 14be 218d fb3c
000003b0: 4ad6 44be 05b4 c73c 37f4 46be e999 2b3e
000003c0: 72e2 1abe 9f74 8c3d 5cd4 183e 9f7b 663d
000003d0: 99de 833d 53d6 0e3e 5499 cf3d d2b9 d43d
000003e0: 53b6 93bd f15d f83d 3cd5 ad3c c893 643e
000003f0: af27 553e 5e23 40bc 35f5 adbd 114b aabc

conv_layer2.bias f4 [32]
-0.012537752 -0.072018266 -0.05894431 -0.067399874 0.06362333 -0.069609836 -0.02192664 -0.14520593
0.05921968 -0.11148928 0.08141153 0.028467592 0.08359499 0.033351526 -0.022442702 -0.030938277
-0.108468965 0.083057515 0.04266738 -0.14077385 0.1197727 0.075874746 -0.12857495 -0.13488485
-0.116904624 0.0026039835 0.11029363 0.10716048 -0.12869667 -0.14104111 0.062765196 -0.026567345
00000000: 256b 4dbc 507e 93bd 976f 71bd f208 8abd
00000010: f34c 823d 9a8f 8ebd 7f9f b3bc ddb0 14be
00000020: 5690 723d 7e54 e4bd 17bb a63d de34 e93c
00000030: da33 ab3d 9c9b 083d c2d9 b7bc 4572 fdbc
00000040: fa24 debd 0f1a aa3d fec3 2e3d 0527 10be
00000050: 644b f53d 3864 9b3d 27a9 03be 411f 0abe
00000060: b16b efbd 98a7 2a3b a0e1 e13d f476 db3d
00000070: 0fc9 03be 156d 10be 0a8b 803d c3a3 d9bc

fc1.weight f4 [120, 1152]
0.018200386 -0.0113412 -0.015274795 0.018581131 0.006628769 0.011831714 -0.019205533 -0.005027562
0.0055197068 -0.0042758537 0.005459901 -0.0015175084 0.005053324 0.0021559037 0.009713654 0.014507398
0.014412641 -0.012748288 -0.013900772 0.011383175 -0.014325668 -0.005706335 0.005032132 -0.009374709
-0.018555012 0.011683637 0.0055850716 -0.0097797755 -0.013983491 -0.020341007 -0.022219837 -0.016066896
0.016531574 -0.012505587 -0.010154961 0.0013592603 0.009066203 -0.011531764 -0.004812648 -0.018993007
0.013232196 0.0052819657 0.0065876376 0.008727785 -0.01595425 0.0014873352 0.010320524 -0.019797532
0.018155135 0.006203956 0.015310823 0.0047920058 0.008796018 -0.013212749 0.0049153217 -0.012409806
0.021078309 0.0071434267 0.011146507 -0.014105784 -0.016520122 -0.0076304306 0.0003834786 0.013912957
0.0048191375 -0.0034029342 0.013200372 0.02035076 -0.017911043 -0.012387791 -0.018827243 0.010119356
-0.013240962 -0.01918938 0.016883822 -0.018130967 -0.019209176 0.02055278 -0.0047752173 -0.02004047
0.0119665135 -0.0074620456 -0.016327247 0.012817895 -0.021303898 -0.015692057 0.007975184 0.007335466
-0.014731454 0.019531382 0.004665334 0.01717104 -0.014357646 -0.00070433784 0.019259972 -0.018905217
-0.003100716 -0.017037403 -0.0112255495 0.009127695 0.004348503 -0.0023179196 0.006763627 0.002441955
0.017317014 -0.00536634 -0.007539279 0.013672965 0.012852 -0.011898909 -0.017144771 -0.016000398
-0.008351699 -0.011885553 -0.014678431 0.0010349571 0.018747414 0.005621834 -0.003961693 0.0136340195
-0.012679136 -0.012575438 -0.0054374756 0.015895318 0.0011046443 -0.010201583 0.010665595 -0.003618814
-0.006307964 -0.016946513 -0.01447576 0.019010382 0.0060755205 0.010849538 -0.0054937657 -0.003124519
0.010511142 -0.012826377 -0.0043368028 0.0049506417 -0.022104219 -0.020316519 -0.0048198286 -0.0052046273
-7.406961e-05 0.009393042 -0.007001314 5.0322375e-05 0.020596242 0.011952032 -0.005871227 -0.014492921
0.01352614 0.0028194464 -0.009263297 -0.008246556 0.0013392118 -0.0044471845 0.013295631 0.0059446422
-0.012907136 -0.0063880957 -0.008970092 0.019907065 0.0025452843 0.0169653 0.016981304 0.007867792
-0.020661298 0.007399243 0.008183778 -0.018277861 -0.0051938333 0.011614356 -0.021321697 -0.0025446222
0.009371494 0.005850435 -0.016694717 0.017176425 0.0053956388 0.0112212235 -0.007602175 -0.0033835343
-0.019522723 -0.02122648 -0.0072132563 -0.007898696 -0.009417804 -0.01958092 0.0065997597 -0.013898353
-0.0081829475 -0.018585159 0.013247619 0.009072413 -0.0047389623 0.011974399 -0.014983786 -0.020382177
-0.021026867 -0.020851176 -0.016598128 -0.0104698725 -0.010629128 -0.007963692 0.0013175654 0.012962179
0.0070080264 0.018289065 0.017891819 0.0011442278 0.0007272695 0.0020994311 0.011385723 -0.0157259
0.0021377294 0.019379169 0.0017215508 0.011321266 -0.011998917 -0.00704016 0.008527 -0.007385268
-0.015364047 -0.012900482 -0.0063978676 -0.019291617 0.0068678996 0.014356648 0.016874889 0.005182057
0.0055388585 0.018643424 0.019310107 0.0011897727 0.0023345947 0.014437254 -0.019277936 0.0077358484
0.0031122884 -0.021951247 -0.011547239 -0.011906607 -0.00679307 0.015773822 0.0013124009 -0.006698064
0.0050482685 -0.011242695 -0.014055701 0.00827424 -0.015274177 -0.0017141188 -0.011975323 -0.001344559
00000000: fa18 953c 71d0 39bc 2243 7abc 7537 983c
00000010: 2536 d93b ced9 413c ec54 9dbc 3fbe a4bb
00000020: a8de b43b 761c 8cbb f8e8 b23b 22e7 c6ba
00000030: 5b96 a53b 104a 0d3b 0526 1f3c 70b0 6d3c
00000040: ff22 6c3c 32de 50bc 10c0 63bc 7f80 3a3c
00000050: 35b6 6abc 35fc babb 95e4 a43b 6198 19bc
00000060: ae00 98bc ba6c 3f3c fa02 b73b 5a3b 20bc
00000070: 031b 65bc 2fa2 a6bc 6006 b6bc b99e 83bc
00000080: 396d 873c 3ce4 4cbc fe60 26bc 3529 b23a
00000090: 698a 143c b9ef 3cbc 6bb3 9dbb 3997 9bbc
000000a0: dacb 583c 5714 ad3b 1cdd d73b fcfe 0e3c
000000b0: 7db2 82bc b0f2 c23a 6a17 293c 6f2e a2bc
000000c0: 14ba 943c 8e4a cb3b 3fda 7a3c 4206 9d3b
000000d0: 2c1d 103c 497a 58bc b510 a13b 8052 4bbc
000000e0: 6bac ac3c 6813 ea3b d79f 363c f21b 67bc
000000f0: 3555 87bc b108 fabb a00d c939 2cf3 633c
00000100: dbe9 9d3b c303 5fbb 6046 583c a3b6 a63c
00000110: 2eba 92bc 29f6 4abc 973b 9abc a8cb 253c
00000120: 9ff0 58bc 0c33 9dbc f14f 8a3c 6587 94bc
00000130: 905c 9dbc 4e5e a83c 6d79 9cbb e92b a4bc
00000140: 320f 443c 2d84 f4bb b8c0 85bc 2602 523c
00000150: 8385 aebc a18c 80bc 59aa 023c 595e f03b
00000160: 325c 71bc 4700 a03c a8df 983b 48aa 8c3c
00000170: 553c 6bbc 50a3 38ba 17c7 9d3c 1ddf 9abc
00000180: 6235 4bbb 0692 8bbc 5eeb 37bc 548c 153c
00000190: e37d 8e3b 3de8 17bb 6aa1 dd3b 3509 203b
000001a0: 69dc 8d3c 1fd8 afbb 0e0c f7bb 9204 603c
000001b0: 3291 523c a4f3 42bc 3173 8cbc 4413 83bc
000001c0: 91d5 08bc 9fbb 42bc cd7d 70bc 66a7 873a
000001d0: 2d94 993c 5d37 b83b 17d1 81bb 3961 5f3c
000001e0: 27bc 4fbc 3609 4ebc da2c b2bb e636 823c
000001f0: b6c9 903a 8a24 27bc bfbe 2e3c a029 6dbb
00000200: 0ab3 cebb 6ad3 8abc bd2b 6dbc a9bb 9b3c
00000210: 2915 c73b 43c2 313c 0c05 b4bb bbc4 4cbb
00000220: ed36 2c3c b925 52bc bd1b 8ebb fe38 a23b
00000230: e813 b5bc d46e a6bc a7ef 9dbb 948b aabb
00000240: d255 9bb8 46e5 193c 476b e5bb 3d11 5338
00000250: 73b9 a83c 75d2 433c 6c63 c0bb b773 6dbc
00000260: be9c 5d3c 76c6 383b 15c5 17bc 901c 07bc
00000270: 7e88 af3a b0b9 91bb ebd5 593c 46cb c23b
00000280: 7478 53bc 3b53 d1bb 4bf7 12bc 2414 a33c
00000290: c9ce 263b d0fa 8a3c 601c 8b3c e9e7 003c
000002a0: e241 a9bc 5975 f23b 4115 063c 74bb 95bc
000002b0: 0831 aabb 244a 3e3c d7aa aebc adc3 26bb
000002c0: e58a 193c 01b5 bf3b 5cc3 88bc 93b5 8c3c
000002d0: e6cd b03b 39d9 373c ab1b f9bb 49be 5dbb
000002e0: 1eee 9fbc 28e3 adbc 2e5d ecbb 8869 01bc
000002f0: 224d 1abc 2a68 a0bc cc42 d83b ebb5 63bc
00000300: c511 06bc e73f 98bc 8b0c 593c 75a4 143c
00000310: 4c49 9bbb 4530 443c 8e7e 75bc 86f8 a6bc
00000320: 8940 acbc 16d0 aabc ccf8 87bc d489 2bbc
00000330: cb25 2ebc 257a 02bc 29b2 ac3a 525f 543c
00000340: 96a3 e53b f3d2 953c dd91 923c eaf9 953a
00000350: 3ba6 3e3a 9c96 093b 2f8b 3a3c 9ad3 80bc
00000360: 2619 0c3b 10c1 9e3c a9a5 e13a d57c 393c
00000370: 1b97 44bc 24b1 e6bb d5b4 0b3c 1e00 f2bb
00000380: 7cb9 7bbc 8b5c 53bc 34a5 d1bb 7409 9ebc
00000390: 1e0c e13b 2538 6b3c 353d 8a3c 3fce a93b
000003a0: 507f b53b 18ba 983c 3b30 9e3c 26f2 9b3a
000003b0: 0000 193b 3b8a 6c3c c3ec 9dbc 007d fd3b
000003c0: 89f7 4b3b 1ad3 b3bc a130 3dbc ee13 43bc
000003d0: 6798 debb 1a38 813c de04 ac3a 6f7b dbbb
000003e0: f26b a53b 4833 38bc e249 66bc ae90 073c
000003f0: 8b40 7abc 48ac e0ba 2534 44bc ea3b b0ba

fc1.bias f4 [120]
-0.015355744 -0.019329352 -0.010509973 -0.01795908 0.007909061 -0.014215599 -0.012527042 0.008392033
0.01596787 0.018146291 -0.018148031 -0.019466672 -0.018222041 -0.013271026 -0.016532408 -0.011962946
0.016083196 -0.0005850689 0.015807077 -0.013831912 -0.009565816 0.0076080696 -0.020293193 0.018780656
0.0043146894 0.018740384 -0.019401995 0.005132471 -0.013552008 0.0045394306 -0.008537811 0.006741287
0.00679869 0.016327627 -0.0036354593 0.016832592 -0.017942484 0.009806802 0.010520299 -0.0009049416
0.0061236047 0.01159823 -0.00047438717 -0.005864289 -0.013177389 0.0051037655 0.015268239 0.014839075
-0.017637698 -0.011380945 -0.017587865 -0.00604574 0.0044482085 0.019851299 0.00065335317 -0.013805216
-0.0050220853 0.0048860204 -0.0063894102 -0.013715443 -0.015135981 0.01980552 -0.014713087 -0.0019929612
-0.013768331 -0.0013071987 -0.0011930513 -0.00833428 -0.013410018 0.003262421 0.008715146 -0.006532545
0.019783435 0.0066442997 0.0026212428 -0.016383534 0.013097855 -0.020104533 0.015536931 -0.011515276
0.0030475634 0.00034304787 -0.018118033 0.012612623 -0.009688395 -0.006809001 -0.017449396 -0.009979914
-0.0027073938 0.022044167 0.0066281087 -0.0028205786 0.010973723 0.015543939 -0.0013022276 -0.009292873
0.010532309 -0.006466117 -0.017802203 0.01584005 0.012429985 0.014408301 -0.009269325 0.015292879
-0.0066603906 0.006085411 -0.0006241496 -0.0107425805 0.01681635 -0.007792098 0.005958946 -0.0067114728
0.011064163 0.012252108 0.008593483 -0.009916678 -0.000951314 -0.01352087 -0.017348979 0.019070072
00000000: a996 7bbc 9758 9ebc 0632 2cbc ec1e 93bc
00000010: 0295 013c 8be8 68bc 393e 4dbc bd7e 093c
00000020: 0dcf 823c 88a7 943c 2eab 94bc 9278 9fbc
00000030: 6446 95bc b86e 59bc f96e 87bc 3b00 44bc
00000040: e8c0 833c 4f5f 19ba d87d 813c 3e9f 62bc
00000050: f1b9 1cbc 1d4d f93b e93d a6bc e4d9 993c
00000060: 3d62 8d3b 6f85 993c eff0 9ebc 4a2e a83b
00000070: 3e09 5ebc 81bf 943b 2de2 0bbc 04e6 dc3b
00000080: 8cc7 de3b 84c1 853c e340 6ebb 81e4 893c
00000090: 1efc 92bc b5ac 203c 555d 2c3c 9a39 6dba
000000a0: 85a8 c83b 8106 3e3c 2bb7 f8b9 3929 c0bb
000000b0: fae5 57bc 7d3d a73b a327 7a3c 971f 733c
000000c0: ef7c 90bc 2577 3abc 6d14 90bc 581b c6bb
000000d0: 47c2 913b 319f a23c ca45 2b3a 462f 62bc
000000e0: 4e90 a4bb e91a a03b 425e d1bb bdb6 60bc
000000f0: e8fc 77bc 303f a23c 290f 71bc 579c 02bb
00000100: 9194 61bc 4f56 abba 2960 9cba 818c 08bc
00000110: b1b5 5bbc 58ce 553b f9c9 0e3c f60e d6bb
00000120: df10 a23c 6db8 d93b 28c9 2b3b c336 86bc
00000130: 6398 563c 43b2 a4bc 9d8e 7e3c 91aa 3cbc
00000140: a1b9 473b 1bdb b339 456c 94bc 2da5 4e3c
00000150: 13bc 1ebc 0a1e dfbb 09f2 8ebc cb82 23bc
00000160: 886e 31bb f895 b43c 9b30 d93b 75d9 38bb
00000170: 21cb 333c 01ac 7e3c 82af aaba 2241 18bc
00000180: b58f 2c3c b9e1 d3bb edd5 91bc fec2 813c
00000190: 23a7 4b3c cb10 6c3c 5ede 17bc fc8e 7a3c
000001a0: 683f dabb 2168 c73b f89d 23ba a601 30bc
000001b0: 71c2 893c db54 ffbb 4343 c33b eaeb dbbb
000001c0: 7746 353c 11bd 483c aecb 0c3c 9079 22bc
000001d0: 9a61 79ba a486 5dbc 721f 8ebc d738 9c3c

fc2.weight f4 [80, 120]
0.039539922 -0.059922904 0.030616539 -0.0574542 0.029071463 -0.008114155 0.03517772 0.067544624
0.0027553043 -0.0050804093 0.042406023 -0.030297147 -0.039819364 -0.00016255998 0.050794005 -0.054568756
0.05065124 -0.0018759938 -0.03906431 0.06925118 -0.03007686 -0.032987494 -0.029924948 -0.045856394
-0.0633359 -0.04165541 -0.014093438 0.022813093 -0.0016768984 0.01617448 -0.02068449 0.050336737
-0.059683993 0.038041975 0.039211933 0.06418099 -0.060474243 -0.01592311 -0.030942656 0.036562014
-0.052682836 0.038824912 -0.0024963424 -0.04597804 0.0553411 -0.004724066 -0.043809224 0.0005999714
0.0393293 -0.0037905748 -0.044951163 -0.020653808 0.006676376 0.061965365 -0.029406074 -0.02543295
0.04374828 0.030772917 -0.03624694 -0.046087593 -0.040077407 0.0639103 0.07321724 0.057184238
-0.0032819044 -0.023138996 0.0073696566 -0.03494913 -0.037447315 -0.0413684 0.014844363 0.0020643347
-0.020786535 0.049556267 0.06320344 -0.05707091 0.07812409 -0.027395902 -0.015427778 -0.042464722
0.057162955 -0.061918635 0.06770162 -0.056252003 0.06565825 0.044087186 0.05508923 0.03881256
-0.0058675236 0.026369868 -0.031731624 0.009362266 0.039691687 0.048173085 -0.061271504 -0.027767295
0.0020823586 -0.015298479 -0.014609602 0.040021814 -0.021045063 -0.049659967 0.061437003 0.010533666
-0.040243253 -0.019313427 0.018557306 0.017583767 -0.02641851 -0.0025585927 -0.03509077 0.032858405
-0.04536471 0.034897152 -0.04669386 0.0007308886 -0.031635225 -0.017920395 0.06846096 -0.018347554
-0.008071275 -0.053244695 -0.053914398 0.027464116 0.0606411 -0.044743 0.00120225 -0.052924726
0.10780606 0.04610263 0.010545134 -0.016193336 -0.022271104 0.04671357 -0.016806673 0.05235016
0.011758185 0.025055317 0.05048188 0.018891167 -0.00342036 0.013805484 0.048036307 -0.009689226
-0.05141526 -0.017212797 0.060673736 0.1000456 -0.0015204289 -0.03440218 0.056032788 -0.030938894
-0.0951471 -0.02947665 -0.056639265 -0.062015023 -0.056321878 -1.0541602e-05 -0.029547395 0.10670136
-0.03835015 -0.0678433 -0.058018766 -0.040457793 -0.023899708 -0.033222944 0.08048192 0.03483213
-0.096122615 0.079262555 -0.07229422 -0.020401385 0.038272798 -0.043776102 0.06873344 0.06232397
-0.006204393 -0.033761732 0.060045853 -0.013588816 -0.0060110167 0.017894704 0.0063721393 0.033624213
-0.01798676 -0.024856964 -0.05141492 0.017319966 -0.046003517 0.012416959 -0.0740778 -0.029183177
0.016006574 -0.008566904 0.00488862 -0.048630867 0.027164053 0.07742824 0.07785026 0.036851503
-0.050741374 0.030406406 0.0657801 0.052275375 -0.012062979 -0.004792805 -0.034420416 -0.046387922
-0.043235637 0.0044909487 0.056242477 0.07267951 0.05004893 -0.047989596 -0.061706837 -0.013929776
0.1118167 0.022847898 0.07582355 -0.012903034 0.021462986 0.042891093 0.022266533 0.068187915
-0.022737188 0.056028515 -0.08892034 0.039724335 -0.025525011 0.033993118 -0.0061668167 -0.048399955
-0.027374985 -0.00010580635 -0.026785001 -0.048529647 -0.065705456 -0.046496738 0.12230916 0.058744308
0.053595714 0.027306244 0.070679314 0.049743254 0.047435302 -0.04309988 -0.00833811 0.026351066
-0.024257118 -0.004210811 0.024240669 -0.029287579 -0.057791512 0.036279276 -0.04061619 0.009836502
00000000: 9df4 213d b871 75bd 89cf fa3c 1855 6bbd
00000010: 4727 ee3c 3cf1 04bc 8316 103d d654 8a3d
00000020: 5692 343b 9079 a6bb f0b1 2d3d b931 f8bc
00000030: a119 23bd dd74 2ab9 600d 503d 7d83 5fbd
00000040: ad77 4f3d e8e3 f5ba e601 20bd 90d3 8d3d
00000050: bf63 f6bc e51d 07bd 2a25 f5bc ead3 3bbd
00000060: 41b6 81bd dd9e 2abd 2ae8 66bc 86e2 ba3c
00000070: 60cb dbba 5880 843c 8572 a9bc e52d 4e3d
00000080: 3477 74bd e7d1 1b3d b19c 203d 5371 833d
00000090: d7b3 77bd 2f71 82bc 747b fdbc 0dc2 153d
000000a0: f5c9 57bd df06 1f3d ad99 23bb 7853 3cbd
000000b0: 59ad 623d 56cc 9abb 4d71 33bd 6647 1d3a
000000c0: c317 213d 4b6b 78bb b61e 38bd 2d32 a9bc
000000d0: 80c5 da3b 65cf 7d3d 02e5 f0bc c358 d0bc
000000e0: 6531 333d 7c17 fc3c ac77 14bd 58c6 3cbd
000000f0: 3528 24bd 67e3 823d ecf2 953d 053a 6a3d
00000100: 3815 57bb fe8d bdbc 297d f13b d226 0fbd
00000110: 5b62 19bd e971 29bd c535 733c ca49 073b
00000120: 8648 aabc 83fb 4a3d ce70 813d 30c3 69bd
00000130: 86ff 9f3d 5f6d e0bc cac4 7cbc 7def 2dbd
00000140: b423 6a3d 659e 7dbd 26a7 8a3d 8068 66bd
00000150: d577 863d c494 343d 3fa5 613d ebf9 1e3d
00000160: 5b44 c0bb 9f05 d83c 05f9 01bd 3164 193c
00000170: c093 223d 2451 453d d4f7 7abd 3d78 e3bc
00000180: 2e78 083b 79a6 7abc 1d5d 6fbc eaed 233d
00000190: b266 acbc 4068 4bbd 5ea5 7b3d 6695 2c3c
000001a0: 1cd6 24bd 3137 9ebc 7e05 983c d50b 903c
000001b0: a26b d8bc 10ae 27bb 57bb 0fbd 8996 063d
000001c0: 59d0 39bd 51f0 0e3d 1042 3fbd 1b99 3f3a
000001d0: f093 01bd cbcd 92bc 4335 8c3d 9c4d 96bc
000001e0: 623d 04bc 1c17 5abd 58d5 5cbd 6dfc e03c
000001f0: cd62 783d 7044 37bd d194 9d3a 99c7 58bd
00000200: 6cc9 dc3d 1dd6 3c3d 7fc5 2c3c e3a7 84bc
00000210: e471 b6bc ba56 3f3d 26ae 89bc 1f6d 563d
00000220: 67a5 403c cf40 cd3c 16c6 4e3d a6c1 9a3c
00000230: 1e28 60bb 6630 623c b8c1 443d 8fbf 1ebc
00000240: cf98 52bd da01 8dbc 0685 783d b5e4 cc3d
00000250: 2149 c7ba 4de9 0cbd a382 653d 9073 fdbc
00000260: 7cdc c2bd 0479 f1bc 93fe 67bd 7703 7ebd
00000270: c5b1 66bd d6db 30b7 610d f2bc 3e86 da3d
00000280: 0c15 1dbd 6ef1 8abd 16a5 6dbd 12b7 25bd
00000290: 52c9 c3bc c814 08bd b4d3 a43d 23ac 0e3d
000002a0: efdb c4bd 6854 a23d fe0e 94bd ce20 a7bc
000002b0: f0c3 1c3d 924e 33bd 1ec4 8c3d 6b47 7f3d
000002c0: 394e cbbb be49 0abd a4f2 753d a0a3 5ebc
000002d0: 10f8 c4bb ea97 923c 61cd d03b 8bb9 093d
000002e0: f858 93bc d5a0 cbbc 7398 52bd 9ae2 8d3c
000002f0: 2f6e 3cbd 8070 4b3c 1ab6 97bd 8f11 efbc
00000300: 3820 833c 335c 0cbc b830 a03b 2931 47bd
00000310: 2687 de3c b292 9e3d f56f 9f3d 9af1 163d
00000320: 30d6 4fbd db16 f93c b8b7 863d b41e 563d
00000330: cda3 45bc f60c 9dbb 6cfc 0cbd 4301 3ebd
00000340: da17 31bd cf28 933b 835e 663d ffd8 943d
00000350: 1b00 4d3d bd90 44bd 4fc0 7cbd b739 64bc
00000360: 2700 e53d 842b bb3c 6149 9b3d 3f67 53bc
00000370: 25d3 af3c 92ae 2f3d 4e68 b63c 1ba6 8b3d
00000380: 5743 babc 287e 653d de1b b6bd fcb5 223d
00000390: d419 d1bc 5e3c 0b3d 0213 cabb 083f 46bd
000003a0: 8141 e0bc 5ae4 ddb8 386c dbbc 06c7 46bd
000003b0: 9590 86bd 5d73 3ebd 3a7d fa3d df9d 703d
000003c0: 2e87 5b3d 58b1 df3c 51c0 903d 95bf 4b3d
000003d0: 854b 423d 8089 30bd 919c 08bc 31de d73c
000003e0: ddb6 c6bc d8fa 89bb 5e94 c63c 81ec efbc
000003f0: cbb6 6cbd 9499 143d 295d 26bd 4829 213c

fc2.bias f4 [80]
-0.008572844 -0.054267578 0.005995361 0.020766158 -0.023688592 0.047881767 0.03431358 -0.054594032
-0.02994498 0.0548801 -0.012714078 0.007714406 0.002472891 0.054555766 -0.04818513 0.037741657
-0.033946496 -0.024361955 -0.044461906 -0.034918774 -0.034298558 -0.026375538 0.039291885 -0.036657814
0.011505031 -0.051911805 0.0304413 -0.006403949 0.0412309 0.05181832 0.020060886 -0.02090019
-0.0126284445 0.054340195 -0.014342892 -0.05531568 -0.028458312 0.006053424 0.059607428 0.010933778
-0.042390496 0.020434005 0.04340486 0.030138686 0.062012903 0.037543304 0.05207305 0.046983954
0.0133803645 0.006352679 -0.059761975 0.035454802 -0.04550299 -0.029387753 0.058114316 0.006405775
0.0011495348 0.027084952 -0.049503386 0.021944752 0.017064983 0.0014499528 0.02703395 0.029034575
-0.026217362 0.04935976 0.008347757 0.041883502 -0.05204838 -0.06406783 -0.0009093602 0.01769885
0.049351234 0.011941147 -0.00830421 0.0082449075 -0.024459116 0.03386545 -0.044621628 -0.04369553
00000000: 1d75 0cbc ae47 5ebd bc74 c43b ca1d aa3c
00000010: 940e c2bc ac1f 443d 658c 0c3d fe9d 5fbd
00000020: 2d4f f5bc f5c9 603d b54e 50bc 21c9 fc3b
00000030: 3a10 223b de75 5f3d c55d 45bd ff96 1a3d
00000040: 7b0b 0bbd b992 c7bc b01d 36bd fd06 0fbd
00000050: a57c 0cbd 8311 d8bc 87f0 203d 8126 16bd
00000060: 997f 3c3c 79a1 54bd 0860 f93c 38d8 d1bb
00000070: bbe1 283d 723f 543d ba56 a43c e036 abbc
00000080: 89e7 4ebc d393 5e3d 73fe 6abc b292 62bd
00000090: 6821 e9bc cd5b c63b eb26 743d 9723 333c
000000a0: a8a1 2dbd 3765 a73c 4bc9 313d 68e5 f63c
000000b0: 3e01 7e3d 02c7 193d 8d4a 553d 3f72 403d
000000c0: 5139 5b3c 222a d03b f9c8 74bd 0e39 113d
000000d0: 5861 3abd 96be f0bc 4709 6e3d 89e7 d13b
000000e0: fdab 963a 43e1 dd3c 10c4 4abd 7bc5 b33c
000000f0: ddcb 8b3c 580c be3a 4d76 dd3c ebd9 ed3c
00000100: cbc5 d6bc 762d 4a3d 08c5 083c 098e 2b3d
00000110: af30 55bd ff35 83bd 2162 6eba 2efd 903c
00000120: 8524 4a3d cda4 433c 620e 08bc a615 073c
00000130: 7c5e c8bc 80b6 0a3d 2bc5 36bd 16fa 32bd

fc3.weight f4 [15, 80]
-0.06815423 0.030263903 0.05675486 -0.09575512 -0.08742056 -0.051033687 0.043218505 -0.07118023
-2.6401149e-05 -0.016025707 0.025441408 -0.0335981 0.033051465 0.017403863 0.13616318 -0.07341444
-0.052714344 0.05448987 -0.012978442 -0.075878024 0.01867453 0.03973023 0.1119941 -0.008012642
0.09114338 -0.06838806 0.01122068 -0.04095359 -0.046885565 0.052620456 0.025152946 0.02439753
0.0029095726 -0.08638433 0.136864 -0.0035315882 0.06049021 0.015930533 -0.09233642 -0.074652284
-0.08422169 0.12151394 -0.02570506 0.070671275 -0.07183958 -0.009269175 0.002459563 0.062975
0.04183229 -0.07082983 0.0073584844 0.047568955 0.04278398 -0.0032412023 -0.018160291 -0.06647757
-0.0030449156 0.017454142 0.017289389 0.07870628 -0.025540004 -0.06655716 -0.028678142 -0.014603095
0.07880056 0.08384437 -0.0007732919 0.062671416 0.12261273 0.07989328 -0.085545905 0.041238092
0.027937979 0.041159123 -0.06690527 0.16993481 -0.07609073 0.02410653 -0.10129374 -0.02694317
0.02767437 0.07578066 -0.008431865 -0.061454598 -0.06592421 -0.045690335 0.08556628 -0.05083564
-0.11021455 -0.0093682585 0.021561684 -0.020994041 -0.072636 0.0056912727 0.02022024 0.11294472
0.13899459 -0.048472982 -0.06360907 0.09099237 0.092591785 -0.05199892 -0.045997605 0.08653604
0.033537157 -0.055638447 0.021666858 -0.03650981 -0.01359051 -0.053748816 -0.03256515 -0.09457126
0.06591521 -0.11239974 -0.09546299 -0.062146287 0.09966003 0.0032676216 0.016182335 0.03586349
-0.05966433 0.100120194 -0.071736 0.08792389 -0.038106374 0.048078943 0.04686935 0.12290798
0.015526845 0.056026176 -0.019563131 -0.03559539 -0.058663912 -0.012211527 -0.027575618 -0.05665593
-0.015168696 0.028776586 -0.09553533 0.11993446 0.05720413 -0.025523473 0.076742634 0.08808775
-0.06806887 -0.12212105 0.10091899 0.0005390168 0.0069319014 -0.042291135 0.07088325 0.04164409
0.034851193 0.07624903 0.067403 0.04568666 0.10927208 -0.08915775 -0.0070987483 -0.047249254
-0.0011454746 0.09308855 0.07112105 0.02119491 0.15034825 0.05030287 -0.0121279685 -0.04791372
-0.06185435 0.03105465 -0.13001703 0.056811746 0.036095005 0.022929102 -0.059789546 0.06838891
0.10636617 0.07247865 -0.078056894 0.059743892 -0.08627512 0.15319073 -0.075532995 0.047150597
-0.031276926 -0.06565523 -0.073071815 -0.001467492 -0.054485556 0.068955354 0.10496085 0.10203508
-0.08898986 -0.063061945 -0.04661446 0.05152197 0.025951816 0.026994847 -0.03002274 -0.051549755
0.06450991 0.11254653 -0.029155986 0.06854793 -0.06529531 -0.0017115604 -0.06898205 0.023167025
-0.051735666 -0.02144714 -0.06236389 -0.01590369 -0.07635162 0.12922181 -0.049017806 -0.023059662
-0.075270794 -0.031350467 -0.002968508 -0.035804603 0.06364687 0.10103739 0.03290968 0.05457629
0.09259496 0.11060177 -0.004436412 0.04790195 -0.002109925 -0.0142412605 0.15776256 0.0118562635
-0.04338772 -0.07448066 -0.009693606 -0.085313745 0.05072274 0.004790816 0.024274362 -0.037878647
0.021743122 0.055860635 0.055679828 -0.04607507 0.069280185 -0.04736163 0.03168559 -0.023192964
0.035457533 0.04885121 0.08054096 -0.061288428 0.038454417 0.046057135 0.008509546 -0.04425159
00000000: 7294 8bbd 01ec f73c c977 683d 431b c4bd
00000010: 8d09 b3bd b308 51bd e305 313d f1c6 91bd
00000020: 0978 ddb7 5848 83bc 806a d03c 299e 09bd
00000030: f960 073d 8c92 8e3c 5c6e 0b3e 4f5a 96bd
00000040: ffea 57bd c530 5f3d 88a3 54bc f065 9bbd
00000050: 54fb 983c 2abc 223d 2a5d e53d 7547 03bc
00000060: 61a9 ba3d 0a0f 8cbd f1d6 373c f4be 27bd
00000070: 140b 40bd 8c88 573d 8d0d ce3c 54dd c73c
00000080: 87ae 3e3b 45ea b0bd 1426 0c3e 3872 67bb
00000090: 95c4 773d c080 823c e11a bdbd 4ce3 98bd
000000a0: 6c7c acbd 4ddc f83d 6b93 d2bc 1abc 903d
000000b0: a120 93bd bddd 17bc 9f30 213b 09f9 803d
000000c0: 5658 2b3d 3b0f 91bd 711f f13b aad7 423d
000000d0: 413e 2f3d 5a6a 54bb e4c4 94bc 6425 88bd
000000e0: 358d 47bb fdfb 8e3c 7aa2 8d3c c230 a13d
000000f0: 4539 d1bc 1f4f 88bd 6cee eabc d241 6fbc
00000100: 3062 a13d 99b6 ab3d beb6 4aba df59 803d
00000110: 621c fb3d 179f a33d b132 afbd 46e9 283d
00000120: 30de e43c 7896 283d a105 89bd 6403 2e3e
00000130: 75d5 9bbd 0f7b c53c 1873 cfbd ecb7 dcbc
00000140: 5cb5 e23c e432 9b3d ce25 0abc d1b7 7bbd
00000150: 4603 87bd ca25 3bbd 603d af3d 0839 50bd
00000160: 2ab8 e1bd 537d 19bc 21a2 b03c b2fb abbc
00000170: 2fc2 94bd db7d ba3b eba4 a53c 904f e73d
00000180: 9954 0e3e 9b8b 46bd 7945 82bd 355a ba3d
00000190: c3a0 bd3d d2fc 54bd fc67 3cbd cf39 b13d
000001a0: 425e 093d 24e5 63bd b27e b13c 4f8b 15bd
000001b0: bbaa 5ebc b827 5cbd 0963 05bd 94ae c1bd
000001c0: 8efe 863d d631 e6bd 1a82 c3bd 1b8d 7ebd
000001d0: 8f1a cc3d 9825 563b d190 843c 98e5 123d
000001e0: 9662 74bd d10b cd3d 53ea 92bd 7111 b43d
000001f0: 6e15 1cbd 6dee 443d 13fa 3f3d 2eb7 fb3d
00000200: 4f64 7e3c b47b 653d dc42 a0bc 79cc 11bd
00000210: 9249 70bd db12 48bc 43e6 e1bc 0c10 68bd
00000220: 1f86 78bc e0bc eb3c 07a8 c3bd 33a0 f53d
00000230: e14e 6a3d 9a16 d1bc 3e2b 9d3d 5a67 b43d
00000240: b167 8bbd 9a1a fabd 9eae ce3d ce4c 0d3a
00000250: 0125 e33b 7839 2dbd 3d2b 913d fe92 2a3d
00000260: 20c0 0e3d 7428 9c3d 960a 8a3d ef21 3b3d
00000270: 0aca df3d 5798 b6bd 9e9c e8bb 6f88 41bd
00000280: c023 96ba 36a5 be3d eaa7 913d f3a0 ad3c
00000290: e4f4 193e 620a 4e3d 63b4 46bc 2d41 44bd
000002a0: fd5a 7dbd 5266 fe3c 2f23 05be 6fb3 683d
000002b0: 5bd8 133d d0d5 bb3c e2e5 74bd 7c0f 8c3d
000002c0: 82d6 d93d b06f 943d 4bdc 9fbd 03b6 743d
000002d0: 03b1 b0bd 08de 1c3e 0bb1 9abd fc20 413d
000002e0: 3c1c 00bd 4076 86bd ada6 95bd dc58 c0ba
000002f0: 3f2c 5fbd 7738 8d3d b7f5 d63d c5f7 d03d
00000300: 5140 b6bd 9f26 81bd ceee 3ebd b408 533d
00000310: e798 d43c 4c24 dd3c 40f2 f5bc d625 53bd
00000320: c61d 843d cc7e e63d 89d8 eebc db62 8c3d
00000330: 8cb9 85bd 7056 e0ba 7646 8dbd c6c8 bd3c
00000340: c7e8 53bd eab1 afbc 4771 7fbd 7548 82bc
00000350: 3d5e 9cbd b952 043e e5c6 48bd 9ee7 bcbc
00000360: 9327 9abd 5969 00bd 4d8b 42bb d9a7 12bd
00000370: 4a59 823d b1ec ce3d 4dcc 063d 638b 5f3d
00000380: 6da2 bd3d 2e83 e23d 525f 91bb d634 443d
00000390: ab46 0abb 2d54 69bc 828c 213e c640 423c
000003a0: 52b7 31bd 5189 98bd eed1 1ebc f9b8 aebd
000003b0: a6c2 4f3d 47fc 9c3b 07db c63c a426 1bbd
000003c0: a21e b23c 1fce 643d 8810 643d 36b9 3cbd
000003d0: c5e2 8d3d 45fe 41bd c0c8 013d 2cff bdbc
000003e0: eb3b 113d 3518 483d a9f2 a43d 9309 7bbd
000003f0: 6182 1d3d 68a6 3c3d 9f6b 0b3c 2841 35bd

fc3.bias f4 [15]
-0.00377329 -0.05464768 0.07075262 -0.04082793 0.06292432 0.090119675 0.05713253 0.057631653
0.07060124 0.02055414 -0.0059304675 0.0044041923 -0.03951507 0.0829373 -0.025393825
00000000: 4d49 77bb 3fd6 5fbd c0e6 903d 303b 27bd
00000010: 77de 803d aa90 b83d cd03 6a3d 2b0f 6c3d
00000020: 6297 903d 2861 a83c 5e54 c2bb 0b51 903b
00000030: 8eda 21bd 08db a93d b606 d0bc
