outfiles/cnn/Ya64_5Train_cnn.pth (torch, 605631 bytes, 10 tensors)

conv_layer1.weight f4 [16, 1, 5, 5]
000000 c4 6a bc 3d dd 37 38 3e 1c 6d 71 3e 18 c6 d1 3d
       0.092000514 0.1799006 0.23576778 0.102428615
000010 ab 1f 26 3e 82 e5 bf 3d 95 3d 80 bd 97 2d 65 3e
       0.16223018 0.09369947 -0.06261746 0.22380672
000020 dc 7a 03 be aa 9d ab 3d 88 6c b9 bd 3d 9c 27 be
       -0.12839836 0.083796814 -0.09053904 -0.16368194
000030 e6 ea 6a bd 1e 9e 12 be 9a c4 1a be 23 b3 33 3e
       -0.057352923 -0.1431813 -0.1511406 0.17548804
000040 f2 5b ce bd 75 0b db bd 01 12 1c be c0 5e c6 bb
       -0.10076131 -0.10695545 -0.15241243 -0.0060537755
000050 4d ea cd 3c 1c fb 19 3c 1b ba 28 be ac 61 43 3c
       0.025136137 0.009398248 -0.16477244 0.011925142
000060 1e d2 12 be 93 9d 8f 3d 25 75 2f 3e 31 5c 46 bd
       -0.14337966 0.07012477 0.17134531 -0.048427764
000070 1b 3a 4c be af be 26 be 5e c1 0c 3d 7c e1 a1 3d
       -0.1994404 -0.16283678 0.034364097 0.07904336
000080 15 29 e1 bc fd 6c a9 bd e2 1e 53 bd 24 17 69 3e
       -0.02748541 -0.08272741 -0.051543124 0.22762734
000090 b2 70 2a 3e c0 6a 05 3e 4e 81 96 3c d2 32 a3 bd
       0.16644552 0.13029003 0.018372204 -0.079686776
0000a0 a4 67 2c 3e 8e 54 e0 3d dd 18 f3 3d da e1 30 3e
       0.16836411 0.109536275 0.11869977 0.17273656
0000b0 54 d3 cf 3d 15 ac f4 bc 2b 2b ee 3b 8f df 2b 3e
       0.101477295 -0.029867211 0.0072683296 0.167845
0000c0 c5 7a 40 be 1c 8e ad bd 75 31 f2 3d 93 e2 4b 3e
       -0.18796833 -0.08474371 0.118258394 0.1991065
0000d0 5e 0f b6 bc a8 eb 07 3e e1 d6 27 3e 80 fe 36 bd
       -0.022224125 0.1327349 0.16390564 -0.044676304
0000e0 80 29 b4 bd ef 85 19 3e 2d ca 23 be 79 e1 ae bd
       -0.08796978 0.14992498 -0.15995093 -0.08539099
0000f0 24 42 c1 3d 8b e0 12 be 10 19 f2 3c 72 01 f4 bd
       0.094364434 -0.14343469 0.029552966 -0.11914338
000100 cb 76 b8 bc cc 7b 9c 3c 88 e9 b7 bd 2c 9f c1 bd
       -0.022517582 0.019102 -0.089800894 -0.09454188
000110 65 c5 cc 39 ec 3c 9a bd a3 a4 58 be 9f 7d 91 bb
       0.00039056982 -0.07531151 -0.21156554 -0.004440024
000120 06 d9 0e be f3 6c 06 be 7c 44 21 3d d5 db ed bc
       -0.13949975 -0.13127498 0.039371952 -0.029035488
000130 07 94 34 be e1 eb 77 3d 92 c8 02 3e 0e 4a ad ba
       -0.17634593 0.060527686 0.12771824 -0.0013220923
000140 19 e6 80 3d df 3d 29 be 54 a4 fe bd 7f 27 c6 bd
       0.06293888 -0.16527508 -0.12433687 -0.09675502
000150 7b 38 e4 3d aa 4f 34 bc 9f 5c 58 be 2a 9b bd b7
       0.11143585 -0.0110053215 -0.21129082 -2.260281e-05
000160 ae 10 1d be 2d 7a 20 3e 7d 07 f3 bd 70 25 ac bd
       -0.15338394 0.15671606 -0.11866663 -0.08405578
000170 2c a9 d0 bd 9a 69 3c 3d 47 1c 29 3e b6 9c 0a be
       -0.10188517 0.045999147 0.16514693 -0.13536343
000180 44 38 3e bd 81 d5 0d 3e 6c 64 e9 3d 79 d3 6c 3e
       -0.046440378 0.13850977 0.11396107 0.23127545
000190 90 8f 14 be 87 50 f8 3d c1 5b 4b 3d 11 09 bd bd
       -0.1450789 0.12124734 0.04964805 -0.09230245
0001a0 cd be 25 bd c8 70 c8 3d de 86 3a 3b 22 ea ea 3d
       -0.040465165 0.09787136 0.0028461735 0.114704385
0001b0 e7 b4 d5 bd 68 50 03 3e b4 0e 9a 3b 22 5c bf bd
       -0.10434895 0.12823641 0.00470146 -0.09343745
0001c0 8a a3 8e bd f3 78 83 3e 9e 28 48 3e 9d 3f 04 be
       -0.06964786 0.25678214 0.19546744 -0.12914892
0001d0 f5 d8 1f be 9e 10 08 3e a5 7e 27 3e ab c0 66 bd
       -0.15610106 0.13287589 0.16356905 -0.056336086
0001e0 f2 e2 9f bd 8b f7 cd bd 70 f9 e8 bb 50 43 35 3e
       -0.07806958 -0.10056981 -0.0071098134 0.17701459
0001f0 b7 f0 b1 bc 86 d6 28 be 38 89 5f 3c ca 9c 06 3e
       -0.021721227 -0.16488084 0.013643555 0.13145748
000200 d5 97 ed 3d c6 c6 db 3d 57 45 e9 3c c8 ac d3 3d
       0.11601225 0.107312724 0.028475447 0.1033569
000210 46 b1 39 3e 1e 09 eb 3d 2f 54 15 3e ce d3 95 3d
       0.1813403 0.11476348 0.14582895 0.07315789
000220 65 26 05 3e 99 c4 e0 3d 83 05 9a bd 0a f3 42 3e
       0.13002928 0.10974998 -0.075205825 0.19038025
000230 34 40 a7 3a a0 32 78 3d 16 18 f9 3d 62 88 85 bd
       0.0012760223 0.060595155 0.12162797 -0.065201536
000240 3f fd 08 3e c6 12 1c be ac d4 53 3d 8d 43 34 be
       0.13377856 -0.15241536 0.05171649 -0.17603894
000250 c1 33 ac 3d b9 d7 bb 3d 53 55 f5 3d 66 54 1a be
       0.08408309 0.09172005 0.11979165 -0.15071258
000260 b9 f4 fa 3c 64 da da bd 67 5e 80 bd 69 4d c2 3d
       0.030634271 -0.10686186 -0.06268006 0.09487421
000270 cc d9 aa 3c 2d ce 11 3e 04 62 76 3d 09 46 9f bb
       0.020855807 0.14238806 0.06015207 -0.0048606438
000280 9c 75 35 be 27 a2 8a bd eb b3 12 3d ed bd d6 bd
       -0.17720646 -0.06769209 0.035816114 -0.10485444
000290 ee 6c 06 3e 2c 0f 1e be d0 94 41 3d c6 47 7c bd
       0.13127491 -0.15435475 0.04726106 -0.061591886
0002a0 2e d9 15 be 67 fb 06 3e ac 5c a5 3d 4b 92 a1 bd
       -0.14633629 0.1318184 0.080743164 -0.07889231
0002b0 85 a2 43 be bb fa 31 be 7f e2 15 3e e8 8a 2e be
       -0.19104965 -0.17380802 0.14637183 -0.17045176
0002c0 dc 5b 1d 3d a7 1d f1 b8 f6 0e 28 bc eb 1e ad 3d
       0.038417682 -0.00011497299 -0.010257473 0.08453163
0002d0 6a e6 8b 3c f5 d3 fe 3c d2 40 0b be b9 93 d1 3d
       0.017077643 0.031106928 -0.13598946 0.10233254
0002e0 51 42 f4 bd 19 a2 6e 3d f7 32 75 bd 70 29 d5 3c
       -0.11926711 0.058260057 -0.059863057 0.026020736
0002f0 a2 49 01 3e 64 3c 0b 3d f1 a9 f7 3d b7 e2 a0 3d
       0.12625745 0.03399314 0.120929606 0.078557424
000300 5d 35 60 bd 1e 4c 36 be 6d fd 35 be 24 43 ca 3d
       -0.05473839 -0.17802474 -0.17772456 0.09876087
000310 73 23 ef 3d d4 c0 17 bd d0 a4 bd 3d da c0 f7 3d
       0.11676683 -0.03704913 0.09259951 0.120973304
000320 93 e7 68 bd a8 2b 0f 3e a4 2f 69 bd ed 6b 10 be
       -0.05686147 0.13981497 -0.0569302 -0.1410367
000330 bc df ee 3d 9a e8 94 bd ee 01 e6 3d 04 dd c2 3d
       0.11663768 -0.07270928 0.11230837 0.09514812
000340 d2 c5 70 bc a9 9d 04 bc 9e e3 1f 3c 54 cc 1b 3e
       -0.014695602 -0.00809423 0.009758858 0.15214664
000350 db 06 d6 3c a2 7f 00 be bb 44 8a 3d 23 6a 2e 3d
       0.026126316 -0.12548688 0.067513905 0.04258169
000360 8f 1c 27 3e 70 83 22 be cf b4 c6 3d a1 0b 1a 3e
       0.16319488 -0.15870452 0.09702455 0.15043499
000370 97 27 c6 3d 4f 13 e2 bc ba 81 88 3c fb cb 88 3c
       0.0967552 -0.027597098 0.016663421 0.016698828
000380 85 53 c9 3d 37 d4 84 be 50 6d 4e be 48 7a 08 bd
       0.09830383 -0.25943157 -0.20158887 -0.03331974
000390 a9 e7 83 3d 7b 8e 4a bd a4 9c 18 be 7a c1 56 bd
       0.0644067 -0.049452286 -0.14903504 -0.052430607
0003a0 15 f1 0e be 05 f9 a2 3d 5a b2 41 3c e2 ea 49 be
       -0.13959153 0.07957653 0.0118223075 -0.19718507
0003b0 f0 9f cd bd ef c8 1f be 38 27 0f 3e af ec ba 3d
       -0.10040271 -0.15603994 0.13979805 0.09127175
0003c0 bf 0a 38 be fa a9 67 bd a4 d8 8b 3d e1 9d 82 3e
       -0.1797285 -0.056558587 0.0682843 0.25511077
0003d0 9d 55 0b 3e a3 c8 b1 3d a2 46 89 3c 36 d0 bb bd
       0.13606878 0.086808465 0.016757313 -0.091705725
0003e0 15 d4 6f 3e 99 d3 43 bd 25 31 19 be 81 61 8b bc
       0.23420747 -0.047809217 -0.14960153 -0.017014267
0003f0 e2 a1 c1 bd ce 6c d8 3d ae 55 41 3d a0 d1 4e 3e
       -0.09454705 0.10567628 0.04720085 0.20197153

conv_layer1.bias f4 [16]
000000 da 35 ef 3d ae 14 c4 b9 94 08 ae 3d 0f a5 1a 3d
       0.11680193 -0.0003739944 0.0849773 0.03775507
000010 e6 8f 6a bc fd e8 78 3d 70 2d 96 bd a7 5d 61 bd
       -0.014316535 0.06076907 -0.07332885 -0.055020954
000020 19 c7 ae 3d b4 f0 47 3d 15 80 d3 bd bb 7a f1 3d
       0.085340686 0.048813537 -0.10327164 0.11790987
000030 3f 9b 93 bd db b8 62 3b a1 65 0f bd c9 48 df bd
       -0.07207345 0.0034595046 -0.03500903 -0.109025545

conv_layer2.weight f4 [32, 1, 5, 5]
000000 48 ee d6 3b 0b e7 24 bc df 3a c7 bd 4c c3 6a bc
       0.006559167 -0.010064851 -0.09728026 -0.014328789
000010 22 26 98 bc 77 17 ad bd 7a 9a 0e 3e 01 8d 22 3e
       -0.01857287 -0.08451741 0.13926116 0.15874101
000020 9d 4f 09 bd 9d cd 29 be cb d5 3b bd 3e a1 01 be
       -0.03352319 -0.16582341 -0.045858186 -0.12659165
000030 27 b9 b9 3d ab 28 37 3e 73 d7 19 3d 4b ee af 3d
       0.09068518 0.17886607 0.037558984 0.08590373
000040 22 45 9d bc b8 64 bc bd 48 c4 4b be 91 b3 73 3e
       -0.019198004 -0.09198898 -0.19899094 0.23798968
000050 1d ff df bd cd 4e 35 39 fd 1d 0d be 1d b2 ff bd
       -0.10937331 0.0001729086 -0.13780971 -0.12485144
000060 4e 12 a7 3d df 5f 94 bc 5e 85 35 3d 2e 84 1e be
       0.08157788 -0.018112121 0.044316642 -0.1548011
000070 70 3e c0 bd 8d b4 cc 3d ae ce 16 be 7d 3b fd 3d
       -0.09386909 0.09995375 -0.1472728 0.12364862
000080 d8 21 18 be 94 94 62 bd 97 78 10 be c2 32 8f 3c
       -0.1485666 -0.055317476 -0.14108501 0.017480258
000090 f8 b0 36 3e 38 f4 e8 bd 3b 6a 1e 3c 58 2d c3 bd
       0.17840946 -0.11374706 0.009668882 -0.09530133
0000a0 3a 20 5b 3e f3 1e 8b 3e a2 2c 4a bd 12 41 0b be
       0.21399012 0.2717205 -0.04935897 -0.13599041
0000b0 ba 1b ea bb fa eb dc bc 0e e3 67 3e 73 01 bc bd
       -0.0071444185 -0.026967991 0.22645208 -0.09179964
0000c0 a2 af 62 bd 88 55 71 bd 9d 63 38 3d 1a 4e 61 bc
       -0.055343278 -0.05891946 0.045016874 -0.013751531
0000d0 b8 63 a7 bd 38 69 34 3d a6 41 88 3c eb 16 1d be
       -0.08173317 0.044045657 0.016632866 -0.15340774
0000e0 a8 2b 3b bc 7e 32 06 be 8b 56 58 bc 87 4f f8 bd
       -0.011423983 -0.13105199 -0.013204227 -0.12124544
0000f0 fe b0 0e 3e cd 04 04 3d 98 4e b2 bd 81 fd c8 3d
       0.13934705 0.03223114 -0.08706397 0.09813977
000100 6b 44 ff bd 3c 81 6c 3d bf 2d db bc 67 9d 20 3e
       -0.124642216 0.057740435 -0.026755212 0.15685044
000110 38 a7 c9 bd b0 f5 0c 3e 98 b6 cb 3d 45 51 2c be
       -0.098463476 0.13765597 0.09946936 -0.16827877
000120 24 35 f3 bd c8 62 28 be 75 a7 83 3d bf 36 72 3e
       -0.1187537 -0.16443932 0.06428424 0.23653696
000130 d0 31 04 bd 08 aa 11 bd 78 52 25 be e7 ac 4f 3e
       -0.032274067 -0.035562545 -0.1614474 0.20280801
000140 16 28 ca 3d 9a dd 1f 3e ae 67 15 be bf e4 55 be
       0.09870927 0.15611878 -0.14590332 -0.20888041
000150 b6 e1 4e bd 43 af 88 bd dd 09 37 3e 27 1f 01 be
       -0.050508223 -0.066740535 0.17874856 -0.1260954
000160 ae 5c 1f 3e 1f 88 98 3d 94 6a 14 be eb 97 13 be
       0.15562698 0.07447838 -0.14493781 -0.14413421
000170 8d a0 e2 bc 25 86 34 bd 07 a5 80 bd 60 97 b0 3d
       -0.027664447 -0.044073243 -0.062814765 0.086226225
000180 79 2b 2c be e1 47 49 be 57 cb 9a 3d 69 21 13 3e
       -0.16813459 -0.19656326 0.07558315 0.14368214
000190 dd 13 2b bc 1f 8b e0 bd 79 e1 6a bd 6e a9 56 bd
       -0.0104417475 -0.10964035 -0.057343934 -0.052407674
0001a0 7e a3 2e 3e 7d 24 c2 3d 69 57 3a bc a7 2a 27 3e
       0.17054555 0.09479616 -0.011373379 0.16324864
0001b0 42 8a 05 3e a1 af fe bd 9e f7 f8 bd 06 3a 1d bd
       0.13041022 -0.12435842 -0.12156604 -0.038385414
0001c0 5e a7 2e 3d c3 a9 d7 bd ed 2c 2c bd 87 2e 76 37
       0.042640083 -0.10530426 -0.042035032 1.4673576e-05
0001d0 27 31 e9 3d 43 18 aa 3d f2 0b 6c bd da a7 dd bd
       0.11386328 0.08305409 -0.05762858 -0.10823031
0001e0 aa 29 0c be 97 21 d5 bd 4b a3 08 be 4f 45 10 bc
       -0.13687769 -0.104067974 -0.13343541 -0.008805587
0001f0 f2 8b e1 bc 76 c1 e8 3c b7 2b 80 3d 29 ca dd bd
       -0.027532551 0.028412562 0.06258338 -0.108295746
000200 ae b3 04 3e f4 35 35 3e 75 f7 0d be 59 f4 e1 3c
       0.12959167 0.17696363 -0.13863929 0.027582334
000210 d9 20 be bd 77 5f 0e 3e 0d bc 86 3d 4f 14 fe bd
       -0.09283609 0.13903604 0.065788366 -0.12406217
000220 3d 4d f2 3c 38 1d de bc 1c ad 6e bd f3 fa 87 3d
       0.029577846 -0.027113542 -0.05827056 0.06639662
000230 f9 7b ff bd 43 0d b2 bd 2a 19 10 bd b3 94 ea bc
       -0.12474818 -0.08693936 -0.03518025 -0.028635358
000240 e3 69 eb bc c8 9a e2 39 e7 bd dd 3d 30 cc a3 bd
       -0.028737014 0.000432214 0.108272366 -0.0799793
000250 f8 d8 0f 3e 3b 2a d4 3d 3f 6b 96 bd 4e 97 26 be
       0.14047611 0.10359617 -0.07344674 -0.16268656
000260 37 91 68 bc 3e 3e 86 3d ad 0d 05 3d 7e ef 45 3e
       -0.014194778 0.065548405 0.032483745 0.1932964
000270 a2 4a d7 bd 2b ae 8b bc 2f 0c 06 be e4 94 0c be
       -0.10512282 -0.017050823 -0.13090585 -0.13728672
000280 cc 1f 92 bd 37 de 39 bc a9 c7 19 3e f1 38 aa 3d
       -0.07134971 -0.011344484 0.1501757 0.08311642
000290 b2 3e 10 3d 9a ae 0f be 3b 34 09 be 0f e9 24 be
       0.03521604 -0.14031449 -0.1339883 -0.1610453
0002a0 d2 af 09 be bb 2a c5 3d f8 74 5e 3e c2 40 8b 3c
       -0.13445976 0.09627291 0.21724308 0.016998652
0002b0 7b a6 1d bc 98 fd 20 bd cb 49 b8 3d ea 6a c0 bc
       -0.009622212 -0.039304346 0.0899845 -0.02348848
0002c0 b4 ee 21 3e e1 4e 85 bd 67 c9 95 3d 80 68 3c 3d
       0.15813714 -0.065091856 0.07313805 0.045998096
0002d0 2b 50 05 be c7 15 4f 3e e9 07 93 3d 54 1e e2 bc
       -0.13018863 0.20223151 0.07179243 -0.027602352
0002e0 3e 95 ad 3d 5b ff 8d bc 01 5e 44 3e 55 5c 16 3e
       0.08475731 -0.017333677 0.19176485 0.1468366
0002f0 7e 50 73 3b c8 5d 1a be 1c 91 3e be 0d 4f b3 ba
       0.0037126835 -0.15074837 -0.18610042 -0.0013680175
000300 c3 50 3b be 5e d4 73 bd 3e 92 ae bd cc bc 15 be
       -0.18292527 -0.0595287 -0.08523987 -0.14622802
000310 e4 c8 4c bd d7 df a6 3d 5f 7c ed 3c 4f fa 0e be
       -0.04999627 0.08148163 0.028989969 -0.13962673
000320 03 ce cc bc d3 49 20 be 2f c3 be 3b 07 b7 97 3d
       -0.025000578 -0.15653162 0.0058216075 0.074079566
000330 e4 5c d4 bd 9f 84 44 be 16 2d 50 be 6a 58 3b be
       -0.1036928 -0.19191216 -0.20329699 -0.18295446
000340 c6 9d e3 bc 07 3b 0d 3d 07 b5 a0 3d 12 04 34 bd
       -0.027785193 0.03448012 0.07847028 -0.043949194
000350 f0 7d 63 3d 9a 72 93 3d f1 7f 96 bd 59 76 d4 bd
       0.055540025 0.07199593 -0.07348622 -0.103741355
000360 18 9c 1f 3b 57 6d 44 3e 63 99 4c bd d8 90 0b 3e
       0.0024354514 0.19182335 -0.04995097 0.13629472
000370 b8 ec 1e 3e e6 1d 29 3e 43 ce 4f 3c d7 d5 3c bc
       0.15519989 0.16515312 0.012683454 -0.011525593
000380 fa ee a1 3d 9f 84 21 be 6c 94 33 3e df 02 d3 3d
       0.07906909 -0.15773247 0.17537087 0.10303282
000390 7a bc 84 3d 8b ae 79 bd 80 91 df 3d ea 81 bd bd
       0.064812616 -0.060957473 0.10916424 -0.09253295
0003a0 be 1c 2f bd 4f be 56 bb c9 f5 1d be e2 ff 8b 3d
       -0.04275202 -0.0032767241 -0.15425791 0.06835915
0003b0 b9 5b 2b be 32 4a 13 3e f0 a1 93 3d 32 5f 79 bc
       -0.16734208 0.14383772 0.072086215 -0.01522045
0003c0 27 b2 b1 3d b5 29 be bd 6d 0f 02 be dc 1e 09 3e
       0.08676558 -0.09285299 -0.12701197 0.13390678
0003d0 7e 2e b2 bd 3a 17 96 3c 2e 67 ab bd f8 88 5a 3c
       -0.08700274 0.018321622 -0.08369289 0.01333832
0003e0 e6 39 9f 3d ff 69 aa b9 45 21 0a 3c 4f ac 12 be
       0.07774715 -0.000325039 0.008430784 -0.14323543
0003f0 0f d7 3a be 33 15 2c be 32 1c 2c 3e a0 3e 01 be
       -0.18246101 -0.16804962 0.1680763 -0.12621546

conv_layer2.bias f4 [32]
000000 62 cb f8 3d 40 e4 f3 bd 9f 28 38 bd ca bb 76 3d
       0.12148167 -0.119087696 -0.044960614 0.060237683
000010 57 a5 cc bd fd 76 98 bd 9b ad f6 3c 7c 4c 15 be
       -0.099924736 -0.0744457 0.030112078 -0.14579958
000020 b9 cd 05 bd 47 f4 4c 3c e4 d8 04 be ef a3 5a 3d
       -0.032666896 0.012509412 -0.12973362 0.053378996
000030 3b be f2 3d a9 5a 33 3d d0 77 16 be 51 5c 85 bd
       0.1185269 0.043787632 -0.14694142 -0.065117486
000040 58 ae ba bc 78 8a fa bc a1 7d a4 3d f5 e9 23 be
       -0.022788212 -0.030583605 0.08031774 -0.16007216
000050 6c 8d 77 3d 62 a6 c5 3c 14 b3 02 3e df de 3d 3d
       0.060437605 0.02412719 0.12763625 0.046355125
000060 9f 3b 07 be b3 6b c1 3d c7 f9 14 be e9 89 05 3e
       -0.13206337 0.0944437 -0.14548407 0.1304089
000070 fe 8d e2 3d 22 3c e1 bd 60 c4 09 3e ae 79 88 bd
       0.11062239 -0.109977975 0.13453817 -0.066638336

fc1.weight f4 [120, 1152]
000000 10 0a 1f bc 1b 6d 9e bb b7 f9 a8 3c 6a 0f a2 bb
       -0.009706989 -0.0048347837 0.020626886 -0.004945685
000010 9d cc 03 3c 0b 76 c4 3c e1 c9 fd 3b 2a cb 72 3c
       0.008044389 0.023982069 0.007745013 0.014818946
000020 a9 ed 70 3c 9e 28 c8 3c 5b cf e9 3b 7d d1 eb b9
       0.0147051 0.02443343 0.0071353144 -0.00044978774
000030 87 49 ee 3a 47 a0 93 b9 fb 5d 05 bc fd fd ce bc
       0.0018179872 -0.0002815744 -0.0081400825 -0.025267595
000040 bf df 11 3d fd f6 b1 3c ba 82 bf bc 1a 1e 67 b9
       0.03561377 0.021724219 -0.023377765 -0.0002204109
000050 88 7c cf 3c 08 17 02 bd 2c 46 cb bb 3c 18 67 3c
       0.025327936 -0.031760246 -0.0062034335 0.014104899
000060 13 49 81 3b e2 e0 77 bc 8f 1a 71 3c 96 5f 81 3b
       0.0039454787 -0.0151293 0.014715805 0.0039481623
000070 9a 47 7d 3c fd e8 eb bb 85 6f 27 3c a4 55 92 bb
       0.015458966 -0.007199405 0.010219459 -0.0044657756
000080 27 87 ef bb 26 05 5c bb 89 df 91 3c eb 84 09 bc
       -0.0073098126 -0.0033572405 0.017806785 -0.0083935065
000090 f2 25 81 bc 94 3d 90 3c 03 9e 0c 3c 0b 9d a6 bb
       -0.015765164 0.017607488 0.008582595 -0.005084639
0000a0 8f e4 d8 3b 65 5d 71 bc 70 ce b5 3b fc df 85 3c
       0.006619043 -0.01473174 0.005548291 0.016342156
0000b0 de bd 54 3c c9 71 c6 3b 0e 47 81 3c 9d e9 4c bc
       0.012984721 0.0060560447 0.015780952 -0.01250687
0000c0 30 14 50 ba 82 0c 94 bc bd 3d b8 3c 62 13 02 bc
       -0.00079375785 -0.01807237 0.022490377 -0.007939192
0000d0 c2 14 d9 3b d1 a1 c3 bc 05 98 9d 3c 95 93 0b 3c
       0.006624789 -0.023880871 0.019237528 0.008519073
0000e0 85 e3 7a 3c 0e 4c de 3b 0f 66 5d 3d 5a f4 b2 bc
       0.015313034 0.006783969 0.05405241 -0.021845032
0000f0 86 e6 24 3c 49 d0 a2 3c 2c 5f 63 3b 29 c5 d7 3a
       0.010064727 0.019874709 0.0034694178 0.0016461957
000100 a7 b5 97 3c a2 2b 63 3c 8b 94 99 3c 00 86 db 3b
       0.018519236 0.013865383 0.018747589 0.0066993237
000110 23 06 9d ba ed 02 2a 3b 99 49 39 bc 37 8e 53 bc
       -0.0011979978 0.0025941685 -0.011309051 -0.012912325
000120 d5 b6 84 39 04 cb a5 bc d0 f9 eb 3b 13 10 9d 3b
       0.00025313222 -0.020238407 0.007201411 0.004793176
000130 ed 9d 05 bd 24 37 8e 3c b7 d9 82 3b 56 66 d0 3b
       -0.032621313 0.017360277 0.003993239 0.0063598556
000140 a8 7d 85 3c 47 b4 74 bc 9a 8b 0e bc 0c f2 73 bc
       0.01629527 -0.01493556 -0.008700276 -0.014889251
000150 dd c1 00 3d 5f 3e 7c bc 8f 9b 38 3c ca 12 ad bc
       0.031434882 -0.01539573 0.011267557 -0.021127123
000160 48 6b 61 3b ef de 9f bc 6c 16 95 3c ee 91 8d 3c
       0.003439622 -0.019515483 0.018199168 0.017281499
000170 fa 0e 79 bc 35 79 95 bc ad f2 b4 bc 99 5d 9c 3b
       -0.015201325 -0.018246273 -0.022088373 0.0047719
000180 a0 b3 75 3c 02 8f 79 bc e3 6d 50 bb 3a a5 cc bb
       0.014996439 -0.01523185 -0.003180378 -0.0062452825
000190 d7 68 9b 3c 80 d2 4f bc 8f a9 54 3c a9 d6 e2 bc
       0.01897089 -0.012684464 0.012979879 -0.027690249
0001a0 15 5a 5c 3b d2 b9 4e bc 8d f1 b7 bc 7f a8 2e 3b
       0.003362303 -0.012617545 -0.022454048 0.0026650724
0001b0 aa 0a 17 bd ac bd 14 3a 11 fd ca 3c a6 0c 0f bd
       -0.036875404 0.0005674015 0.024778875 -0.034924172
0001c0 c8 b2 d8 bc 28 16 48 bc 41 26 30 3d ab fd c2 3c
       -0.026452437 -0.012212314 0.04300523 0.023802599
0001d0 0d 1f 59 3b 11 b8 8d 3b af bb 01 bd 3d 01 c2 3b
       0.003313008 0.004324921 -0.03167313 0.005920558
0001e0 d3 3e 0d 3d ff d6 85 3c 11 d1 20 3c f2 4b d0 bb
       0.034483742 0.01633787 0.00981547 -0.0063567096
0001f0 fb 1a 25 bd df 20 6c bc 03 5a a9 3c ea 4a 21 3d
       -0.040308934 -0.014412134 0.020672804 0.039378084
000200 42 1c 05 3c 75 b5 6d bd 4e 4c 76 3d 5d 5f b9 bc
       0.008124413 -0.05803438 0.060131364 -0.02262848
000210 20 14 1b 3d 73 27 80 bc 2e 1f 61 3c 94 c2 29 3c
       0.03786099 -0.01564381 0.013740344 0.010361332
000220 28 d4 cc bc 59 42 f3 3b f4 dc a1 3d 01 3f 0a 3c
       -0.025003508 0.0074236807 0.079034716 0.008437873
000230 bc da 14 bc 79 08 8d bc 84 2a 00 bd 22 09 40 bd
       -0.009085353 -0.017215954 -0.031290546 -0.04688371
000240 b0 55 de bb e1 b0 47 3c 2b 46 1c 3c 1f 15 d6 bb
       -0.006785117 0.012188167 0.009538214 -0.0065332795
000250 6e b0 1b 3c 1b 70 2e 3d 92 65 7f bb dc ae 22 bc
       0.009502513 0.04258738 -0.0038970453 -0.009929385
000260 f8 53 9e 3a ea e6 45 bc 55 4a 03 bc 1f 07 27 bd
       0.0012079468 -0.01207898 -0.008013328 -0.040778276
000270 79 6a 38 bb 00 8e 6d 3c 83 b9 8b bb b2 f1 e0 bc
       -0.0028139635 0.0144991875 -0.004264058 -0.027459
000280 a8 ae d9 bb ba 89 81 3c 51 15 86 3c f8 37 41 3c
       -0.006643135 0.015812743 0.016367586 0.011793129
000290 c1 73 92 bb 29 d2 6a 3c 76 86 98 bb 18 90 58 3c
       -0.0044693653 0.014332333 -0.004654701 0.013217948
0002a0 0a 16 c7 3b fb 92 de bb 5d 81 60 bc 17 cf bf 3c
       0.0060756253 -0.006792424 -0.013702718 0.023414178
0002b0 38 a6 98 bc d4 b5 31 bc 40 c5 60 3c dd 13 bb 3b
       -0.018633947 -0.010846574 0.013718903 0.005709155
0002c0 96 3c 09 bc f4 1f 37 bc c1 9d e9 ba 4c 49 8f 3b
       -0.008376261 -0.011177052 -0.0017823504 0.0043727513
0002d0 14 74 e0 3c 1d 8f ca 39 2c 2f c1 3b 54 f6 23 bd
       0.0273991 0.0003863507 0.005895516 -0.04002984
0002e0 5a 64 6a 3c 50 de 1d bc 94 bf 0c bc a2 a7 bb ba
       0.014306152 -0.009635523 -0.008590598 -0.0014316926
0002f0 cc d9 8f 3b d4 5d b0 bc c1 b8 3a 3c a9 bb 1a bd
       0.004389977 -0.021529116 0.011396588 -0.037776623
000300 90 99 0f 3d 3d 09 9c 3b 14 e0 5f bb d0 01 11 3c
       0.035058558 0.0047618435 -0.003416066 0.00885053
000310 dd 25 69 bc 42 a4 e4 3c 53 05 0b 3b 98 f3 9c 3c
       -0.014230219 0.027910355 0.002121289 0.019159123
000320 fe cb 97 bc c2 08 1d b9 f3 3d f2 bb 5a e7 a3 bb
       -0.018529888 -0.0001497595 -0.007392639 -0.0050019445
000330 cc a9 e7 3c c0 e1 8b 38 42 b8 0a bc ac 23 1c bc
       0.028279208 6.670086e-05 -0.008466782 -0.009529989
000340 1d cf ee 3b 66 0d 01 3c 84 c3 5b bb 69 0b 49 3b
       0.0072878734 0.00787673 -0.0033533284 0.0030676967
000350 ba 48 50 bc 12 ba a3 3c 0b 74 29 bc ec c6 84 3c
       -0.012712652 0.019986186 -0.010342608 0.016208135
000360 a3 fd d1 bc f2 46 c2 bc 26 ce b1 bb 87 8c 2f bc
       -0.025633639 -0.02371547 -0.005426186 -0.010714657
000370 e4 f8 9a bb 60 ef 6f bc 8a c0 f8 3a 9e fa 12 bd
       -0.004729377 -0.014644474 0.001897828 -0.03588354
000380 c0 5a e9 bc f2 08 08 bd a2 40 e6 bc ce 3f 53 3b
       -0.028485656 -0.033211656 -0.028106991 0.0032234075
000390 89 fd 0f 3c b9 a0 97 bc 61 6c 97 bb df e0 8d ba
       0.008788475 -0.018509256 -0.004621074 -0.0010824463
0003a0 6a a7 dd bc bd 26 02 3d 97 34 8c bb f0 6b 22 bd
       -0.027057368 0.031775225 -0.00427873 -0.03965372
0003b0 c2 c1 20 3b 99 40 a5 3b 1d b3 8e bc 92 0b 93 3b
       0.002452955 0.005043101 -0.017419392 0.0044874633
0003c0 ab 7d 39 3b 03 a8 87 bc 12 6f 3e bc 2e 1c 90 3c
       0.0028303664 -0.016559606 -0.011623161 0.017591562
0003d0 bc b7 48 ba 69 63 20 3c 71 c8 18 3c da c8 f9 3b
       -0.0007656773 0.009789326 0.009325133 0.0076228203
0003e0 12 91 42 bc c1 5e 3c ba ea 70 b4 bb 67 7b 84 3d
       -0.011875408 -0.00071857503 -0.0055066245 0.0646885
0003f0 aa b2 3d 3d 48 33 8f bc 85 6e 86 3a 3e 9e 3e bb
       0.046312965 -0.017480507 0.0010256326 -0.002908602

fc1.bias f4 [120]
000000 3b b2 88 3b 43 90 f1 bb d7 4e 8f bb 79 54 9c 3c
       0.0041716374 -0.0073719337 -0.004373412 0.019083248
000010 dc f2 11 bc b7 d7 1d bc 1d d6 86 3c ec 7e 82 bc
       -0.008908 -0.00963395 0.016459519 -0.015929662
000020 dd 07 2f bb d8 60 09 3b 4d 1a f1 bb c1 c8 94 3c
       -0.0026707568 0.0020962264 -0.0073578716 0.018162133
000030 39 cc 0e 3c ac f4 3b bc 18 9c 0c 3c 76 74 29 3b
       0.008715683 -0.011471909 0.0085821375 0.002585677
000040 9b 7f a6 3c 10 61 8c ba e7 8e 86 bc bb 20 0c bb
       0.020324519 -0.0010710079 -0.016425563 -0.0021381814
000050 63 15 52 3c dc 71 10 bc 34 a0 1b 3c ab 94 3b 3b
       0.012822482 -0.008816209 0.009498645 0.0028622549
000060 1e af 40 bc c2 a0 7b 3c c1 5d 79 3c ed d9 8b bc
       -0.011760501 0.015358152 0.015220107 -0.017071689
000070 21 88 a5 3c ba 43 c1 3b 83 e8 43 bb b3 38 4f 3c
       0.020206513 0.005897966 -0.0029893226 0.0126477955
000080 36 3a 57 3c 95 91 a5 bc 13 0b c0 3a 54 27 89 bc
       0.013136437 -0.02021102 0.0014651738 -0.016742386
000090 97 0c 0c bc 79 0f 86 3c 74 44 03 bc 07 2c e6 bb
       -0.0085479235 0.0163648 -0.008011926 -0.0070242914
0000a0 ef 9e a0 bc df 8a 21 3c b4 7c 89 bc ab df d1 3b
       -0.019607035 0.00985977 -0.016783096 0.006404837
0000b0 f3 a1 42 3c 8b f9 10 3c 4c 02 3d 3c 9c 33 58 3c
       0.011879432 0.008848558 0.011536192 0.013195898
0000c0 1f 6e ba bb bd 3d 02 3b d9 83 35 bc 52 81 7d bc
       -0.005689397 0.0019873225 -0.011078798 -0.015472727
0000d0 b0 4b 9b ba 2b 5a 3a bc ad da 57 3c ad a7 4c 3c
       -0.0011848118 -0.011374037 0.013174695 0.012491149
0000e0 06 ad f7 3b 3d 3d 9b bc b2 c3 cf bc f7 b8 c2 bb
       0.007558468 -0.0189501 -0.02536187 -0.0059424597
0000f0 04 57 72 bc c7 a7 03 3b 4b 2b 45 3c bc dc 13 bc
       -0.014791254 0.0020089017 0.012034248 -0.009024795
000100 ed 57 cb bb 66 cf 06 bc d3 18 33 3c 10 85 0b bc
       -0.00620555 -0.008228159 0.0109312115 -0.008515611
000110 e6 dd 3a bc c4 e2 9f bc 20 79 ac bc b3 29 8e 3b
       -0.011405444 -0.01951731 -0.02105385 0.004338467
000120 f1 9e 7e 3b 58 68 08 bc d6 d8 94 39 2a dc b2 bb
       0.003885206 -0.008325659 0.00028390315 -0.0054583745
000130 60 c3 5c bc 9f 88 cc bb 4d 30 14 3c 9b 09 98 bc
       -0.013474315 -0.0062418724 0.009044719 -0.018559268
000140 97 f2 ed ba 74 c1 8b bc 9c c1 da 3b 60 a4 89 3a
       -0.0018153962 -0.01706002 0.006675912 0.0010501258
000150 09 ca 9d bc f2 e5 70 bb fa bb 38 3c eb a1 3b 3c
       -0.019261377 -0.0036758152 0.011275286 0.0114521785
000160 91 bd 73 3b 74 15 ab 3c af 46 21 bc 18 6b d9 bb
       0.0037191848 0.020884253 -0.009843512 -0.006635081
000170 66 0a 12 3b ee f8 77 3c 88 32 8e 3b 7b c7 01 bc
       0.002228403 0.015135033 0.00433952 -0.007921095
000180 31 7a 4d bc fe db 04 bc cd 2a bb bc 7c b9 9e bc
       -0.01254134 -0.008109091 -0.022847557 -0.019375555
000190 a6 db 68 3c ea ee a4 3c 08 76 4e bb ae 4e 16 3c
       0.0142125245 0.020133454 -0.0031503458 0.009174032
0001a0 85 59 0d bc b8 40 22 ba 06 32 76 bc bc 2e 8c 3c
       -0.0086273 -0.00061894534 -0.015026575 0.017112128
0001b0 d6 34 8d bc 86 a0 db bb e2 2e 97 bc 69 7f 1d bc
       -0.017237108 -0.0067024855 -0.018454973 -0.0096128965
0001c0 88 08 87 bc b4 33 1a 3b 26 62 fa 3b b7 95 cd b9
       -0.01648356 0.0023529353 0.0076410947 -0.00039212193
0001d0 a1 26 48 3c 67 81 4d 3c c0 f3 34 bc 95 0f d6 bb
       0.012216241 0.012543059 -0.011044443 -0.0065326192

fc2.weight f4 [80, 120]
000000 39 55 7b 3d 23 6d 0c 3c 7a f1 05 bd 4e 10 6d bd
       0.06136057 0.008570942 -0.032700993 -0.057876877
000010 f3 47 85 bd 37 88 1a 3c fa 95 18 bd e4 8b 57 3d
       -0.06507864 0.00943189 -0.037252404 0.052623644
000020 49 97 45 bd 34 dc 8c bd d7 6e 40 bd 56 17 9c bd
       -0.04823998 -0.06877938 -0.046980705 -0.076216385
000030 93 a8 af 3c 6c 9d 67 3d c9 52 13 bd 72 ee 52 bd
       0.021442687 0.056546614 -0.035967622 -0.05149693
000040 78 c3 0c bd 9b 18 c4 3c 9c 88 0e bd d3 4a a5 3d
       -0.0343661 0.023937514 -0.03479825 0.08070912
000050 aa 2b 83 bd 90 44 a3 3c c0 0a 5e 3d c4 fc fc bb
       -0.06404813 0.019930154 0.05420947 -0.0077205617
000060 fb 79 b2 bd 12 d3 20 bc 15 88 83 3c c9 67 eb bc
       -0.08714672 -0.009815948 0.0160561 -0.028736012
000070 da 66 50 3d a2 a4 5f bd 2b 8c 5e bc fa 3d 48 3c
       0.050879337 -0.054600365 -0.013583223 0.012221808
000080 12 33 0d bc 8e 89 4b 3b d4 47 40 3d ec 1f ba bb
       -0.008618133 0.003105733 0.0469435 -0.005680075
000090 36 ab 82 3d 12 2c e0 3c d6 0f 3f bd 33 a6 5f 3d
       0.06380312 0.027364764 -0.04664596 0.05460186
0000a0 9e 3c 77 bd 65 ed 0b 3d d8 37 66 bd be 31 85 bc
       -0.060360543 0.034161944 -0.0562056 -0.01625907
0000b0 43 0f 32 bd e8 01 4c bc 64 ae 9c 3c 8f 27 71 bd
       -0.043471586 -0.012451626 0.019126125 -0.058875617
0000c0 92 07 b7 3b 16 24 15 bd 99 48 d2 bc f5 c1 4b bd
       0.0055856192 -0.036411367 -0.025669383 -0.04974552
0000d0 ca be 98 bb fc dd 8e 3d 5f 6b 00 bb 1a 7a 22 bd
       -0.0046614157 0.06975934 -0.0019595248 -0.039667226
0000e0 22 f2 02 3d f9 cd 30 3d 08 ad 82 3d e5 7d 86 bd
       0.031969197 0.04316518 0.06380659 -0.06566981
0000f0 d6 69 43 3d 6e e7 a1 bb 21 f9 0d 3d f0 0d 0d 3d
       0.047708355 -0.0049409186 0.034661416 0.03443712
000100 1c ee 51 bd f5 6b 20 bd 12 42 13 bd 41 98 75 3c
       -0.05125247 -0.039165456 -0.03595168 0.014989913
000110 86 d8 33 bb f2 60 df bc fa 8e fb bb 37 08 e3 bb
       -0.002744229 -0.027267907 -0.0076769562 -0.0069284695
000120 cb 05 9b 3d 15 b7 85 bc 1f 25 8b 3d 75 3e 83 bd
       0.07569464 -0.016322652 0.0679419 -0.06408397
000130 a7 28 42 bd 25 d4 10 3d ab 95 8a bc a4 4c e4 3c
       -0.04740205 0.035358567 -0.01691707 0.027868576
000140 32 6d 22 bd ac 3c df bc 7b 60 5e 3d dc 19 00 3b
       -0.039654918 -0.02725061 0.05429123 0.0019546663
000150 88 01 8d bc 75 b1 63 bd 24 00 c2 3c 47 f7 0c 3d
       -0.017212644 -0.055589158 0.023681708 0.03441551
000160 b2 0b 0e 3d 43 e1 1a bd c3 70 89 bd 46 b2 2a 3d
       0.034679122 -0.037812483 -0.06710961 0.04167392
000170 a8 85 f0 3c cf 33 e9 3b c4 e5 33 bd 82 20 a5 bc
       0.029360607 0.007116772 -0.043920293 -0.020157102
000180 9d ad cb b9 50 16 48 bd ff 5b 8d 3d 1d 12 66 bd
       -0.0003884853 -0.048849404 0.069023125 -0.056169618
000190 a7 54 75 bb c0 11 bf bc c1 1b 40 bd ba 44 27 3d
       -0.003743449 -0.023323894 -0.04690147 0.040837027
0001a0 90 ae c1 3a 5b 94 87 3d 43 94 67 bc aa 54 4d 3d
       0.0014776755 0.066200934 -0.014134469 0.05012957
0001b0 b4 f6 8b bc b1 29 00 bd 52 b6 95 3d df eb 0f 3d
       -0.01708541 -0.03128976 0.073101655 0.035137054
0001c0 3e ab 5e bc de 77 57 b9 60 a3 83 bd 40 40 c2 bc
       -0.013590632 -0.00020548652 -0.06427646 -0.023712277
0001d0 14 85 d5 3c 89 51 85 3d 09 58 82 bd b4 8a 52 3c
       0.026064433 0.06509692 -0.063644476 0.012850452
0001e0 0b 11 ce bc 38 f8 75 bd 26 54 51 bd 82 f7 83 bd
       -0.025154611 -0.060051173 -0.05110564 -0.06443693
0001f0 16 ca 28 3d 6e 76 2c bc c3 ae 98 bd d2 ed a0 3d
       0.04120835 -0.010526283 -0.07455208 0.078578606
000200 6b bd 3b 3c 8d 0b 68 bd c7 34 54 bd cb d9 6f bd
       0.011458735 -0.05665164 -0.051808145 -0.058557313
000210 60 b0 4f bc 6a d3 48 3d 21 90 94 bc e3 aa 92 bc
       -0.012676328 0.049029745 -0.018135132 -0.01790375
000220 9b 8e a8 3d 2a 6f 55 bc ea 02 53 3d 69 23 51 bd
       0.08230325 -0.013026992 0.05151645 -0.05105916
000230 fe ec dd bc 21 3f 45 bd c4 3c bf 3a e4 54 65 bc
       -0.027090546 -0.048155908 0.0014590253 -0.01399729
000240 44 f1 4b 3d 2f 8c d9 3c 90 66 75 bd df 72 67 bd
       0.049790636 0.026556103 -0.059912264 -0.056506034
000250 3f 76 ea bc 7d d7 81 3d fd 53 28 3d e4 5e 9a bb
       -0.028620837 0.06339929 0.041095722 -0.004711019
000260 bc c3 52 bd 69 61 90 3d 2a e9 8f bd 2f e7 a6 3d
       -0.051456198 0.070498295 -0.070268944 0.081495635
000270 c5 16 79 3d a6 04 75 bd 8a fa 84 bc ad a2 9a 3b
       0.06081273 -0.059818886 -0.016232748 0.0047190995
000280 ff b0 4a 3c 22 f6 2c 3d 31 e4 06 bd 13 97 5a 3d
       0.012371301 0.042226918 -0.032932464 0.05336673
000290 80 de b2 3c 50 f9 9c 3c fa 0b b7 bb e7 08 22 3d
       0.021834612 0.01916185 -0.0055861445 0.03955927
0002a0 1e 9c f7 bc 78 fb 97 bc f9 09 73 3d 93 c7 de bc
       -0.03022581 -0.018552527 0.059335683 -0.027194774
0002b0 cc 9d 20 bd 2f 7e 04 3b 49 a3 6f bd 19 a4 2b bd
       -0.039212987 0.0020216813 -0.05850533 -0.041904543
0002c0 95 a9 46 3c 66 a0 a6 3b 55 c3 12 bd 78 6f 91 bc
       0.012125392 0.005085039 -0.035830814 -0.017753348
0002d0 ee 82 7c 3c ce 80 83 bc e0 6a f2 3a b7 85 1b bd
       0.015412075 -0.01605263 0.0018494986 -0.037969317
0002e0 6b bb 49 bd 13 77 3f bd 5e 04 19 bd a1 c6 a5 bb
       -0.049251 -0.046744417 -0.03735768 -0.005059079
0002f0 be f6 2f 3d f8 66 bb 3c 57 0d 4c bd 38 4f 84 3c
       0.04295992 0.022876248 -0.04981741 0.016151056
000300 df eb 75 bd 7f 96 0f bd 89 de 81 bc 18 93 ce 3c
       -0.060039397 -0.035055634 -0.015853183 0.025216624
000310 dd 90 18 bd 63 5c 7e 3d 8e cf 43 3d ec 98 3d 3d
       -0.037247527 0.062099826 0.04780536 0.046288416
000320 0f e7 df 3c 30 21 d7 3c a1 d1 16 3d 22 e8 83 3c
       0.027331857 0.026260942 0.03682101 0.0161019
000330 24 f7 48 bc 5d 5c 3b 3c 8f ec 2c 3d b3 dd 38 bd
       -0.012265954 0.011435595 0.042217787 -0.045133304
000340 e9 87 17 bd 54 71 d9 3c 39 db 4c bc b1 c2 ff 3c
       -0.03699485 0.026543297 -0.012503439 0.031220766
000350 e4 3c 9f 3c 70 36 80 bd 6b c2 a1 3d 5b aa 88 bd
       0.019438215 -0.06260383 0.078984104 -0.06673118
000360 6c d6 3e b9 c3 55 19 3d 22 34 2b bd ee 1e 4e 3c
       -0.0001819969 0.037435304 -0.041797765 0.012580616
000370 79 fb db bc 83 37 8c 3d b3 d7 2d 3d a2 9a 8d ba
       -0.02685331 0.068465255 0.042442035 -0.001080353
000380 de 2f 39 bd e3 ec 93 3d f1 02 32 3c b4 b5 ee 3c
       -0.045211665 0.07222917 0.010864959 0.029139377
000390 37 99 99 3d 78 af 54 3c ea 7e 23 3d ae b2 a4 3d
       0.074999265 0.012981288 0.039915957 0.08041893
0003a0 e2 54 46 bd 9f 09 20 bd f7 ca 4d 3c 0c 55 45 bc
       -0.048420794 -0.039071675 0.012560598 -0.012044203
0003b0 6e 2d 2d bd e5 51 a2 bc cb 18 35 3c 9b f4 65 bb
       -0.042279653 -0.019814441 0.011053274 -0.0035088423
0003c0 7a ae 85 bd 64 a4 8f bd dd da 57 3c 4b 12 55 3b
       -0.065274194 -0.07013777 0.01317474 0.0032512124
0003d0 2d 6e e1 3c 6a af 07 3c df 65 9f 3d 68 c1 20 bc
       0.027518356 0.008281568 0.07783102 -0.009811737
0003e0 f4 25 1c 3c 78 d8 85 bd 3b 80 fb 3c c4 ab fb 3c
       0.009530533 -0.06535429 0.030700793 0.030721553
0003f0 0d db 82 bd 02 0d 4a 3d 6d 88 b7 3c 98 2d 5c bd
       -0.06389437 0.04932881 0.02240392 -0.05375442

fc2.bias f4 [80]
000000 f3 8c 2c bb 01 e1 52 bd e5 26 36 bd 04 35 aa bc
       -0.002632913 -0.05148411 -0.044470686 -0.020777233
000010 39 41 6c bd b3 9f 4a 3d bc b8 62 bd c9 a8 5f bc
       -0.05767939 0.049468707 -0.055351958 -0.013651081
000020 d8 ec 4b 3d af 64 6c bd b5 63 13 3c ac 45 04 bc
       0.04978642 -0.057713207 0.00899594 -0.008073252
000030 23 c9 05 3a fe 58 8a 3d 3e ab 68 bd 78 2f 0b 3b
       0.0005103519 0.06755255 -0.056803934 0.002123801
000040 80 47 d6 3c 1d 4b 2d bb f9 83 cb bc 9f ae c1 3c
       0.02615714 -0.0026442476 -0.024843203 0.023642836
000050 3f e8 cc bc c3 95 21 3d 08 38 48 bd e6 cc 27 3d
       -0.025013087 0.039449465 -0.04888156 0.04096689
000060 2c 2e 7d bd 02 c3 ec bc 7a 44 de bc 36 f2 50 3d
       -0.06181161 -0.02890158 -0.027132262 0.05101224
000070 58 0a fa bc 54 2f 29 3d 65 9b 13 bd d2 14 57 bd
       -0.03052251 0.0413049 -0.036036868 -0.05251009
000080 03 98 38 bd 81 ad 97 3d 8f 18 7b bb db 8a 22 bd
       -0.045066845 0.0740614 -0.0038314199 -0.039683204
000090 0e b5 71 3d c2 9a f2 bc a0 39 8c 3b d9 51 84 3d
       0.059010558 -0.02961481 0.0042793304 0.06460924
0000a0 50 e1 00 bd 5d 11 46 bd 33 1f aa 3b f1 15 46 bd
       -0.031464875 -0.048356403 0.0051917075 -0.04836077
0000b0 60 41 6c bc cb 70 cc 3c 18 9c 35 3d 8e e9 1d 3d
       -0.0144198835 0.024956128 0.044338316 0.038552813
0000c0 14 5f 00 bd bb 30 76 bd 4b b9 af bc 43 22 b2 bc
       -0.031340674 -0.060105067 -0.02145066 -0.021744853
0000d0 95 82 4c 3d e2 4c 36 3d 29 e2 d1 bc e5 c6 1b 3d
       0.04992922 0.044506915 -0.025620537 0.038031477
0000e0 52 d4 e8 3c 1c 12 29 bd 76 13 5e bd 77 37 13 bc
       0.028421555 -0.041277036 -0.05421778 -0.008985392
0000f0 3c 6c 6d bd cb 50 d7 bc c2 1c 5d bd 2b ea fa 3b
       -0.05796455 -0.026283642 -0.053982504 0.0076573095
000100 6b c1 0e bd 34 36 55 3c 9a 18 20 3d 25 76 4c bd
       -0.034852426 0.013013411 0.039085962 -0.04991736
000110 6a f4 ca bc 8b a0 30 3d cd 1d 21 3c 4f e7 26 bd
       -0.024774749 0.043121856 0.009833765 -0.040747937
000120 2c f9 35 3d 86 8f 33 bd 7f a6 c5 bc df 6d 4a 3d
       0.044427082 -0.043838046 -0.024127243 0.049421187
000130 a8 e4 aa ba 9d c0 3d 3d 3e 7a 21 3d b2 00 55 3d
       -0.0013038116 0.04632627 0.03942322 0.052002616

fc3.weight f4 [15, 80]
000000 5a c9 5a bd d4 f2 86 3d a4 c2 a4 bd e2 02 3f bd
       -0.05341468 0.065892845 -0.08044937 -0.04663361
000010 50 07 81 bd 86 e2 f4 3d 60 00 a3 bd 0e 28 b4 3d
       -0.06300223 0.119572684 -0.07959056 0.08796702
000020 f5 4d 93 bd 83 9b 77 3d 83 09 1a 3e 37 5f 5c 3d
       -0.071926035 0.060451042 0.15042691 0.05380174
000030 c3 78 aa 3d e6 5b 09 bd 10 cc b2 3d d1 93 41 3d
       0.08323815 -0.033534907 0.08730328 0.04726011
000040 cb b4 be bd 6c e4 a9 3c cd b8 87 bd 5d e7 3f bd
       -0.09311827 0.020738803 -0.06627045 -0.046851505
000050 96 b8 ae bd 4c a5 47 bd 01 dd e5 bc d3 c0 ab bd
       -0.08531301 -0.048741624 -0.028059484 -0.08386388
000060 ee 7b 22 3d 63 89 39 bd bb 17 ca 3b f1 cf 95 3d
       0.03966897 -0.045297038 0.0061673797 0.07315052
000070 1d 7b 03 be 40 e4 8b 3d fa 77 99 bc c6 c1 5b bb
       -0.12839933 0.068306446 -0.018733967 -0.0033532246
000080 96 5f 1a bd 40 9f 1d 3e 7f 45 8a bd 2b e3 e5 3d
       -0.037688814 0.1539278 -0.067515366 0.112249695
000090 93 4d a6 bd 03 82 e5 bd 50 7b 7b 3d 77 b7 9c bc
       -0.08120265 -0.112064384 0.061396897 -0.019130452
0000a0 f1 6e 7c 3d e0 73 91 3d c8 e8 28 ba d7 3d f0 3b
       0.06162924 0.071021795 -0.00064433785 0.0073315906
0000b0 02 f1 09 bd a3 ed 84 3d 3d 50 72 bd 3b f3 a2 3d
       -0.03367711 0.06490638 -0.059158552 0.07956549
0000c0 73 0c 02 3b 5a 3c 23 bd 17 45 23 bb aa 39 3b bd
       0.0019843846 -0.039852478 -0.0024913007 -0.04570929
0000d0 6b a4 ce bc f2 49 50 3d 7e 3d 23 3e 9b fd 80 3c
       -0.025224885 0.05085177 0.15941426 0.015745929
0000e0 5c cc a1 bd c9 dc 4c bd f8 8d 6e bc 3e 6a 45 3d
       -0.079003066 -0.050015245 -0.014560215 0.048197024
0000f0 85 15 2d 3b 3c 08 3e 3d 4c a2 69 bc e1 f9 75 bd
       0.0026410532 0.04639457 -0.014259886 -0.060052756
000100 60 74 83 3d 3b fb 6f bd 62 a3 93 bd c3 43 3e bd
       0.06418681 -0.0585892 -0.07208897 -0.04645134
000110 fd 8e d5 3d 11 f8 f7 3d b4 41 82 bd a1 58 2c 3d
       0.104276635 0.12107862 -0.06360188 0.04207671
000120 a2 36 82 bd f4 ef de 3d 16 55 13 bd a2 83 06 3e
       -0.06358077 0.10885611 -0.035969816 0.13136151
000130 14 d7 88 3d 7c 99 93 3d 09 42 bf 3c f2 4c 1a bd
       0.06681648 0.07207009 0.023346918 -0.037671037
000140 0b 7e 9f bc 02 5d af 3d 57 c4 10 3e b3 4a 00 3d
       -0.019469282 0.08562662 0.14137398 0.03132124
000150 da 55 db 3d 7b b8 04 3e 1d ba ad 3b a8 b9 c2 3c
       0.10709734 0.12960999 0.0053017274 0.023770168
000160 96 b8 42 3d 16 3c f2 3c 40 e0 99 bc 87 46 df 3c
       0.047539316 0.029569667 -0.018783689 0.02725531
000170 09 95 c0 3c bb 54 97 bd 3f 6d 10 bd 84 2e b1 3d
       0.023508566 -0.07389208 -0.035260435 0.0865145
000180 59 13 c3 bd 35 92 b4 3d b3 be a7 3d 15 fa 9a bd
       -0.09525175 0.08816949 0.0819067 -0.075672306
000190 18 49 31 bd 8a aa a2 bd 18 21 8e bd df 2a e8 3d
       -0.0432826 -0.07942684 -0.06939906 0.11336302
0001a0 07 a2 98 3d 4f 74 8f bb ec a5 8a bd ec 41 c7 bd
       0.07452779 -0.0043778787 -0.06769928 -0.097293705
0001b0 74 a2 8f 3d d9 60 bd 3d 24 fd 10 bd 3a 47 80 3d
       0.07013407 0.09246988 -0.035397664 0.062635854
0001c0 73 e7 73 3d b2 8a c8 bb 23 d6 34 bb 3d c7 98 3c
       0.0595469 -0.0061200494 -0.0027593456 0.018649692
0001d0 9e a5 57 3d e8 78 1a 3d 22 7e 95 bd ca 4f b8 bd
       0.05264818 0.03771296 -0.072994485 -0.089995936
0001e0 d3 06 1f 3d cb ad be bd c1 9a 83 bd a8 5c a3 bd
       0.038824867 -0.09310492 -0.06426001 -0.07976657
0001f0 6a 41 bb bb 9d bb 89 bd ab bc fd 3b 52 3f 75 3d
       -0.005714585 -0.067252375 0.0077434382 0.05987484
000200 ac 98 63 bd b2 e0 84 3d 50 6f 88 bd 9d 56 98 3d
       -0.05556552 0.0648817 -0.06661856 0.07438395
000210 6d c3 5e bd b6 51 59 3c be ea 17 bd 55 08 8d bd
       -0.05438559 0.01326411 -0.037089102 -0.06886355
000220 cd 12 77 bc f5 34 59 bd 7a 30 8b bd 29 01 c3 bd
       -0.015080166 -0.05302902 -0.067963555 -0.09521706
000230 99 a2 c6 3d b7 fe c7 3c 71 d6 a7 bc 10 ed 55 3d
       0.09698982 0.02441345 -0.020487996 0.052228034
000240 d8 97 54 3b 5c 50 8c 3c 4b a3 51 bd 6f 4d 59 3d
       0.0032439139 0.017128162 -0.05118112 0.053052362
000250 58 b3 ad bd f3 3b 29 3e 1e 6d 81 bd 2f 10 94 bd
       -0.08481473 0.16526775 -0.063196406 -0.07229649
000260 4c 98 6d bc 09 76 7a bc b7 11 7e 3d 3a a6 6c bc
       -0.014501642 -0.015286931 0.062028613 -0.014443928
000270 92 de 60 bd 6b 50 92 bd 16 cf af 3d 43 c7 36 3d
       -0.05489976 -0.07144245 0.085844204 0.044623625
000280 85 54 a4 bd 98 fe b2 3d f1 92 01 bd e2 1b 02 3c
       -0.08023933 0.08739966 -0.031634275 0.007941218
000290 06 b8 f6 bc 64 77 cb 3d 51 a6 65 3d 54 78 b5 bd
       -0.030117046 0.09934881 0.056066815 -0.088608414
0002a0 c3 87 3f bd 1f fb 04 bc 13 bd 30 3e 7e 20 80 3c
       -0.04676033 -0.008116513 0.17259626 0.015640493
0002b0 07 ec cd bd 9e 9d 33 bc 99 f0 39 3d 57 5d 6a 3d
       -0.10054784 -0.010962872 0.045395467 0.057217922
0002c0 08 15 1a bd 4f f0 4e bd e9 ff bd bd 52 6e b6 bd
       -0.037617713 -0.050522145 -0.092773266 -0.08907761
0002d0 00 d7 88 bd bf bb 80 3d 1a 1b a0 bd e0 b1 a6 bd
       -0.06681633 0.0628581 -0.07817669 -0.08139396
0002e0 0a ed a9 bc 74 60 36 bc 1e fc 01 3e 2a f6 9d 3c
       -0.020742912 -0.011131395 0.12693831 0.01928242
0002f0 36 ed 8c bd e6 12 68 3d 65 18 44 bd a5 f6 1e 3d
       -0.06881182 0.056658648 -0.047874827 0.038809437
000300 f1 85 04 3d 36 42 6e bd 26 3b 8f bd 75 b9 57 bd
       0.0323543 -0.058168612 -0.069937035 -0.0526671
000310 1f 03 8f 3d d6 8f a8 bd 8d 95 34 3d 4b 31 95 3d
       0.06983017 -0.082305595 0.044087935 0.072847925
000320 e9 4f ba 3d 75 3c 11 3d 2d 2a cd 3d 9b 3b e0 3c
       0.09097273 0.035458047 0.1001781 0.027372172
000330 cd 90 14 bc ab ba 6e bd 7a c5 2e 3d 18 03 b5 bc
       -0.009067726 -0.05828349 0.042668797 -0.022096202
000340 51 ce cf 3c cc 5b 6e bd 99 8d 61 bd b8 b9 49 3b
       0.025366934 -0.058193013 -0.05506668 0.0030780863
000350 98 45 a6 3d 13 5b 58 bd 64 08 0d 3e be 42 31 3c
       0.08118743 -0.05282123 0.13772732 0.010819135
000360 34 52 77 3c b7 45 b6 bd 19 ec b4 bd ca f3 9d 3d
       0.015095282 -0.08900016 -0.088340946 0.07712515
000370 49 e8 eb 3c ad 58 e3 3d 53 8f 95 bd 2b 50 b7 bd
       0.028797286 0.11100898 -0.073027276 -0.08950838
000380 e1 0f 4c 3c ea ab 08 3e ba 7b 41 bb 16 b7 8f 3d
       0.012454958 0.1334683 -0.002952321 0.07017343
000390 5e 4c b8 3c c4 10 9d 3d bc c2 06 3b b2 e5 be 3d
       0.022497352 0.076692134 0.0020562848 0.09321155
0003a0 c9 ba 40 bd e5 d9 56 3d 5b 04 ce 3d a6 50 a9 bd
       -0.047053132 0.052453894 0.100594245 -0.082673356
0003b0 1f a2 bc 3b 4b b9 a3 bd 53 c9 bf bd 90 b7 aa 3d
       0.005756631 -0.07994326 -0.093645714 0.08335793
0003c0 a0 f4 d8 bc a7 9b 9c 3d c3 8f bc 3c 1e be 95 bd
       -0.026483834 0.07646876 0.02301777 -0.073116526
0003d0 58 b3 53 3d ba 3b d8 bc 0f 65 e3 3d b1 8c 6d 3d
       0.051684707 -0.026395667 0.1110326 0.057995502
0003e0 a5 90 d0 3c 71 6d 38 3c cf 85 df bd 3b db 52 3d
       0.025459597 0.011256562 -0.10914194 0.051478606
0003f0 78 94 ee ba bb f3 a8 bd 5f a1 aa 3d 27 f4 11 3a
       -0.0018202206 -0.08249613 0.0833156 0.00055676926

fc3.bias f4 [15]
000000 e4 29 ad 3c 73 94 be 3d cc b0 67 bb 70 f0 ad 3d
       0.02113814 0.09305658 -0.0035353182 0.084931254
000010 3c f5 99 3b b9 9c 04 bd 1a 5c 1d bd 6e 17 58 bb
       0.0046984237 -0.032376025 -0.038417913 -0.003297295
000020 50 8e a3 3d 51 f5 78 bd 7e ff 35 3d bf 7f 34 3d
       0.07986128 -0.060780827 0.04443311 0.04406714
000030 8c 56 d0 3d 3d c7 96 bc 0f 84 36 bd
       0.101727575 -0.018405551 -0.044559535
