outfiles/cnn/Ya64_3Train_cnn.pth (torch, 605631 bytes, 10 tensors)

conv_layer1.weight f4 [16, 1, 5, 5]
0	0x3d60d3fd	0.054889668
1	0xbe5579ee	-0.20847294
2	0x3cb59882	0.022167448
3	0xbdaa11e1	-0.083041914
4	0xbe195719	-0.14974631
5	0xbd07ede8	-0.03318587
6	0xbdb6e6be	-0.08930729
7	0xbe365c48	-0.1780864
8	0x3d44e94c	0.04807405
9	0xbdd5bd19	-0.10436458
10	0xbaefde7d	-0.001830056
11	0xbe0c1059	-0.13678111
12	0x3dd1528e	0.10220824
13	0xbe3762ca	-0.17908779
14	0xbd16d809	-0.03682712
15	0x3e3cb9ca	0.18430248
16	0xbd5e8731	-0.054328147
17	0xbd9d302c	-0.07675204
18	0xbe241747	-0.16024505
19	0x3d3480a7	0.044068005
20	0x3e73a013	0.23791532
21	0x3e924f61	0.28576186
22	0x3bcf58e1	0.006327734
23	0x3e3f4aec	0.18680924
24	0x3d190cb7	0.03736564
25	0xbe011aa2	-0.12607816
26	0xbe2a7348	-0.16645539
27	0xbe03d9a7	-0.12875997
28	0x3c938dbc	0.01801192
29	0xbd830c47	-0.06398826
30	0x3d19bb19	0.037531946
31	0x3dc4d329	0.09610588
32	0x3e0731be	0.13202569
33	0xbe37936a	-0.17927328
34	0x3d2475d2	0.040151425
35	0xbc676b46	-0.014124697
36	0xbdaf8365	-0.085699834
37	0x3d54f277	0.051989045
38	0x3d1feb08	0.039042503
39	0x3bf0e6f8	0.0073517524
40	0xbd0f8cd0	-0.0350464
41	0xbe33f58d	-0.17574139
42	0x3e1005b6	0.14064679
43	0x3e2ac24f	0.16675685
44	0x3d3b5417	0.04573449
45	0x3d89b32f	0.0672363
46	0x3e14f1fb	0.14545433
47	0xbda7ed6e	-0.08199583
48	0x3e218748	0.15774262
49	0xbd48d8c0	-0.049034834
50	0xbaa93dc6	-0.0012912087
51	0xbdfc3951	-0.1231562
52	0xbd9a25a1	-0.075267084
53	0x3e20dd22	0.15709355
54	0xbd66f404	-0.056385055
55	0xbe12c6ba	-0.1433362
56	0x3e07b7b3	0.1325367
57	0x3e3e7cd3	0.18602304
58	0xbd1af72f	-0.03783339
59	0xbd6afe93	-0.057371687
60	0xbd40c72c	-0.047064945
61	0x3c9e5bda	0.019330908
62	0x3deedcc8	0.116632044
63	0xbe1be882	-0.15225413
64	0xbd682a6e	-0.05668109
65	0x3b244d97	0.0025070661
66	0xbe474da3	-0.1946321
67	0x3e2ca5be	0.168601
68	0xbd7fc959	-0.06244788
69	0x3d867675	0.06565563
70	0xbe07b6b4	-0.1325329
71	0xbd6c6d65	-0.057721514
72	0x3e15a606	0.14614114
73	0xbd1c297c	-0.0381255
74	0x3d0e7bfc	0.03478621
75	0xbda416e8	-0.080121815
76	0x3e0065d5	0.12538846
77	0xbe23ad73	-0.15984134
78	0x3c0bc253	0.008530217
79	0x3c8d26ce	0.017230418
80	0x3e1effef	0.15527318
81	0xbe20838b	-0.1567518
82	0xbd39d18c	-0.045365855
83	0x3e009100	0.12555313
84	0xbe3e1601	-0.18563081
85	0xbd556913	-0.05210216
86	0xba895d03	-0.001047999
87	0xbcd5640e	-0.026048686
88	0x3c8d95fb	0.01728343
89	0x3cb9ba45	0.022671828
90	0x3db5925f	0.08865809
91	0xbda1ef71	-0.07906998
92	0xbd82b0cb	-0.06381377
93	0xbdb27c69	-0.087151356
94	0xbda1a8a8	-0.07893497
95	0x3e25bee1	0.16186096
96	0xbd37ed6a	-0.04490415
97	0x3db2c702	0.08729364
98	0x3cc9ca19	0.0246325
99	0x3cc34508	0.023836628
100	0xbda74612	-0.08167662
101	0xbdfb826e	-0.12280737
102	0xbc991e59	-0.018691229
103	0x3e147356	0.14497122
104	0xbe734f04	-0.23760611
105	0x3dbda3bc	0.092597455
106	0x3e4be103	0.19910054
107	0xbe083a19	-0.13303412
108	0xbe37fa45	-0.17966564
109	0x3dafa9fb	0.08577343
110	0xbdaf1f5b	-0.085509025
111	0x3e487714	0.19576675
112	0x3d9e297c	0.07722756
113	0xbc7f88cb	-0.015596579
114	0xbe438537	-0.19093786
115	0x3e2708b7	0.16311918
116	0x3e4bce44	0.19902903
117	0x3d8ea7d6	0.06965606
118	0xbe83dc7c	-0.25754154
119	0x3d048e13	0.032362055
120	0x3e83b5af	0.2572455
121	0x3e786c6d	0.24260111
122	0xbd0edd66	-0.03487911
123	0xbe4fe10b	-0.20300691
124	0xbddc6074	-0.107605845
125	0x3ded4c3b	0.115868054
126	0xbde086a1	-0.109631784
127	0x3cd0463b	0.025424113
128	0x3c882696	0.016619962
129	0x3beca1c1	0.007221431
130	0x3a7b7772	0.0009592689
131	0x3d3a9cf8	0.045559853
132	0x3dc1473e	0.094374165
133	0xbe1aa52c	-0.1510207
134	0xbe0f282f	-0.13980173
135	0xbd138279	-0.0360131
136	0xbdfbcf32	-0.12295379
137	0xbcfcda74	-0.030865885
138	0x3d1d8ea5	0.038466115
139	0xbdbb7444	-0.09153035
140	0xbd27d165	-0.04097118
141	0x3de72c94	0.112877995
142	0xbd625de8	-0.055265337
143	0xbcb0ed8f	-0.021597652
144	0xbd040161	-0.032227878
145	0xbddd440a	-0.10803993
146	0xbc591946	-0.013250655
147	0x3ddaee61	0.106899984
148	0xbdab2c54	-0.08358064
149	0xbd6c3162	-0.057664283
150	0xbcb3cde5	-0.021948764
151	0xbdcfe855	-0.10151736
152	0x3e3c5e59	0.18395366
153	0x3e4db02d	0.20086737
154	0x3c158c6d	0.009127718
155	0xbe241997	-0.16025387
156	0x3da702d5	0.08154837
157	0x3d6e7b0d	0.05822282
158	0xbd2c6d70	-0.042096555
159	0xbe3aa2d0	-0.1822617
160	0xbe1048b2	-0.14090231
161	0x3bd74859	0.006569904
162	0x3d0ac21e	0.03387653
163	0xbe3df49b	-0.18550341
164	0xbd0acf29	-0.03388897
165	0x3cb34864	0.021885104
166	0xbd1586c3	-0.036505472
167	0x3e12cd63	0.14336161
168	0x3ca7bfe4	0.020477243
169	0x3d5509a9	0.052011166
170	0xbd453696	-0.04814776
171	0xbd18a409	-0.03726581
172	0x3e359fdc	0.17736763
173	0xbe57183b	-0.21005337
174	0xbe0748be	-0.13211343
175	0xbaff9864	-0.0019500372
176	0xbda12bae	-0.07869659
177	0xbd2b5351	-0.041827504
178	0xbd8fc9e3	-0.07020929
179	0xbc15edbc	-0.009150919
180	0x3e0057c7	0.12533484
181	0xbb8929b3	-0.004185879
182	0xbd883167	-0.06650048
183	0x3cd830ee	0.026390519
184	0x3d482338	0.048861712
185	0xbdb27d04	-0.08715251
186	0xbdff8868	-0.12477189
187	0xbd887ff3	-0.066650294
188	0x3dd88536	0.10572283
189	0x3de028a2	0.1094525
190	0xbd963442	-0.07334186
191	0x3d3c5af3	0.045985173
192	0x3dc85952	0.097826615
193	0xbcee35bd	-0.029078359
194	0x3de29193	0.11062922
195	0xbc7af6c9	-0.015317627
196	0x3d90618e	0.07049857
197	0xbe067b87	-0.1313306
198	0xbe036d24	-0.12834603
199	0x3c214def	0.009845241
200	0xbd1699e4	-0.036767855
201	0x3db65fab	0.08904966
202	0xbe00f51f	-0.12593506
203	0xbd8c2f10	-0.06844914
204	0xbc3e7a39	-0.01162582
205	0x3ce0d4dc	0.02744525
206	0xbb009c06	-0.0019624247
207	0xbda9e76b	-0.082960926
208	0x3deccf7b	0.11563011
209	0x3e46239f	0.19349526
210	0x3e383845	0.17990215
211	0xbe0bcf5a	-0.13653317
212	0x3e330c7c	0.17485231
213	0xbdb49429	-0.08817322
214	0x3d51e8a1	0.051247243
215	0x3d0803d6	0.033206783
216	0x3df33278	0.118748605
217	0x3e50b4e9	0.20381512
218	0xbdf21d65	-0.11822013
219	0x3e05e803	0.13076787
220	0x3bde6cd8	0.0067878775
221	0x3dde51dd	0.10855458
222	0xbc10bbac	-0.008833807
223	0xbc8e28b9	-0.017353402
224	0x3e62c56c	0.22145623
225	0xbdb30a17	-0.08742159
226	0x3e35f56f	0.17769407
227	0x3e1f1bd3	0.15537958
228	0x3e2a9553	0.16658525
229	0xbd739386	-0.05946686
230	0xbe37af15	-0.17937882
231	0x3e290805	0.16506965
232	0xbdf68915	-0.12037865
233	0xbcbc9e21	-0.02302462
234	0xbd04cc7b	-0.03242157
235	0xbc81fa3c	-0.015866391
236	0xbc192640	-0.009347498
237	0xbce1a3d6	-0.027543943
238	0x3e3725e1	0.17885543
239	0x3d847527	0.064676575
240	0xbda508ca	-0.08058317
241	0x3dc6577b	0.09684654
242	0xbd994944	-0.074846774
243	0xbe20218c	-0.15637797
244	0x3c855a5f	0.016278444
245	0x3cb7650c	0.02238705
246	0x3ded5bac	0.11589751
247	0xbd4e9927	-0.050439026
248	0x3c8d7145	0.017265925
249	0x3d275c30	0.0408594
250	0x3e132e52	0.14373139
251	0xbe2f6a82	-0.17130473
252	0x3dbeeaf0	0.093221545
253	0x3d15b6a2	0.036551125
254	0x3e1eb0b6	0.15497097
255	0xbd17fd49	-0.037106786

conv_layer1.bias f4 [16]
0	0xbe1c2928	-0.15250075
1	0x3ce26b68	0.027639106
2	0xbe161859	-0.14657725
3	0x3daafcf0	0.08349025
4	0x3e1e4b20	0.15458345
5	0x3dcff164	0.101534635
6	0xbde4e920	-0.111772776
7	0xbd5550a8	-0.052078873
8	0x3cd51b57	0.026014013
9	0xbd33d00b	-0.043899577
10	0xbddd0bee	-0.10793291
11	0xbdb725a6	-0.08942728
12	0x3c11ffa7	0.00891105
13	0xbd2f4257	-0.042787876
14	0xbe021919	-0.12704886
15	0xbd7e4f75	-0.062087495

conv_layer2.weight f4 [32, 1, 5, 5]
0	0xbd598e7f	-0.05311441
1	0x3dd84898	0.10560721
2	0xbe05ed5c	-0.13078827
3	0xbd70f966	-0.058831595
4	0x3e1bea97	0.15226208
5	0x3b63758d	0.0034707517
6	0x3e1ba0dd	0.15198083
7	0x3d37401e	0.04473888
8	0x3ada98d3	0.0016677625
9	0x3e2826a3	0.16420989
10	0x3e3897a9	0.18026604
11	0x3e72c147	0.23706542
12	0xbbdc3552	-0.0067202235
13	0xbcf1334f	-0.029443411
14	0xbe2df669	-0.1698853
15	0x3e641a51	0.22275664
16	0x3e33b596	0.17549738
17	0xbd497ca2	-0.049191125
18	0xbe34da39	-0.1766137
19	0xbe1bf410	-0.15229821
20	0xbd58a05b	-0.052887302
21	0x3dd67a90	0.10472596
22	0xbd057410	-0.03258139
23	0x3d99cfba	0.07510324
24	0xbe3c84bc	-0.18410009
25	0xbdd6d91e	-0.104906306
26	0x3b876c90	0.0041328147
27	0xbe118987	-0.14212619
28	0xbd633aa5	-0.05547585
29	0xbe34f61c	-0.17672008
30	0xbcf056e9	-0.029338317
31	0x3e88f79f	0.2675142
32	0x3ea44fc6	0.32092112
33	0x3d9a3b8b	0.07530888
34	0x3e5a2fda	0.21307316
35	0x3e5be847	0.21475326
36	0x3e45b146	0.19305906
37	0x3e4a5814	0.19760162
38	0x3d0867ee	0.03330224
39	0x3cabf964	0.020992942
40	0x3dbbc88c	0.09169111
41	0xbd66027b	-0.05615471
42	0xbc1b2143	-0.009468379
43	0xbce67af9	-0.02813481
44	0xbd93e1f9	-0.07220835
45	0xbd182fa7	-0.03715482
46	0xbe3cf196	-0.18451533
47	0xbdf52996	-0.119708225
48	0xbe0f7ec6	-0.14013204
49	0xbe18908d	-0.14898892
50	0xbd6386d4	-0.055548504
51	0xbc93714a	-0.017998356
52	0xbd4308ab	-0.04761569
53	0x3d120570	0.035649717
54	0xbc9bf1b7	-0.019036157
55	0xbe199674	-0.149988
56	0xbdbce154	-0.092226654
57	0xbd9b70a6	-0.07589845
58	0xbe203195	-0.15643914
59	0xbcfdb9ba	-0.03097235
60	0x3da34aa1	0.07973219
61	0x3e13c98d	0.14432354
62	0x3d9a08dc	0.07521221
63	0x3d952e5f	0.07284235
64	0x3d9f5c51	0.0778128
65	0x3e223c13	0.15843229
66	0xbd87c8a7	-0.06630068
67	0xbe0d8457	-0.13820015
68	0x3b896ff2	0.004194253
69	0xbe3328a6	-0.17495975
70	0x3ce04951	0.02737871
71	0xbe4a5196	-0.19757685
72	0x3e065df6	0.13121781
73	0x3e0de41f	0.13856553
74	0x3e342675	0.17592795
75	0x3d68620f	0.05673414
76	0x3e29abbe	0.1656942
77	0x3cdfd967	0.027325345
78	0x3d504003	0.050842296
79	0xbe4e3838	-0.20138633
80	0x3c8708a8	0.01648362
81	0xbda64ba7	-0.08119898
82	0xbd711c08	-0.058864623
83	0xbd052a07	-0.032510784
84	0x3da93afb	0.08263203
85	0xbe2cbca6	-0.16868839
86	0x3dbd4920	0.09242463
87	0x3ce573ae	0.028009262
88	0x3d9cea29	0.0766185
89	0x3c3f42e5	0.011673664
90	0xbde5293b	-0.11189505
91	0x3d4085e5	0.04700269
92	0xbe1f0de9	-0.1553265
93	0x3d05e21a	0.03268633
94	0x3d92f24f	0.07175123
95	0xbda6fb93	-0.08153453
96	0x3da91cbb	0.08257433
97	0xbe2387b1	-0.15969731
98	0x3decbc1b	0.11559316
99	0x3d969d08	0.0735417
100	0x3ce890ca	0.028389353
101	0x3dc6abee	0.09700762
102	0xbe0deb85	-0.13859375
103	0x3dbb9c09	0.09160621
104	0xbe1a1660	-0.15047598
105	0xbdd1374c	-0.10215625
106	0xbd700692	-0.058600016
107	0xbc4dda29	-0.0125642205
108	0xbcc17ca5	-0.023619005
109	0xbd7fd788	-0.062461406
110	0x3da0d890	0.07853806
111	0x3e17d83f	0.14828585
112	0xbe0f30ec	-0.13983506
113	0xbd7bd51d	-0.061482538
114	0x3dba2c09	0.0909043
115	0x3e0d8201	0.13819124
116	0xbd7dced2	-0.061964817
117	0xbda2c12f	-0.07947003
118	0xbd68abbf	-0.056804415
119	0x3aef6177	0.00182633
120	0xbbac3cc3	-0.005256267
121	0x3ce0cc11	0.027441056
122	0x3df7b3f3	0.120948695
123	0xbdf59eb5	-0.119931616
124	0x3d39ddd3	0.045377564
125	0x3b5f7cea	0.0034101554
126	0xbe0cfdc2	-0.13768676
127	0xbb14ba59	-0.002269408
128	0xbe1df28c	-0.15424556
129	0x3e081907	0.13290797
130	0xbdf892bf	-0.121373646
131	0xbc262281	-0.010140062
132	0x3e2c7b8b	0.16844003
133	0x3d1d4975	0.038400132
134	0xbe1b3d39	-0.15160073
135	0xbe0c8ab0	-0.1372478
136	0x3e0deeb9	0.13860597
137	0x3e36ddd0	0.17858052
138	0xbcb740f1	-0.022369834
139	0xbdc0777d	-0.093977906
140	0x3e08359c	0.133017
141	0xbdcae41e	-0.09906791
142	0xbe1ad1ae	-0.15119049
143	0x3b2d6b5a	0.0026461692
144	0x3db96bcf	0.09053766
145	0x3cf642f1	0.030061217
146	0x3e07e7fe	0.13272092
147	0xbda150a3	-0.07876708
148	0x3e04e4e6	0.12977943
149	0x3c6cf48a	0.0144625995
150	0xbbd3eb3c	-0.006467251
151	0xbe0a837d	-0.13526721
152	0x3cac7011	0.021049531
153	0xbe1d016c	-0.15332574
154	0xbe21fdc9	-0.15819468
155	0x3e118ec4	0.14214617
156	0x3d2d9c9f	0.042385694
157	0x3d90bb48	0.07066971
158	0xbd7db8b7	-0.061943736
159	0x3caf6a8c	0.02141311
160	0x3e15a6aa	0.14614359
161	0x3cd28a80	0.025700808
162	0x3e1abb92	0.15110615
163	0x3d71b549	0.059010778
164	0x3cbdf968	0.023190215
165	0x3b2523a7	0.0025198252
166	0xbda7b061	-0.081879385
167	0xbe1a2d36	-0.15056309
168	0xbe3d3b1f	-0.18479584
169	0x3e164e25	0.14678247
170	0x3b6fda22	0.0036598523
171	0xbe0e57bd	-0.13900657
172	0x3e0ac9ab	0.13553493
173	0xbdd1854b	-0.10230502
174	0x3e013441	0.1261759
175	0x3d8506fc	0.06495473
176	0xbdb399a3	-0.08769538
177	0xbe177936	-0.14792332
178	0xbd335de1	-0.0437907
179	0xbdd7cf2f	-0.10537564
180	0xbd9eae8e	-0.077481374
181	0xbdf716df	-0.12064909
182	0x3bb159c8	0.005412314
183	0xbd5e5a01	-0.054285053
184	0xbdd1ab88	-0.10237795
185	0x3c630a6b	0.013857464
186	0xbd8c676f	-0.06855666
187	0xbb7544e5	-0.0037425098
188	0xbdb4d647	-0.08829933
189	0xbddaa001	-0.106750496
190	0xbd7276e1	-0.059195403
191	0xbde53224	-0.11191204
192	0xbe084fda	-0.13311711
193	0x3d9a6291	0.07538331
194	0xbd2f7eb3	-0.04284544
195	0xbe19a3b9	-0.15003861
196	0xbdffc81f	-0.12489342
197	0x3dc05429	0.09391052
198	0xbd3cc0bd	-0.046082247
199	0xbdbf8567	-0.09351616
200	0x3e179550	0.14803052
201	0xbd8e6878	-0.069535196
202	0x3ccb98eb	0.02485319
203	0xbda570e5	-0.080781735
204	0xbd9b15c0	-0.07572508
205	0xbdb43714	-0.08799568
206	0x3e3746a3	0.1789804
207	0xbe3d4e2e	-0.18486854
208	0x3dc33162	0.095309034
209	0x3e08c954	0.1335805
210	0xbdd6337a	-0.10459037
211	0xbde02c44	-0.10945943
212	0xbe1f890f	-0.15579627
213	0x3e26404c	0.16235465
214	0x3e2ee5b5	0.17079814
215	0x3e32a362	0.17445138
216	0xbc1a59ee	-0.009420855
217	0xbe1a1b5b	-0.15049498
218	0xbdcd7d25	-0.10033635
219	0xbde5337d	-0.11191461
220	0x3e1334ec	0.14375657
221	0xbe051540	-0.12996387
222	0xbe1713e5	-0.14753683
223	0xbdd4fb59	-0.10399503
224	0x3df2f4ad	0.118630745
225	0xbd236b35	-0.039897162
226	0xbde8a8a9	-0.11360294
227	0x3e31fe6d	0.17382212
228	0xbe565538	-0.20930946
229	0x3d990181	0.0747099
230	0xbe2b4b5e	-0.16727969
231	0xbe0b2642	-0.13588813
232	0xbd8ec5c9	-0.06971318
233	0xbe40b1c8	-0.18817818
234	0xbd36c7b6	-0.044624053
235	0x3d8a08f4	0.06739989
236	0x3e290e68	0.16509402
237	0x3e1c1128	0.1524092
238	0xbe2847df	-0.16433667
239	0x3d972b03	0.07381251
240	0xbe583c0d	-0.21116658
241	0xbda214c2	-0.079141155
242	0xbd1f4d8b	-0.03889231
243	0x3e5cce97	0.21563183
244	0x3e4813be	0.19538781
245	0x3d891891	0.06694139
246	0x3d405c29	0.04696289
247	0xbd96a4e8	-0.07355672
248	0x3de83a1c	0.113392085
249	0x3e8f91eb	0.28041014
250	0xbdaa2525	-0.08307866
251	0xbde9097a	-0.11378761
252	0x3de29ee3	0.110654615
253	0x3d918108	0.07104689
254	0xbdacee3b	-0.08443876
255	0x3dcf5113	0.101228856

conv_layer2.bias f4 [32]
0	0xbca1d8ac	-0.019756638
1	0xbde5a4aa	-0.11213048
2	0x3d87d703	0.06632807
3	0xbd161890	-0.03664452
4	0xbe221484	-0.15828139
5	0x3d8bb2e7	0.06821232
6	0x3cbe0230	0.023194402
7	0x3dc125ad	0.09431014
8	0xbdd0580d	-0.10173044
9	0x3b79662c	0.0038055284
10	0x3c605482	0.013692023
11	0xba246d9c	-0.00062724366
12	0x3dff6853	0.1247107
13	0xbd213c09	-0.039363895
14	0x3d65de26	0.05612006
15	0xbe2207d9	-0.15823306
16	0xbd8a298f	-0.06746208
17	0xbde866c1	-0.11347724
18	0x3dfb11b3	0.12259235
19	0xbde438a1	-0.111436136
20	0xbd849097	-0.06472891
21	0x3d820858	0.06349248
22	0xbda4ed15	-0.08053032
23	0x3da0eaad	0.07857261
24	0x3da193b2	0.07889499
25	0x3ddbfd38	0.10741657
26	0x3dad8a28	0.08473617
27	0xbda96a16	-0.082721874
28	0x3dd1f473	0.10251703
29	0xbab48a16	-0.0013774063
30	0xbd759635	-0.0599577
31	0xbe1ace2d	-0.15117712

fc1.weight f4 [120, 1152]
0	0xbc13d237	-0.009022287
1	0xbbe298d4	-0.006915191
2	0x3cbc34e3	0.022974437
3	0x3c262812	0.010141389
4	0x3ca5a340	0.020219445
5	0x3cceb770	0.025233954
6	0xbd0bbb93	-0.03411443
7	0x3b4e27ee	0.0031456905
8	0xbcdff634	-0.027339078
9	0x39a841f6	0.00032092602
10	0xbb5103c7	-0.003189312
11	0xbc905a73	-0.017621255
12	0x3bb02c82	0.0053763995
13	0x3bbbc87b	0.0057306862
14	0x3b9bd054	0.0047550593
15	0xbc5f1406	-0.013615614
16	0xbcaf9653	-0.021433985
17	0xbc6a1578	-0.014287345
18	0x3ad5519c	0.0016274932
19	0xbc89a56b	-0.01680251
20	0x3cc3ea00	0.02391529
21	0xba525ebb	-0.000802498
22	0x3c032910	0.0080053955
23	0xbb0089ca	-0.0019613379
24	0xbbb9ea94	-0.005673716
25	0xbbb716f2	-0.005587452
26	0x3c83b4ab	0.01607736
27	0x3b18cd40	0.0023315698
28	0xb99dcba7	-0.00030097106
29	0x3bd12f3d	0.006383805
30	0x3c89ea41	0.016835334
31	0xbc369d3e	-0.011145888
32	0x3c8315c4	0.01600159
33	0xbca29e13	-0.019850766
34	0xbc16d772	-0.00920664
35	0x3c8fecee	0.017569032
36	0x3b0fb568	0.0021928195
37	0x3bb29cb7	0.005450811
38	0x3c1e86d3	0.009675699
39	0x3c3d0bf1	0.011538492
40	0x3c80ef05	0.015738973
41	0x3c85cf3e	0.016334172
42	0xbccf7d6f	-0.025328366
43	0xbc57cf0a	-0.013171921
44	0xbc3eeb90	-0.011652842
45	0x3c38b70b	0.01127411
46	0xbc38e004	-0.011283878
47	0xbc89500b	-0.0167618
48	0x3c6bd66c	0.014394384
49	0xba019119	-0.00049425807
50	0x3bf024ae	0.0073285913
51	0x3c65eebb	0.014033969
52	0x3b935da3	0.0044972464
53	0xbc94ad4c	-0.01814904
54	0x3b22bfd6	0.0024833581
55	0xba07779f	-0.0005167666
56	0xbc9154dc	-0.01774066
57	0xbad50b29	-0.0016253936
58	0xbcdf2679	-0.027240025
59	0xbc3c543e	-0.011494694
60	0xbba1a6ed	-0.004933229
61	0xbc8fe011	-0.017562898
62	0x3c92294b	0.017841956
63	0xbb340494	-0.002746855
64	0xbc7ed827	-0.015554464
65	0xbc566331	-0.0130851725
66	0x3beb07de	0.0071725687
67	0xbbcd55be	-0.006266325
68	0xbaff986a	-0.0019500379
69	0x3c74068b	0.014894138
70	0x3c4edfdf	0.012626617
71	0xbc8345d2	-0.016024504
72	0x3c3c04ac	0.011475723
73	0xbc8df9d0	-0.017331034
74	0xbc8bbd25	-0.017057965
75	0x3bd52b0e	0.0065053767
76	0xbc3670d1	-0.011135296
77	0xbbaafed0	-0.0052183643
78	0x3b5e3351	0.0033905099
79	0xbc917fb9	-0.017761098
80	0xbc065338	-0.008198552
81	0xbc15b0f3	-0.009136426
82	0xbc8d6919	-0.017262029
83	0xbc9a5e47	-0.018843783
84	0x3c02580b	0.007955561
85	0x3b6bf126	0.003600189
86	0xbcbd8ae5	-0.02313752
87	0x3c0879dc	0.008329835
88	0xbc9c84f7	-0.019106371
89	0x3c48abcc	0.012247991
90	0x3adbb14c	0.0016761213
91	0x3a8f7981	0.0010946245
92	0x3c80d337	0.015725715
93	0xbc1e7028	-0.009670295
94	0xbc51a1a0	-0.012794882
95	0x3c92f232	0.017937753
96	0xbc5d3bcc	-0.013503026
97	0x3b2f705b	0.002676985
98	0x3c74c014	0.014938373
99	0xbb796048	-0.0038051773
100	0x3ca04e85	0.019568691
101	0x3a3e28b3	0.00072539895
102	0x3c810d51	0.01575342
103	0xbcbcb21f	-0.023034154
104	0xbb8826e5	-0.004155027
105	0x3c8d21af	0.017227976
106	0xbb468c0b	-0.0030295874
107	0x3bf53426	0.007483023
108	0x3c8b1545	0.016977916
109	0xbcd9999f	-0.02656251
110	0x3c6bdcfb	0.014395948
111	0xbcbc7823	-0.023006504
112	0x3c146bd9	0.009058916
113	0xbcbda691	-0.023150714
114	0x3bb6c240	0.0055773556
115	0xb78a6b4e	-1.650085e-05
116	0x3bab4aa9	0.005227406
117	0xbc647fc5	-0.013946478
118	0xbc8c127a	-0.017098654
119	0xbc37f0c9	-0.011226841
120	0xbc82914c	-0.015938424
121	0xbcd31470	-0.025766581
122	0x3ca02a01	0.019551279
123	0x3c2d634a	0.010582754
124	0x3c809cd4	0.015699781
125	0x3c87d7fd	0.016582483
126	0xbc280075	-0.010254015
127	0xbc6a5b47	-0.014303989
128	0xbcd5113a	-0.02600919
129	0x3b84ac47	0.0040488574
130	0xbc16922c	-0.0091901235
131	0xbc41ec72	-0.011836158
132	0x3991cdee	0.00027809985
133	0xbc16290a	-0.009165058
134	0x3bb3af3d	0.0054835365
135	0xbb5bbb29	-0.0033528304
136	0xbcd29c66	-0.025709342
137	0xbbb580a6	-0.0055390177
138	0xbcb0e445	-0.021593222
139	0x3c93ae10	0.018027335
140	0x3c8d307c	0.017235033
141	0xbcc78818	-0.024356887
142	0x3a2bb0f6	0.00065495016
143	0x3c00f92b	0.007871906
144	0xbce9e935	-0.028553585
145	0x3c3fbf75	0.011703362
146	0xbc723376	-0.014782777
147	0xb9acef95	-0.000329849
148	0x3bac99a0	0.005267337
149	0xbc0625eb	-0.008187751
150	0xbcc24a07	-0.02371694
151	0x3b466ed9	0.0030278473
152	0x3bb75f39	0.005596068
153	0xbc7be744	-0.015374962
154	0xbbc82f92	-0.0061091864
155	0xbbd49bee	-0.006488315
156	0xbc09e4db	-0.00841638
157	0x3c335b98	0.010947131
158	0xbc4fdd1b	-0.012686993
159	0x3ba39c89	0.0049930257
160	0x3c9c535e	0.019082721
161	0xbcc7968e	-0.024363782
162	0xbc727f73	-0.014800894
163	0xbc449e0e	-0.012000574
164	0xb879ee85	-5.9588365e-05
165	0x393795dc	0.00017508067
166	0x3c0e62f9	0.008690589
167	0xbc87d992	-0.016583238
168	0xbb83468b	-0.004006212
169	0x3be0eb05	0.006863954
170	0xbcc22b99	-0.02370243
171	0xb9eaef76	-0.0004481037
172	0x3b73121e	0.0037089656
173	0xb7da22d1	-2.6003838e-05
174	0xbc8e9d9b	-0.017409137
175	0xbc4d8090	-0.012542859
176	0x3c8568ac	0.016285263
177	0x3c6ca9d0	0.014444783
178	0xbba9e459	-0.005184692
179	0x3b8e90e1	0.004350767
180	0x3c51905f	0.012790768
181	0x3c460a34	0.012087394
182	0xbc113f01	-0.008865119
183	0x3c97e6d5	0.018542686
184	0x3c4356cf	0.011922552
185	0x3a678fe5	0.00088333926
186	0xbc9580c4	-0.018249877
187	0xbcc404e5	-0.023928115
188	0xbcb4d5df	-0.022074638
189	0x3c99de1b	0.018782666
190	0x3c423702	0.011853935
191	0xbc869c8f	-0.016432075
192	0xbc844171	-0.016144486
193	0xbac88a19	-0.0015299945
194	0xbbe90817	-0.00711156
195	0xbc4d4f56	-0.012531122
196	0xbc62ce3a	-0.013843114
197	0xbcca590c	-0.024700664
198	0xbc7ef2f9	-0.015560859
199	0x3c401baf	0.01172535
200	0xbad26154	-0.0016050735
201	0x3ae99813	0.0017821811
202	0xbc158e83	-0.009128216
203	0x3b059e18	0.002038842
204	0x3c372e06	0.011180406
205	0x3c0c363a	0.0085578505
206	0xbcb512bb	-0.022103658
207	0xbc9a10f0	-0.018806905
208	0x3c83164d	0.016001845
209	0xbc95c7a4	-0.018283673
210	0x39c6278d	0.0003779497
211	0x3cafa737	0.021442039
212	0xbc95d8fb	-0.01829194
213	0x3a67d81d	0.0008844154
214	0x3c82cdae	0.015967216
215	0x3c97f5ff	0.018549917
216	0xb9ee3479	-0.00045433993
217	0x3c64e492	0.013970511
218	0xbc55ada1	-0.013041885
219	0xbc7c8d60	-0.015414566
220	0x39f9e05c	0.00047660142
221	0x3c34eee7	0.011043287
222	0xbbc200e0	-0.0059205145
223	0x3bb4bdbf	0.0055157836
224	0xbc60cf33	-0.013721275
225	0x3bc7d2c8	0.006098125
226	0xbcc45a40	-0.023968816
227	0x3bd6a256	0.0065501137
228	0xbb5d419b	-0.0033761028
229	0xbbd02193	-0.0063516586
230	0x394f4fbb	0.0001977076
231	0x3b3d70f7	0.0028906444
232	0xbca74c20	-0.020422041
233	0x3adb7958	0.0016744537
234	0xbcc60fc7	-0.024177445
235	0x3c2d205c	0.010566797
236	0xba264ff3	-0.0006344311
237	0x3be66f6d	0.007032326
238	0xbc654108	-0.013992555
239	0x3bfdc5b8	0.007744517
240	0xbaf3d085	-0.0018601572
241	0x3c883feb	0.016632041
242	0xbc85358c	-0.016260885
243	0x3c87044e	0.016481545
244	0x3c908727	0.01764257
245	0x3c8c329c	0.017113976
246	0xbc037005	-0.008022313
247	0xbb7dedc4	-0.0038746456
248	0x3cb96710	0.022632152
249	0x3b2af949	0.0026088527
250	0x3bdb338c	0.0066894945
251	0x3ca1db91	0.019758018
252	0x3c46314f	0.012096717
253	0x3c199580	0.0093740225
254	0xbca62e34	-0.020285703
255	0x3cb6ee76	0.022330504

fc1.bias f4 [120]
0	0xbb0e1215	-0.0021678258
1	0xbb40c7fe	-0.002941608
2	0x3cae6581	0.021288635
3	0x3c8d5f5a	0.017257381
4	0x3c958451	0.01825157
5	0x3c504226	0.0127110835
6	0xbb098afc	-0.0020987382
7	0xbc896e2e	-0.01677617
8	0xbb64734c	-0.0034858761
9	0x3c594012	0.013259904
10	0xbc073799	-0.008253002
11	0x3cbb9ca9	0.02290185
12	0xbac9f84b	-0.001540908
13	0xbc1780e1	-0.009247036
14	0xbc801b39	-0.01563798
15	0xbbb09772	-0.0053891474
16	0xbc6ef3b0	-0.014584467
17	0x3c8d9f79	0.017287957
18	0x395b8bee	0.00020937595
19	0x3ca17234	0.019707777
20	0xbc876dbe	-0.016531821
21	0x3c4ce579	0.012505882
22	0x3bd640ce	0.006538487
23	0x3c313310	0.010815397
24	0xbbf9bd48	-0.007621441
25	0x3ca7d0fe	0.020485397
26	0xbbd265db	-0.0064208335
27	0xbc8dcd8c	-0.017309926
28	0x3c17d479	0.009266966
29	0xbbbd7f10	-0.0057829693
30	0x3a027c7e	0.0004977657
31	0x3ca81ea7	0.020522429
32	0xbbc80f4f	-0.0061053406
33	0xbb9cc72b	-0.004784485
34	0xbc978ab2	-0.018498752
35	0x3c7c33fb	0.0153932525
36	0x39b606de	0.00034718862
37	0x3c7923b1	0.015206263
38	0xbcb08bfa	-0.021551121
39	0x3b7021e8	0.0036641303
40	0xbb747599	-0.003730154
41	0xbc88ffd4	-0.01672355
42	0x3cc12eb3	0.023581838
43	0xbb83223b	-0.0040018833
44	0x3c3346a3	0.010942134
45	0x3c224776	0.009904733
46	0x3c9a12e9	0.018807845
47	0xbb3b1979	-0.0028549118
48	0x3b10dced	0.0022104338
49	0x3c9dac31	0.019247146
50	0x3c5e9130	0.01358442
51	0xbbcdb3eb	-0.0062775514
52	0xbc97f952	-0.018551502
53	0xbc415552	-0.011800127
54	0x3c945a79	0.018109547
55	0xbc1dcbf1	-0.009631143
56	0x3b7d29cf	0.0038629656
57	0xbc5128e3	-0.012766096
58	0x3c6a98f9	0.014318698
59	0xbca36276	-0.01994441
60	0x3cb8b4ef	0.022547213
61	0x3cb5425d	0.022126371
62	0x3af5d2bb	0.0018754819
63	0xbc191635	-0.0093436735
64	0x3a69c09f	0.00089169474
65	0x3c92b2a1	0.017907443
66	0xbc4abe81	-0.012374521
67	0x3c929e5f	0.017897783
68	0x3c3656c5	0.011129086
69	0xbc379000	-0.011203766
70	0x3bb207f3	0.0054330765
71	0xbbfe764e	-0.007765568
72	0x3c56722e	0.013088746
73	0x3c622f61	0.013805241
74	0x3c9bf40d	0.01903727
75	0xbc347529	-0.011014261
76	0xbcad8cbb	-0.02118527
77	0x3c392e3d	0.011302528
78	0x3c9ba73a	0.019000638
79	0x3c69f3a6	0.014279282
80	0x3c03f346	0.008053606
81	0x3caa3e12	0.02078155
82	0xbca827c3	-0.020526772
83	0xbc8d8123	-0.017273491
84	0xbc043321	-0.008068831
85	0x3cb8cdfb	0.022559157
86	0x3be55360	0.0069984645
87	0xbc18852c	-0.009309094
88	0x3bff3454	0.0077882204
89	0x3c1045d3	0.00880571
90	0xbc83e018	-0.016098067
91	0x3ccaf51e	0.024775084
92	0xbc83c9cb	-0.016087433
93	0xbbaad856	-0.0052137775
94	0x3c07af07	0.008281476
95	0xbcb0ba17	-0.02157311
96	0x3b38a213	0.0028172776
97	0xbca947f8	-0.0206642
98	0x3c951440	0.018198133
99	0x3ccd94e8	0.025095418
100	0x3aff1d6c	0.0019463724
101	0xbc7d7e8a	-0.015472064
102	0x3ca94ce0	0.02066654
103	0x3bf5a88a	0.007496898
104	0x3c790c6a	0.015200714
105	0xbc67c84f	-0.014146878
106	0x3c59622a	0.013268033
107	0x3ca4b717	0.020106835
108	0xbbba787a	-0.0056906315
109	0x3c43433c	0.011917885
110	0xbc7b6f01	-0.01534629
111	0x3bfd8420	0.007736698
112	0xbc93aaa9	-0.018025713
113	0xbc0919d6	-0.008367976
114	0x3bfabeb0	0.0076521263
115	0x3bbd790d	0.0057822526
116	0x3accba3f	0.001561947
117	0xbc0bfebd	-0.008544621
118	0x3c017dac	0.007903498
119	0xbc935e3c	-0.01798927

fc2.weight f4 [80, 120]
0	0xbd3539ee	-0.0442447
1	0xbd5cc960	-0.053902984
2	0x3db86340	0.090033054
3	0xbd6958d3	-0.056969475
4	0x3d2eb7d5	0.042655785
5	0xbd7ac4d6	-0.061222874
6	0x3d33d11a	0.043900587
7	0xbd1a0dc2	-0.037610777
8	0xbcbfd98b	-0.023419162
9	0xbc3b48b8	-0.011430912
10	0xbcfbd9be	-0.030743476
11	0x3d7be778	0.061500043
12	0x3d98bf3f	0.07458352
13	0x3c9ca31b	0.019120743
14	0x3d069303	0.032855045
15	0x3ba49f61	0.0050238823
16	0x3d511cad	0.051052738
17	0x3d53ec74	0.05173917
18	0x3c5fd875	0.013662447
19	0xbd07d21f	-0.03315937
20	0x3cae0e15	0.02124695
21	0x3dc00ee6	0.09377842
22	0xbd10c16a	-0.035340704
23	0xbca3cc55	-0.019994894
24	0x3d9c0239	0.076176114
25	0xbd67753a	-0.05650828
26	0xbd2a38ed	-0.041558195
27	0x3cafb3ef	0.021448104
28	0x3c2814b6	0.010258844
29	0xbd5dbba1	-0.054134015
30	0xbc9ce4df	-0.019152103
31	0x3d5acbc0	0.053416967
32	0x3dbb0c90	0.091332555
33	0x3d917f65	0.07104377
34	0x3ab106e8	0.0013506087
35	0xbd5537c8	-0.05205515
36	0xbbae16ff	-0.0053128
37	0x3da6db4d	0.08147297
38	0x3de89484	0.11356452
39	0xbd386a56	-0.045023285
40	0x3c892134	0.016739465
41	0x3cd0f04a	0.025505204
42	0xbcaffa1a	-0.021481562
43	0xbd3ff0e3	-0.046860587
44	0x3d337bb3	0.04381914
45	0xbd9af761	-0.07566715
46	0xbb2d810d	-0.0026474625
47	0x3d23efd4	0.04002364
48	0x3d685f28	0.056731373
49	0x3cccdace	0.025006678
50	0x3d8211be	0.0635104
51	0xbda159df	-0.0787847
52	0xbd423662	-0.047415145
53	0xbc88732d	-0.016656483
54	0x3d45695c	0.04819618
55	0x3c8bcad2	0.017064486
56	0xbd6a1ed8	-0.05715832
57	0xbd046ce1	-0.032330398
58	0xbca51c84	-0.020155199
59	0x3d2c47b4	0.04206057
60	0xbda0d867	-0.078537755
61	0x3db1b987	0.08677965
62	0x3c820b30	0.015874475
63	0x3c169e03	0.009192946
64	0x3d830cf0	0.06398952
65	0xbd1dc852	-0.03852112
66	0xbd11db9f	-0.035609838
67	0xbc82fa07	-0.015988363
68	0xbd86edfe	-0.06588362
69	0x3d363ed5	0.044493515
70	0x3d5b6894	0.05356653
71	0x3d643c61	0.055721644
72	0xbd1db654	-0.03850396
73	0x3d55c6e7	0.05219164
74	0x3d9c9325	0.07645253
75	0x3d42a243	0.047518026
76	0x3bb1a553	0.0054213195
77	0xbc0c3136	-0.008556655
78	0x3d157e68	0.036497504
79	0x3c9ef8d8	0.019405767
80	0xbc81fb6b	-0.015866956
81	0x3d99b8e8	0.07505971
82	0x3da9212c	0.0825828
83	0xbd159b87	-0.036525276
84	0xbd5da2c0	-0.05411029
85	0x3d9d325a	0.076756194
86	0xbd2fcc02	-0.042919166
87	0xbd5e18ed	-0.05422299
88	0xbd949f73	-0.07256975
89	0x3cbcbfe4	0.02304072
90	0xbb40bca5	-0.0029409316
91	0xbb9521db	-0.004551155
92	0xbd17e0a9	-0.037079487
93	0xbbfc2910	-0.0076953247
94	0x3d854067	0.065064244
95	0xbcf1c746	-0.029513966
96	0xbc7df264	-0.015499685
97	0xbc6fa7be	-0.014627395
98	0xbaf3e5a6	-0.0018607869
99	0x3d815a3a	0.063160375
100	0x3d4dfe7e	0.05029153
101	0xbd08f820	-0.033439755
102	0x3cdaab67	0.02669306
103	0x3d45fd20	0.048337102
104	0x3d52437b	0.051333886
105	0x3dadcb62	0.08486058
106	0x3d362bab	0.04447524
107	0xbd0ec152	-0.034852333
108	0x3d4ef7ce	0.050529294
109	0x3d85b757	0.0652911
110	0x3be35048	0.0069370605
111	0xbcc43982	-0.023953203
112	0xbbbab807	-0.0056982073
113	0x3b87d729	0.004145522
114	0x3d5ac0e8	0.053406626
115	0x3cbb74e3	0.022882884
116	0x3d239fcf	0.039947327
117	0xbd71ff78	-0.059081525
118	0xbd373188	-0.04472497
119	0x3d497f39	0.049193595
120	0x3c5dd5ee	0.013539774
121	0x3ca18e1d	0.019721085
122	0xbd77efae	-0.06053131
123	0x3d956650	0.07294905
124	0x3d111e27	0.035429146
125	0xbdb2cb93	-0.08730235
126	0x3cc8627d	0.024461025
127	0x3cb3f1ff	0.021965979
128	0x39c0ee6e	0.00036798738
129	0xbcd726b5	-0.026263574
130	0xbd374a13	-0.044748377
131	0x3cdd4ccb	0.027014157
132	0x3d9a4078	0.07531828
133	0x3d8bd45b	0.06827613
134	0xbd87b605	-0.06626514
135	0x3bec6297	0.0072139013
136	0xbd940f3d	-0.07229469
137	0x3d4ba082	0.04971362
138	0xbc919488	-0.01777102
139	0x3d2f6f66	0.042830847
140	0xbcf2ceb2	-0.029639576
141	0xbd238f75	-0.039931733
142	0xbcb1a5d5	-0.02168552
143	0xbcfa1647	-0.0305282
144	0x3d8cef95	0.06881634
145	0xbd493807	-0.049125697
146	0x3d36abd8	0.044597477
147	0xbd0aad2c	-0.033856556
148	0x3c16ad17	0.009196541
149	0x3d8b746a	0.068093136
150	0xbda3d5f5	-0.079997934
151	0x3c19653d	0.009362516
152	0x3d2aa363	0.041659724
153	0x3d05539a	0.03255043
154	0xbbe603d4	-0.0070194993
155	0x3daa0aeb	0.08302864
156	0x3c351b15	0.01105382
157	0x3d83ef12	0.064420834
158	0x3db81919	0.08989162
159	0x3b6f80f9	0.003654538
160	0x3c41e59f	0.011834531
161	0x3d5eea2c	0.054422542
162	0x3dcdcc70	0.10048759
163	0x3d0c4959	0.034249637
164	0x3a2088e1	0.0006123912
165	0xbd840bac	-0.06447539
166	0x3d70274c	0.058631226
167	0xbd3f71a1	-0.046739224
168	0x3cc566d0	0.024096876
169	0x3dc02ea3	0.09383895
170	0xbccd2a82	-0.025044683
171	0xbd8b5f49	-0.068052836
172	0x3d2094bb	0.03920434
173	0x3d308271	0.04309315
174	0x3c960365	0.018312166
175	0x3c09d1ae	0.008411808
176	0xbc9a8758	-0.018863365
177	0x3d6f1fc4	0.058379903
178	0xbd3e8ea9	-0.04652277
179	0x3d97032e	0.07373653
180	0xbcd9cc5a	-0.0265867
181	0x3db385a3	0.087657236
182	0xbdb48a3f	-0.08815431
183	0xbd875fff	-0.06610107
184	0xbad52443	-0.0016261417
185	0xbd50c22f	-0.050966438
186	0x3d2b3b64	0.041804686
187	0x3c14adff	0.009074687
188	0xbd8bfccc	-0.068353266
189	0xbd1f5521	-0.038899545
190	0x3c41c1a7	0.0118259555
191	0x3d14c10d	0.03631692
192	0xbd8751be	-0.06607388
193	0x3dd11f5a	0.10211058
194	0x3c94be5f	0.018157182
195	0x3c2cae23	0.010539564
196	0xbdb46075	-0.0880746
197	0xbd24f67e	-0.040274136
198	0xbd9097c0	-0.07060194
199	0x3dadaebf	0.08480596
200	0x3d8d41e3	0.068973325
201	0xbd19fe48	-0.037596017
202	0x3d7874f5	0.060658414
203	0x3daa92c7	0.08328777
204	0xbd4f1d4b	-0.050565045
205	0xbc849201	-0.016182901
206	0xbd2bbd74	-0.041928723
207	0xbd6b57df	-0.057456847
208	0x3d47a860	0.04874456
209	0x3c88902a	0.016670305
210	0xbd24d7ab	-0.04024474
211	0x3c8a257f	0.016863583
212	0xbc853754	-0.016261734
213	0x3d583911	0.052788798
214	0x3d18925f	0.037248965
215	0xbc80d95d	-0.015728647
216	0x3d8ed884	0.06974891
217	0xbc9c73bc	-0.019098155
218	0xbc2871e8	-0.010281064
219	0x3cf28714	0.029605426
220	0x3ccc03ba	0.02490412
221	0x3c2ad264	0.010426138
222	0x3d4edbc4	0.050502554
223	0x3cf2bc2a	0.02963074
224	0x3d1c022e	0.038088016
225	0x3d70fdaf	0.05883568
226	0x3d762daa	0.060102142
227	0x3c851387	0.016244663
228	0x3d8e2553	0.06940713
229	0x3d6ec25d	0.058290828
230	0xbd44298e	-0.047891192
231	0xbd2dcae2	-0.042429812
232	0xbd329f9a	-0.04360924
233	0xbd8a10a8	-0.06741458
234	0xbda90cef	-0.0825442
235	0xbd3f0533	-0.046635818
236	0x3ccff4a4	0.025385208
237	0xbd3234c2	-0.043507345
238	0xbd874516	-0.06604974
239	0x3d087cb7	0.033322062
240	0xbd13d4b2	-0.036091514
241	0x3cd8daff	0.026471613
242	0x3d94e552	0.07270302
243	0xbd2f2ffe	-0.04277038
244	0x3db57886	0.08860879
245	0x3d222edd	0.039595474
246	0x3cb97f74	0.022643782
247	0xbcec2f0a	-0.028831024
248	0xbd7a7561	-0.061147097
249	0xbd88644e	-0.066597566
250	0x3d9e3b09	0.07726104
251	0xbd5fa698	-0.054602236
252	0x3d6f48f6	0.05841919
253	0xbd936fe2	-0.07199074
254	0xbc72609d	-0.014793542
255	0xbcd82cef	-0.026388614

fc2.bias f4 [80]
0	0xbc887e80	-0.016661882
1	0xbb432c03	-0.0029780872
2	0xbd04fed8	-0.0324696
3	0xbbdc6b48	-0.006726656
4	0x3d4552d3	0.04817469
5	0x3d2a8c88	0.041637927
6	0xbc3ea651	-0.011636333
7	0x3b573f52	0.0032844138
8	0xbd21897d	-0.03943776
9	0x3d856aa0	0.06514478
10	0x3d427634	0.04747601
11	0x3d4a09e6	0.049325846
12	0x3b20a367	0.0024511458
13	0x3da09899	0.07841606
14	0xbd9544bc	-0.07288501
15	0xbd60b167	-0.054856684
16	0xbce00d8f	-0.027350215
17	0xbd04525d	-0.03230511
18	0x3cf3631b	0.029710343
19	0xbc1ce6b5	-0.009576489
20	0xbbd2ada7	-0.0064293924
21	0xbd83cfd4	-0.064361244
22	0x3d8e755b	0.069559775
23	0xbccb43bc	-0.024812572
24	0xbd364772	-0.04450173
25	0xbc7c1479	-0.01538574
26	0xbcc0d742	-0.023540143
27	0xbd916136	-0.0709862
28	0x3c9e1b81	0.019300224
29	0xbd79682d	-0.060890365
30	0x3aae69cf	0.001330668
31	0x3ce7e9df	0.02830976
32	0x3d683c9f	0.056698438
33	0x3d002d5b	0.031293254
34	0x3beecbce	0.007287479
35	0xbd7e785f	-0.062126514
36	0xbd5e3c5e	-0.05425679
37	0x3d36dd2d	0.044644523
38	0x3b8cf671	0.004301839
39	0x3d675ca1	0.056484822
40	0xbd26aed8	-0.040694088
41	0x3d8493c0	0.064734936
42	0xbcf1bee4	-0.029509969
43	0x3d96a0e6	0.07354908
44	0x3d90b94b	0.07066592
45	0xbd7ddad7	-0.06197628
46	0xbcff5761	-0.031169595
47	0x3c904a00	0.017613411
48	0x3d5dc0b0	0.05413884
49	0xbc0f2ff9	-0.008739465
50	0x3d834f2f	0.064115874
51	0x3c61be13	0.013778227
52	0xbd650134	-0.05590935
53	0xbd94926d	-0.07254491
54	0x3d0f1837	0.034935202
55	0x3d746ff5	0.059677083
56	0x3d189d07	0.037259128
57	0xbbc0d1c1	-0.0058843796
58	0x3c752d93	0.014964479
59	0x3c9abf7b	0.018890133
60	0xbcde70b4	-0.02715335
61	0x3d3a18d1	0.045433823
62	0x3d8c1908	0.06840712
63	0xbd83cd09	-0.06435592
64	0x3d292cff	0.041302677
65	0xbd340828	-0.04395309
66	0xb8f511d9	-0.00011685835
67	0x3d178605	0.036993045
68	0xbd69624d	-0.056978513
69	0x3d6f77fc	0.058464035
70	0xbbc7be71	-0.0060957004
71	0x3d9414aa	0.07230504
72	0xbd701897	-0.0586172
73	0x3cab750e	0.02092984
74	0xbd3a6888	-0.045509845
75	0x3d0f295b	0.03495155
76	0xba0095a0	-0.00049051084
77	0x3c9fc24f	0.019501833
78	0xbd896e00	-0.06710434
79	0x3bbe488c	0.005806988

fc3.weight f4 [15, 80]
0	0x3d8f40ed	0.069948055
1	0x3d124eb3	0.035719585
2	0xbccd6bc1	-0.025075795
3	0xbd3dfae0	-0.04638183
4	0x3df41894	0.119187504
5	0xbd60f75d	-0.054923404
6	0x3d2572d7	0.040392723
7	0xbd7a98d4	-0.061180905
8	0xbda51ae2	-0.08061768
9	0xbd94e981	-0.072711
10	0x3d242308	0.04007247
11	0x3bbdf40a	0.005796914
12	0xbd542ea0	-0.051802278
13	0x3d32b09c	0.04362546
14	0xbdca0fae	-0.09866272
15	0x3d4d98ec	0.050194666
16	0xbc6af1df	-0.014339893
17	0x3df51b27	0.119680695
18	0xbd4741a3	-0.04864658
19	0x3dc277c9	0.094955035
20	0x3af1b6ec	0.0018441356
21	0x3df2269c	0.118237704
22	0x3dc551ad	0.09634719
23	0xbc97405f	-0.018463312
24	0x3cb74b66	0.02237482
25	0x3c21e51d	0.009881285
26	0x3e0b6ed3	0.13616495
27	0x3d26789d	0.04064237
28	0x3dc178e8	0.09446889
29	0x3d07fc96	0.03319987
30	0xbc8b347b	-0.016992798
31	0xbbe5669b	-0.007000757
32	0x3dd28116	0.102785274
33	0xbdb4c6cd	-0.08826981
34	0x3ddc0652	0.10743393
35	0xbc966c29	-0.018362122
36	0x3daec6c3	0.085340045
37	0x3cd86701	0.026416304
38	0x3d773e41	0.060362104
39	0x3d62b086	0.055344127
40	0xbd531a07	-0.051538493
41	0xbd9ba95d	-0.07600663
42	0x3d2016fc	0.03908442
43	0xbde72ed5	-0.112882294
44	0xbda6fd9b	-0.0815384
45	0xbd870767	-0.06593209
46	0x3d2b2fb8	0.041793555
47	0x3dbadd6e	0.091242656
48	0xbbbab316	-0.0056976182
49	0xbcdd7d3e	-0.02703726
50	0x3dfa76ef	0.12229716
51	0x3d2d8777	0.042365517
52	0xbd41e601	-0.04733849
53	0x3bd9f39f	0.0066513564
54	0xbd32b31b	-0.04362784
55	0x3c2effec	0.010681134
56	0x3d47fb20	0.048823476
57	0x3d621177	0.055192437
58	0x3c7c0570	0.015382156
59	0x3d768958	0.060189575
60	0xbdc04fe4	-0.09390238
61	0x3d1f66c6	0.03891637
62	0x3c2d9220	0.010593921
63	0xbd517478	-0.051136464
64	0x3c0cac18	0.008585952
65	0xbdc5ad3c	-0.096521825
66	0x3c2f1e33	0.010688352
67	0x3e004bed	0.12528963
68	0xbd8feafd	-0.07027242
69	0x3de2dde5	0.11077479
70	0xbdad5ad9	-0.084645934
71	0xbda0f419	-0.07859058
72	0x3da2eced	0.07955346
73	0xbcd5aef4	-0.0260844
74	0xbdaaced0	-0.083402276
75	0x3d63f521	0.055653695
76	0xbcd8e325	-0.026475498
77	0xbda0aa41	-0.07844973
78	0xbd2fe5be	-0.04294371
79	0x3d04b965	0.03240337
80	0x3b868a76	0.0041058613
81	0xbda83d7c	-0.08214852
82	0xbdaf02a2	-0.08545424
83	0xbdb4dfd2	-0.08831753
84	0xbd5049f3	-0.050851773
85	0xbd53c287	-0.051699188
86	0x3c695221	0.014240772
87	0xbd3e41a7	-0.04644933
88	0x3db265d8	0.087108314
89	0x3c0bc25d	0.008530227
90	0x3d819e53	0.06329026
91	0x3d8a7eaa	0.067624405
92	0xbd0c7f8a	-0.03430132
93	0xbdcf009c	-0.10107538
94	0x3d112a4a	0.03544072
95	0x3ca5b5e2	0.02022833
96	0x3d760cee	0.060070924
97	0x3c93fbcc	0.018064402
98	0xbda10cb7	-0.07863753
99	0x3dac3a3f	0.08409547
100	0x3b7d5ea7	0.0038661154
101	0x3ce7f536	0.028315168
102	0x3d36f76d	0.044669557
103	0x3ded699d	0.1159241
104	0xbdc3d13c	-0.09561393
105	0xbcb2f477	-0.021845086
106	0xbdbc326c	-0.09189305
107	0xbd8c5a02	-0.06853105
108	0xbbd41e31	-0.0064733257
109	0x3dfa2e61	0.12215877
110	0xbd70b183	-0.05876304
111	0xbc077b8a	-0.0082692
112	0xbd96cab2	-0.0736288
113	0xbdcab73a	-0.09898229
114	0x3c38c398	0.011277102
115	0xbd85cf58	-0.06533688
116	0xbb7a2e80	-0.0038174689
117	0xbd865f2e	-0.06561123
118	0x3cd177c1	0.025569798
119	0xbd803090	-0.062592626
120	0xbd879623	-0.06620433
121	0x3dd50773	0.104018115
122	0x3c557b06	0.013029819
123	0xbc2ffce7	-0.010741449
124	0xbc0a75e3	-0.008450958
125	0x3b6f9741	0.003655866
126	0x3d9d7a65	0.076893605
127	0xbd92a918	-0.07161158
128	0xbd7a4256	-0.06109842
129	0xbd045729	-0.032309685
130	0xba327020	-0.0006806869
131	0xbd86abf9	-0.0657577
132	0xbdb16854	-0.08662477
133	0x3d7ea231	0.062166397
134	0xbd99b9b8	-0.07506126
135	0xbd490495	-0.049076635
136	0x3dbffad2	0.09374012
137	0x3d93b199	0.072116084
138	0x3cf1be93	0.029509818
139	0x3e164c21	0.14677478
140	0x3cac8071	0.02105734
141	0x3da96751	0.08271659
142	0x3dada372	0.0847844
143	0xbc95cc38	-0.018285856
144	0xbb5d615b	-0.0033779952
145	0xbd8191f2	-0.06326665
146	0xbc2e53fd	-0.010640142
147	0xbcc8bcec	-0.024504147
148	0xbcb99b59	-0.022657083
149	0x3dedee42	0.1161771
150	0xbc86c85e	-0.016452964
151	0xbdbca74c	-0.09211597
152	0x3d466893	0.048439573
153	0xba5d1ffb	-0.00084352464
154	0x3d7711f4	0.060319856
155	0x3ddcb53d	0.10776756
156	0xbdc1b483	-0.09458258
157	0xbdd2eed8	-0.10299462
158	0x3c7dce49	0.015491077
159	0xbc3b995a	-0.011450136
160	0xbd3ca06c	-0.046051428
161	0x3d5d5d15	0.054043848
162	0xbdb3ebf3	-0.08785238
163	0x3dd3d076	0.10342495
164	0xbd68dcce	-0.0568512
165	0x3ca52ba5	0.020162413
166	0x3cbbab3a	0.022908796
167	0xbb39a65c	-0.0028327918
168	0x3bc6b42a	0.0060639577
169	0xbcd6808f	-0.026184348
170	0x3d26cdcf	0.040723618
171	0x3d4e9367	0.050433543
172	0xbc2a392d	-0.010389608
173	0x3d5691c4	0.052385107
174	0x3cb0523f	0.021523593
175	0x3daadb05	0.08342556
176	0xbc63a15e	-0.013893453
177	0xbc07a87f	-0.008279919
178	0x3dc305eb	0.09522613
179	0x3d3bfdfa	0.045896508
180	0xbd9cd7d4	-0.076583534
181	0x3d24a706	0.04019835
182	0x3c434372	0.011917936
183	0x3de5e6ea	0.11225684
184	0x3daccf38	0.08437961
185	0xbd19ab59	-0.037516925
186	0xbd83f3ef	-0.06443011
187	0xbdbdc871	-0.09266747
188	0xbb9e27fc	-0.004826544
189	0xbd9b53be	-0.07584332
190	0xbd9a8f34	-0.07546845
191	0x3d487403	0.048938762
192	0x3d457ee7	0.048216727
193	0x3cdf2470	0.027239054
194	0x3df2671f	0.11836075
195	0x3d6edeeb	0.05831806
196	0x3ce840f9	0.028351294
197	0x3dbc112b	0.09182962
198	0xbc351e50	-0.01105459
199	0xbd8918e3	-0.066942
200	0xbdbaf45b	-0.09128638
201	0x3aaa19ad	0.0012977623
202	0x3d673e56	0.056455933
203	0xbd85408d	-0.06506453
204	0x3d0d287f	0.03446245
205	0x3d8ca48d	0.06867323
206	0x3b518412	0.003196959
207	0x3d270c42	0.040783174
208	0xbc61b604	-0.013776306
209	0xbdb5fb9b	-0.088858806
210	0xbc26b4d1	-0.010174946
211	0x3ddd98fc	0.10820195
212	0x3dc21afd	0.09477804
213	0xbc44378e	-0.011976136
214	0xbd2e9e21	-0.042631272
215	0xbd0c088f	-0.03418785
216	0x3d12efb2	0.035873123
217	0xbd577c98	-0.052609056
218	0x3dd480fd	0.10376165
219	0x3d83f0ab	0.06442388
220	0x3d9ffb1b	0.078115664
221	0xbcc6bf59	-0.024261164
222	0xbd910065	-0.070801534
223	0x3d59e082	0.053192623
224	0x3c7a0ee8	0.015262343
225	0xbd682887	-0.056679275
226	0x3dd71a81	0.10503102
227	0xbd205ed4	-0.039152935
228	0x3d9ba668	0.07600099
229	0xbdc506e0	-0.09620452
230	0xbd9dc293	-0.07703128
231	0xbb1cb2ad	-0.002391021
232	0xbcf13507	-0.02944423
233	0x3dc5e1dd	0.096622206
234	0xbdb3d3a4	-0.087806016
235	0xbd994469	-0.07483751
236	0x3d6dc86a	0.058052458
237	0x3c255796	0.010091683
238	0x3ae3aafa	0.001736968
239	0xbdab3875	-0.08360378
240	0x3c1ddd03	0.009635213
241	0x3db6c92b	0.089250885
242	0xbd6a0060	-0.057129264
243	0x3d209487	0.039204147
244	0x3a87c95c	0.0010359692
245	0x3e0fbcff	0.1403694
246	0x3dd1da62	0.10246731
247	0x3c062ba2	0.008189114
248	0x3dd573e6	0.104224965
249	0xbbe6a1b8	-0.0070383213
250	0xbdb4523e	-0.08804749
251	0xbddebe70	-0.10876167
252	0xbd9237f2	-0.07139577
253	0x3dbb80ce	0.09155427
254	0x3d0c9b1c	0.03432761
255	0xbd9c08a8	-0.076188385

fc3.bias f4 [15]
0	0x3ce1b43a	0.027551759
1	0x3cabaa16	0.020955127
2	0x3cb1ecf8	0.02171944
3	0x3d6127a6	0.054969452
4	0x3d5bef45	0.053694982
5	0x3d920dd4	0.07131544
6	0x3d98ee5a	0.07467337
7	0xbcabe3c9	-0.02098264
8	0xbc497986	-0.01229704
9	0x3ccd8195	0.025086204
10	0xbbd14aa2	-0.0063870708
11	0xbd8dd2f3	-0.06925001
12	0x3d95718c	0.07297048
13	0xbd98dc9b	-0.07463952
14	0xbcd890b4	-0.026436187
