outfiles/ORL64_cnn.pth (torch, 613695 bytes, 10 tensors)

conv_layer1.weight f4 [16, 1, 5, 5]
-0.06715332 -0.06841224 0.20695934 0.12453919 0.19185835 -0.13438244 0.12796533 -0.13589169
-0.08081694 0.0016122535 0.09123198 0.110863164 -0.048576865 -0.2553852 -0.15900658 -0.022398863
0.11113788 0.08810916 -0.008939852 -0.2980548 0.1252734 0.14992212 -0.10488591 0.08306049
-0.11518853 -0.07057944 -0.028709954 -0.08621145 -0.074248515 -0.2042067 -0.029940384 0.13711546
0.008722129 -0.13432047 0.1902023 0.16328028 0.11296226 -0.15768567 0.096374355 0.13281722
-0.10309413 -0.09213844 0.16023111 0.011878539 -0.13334103 -0.08273323 -0.15916035 -0.1333894
-0.025573496 0.14106168 0.1726985 0.11504946 0.16641948 -0.07962041 -0.056954388 -0.14995702
-0.16450745 -0.041502785 -0.11041029 -0.053089514 0.17886339 0.061299033 -0.11253965 -0.043522462
-0.05543773 -0.060312655 0.035767913 0.024338242 0.045137808 0.13434277 0.010266263 -0.16321586
-0.13262962 -0.065355 -0.1551128 0.092521735 -0.02764928 0.040992446 -0.011551872 -0.1521628
0.07921001 0.19231309 0.15613665 -0.02228414 0.20488368 0.03160642 0.10651138 0.19316852
0.1267334 0.038186263 0.25957286 0.16761583 0.22851634 0.14564523 0.2138713 -0.026830109
0.25634813 0.087742746 0.21535327 -0.019346481 0.02140546 0.06279209 -0.12552094 -0.10938237
0.13730897 0.1827321 -0.12957662 -0.09463523 0.1396824 -0.13842039 -0.0746274 -0.027931543
-0.031422548 0.0232108 0.07616608 -0.13967577 0.07771282 0.13211311 0.034137614 -0.170035
-0.19542052 -0.16720341 -0.061305996 -0.048912983 0.037555456 -0.15773997 0.06684592 -0.14235894
0.042394966 -0.07878154 -0.01765118 -0.21884422 0.13030346 -0.14920366 -0.010790684 -0.1213925
-0.075291544 -0.03882637 0.11071333 0.23919357 0.18036954 -0.08358768 0.21741852 0.24535745
-0.09100668 -0.10139716 -0.02007726 0.044297304 0.038674418 -0.0049459236 -0.10525202 0.07590271
-0.19691116 0.012230063 -0.037023984 -0.044937488 -0.060020562 0.03133131 0.14332198 0.013341183
-0.106301405 -0.1680761 -0.07414717 -0.06422056 -0.116506666 0.13238686 -0.018293822 0.02356599
0.18130744 0.18007307 -0.09180129 -0.20020275 0.019353712 0.11979748 -0.15964586 -0.042804677
-0.20549998 -0.12648977 -0.20858029 -0.1683929 -0.12877414 0.037264895 0.12259652 0.14086372
-0.04176767 -0.0013834687 0.14048563 -0.050359603 -0.036121584 0.22186664 0.15964499 -0.1129796
0.122016385 -0.062051967 0.17700058 0.14021905 -0.055021398 0.09207253 -0.11889631 -0.08140061
0.17412993 0.18108729 0.0052422634 -0.1754777 -0.14066526 0.16558303 -0.08336436 0.11887104
-0.014067366 0.076306514 0.009833014 -0.08181087 -0.1562516 0.10667788 0.07235493 0.0027996073
-0.10496416 -0.11730463 -0.14449716 -0.093426086 0.056153636 0.17446722 0.04657923 -0.1425314
-0.1587074 0.2388097 -0.037998233 -0.21057826 -0.24425457 0.036293007 0.3432635 -0.09071202
0.09423439 -0.10192441 0.05714391 0.3862758 0.16609083 0.07840169 -0.29047987 -0.27725917
0.34466958 0.15937832 0.06017708 0.048607916 -0.3304233 0.3554414 -0.09684383 -0.21018709
-0.27880073 -0.2554216 0.04740279 0.1333202 -0.09575546 0.099213004 -0.0023336262 -0.05988193
00000000: ae87 89bd b71b 8cbd 26ed 533e 670e ff3d
00000010: 8476 443e 8d9b 09be 5809 033e 3127 0bbe
00000020: 5a83 a5bd 4052 d33a d5d7 ba3d 3a0c e33d
00000030: 89f8 46bd d9c1 82be 9fd2 22be d27d b7bc
00000040: 429c e33d 9372 b43d 7578 12bc a49a 98be
00000050: ac47 003e 2f85 193e 6dce d6bd 9e1b aa3d
00000060: f7e7 ebbd f48b 90bd 2331 ebbc a18f b0bd
00000070: 9b0f 98bd 901b 51be 8945 f5bc ff67 0c3e
00000080: 43e7 0e3c 4e8b 09be 64c4 423e f232 273e
00000090: c258 e73d 5a78 21be eb5f c53d 3d01 083e
000000a0: 0423 d3bd 14b3 bcbd a013 243e 349e 423c
000000b0: 8d8a 08be 0a70 a9bd eefa 22be 3b97 08be
000000c0: 827f d1bc 7972 103e e0d7 303e 0d9f eb3d
000000d0: de69 2a3e 0710 a3bd 0149 69bd 558e 19be
000000e0: a474 28be d3fe 29bd ca1e e2bd 6474 59bd
000000f0: f727 373e b214 7b3d 307b e6bd 9c44 32bd
00000100: ac12 63bd 670a 77bd 6081 123d fe60 c73c
00000110: 6ce2 383d 2791 093e d433 283c 0f22 27be
00000120: 0fd0 07be d8d8 85bd e4d5 1ebe 097c bd3d
00000130: be80 e2bc b2e7 273d 1044 3dbc 91d0 1bbe
00000140: dc38 a23d b9ed 443e 49e2 1f3e 3b8d b6bc
00000150: 07cd 513e bc75 013d a322 da3d f8cd 453e
00000160: 67c6 013e 3369 1c3d bce6 843e 7ca3 2b3e
00000170: 3000 6a3e 0624 153e 1401 5b3e d1ca dbbc
00000180: 1040 833e 78b2 b33d 9185 5c3e 837c 9ebc
00000190: 815a af3c 2499 803d 9088 00be dd03 e0bd
000001a0: b99a 0c3e 201e 3b3e bcaf 04be 1ed0 c1bd
000001b0: e708 0f3e 13be 0dbe 40d6 98bd b1d0 e4bc
000001c0: eeb4 00bd 9324 be3c f6fc 9b3d 2a07 0fbe
000001d0: e627 9f3d a948 073e e2d3 0b3d a81d 2ebe
000001e0: 511c 48be 5f37 2bbe ff1b 7bbd fb58 48bd
000001f0: c0d3 193d 9686 21be 84e6 883d 8bc6 11be
00000200: 58a6 2d3d 3758 a1bd 3599 90bc b318 60be
00000210: 456e 053e d8c8 18be 69cb 30bc a29c f8bd
00000220: 7432 9abd 6608 1fbd acbd e23d 29ef 743e
00000230: cbb2 383e 0430 abbd f6a2 5e3e fc3e 7b3e
00000240: b661 babd 50a9 cfbd 1179 a4bc 1771 353d
00000250: 1169 1e3d 6a11 a2bb 5f8e d7bd e172 9b3d
00000260: 14a3 49be 9a60 483c 76a6 17bd 5f10 38bd
00000270: 1fd8 75bd 4255 003d ffc2 123e fa94 5a3c
00000280: 8db4 d9bd 241c 2cbe 79da 97bd 1286 83bd
00000290: 0c9b eebd 6c90 073e eddc 95bc 770d c13c
000002a0: a8a8 393e 1365 383e 5102 bcbd f301 4dbe
000002b0: ad8b 9e3c 6258 f53d 347a 23be f553 2fbd
000002c0: 966e 52be 8986 01be 1296 55be 306f 2cbe
000002d0: 5edd 03be 13a3 183d e213 fb3d 943e 103e
000002e0: 9414 2bbd 8255 b5ba 77db 0f3e df45 4ebd
000002f0: 3af4 13bd 0231 633e fa79 233e d961 e7bd
00000300: bae3 f93d 342a 7ebd a43f 353e 9595 0f3e
00000310: 1e5e 61bd 8690 bc3d e97f f3bd 5db5 a6bd
00000320: 1e4f 323e f26e 393e 4bc7 ab3b 6db0 33be
00000330: 8e0a 10be 998e 293e efba aabd a972 f33d
00000340: cf7a 66bc 9746 9c3d a61a 213c 758c a7bd
00000350: 6b00 20be ef79 da3d d22e 943d 9e79 373b
00000360: 73f7 d6bd 693d f0bd 10f7 13be 2d56 bfbd
00000370: 5b01 663d 89a7 323e ddc9 3e3d c0f3 11be
00000380: 3184 22be 888a 743e 09a4 1bbd d4a1 57be
00000390: df1d 7abe faa7 143d 3cc0 af3e 39c7 b9bd
000003a0: f6fd c03d bfbd d0bd bc0f 6a3d f1c5 c53e
000003b0: b713 2a3e 1191 a03d c7b9 94be eaf4 8dbe
000003c0: 8878 b03e 1234 233e 3e7c 763d 1819 473d
000003d0: 3e2d a9be 6afc b53e 0f56 c6bd 493b 57be
000003e0: f8be 8ebe 9fc6 82be 6e29 423d 1785 083e
000003f0: 701b c4bd 3030 cb3d c0ef 18bb c146 75bd

conv_layer1.bias f4 [16]
0.07950909 0.15701701 -0.0069547207 -0.1135603 0.043709848 -0.00013871204 0.17686842 -0.19063379
0.18030208 -0.1951452 -0.16090685 -0.014860034 -0.18174875 -0.043976877 0.17523888 0.120397985
00000000: a9d5 a23d 11c9 203e 6de4 e3bb 4d92 e8bd
00000010: 1909 333d 3b73 11b9 ff1c 353e 8135 43be
00000020: 1ca1 383e 25d4 47be c4c4 24be 8077 73bc
00000030: 581c 3abe 1921 34bd d271 333e 3893 f63d

conv_layer2.weight f4 [32, 1, 5, 5]
-0.0705097 0.027425937 0.2216583 0.05887237 0.056918234 0.11553518 -0.20209001 0.18810055
0.07131018 -0.07986523 0.1239409 0.06284025 0.21340369 0.10092685 0.07752642 0.017781712
-0.021670323 -0.004240683 0.03353297 0.085049465 -0.09273571 0.109594256 0.04791403 0.11964075
0.1523395 -0.11493178 0.17724612 0.14674439 0.22401911 -0.019122709 -0.14866316 -0.20369017
0.10839474 0.21625014 0.07055813 -0.029440938 0.15151608 0.02124938 -0.19691959 -0.08667466
0.20448408 -0.020600552 0.029614488 -0.023927942 -0.1518591 0.098581165 -0.13112633 0.16489895
-0.15193042 0.13923666 -0.1172641 0.072971575 -0.1894239 -0.16738407 -0.012528234 0.025588538
-0.07644932 0.065414175 0.18743488 -0.040873736 -0.17291367 0.004849369 0.16143076 0.08374904
-0.07602637 -0.08932971 0.10151632 0.061735198 0.08231251 0.030586945 0.090963185 0.1338574
0.03985294 0.19921751 -0.18472926 -0.16344193 -0.17234287 0.028860837 -0.16121228 -0.12066407
-0.051550116 -0.15294206 0.1888275 0.099712804 0.096924655 0.16788846 -0.09839933 0.040857643
0.053969853 0.12297765 -0.021235641 0.15087642 0.037714504 0.044567876 -0.078131236 0.0059557827
-0.02215443 -0.18550268 0.09265189 -0.039044175 -0.034387514 -0.1070102 0.10145122 0.13694462
0.1770226 0.13723986 0.18357904 -0.17864257 0.11028641 0.08266265 -0.06572008 0.11069536
0.03914662 -0.051482998 -0.17157948 0.15957414 -0.056689665 -0.010700065 -0.15462284 -0.17444396
-0.030847972 -0.17135215 -0.17544882 -0.18710247 0.19514912 0.06956037 8.6406195e-05 -0.06479546
-0.009100449 -0.006242007 0.18727219 0.017655153 -0.037905246 -0.022189885 -0.10966859 0.023287224
0.13535875 -0.10728448 0.13437732 0.070107736 -0.03151667 -0.15998097 0.084369555 -0.15034832
-0.13884622 0.07580826 -0.14156191 0.15985173 -0.0011426945 -0.1261105 0.027641503 -0.061242763
0.21602173 -0.040499177 -0.26833686 0.29449928 0.15942529 0.1775812 -0.05317848 -0.08092142
0.0042131846 0.0813787 0.17355402 0.02813024 -0.08244951 0.0010054352 0.029174808 0.01562996
0.12527178 -0.2574697 -0.006585288 0.13639008 -0.16130327 -0.31625542 -0.18669857 -0.12714449
0.07409815 -0.0481511 0.22018367 0.14288871 0.1012652 -0.1150797 -0.015515389 -0.0192212
-0.021653708 0.02095001 0.1506398 -0.25120825 -0.086184055 0.011078243 0.15756543 0.11820584
-0.10245411 0.106256105 0.2551504 -0.17971852 -0.27481213 -0.14615117 0.0011763972 0.096138686
0.07349854 -0.044356376 0.019002816 0.18692115 -0.12918513 -0.1289012 -0.10628219 0.0991778
0.028263835 0.09630109 -0.02141881 -0.054469064 0.09855423 0.16367115 0.17746918 0.11182687
0.042370394 -0.05482608 -0.12238693 -0.052917052 0.010164837 -0.123262 0.16598713 0.04566392
-0.044071272 0.16928437 0.13860886 0.036323678 -0.1660707 -0.09071248 -0.17674616 0.15163626
-0.13726723 -0.1709054 -0.08417898 0.055887207 -0.14311282 -0.08374979 0.036014467 -0.08089047
0.05414574 0.14353597 -0.053084224 -0.07227707 -0.045101892 0.098252155 -0.004027248 -0.14412653
-0.103350975 0.050643746 0.11694623 0.06923294 0.1123001 0.0021214653 0.1012994 0.012951807
00000000: 6467 90bd 5cac e03c 65fa 623e 2724 713d
00000010: 1823 693d b59d ec3d aff0 4ebe 6e9d 403e
00000020: 120b 923d 6290 a3bd bad4 fd3d 64b2 803d
00000030: 7f86 5a3e bdb2 ce3d 2cc6 9e3d f4aa 913c
00000040: f685 b1bc 6df5 8abb de59 093d 6a2e ae3d
00000050: 38ec bdbd f472 e03d 8041 443d 3606 f53d
00000060: e3fe 1b3e 5a61 ebbd 0280 353e 2944 163e
00000070: 4465 653e 3aa7 9cbc 283b 18be 2894 50be
00000080: 10fe dd3d ad70 5d3e c880 903d 1f2e f1bc
00000090: 0827 1b3e 2e13 ae3c 4aa5 49be 7c82 b1bd
000000a0: 4664 513e 7dc2 a8bc 159a f23c 8804 c4bc
000000b0: f480 1bbe ece4 c93d fb45 06be 45db 283e
000000c0: a693 1bbe 0e94 0e3e 2928 f0bd 1f72 953d
000000d0: 57f8 41be bb66 2bbe 3943 4dbc 0e9f d13c
000000e0: 7691 9cbd def7 853d eeee 3f3e 386b 27bd
000000f0: 4810 31be 75e7 9e3b 1b4e 253e 9e84 ab3d
00000100: b7b3 9bbd 7ff2 b6bd cae7 cf3d 0cde 7c3d
00000110: 7693 a83d 7991 fa3c e84a ba3d ea11 093e
00000120: d63c 233d adff 4b3e ab29 3dbe 525d 27be
00000130: a67a 30be 906d ec3c d514 25be b91e f7bd
00000140: 3726 53bd d89c 1cbe ff5b 413e 3a36 cc3d
00000150: 6f80 c63d f4ea 2b3e 9785 c9bd 585a 273d
00000160: 7e0f 5d3d b5db fb3d 5ef6 adbc 597f 1a3e
00000170: 867a 1a3d ce8c 363d 4503 a0bd ba28 c33b
00000180: 357d b5bc 6af4 3dbe 46c0 bd3d c9ec 1fbd
00000190: ecd9 0cbd 2a28 dbbd a8c5 cf3d 363b 0c3e
000001a0: 6a45 353e 9b88 0c3e 25fc 3b3e 14ee 36be
000001b0: d7dd e13d 094b a93d 4098 86bd 40b4 e23d
000001c0: 3558 203d d6df 52bd 88b2 2fbe 6767 233e
000001d0: 6c33 68bd 534f 2fbc 7355 1ebe 70a1 32be
000001e0: e3b4 fcbc f076 2fbe dba8 33be ca97 3fbe
000001f0: 2cd5 473e ab75 8e3d f934 b538 7bb3 84bd
00000200: 0d1a 15bc c089 ccbb 48c4 3f3e 8aa1 903c
00000210: 8842 1bbd 90c7 b5bc ed99 e0bd d9c4 be3c
00000220: 7c9b 0a3e f7b7 dbbd 359a 093e a594 8f3d
00000230: a017 01bd 0dd2 23be f2c9 ac3d e9f4 19be
00000240: b42d 0ebe 5c41 9b3d 9bf5 10be 2cb0 233e
00000250: 77c6 95ba 1c23 01be 6f70 e23c b1d9 7abd
00000260: cd34 5d3e 77e2 25bd 7363 89be 9cc8 963e
00000270: 6240 233e d9d7 353e aed1 59bd 21ba a5bd
00000280: c10e 8a3b e0a9 a63d 25b8 313e 6471 e63c
00000290: 4adb a8bd cfc8 833a 0200 ef3c 670a 803c
000002a0: 3f47 003e 12d3 83be 66c9 d7bb d7a9 0b3e
000002b0: af2c 25be 3bec a1be e92d 3fbe 2a32 02be
000002c0: c5c0 973d 163a 45bd d477 613e 6b51 123e
000002d0: 2164 cf3d e8ae ebbd 4234 7ebc c775 9dbc
000002e0: 1e63 b1bc 5b9f ab3c 5241 1a3e 5e9e 80be
000002f0: 4481 b0bd 8581 353c d558 213e e715 f23d
00000300: 76d3 d1bd cd9c d93d 13a3 823e 2208 38be
00000310: 2db4 8cbe a7a8 15be 5731 9a3a 5ce4 c43d
00000320: 6786 963d 08af 35bd cbab 9b3c 4268 3f3e
00000330: 1b49 04be adfe 03be 7aaa d9bd bb1d cb3d
00000340: 8f89 e73c 8239 c53d 8076 afbc f41a 5fbd
00000350: cdd6 c93d 6999 273e 7bba 353e 7c05 e53d
00000360: 948c 2d3d 5091 60bd 00a6 fabd 8dbf 58bd
00000370: 6b8a 263c ca70 fcbd 88f8 293e 170a 3b3d
00000380: 1484 34bd e258 2d3e 7bef 0d3e 23c8 143d
00000390: 700e 2abe 77c7 b9bd f2fc 34be 8946 1b3e
000003a0: c88f 0cbe d301 2fbe 0766 acbd fce9 643d
000003b0: 2b8c 12be 0385 abbd e883 133d e7a9 a5bd
000003c0: ecc7 5d3d 18fb 123e d86e 59bd 0006 94bd
000003d0: c3bc 38bd 6d38 c93d 01f7 83bb e895 13be
000003e0: ada9 d3bd d16f 4f3d 8181 ef3d 00ca 8d3d
000003f0: 98fd e53d 4808 0b3b 0f76 cf3d d133 543c

conv_layer2.bias f4 [32]
0.14050105 -0.18957102 -0.11369424 -0.089986585 -0.15014933 -0.13688849 0.18971191 0.13317591
-0.05604723 0.087046266 -0.051696785 -0.13633677 0.08157096 -0.012781972 -0.1284018 0.11246578
0.18152492 0.014188925 0.055572767 -0.015960269 0.1542325 -0.042668324 -0.18258184 -0.043045968
0.14669634 -0.018494636 -0.033019613 -0.07835381 -0.1571672 -0.06627844 -0.13209158 -0.042690434
00000000: 82df 0f3e e81e 42be 87d8 e8bd e34a b8bd
00000010: bfc0 19be 7f2c 0cbe d743 423e 445f 083e
00000020: c891 65bd 5045 b23d 02c0 53bd de9b 0bbe
00000030: ad0e a73d 7a6b 51bc c37b 03be 7554 e63d
00000040: abe1 393e aa78 683c 45a0 633d 1cbf 82bc
00000050: 20ef 1d3e fbc4 2ebd bcf6 3abe f850 30bd
00000060: 9137 163e 1082 97bc 933f 07bd f677 a0bd
00000070: 70f0 20be febc 87bd 0443 07be 2adc 2ebd

fc1.weight f4 [120, 1152]
-0.01782654 0.010931382 -0.017189251 -0.029239163 0.021912409 -0.027183449 0.00263918 -0.027960662
0.011011401 -0.0058169886 -0.018801875 -0.00013370998 -0.028921379 0.025971109 -0.029150324 0.0012365077
-0.018420983 0.011874339 0.016596751 0.010467498 0.014760351 0.0043236446 0.028400017 0.0293749
0.010917982 0.013362022 0.019420626 -0.0063323677 0.024662344 0.013577314 -0.008174557 -0.02804197
0.027995301 0.004707424 -0.007997153 -0.028405817 -0.017578302 0.026657341 -0.010212328 -0.007471295
-0.022690672 -0.002136182 -0.01607394 0.02312517 -0.008441588 0.011574307 -0.0052784644 -0.027173927
-0.0074951854 0.022161512 -0.003042942 0.006989429 0.013001995 -0.015001538 -0.0032140724 0.026193364
0.0016939901 -0.016563512 0.0261031 0.0037631076 0.0033070724 0.012765983 0.019951189 0.005772842
0.0017880369 -0.0046649985 -0.025916455 -0.011182817 0.0011286568 -0.010429462 0.009012109 0.019914499
-0.0065382123 0.02529923 -0.027846552 0.021654518 -0.017245721 -0.007928029 -0.010472449 0.01913852
2.3696572e-05 0.023598814 -0.028893689 0.024569256 -0.008823166 -0.02605647 -0.0014217142 -0.026886873
0.0022730809 -0.020810628 -0.026052965 0.00017076172 0.008403132 0.02479476 0.015283944 0.014383839
0.02737482 -0.024544006 0.01647704 0.012968423 0.022975793 -0.0076482054 -0.020264938 0.013557108
0.0031657275 -0.0075536706 -0.0075987577 0.013403228 0.0024807546 -0.005767625 0.00047534332 0.020908179
0.011061372 -0.0007413775 0.00036326796 0.0012764316 -0.009716924 0.008315837 0.0039019492 -0.0036773365
-0.023961885 -0.02545427 0.0050043184 0.026837235 0.0071976166 0.023941798 0.017222611 -0.007371353
0.029062612 -0.027311744 -0.004256947 0.007572582 -0.021553643 0.017168945 -0.013776645 0.0032122042
-0.013009941 -0.019699328 -0.020547282 -0.023040969 -0.0121857 -0.01623238 -0.016278535 0.0067568254
0.008560779 0.023526853 0.00084012374 -0.0074626096 -0.015146671 -0.008176981 -0.013956655 -0.021538462
-0.0057667606 0.026996104 -0.008594807 -0.02538856 0.008195424 0.016793953 0.01865617 0.009124817
0.011898918 -0.014194135 0.0014707427 -0.011549579 -0.0026457012 0.0191708 0.0089239385 -0.029347701
0.0064203497 -0.007170096 -0.024329972 0.017291347 -0.023262525 0.02534114 0.008046446 -0.019182278
0.0053499695 -0.016434064 0.020157026 0.018562423 -0.0023214761 -0.016867513 -0.0010871179 -0.017831028
0.023025064 -0.02355596 0.027604626 0.016804786 0.02061894 -0.014804769 -0.023891177 0.00012945756
0.021558737 -0.024986668 -0.011609027 0.027664805 0.0009964742 -0.014820441 0.0003649257 0.025158154
-0.011767983 -0.010949573 -0.016273962 0.014156619 -0.017923187 -0.00066183135 -0.0047991984 -0.0031886157
-0.0097461715 -0.010384589 0.027190013 0.0019524526 0.027110433 -0.021576865 -0.008227967 -0.014250264
-0.00015257858 0.015334783 0.017734239 -0.0017938111 0.005585393 -0.0057542175 0.02881354 0.004834337
-0.028991397 -0.020238716 0.019843152 0.0020363051 0.00071300194 -0.0022053998 -0.010703832 -0.020745032
0.028281974 -0.01300877 -0.028959947 -0.0042843893 0.00022866018 -0.010760466 0.00096393377 -0.0018347092
0.005299365 0.017510572 0.0039754678 0.012725102 -0.02268205 0.027008059 -0.008761838 0.016870616
-0.008822136 -0.012717772 -0.0073495116 -0.028741622 -0.021075413 0.019211942 -0.004111154 0.008969748
00000000: f708 92bc 8a19 333c 79d0 8cbc f886 efbc
00000010: a781 b33c d3af debc 18f6 2c3b c20d e5bc
00000020: 2a69 343c 709c bebb 6406 9abc 8034 0cb9
00000030: 87ec ecbc 5dc1 d43c a9cc eebc 5012 a23a
00000040: 9ae7 96bc 968c 423c e9f5 873c de7f 2b3c
00000050: 66d5 713c 5cad 8d3b 27a7 e83c a1a3 f03c
00000060: 56e1 323c 62ec 5a3c 0118 9f3c c07f cfbb
00000070: af08 ca3c 6273 5e3c 94ee 05bc 46b8 e5bc
00000080: 6756 e53c bc40 9a3b 7e06 03bc 51b3 e8bc
00000090: 5f00 90bc 7f60 da3c 9c51 27bc c4d1 f4bb
000000a0: cae1 b9bc 30ff 0bbb 7fad 83bc ff70 bd3c
000000b0: 964e 0abc 2aa2 3d3c f8f6 acbb db9b debc
000000c0: 2c9a f5bb 0f8c b53c 186c 47bb 9407 e53b
000000d0: 5206 553c 03c9 75bc 30a3 52bb 7793 d63c
000000e0: e008 de3a 34b0 87bc 2bd6 d53c 789e 763b
000000f0: 78bb 583b 6a28 513c ad70 a33c 1c2a bd3b
00000100: 905c ea3a d8dc 98bb bf4e d4bc 2238 37bc
00000110: 70ef 933a 56e0 2abc 86a7 133c bb23 a33c
00000120: 803e d6bb 5540 cf3c 741e e4bc d164 b13c
00000130: e646 8dbc 90e4 01bc a294 2bbc 63c8 9c3c
00000140: 00c8 c637 4d52 c13c 75b2 ecbc 7745 c93c
00000150: 0a8f 10bc 6174 d5bc d058 baba dc41 dcbc
00000160: f8f7 143b 0d7b aabc 076d d5bc 800e 3339
00000170: 4aad 093c 611e cb3c 8269 7a3c 32aa 6b3c
00000180: 2941 e03c 8310 c9bc dbfa 863c 8279 543c
00000190: bb37 bc3c cc9d fabb a802 a6bc a21e 5e3c
000001a0: 1878 4f3b c884 f7bb 00ff f8bb 3699 5b3c
000001b0: 2894 223b 58fe bcbb 8037 f939 a147 ab3c
000001c0: c23a 353c 0059 42ba 0075 be39 f04d a73a
000001d0: bc33 1fbc 263f 083c d8b7 7f3b 78ff 70bb
000001e0: b74b c4bc 7985 d0bc 44fb a33b c3d9 db3c
000001f0: fcd9 eb3b 9721 c43c 6f16 8d3c 648b f1bb
00000200: b714 ee3c e1bc dfbc dc7d 8bbb 6c23 f83b
00000210: 4491 b0bc e3a5 8c3c 70b7 61bc d883 523b
00000220: a627 55bc 7c60 a1bc c652 a8bc 6ac0 bcbc
00000230: 88a6 47bc c5f9 84bc 905a 85bc 5c68 dd3b
00000240: 8242 0c3c 63bb c03c c03b 5c3a e888 f4bb
00000250: be29 78bc bef8 05bc 74aa 64bc 6e71 b0bc
00000260: 18f7 bcbb ef26 dd3c 3cd1 0cbc abfb cfbc
00000270: 1a46 063c 7993 893c d3d4 983c 4280 153c
00000280: aef3 423c 848e 68bc f0c5 c03a 723a 3dbc
00000290: 8063 2dbb 150c 9d3c b635 123c 976a f0bc
000002a0: cc61 d23b 20f3 eabb a64f c7bc 95a6 8d3c
000002b0: 0d91 bebc 3998 cf3c 3ed5 033c 2724 9dbc
000002c0: cc4e af3b bba0 86bc 5920 a53c 3910 983c
000002d0: e823 18bb bd2d 8abc a07d 8eba 6012 92bc
000002e0: 0f9f bc3c 6ef8 c0bc 1923 e23c 31aa 893c
000002f0: 0de9 a83c b48f 72bc 6eb7 c3bc 00bf 0739
00000300: f39b b03c d7b0 ccbc ca33 3ebc 4da1 e23c
00000310: 209c 823a 6fd1 72bc 8053 bf39 7918 ce3c
00000320: 80ce 40bc d665 33bc f950 85bc 2af1 673c
00000330: a6d3 92bc c07e 2dba 9842 9dbb 18f8 50bb
00000340: 68ae 1fbc 2024 2abc 97bd de3c 70e9 ff3a
00000350: b316 de3c f7c1 b0bc 98ce 06bc f079 69bc
00000360: 80fd 1fb9 be3e 7b3c 6547 913c 501e ebba
00000370: ac05 b73b e08d bcbb 5f0a ec3c 5c69 9e3b
00000380: 5e7f edbc aacb a5bc 1b8e a23c 8873 053b
00000390: c0e8 3a3a 7888 10bb 205f 2fbc 7cf1 a9bc
000003a0: 99af e73c bc22 55bc 693d edbc 1064 8cbb
000003b0: 80c4 6f39 aa4c 30bc 80b0 7c3a a07a f0ba
000003c0: 4ca6 ad3b 5572 8f3c a444 823b f27c 503c
000003d0: b5cf b9bc 0140 dd3c d08d 0fbc 3f34 8a3c
000003e0: b88a 10bc 345e 50bc 2cd4 f0bb 8d73 ebbc
000003f0: 58a6 acbc 5d62 9d3c dcb6 86bb daf5 123c

fc1.bias f4 [120]
-0.027365964 -0.024630908 -0.0061659594 -0.02614189 -0.007826942 -0.0066156397 -0.020887636 -0.027945785
0.0031676963 0.017831136 -0.013766874 0.026211636 0.01725902 -0.004886944 0.012380559 0.021509279
-0.027275857 -0.017467638 0.02811843 0.016245518 0.023228705 0.008557049 0.015142174 -0.004885277
0.027427604 0.006979689 0.009511705 0.018827183 -0.029101647 -0.0026205706 0.028830547 0.02771864
-0.02050017 -0.022998065 0.007165032 0.0063526556 0.007262067 -0.007365097 -0.0031745182 0.026586792
-0.024572946 -0.010487121 -0.020983933 -0.014360193 -0.026443053 0.022403987 -0.0112543525 -0.017715026
-0.010296991 -0.027441965 0.016844308 0.011257044 -0.007680083 -0.019214068 -0.01392766 0.0301143
0.0055526025 -0.0095076505 -0.0012534872 -0.013791201 -0.009719086 0.005779365 -0.0049881707 0.010987282
-0.010217867 -0.0052322205 -0.017159624 0.029099701 -0.014249551 0.0025246725 0.005602563 -0.00034543758
-0.014337183 -0.0084970035 0.009046381 0.0048764115 0.025854155 0.015088152 0.005959883 0.010681842
-0.019036833 -0.027939225 0.021112615 0.02392712 -0.016963083 -0.029441085 -0.017433258 0.009355448
-0.011027809 -0.026250646 -0.014337651 0.006958531 0.009870222 0.008868078 0.028444208 0.029214136
-0.019819835 0.0044814856 -6.4903754e-05 -0.018319344 0.026655888 -0.019231904 -0.00367006 -0.022394031
0.025622847 -0.011275978 0.0060888077 -0.00012531118 -0.011911418 -0.009893416 0.011028877 0.025195992
0.00943397 0.0022069607 -0.02908022 -0.00930636 -0.028886734 -0.004973359 -0.0050755725 -0.025872555
00000000: 962e e0bc c2c6 c9bc d10b cabb 8427 d6bc
00000010: 933c 00bc 02c8 d8bb 8c1c abbc 8fee e4bc
00000020: 2099 4f3b 9a12 923c 748e 61bc c9b9 d63c
00000030: ca62 8d3c a822 a0bb d4d7 4a3c 3a34 b03c
00000040: 9e71 dfbc 4b18 8fbc 9f58 e63c 5215 853c
00000050: 204a be3c dd32 0c3c e216 783c ac14 a0bb
00000060: dbaf e03c e0b5 e43b fbd6 1b3c 773b 9a3c
00000070: 9466 eebc e1bd 2bbb 0a2e ec3c 3412 e33c
00000080: f9ef a7bc 7066 bcbc a5c8 ea3b f029 d03b
00000090: a2f6 ed3b e956 f1bb 940b 50bb 8bcc d93c
000000a0: 344d c9bc 2cd2 2bbc 7fe6 abbc 0447 6bbc
000000b0: 1a9f d8bc 9188 b73c 2d64 38bc 1a1f 91bc
000000c0: b6b4 28bc f9cd e0bc 13fd 893c 776f 383c
000000d0: 35a9 fbbb d266 9dbc d730 64bc 44b2 f63c
000000e0: 9bf2 b53b fac5 1bbc 0d4c a4ba 7df4 61bc
000000f0: cd3c 1fbc d460 bd3b cf73 a3bb 0004 343c
00000100: d768 27bc 0c73 abbb 5792 8cbc 7f62 ee3c
00000110: f376 69bc fa74 253b b495 b73b d91b b5b9
00000120: 81e6 6abc 0437 0bbc 4637 143c 4eca 9f3b
00000130: 18cc d33c 4c34 773c 1f4b c33b e502 2f3c
00000140: 22f3 9bbc cde0 e4bc 5df4 ac3c cf02 c43c
00000150: 2af6 8abc 6e2e f1bc 31d0 8ebc 9847 193c
00000160: fcad 34bc 980b d7bc 78e8 6abc 6404 e43b
00000170: b6b6 213c 6a4b 113c d403 e93c 7c52 ef3c
00000180: 355d a2bc 6dd9 923b f01c 88b8 7312 96bc
00000190: 735d da3c 3a8c 9dbc 6485 70bb b073 b7bc
000001a0: 01e7 d13c e1be 38bc 9f84 c73b f765 03b9
000001b0: 1c28 43bc ff17 22bc 77b2 343c d367 ce3c
000001c0: f090 1a3c a8a2 103b a439 eebc b479 18bc
000001d0: dfa3 ecbc 8ff7 a2bb fd50 a6bb aef2 d3bc

fc2.weight f4 [80, 120]
-0.037387114 -0.07264439 0.08457819 -0.017066807 -0.005073904 0.03220912 0.05181349 -0.055972386
-0.045041956 -0.014135899 -0.054026164 0.009772345 0.072938204 -0.007759765 0.024018602 0.0018971873
0.055454373 0.08183341 0.07808319 0.022344364 0.022254096 0.0074974885 -0.031267036 0.035547093
-0.04719483 0.0224049 -0.09131141 0.06244004 0.009281024 0.06842893 0.014837654 0.023669723
0.04410879 -0.0109068435 0.06345778 -0.08761886 -0.037758198 0.011867512 -0.024282113 0.08101579
-0.08092324 0.028073182 -0.06345118 -0.032299377 0.039448902 -0.054575186 -0.06776772 -0.050451323
-0.08312694 0.08110925 0.06181157 0.057521574 0.040020786 0.02923287 -0.00858124 0.0045384397
-0.03310562 -0.09766355 -0.07414916 0.016840078 -0.08215418 -0.039059594 -0.015594312 0.06627722
-0.041326433 -0.07531748 0.026137756 -0.06556192 0.0022986757 0.07488047 0.0555024 -0.031770065
-0.019691905 0.07214424 0.010915001 0.06143628 -0.08551335 -0.004148949 0.026248457 -0.088833176
0.08783575 -0.021291867 -0.091016926 -0.014031737 0.090710655 0.04857692 0.037901834 0.05420138
0.021051856 -0.035654556 0.021613864 0.06129162 -0.06573782 -0.030854486 0.07099993 0.026888423
-0.07583301 -0.08111139 0.07389058 0.019997204 0.017544748 0.064769104 0.06939637 0.02448732
0.031903084 0.030551758 0.012233873 0.064560205 0.08913346 -0.07557989 0.05823223 0.0017498364
-0.03637262 0.0025239903 0.06283326 -0.018036459 -0.013904825 0.056189045 -0.0215284 0.07324612
-0.088895366 0.029461943 0.08255631 -0.096009165 -0.045965776 0.06553345 0.04023755 -0.0076517193
-0.066297516 0.1397071 0.043403022 0.07384676 0.00030484205 -0.089621834 0.049460597 -0.024092512
0.07784976 0.04840009 -0.018429002 -0.072204635 -0.09635293 -0.01767576 0.033983823 0.037050553
-0.008912506 0.010089161 -0.029811399 0.03109817 -0.016095305 -0.009763468 -0.015729498 -0.037386086
-0.147415 0.048886478 -0.019314108 0.09323424 0.0950503 0.053930625 0.072427265 0.005797234
-0.063112415 -0.030403277 0.029324308 0.03731035 -0.023589985 -0.017455887 0.010373274 0.064167336
-0.0066104652 -0.015969379 0.012449822 0.0642475 0.0116045745 0.06746867 -0.014359799 0.030318424
-0.032029994 0.07704458 0.041860048 -0.010262643 0.019859198 0.058089644 -0.01998093 -0.016292224
-0.044800222 -0.03283172 -0.04602233 -0.054895245 0.040408097 0.08680176 -0.06773618 -0.0022126609
0.00078296714 -0.03837361 -0.06411025 0.012102333 0.053034957 0.04772364 -0.015079846 0.047306865
0.088973716 0.07250583 0.009304884 0.067744665 -0.07823794 -0.05468162 0.08866437 -0.032651406
0.00037742726 -0.062870234 -0.05029816 0.03101904 -0.041341174 0.001810126 -0.117647864 0.06626851
-0.050243773 -0.0074530365 0.07222828 0.007771036 -0.078405134 0.032855585 0.05274131 0.08569394
0.0831748 -0.06277489 0.00037635647 -0.060560565 -0.069350034 -0.09163984 0.038255446 -0.06071523
0.047866162 -0.13783659 -0.023950923 -0.017581543 0.08783731 0.07256024 0.022988215 -0.010334777
0.011903167 -0.07049038 -0.0057380795 0.01762346 0.07082146 0.026497295 0.036180586 -0.024118185
0.06723545 0.0115380185 -0.0007632166 0.028978102 0.048546623 0.0152898505 0.01512133 -0.07367019
00000000: 3b23 19bd 95c6 94bd 5537 ad3d b0cf 8bbc
00000010: fe42 a6bb b6ed 033d 623a 543d 4d43 65bd
00000020: ea7d 38bd 429a 67bc 8a4a 5dbd 301c 203c
00000030: a060 953d a045 febb a9c2 c43c 0bab f83a
00000040: 2024 633d 4698 a73d 14ea 9f3d 870b b73c
00000050: 394e b63c 7ead f53b dd11 00bd d499 113d
00000060: 5e4f 41bd 7b8a b73c 7a01 bbbd 21c1 7f3d
00000070: 700f 183c 7824 8c3d a219 733c 02e7 c13c
00000080: 6bab 343d 9eb2 32bc 27f6 813d 8471 b3bd
00000090: 57a8 1abd f46f 423c 48eb c6bc 9beb a53d
000000a0: 15bb a5bd bbf9 e53c b1f2 81bd 5a4c 04bd
000000b0: 2c95 213d 3b8a 5fbd cdc9 8abd 0ca6 4ebd
000000c0: 753e aabd 9b1c a63d 212e 7d3d be9b 6b3d
000000d0: d6ec 233d c679 ef3c 5498 0cbc 31b7 943b
000000e0: c299 07bd d403 c8bd 84db 97bd 34f4 893c
000000f0: 7340 a8bd f4fc 1fbd 497f 7fbc 5abc 873d
00000100: e845 29bd 0d40 9abd d91e d63c 5445 86bd
00000110: 61a5 163b ef5a 993d 7c56 633d 5421 02bd
00000120: eb50 a1bc 5cc0 933d d5d4 323c 9ca4 7b3d
00000130: a021 afbd e8f3 87bb 0107 d73c 2bee b5bd
00000140: 3be3 b33d 486c aebc 1567 babd 5fe5 65bc
00000150: 82c6 b93d 98f8 463d f43e 1b3d 4402 5e3d
00000160: f174 ac3c 830a 12bd 8f0f b13c ec0c 7b3d
00000170: 8da1 86bd 8cc2 fcbc 6968 913d 1c45 dc3c
00000180: 564e 9bbd ba1d a6bd f253 973d 2dd1 a33c
00000190: 01ba 8f3c aaa5 843d af1f 8e3d a299 c83c
000001a0: cfac 023d ae47 fa3c 9570 483c 2438 843d
000001b0: 9a8b b63d a1c9 9abd eb84 6e3d c45a e53a
000001c0: 75fb 14bd 8869 253b b9ae 803d 32c1 93bc
000001d0: 10d1 63bc 7c26 663d 545c b0bc 1002 963d
000001e0: c60e b6bd 2c5a f13c 4813 a93d 74a0 c4bd
000001f0: 9c46 3cbd 6736 863d 21d0 243d 46bb fabb
00000200: fec6 87bd 610f 0f3e 5ec7 313d f83c 973d
00000210: 35d3 9f39 a78b b7bd 3297 4a3d a95d c5bc
00000220: b26f 9f3d 2c3f 463d 6bf8 96bc 06e0 93bd
00000230: af54 c5bd c1cc 90bc 9f32 0b3d 52c2 173d
00000240: c205 12bc 024d 253c 0937 f4bc 97c1 fe3c
00000250: 4dda 83bc f4f6 1fbc 26db 80bc 2722 19bd
00000260: f5f3 16be 303d 483d 9f38 9ebc 98f1 be3d
00000270: bba9 c23d 5ce6 5c3d bf54 943d b9f6 bd3b
00000280: 1541 81bd 4b10 f9bc 8839 f03c bdd2 183d
00000290: c93f c1bc a6ff 8ebc aaf4 293c 2a6a 833d
000002a0: 9a9c d8bb 37d2 82bc 57fa 4b3c 3194 833d
000002b0: 1d21 3e3c 042d 8a3d 5d45 6bbc 585e f83c
000002c0: e231 03bd 8cc9 9d3d 7175 2b3d a524 28bc
000002d0: c2af a23c 68ef 6d3d 0caf a3bc 4577 85bc
000002e0: 7080 37bd 8e7a 06bd e981 3cbd d6d9 60bd
000002f0: f682 253d 1fc5 b13d 44b9 8abd 4a02 11bb
00000300: 0940 4d3a a52d 1dbd 3c4c 83bd dd48 463c
00000310: 2f3b 593d dd79 433d 7511 77bc d8c4 413d
00000320: da37 b63d f07d 943d 8373 183c b7bd 8a3d
00000330: 373b a0bd d6f9 5fbd aa95 b53d 7bbd 05bd
00000340: 6ee1 c539 1cc2 80bd 7205 4ebd a41b fe3c
00000350: 5d55 29bd c041 ed3a 5df1 f0bd c9b7 873d
00000360: 6acc 4dbd 9a38 f4bb 6cec 933d 2da4 fe3b
00000370: df92 a0bd 9493 063d 4607 583d 4e80 af3d
00000380: 8d57 aa3d 1f90 80bd b651 c539 5b0e 78bd
00000390: 6407 8ebd abad bbbd beb1 1c3d 88b0 78bd
000003a0: 4f0f 443d 0925 0dbe ba34 c4bc 2b07 90bc
000003b0: 0ce4 b33d 779a 943d c851 bc3c 3253 29bc
000003c0: 8005 433c 435d 90bd 8006 bcbb 135f 903c
000003d0: d70a 913d db10 d93c 1832 143d 8093 c5bc
000003e0: bdb2 893d f509 3d3c 9912 48ba 7c63 ed3c
000003f0: d3d8 463d 4882 7a3c 74bf 773c 66e0 96bd

fc2.bias f4 [80]
0.005263207 -0.05931318 -0.032140534 0.06477465 0.029803082 0.059108783 -0.03960785 -0.017342076
-0.08605654 0.08690989 0.08817873 -0.0073707686 -0.03191566 0.03390889 -0.000114142545 0.091155745
-0.038555216 -0.0439786 -0.005917374 0.088595085 -0.040121544 0.04550304 0.07008281 0.068980776
-0.086323604 0.027687276 0.08535612 -0.076283745 0.023479208 -0.08042513 0.06269916 -0.004515409
-0.018555121 0.016043799 0.0061088284 -0.032213323 -0.06468578 -0.08895642 0.011895979 -0.07974135
0.0017634592 0.06784361 -0.040758554 0.014696838 -0.031923097 -0.06840487 -0.017263383 -0.036550857
-0.08705729 0.082066745 0.077907436 -0.0055864463 0.09160408 -0.064136334 -0.058934532 -0.042797714
-0.07911688 -0.06909327 -0.035355587 -0.05627434 -0.028762642 0.0040131747 -0.0299225 -0.0646111
0.019624392 0.060231443 0.0368003 0.030723182 0.038926136 0.07208656 -0.049493928 0.059647143
-0.06229764 -0.031747673 -0.061871164 -0.065433756 -0.07667426 0.079517506 0.039548114 0.044489887
00000000: fb76 ac3b 61f2 72bd cba5 03bd 92a8 843d
00000010: 9825 f43c 0d1c 723d d73b 22bd f810 8ebc
00000020: 693e b0bd d0fd b13d 0d97 b43d 7d86 f1bb
00000030: ffb9 02bd 0ce4 0a3d d05f efb8 ddaf ba3d
00000040: 13ec 1dbd e822 34bd 88e6 c1bb 5771 b53d
00000050: 7d56 24bd 6561 3a3d 9487 8f3d cb45 8d3d
00000060: 6eca b0bd 6dd0 e23c 30cf ae3d a73a 9cbd
00000070: 7857 c03c eeb5 a4bd 6b68 803d fff5 93bb
00000080: e900 98bc 496e 833c 912c c83b 1ef2 03bd
00000090: fa79 84bd c92e b6bd 5ae7 423c 6f4f a3bd
000000a0: df23 e73a 97f1 8a3d 71f2 26bd 02cb 703c
000000b0: cbc1 02bd da17 8cbd f06b 8dbc 5ab6 15bd
000000c0: 184b b2bd 9c12 a83d ef8d 9f3d 820e b7bb
000000d0: eb9a bb3d e959 83bd 5665 71bd a84c 2fbd
000000e0: 0808 a2bd c680 8dbd 05d1 10bd ec7f 66bd
000000f0: a29f ebbc f380 833b 0820 f5bc d352 84bd
00000100: 55c3 a03c 3fb5 763d e9bb 163d 2faf fb3c
00000110: 0371 1f3d 1ea2 933d 25ba 4abd 9050 743d
00000120: cf2b 7fbd d909 02bd 9e6c 7dbd 2202 86bd
00000130: 6507 9dbd 13da a23d 34fd 213d 073b 363d

fc3.weight f4 [40, 80]
-0.11195775 0.09514583 -0.08531537 -0.005176144 -0.039019324 -0.041019622 0.012326886 -0.017669436
-0.1114905 0.049137454 -0.105619095 -0.13308269 0.06408573 0.013107238 -0.089250244 0.023269862
0.09437958 0.033065896 0.04910207 0.117746316 -0.07592535 -0.021138791 0.026184268 0.018673675
-0.11602762 -0.01037386 0.124261335 -0.066006035 0.03967247 0.037181728 0.051457055 0.056258693
0.10420557 -0.047296613 0.12469232 0.07049791 0.034945294 0.0389997 0.110013306 -0.006835247
-0.027719138 0.030521957 -0.11040053 -0.07373469 0.051301267 -0.036163412 0.1253415 0.017411873
-0.04436904 0.08775505 0.026905607 -0.014446954 -0.080782294 -0.059608154 -0.043924432 -0.0990335
0.07618301 0.058452386 -0.08834792 -0.08856038 0.036570977 0.06358772 0.042792067 -0.012212541
0.07918287 -0.013240302 -0.06301517 0.06406154 -0.008973102 -0.08838752 0.06402078 -0.10263134
-0.022525512 -0.0046971077 -0.09644107 -0.0845054 0.14067748 0.078401655 0.034637213 0.018905606
0.032801114 -0.056919325 -0.09479965 0.030484026 0.08540951 -0.03678452 0.03554225 -0.08584364
-0.10487915 0.077056415 0.0812407 -0.03750837 -0.028517809 -0.09535348 0.039511085 -0.12209104
0.03687943 -0.11487211 0.030460846 0.11473237 0.045867484 0.0063320766 -0.06704776 0.011596825
-0.0462666 0.109667994 0.03475025 -0.06848556 -0.084617086 -0.061912812 -0.009448295 -0.10314077
0.095324576 -0.02192646 0.07432973 0.06639384 0.05251718 -0.022345468 0.10374387 0.0931423
-0.0041773855 0.056948226 0.044482205 0.053335883 0.07059732 -0.118113644 -0.022448655 -0.018998504
0.10772763 -0.03715152 -0.0039342754 -0.06537741 0.0038265982 0.066192776 0.027344542 0.091243826
-0.11902728 0.0844775 0.087210305 0.042375986 -0.004332567 -0.10359972 -0.07344778 0.09283802
0.08835024 -0.090687424 0.040475324 -0.057559136 0.003833967 -0.08557543 -0.048777696 0.020235103
0.05916492 -0.098476306 -0.1035405 0.11042316 -0.0019003359 -0.05349832 -0.11080945 0.10138583
0.0677588 -0.0892309 0.09016952 0.06108229 -0.053868245 0.10742461 -0.105059296 -0.093914896
-0.08062419 -0.07236135 0.08899936 0.0517785 -0.121466234 -0.017661246 -0.011363365 -0.020049846
-0.004556853 0.0010599645 0.060770996 -0.068336286 0.07821294 -0.027948786 -0.09006043 0.09959064
-0.032566674 -0.021284968 -0.013609172 -0.0644583 0.11976844 0.07768033 0.071343854 0.036333144
0.099035665 0.011592001 0.019179381 0.08433269 0.1402441 0.02792559 -0.08638931 0.094766065
-0.058839273 0.062513866 -0.09989429 -0.057845067 0.003197012 -0.061891682 0.004258687 0.026492711
-0.081540324 0.08054781 -0.008648087 -0.0065887277 -0.025518155 -0.078307785 0.026286544 0.08180499
0.02064461 -0.08299849 -0.03726626 -0.10750292 0.038760986 -0.06841383 -0.011352784 -0.13343927
-0.02329723 0.0060407626 0.092129424 0.0660338 -0.04982697 -0.003527359 -0.08980694 0.041714165
0.003367305 0.09658873 -0.018368194 0.08508297 0.050806485 0.022529395 0.07990267 -0.08406679
0.07803764 0.07646846 -0.034381863 0.07503517 -0.081646696 -0.10760899 -0.13331 -0.07249569
0.034059558 -0.123772755 -0.021539463 0.0016690607 0.049774952 0.027515687 -0.08583094 0.04485405
00000000: 1b4a e5bd d1db c23d d3b9 aebd a59c a9bb
00000010: bad2 1fbd 3104 28bd b5f6 493c 7ebf 90bc
00000020: 2255 e4bd 5b44 493d d34e d8bd d446 08be
00000030: 613f 833d bebf 563c d5c8 b6bd 70a0 be3c
00000040: 154a c13d 1b70 073d 411f 493d fb24 f13d
00000050: c07e 9bbd 422b adbc 6480 d63c 89f9 983c
00000060: e49f edbd 1ff7 29bc ba7c fe3d 2c2e 87bd
00000070: 9a7f 223d de4b 183d a2c4 523d 846f 663d
00000080: bb69 d53d 18ba 41bd b05e ff3d 3561 903d
00000090: cc22 0f3d 26be 1f3d a84e e13d 35fa dfbb
000000a0: 3f13 e3bc 2f09 fa3c ac19 e2bd 3702 97bd
000000b0: 4721 523d 1620 14bd 8659 003e 58a3 8e3c
000000c0: 4fbc 35bd ebb8 b33d 2669 dc3c ebb2 6cbc
000000d0: 3071 a5bd ae27 74bd 1bea 33bd 13d2 cabd
000000e0: d705 9c3d c56b 6f3d c1ef b4bd 255f b5bd
000000f0: 73cb 153d 473a 823d bc46 2f3d 1c17 48bc
00000100: a12a a23d daed 58bc 190e 81bd b232 833d
00000110: eb03 13bc 8404 b5bd 541d 833d 6130 d2bd
00000120: 6c87 b8bc 32ea 99bb e582 c5bd 2b11 adbd
00000130: c20d 103e 0c91 a03d c0df 0d3d eedf 9a3c
00000140: 765a 063d 3d24 69bd 5226 c2bd a3b9 f93c
00000150: 2eeb ae3d 5dab 16bd c094 113d cace afbd
00000160: e1ca d6bd c1cf 9d3d 8661 a63d 60a2 19bd
00000170: 2e9e e9bc af48 c3bd 60d6 213d de0a fabd
00000180: e30e 173d 1242 ebbd 0689 f93c cef8 ea3d
00000190: 8bdf 3b3d 4f7d cf3b 5650 89bd 9c00 3e3c
000001a0: 0c82 3dbd 9d99 e03d 4756 0e3d 2842 8cbd
000001b0: b94b adbd 4a98 7dbd 06cd 1abc 783b d3bd
000001c0: 8839 c33d 1f9f b3bc 2f3a 983d 7ef9 873d
000001d0: 411c 573d d80d b7bc ab77 d43d 64c1 be3d
000001e0: 73e2 88bb 8b42 693d f932 363d ba76 5a3d
000001f0: 5495 903d 91e5 f1bd 3ee6 b7bc c0a2 9bbc
00000200: 4ea0 dc3d 312c 18bd 18eb 80bb 97e4 85bd
00000210: aac7 7a3b 1490 873d a901 e03c 0bde ba3d
00000220: 93c4 f3bd 8a02 ad3d 519b b23d 7192 2d3d
00000230: 35f8 8dbb 172c d4bd ca6b 96bd dc21 be3d
00000240: f8f0 b43d 54ba b9bd 74c9 253d 21c3 6bbd
00000250: 4b43 7b3b 2c42 afbd 1fcb 47bd 16c4 a53c
00000260: ea56 723d f2ad c9bd 0b0d d4bd 8a25 e23d
00000270: b114 f9ba 0e21 5bbd 11f0 e2bd 60a3 cf3d
00000280: 20c5 8a3d b1be b6bd ccaa b83d 6c31 7a3d
00000290: f3a4 5cbd 6f01 dc3d 5429 d7bd 7456 c0bd
000002a0: 4c1e a5bd 3032 94bd 4c45 b63d b115 543d
000002b0: 4ac3 f8bd 51ae 90bc 682d 3abc 933f a4bc
000002c0: a751 95bb 82ee 8a3a 02eb 783d e5f3 8bbd
000002d0: 1b2e a03d daf4 e4bc 9a71 b8bd 2df6 cb3d
000002e0: a264 05bd d05d aebc 01f9 5ebc b702 84bd
000002f0: 2849 f53d dd16 9f3d ba1c 923d 10d2 143d
00000300: 36d3 ca3d 60ec 3d3c 141e 9d3c 9eb6 ac3d
00000310: 269c 0f3e 35c4 e43c e1ec b0bd b614 c23d
00000320: 7301 71bd 4507 803d 6195 ccbd f3ee 6cbd
00000330: f684 513b 2282 7dbd 758c 8b3b 3e07 d93c
00000340: 9dfe a6bd 40f6 a43d b5b0 0dbc 41e6 d7bb
00000350: 730b d1bc d55f a0bd e156 d73c 6089 a73d
00000360: e31e a93c 1dfb a9bd 81a4 18bd 7e2a dcbd
00000370: d7c3 1e3d 8d1c 8cbd 0701 3abc 4ea4 08be
00000380: d5d9 bebc 97f1 c53b 5aae bc3d bb3c 873d
00000390: 5d17 4cbd 442b 67bb b3ec b7bd 79dc 2a3d
000003a0: 01ae 5c3b 50d0 c53d e578 96bc fb3f ae3d
000003b0: 761a 503d 918f b83c 03a4 a33d 362b acbd
000003c0: 33d2 9f3d 7f9b 9c3d ffd3 0cbd 0aac 993d
000003d0: 6236 a7bd 1a62 dcbd 6b82 08be 9f78 94bd
000003e0: 0982 0b3d 927c fdbd 8773 b0bc 62c4 da3a
000003f0: d2e0 4b3d 9468 e13c 22c8 afbd e1b8 373d

fc3.bias f4 [40]
-0.025497613 -0.06021333 -0.05529821 -0.025094206 0.07563005 0.027911779 -0.057238556 -0.0047288267
-0.0694433 0.10227061 0.02745237 0.09701392 -0.09274704 0.00035547325 -0.10259913 0.047502007
-0.10797314 0.0011504716 0.10628244 -0.026619744 0.076045655 -0.05842191 0.074178405 -0.09647884
-0.012670468 0.110244215 -0.008766083 -0.066515 0.06075645 0.025600992 -0.043559268 0.010345787
0.081081174 -0.025825549 -0.09286034 0.06539738 -0.018687893 0.02873159 -0.0021680603 0.112640224
00000000: 5fe0 d0bc 41a2 76bd 6080 62bd 5d92 cdbc
00000010: ede3 9a3d 3ea7 e43c fa72 6abd 46f4 9abb
00000020: 4a38 8ebd 4173 d13d cbe3 e03c 3caf c63d
00000030: 29f2 bdbd d05e ba39 7e1f d2bd 7791 423d
00000040: 0621 ddbd 6ccb 963a 9caa d93d a611 dabc
00000050: d3bd 9b3d d04b 6fbd d9ea 973d b396 c5bd
00000060: cb97 4fbc b8c7 e13d 9e9f 0fbc 0439 88bd
00000070: c1db 783d 2cb9 d13c 346b 32bd 6081 293c
00000080: e30d a63d 1a90 d3bc 902d bebd 10ef 853d
00000090: 5a17 99bc 835e eb3c 0416 0ebb ebaf e63d
